results/FullyCont4/bachelor.onnx (onnx, 872319 bytes, 12 tensors)

network_body._body_endoder.seq_layers.0.weight f4 [256, 7]
-0.28002888 -0.80363226 0.12990205 -0.33883792 -0.4743922 0.13668428 -0.26373377 -0.24295226
-0.11844894 -0.5340988 -0.48226604 -0.63176966 -0.7251011 -0.50734705 0.025389997 0.9743868
0.59699154 0.14252058 0.75615454 -0.6939854 0.21287805 0.114295304 0.36943194 0.20991151
0.14525123 -0.23194234 0.14441255 0.0048253224 0.35741782 0.41011265 0.5978109 -0.3175521
0.18270984 0.14306752 -0.22999571 -0.3873808 -0.03194118 0.011856247 0.08793753 0.024230123
-0.44771954 -0.02005431 -0.26644692 -0.055128057 0.66367877 -0.48641786 -0.6950198 0.07648275
-0.5417361 0.008295083 0.42174038 0.037300933 -0.13047409 0.17153199 -0.04850643 -0.19096807
-0.37006307 0.55429447 0.2194817 -0.41194728 0.03980511 0.16541545 0.4039572 -0.40660942
-0.41353306 0.07086083 0.41504648 -0.48576108 -0.9048945 -0.52081287 -0.7385948 0.3609016
-0.6075092 0.33188182 -0.04393795 0.21931328 0.6690757 -0.66748935 0.42369068 0.069233686
-0.5612984 -0.59561235 -0.23348665 -0.51597196 0.89325684 0.2800855 -0.14233647 -0.16558795
-0.4199514 0.606998 0.4756252 -0.101465546 -0.3733136 -0.21683861 -0.39426175 -0.0066890167
-0.102460526 -0.2259178 -0.18012518 -0.16647874 -0.32388237 -0.44072425 0.34244195 -0.14078106
-0.79728156 -0.08016706 -0.49042034 -0.024239808 -0.16416028 0.02809285 0.28445378 -0.37277552
0.31538442 0.17666373 0.32085085 0.18099652 -0.4619722 -0.03648758 -0.5997224 -0.11747318
-0.7759114 0.46110386 0.35981482 0.584121 0.47768098 -0.47079697 0.26234093 -0.91985023
-0.23112792 0.026175147 -0.1383283 0.4252777 0.365111 0.03714444 -0.82897943 -0.09772564
0.14835504 -0.033156395 -0.14742093 -0.05117943 -0.15633924 0.38000906 -0.4678205 0.7353476
0.0032576786 0.05294104 -0.59570676 -0.07026862 -0.62957764 -0.45684615 0.20422313 -0.8228282
-0.09237893 -0.7896956 0.016226241 -0.063953236 -0.112761386 0.14246573 0.355575 -0.052478146
-0.28660402 0.25603563 0.5144541 0.32845226 -0.097357474 -0.2255101 0.77381617 0.5764017
0.85502344 0.4180303 -0.11511414 0.46975982 0.03562902 -0.1323071 0.8366474 0.21752915
0.062142763 0.46661606 -0.37681893 -0.14267747 -0.47178164 -0.31670216 -0.050449174 0.28158668
0.15871389 -0.27872613 0.33977574 -0.7796685 0.6078767 0.64936227 0.6642283 -0.20684017
-0.48147854 0.2245264 0.23288065 0.37627465 -0.41337213 -0.50138766 -0.20874563 0.23646489
0.13120057 -0.25897822 0.11496997 0.27562588 -0.4506372 -0.22317994 -0.43006784 -0.4070205
-0.42888215 -0.44151112 0.49818644 -0.22569363 -0.34560683 -0.3090177 0.5257749 -0.5191238
0.08434853 -0.6566923 0.80419314 -0.31561112 0.1900106 0.032263692 0.10783506 0.5783557
-0.17997605 -0.68200684 0.4191358 0.50234354 -0.39183804 -0.59399766 0.20819831 0.54459804
0.21233536 0.1901187 0.38743377 0.5893489 0.13468641 0.34780905 -0.17039336 0.3303549
-0.26638007 0.2767536 0.35443252 -0.017577995 -0.4281368 0.25045642 0.10266971 0.04119724
0.055270504 -0.20121004 0.35828805 -0.20266819 0.77196455 0.082613975 0.5415558 0.439733
00000000: f25f 8fbe d8ba 4dbf 0b05 053e 2a7c adbe
00000010: 89e3 f2be f7f6 0b3e 1d08 87be 7ac8 78be
00000020: 5c95 f2bd b3ba 08bf 93eb f6be a8bb 21bf
00000030: 3aa0 39bf 7fe1 01bf affe cf3c 6a71 793f
00000040: 70d4 183f eaf0 113e 5893 413f 07a9 31bf
00000050: b4fc 593e a813 ea3d 2f26 bd3e 0bf3 563e
00000060: bdbc 143e 4b82 6dbe e2e0 133e bd1d 9e3b
00000070: 78ff b63e 49fa d13e 230a 193f 3096 a2be
00000080: 4a18 3b3e 4b80 123e ff83 6bbe c756 c6be
00000090: c1d4 02bd b440 423c 9718 b43d 407e c63c
000000a0: 7f3b e5be f048 a4bc bb6b 88be f5cd 61bd
000000b0: dae6 293f c30b f9be d1ec 31bf fda2 9c3d
000000c0: 38af 0abf 1ae8 073c 5bee d73e ddc8 183d
000000d0: 009b 05be 15a6 2f3e aeae 46bd 228d 43be
000000e0: e878 bdbe 3ee6 0d3f d0bf 603e c1ea d2be
000000f0: af0a 233d ab62 293e 7ad3 ce3e 1c2f d0be
00000100: 9bba d3be 7c1f 913d f980 d43e adb5 f8be
00000110: 2aa7 67bf fe53 05bf 8c14 3dbf 18c8 b83e
00000120: b985 1bbf 6aec a93e 48f8 33bd a993 603e
00000130: 8c48 2b3f 95e0 2abf fced d83e 64ca 8d3d
00000140: 40b1 0fbf 0d7a 18bf 2017 6fbe bd16 04bf
00000150: 7bac 643f 5e67 8f3e a7c0 11be e38f 29be
00000160: df03 d7be 3964 1b3f 2585 f33e 2bcd cfbd
00000170: f622 bfbe f10a 5ebe addc c9be 8a2f dbbb
00000180: d3d6 d1bd ff56 67be bc72 38be 6779 2abe
00000190: e9d3 a5be 9ca6 e1be 8d54 af3e e928 10be
000001a0: a51a 4cbf a12e a4bd 6018 fbbe 9092 c6bc
000001b0: a219 28be fa22 e63c eda3 913e 6fdc bebe
000001c0: 117a a13e 56e7 343e 9046 a43e 2757 393e
000001d0: 9f87 ecbe 0074 15bd 6887 19bf c795 f0bd
000001e0: 21a2 46bf ce15 ec3e a639 b83e f488 153f
000001f0: 9a92 f43e 4d0c f1be 8d51 863e 4e7b 6bbf
00000200: ccac 6cbe 436d d63c efa5 0dbe 00be d93e
00000210: d4ef ba3e c524 183d ff37 54bf 6124 c8bd
00000220: 62ea 173e 00cf 07bd 83f5 16be 86a1 51bd
00000230: 6517 20be 8c90 c23e 2b86 efbe be3f 3c3f
00000240: c77e 553b b4d8 583d 3d80 18bf ffe8 8fbd
00000250: 002c 21bf bde7 e9be de1f 513e dea4 52bf
00000260: 2a31 bdbd 7e29 4abf e5ec 843c eaf9 82bd
00000270: 71ef e6bd 89e2 113e ed0d b63e 53f3 56bd
00000280: c3bd 92be 1a17 833e 44b3 033f e52a a83e
00000290: 5b63 c7bd 1fec 66be d118 463f 108f 133f
000002a0: d1e2 5a3f 1108 d63e f6c0 ebbd 5c84 f03e
000002b0: bcef 113d 837b 07be 862e 563f f6bf 5e3e
000002c0: 6989 7e3d 4de8 ee3e 69ee c0be 0b1a 12be
000002d0: 5d8d f1be c926 a2be cba3 4ebd 212c 903e
000002e0: e585 223e 31b5 8ebe 16f7 ad3e 5b98 47bf
000002f0: cf9d 1b3f 9b3c 263f de0a 2a3f e9cd 53be
00000300: 5b84 f6be 40ea 653e 4478 6e3e 12a7 c03e
00000310: 83a5 d3be f15a 00bf 6ac1 55be da23 723e
00000320: 7159 063e cb98 84be 6075 eb3d d61e 8d3e
00000330: ebb9 e6be 4889 64be da31 dcbe fe64 d0be
00000340: 7196 dbbe bf0d e2be 4b12 ff3e 3b1c 67be
00000350: 61f3 b0be 9137 9ebe 2f99 063f 4ce5 04bf
00000360: ecbe ac3d fd1c 28bf 9adf 4d3f c897 a1be
00000370: 2492 423e ef26 043d a1d8 dc3d 1f0f 143f
00000380: a44b 38be 0098 2ebf f898 d63e 9699 003f
00000390: ff9e c8be 3b10 18bf f031 553e c76a 0b3f
000003a0: 716e 593e 7aae 423e b85d c63e 92df 163f
000003b0: 3ceb 093e 0714 b23e 997b 2ebe 4724 a93e
000003c0: f862 88be a6b2 8d3e 2e78 b53e baff 8fbc
000003d0: bf34 dbbe d33b 803e 7f44 d23d 70be 283d
000003e0: 5363 623d 010a 4ebe 8871 b73e 4088 4fbe
000003f0: 789f 453f 8431 a93d 67a3 0a3f af24 e13e

network_body._body_endoder.seq_layers.0.bias f4 [256]
0.006351022 0.024843268 0.014149395 0.0033995027 0.0033414653 0.005480547 0.029123941 -0.0042937784
0.028666189 -0.027133243 0.01347833 0.0012301527 0.021990297 -0.013713373 0.012286648 -0.004839804
0.008375023 0.029254891 0.0036492667 -0.008359006 -0.020626698 0.014720063 -0.008472929 0.011029814
0.011667626 0.0054990025 0.0150020085 0.048544854 0.019308954 0.009079715 -0.0046200575 0.014688033
-0.005290138 -0.0026762525 0.0031546645 0.03062408 -0.009524792 -0.003533744 0.018891525 -0.006066247
0.0333937 0.005706573 -0.023246018 0.00432685 -0.009117645 -0.013851706 -0.018676275 -0.0097540105
0.009234943 -0.0029018975 -0.010808444 -0.034809377 0.022240931 0.021125041 0.021756511 -0.01013846
0.03260496 -0.003561038 0.025511116 -0.012647463 0.0043489565 -0.013102709 0.02798301 0.013722268
0.023835476 0.014921279 0.0058627003 0.022496223 0.003998285 0.00733972 0.030087506 -0.021335779
0.00699795 -0.02043211 0.0064774756 -0.0076660225 -0.010650338 -0.01713384 0.025411382 -0.014872951
-0.0154715115 -0.009294263 -0.016273929 -0.036807686 -0.010310739 0.00715482 0.004112273 -0.010533455
0.012744848 -0.0053411946 -0.00643767 -0.018482521 -0.0012022007 0.008583327 -0.018670265 0.018948443
0.013575211 -0.010644019 -0.01330971 0.020433437 -0.011403301 0.017115036 -0.009026387 0.01455435
0.007549129 0.0047370805 0.0049094744 0.0016336596 0.0026822046 0.04086471 0.0019807308 -0.01491304
-0.0010074041 -0.011089477 0.013151678 -0.0031606166 0.00057967275 -0.008905743 -0.008954464 -0.0051510315
-0.0029985558 -0.012342193 0.014536681 0.00070987345 0.02020108 0.033473693 0.02798441 -0.005871501
0.0053661293 -0.0034477168 -0.014822655 0.018422378 -0.004683242 -0.012206343 0.0019670124 -0.012541048
-0.019436026 0.017597582 -0.012781998 0.0079994695 0.013240243 -0.0047820224 0.011455352 -0.009751067
0.0139708845 0.013590738 -0.0035882487 -0.009139101 0.00709609 0.0028072507 -6.2104824e-05 -0.04221194
-0.0047022942 0.023831312 -0.0014796774 -0.0017826754 0.017050987 0.017820448 -0.012789345 -0.010813606
-0.0052667595 0.026809031 -0.0074481647 0.016413828 -0.004177626 -0.030794825 -0.003128918 0.0007364547
-0.0088235745 -0.0039595994 -0.02833277 0.045363322 -0.0027695447 -0.0025881275 -0.0078008403 -0.014529202
-0.022036886 -0.0012601259 0.011011111 -0.00553565 0.026859645 0.008694998 -0.028545205 0.03011204
0.017578585 0.00791543 0.011281524 0.0112554915 0.0068703857 0.030488996 0.025957918 -0.007511552
0.008586399 0.0012725374 0.01570626 0.0021957038 -0.0012694619 0.005168308 -0.022141466 0.013479392
0.00097383925 -0.0128514 -0.008402228 -0.001659119 0.0050967936 -0.0052800537 -0.009728491 -0.017789004
0.02473965 -0.022904696 0.03628153 -0.0037303537 0.006131231 -0.016163936 0.00096072233 -0.006586534
-0.015306233 0.03708999 -0.008839885 0.008344541 -0.004745651 -0.005886317 0.022090727 0.020651791
0.005454789 -0.024016311 0.018989567 0.015112094 -0.023017764 0.016788878 -0.020477604 -0.008767567
-0.017846603 -0.0034757329 0.020263122 0.023752859 -0.0043181344 -0.0067833303 0.003933574 -0.019060941
-0.008114315 0.0033882495 -0.016648332 0.00087093236 -0.008106657 0.015697978 -0.0075686043 0.021834413
0.00050269486 -0.0093585765 0.008449168 0.033971835 -0.01818219 -0.016319137 -0.0049526836 -0.0030031065
00000000: 3c1c d03b 1c84 cb3c ddd2 673c 31ca 5e3b
00000010: 7cfc 5a3b 2996 b33b 5595 ee3c d3b2 8cbb
00000020: 5bd5 ea3c 8946 debc 37d4 5c3c 133d a13a
00000030: ff24 b43c 0eae 60bc f04d 493c 3897 9ebb
00000040: 6437 093c f4a7 ef3c 8928 6f3b 36f4 08bc
00000050: 52f9 a8bc 6b2c 713c 0ad2 0abc 65b6 343c
00000060: 9229 3f3c fa30 b43b fcca 753c f8d6 463d
00000070: d02d 9e3c 16c3 143c da63 97bb 13a6 703c
00000080: e558 adbb 1164 2fbb 7dbe 4e3b 5adf fa3c
00000090: e00d 1cbc 6396 67bb 66c2 9a3c 5ec7 c6bb
000000a0: d5c7 083d 34fe ba3b 6f6e bebc 40c8 8d3b
000000b0: 2d62 15bc 44f2 62bc fdfe 98bc 49cf 1fbc
000000c0: 294e 173c c32d 3ebb e615 31bc 4794 0ebd
000000d0: 9d32 b63c 6c0e ad3c b63a b23c c91b 26bc
000000e0: c78c 053d 4e60 69bb b0fc d03c 4e37 4fbc
000000f0: b181 8e3b bfac 56bc a03c e53c 5dd3 603c
00000100: 9e42 c33c 6178 743c e51b c03b 004a b83c
00000110: 0c04 833b 0982 f03b 137a f63c 5fc8 aebc
00000120: 0f4f e53b 3e61 a7bc 0141 d43b 4233 fbbb
00000130: c17e 2ebc 445c 8cbc 882b d03c aead 73bc
00000140: 397c 7dbc f746 18bc e750 85bc a8c3 16bd
00000150: 60ee 28bc fb72 ea3b 3fc0 863b 8394 2cbc
00000160: c4cf 503c 3005 afbb 17f3 d2bb a868 97bc
00000170: 2993 9dba 15a1 0c3c 62f2 98bc c439 9b3c
00000180: 906a 5e3c 4064 2ebc f810 5abc 0664 a73c
00000190: e9d4 3abc d534 8c3c 69e3 13bc 5e75 6e3c
000001a0: af5e f73b 8339 9b3b a8df a03b 8520 d63a
000001b0: edc7 2f3b c161 273d 26cf 013b d355 74bc
000001c0: df0a 84ba a3b0 35bc 237a 573c 5922 4fbb
000001d0: 2ef5 173a 65e9 11bc bfb5 12bc fcc9 a8bb
000001e0: 6b83 44bb e936 4abc 422b 6e3c cd16 3a3a
000001f0: bc7c a53c b61b 093d 903f e53c b865 c0bb
00000200: 5bd6 af3b 17f3 61bb b9da 72bc 87ea 963c
00000210: e275 99bb 1dfd 47bc fee8 003b f878 4dbc
00000220: 4d38 9fbc ce28 903c 966b 51bc 3510 033c
00000230: 9bed 583c 83b2 9cbb 3baf 3b3c f0c2 1fbc
00000240: 23e6 643c b0ab 5e3c d328 6bbb 2bbc 15bc
00000250: 5186 e83b daf9 373b 463e 82b8 6de6 2cbd
00000260: b415 9abb e239 c33c bcf1 c1ba a9a8 e9ba
00000270: 83ae 8b3c 30fc 913c 678a 51bc 8d2b 31bc
00000280: c894 acbb 9d9e db3c bc0f f4bb 4b76 863c
00000290: 78e4 88bb 6e45 fcbc 880e 4dbb a30e 413a
000002a0: c190 10bc 87bf 81bb 201a e8bc e4ce 393d
000002b0: 4081 35bb 939d 29bb 319e ffbb e40b 6ebc
000002c0: b386 b4bc cf2a a5ba f267 343c 6664 b5bb
000002d0: c208 dc3c 7775 0e3c a2d7 e9bc 86ad f63c
000002e0: f700 903c b8af 013c 24d6 383c f468 383c
000002f0: f920 e13b 0fc4 f93c b3a5 d43c 7723 f6bb
00000300: f8ad 0c3c 45cb a63a 6aaa 803c cce5 0f3b
00000310: 1364 a6ba e95a a93b 0562 b5bc abd8 5c3c
00000320: 3f49 7f3a ae8e 52bc 80a9 09bc cc76 d9ba
00000330: 0103 a73b 4d04 adbb 4064 1fbc 3fba 91bc
00000340: ceaa ca3c a1a2 bbbc f19b 143d f378 74bb
00000350: 7ee8 c83b 3b6a 84bc fcd8 7b3a dad3 d7bb
00000360: ffc6 7abc aceb 173d 2ad5 10bc 8bb7 083c
00000370: 6881 9bbb 02e2 c0bb 9df7 b43c f22d a93c
00000380: 16be b23b dbbd c4bc 0290 9b3c b798 773c
00000390: c08f bcbc d488 893c a6c0 a7bc d7a5 0fbc
000003a0: 0a33 92bc 1fc9 63bb d9fe a53c 5b95 c23c
000003b0: 237f 8dbb b346 debb 36e5 803b b125 9cbc
000003c0: e7f1 04bc 650d 5e3b 1562 88bc 484f 643a
000003d0: c9d1 04bc 0c99 803c 0e02 f8bb 15de b23c
000003e0: 48c7 033a b754 19bc 616e 0a3c 0d26 0b3d
000003f0: d1f2 94bc b6af 85bc 1f4a a2bb c4cf 44bb

network_body._body_endoder.seq_layers.2.weight f4 [256, 256]
0.06843041 0.044991888 -0.005376658 0.14439341 0.0017918824 0.07106018 0.021487799 -0.12378302
-0.023343012 -0.01683759 -0.041997008 0.010608165 -0.041418288 -0.08228344 -0.035717823 0.049451403
0.015584399 -0.07822962 0.0074319425 -0.026870292 0.036527626 0.072460756 -0.030295536 0.0076971594
-0.064336285 0.043059114 0.1257752 0.10336892 0.00951086 -0.09388062 0.086154684 -0.0045496533
-0.048664007 0.025440274 0.045018863 -0.033000473 -0.03357298 -0.026981102 0.030946873 -0.11383891
-0.0077913576 0.067297824 0.009411861 0.01918336 0.09842435 0.08820449 0.021622237 -0.046378743
-0.05176606 0.05724059 -0.108909 0.039178897 -0.063673824 0.021973444 0.1056544 0.01111738
0.015087424 0.038280305 -0.13317463 -0.041674905 -0.0059411987 0.0009187715 -0.032443672 -0.038652226
-0.040541492 -0.09968396 0.063452505 0.04862905 -0.081878476 -0.06303867 0.07636175 0.005323141
0.11143914 -0.019456789 0.020410828 -0.038021553 0.09839466 -0.054312047 0.008928866 0.016994309
0.06451308 -0.040224414 0.06602437 -0.024721747 -0.06961993 0.04958206 0.16005853 0.018391998
-0.07014435 -0.025528751 0.059745032 0.1318744 0.06436366 0.029081909 0.051137883 -0.08125033
0.008684786 -0.057537258 0.052044313 0.10533978 -0.15929492 0.07271897 0.009552049 -0.0035431674
-0.05830848 -0.045817975 0.022889854 -0.07107924 -0.07139344 0.031139696 -0.043822557 -0.082513295
0.091823354 -0.017204393 0.15195736 -0.02543136 -0.014183406 0.08667087 -0.025163274 -0.106352665
-0.008028614 -0.061477836 0.0073760273 -0.099029884 0.052154187 0.026879845 0.025389396 -0.030326812
-0.11352616 0.028955119 0.004078622 -0.017140575 -0.091635406 0.1011299 -0.014043239 0.057194658
0.008975423 -0.01168792 0.0041704266 -0.049572125 0.044133253 -0.12610503 0.090524435 0.0065080123
0.025524467 -0.017713562 -0.05226963 0.055689104 -0.08029237 -0.0639311 0.021865567 -0.14376749
-0.019117344 -0.042435348 0.0068768626 -0.005449328 -0.012376385 -0.030465318 -0.0016028739 -0.001116336
0.04937097 0.026056534 0.044046648 -0.080088735 -0.022800237 -0.017793344 -0.0038276906 0.038355015
-0.07265578 -0.07845833 0.05947431 -0.05205309 0.09262446 -0.059966728 -0.03994994 0.061581492
0.031086812 0.051721755 -0.11442541 0.0227284 0.033890452 0.011079368 0.03992866 0.02023593
0.019093297 -0.13798077 0.034041274 0.028843677 -0.08220592 0.04675879 -0.0704559 -0.04897881
0.0072148833 -0.008737209 0.0831949 -0.04908495 -0.061391246 -0.029491058 -0.0521224 0.013065147
0.0002453035 -0.013964972 0.10024305 -0.058212854 0.055406027 -0.049481165 0.006892809 0.061870918
-0.02396823 -0.060684547 0.17287166 -0.038674936 -0.0049425894 0.036169015 0.033501226 0.09494061
-0.06982821 -0.038829595 0.078020096 -0.064935416 0.033340506 -0.021664629 0.042557236 -0.027745284
-0.05964334 -0.04202237 0.046815112 -0.074511826 -0.058442507 -0.012379521 -0.079034165 -0.009346704
0.032185107 -0.051733147 -0.0020041144 -0.027440088 -0.074052565 -0.050188065 -0.031174893 0.018597122
-0.023853257 -0.05811241 0.036143336 0.052613627 0.027896438 -0.015181435 -0.014549188 -0.016214542
-0.061513104 0.09779433 -0.10364162 -0.03506935 0.06816178 -0.09355635 0.065714054 0.0076594097
00000000: 3e25 8c3d 6a49 383d ad2e b0bb dedb 133e
00000010: 99dd ea3a 0088 913d 2e07 b03c f481 fdbd
00000020: d839 bfbc fcee 89bc 0e05 2cbd decd 2d3c
00000030: 39a6 29bd 3884 a8bd da4c 12bd 8e8d 4a3d
00000040: b555 7f3c da36 a0bd a787 f33b 161f dcbc
00000050: fe9d 153d 4e66 943d 582e f8bc 7438 fc3b
00000060: bec2 83bd c15e 303d 37cb 003e 16b3 d33d
00000070: 70d3 1b3c 7c44 c0bd de71 b03d 4215 95bb
00000080: e953 47bd 1f68 d03c b365 383d 812b 07bd
00000090: d283 09bd 7907 ddbc 4c84 fd3c 6024 e9bd
000000a0: a54e ffbb 71d3 893d 3534 1a3c 6c26 9d3c
000000b0: b592 c93d 8ea4 b43d 1e21 b13c a3f7 3dbd
000000c0: a608 54bd 1c75 6a3d af0b dfbd 0d7a 203d
000000d0: 6c67 82bd a701 b43c 5661 d83d ac25 363c
000000e0: 3e31 773c cfcb 1c3d ee5e 08be 4eb3 2abd
000000f0: 63ae c2bb b6d9 703a a8e3 04bd cc51 1ebd
00000100: d60e 26bd 1b27 ccbd 63f3 813d 412f 473d
00000110: e7af a7bd 6b1a 81bd 8d63 9c3d be6d ae3b
00000120: 343a e43d d863 9fbc 9c34 a73c 7dbc 1bbd
00000130: 2483 c93d 4f76 5ebd 614a 123c a637 8b3c
00000140: 6f1f 843d 5bc2 24bd c937 873d 4385 cabc
00000150: e594 8ebd 8f16 4b3d 62e6 233e d1aa 963c
00000160: d7a7 8fbd ac21 d1bc 35b7 743d 150a 073e
00000170: 18d1 833d 2f3d ee3c f575 513d 9366 a6bd
00000180: a24a 0e3c 30ac 6bbd 6b2c 553d 62bc d73d
00000190: 351e 23be afed 943d 3380 1c3c 7c34 68bb
000001a0: dfd4 6ebd a1ab 3bbd 8183 bb3c fe91 91bd
000001b0: b936 92bd ad18 ff3c 487f 33bd bbfc a8bd
000001c0: e20d bc3d 3af0 8cbc b69a 1b3e 6d55 d0bc
000001d0: 8461 68bc 7f80 b13d 3623 cebc 6dcf d9bd
000001e0: 738a 03bc 2fd0 7bbd 9ab2 f13b 2ed0 cabd
000001f0: a19f 553d 1f33 dc3c 6cfd cf3c ef6f f8bc
00000200: 6780 e8bd 4933 ed3c f6a5 853b 646a 8cbc
00000210: 58ab bbbd 311d cf3d 9d15 66bc f244 6a3d
00000220: a70d 133c b17e 3fbc 13a8 883b 240c 4bbd
00000230: 12c5 343d ad21 01be e064 b93d 2a41 d53b
00000240: b018 d13c 081c 91bc ae18 56bd 421a 643d
00000250: 5370 a4bd 4fee 82bd 6b1f b33c c937 13be
00000260: fa9b 9cbc b0d0 2dbd 4e57 e13b 4790 b2bb
00000270: 52c6 4abc 6792 f9bc 8617 d2ba 0552 92ba
00000280: 3739 4a3d 8374 d53c 426a 343d 9005 a4bd
00000290: 90c7 babc 59c3 91bc fed9 7abb 261a 1d3d
000002a0: 8ecc 94bd c3ae a0bd 569b 733d 9f35 55bd
000002b0: e5b1 bd3d ac9f 75bd 8ca2 23bd e03c 7c3d
000002c0: c5a9 fe3c 31da 533d df57 eabd e930 ba3c
000002d0: b7d0 0a3d 3d86 353c 3c8c 233d d2c5 a53c
000002e0: 8c69 9c3c d54a 0dbe dd6e 0b3d 9349 ec3c
000002f0: 945b a8bd 2586 3f3d 2f4b 90bd 019e 48bd
00000300: d46a ec3b 8326 0fbc 1662 aa3d 4d0d 49bd
00000310: 6375 7bbd 3b97 f1bc 4c7e 55bd 330f 563c
00000320: 149c 8039 57cd 64bc 3a4c cd3d 9a70 6ebd
00000330: 6ef1 623d c3ac 4abd 13dd e13b 5c6c 7d3d
00000340: 0559 c4bc 5c90 78bd 4505 313e 9c69 1ebd
00000350: 72f5 a1bb f625 143d 9538 093d 3970 c23d
00000360: 1802 8fbd c80b 1fbd 00c9 9f3d dcfc 84bd
00000370: 0e90 083d 057a b1bc 7f50 2e3d 144a e3bc
00000380: 934c 74bd a61f 2cbd 34c1 3f3d a899 98bd
00000390: 6961 6fbd 79d3 4abc aadc a1bd eb22 19bc
000003a0: 88d4 033d 23e6 53bd 7657 03bb 09ca e0bc
000003b0: dfa8 97bd 0092 4dbd 7d62 ffbc fe58 983c
000003c0: e867 c3bc 4707 6ebd 090b 143d 6381 573d
000003d0: 1287 e43c 8ebb 78bc b85f 6ebc 5cd4 84bc
000003e0: 2af5 7bbd 6548 c83d 0f42 d4bd e1a4 0fbd
000003f0: 6798 8b3d 799a bfbd 1795 863d c9fb fa3b

network_body._body_endoder.seq_layers.2.bias f4 [256]
0.0002648524 -0.0130852545 -0.015314613 -0.023426453 0.0025506662 -0.027372329 0.0057795686 0.010476812
0.012979821 -0.02096198 -0.020359403 -0.012004354 0.020472629 -0.009443341 0.023498897 -0.02298969
-0.0025333806 0.0075220233 -0.009666833 -0.000112334936 -0.007963942 -0.002185096 0.01094479 0.032636054
0.014421015 0.007932906 0.002498157 0.0024186748 -0.033539165 0.013965554 0.024161004 -0.018268438
0.002392464 0.0035584937 -0.0010638987 -0.001495481 0.0081505375 0.03245359 0.039751146 -0.025862431
-0.021337636 -0.011070166 0.014730315 -0.007019268 -0.014109906 -0.0154999085 0.039587338 -0.024685696
0.013084468 -0.013616748 0.015613788 0.007979097 -0.005549398 -0.0034097568 -0.009251656 -0.026324015
0.010765629 -0.024726434 0.014506774 0.012440862 0.009922607 -0.020758284 0.031946566 -0.005856512
-0.02283734 -0.0013767981 -0.010938068 0.0074853185 -0.0040246113 -0.004097523 0.0041356827 0.010101437
0.021276208 0.031963002 0.012543386 -0.012069367 0.01176789 -0.0018401552 -0.008447209 0.00518977
0.0034066625 0.02151589 -0.00855898 -0.015557179 0.022372028 -0.004954594 0.018886851 0.0103641935
-0.00033731252 -0.007340111 0.0070378035 0.0065907533 -0.02269693 0.007015683 -0.00083522213 -0.008759319
0.016528744 -0.033733163 -0.013778477 -0.0224942 -0.0130111845 0.0062521254 -0.00036731164 -0.017467257
0.0029241426 0.0157831 -0.022959014 0.008906076 0.00956122 0.014396551 -0.0065452876 -0.005835569
-0.004742901 0.020985655 -0.015198192 -0.015848473 -0.0184495 -0.026346257 -0.01934575 0.016119087
-0.007851195 -0.024480743 -0.030061593 -0.030213341 -0.010700293 -0.007943697 -0.012856862 -0.023286244
0.013119222 -0.03328087 -0.007438382 0.029130844 0.017140787 -0.013730297 0.0288678 0.015398071
0.0039990093 -0.021035252 -0.009773784 0.0034161257 -0.021685552 0.0141998315 0.017386027 0.01573388
-0.014185677 0.015022817 -0.012191814 -0.021009278 0.008906551 0.017857015 -0.005477398 -0.005668911
-0.0131132305 -0.008303152 -0.0074953153 0.01356593 0.015947979 -0.010752487 0.016762326 0.02136789
-0.02061107 -0.021143971 0.0026360196 0.0017292241 -0.011044452 0.0056646303 0.011119282 0.0009995931
-0.013012551 0.0126051735 -0.022787528 -0.011479722 0.01159713 0.0007141907 -0.0041840547 -0.009714855
-0.0063984515 -0.019390954 -0.014486305 -0.001136882 0.0039039804 -0.0023174027 -0.014919722 -0.022694614
0.0036112452 -0.0016055523 0.022750257 0.010712342 0.004157335 -0.001295445 -0.023888715 0.0067559965
-0.009899818 0.012721193 0.013606108 -0.0062584267 -0.0043134084 -0.014701216 0.0064522317 -0.0044978317
0.015081168 0.006711145 -0.00246454 0.0033904968 0.0076583265 -0.0047075576 -0.03517714 0.0070535163
0.028830428 0.022735247 -0.00054391 -0.011519468 0.0052897064 -0.0090886885 0.018433483 -0.023485515
-0.0106923655 0.0032919017 0.0061600474 -0.016515266 0.0020443883 -0.017351586 0.024454355 0.020624515
0.0061850375 0.0035662565 0.01582561 -0.025439367 0.007350078 -0.017672261 -0.041716516 0.0084133865
-0.019761005 -0.0052417023 0.01092178 -0.0019106638 0.0023910229 0.017497623 -0.030184038 0.00055918953
0.018141065 0.015616487 0.0011683605 -2.592778e-05 0.011682116 0.00513028 0.025574274 -0.014179263
-0.0402497 0.0021005375 -0.018239008 0.0124830445 -0.008651447 -0.012180245 0.002758445 -0.0065485174
00000000: e3db 8a39 8963 56bc 24ea 7abc d5e8 bfbc
00000010: 1429 273b ef3b e0bc 8962 bd3b efa6 2b3c
00000020: 51a9 543c 75b8 abbc c3c8 a6bc e9ad 44bc
00000030: 37b6 a73c 3eb8 1abc c280 c03c e054 bcbc
00000040: 1307 26bb 4e7b f63b a361 1ebc 5c95 ebb8
00000050: 327b 02bc d433 0fbb c751 333c 62ad 053d
00000060: 1f46 6c3c 05f9 013c 1fb8 233b a182 1e3b
00000070: 5d60 09bd c7cf 643c 4ced c53c b1a7 95bc
00000080: e3ca 1c3b 9e35 693b 8472 8bba 0404 c4ba
00000090: d589 053c 0eee 043d 19d2 223d 73dd d3bc
000000a0: 44cc aebc a45f 35bc 6b57 713c e301 e6bb
000000b0: 3c2d 67bc 54f3 7dbc 5526 223d a839 cabc
000000c0: 3d60 563c c818 5fbc f9d0 7f3c c2ba 023c
000000d0: b9d7 b5bb 3a76 5fbb 4294 17bc 76a5 d7bc
000000e0: 5262 303c 178f cabc d2ad 6d3c c2d4 4b3c
000000f0: 6e92 223c 470d aabc 67da 023d fce7 bfbb
00000100: 6015 bbbc ae75 b4ba 9535 33bc 6747 f53b
00000110: e3e0 83bb 8444 86bb 9f84 873b 7f80 253c
00000120: 714b ae3c a3eb 023d c682 4d3c 98be 45bc
00000130: 1cce 403c 5d31 f1ba 2a66 0abc f20e aa3b
00000140: 5042 5f3b 1742 b03c f73a 0cbc 8ae3 7ebc
00000150: 8b45 b73c 265a a2bb 99b8 9a3c 94ce 293c
00000160: 52d9 b0b9 5085 f0bb 609d e63b 3ff7 d73b
00000170: eaee b9bc d1e3 e53b cff2 5aba 3f83 0fbc
00000180: 4a67 873c c92b 0abd 1fbf 61bc c245 b8bc
00000190: dd2c 55bc a1de cc3b bc93 c0b9 7e17 8fbc
000001a0: f9a2 3f3b 8f4b 813c 8b14 bcbc caea 113c
000001b0: aaa6 1c3c 83df 6b3c da79 d6bb 4d38 bfbb
000001c0: 566a 9bbb 1cea ab3c d601 79bc a8d4 81bc
000001d0: 6823 97bc 1bd4 d7bc fa7a 9ebc 2d0c 843c
000001e0: 4ca2 00bc d78b c8bc bb43 f6bc f881 f7bc
000001f0: 4850 2fbc 4826 02bc 96a5 52bc cbc2 bebc
00000200: 01f2 563c 8651 08bd acbd f3bb cfa3 ee3c
00000210: d66a 8c3c 0af5 60bc 2a7c ec3c 3148 7c3c
00000220: 1f0a 833b 1f52 acbc 3922 20bc 14e1 5f3b
00000230: e6a5 b1bc 69a6 683c 246d 8e3c 57e4 803c
00000240: 0b6b 68bc 4322 763c 2dc0 47bc a61b acbc
00000250: c8ec 113c e048 923c bf7b b3bb 46c2 b9bb
00000260: e0d8 56bc f209 08bc 439b f5bb a243 5e3c
00000270: 56a5 823c 332b 30bc 2551 893c b70b af3c
00000280: 8cd8 a8bc 1f36 adbc 12c1 2c3b 22a7 e23a
00000290: caf3 34bc 5d9e b93b a62d 363c c704 833a
000002a0: 9832 55bc ee85 4e3c e9ac babc 7215 3cbc
000002b0: e401 3e3c 8738 3b3a 651a 89bb 0e2b 1fbc
000002c0: 1aaa d1bb c7d9 9ebc f857 6dbc 6e03 95ba
000002d0: ecd9 7f3b 91df 17bb da71 74bc 0eea b9bc
000002e0: a4aa 6c3b 6571 d2ba bf5e ba3c d282 2f3c
000002f0: 413a 883b eccb a9ba 44b2 c3bc 6861 dd3b
00000300: d932 22bc 8d6c 503c 27ec 5e3c 7d13 cdbb
00000310: 7e57 8dbb 5edd 70bc 3e6d d33b 8c62 93bb
00000320: 0117 773c 2ae9 db3b 1f84 21bb 1933 5e3b
00000330: b3f2 fa3b db41 9abb e815 10bd 2f21 e73b
00000340: ca2d ec3c 453f ba3c 2f95 0eba 27bc 3cbc
00000350: 4655 ad3b b9e8 14bc d101 973c b264 c0bc
00000360: 082f 2fbc f2bc 573b 39da c93b 064b 87bc
00000370: 25fb 053b ea24 8ebc 8054 c83c bef4 a83c
00000380: dbab ca3b dbb7 693b b6a4 813c 3866 d0bc
00000390: ecd8 f03b 6bc5 90bc f0de 2abd 4dd8 093c
000003a0: d5e1 a1bc 96c2 abbb 44f1 323c 3d6f faba
000003b0: b5b2 1c3b 2d57 8f3c 8444 f7bc 9396 123a
000003c0: 929c 943c 4bdc 7f3c ac23 993a 7c7f d9b7
000003d0: 5966 3f3c e81b a83b 2481 d13c 2450 68bc
000003e0: dfdc 24bd 2ca9 093b f969 95bc af85 4c3c
000003f0: ccbe 0dbc a68f 47bc 07c7 343b f294 d6bb

network_body._body_endoder.seq_layers.4.weight f4 [256, 256]
0.04069132 0.02605437 -0.035027176 0.05615624 0.0015284796 -0.04424181 0.07939087 -0.005088451
-0.021345774 -0.02704984 0.026372133 -0.03010368 0.02920013 0.029400736 -0.094296195 -0.042594917
0.111594245 0.064674094 0.084496126 0.050599925 -0.010050249 -0.050454523 -0.056336917 -0.018682323
-0.008539459 -0.0036966112 -0.039872646 0.035081964 -0.08485422 0.05341021 -0.046600685 -0.008815333
-0.031932548 -0.0149448365 0.09450672 0.01085933 0.063434064 0.022783337 -0.06908463 -0.019186815
-0.07207699 -0.1147771 -0.054983772 0.06110958 0.01305323 0.06952239 -0.11931445 0.0357633
-0.017131655 0.111848556 -0.018197777 0.04665699 -0.02178889 0.07025992 -0.122512594 -0.013042525
0.06368758 0.07208104 -0.010605633 -0.10723088 -0.026482822 -0.02120387 -0.04103976 0.039487988
0.0013720297 0.060978577 -0.119141504 0.011246762 -0.032897312 0.032508463 -0.09281977 -0.10557673
0.036027983 -0.026703218 0.07813764 0.018024033 -0.015769484 0.021029264 0.013257862 0.024684293
-0.15420212 -0.060256116 -0.10030971 0.095455945 -0.014549949 0.006771253 0.09093255 0.0700246
-0.09571918 0.008839644 0.027275788 0.045803368 0.006320547 0.03529341 -0.014189812 -0.004644928
-0.0551385 0.03964919 -0.101439245 -0.05125058 0.04975531 0.12691061 -0.08323197 0.031866245
0.05616035 -0.06880136 0.111184105 -0.028128376 0.001635045 -0.04469661 0.014438498 -0.020415306
0.092459075 -0.031402037 0.07924078 0.00830247 -0.063262045 -0.114956036 0.047539514 -0.023079263
-0.04919056 -0.06963626 -0.086173385 -0.0070980447 -0.007994809 0.055831738 0.002218579 0.07057566
-0.019225035 0.08711103 -0.0014791997 -0.028102977 0.031226834 0.0026138455 0.0062538474 0.0014969578
-0.010619675 0.009291339 -0.15383913 -0.0115523795 -0.03736759 0.03882621 0.053870518 -0.022657339
0.036012113 -0.123006135 0.052675262 0.0857601 -0.00091016135 0.06182028 -0.015945746 0.078537636
-0.012269904 0.03191481 0.006682478 -0.04784821 0.00027581534 0.10221913 -0.0124264965 -0.079951875
0.011095407 0.072220266 0.059208788 0.0069971923 0.009519176 -0.09447144 -0.02426858 0.0761238
0.03448829 -0.048314884 0.039039608 0.039800532 -0.088801496 -0.05896834 -0.022013815 0.02606439
-0.023963023 -0.046447225 0.06946796 0.0155266365 0.07999763 -0.001334399 0.06503824 0.060909644
0.03781708 0.01604327 0.04466647 -0.093718454 -0.037202854 -0.077310085 0.084965125 0.08103485
-0.06616142 0.03456874 -0.013273863 -0.023087848 0.01970683 0.025810638 0.078622796 0.018456312
0.045620106 0.013819909 0.02567676 -0.023727488 0.025225652 -0.0038510296 0.046684172 -0.003976243
-0.021439277 0.042632356 0.0568583 -0.05839976 -0.027328683 0.008287644 -0.09406542 0.10620426
-0.16881408 0.015299914 -0.052657295 -0.0009282343 0.037918404 0.09182069 -0.097012 -0.008917968
-0.021667166 0.018388866 0.003701413 -0.045737837 0.034284096 -0.034453087 -0.037863374 0.0737101
0.07103364 0.048479985 0.0021669792 0.13599508 -0.12145712 -0.05085163 -0.02973839 -0.08039475
-0.0024974335 -0.18909274 0.043053374 -0.031605616 0.10209778 0.11483471 0.010776182 -0.08957059
-0.010513267 -0.014796829 -0.021004314 -0.015275839 0.0616039 0.0867804 0.07464895 -0.015875215
00000000: f1ab 263d f96f d53c a878 0fbd 1604 663d
00000010: 4457 c83a e636 35bd ae97 a23d 05bd a6bb
00000020: 55dd aebc a097 ddbc 5f0a d83c fe9b f6bc
00000030: 1c35 ef3c d0d9 f03c 5d1e c1bd 0278 2ebd
00000040: 868b e43d da73 843d 4e0c ad3d de41 4f3d
00000050: cda9 24bc 67a9 4ebd 8ac1 66bd ac0b 99bc
00000060: 16e9 0bbc d842 72bb 8051 23bd 1bb2 0f3d
00000070: 0dc8 adbd aac4 5a3d 5ce0 3ebd 306e 10bc
00000080: b4cb 02bd 30db 74bc bd8c c13d 55eb 313c
00000090: b8e9 813d 1fa4 ba3c 3e7c 8dbd ab2d 9dbc
000000a0: 1a9d 93bd 4210 ebbd aa36 61bd 0a4e 7a3d
000000b0: 37dd 553c c161 8e3d 225b f4bd 8a7c 123d
000000c0: af57 8cbc db10 e53d 8113 95bc 661b 3f3d
000000d0: 9d7e b2bc 6fe4 8f3d e2e7 fabd 51b0 55bc
000000e0: a26e 823d 399f 933d 40c3 2dbc dd9b dbbd
000000f0: 81f2 d8bc bdb3 adbc 4f19 28bd 28be 213d
00000100: add5 b33a acc4 793d 7600 f4bd 5744 383c
00000110: 55bf 06bd 9827 053d 4b18 bebd 9d38 d8bd
00000120: 1492 133d b5c0 dabc a106 a03d 23a7 933c
00000130: 012f 81bc 9045 ac3c 8137 593c b736 ca3c
00000140: 29e7 1dbe 1ecf 76bd 2d6f cdbd 687e c33d
00000150: e962 6ebc 63e1 dd3b d83a ba3d 0f69 8f3d
00000160: 6b08 c4bd 27d4 103c 7971 df3c 509c 3b3d
00000170: 971c cf3b d38f 103d 637c 68bc 7b34 98bb
00000180: e8d8 61bd 3067 223d 61bf cfbd 21ec 51bd
00000190: 39cc 4b3d dbf4 013e 8675 aabd 2e86 023d
000001a0: 6508 663d bae7 8cbd 7eb4 e33d 7b6d e6bc
000001b0: 024f d63a cb13 37bd 738f 6c3c 003e a7bc
000001c0: 2f5b bd3d 6c9f 00bd fd48 a23d 1507 083c
000001d0: 888f 81bd 126e ebbd cbb8 423d b910 bdbc
000001e0: 0a7c 49bd 759d 8ebd ac7b b0bd b796 e8bb
000001f0: a9fc 02bc d2af 643d 9465 113b f989 903d
00000200: d27d 9dbc 4567 b23d b5e1 c1ba 3738 e6bc
00000210: 6bcf ff3c 0d4d 2b3b 13ed cc3b 9235 c43a
00000220: 25fe 2dbc b33a 183c 0188 1dbe 3146 3dbc
00000230: c20e 19bd 3b08 1f3d 55a7 5c3d e29b b9bc
00000240: 7081 133d a4ea fbbd 04c2 573d fea2 af3d
00000250: e597 6eba 4337 7d3d a7a0 82bc 57d8 a03d
00000260: b507 49bc 1bb9 023d b0f8 da3b 7cfc 43bd
00000270: 4f9b 9039 4358 d13d 8198 4bbc cfbd a3bd
00000280: 83c9 353c 38e8 933d ea84 723d b448 e53b
00000290: 51f6 1b3c 3e7a c1bd e7ce c6bc cbe6 9b3d
000002a0: 9843 0d3d d4e5 45bd ffe7 1f3d e205 233d
000002b0: 8fdd b5bd c988 71bd 5156 b4bc fd84 d53c
000002c0: 1a4e c4bc 723f 3ebd 3845 8e3d 6f63 7e3c
000002d0: ccd5 a33d 00e7 aeba c532 853d 647c 793d
000002e0: 15e6 1a3d 2d6d 833c 30f4 363d 76ef bfbd
000002f0: 0562 18bd c054 9ebd 3202 ae3d 99f5 a53d
00000300: a37f 87bd f397 0d3d 9e7a 59bc ba22 bdbc
00000310: 3870 a13c d570 d33c fd04 a13d b131 973c
00000320: 26dc 3a3d e66c 623c 1258 d23c 2660 c2bc
00000330: 07a6 ce3c 8e61 7cbb e737 3f3d 254b 82bb
00000340: 6ca1 afbc 449f 2e3d 40e4 683d 9634 6fbd
00000350: 67e0 dfbc e6c8 073c 5fa5 c0bd 9e81 d93d
00000360: 99dd 2cbe 7eac 7a3c 2daf 57bd c054 73ba
00000370: 5450 1b3d 7c0c bc3d 3aae c6bd ab1c 12bc
00000380: 577f b1bc 3fa4 963c 6893 723b 9957 3bbd
00000390: 7b6d 0c3d ae1e 0dbd a016 1bbd 52f5 963d
000003a0: 167a 913d f392 463d e103 0e3b 4b42 0b3e
000003b0: 83be f8bd cc49 50bd ed9d f3bc 01a6 a4bd
000003c0: fbab 23bb 87a1 41be bc58 303d e474 01bd
000003d0: a418 d13d 762e eb3d 958e 303c c970 b7bd
000003e0: d63f 2cbc 666e 72bc 3d11 acbc 8347 7abc
000003f0: 5f54 7c3d ecb9 b13d 8ce1 983d bd0c 82bc

network_body._body_endoder.seq_layers.4.bias f4 [256]
-0.01075419 -0.060156856 0.011691948 0.009354226 -0.029970113 -0.0025265191 -0.016492786 0.00577266
0.0033509908 0.0036787027 0.0005739803 -0.004533756 0.015548254 -0.0014424569 -0.03150465 -0.009248768
0.01563919 0.03336654 0.0036216455 0.022185538 0.037109554 -0.011657187 0.0014089206 -0.014925766
0.002456943 0.0013481439 -0.01139023 -0.014669323 -0.045786813 -0.025227396 -0.0073066982 -0.022416309
-0.014207414 -0.0058732578 0.013259682 0.002748504 0.0006103408 -0.012438262 -0.0041263057 0.0040344764
-0.018553298 0.047554675 -0.0041428823 0.009787473 0.036456667 0.034525465 0.0091286395 -0.018004633
0.012987716 0.010078808 0.005296677 -0.009173608 0.028038504 0.0030384613 0.020883465 -0.0042243632
0.006587802 -0.01670167 0.006802674 0.011819302 0.0064693703 -0.00746717 0.008009182 -0.010862844
0.03356314 0.015028279 -0.021638032 -0.016507303 0.011675507 -0.0019367972 -0.005776466 0.0219692
0.005463294 -0.037041496 -0.006725939 -0.009783115 -0.031409428 0.017916374 -0.014657816 0.01822679
-0.01350716 0.021780519 -0.012598241 0.0121587245 0.0036432291 0.010998673 -0.005278486 -0.012627388
-0.011053358 0.0046092025 0.005040567 -0.025782997 0.0014231955 -0.007395346 -0.036331464 -0.0026896067
0.013276167 -0.013075335 0.014944344 -0.021174425 0.011952479 -0.0022340796 0.011282975 -0.007122564
0.013083114 0.032729696 -0.007574975 0.012885026 0.024426255 0.014366024 -0.014188903 0.011364065
0.0012502791 0.002322478 0.024436843 -0.012522158 -0.0044142464 0.0038890142 0.03251563 -0.017555373
0.010607296 0.04148328 -0.0019310704 0.0005434568 0.016413255 -0.026328811 0.029876111 0.012866649
-0.027487941 -0.008966644 0.017835809 0.00063249894 -0.028068257 -0.020913232 0.004618556 -0.021340325
-0.006908599 -0.007114379 0.0061988127 -0.015469331 0.03094391 0.032615617 0.0116146775 0.00078693364
0.03082685 -0.010273471 -0.0038274585 -0.021796025 0.017568024 -0.024483401 0.0032961024 -0.017211683
0.004798618 0.01792986 -0.037799634 0.03977461 0.00419486 0.007873684 -0.0033050922 -0.027702196
-0.019463286 0.032759335 -0.0062853578 -0.023784015 0.0012529172 -0.009104554 -0.007912378 0.022703234
-0.010467792 0.013806558 -0.014650068 0.04362544 -0.0129808625 -0.0071326806 -0.0014299424 0.028094614
-0.00045403352 0.018782884 -0.00849469 0.029374888 -0.025602939 0.027124202 0.02445901 0.0006764206
-0.008101492 0.0040591853 0.00077610114 -0.0010677796 -0.007392682 0.004100447 0.026026795 0.0009583147
-0.024384124 0.007957005 -0.003878152 0.016241487 -0.0066213096 -0.011969379 0.006959164 0.027265258
-0.0007232256 0.027276585 -0.024181006 -0.007834945 0.0054412927 0.0120655745 -0.027299589 -0.00062942604
-0.00624835 0.00971971 -0.009421076 -0.010720163 -0.008627992 -0.0038281535 0.009800496 0.01263336
0.015900206 0.00923703 -0.021690326 -0.020323696 -0.007939205 -0.0112600755 -0.033271257 -0.02902646
-0.002755688 0.012062634 0.0019088993 -0.025628755 0.0018946119 0.011963695 -0.008618549 0.003394661
0.0045551728 -0.001731935 0.0037465892 -0.008500514 -0.017357547 0.016724423 -0.009131688 0.024667
-0.007940107 -0.016942943 -0.0096401395 0.014065019 0.017850542 0.006519117 0.0071455035 0.011216004
-0.0009200007 -0.024694063 -0.008731986 -0.016668245 -0.012693568 -0.007014872 -0.007352616 0.016036557
00000000: 5832 30bc 0967 76bd 968f 3f3c 7842 193c
00000010: e283 f5bc f593 25bb e11b 87bc 9528 bd3b
00000020: 4c9c 5b3b 6416 713b 2a77 163a e78f 94bb
00000030: 1bbe 7e3c d210 bdba 050b 01bd 2588 17bc
00000040: c21d 803c 5aab 083d 2159 6d3b 72be b53c
00000050: 3000 183d c9fd 3ebc 88ab b83a 338b 74bc
00000060: aa04 213b 34b4 b03a 169e 3abc 9a57 70bc
00000070: f48a 3bbd afa9 cebc 076d efbb 68a2 b7bc
00000080: 37c6 68bc 7574 c0bb 233f 593c 3f20 343b
00000090: 47ff 1f3a dac9 4bbc f635 87bb a433 843b
000000a0: 16fd 97bc b1c8 423d 04c1 87bb a35b 203c
000000b0: 9653 153d 936a 0d3d 4a90 153c 747e 93bc
000000c0: 6eca 543c 9621 253c bf8f ad3b e74c 16bc
000000d0: 01b1 e53c ec20 473b cd13 ab3c 876c 8abb
000000e0: 7dde d73b f1d1 88bc f7e8 de3b bfa5 413c
000000f0: 03fd d33b 29af f4bb f238 033c 12fa 31bc
00000100: 8179 093d 2c39 763c 3e42 b1bc 533a 87bc
00000110: a04a 3f3c 21dc fdba 8248 bdbb c0f8 b33c
00000120: 6f05 b33b d3b8 17bd 4465 dcbb 5c49 20bc
00000130: 2ca7 00bd 5cc5 923c 5627 70bc 5950 953c
00000140: 234d 5dbc 0f6d b23c da68 4ebc 6335 473c
00000150: 3ec3 6e3b c733 343c 26f7 acbb 1be3 4ebc
00000160: 2519 35bc cb08 973b 572b a53b dd36 d3bc
00000170: 848a ba3a a954 f2bb 4dd0 14bd 1d44 30bb
00000180: 4884 593c ee39 56bc 1fd9 743c fd75 adbc
00000190: 55d4 433c a369 12bb 3adc 383c 6664 e9bb
000001a0: 8f5a 563c 930f 063d 7f37 f8bb b71b 533c
000001b0: 9219 c83c 795f 6b3c 9378 68bc 5830 3a3c
000001c0: 68e0 a33a b734 183b c62f c83c bd29 4dbc
000001d0: 62a5 90bb d5de 7e3b 1c2f 053d 49d0 8fbc
000001e0: 39ca 2d3c 5fea 293d f81b fdba c576 0e3a
000001f0: 1775 863c 85af d7bc bfbe f43c a3ce 523c
00000200: 642e e1bc d5e8 12bc 671c 923c 49ce 253a
00000210: 67ef e5bc 3a52 abbc 4157 973b e8d1 aebc
00000220: 8761 e2bb bd1f e9bb 691f cb3b 1473 7dbc
00000230: 157e fd3c f497 053d 7d4b 3e3c 394a 4e3a
00000240: 9788 fc3c 0f52 28bc 19d6 7abb 948d b2bc
00000250: d1ea 8f3c 6a91 c8bc 6c03 583b 84ff 8cbc
00000260: ba3d 9d3b a4e1 923c cad3 1abd b4ea 223d
00000270: 0975 893b a000 013c 3f9a 58bb b7ef e2bc
00000280: 7871 9fbc a72e 063d 67f5 cdbb b2d6 c2bc
00000290: ed38 a43a 442b 15bc eba2 01bc 22fc b93c
000002a0: 1a81 2bbc e734 623c d706 70bc 97b0 323d
000002b0: afad 54bc 43b9 e9bb e86c bbba ad26 e63c
000002c0: 590b eeb9 90de 993c 502d 0bbc 9ba3 f03c
000002d0: 41bd d1bc 9333 de3c 435e c83c d151 313a
000002e0: 1fbc 04bc ea02 853b 4473 4b3a bdf4 8bba
000002f0: 503e f2bb 0b5d 863b 2536 d53c 6937 7b3a
00000300: 37c1 c7bc 195e 023c 9828 7ebb de0c 853c
00000310: 92f7 d8bb 371b 44bc b309 e43b 645b df3c
00000320: d996 3dba 2573 df3c 3f17 c6bc 245e 00bc
00000330: df4c b23b b0ae 453c 63a3 dfbc 1100 25ba
00000340: f5be ccbb 6b3f 1f3c db5a 1abc 9fa3 2fbc
00000350: 6c5c 0dbc c2e1 7abb 4292 203c 27fc 4e3c
00000360: 2641 823c e956 173c e9af b1bc e17d a6bc
00000370: 7013 02bc 2e7c 38bc 7147 08bd e6c8 edbc
00000380: c698 34bb 5ba2 453c 0834 fa3a 65f3 d1bc
00000390: a054 f83a 6003 443c d134 0dbc f678 5e3b
000003a0: 8f43 953b 1802 e3ba 5689 753b bd45 0bbc
000003b0: 6a31 8ebc a801 893c 139d 15bc 7312 ca3c
000003c0: 3917 02bc edcb 8abc adf1 1dbc f770 663c
000003d0: 4d3b 923c 519e d53b d424 ea3b 55c3 373c
000003e0: 342c 71ba 344b cabc 9b10 0fbc d88b 88bc
000003f0: aff8 4fbc 03dd e5bb 37ee f0bb 195f 833c

action_model._continuous_distribution.log_sigma f4 [1, 2]
-0.2714743 -0.35253385
00000000: aefe 8abe 517f b4be

action_model._continuous_distribution.mu.weight f4 [2, 64]
-0.25982785 -0.07964541 -0.2279783 -0.013559533 -0.012258175 -0.0068940814 0.089386925 0.040938366
-0.027715843 -0.15895963 -0.05305716 -0.11217851 -0.14247078 0.22154862 -0.10674116 0.054309845
0.029685153 -0.082934596 0.06866106 -0.12355058 -0.01121145 0.25448135 0.075701505 0.16539066
0.15988605 -0.1030647 -0.20634572 0.13780808 0.05859223 0.0764668 -0.09915127 -0.2064073
0.12972732 -0.09194435 0.05445736 0.20470242 0.085703805 -0.12706502 -0.08812575 0.06774645
-0.16540207 -0.24078093 0.092652194 0.040084857 -0.10626941 -0.17205416 -0.17397656 -0.071982004
0.10016378 0.38423154 0.07677657 0.31903395 -0.03074566 -0.04026457 -0.04843775 0.17963499
0.103356935 0.05506633 0.2880912 -0.073511146 0.16278663 -0.15210688 -0.14054267 0.10707468
-0.034872364 0.09105514 -0.19118339 0.018028082 0.11764632 -0.19639467 0.15024559 -0.21445586
-0.09554903 -0.23441406 -0.17291673 -0.04341899 0.0067809825 0.16805162 -0.18936522 0.20176849
0.018135777 -0.14156872 -0.053103868 0.18137696 0.009930303 0.08396146 -0.30306387 -0.14053398
0.07326192 0.14256598 0.14517492 0.19019821 0.05440258 -0.07999908 0.108649515 -0.22524251
-0.17802064 -0.100117706 -0.003914411 0.027660357 -0.03641426 -0.04889364 -0.011067101 -0.11740759
-0.15855394 0.19249424 0.10956246 -0.04217529 -0.031995367 0.19982423 -0.22403346 -0.061818887
-0.103340015 0.57981676 0.10778757 0.15396075 0.020631345 -0.007884061 0.15249555 0.07365495
0.19113216 0.068955034 0.050172903 0.017631441 -0.09014496 -0.03348434 -0.12259934 0.02943935
00000000: 2808 85be 221d a3bd 2573 69be ce28 5ebc
00000010: 83d6 48bc bfe7 e1bb 7e10 b73d fdae 273d
00000020: 560c e3bc 50c6 22be 7752 59bd d9bd e5bd
00000030: dce3 11be a4dd 623e 1c9b dabd 0074 5e3d
00000040: 472e f33c 9dd9 a9bd 2b9e 8c3d 1608 fdbd
00000050: 3bb0 37bc 614b 823e 6409 9b3d 2b5c 293e
00000060: 2bb9 233e 9613 d3bd 4b4c 53be 901d 0d3e
00000070: 68fe 6f3d a09a 9c3d d20f cbbd 6f5c 53be
00000080: 3dd7 043e 524d bcbd ae0e 5f3d 839d 513e
00000090: 7a85 af3d 551d 02be 467b b4bd a7be 8a3d
000000a0: 295f 29be 478f 76be 6fc0 bd3d 0530 243d
000000b0: c7a3 d9bd f72e 30be e926 32be 4d6b 93bd
000000c0: ab22 cd3d ffb9 c43e 093d 9d3d 6b58 a33e
000000d0: 53de fbbc 76ec 24bd aa66 46bd 3cf2 373e
000000e0: cdac d33d 3b8d 613d b180 933e 038d 96bd
000000f0: 8ab1 263e e8c1 1bbe 6bea 0fbe f849 db3d
00000100: 53d6 0ebd 1e7b ba3d 94c5 43be a1af 933c
00000110: 8ef0 f03d af1b 49be fbd9 193e 519a 5bbe
00000120: 36af c3bd 3d0a 70be 1511 31be 1cd8 31bd
00000130: 0133 de3b b915 2c3e f5e8 41be 669c 4e3e
00000140: 7b91 943c 64f7 10be 7183 59bd e2ba 393e
00000150: b6b2 223c fcf3 ab3d 302b 9bbe 24e8 0fbe
00000160: 580a 963d d1fc 113e bca8 143e 52c3 423e
00000170: 3dd5 5e3d 8fd6 a3bd a383 de3d f9a5 66be
00000180: 0b4b 36be 830a cdbd 7644 80bb f997 e23c
00000190: 1e27 15bd b344 48bd c952 35bc 6473 f0bd
000001a0: f75b 22be 361d 453e 4862 e03d ffbf 2cbd
000001b0: 930d 03bd b99e 4c3e 0769 65be cd35 7dbd
000001c0: eea3 d3bd df6e 143f bbbf dc3d e3a7 1d3e
000001d0: 1103 a93c 262c 01bc cb27 1c3e 68d8 963d
000001e0: 26b8 433e 4c38 8d3d 1a82 4d3d d06f 903c
000001f0: ec9d b8bd e026 09bd 5d15 fbbd cb2a f13c

action_model._continuous_distribution.mu.bias f4 [2]
-0.0904927 -0.065475576
00000000: 3d54 b9bd 0f18 86bd

onnx::LSTM_102 f4 [1, 256, 256]
0.07395139 -0.10611424 0.11021606 0.08237631 -0.10513164 -0.14530304 -0.05212277 0.12083776
0.050899062 0.12487109 0.037662227 -0.1597145 -0.069080606 -0.056688838 -0.09012224 0.07073604
-0.041622452 0.09222858 -0.08437724 -0.07347171 0.094051056 -0.13435438 -0.055211607 -0.063426636
-0.018642275 -0.004411299 -0.17090984 -0.07491729 0.046315074 0.06817025 -0.014310358 0.007215506
-0.14077626 0.037966754 0.09241074 -0.10145908 0.10167797 0.107456595 -0.023131775 -0.16929415
0.07371665 0.09308535 0.08746988 0.12471066 0.008442417 -0.074288204 -0.11675067 0.005543361
0.10540231 0.10788103 -0.08622574 0.011135781 0.12565756 0.15881021 -0.038330153 -0.088901244
-0.048052803 0.063870415 0.08835909 -0.05840604 -0.12897755 -0.14332011 -0.09838297 0.017947758
-0.1013389 0.03287248 0.10083776 -0.07374009 0.012966391 -0.02909426 -0.058048483 0.018512305
-0.06274392 -0.09433485 0.046464022 -0.10202247 0.09955198 -0.09142504 -0.08999598 0.088584274
0.00493925 -0.133695 0.014336647 -0.04450286 0.013469671 0.09105089 0.040040173 -0.06790838
0.12535374 0.035336114 0.122723326 0.041674707 0.0063573834 0.013315912 -0.09372852 -0.0021354298
-0.04299492 0.045748644 0.014314537 -0.12143108 0.020695224 -0.10901172 0.092133276 0.1252081
0.10363011 -0.09376953 0.12461182 0.105239816 -0.03646865 -0.12495318 -0.106518276 -0.031466093
-0.09944933 -0.11657855 0.070774734 -0.03688007 -0.016559634 0.10470623 -0.022005705 -0.08360321
0.119111314 -0.09495054 0.06630939 -0.093660034 0.121468805 0.007975011 -0.10058233 -0.036653712
-0.041430686 0.030344155 0.09158567 0.11277919 -0.045930713 -0.09595759 -0.0026560172 -0.01678934
-0.12862289 -0.040676303 0.064131856 0.042211074 -0.009321561 0.01525277 0.07574047 -0.07546055
0.10003995 0.047432188 -0.009026281 0.071429886 -0.1434928 -0.05622367 -0.13127372 -0.1290727
0.095850095 -0.026266774 -0.081253655 -0.027225569 0.08015425 0.02790958 -0.08852687 -0.049320366
-0.016565401 -0.058483627 -0.023935843 0.11598598 -0.0076497607 -0.1631775 0.009804503 -0.087255076
0.11666248 0.10941152 -0.0025661811 -0.029016543 0.09391838 -0.015943686 -0.0590775 0.13764967
0.08564032 -0.00971341 -0.06926612 0.10890922 0.001948973 0.10825183 -0.081013255 0.018140515
-0.064609565 0.048845284 0.039460156 0.095053166 -0.013793146 0.041001044 -0.036145225 -0.016494395
-0.09707109 -0.0663788 -0.04543036 0.04377686 -0.026313672 -0.10603918 0.07525137 0.12849423
-0.024942094 -0.08622262 -0.05588113 -0.08170916 0.07940286 0.030946234 0.016751578 -0.0037158695
0.02967878 -0.0014836302 -0.08575846 0.050659418 -0.05388824 -0.01708365 -0.086901486 0.08561689
0.11657004 -0.082126126 0.13906382 0.0952092 -0.07573091 -0.033514574 0.07567986 0.12222054
-0.037948597 0.09205527 -0.0017679963 -0.08662138 -0.01735692 -0.047939356 0.026784457 0.015908228
0.054670274 0.11540977 -0.13284098 0.14981209 -0.05441472 -0.024285356 -0.11363104 0.0054382687
-0.108998135 0.11682306 0.007856458 -0.11777136 0.13744146 -0.03952321 0.09387097 0.053730357
-0.0030861883 -0.050822355 -0.033374187 -0.15280548 -0.12806365 0.09875639 0.102724254 0.16860701
00000000: d473 973d 6c52 d9bd f5b8 e13d e9b4 a83d
00000010: 424f d7bd 52ca 14be b07e 55bd ca79 f73d
00000020: 897b 503d 6abc ff3d b543 1a3d 338c 23be
00000030: 227a 8dbd 8e32 68bd 0292 b8bd 0fde 903d
00000040: 4e7c 2abd 56e2 bc3d f9cd acbd 5678 96bd
00000050: d79d c03d 3294 09be 9125 62bd d3e5 81bd
00000060: afb7 98bc a88c 90bb fd02 2fbe 3c6e 99bd
00000070: e0b4 3d3d d89c 8b3d fe75 6abc 0d70 ec3b
00000080: a727 10be 0783 1b3d d841 bd3d c7c9 cfbd
00000090: 8a3c d03d 3412 dc3d d97e bdbc 725b 2dbe
000000a0: c1f8 963d 88a3 be3d 6923 b33d 4d68 ff3d
000000b0: 1052 0a3c 6a24 98bd fa1a efbd 15a5 b53b
000000c0: 2bdd d73d bbf0 dc3d 1f97 b0bd da72 363c
000000d0: 60ac 003e 259f 223e 1400 1dbd db11 b6bd
000000e0: 04d3 44bd 7ece 823d 9cf5 b43d 2c3b 6fbd
000000f0: b112 04be 82c2 12be 037d c9bd 2d07 933c
00000100: c58a cfbd 4ba5 063d 0784 ce3d 0b05 97bd
00000110: fc70 543c 1657 eebc 3fc4 6dbd 1ea7 973c
00000120: e27f 80bd a132 c1bd 0f51 3e3d 28f1 d0bd
00000130: e9e1 cb3d 0d3d bbbd d04f b8bd ac6b b53d
00000140: 6fd9 a13b 58e7 08be 41e4 6a3c a248 36bd
00000150: e5af 5c3c e478 ba3d 2a01 243d 8c13 8bbd
00000160: bb5c 003e 9abc 103d 5e56 fb3d 19b3 2a3d
00000170: 9951 d03b fc2a 5a3c bdf4 bfbd 91f2 0bbb
00000180: 711b 30bd ee62 3b3d 8587 6a3c dcb0 f8bd
00000190: 0889 a93c 8941 dfbd 5fb0 bc3d 8d36 003e
000001a0: 063c d43d 3d0a c0bd 7b34 ff3d f987 d73d
000001b0: 2760 15bd 74e7 ffbd 4126 dabd 97e2 00bd
000001c0: 17ac cbbd bcc0 eebd 58f2 903d 8e0f 17bd
000001d0: 12a8 87bc 3870 d63d 4f45 b4bc 2938 abbd
000001e0: a2f0 f33d 6e75 c2bd 38cd 873d d5d0 bfbd
000001f0: a3c4 f83d 9fa9 023c 1cfe cdbd 3422 16bd
00000200: 39b3 29bd 4e94 f83c 4591 bb3d c7f8 e63d
00000210: d821 3cbd 6a85 c4bd 9310 2ebb cc89 89bc
00000220: b8b5 03be 329c 26bd 9057 833d 85e5 2c3d
00000230: 76b9 18bc c1e6 793c d21d 9b3d 108b 9abd
00000240: bfe1 cc3d 4148 423d f7e2 13bc d549 923d
00000250: c7ef 12be ca4a 66bd 9e6c 06be a22b 04be
00000260: 0e4d c43d 6b2d d7bc 5168 a6bd 2808 dfbc
00000270: e927 a43d a2a2 e43c 934d b5bd 2704 4abd
00000280: 2ab4 87bc 878c 6fbd 1a15 c4bc 0f8a ed3d
00000290: d8aa fabb 0118 27be 11a3 203c cab2 b2bd
000002a0: bdec ee3d 2613 e03d 602d 28bb 1ab4 edbc
000002b0: 4858 c03d 559c 82bc 40fb 71bd 09f4 0c3e
000002c0: 3164 af3d ff24 1fbc 65db 8dbd cc0b df3d
000002d0: af74 ff3a 23b3 dd3d 47ea a5bd 6b9b 943c
000002e0: 0552 84bd fe11 483d f9a0 213d 3cab c23d
000002f0: a6fc 61bc b6f0 273d 040d 14bd 411f 87bc
00000300: 35cd c6bd 9cf1 87bd 2f15 3abd 5d4f 333d
00000310: c58f d7bc 122b d9bd 641d 9a3d fe93 033e
00000320: 5d53 ccbc 7c95 b0bd 9de3 64bd 2257 a7bd
00000330: f79d a23d f582 fd3c 9b3a 893c f285 73bb
00000340: ea20 f33c 5e76 c2ba 22a2 afbd 4080 4f3d
00000350: eab9 5cbd 03f3 8bbc 68f9 b1bd e857 af3d
00000360: 46bc ee3d be31 a8bd bf66 0e3e 0bfd c23d
00000370: cf18 9bbd 9446 09bd 0bfe 9a3d c34e fa3d
00000380: fd6f 1bbd 7987 bc3d 1dbc e7ba 8d66 b1bd
00000390: 1930 8ebc 0f5c 44bd 146b db3c f951 823c
000003a0: f0ed 5f3d f55b ec3d 7707 08be 5768 193e
000003b0: f8e1 5ebd 15f2 c6bc 64b7 e8bd 8133 b23b
000003c0: 6a3a dfbd ee40 ef3d 60b8 003c 1c32 f1bd
000003d0: 74bd 0c3e 17e3 21bd 6c3f c03d 5d14 5c3d
000003e0: a641 4abb 1a2b 50bd 5fb3 08bd 0a79 1cbe
000003f0: 1e23 03be ca40 ca3d 1861 d23d 51a7 2c3e
