results/FullyAbstract/bachelor/bachelor-3280.onnx (onnx, 76519 bytes, 9 tensors)

network_body._body_endoder.seq_layers.0.weight f4 [64, 7]
-0.40991008 -0.8017074 -0.06884665 -0.41797915 -0.39444974 0.1874156 0.34471956 0.67063373
1.011092 0.050261077 -0.046611257 0.096509434 -0.18868083 0.2008575 0.48282012 -0.14865443
0.51023036 0.16431087 0.16650274 0.18878731 0.052205957 -0.31321722 0.075191356 0.29164654
-0.44215423 -0.024484431 0.21755114 0.05936632 0.24258189 0.09843544 -0.45502046 0.22959462
-0.124286845 0.3166205 0.04056075 -0.23247102 -0.54865664 -0.31369466 0.13674986 0.044359237
-0.002176964 0.047799505 0.4667693 -0.32260025 0.26831323 -0.039577335 -0.31002107 -0.031435456
0.4615596 -0.13247678 -0.016901894 0.105808325 -0.22657606 -0.19986875 -0.41299838 -0.18502963
0.21787322 0.012161587 0.006724603 0.24273455 0.18478577 -0.099549174 0.26991898 0.42090714
-0.41565862 -0.28875834 -0.1086808 0.076775156 0.19845936 -0.3364072 0.40197808 -0.42215845
-0.40050226 -0.32692185 0.37552842 -0.6143126 -0.36326113 -0.054878272 -0.5908253 0.054722868
-0.39261594 -0.47387734 -0.14876026 -0.054019634 0.04776592 -0.7256099 0.34082144 0.33409345
-0.5270959 -0.31318924 -0.81377035 -0.18825707 0.2374071 -0.95099556 -0.24472708 -0.063238166
-0.3341499 -0.30472738 0.22295158 0.85728526 0.055889476 -0.25621 0.24941221 -0.39249593
-0.19112438 -0.46949932 0.26418036 0.2878245 -0.42734534 -0.07779528 0.2878092 0.047621746
0.30911705 -0.07773728 0.32302845 -0.11661516 -0.013697954 -0.22199002 0.6573595 -0.9314448
-0.48677367 -0.6401386 -0.24890897 -0.39990568 0.7368858 -0.26228896 0.18659584 0.09783077
0.04455987 0.35367858 0.28485304 0.19389632 0.060767014 0.21529783 -0.10937814 0.6056355
0.45118675 -0.42056242 -0.33238208 0.2053657 -0.29400468 -0.6650887 -0.6825244 0.53023404
0.35743043 -0.24388713 -0.23821244 -0.50230837 0.17921822 -0.07523781 -0.25063837 0.1740956
0.19087794 -0.4265474 -0.2392559 -0.45046267 -0.23120514 0.21053548 0.25401747 -0.30810204
0.24257064 0.22344272 0.42533877 0.25753075 -0.10343433 -0.6213019 0.0046162545 -0.37508085
-0.079310425 0.038420867 -0.023862833 -0.017846445 -0.6007602 -0.19488868 -0.36110047 -0.36031777
-0.5421877 0.43604037 -0.5395041 -0.32272276 -0.12289146 0.29348126 -0.26899445 0.7046575
-0.0036773384 0.11759342 -0.12125127 -0.7004407 -0.34499595 0.14355285 -0.41610742 -0.033017963
-0.30594397 -0.55868125 0.35140842 0.07412126 0.3808003 -0.0643693 0.54906124 -0.5244509
-0.936883 0.46657282 0.5041951 -0.25410482 0.5448224 -0.5229803 -0.13977987 -0.4038689
0.075418144 0.34330142 -0.01184858 -0.021836616 -0.19780481 -0.14638273 0.31306365 0.29877213
0.45431978 -0.046983533 -0.31835362 -0.12372487 0.5384231 -0.009429381 0.141654 -0.5705902
-0.3127714 0.86389583 0.19429222 0.0997588 -0.34365025 -0.118499584 -0.29774806 0.6543442
0.3549971 -0.2851183 0.9358585 0.2877859 0.1897401 -0.48617133 -0.40340978 0.15418456
-0.30452943 -0.33186895 -0.34080446 -0.2569593 -0.16857213 -0.56175333 0.15573794 -0.64012206
0.032962427 0.58769935 0.014178718 -0.14959376 0.23160277 -0.45882025 0.56209797 -0.8975554
00000000: bcdf d1be b23c 4dbf 79ff 8cbd 5d01 d6be
00000010: 51f5 c9be e0e9 3f3e 157f b03e a7ae 2b3f
00000020: 766b 813f 8fde 4d3d 72eb 3ebd bda6 c53d
00000030: 8c35 41be 97ad 4d3e 3334 f73e de38 18be
00000040: 759e 023f 1c41 283e b27f 2a3e 7651 413e
00000050: ead5 553d 025e a0be edfd 993d b252 953e
00000060: 0a62 e2be 9393 c8bc bac5 5e3e 192a 733d
00000070: 6367 783e 8598 c93d 71f8 e8be da1a 6b3e
00000080: 1a8a febd 151c a23e 0723 263d e20c 6ebe
00000090: c374 0cbf 969c a0be 2808 0c3e 08b2 353d
000000a0: 65ab 0ebb 6ac9 433d 63fc ee3e dc2b a5be
000000b0: 5a60 893e d81b 22bd 15bb 9ebe 77c2 00bd
000000c0: 8a51 ec3e fea7 07be d775 8abc 09b2 d83d
000000d0: 8e03 68be 65aa 4cbe 8674 d3be 6878 3dbe
000000e0: 281a 5f3e 6541 473c 0f5a dc3b 688f 783e
000000f0: 7b38 3d3e 70e0 cbbd d232 8a3e 2481 d73e
00000100: 35d1 d4be 22d8 93be 0a94 debd 4b3c 9d3d
00000110: ee38 4b3e 913d acbe 12d0 cd3e 2725 d8be
00000120: a20e cdbe 4d62 a7be 4345 c03e 9743 1dbf
00000130: 5dfd b9be 0ac8 60bd 5440 17bf 1625 603d
00000140: f504 c9be 0da0 f2be 9c54 18be b143 5dbd
00000150: 33a6 433d 92c1 39bf 2680 ae3e 4c0e ab3e
00000160: c2ef 06bf 575a a0be 4153 50bf 76c6 40be
00000170: d91a 733e 7274 73bf bc99 7abe 0383 81bd
00000180: b215 abbe 3a05 9cbe 6b4d 643e 0c77 5b3f
00000190: 5dec 643d f52d 83be ea65 7f3e 3af5 c8be
000001a0: 1cb6 43be 3762 f0be a642 873e bc5d 933e
000001b0: 02cd dabe 2253 9fbd ba5b 933e 050f 433d
000001c0: 9744 9e3e b934 9fbd fc63 a53e eed3 eebd
000001d0: 626d 60bc 5a51 63be b648 283f 2b73 6ebf
000001e0: 663a f9be 20e0 23bf fee1 7ebe 70c0 ccbe
000001f0: 8ca4 3c3f bd4a 86be fb12 3f3e 805b c83d
00000200: 6984 363d 5c15 b53e 42d8 913e c28c 463e
00000210: d5e6 783d 0977 5c3e a501 e0bd ee0a 1b3f
00000220: f301 e73e f553 d7be fc2d aabe 634b 523e
00000230: c887 96be 4143 2abf ebb9 2ebf 6bbd 073f
00000240: 1f01 b73e 8cbd 79be f6ed 73be 4897 00bf
00000250: fb84 373e 4816 9abd ac53 80be 1e46 323e
00000260: 8275 433e 6c64 dabe 80ff 74be 0ba3 e6be
00000270: 0ac1 6cbe 9d96 573e 940e 823e 8dbf 9dbe
00000280: 7064 783e 2bce 643e 01c6 d93e 12db 833e
00000290: 61d5 d3bd a40d 1fbf f343 973b 990a c0be
000002a0: 816d a2bd 335f 1d3d fd7b c3bc b532 92bc
000002b0: 6ccb 19bf e690 47be 29e2 b8be 927b b8be
000002c0: d0cc 0abf af40 df3e f11c 0abf eb3b a5be
000002d0: 85ae fbbd 2d43 963e a4b9 89be 6f64 343f
000002e0: 80ff 70bb d2d4 f03d 9652 f8bd 1550 33bf
000002f0: 4fa3 b0be 85ff 123e 080c d5be d83d 07bd
00000300: b0a4 9cbe bc05 0fbf ceeb b33e e3cc 973d
00000310: 42f8 c23e 0dd4 83bd 478f 0c3f 6a42 06bf
00000320: 90d7 6fbf a2e2 ee3e ee12 013f 071a 82be
00000330: 7b79 0b3f 09e2 05bf 7422 0fbe e8c7 cebe
00000340: d474 9a3d 34c5 af3e 8c20 42bc b4e2 b2bc
00000350: 588d 4abe 5be5 15be e149 a03e a9f8 983e
00000360: 9a9c e83e ce71 40bd 3fff a2be 7763 fdbd
00000370: 19d6 093f b17d 1abc bf0d 113e 3312 12bf
00000380: 9323 a0be 4728 5d3f 8af4 463e 574e cc3d
00000390: edf2 afbe e9af f2bd 6f72 98be 1a83 273f
000003a0: 2ec2 b53e 07fb 91be 6c94 6f3f ac58 933e
000003b0: 3b4b 423e 73eb f8be ba8b cebe 8fe2 1d3e
000003c0: 48eb 9bbe baea a9be ec7d aebe 2b90 83be
000003d0: 2c9e 2cbe 11cf 0fbf c479 1f3e 0adf 23bf
000003e0: 9c03 073d 7773 163f db4d 683c 1b2f 19be
000003f0: 4729 6d3e 7dea eabe a7e5 0f3f 31c6 65bf

network_body._body_endoder.seq_layers.0.bias f4 [64]
-0.0022397153 0.0026821247 0.0031308655 -0.000443372 -0.0018132875 -0.00847619 0.005203197 8.671465e-06
0.003762401 0.0035478312 0.00040808262 -0.00048013727 -0.0055636875 -0.0048142523 -0.003438006 -0.0010724228
0.005198257 -0.002436494 0.0007223955 -0.0013027707 0.0010260338 -0.0007013209 0.005355878 -0.005597814
-0.001087872 -0.007070128 -0.0014590479 0.003798757 -0.0035404724 -0.0026904056 -0.00017636218 -0.0059950263
0.0006628722 -0.0049073114 -0.0018266621 0.0019413966 -0.0022892707 -0.0013572532 -0.00011841166 -0.0017062306
0.002504667 0.003867329 -0.0022891148 0.0048399987 -0.002909764 -0.0031408344 0.0036982058 -0.0045137187
0.0040541473 0.0018815646 0.004571009 0.0019996085 0.0059480364 -0.0033939597 0.0006279218 -0.0035429099
0.007858386 0.0045411615 -0.0027485483 -0.0009252623 -0.0056850277 -0.0058081504 0.0051289215 -0.0020663491
00000000: 30c8 12bb 96c6 2f3b 352f 4d3b 6274 e8b9
00000010: d5ab edba b8df 0abc 947f aa3b a97b 1137
00000020: 9d92 763b bb82 683b ecf3 d539 efba fbb9
00000030: 984f b6bb e0c0 9dbb 2b50 61bb 8a90 8cba
00000040: 2456 aa3b 96ad 1fbb 245f 3d3a bbc1 aaba
00000050: fb7b 863a d9d8 37ba 5c80 af3b de6d b7bb
00000060: ed96 8eba 88ac e7bb 863d bfba 91f4 783b
00000070: 4507 68bb 8451 30bb dded 38b9 ed71 c4bb
00000080: 9ac4 2d3a 83cd a0bb 9c6c efba 7676 fe3a
00000090: 9707 16bb dce5 b1ba c753 f8b8 99a3 dfba
000000a0: 5725 243b 0473 7d3b f904 16bb da98 9e3b
000000b0: bdb1 3ebb 75d6 4dbb 995d 723b d1e7 93bb
000000c0: a7d8 843b d59e f63a 67c8 953b dd0b 033b
000000d0: bfe7 c23b 326d 5ebb 1e9b 243a 2a30 68bb
000000e0: 76c0 003c 06ce 943b fd20 34bb 4d8d 72ba
000000f0: 7849 babb 4c52 bebb 8310 a83b 966b 07bb

network_body._body_endoder.seq_layers.2.weight f4 [64, 64]
0.06584841 -0.20576976 0.12970087 0.103101 0.07581118 -0.12773913 -0.14950852 0.12765318
0.025169156 -0.2609797 0.08864477 -0.12403675 -0.0016993375 0.13725196 -0.24008863 0.06333752
-0.019647831 0.17236839 0.17463341 -0.18521939 -0.09017396 -0.10317065 -0.25644737 -0.13154358
0.0041172104 0.13055345 0.009777942 0.03392618 0.055044796 -0.13153349 0.14922263 0.031774767
-0.08037054 -0.047360096 0.05516619 0.067900725 0.17736477 0.03185695 -0.031285565 -0.070376046
-0.031419452 -0.07686184 -0.15819338 0.019106496 0.0102722235 0.11141597 -0.14441158 0.06379117
-0.29385588 -0.001240834 0.1004301 0.065730006 -0.18128768 -0.004767989 0.16758463 0.2125518
-0.048017073 0.11647197 -0.19596569 0.07743571 -0.13487719 -0.085667275 -0.18473352 0.024741327
0.044708397 0.084922045 -0.015218242 0.15486142 0.096548416 -0.12571871 -0.09831216 0.07382931
0.11836935 0.13663056 -0.027298048 0.09080309 -0.088944785 -0.11733575 0.100784995 -0.02208719
0.056357495 0.13442099 -0.058677386 0.07670415 -0.048619024 -0.092170484 -0.04015232 0.16177772
0.04469911 -0.07395163 -0.17187993 -0.03498325 0.09371192 -0.09810234 -0.085484594 0.15336297
-0.1287768 0.010113748 0.06572652 0.062492922 -0.116894685 -0.05152168 0.037152138 -0.2414431
-0.0471066 -0.07032358 -0.08300429 0.07991848 0.05085326 -0.08640715 -0.02456581 -0.28879032
-0.058407005 -0.24968562 -0.33501396 0.026827412 0.006196479 -0.01512579 -0.0460565 -0.20722212
0.16982757 -0.014028101 0.13887927 0.100375146 -0.24141818 -0.17786457 0.07026599 -0.11173566
-0.061415527 -0.020381944 -0.021506736 0.090699404 -0.06241021 -0.011275031 -0.079499565 0.035771325
0.033478852 -0.08595187 -0.04540928 0.14323553 0.09748776 -0.12433624 0.29933667 0.08870819
0.13674259 -0.009927884 -0.21681269 -0.010945002 -0.094217725 -0.11257034 0.019371947 0.09668905
0.034289435 -0.018530916 0.0012767204 -0.06621672 0.05910598 0.015896061 -0.14600793 0.051221
-0.22906294 -0.0150087215 0.09015604 -0.021454852 -0.12701957 0.074421816 0.14752544 0.084674686
-0.20414266 -0.27690384 0.109490775 0.086604424 0.15953375 -0.18136612 0.15958762 -0.076675765
-0.102142185 0.15136287 -0.14925845 -0.1349775 -0.084742256 -0.100380614 -0.306393 0.13103095
-0.0145485755 0.16379675 -0.042399704 0.10336135 0.0067280317 -0.065052204 0.17856163 -0.17006446
0.21144773 -0.035746824 -0.057927236 -0.0741403 -0.1668191 -0.17584103 0.04561458 -0.008210556
0.08882102 0.13250895 -0.007356861 0.0915437 0.016662525 0.15696156 -0.1602438 0.13318427
0.04878837 0.16069469 -0.09346285 0.13335669 -0.047485463 -0.1835551 -0.07797068 -0.09458417
-0.085445344 -0.059532817 -0.070762075 0.115161195 -0.011899358 0.15604632 0.10033358 0.08856779
-0.21935438 -0.26753196 0.02133738 0.004665665 0.08147881 0.027407194 -0.06606019 -0.099744916
0.06919851 -0.06790268 0.07294216 0.07211609 -0.2658269 -0.073048264 -0.07789046 -0.054843407
0.026330078 0.0031185865 -0.119528085 0.16802296 0.07896617 0.12219277 0.16765435 0.06487798
0.013040118 -0.0047926772 -0.042389985 0.015216331 -0.045728162 0.09525261 0.0722233 -0.09757288
00000000: 88db 863d 4fb5 52be 4ed0 043e 9e26 d33d
00000010: e442 9b3d 0cce 02be c318 19be 84b7 023e
00000020: 8c2f ce3c 229f 85be 648b b53d fb06 febd
00000030: 4ebc deba c78b 0c3e cbd9 75be 1ab7 813d
00000040: 7df4 a0bc 5781 303e 1ad3 323e 27aa 3dbe
00000050: 20ad b8bd 224b d3bd 124d 83be 5cb3 06be
00000060: aae9 863b ceaf 053e a933 203c 2ef6 0a3d
00000070: a776 613d b7b0 06be d1cd 183e 4226 023d
00000080: 4f99 a4bd a9fc 41bd f1f5 613d 890f 8b3d
00000090: 1c9f 353e 6f7c 023d 4b25 00bd 5121 90bd
000000a0: afb1 00bd be69 9dbd 72fd 21be 3a85 9c3c
000000b0: d44c 283c 0e2e e43d a1e0 13be f2a4 823d
000000c0: 4774 96be 7ba3 a2ba 4cae cd3d 749d 863d
000000d0: 7aa3 39be ca3c 9cbb 4e9b 2b3e 2ea7 593e
000000e0: 8dad 44bd db88 ee3d 3bab 48be 9d96 9e3d
000000f0: 3f1d 0abe 5372 afbd c92a 3dbe 53ae ca3c
00000100: 2720 373d 9ceb ad3d ef55 79bc fe93 1e3e
00000110: 2dbb c53d 68bc 00be e357 c9bd d233 973d
00000120: a16b f23d e2e8 0b3e 28a0 dfbc f8f6 b93d
00000130: af28 b6bd ba4d f0bd 5d68 ce3d 32f0 b4bc
00000140: 1ed7 663d a8a5 093e b357 70bd 1117 9d3d
00000150: be24 47bd e1c3 bcbd c276 24bd 0fa9 253e
00000160: 6a16 373d f473 97bd 4b01 30be 994a 0fbd
00000170: 09ec bf3d e1e9 c8bd 8c12 afbd 2f0b 1d3e
00000180: 11de 03be 22b4 253c a09b 863d 94f8 7f3d
00000190: 7b66 efbd 6608 53bd d72c 183d dc3c 77be
000001a0: daf2 40bd cf05 90bd 27fe a9bd 4dac a33d
000001b0: 824b 503d 3bf6 b0bd 3d3e c9bc 53dc 93be
000001c0: 2f3c 6fbd 96ad 7fbe f386 abbe 29c5 db3c
000001d0: d50b cb3b 29d2 77bc bea5 3cbd 0932 54be
000001e0: 47e7 2d3e 1fd6 65bc 5e36 0e3e 7c91 cd3d
000001f0: 5436 77be 2122 36be 9ee7 8f3d aad5 e4bd
00000200: d98e 7bbd 09f8 a6bc e52e b0bc 9cc0 b93d
00000210: d9a1 7fbd e8ba 38bc abd0 a2bd f484 123d
00000220: 1f21 093d 8907 b0bd 15ff 39bd 56ac 123e
00000230: aaa7 c73d 00a4 febd a842 993e a4ac b53d
00000240: 4006 0c3e 90a8 22bc 2504 5ebe aa52 33bc
00000250: 39f5 c0bd 478b e6bd ebb1 9e3c e904 c63d
00000260: 1473 0c3d 26ce 97bc a157 a73a a29c 87bd
00000270: 1d19 723d 7538 823c 1a83 15be 1ccd 513d
00000280: 7a8f 6abe 24e7 75bc bba3 b83d 16c2 afbc
00000290: 6b11 02be 776a 983d e910 173e ec69 ad3d
000002a0: c60a 51be 57c6 8dbe b33c e03d a95d b13d
000002b0: d15c 233e 0ab8 39be f06a 233e 2f08 9dbd
000002c0: ec2f d1bd defe 1a3e 35d7 18be 8b37 0abe
000002d0: 598d adbd 5a94 cdbd 8bdf 9cbe fa2c 063e
000002e0: 265d 6ebc 56ba 273e 50ab 2dbd 1eaf d33d
000002f0: d276 dc3b 173a 85bd dcd8 363e 6125 2ebe
00000300: c185 583e 436b 12bd 1c45 6dbd dfd6 97bd
00000310: a0d2 2abe ac0f 34be 5bd6 3a3d 9185 06bc
00000320: cce7 b53d 6db0 073e d311 f1bb 437b bb3d
00000330: d97f 883c 88ba 203e f316 24be 7561 083e
00000340: 50d6 473d 268d 243e 7369 bfbd a88e 083e
00000350: 1e80 42bd def5 3bbe 18af 9fbd 58b5 c1bd
00000360: f8fd aebd afd8 73bd b5eb 90bd a2d9 eb3d
00000370: 86f5 42bc 9bca 1f3e b17b cd3d 0863 b53d
00000380: 6f9e 60be f3f9 88be bbcb ae3c 6fe2 983b
00000390: 5dde a63d 0d85 e03c 914a 87bd 1047 ccbd
000003a0: f3b7 8d3d 8f10 8bbd b362 953d 9ab1 933d
000003b0: 771a 88be 549a 95bd 0985 9fbd 7ba3 60bd
000003c0: 2db2 d73c 3361 4c3b 24cb f4bd 360e 2c3e
000003d0: 04b9 a13d 3440 fa3d 95ad 2b3e bfde 843d
000003e0: 38a6 553c e40b 9dbb 1fa1 2dbd eb4d 793c
000003f0: 744d 3bbd cd13 c33d cfe9 933d 4ad4 c7bd

network_body._body_endoder.seq_layers.2.bias f4 [64]
-0.0037704508 0.0038523274 0.0020334756 0.001723362 0.0030274226 -0.0048421724 0.00020003933 -0.00486375
-0.004518518 0.0033748813 -0.0015445874 0.0058782743 -0.0008077803 0.0020557914 -0.004400021 -0.004443566
-0.0040829293 -0.0011985243 0.0011488697 -0.0019476756 -0.0002238151 -0.0008272386 -0.0012983603 -0.0012371722
0.003290091 -0.0060247085 -0.0021143188 -0.00044854698 0.0037040769 0.0018018631 -0.0028102256 0.001834279
-0.0023557427 -0.0031292506 0.003978342 0.00559996 -0.00025636633 -0.0048821047 0.0018283771 0.002079553
0.0027747077 0.00021536415 -0.0015628356 0.0021013122 0.00027087412 -0.002512643 0.00012351834 -0.00089011434
0.0020069934 0.004693564 -0.003502994 -0.00342669 0.00010739379 0.00069092837 -0.007043276 -0.0022132122
-0.0019644496 0.0017529957 0.003238091 -0.00016274942 0.0008061452 0.003465649 0.0027930797 4.8662e-05
00000000: ab19 77bb 5477 7c3b 0f44 053b 6fe2 e13a
00000010: b967 463b 16ab 9ebb a6c1 5139 1860 9fbb
00000020: 1410 94bb 1d2d 5d3b c173 caba 8a9e c03b
00000030: 38c1 53ba 75ba 063b 0d2e 90bb 559b 91bb
00000040: 18ca 85bb cd17 9dba ac95 963a 2649 ffba
00000050: e9af 6ab9 0bdb 58ba be2d aaba 9c28 a2ba
00000060: 919e 573b eb6a c5bb 6290 0abb f52a ebb9
00000070: 19c0 723b 7e2c ec3a c32b 38bb 316c f03a
00000080: ce62 1abb 1d14 4dbb c05c 823b df7f b73b
00000090: e868 86b9 10fa 9fbb 28a6 ef3a 1c49 083b
000000a0: dfd7 353b 60d3 6139 10d8 ccba 2bb6 093b
000000b0: 1c04 8e39 28ab 24bb b484 0139 9056 69ba
000000c0: c387 033b 78cc 993b 7d92 65bb 5192 60bb
000000d0: 9a38 e138 6b1f 353a 48cb e6bb 8a0b 11bb
000000e0: ffbd 00bb c6c4 e53a 2736 543b b7a7 2ab9
000000f0: 7d53 533a f11f 633b 1a0c 373b 6d1a 4c38

action_model._discrete_distribution.branches.0.weight f4 [4, 32]
0.014305869 -0.01674182 0.016523838 -0.002945572 -0.003993657 -0.0061059436 -0.038377963 -0.015431773
0.0067016147 0.009891811 -0.05661428 0.03881071 0.012010805 0.008557693 0.004509922 -0.0074954447
-0.011743577 -0.021057282 -0.003643187 0.014287715 0.0126078995 0.0031650981 0.014652796 -0.020768655
-0.0050341864 -0.003360224 -0.01843918 -0.02403883 -0.04068392 0.007914313 0.0045544594 -0.016021635
0.035625674 -0.012202973 -0.013040538 0.01158591 0.0007959077 0.0034539583 0.040762678 -0.022129558
-0.024213277 -0.013935843 0.0061406144 0.004224294 0.0014100544 0.01635808 0.02651369 -0.010994778
-0.008645982 0.0144620715 -0.0029717048 0.0047626076 -0.024084842 -0.013241484 0.011159411 0.0045066397
-0.025816975 -0.0137384655 -0.0022434427 -0.00012350538 0.027807774 0.004111956 0.0502384 0.007846643
0.011687173 -0.010911861 -0.0492125 0.028849358 -0.019335521 -0.026676584 -0.027013693 -0.00985412
-0.0015157333 0.033339076 0.008784377 -0.042217348 -0.03681123 -0.0047625396 0.0044238637 0.0027527588
-0.0065959333 -0.00911723 -0.017065747 -0.024027742 0.008144342 -0.025811268 -0.013852748 0.019602155
6.340894e-05 0.00079306617 -0.0025289191 0.03405127 -0.01802326 0.00075609545 -0.03945651 -0.027234653
-0.006465981 -0.005691266 0.00611553 -0.0022134692 -0.022323957 0.004332485 0.03671251 0.0043113343
0.005887885 0.008856075 0.02816871 0.007666506 -0.039936226 -0.015690535 0.0020302767 0.013362132
-0.0091959685 0.024607338 0.0057476 -0.01753742 -0.0026855678 -0.017869573 -0.012384487 0.01638745
-0.0005402381 -0.01857856 0.022516184 -0.004813259 0.021650469 0.011261782 -0.02224882 0.007193785
00000000: 2a63 6a3c 2426 89bc 005d 873c 7f0a 41bb
00000010: 39dd 82bb 5e14 c8bb 3632 1dbd 8cd5 7cbc
00000020: 3899 db3b 4311 223c 60e4 67bd fbf7 1e3d
00000030: f8c8 443c 9135 0c3c f8c7 933b 599c f5bb
00000040: 2268 40bc 5280 acbc 89c2 6ebb 0517 6a3c
00000050: 5d91 4e3c 896d 4f3b 4812 703c 0723 aabc
00000060: d1f5 a4bb 3437 5cbb c30d 97bc 15ed c4bc
00000070: 2fa4 26bd 09ab 013c 933d 953b ce3f 83bc
00000080: 3aec 113d faee 47bc fba7 55bc d4d2 3d3c
00000090: 76a4 503a ce5b 623b c4f6 263d 0c49 b5bc
000000a0: ec5a c6bc 2953 64bc 3537 c93b f26b 8a3b
000000b0: 93d1 b83a 6101 863c 3d33 d93c 7123 34bc
000000c0: e0a7 0dbc 53f2 6c3c efc0 42bb a60f 9c3b
000000d0: 934d c5bc cff2 58bc f6d5 363c 6fac 933b
000000e0: 1f7e d3bc 4d17 61bc b906 13bb 3981 01b9
000000f0: 21cd e33c 96bd 863b c8c6 4d3d 358f 003c
00000100: 8e7b 3f3c aac7 32bc 0c93 49bd 7d55 ec3c
00000110: 8765 9ebc da88 dabc d24b ddbc 2d73 21bc
00000120: 92ab c6ba 8e8e 083d 59ec 0f3c 19ec 2cbd
00000130: 5fc7 16bd 140f 9cbb 0ff6 903b a167 343b
00000140: b322 d8bb 6f60 15bc 77cd 8bbc d4d5 c4bc
00000150: d96f 053c 2772 d3bc a3f6 62bc b394 a03c
00000160: 6afa 8438 c5e5 4f3a 39bc 25bb 5879 0b3d
00000170: 84a5 93bc b534 463a 269d 21bd 351b dfbc
00000180: 94e0 d3bb cd7d babb c964 c83b da0f 11bb
00000190: bbe0 b6bc 85f7 8d3b db5f 163d 1846 8d3b
000001a0: 29ef c03b 1219 113c 11c2 e63c 5037 fb3b
000001b0: 2b94 23bd 7089 80bc 640e 053b d8ec 5a3c
000001c0: b0aa 16bc 5495 c93c 5d56 bc3b a3aa 8fbc
000001d0: 5a00 30bb 3663 92bc 4ee8 4abc f93e 863c
000001e0: c49e 0dba 1032 98bc dc73 b83c 8bb8 9dbb
000001f0: 535c b13c 5683 383c 2843 b6bc d8b9 eb3b

action_model._discrete_distribution.branches.0.bias f4 [4]
0.0039707846 0.004368605 -0.0033299893 -0.004844347
00000000: 5b1d 823b 8426 8f3b f33b 5abb 54bd 9ebb

onnx::LSTM_98 f4 [1, 128, 64]
-0.023290604 -0.051400412 0.016340073 0.045239393 -0.09314489 0.017702287 0.22360918 -0.08376462
-0.05278773 -0.11133764 -0.03370719 0.17672893 -0.1426326 0.021756437 -0.16592254 -0.19527018
0.2056659 0.053229056 -0.14091066 0.17771147 -0.20589067 -0.06403263 0.07317508 -0.21504109
0.23396695 0.07979964 -0.24710958 0.02204164 0.04320141 0.073930964 0.11440634 0.13724409
0.20255308 0.22075053 0.10178827 0.06055402 0.22105907 0.042901844 -0.22438449 0.09604737
-0.07551317 -0.04851139 0.22924629 0.22630164 -0.122904755 0.18073958 -0.1742867 0.040541492
0.23115383 -0.17206384 0.16807677 -0.04743131 -0.112254046 0.18522502 0.17661794 -0.017499523
-0.11273252 0.07081239 -0.07373387 0.050339226 -0.14218304 0.040259816 -0.040980484 0.025611432
0.14823633 -0.09285327 0.15855038 -0.15678114 -0.11124207 0.23601264 0.18389459 0.023853704
-0.1946107 -0.09259756 0.051528778 0.022835646 -0.22617714 -0.023334421 0.18371555 0.14306197
-0.0699064 -0.230523 0.12506853 -0.17980003 0.13825372 -0.16146004 -0.21295461 -0.10165601
0.12295408 -0.12949616 0.092996925 -0.1459826 0.07680747 -0.063359246 -0.15406798 0.09280061
0.24211057 0.18145539 -0.009331142 -0.03803297 0.15683508 -0.0590942 0.19985881 -0.12444627
-0.039856702 0.21162146 0.08913246 -0.056888454 -0.1727412 -0.2212774 -0.20241302 -0.18720295
0.1885744 -0.12880853 0.19104707 0.07130018 -0.03903046 0.082120314 0.18254972 -0.2344575
0.018391378 -0.06882009 -0.052375726 0.07251585 -0.097012006 -0.16913919 0.166869 -0.083387904
0.2208001 0.05667658 0.01491723 -0.18152393 -0.061404184 0.1972357 0.21645512 -0.17883947
0.13358523 -0.11618978 0.2452812 0.027513225 -0.09031208 0.07264434 0.18628553 -0.02080718
0.063810445 0.14471439 -0.11234912 0.056664336 0.0017446269 -0.055697765 0.018751323 -0.19776168
0.03352277 0.04239188 0.11656894 0.015353884 0.1943158 0.23273058 -0.14136496 0.16581714
-0.060732786 -0.10251045 0.10952929 0.16953315 0.038651206 -0.048040155 -0.18323891 -0.14350949
0.048911262 0.22851281 -0.09348878 -0.028363908 0.19157703 -0.23404159 0.21390073 0.09373652
-0.073816404 0.21621458 -0.15773547 -0.052751593 0.023724053 -0.21478397 0.16478048 -0.09985813
0.123053804 -0.24415569 -0.20342463 -0.24263701 0.04794069 0.0019166325 0.016494522 0.16907561
0.07959022 -0.046010815 0.20297708 0.15205982 0.12420999 -0.09204108 -0.22445531 -0.19881898
0.15396853 0.06741987 -0.055742614 -0.21918257 -0.023084898 0.10614865 -0.031843055 0.23290467
-0.071536414 0.07385122 -0.16112168 -0.053833768 0.18567091 0.005884358 0.17699717 0.22646938
-0.13591102 -0.059474416 -0.18164915 0.094604254 -0.013865434 -0.05148428 -0.08522315 0.20959364
-0.0057181716 0.23171158 -0.08373882 0.053114407 -0.0065639406 -0.08555618 -0.012051988 0.11521218
0.13031502 -0.117819846 0.2299621 0.22598648 0.13593979 -0.1355618 -0.1494062 0.13262166
-0.22010387 -0.21057363 0.033264503 -0.1493516 0.017777588 -0.0061305896 -0.19087154 -0.10708969
0.09346917 0.10123606 0.08349492 0.23858836 -0.015882289 -0.22338699 -0.11067549 -0.036751993
00000000: f0cb bebc 3d89 52bd 9edb 853c f14c 393d
00000010: c0c2 bebd 6304 913c cef9 643e c98c abbd
00000020: f237 58bd fd04 e4bd 8d10 0abd 6ef8 343e
00000030: 480e 12be 8e3a b23c 99e7 29be e8f4 47be
00000040: 159a 523e b606 5a3d e24a 10be fff9 353e
00000050: 01d5 52be 8a23 83bd d1dc 953d bb33 5cbe
00000060: 0895 6f3e fe6d a33d 4b0a 7dbe ab90 b43c
00000070: f6f3 303d 1e69 973d df4d ea3d b789 0c3e
00000080: 136a 4f3e 6d0c 623e 5e76 d03d 7e07 783d
00000090: 4f5d 623e d8b9 2f3d 0cc5 65be 7cb4 c43d
000000a0: a6a6 9abd e1b3 46bd 8abf 6a3e 9ebb 673e
000000b0: 7db5 fbbd cc13 393e 3678 32be d60e 263d
000000c0: 97b3 6c3e 8131 30be 511c 2c3e 5547 42bd
000000d0: 73e5 e5bd a1ab 3d3e 55db 343e 295b 8fbc
000000e0: 4fe0 e6bd 1606 913d c901 97bd 8130 4e3d
000000f0: 6e98 11be 7ae7 243d 27db 27bd 11cf d13c
00000100: 44cb 173e db29 bebd 085b 223e 3c8b 20be
00000110: e2d2 e3bd 4cad 713e dd4e 3c3e d868 c33c
00000120: 0748 47be caa3 bdbd d70f 533d d211 bb3c
00000130: fb9a 67be d427 bfbc ee1f 3c3e d67e 123e
00000140: 162b 8fbd 390e 6cbe f711 003e 801d 38be
00000150: 6292 0d3e c855 25be c610 5abe 0731 d0bd
00000160: 59cf fb3d a49a 04be 2c75 be3d 767c 15be
00000170: 3c4d 9d3d 7ec2 81bd ffc3 1dbe 3f0e be3d
00000180: d5eb 773e 71cf 393e a5e1 18bc 76c8 1bbd
00000190: 6099 203e c30c 72bd caa7 4c3e b0dd febd
000001a0: c840 23bd 4cb3 583e 148b b63d de03 69bd
000001b0: 12e3 30be 8b96 62be 5c45 4fbe 21b2 3fbe
000001c0: a619 413e 62e6 03be d8a1 433e d405 923d
000001d0: 67de 1fbd b22e a83d 50ee 3a3e a015 70be
000001e0: 84a9 963c 8cf1 8cbd ee87 56bd 3183 943d
000001f0: 3bae c6bd d332 2dbe b5df 2a3e 47c7 aabd
00000200: 6c19 623e b425 683d 6667 743c 69e1 39be
00000210: f482 7bbd 28f8 493e 69a6 5d3e b221 37be
00000220: 91ca 083e e8f4 edbd ff2a 7b3e 6a63 e13c
00000230: 8af5 b8bd 8ec6 943d a2c1 3e3e d273 aabc
00000240: 0daf 823d 0230 143e 4c17 e6bd dd18 683d
00000250: f7ab e43a 5723 64bd 609c 993c 0a82 4abe
00000260: 2c4f 093d 1ca3 2d3d b2bb ee3d db8e 7b3c
00000270: b9fa 463e ed50 6e3e fac1 10be f8cb 293e
00000280: f1c2 78bd 00f1 d1bd e450 e03d 199a 2d3e
00000290: ba50 1e3d c1c5 44bd fba2 3bbe 27f4 12be
000002a0: 2d57 483d 43ff 693e 0c77 bfbd 6d5b e8bc
000002b0: c52c 443e 99a8 6fbe cb08 5b3e eff8 bf3d
000002c0: 0e2d 97bd 5b67 5d3e 6885 21be 0e12 58bd
000002d0: f258 c23c 54f0 5bbe 37bc 283e 6b82 ccbd
000002e0: a203 fc3d f303 7abe 8c4e 50be d675 78be
000002f0: 755d 443d 8437 fb3a 851f 873c 2822 2d3e
00000300: 3200 a33d d675 3cbd 39d9 4f3e 92b5 1b3e
00000310: cf61 fe3d 0980 bcbd 9dd7 65be 3497 4bbe
00000320: eda9 1d3e 6e13 8a3d 5e52 64bd 6571 60be
00000330: 8a1c bdbc 7764 d93d dd6d 02bd 907e 6e3e
00000340: af81 92bd 4f3f 973d 15fd 24be cc80 5cbd
00000350: 8420 3e3e 93d1 c03b bf3e 353e 97e7 673e
00000360: 422c 0bbe 729b 73bd 3c02 3abe e0bf c13d
00000370: d82b 63bc 2ee1 52bd 7a89 aebd b79f 563e
00000380: 805f bbbb cd45 6d3e 427f abbd 7e8e 593d
00000390: 5316 d7bb 1438 afbd b475 45bc 5df4 eb3d
000003a0: 4d71 053e 884b f1bd 2f7b 6b3e 0069 673e
000003b0: cd33 0b3e b6d0 0abe f0fd 18be f9cd 073e
000003c0: e962 61be 9da0 57be 5c40 083d a0ef 18be
000003d0: 4ea2 913c 1de3 c8bb d473 43be d751 dbbd
000003e0: c46c bf3d da54 cf3d 62ff aa3d 8250 743e
000003f0: 931b 82bc 8fbf 64be d5a9 e2bd 4289 16bd

onnx::LSTM_99 f4 [1, 128, 32]
-0.022455571 0.09875873 -0.10612738 -0.06653624 0.06855285 -0.12722139 -0.1599869 -0.26978576
0.17413576 -0.021186763 -0.047774334 -0.0018992212 -0.027480423 -0.24616285 -0.2826325 -0.07659383
0.22353901 -0.14461277 0.28957433 0.023144105 0.060177717 0.10769272 0.148859 0.28698233
-0.28674427 -0.15867333 0.034450255 0.2769571 0.16577804 -0.23544665 0.21762867 -0.19003634
0.2271178 -0.13422376 -0.09545484 0.14686048 -0.120508365 -0.031932212 0.09077972 0.27433395
-0.06226416 0.09473061 -0.05934814 -0.040342737 0.23461688 -0.048684936 -0.2750156 -0.16676337
-0.17036037 -0.06215824 0.076290175 -0.28191477 0.09982043 0.24818213 0.2634548 0.2827244
0.26239863 -0.044074364 -0.2182822 -0.1605099 0.14946137 0.21262194 -0.20366393 -0.17398119
0.15970474 -0.16775781 0.25651106 0.23738194 -0.2868006 0.2373004 -0.17254162 -0.0060393494
0.13227682 -0.22102337 -0.26581636 -0.10250295 -0.1480512 0.07547459 0.04824073 0.13027129
0.110231824 0.2681116 0.29442376 0.1944421 -0.038559377 0.18543795 0.26689255 0.1455143
0.2368381 0.14980301 -0.034441136 -0.08548341 0.24927019 0.13095261 0.30662304 -0.10182151
0.10937709 0.16934715 -0.007635829 0.2231144 -0.18604292 0.24662355 -0.043517154 -0.08736974
0.19130725 -0.1051489 0.24288782 -0.23096232 0.2826157 -0.019585462 0.16152126 0.15915373
0.06796143 -0.016497016 0.13655248 -0.03518793 0.09826362 -0.21483986 -0.056558754 -0.11208945
0.24392483 -0.2557613 0.30381554 -0.2891405 -0.16601169 0.07364196 -0.1250112 -0.17450488
-0.119587995 0.2049054 0.21500762 -0.2369278 -0.21418679 0.29317763 0.22626318 0.29955724
-0.19956742 -0.18421532 0.08259978 -0.12268997 0.21391293 0.15539782 0.050349683 0.074792095
-0.20263097 -0.17009166 0.19862556 -0.21366733 -0.14955644 0.12906465 -0.13242467 0.16134833
0.18524139 0.0912128 0.22859463 -0.21173726 -0.12128066 0.014230093 -0.111102074 -0.23357897
-0.27571818 -0.24917653 0.038947634 -0.045990363 -0.2519776 0.2560126 0.09738204 0.24689287
-0.0768594 0.11132566 0.12220052 -0.11161701 -0.21236126 0.27145433 -0.24043879 0.2430165
0.25295022 -0.08115394 -0.007992018 -0.13722257 0.14018698 0.2723024 0.10522634 -0.032943703
-0.27763343 0.2342485 0.033599336 -0.2634719 0.14740792 0.24600884 -0.081305206 0.19996028
-0.0111264065 0.10650068 0.2787108 0.27120402 0.001062636 0.11320982 0.07292686 0.23351406
-0.22212271 0.20346276 -0.25364333 -0.10739389 0.08797493 0.02622611 -0.26157776 -0.19330491
-0.19422133 0.04842059 -0.2838292 0.3016717 0.19903266 -0.18994553 -0.24763446 -0.272338
-0.3010873 0.039737634 -0.14796583 0.16989289 -0.13299611 -0.25407973 0.08861616 0.3030841
-0.18601947 0.26254195 -0.096565604 -0.13188262 0.25584218 0.27731204 -0.054581694 0.26070094
-0.21750303 -0.17748056 -0.22018716 0.175368 0.20471111 -0.30365375 -0.11972628 0.29815212
0.13435604 0.2022134 0.06611498 0.25152186 0.26084697 -0.1122366 0.25576773 0.14063469
0.09337881 -0.26238966 0.26269978 0.0799048 -0.26725653 0.013165694 0.039794654 -0.09419164
00000000: bff4 b7bc 0442 ca3d 5059 d9bd 2744 88bd
00000010: 7065 8c3d 5346 02be 9bd3 23be 5c21 8abe
00000020: a550 323e dd8f adbc 05af 43bd 4aef f8ba
00000030: a01e e1bc 1d12 7cbe 35b5 90be 3add 9cbd
00000040: 69e7 643e 5f15 14be 1643 943e b598 bd3c
00000050: e97c 763d 008e dc3d 7e6e 183e 59ef 923e
00000060: 25d0 92be 437b 22be b61b 0d3d 52cd 8d3e
00000070: b8c1 293e ed18 71be 0dda 5e3e e398 42be
00000080: 9291 683e f471 09be d47d c3bd 9862 163e
00000090: 17cd f6bd 5acb 02bd b8ea b93d 8075 8c3e
000000a0: b408 7fbd 1f02 c23d 0917 73bd 6d3e 25bd
000000b0: 683f 703e db69 47bd d8ce 8cbe 04c4 2abe
000000c0: f372 2ebe a399 7ebd 063e 9c3d 2257 90be
000000d0: a76e cc3d 7523 7e3e 8ce3 863e 41c1 903e
000000e0: 1d59 863e 5287 34bd 5e85 5fbe b55c 24be
000000f0: 670c 193e 91b9 593e 478d 50be 2028 32be
00000100: a489 233e b4c8 2bbe 6b55 833e 4014 733e
00000110: 87d7 92be e0fe 723e c0ae 30be bce5 c5bb
00000120: 9373 073e f353 62be 1519 88be 11ed d1bd
00000130: bc9a 17be 6c92 9a3d 1298 453d d665 053e
00000140: 39c1 e13d ec45 893e b6be 963e d41b 473e
00000150: 70f0 1dbd 72e3 3d3e 24a6 883e b301 153e
00000160: b085 723e f665 193e 2612 0dbd ed11 afbd
00000170: af40 7f3e 7118 063e b2fd 9c3e cc87 d0bd
00000180: 1901 e03d 5769 2d3e fa35 fabb 1a78 643e
00000190: 0982 3ebe e28a 7c3e 0b3f 32bd e8ee b2bd
000001a0: 0ce6 433e 4e58 d7bd 96b7 783e 6381 6cbe
000001b0: 01b3 903e b171 a0bc d465 253e 32f9 223e
000001c0: 5d2f 8b3d c024 87bc 6ad4 0b3e 3821 10bd
000001d0: 703e c93d fbfe 5bbe 27aa 67bd 278f e5bd
000001e0: 6ec7 793e 25f3 82be b68d 9b3e 390a 94be
000001f0: f8fe 29be 99d1 963d f002 00be 68b1 32be
00000200: 8dea f4bd b9d2 513e f52a 5c3e 349d 72be
00000210: c853 5bbe 611b 963e 89b1 673e 915f 993e
00000220: 675b 4cbe f1a2 3cbe 132a a93d e144 fbbd
00000230: fe0b 5b3e 9b20 1f3e 783b 4e3d 992c 993d
00000240: 7e7e 4fbe 822c 2ebe 8064 4b3e 9ccb 5abe
00000250: 5325 19be 8629 043e 559a 07be 7f38 253e
00000260: ebaf 3d3e c7cd ba3d b614 6a3e a7d1 58be
00000270: ff61 f8bd 5625 693c 7c89 e3bd 532f 6fbe
00000280: ef2a 8dbe 2228 7fbe 8e87 1f3d 6460 3cbd
00000290: 3503 81be 1514 833e 3c70 c73d 7cd1 7c3e
000002a0: 7668 9dbd b5fe e33d 4444 fa3d 7597 e4bd
000002b0: 3b75 59be 10fc 8a3e 9635 76be 51d9 783e
000002c0: b182 813e 0934 a6bd f4f0 02bc 1384 0cbe
000002d0: 2d8d 0f3e 386b 8b3e e880 d73d faef 06bd
000002e0: f825 8ebe d7de 6f3e 759f 093d cae5 86be
000002f0: 1af2 163e bee9 7b3e 5883 a6bd 63c2 4c3e
00000300: 884b 36bc 071d da3d 2fb3 8e3e 41db 8a3e
00000310: 2648 8b3a 8dda e73d ad5a 953d 4f1e 6f3e
00000320: 2374 63be 8b58 503e 8add 81be 54f1 dbbd
00000330: 332c b43d 24d8 d63c 85ed 85be b9f1 45be
00000340: f5e1 46be ab54 463d 1052 91be b774 9a3e
00000350: 38cf 4b3e 1581 42be e393 7dbe e36f 8bbe
00000360: 1d28 9abe eec3 223d 5b84 17be 67f8 2d3e
00000370: 2230 08be bd16 82be 647c b53d d72d 9b3e
00000380: e37b 3ebe e66b 863e 30c4 c5bd 3d0c 07be
00000390: bffd 823e d8fb 8d3e 0e91 5fbd 987a 853e
000003a0: 1db9 5ebe 77bd 35be be78 61be ab93 333e
000003b0: ca9f 513e 8178 9bbe 0d33 f5bd 65a7 983e
000003c0: a194 093e 0811 4f3e 4a67 873d 79c7 803e
000003d0: bc8d 853e 4ddc e5bd fdf3 823e 8a02 103e
000003e0: 643d bf3d f057 86be 9680 863e 21a5 a33d
000003f0: d9d5 88be ecb4 573c b8ff 223d 8ce7 c0bd

onnx::LSTM_100 f4 [1, 256]
0.0034365347 0.00312574 0.00499698 0.006204507 -0.0038185373 0.0021744296 0.0012696456 0.0053125788
0.006671426 0.0019820496 0.00082853204 -0.003910319 -0.002296936 -0.0016041005 -0.0033860162 -0.0037404238
-0.0025842823 0.0030768695 0.0027866522 0.0077380124 0.0021030703 0.002891446 0.0021881566 0.0054871324
0.003186186 0.0054687154 -0.0004102872 0.0053251456 0.0017504136 -0.0009084853 0.0073593725 -0.0067800493
-0.0021640703 0.003443996 0.0071508694 0.0008556089 0.0028905359 0.002119771 -0.003246092 -0.004154561
0.0044443766 2.2843262e-05 -0.0029687453 0.0058315527 0.0013457886 -0.005466661 -0.0034080197 0.0038468987
-0.002906599 -0.0032813381 -0.0039059285 0.00505825 0.005391842 0.0005248414 -0.0016973633 0.003134026
0.0043661497 0.0036872185 -0.00071181596 -0.0020813178 0.006825505 0.00032740427 0.0049660546 0.0029356945
1.001853 0.9986411 1.0023094 0.99993277 0.9977805 0.9977337 1.0020518 1.0042207
0.99948114 1.004362 1.0057827 0.99994785 1.0011477 1.0001619 0.9973235 0.9970151
0.9990591 1.0075079 0.99919134 1.0086545 1.0027833 1.0052072 0.9962646 1.003666
1.00303 1.001252 0.9991695 1.0024451 0.9963184 0.99845344 1.0073886 0.99809587
0.0031930003 0.0026734348 0.0026277252 -0.0034678327 0.0038373303 -0.0014403765 -0.0023262913 0.0026912743
0.0012938277 -0.00054265955 0.0010762068 0.005739558 0.0009367796 0.0039190296 -0.0027768854 0.0077247154
-0.002113414 0.006304666 0.003610708 -0.0067074737 0.005388329 -0.0012279093 -0.0030083493 -0.0024287147
-0.0014006579 0.0031128947 0.002858484 -0.0016942332 -0.0018080274 -0.005438162 -0.0032062773 -0.0057155318
0.0034365347 0.00312574 0.00499698 0.006204507 -0.0038185373 0.0021744296 0.0012696456 0.0053125788
0.006671426 0.0019820496 0.00082853204 -0.003910319 -0.002296936 -0.0016041005 -0.0033860162 -0.0037404238
-0.0025842823 0.0030768695 0.0027866522 0.0077380124 0.0021030703 0.002891446 0.0021881566 0.0054871324
0.003186186 0.0054687154 -0.0004102872 0.0053251456 0.0017504136 -0.0009084853 0.0073593725 -0.0067800493
-0.0021640703 0.003443996 0.0071508694 0.0008556089 0.0028905359 0.002119771 -0.003246092 -0.004154561
0.0044443766 2.2843262e-05 -0.0029687453 0.0058315527 0.0013457886 -0.005466661 -0.0034080197 0.0038468987
-0.002906599 -0.0032813381 -0.0039059285 0.00505825 0.005391842 0.0005248414 -0.0016973633 0.003134026
0.0043661497 0.0036872185 -0.00071181596 -0.0020813178 0.006825505 0.00032740427 0.0049660546 0.0029356945
1.001853 0.9986411 1.0023094 0.99993277 0.9977805 0.9977337 1.0020518 1.0042207
0.99948114 1.004362 1.0057827 0.99994785 1.0011477 1.0001619 0.9973235 0.9970151
0.9990591 1.0075079 0.99919134 1.0086545 1.0027833 1.0052072 0.9962646 1.003666
1.00303 1.001252 0.9991695 1.0024451 0.9963184 0.99845344 1.0073886 0.99809587
0.0031930003 0.0026734348 0.0026277252 -0.0034678327 0.0038373303 -0.0014403765 -0.0023262913 0.0026912743
0.0012938277 -0.00054265955 0.0010762068 0.005739558 0.0009367796 0.0039190296 -0.0027768854 0.0077247154
-0.002113414 0.006304666 0.003610708 -0.0067074737 0.005388329 -0.0012279093 -0.0030083493 -0.0024287147
-0.0014006579 0.0031128947 0.002858484 -0.0016942332 -0.0018080274 -0.005438162 -0.0032062773 -0.0057155318
00000000: 7c37 613b 37d9 4c3b b5bd a33b 2d4f cb3b
00000010: 6d40 7abb e080 0e3b 3d6a a63a 2415 ae3b
00000020: fa9b da3b 46e5 013b d831 593a 2222 80bb
00000030: 3188 16bb ae40 d2ba ede7 5dbb e621 75bb
00000040: 105d 29bb 4ea5 493b 44a0 363b 278f fd3b
00000050: aad3 093b 6a7e 3d3b 2d67 0f3b 67cd b33b
00000060: 55cf 503b e932 b33b d11b d7b9 8f7e ae3b
00000070: 226e e53a 6b27 6eba e426 f13b 2d2b debb
00000080: 13d3 0dbb aab4 613b d751 ea3b f14a 603a
00000090: 256f 3d3b dbeb 0a3b 63bc 54bb fc22 88bb
000000a0: 22a2 913b 889f bf37 488f 42bb 9c16 bf3b
000000b0: 2c65 b03a ad21 b3bb 1559 5fbb 401c 7c3b
000000c0: a47c 3ebb b80b 57bb 9bfa 7fbb adbf a53b
000000d0: 0dae b03b 8395 093a 107a deba 3b64 4d3b
000000e0: eb11 8f3b 43a5 713b 2999 3aba b866 08bb
000000f0: 7ca8 df3b 75a7 ab39 49ba a23b c864 403b
00000100: b83c 803f f1a6 7f3f ad4b 803f 98fb 7f3f
00000110: 8b6e 7f3f 7a6b 7f3f 3c43 803f 4e8a 803f
00000120: ffdd 7f3f ef8e 803f 7dbd 803f 95fc 7f3f
00000130: 9c25 803f 4e05 803f 9850 7f3f 623c 7f3f
00000140: 56c2 7f3f 05f6 803f 01cb 7f3f 971b 813f
00000150: 345b 803f a1aa 803f 320b 7f3f 2178 803f
00000160: 4963 803f 0729 803f 93c9 7f3f 1f50 803f
00000170: b90e 7f3f a59a 7f3f 1cf2 803f 3683 7f3f
00000180: a841 513b cb34 2f3b ea35 2c3b 9444 63bb
00000190: b87b 7b3b 04cb bcba b174 18bb 1760 303b
000001a0: a795 a93a 4441 0eba 820f 8d3a e712 bc3b
000001b0: 3792 753a 346b 803b 68fc 35bb 9c1f fd3b
000001c0: 3481 0abb 5f97 ce3b a1a1 6c3b 5eca dbbb
000001d0: 9490 b03b cdf1 a0ba ba27 45bb 122b 1fbb
000001e0: 4896 b7ba b501 4c3b 6755 3b3b 0811 deba
000001f0: 55fb ecba 9c32 b2bb 6820 52bb 5b49 bbbb
00000200: 7c37 613b 37d9 4c3b b5bd a33b 2d4f cb3b
00000210: 6d40 7abb e080 0e3b 3d6a a63a 2415 ae3b
00000220: fa9b da3b 46e5 013b d831 593a 2222 80bb
00000230: 3188 16bb ae40 d2ba ede7 5dbb e621 75bb
00000240: 105d 29bb 4ea5 493b 44a0 363b 278f fd3b
00000250: aad3 093b 6a7e 3d3b 2d67 0f3b 67cd b33b
00000260: 55cf 503b e932 b33b d11b d7b9 8f7e ae3b
00000270: 226e e53a 6b27 6eba e426 f13b 2d2b debb
00000280: 13d3 0dbb aab4 613b d751 ea3b f14a 603a
00000290: 256f 3d3b dbeb 0a3b 63bc 54bb fc22 88bb
000002a0: 22a2 913b 889f bf37 488f 42bb 9c16 bf3b
000002b0: 2c65 b03a ad21 b3bb 1559 5fbb 401c 7c3b
000002c0: a47c 3ebb b80b 57bb 9bfa 7fbb adbf a53b
000002d0: 0dae b03b 8395 093a 107a deba 3b64 4d3b
000002e0: eb11 8f3b 43a5 713b 2999 3aba b866 08bb
000002f0: 7ca8 df3b 75a7 ab39 49ba a23b c864 403b
00000300: b83c 803f f1a6 7f3f ad4b 803f 98fb 7f3f
00000310: 8b6e 7f3f 7a6b 7f3f 3c43 803f 4e8a 803f
00000320: ffdd 7f3f ef8e 803f 7dbd 803f 95fc 7f3f
00000330: 9c25 803f 4e05 803f 9850 7f3f 623c 7f3f
00000340: 56c2 7f3f 05f6 803f 01cb 7f3f 971b 813f
00000350: 345b 803f a1aa 803f 320b 7f3f 2178 803f
00000360: 4963 803f 0729 803f 93c9 7f3f 1f50 803f
00000370: b90e 7f3f a59a 7f3f 1cf2 803f 3683 7f3f
00000380: a841 513b cb34 2f3b ea35 2c3b 9444 63bb
00000390: b87b 7b3b 04cb bcba b174 18bb 1760 303b
000003a0: a795 a93a 4441 0eba 820f 8d3a e712 bc3b
000003b0: 3792 753a 346b 803b 68fc 35bb 9c1f fd3b
000003c0: 3481 0abb 5f97 ce3b a1a1 6c3b 5eca dbbb
000003d0: 9490 b03b cdf1 a0ba ba27 45bb 122b 1fbb
000003e0: 4896 b7ba b501 4c3b 6755 3b3b 0811 deba
000003f0: 55fb ecba 9c32 b2bb 6820 52bb 5b49 bbbb
