results/FullyAbstract/bachelor/bachelor-2999970.onnx (onnx, 873376 bytes, 11 tensors)

network_body._body_endoder.seq_layers.0.weight f4 [256, 7]
0	0xbe5b7441	-0.21431066
1	0x3ead742f	0.33877704
2	0xbf7a8a4c	-0.97867274
3	0x3d8a020c	0.06738672
4	0xbf0deef8	-0.5544276
5	0x3ea499ad	0.32148495
6	0xbecaf9ba	-0.3964365
7	0xbe98769d	-0.29777995
8	0x3f6b4f74	0.9191811
9	0x3ec6c9d1	0.3882585
10	0x3d8be158	0.0683009
11	0xbdb254c9	-0.08707578
12	0xbee0338c	-0.43789327
13	0xbe8f019f	-0.27930924
14	0x3e127247	0.14301406
15	0x3e15a148	0.14612305
16	0xbedcc7f3	-0.431213
17	0x3e358c54	0.17729312
18	0xbe653a83	-0.22385602
19	0xbe4f1086	-0.20221147
20	0x3e396d72	0.18108156
21	0xbf13eb40	-0.5778084
22	0xbe0706ad	-0.1318614
23	0x3ee74f0d	0.45177498
24	0xbe9fc9e9	-0.31208733
25	0xbe120999	-0.14261474
26	0x3e9ff6f7	0.31243107
27	0xbe85697e	-0.26057047
28	0x3e4f8be7	0.20268212
29	0xbe9e9280	-0.30971146
30	0x3e8ef3ad	0.27920285
31	0x3e9205b0	0.28519964
32	0xbeb5efb7	-0.3553445
33	0xbeb9365f	-0.36174294
34	0xbda6b2ea	-0.08139594
35	0xbf2085c1	-0.6270409
36	0xbe77e104	-0.2420693
37	0x3f3f79c5	0.7479518
38	0x3f3b15ec	0.73080325
39	0xbe6f59c8	-0.23374093
40	0xbf6c1c2e	-0.922305
41	0xbe986907	-0.2976763
42	0x3b0c5d4a	0.002141791
43	0x3cfeaab3	0.031087255
44	0xbf72a6be	-0.9478568
45	0xbf13b940	-0.57704544
46	0xbe4e2170	-0.20129943
47	0x3ed6d113	0.41956386
48	0xbed4e327	-0.41579553
49	0x3d88c0a8	0.06677371
50	0xbde73320	-0.11289048
51	0xbd86efc9	-0.06588704
52	0x3e1e241a	0.15443459
53	0x3de6c64f	0.11268293
54	0xbe12b248	-0.14325821
55	0x3e218668	0.15773928
56	0xbee1b950	-0.44086695
57	0xbea362a5	-0.31911197
58	0x3ea8e790	0.32989168
59	0xbe25e86e	-0.16201946
60	0xbf2a8fba	-0.6662556
61	0xbf17974a	-0.59215224
62	0x3ec1192f	0.37714526
63	0x3ecec9fa	0.4038847
64	0x3e0a99d9	0.1353525
65	0xbf0f7903	-0.56044024
66	0xbe907d47	-0.2822058
67	0xbe50f55a	-0.20406094
68	0xbe283073	-0.16424732
69	0xbeac5799	-0.33660582
70	0x3db3a8bd	0.08772419
71	0x3dbcbb1d	0.092153765
72	0x3f3892b1	0.72098833
73	0xbe706c8b	-0.23478906
74	0x3eb88381	0.3603783
75	0xbb8eb61f	-0.0043552066
76	0xbe6496d6	-0.22323164
77	0xbea5fad1	-0.3241792
78	0xbf5cbcd0	-0.86225605
79	0xbe431423	-0.1905065
80	0xbf009f08	-0.5024266
81	0xbed1b43c	-0.4095782
82	0x3f5b6952	0.8570758
83	0x3e8a5b2b	0.2702268
84	0xbf30cc50	-0.69061756
85	0x3ea41969	0.32050636
86	0xbd8b5fce	-0.06805383
87	0x3f14fcf2	0.58198464
88	0x3e78a968	0.24283373
89	0x3f279fe1	0.6547833
90	0xbefce0e7	-0.49390337
91	0x3ef6271a	0.48076707
92	0x3df8d285	0.121495284
93	0xbd1480d8	-0.036255687
94	0x3f32a561	0.697836
95	0x3f87b720	1.060276
96	0x3e7ea926	0.24869213
97	0x3ebcf95c	0.36908996
98	0xbdb49c82	-0.08818914
99	0x3e6f6f2f	0.23382257
100	0xbeaa592d	-0.3327116
101	0x3c7c61cb	0.015404175
102	0xbe9b9518	-0.30387187
103	0xbe80e754	-0.2517649
104	0x3cb64dea	0.02225395
105	0x3daa0f7b	0.08303734
106	0xbea038e0	-0.31293392
107	0xbe8bb7cd	-0.27288666
108	0x3f171e42	0.59030545
109	0xbe5bef0b	-0.21477906
110	0x3ed68aa7	0.41902658
111	0x3ec7b005	0.3900148
112	0xbe7e0e21	-0.24810077
113	0xbe3e4d5f	-0.18584202
114	0xbe6b0ec3	-0.2295485
115	0x3e31002f	0.17285226
116	0xbe7b49f2	-0.24539927
117	0xbd60a8ce	-0.054848485
118	0x3efc866f	0.49321315
119	0xbf5e4dc0	-0.8683739
120	0xbe95de0d	-0.29270974
121	0x3f117dce	0.5683259
122	0xbe9aa6fc	-0.30205524
123	0xbde3d410	-0.11124432
124	0xbe0f01a5	-0.13965471
125	0x3e69d17e	0.22833821
126	0x3f41c630	0.75693035
127	0xbf0d1ef7	-0.55125374
128	0xbe39efe1	-0.18157913
129	0x3e20869c	0.1567635
130	0xbe6bfad7	-0.23044907
131	0xbebe703b	-0.37195
132	0x3d73f400	0.05955887
133	0xbb564ade	-0.0032698433
134	0x3ef57655	0.47941843
135	0xbe8ee8a1	-0.27911857
136	0xbdf95b37	-0.12175601
137	0x3eeb0e4b	0.45909342
138	0xbf005581	-0.5013047
139	0xbf21b853	-0.6317188
140	0x3eb66639	0.35624865
141	0xbe1d768d	-0.15377255
142	0xbea9aca4	-0.33139527
143	0xbe9ee1ba	-0.3103159
144	0xbf85bfae	-1.0449121
145	0xbf0f8d11	-0.56074625
146	0xbefd270c	-0.49443853
147	0xbed09e57	-0.40745804
148	0xbe620b4a	-0.22074619
149	0x3d31b8e3	0.043389212
150	0xbe1630bf	-0.14667033
151	0x3ee0285f	0.437808
152	0x3ec8d0fe	0.39221948
153	0x3e7195ad	0.23592253
154	0xbe53b2cb	-0.20673673
155	0x3e8f7ac2	0.28023344
156	0xbe17db01	-0.14829637
157	0xbeb7a669	-0.35869148
158	0x3e3b3c9c	0.1828484
159	0xbe930f1e	-0.2872247
160	0x3d189db9	0.03725979
161	0x3e032890	0.12808442
162	0xbed34ba0	-0.41268635
163	0xbec87f01	-0.39159396
164	0x3e91a97f	0.28449628
165	0xbc7a3385	-0.015271072
166	0x3ed8098c	0.42194784
167	0x3d4535fc	0.048147187
168	0xbe0498f9	-0.1294898
169	0xbd2bc253	-0.04193337
170	0x3e408939	0.18802346
171	0xbd294022	-0.041320927
172	0xbf25f914	-0.6483319
173	0xbec7e915	-0.39045015
174	0x3e308454	0.17237979
175	0x3f580237	0.8437838
176	0x3e943421	0.2894602
177	0xbf1872d3	-0.5955021
178	0xbd82c4ba	-0.06385179
179	0xbe81bd79	-0.2533987
180	0x3eaa65ac	0.33280694
181	0x3e907e3d	0.28221312
182	0xbea0169b	-0.31267247
183	0x3e27ab49	0.16373934
184	0x3ee0574a	0.43816596
185	0x3f0ee8a5	0.5582374
186	0x3cbb1c2b	0.02284058
187	0x3e693392	0.22773579
188	0x3da97b58	0.08275479
189	0x3ed5be25	0.4174663
190	0x3e64c3ef	0.22340368
191	0xbeab3a76	-0.3344304
192	0xbd8a5e81	-0.067563064
193	0x3b1ed4c2	0.00242357
194	0x3f3b324d	0.7312363
195	0x3efbdd15	0.4919211
196	0xbe064bd1	-0.13114859
197	0xbe164d69	-0.14677967
198	0xbe693de2	-0.22777513
199	0x3e162800	0.14663696
200	0xbe7a9c1b	-0.24473612
201	0xbebef8c3	-0.37299165
202	0x3ea3c757	0.31988022
203	0xbe0ed097	-0.13946758
204	0x3f0aa15b	0.5415246
205	0x3d673f80	0.056457043
206	0xbe3e38da	-0.18576375
207	0x3d233414	0.039844587
208	0xbe8cd461	-0.27505782
209	0xbdb199a6	-0.08671884
210	0xbe6dde22	-0.23229268
211	0x3e8d927b	0.27650818
212	0xbd7b12fc	-0.0612974
213	0x3f0f1c19	0.5590225
214	0xbf71bebf	-0.9443168
215	0x3e54f2ca	0.20795742
216	0xbd1f15c8	-0.03883913
217	0xbcdcfa6b	-0.026974877
218	0xbdd65668	-0.104656994
219	0xbe872de4	-0.264022
220	0xbdd5c4a3	-0.10437896
221	0xbf037fbf	-0.513668
222	0x3f4421c0	0.76614
223	0xbed1b251	-0.40956357
224	0xbed4a31d	-0.41530696
225	0x3d17599d	0.036950696
226	0xbd8ff2af	-0.0702871
227	0x3e914330	0.28371572
228	0xbdd9c878	-0.106339395
229	0xbe877179	-0.2645376
230	0x3e2805a0	0.16408396
231	0xbe1340e0	-0.14380217
232	0xbf451210	-0.76980686
233	0x3c643723	0.013929161
234	0x3e875b7c	0.26436985
235	0xbf31980f	-0.6937265
236	0xbee43c64	-0.44577324
237	0xbf0407b9	-0.51574284
238	0xbecf0981	-0.40436938
239	0x3e3fee7f	0.18743323
240	0x3e0af30a	0.13569275
241	0x3ee0d0c0	0.43909264
242	0x3f09cb19	0.5382553
243	0x3e7d7849	0.24752916
244	0x3f181410	0.5940561
245	0x3e8f1381	0.27944568
246	0x3f4692be	0.7756766
247	0xbdf19d8f	-0.1179763
248	0xbe3c0b84	-0.18363768
249	0xbe7efe6f	-0.24901746
250	0xbe81e0ed	-0.25366917
251	0x3f26e28d	0.6518944
252	0x3e8ed609	0.2789767
253	0xbe944de9	-0.2896569
254	0x3edbb6f9	0.42913035
255	0x3e19c6d0	0.15017247

network_body._body_endoder.seq_layers.0.bias f4 [256]
0	0xba706732	-0.0009170651
1	0x3a1cd367	0.0005982429
2	0xba57b197	-0.0008228062
3	0x3c1bc729	0.009507933
4	0x3c76a7d1	0.015054659
5	0xb9dd8ca8	-0.00042257202
6	0xbba79fd6	-0.0051154895
7	0x3b86c51c	0.0041128527
8	0xba9058e1	-0.0011012816
9	0x3b901b04	0.0043977518
10	0xbb807aff	-0.0039209123
11	0xbb9c2f44	-0.0047663767
12	0x3b2e5bc8	0.0026605
13	0x3ba82492	0.0051313126
14	0x3abf3075	0.0014586585
15	0xb9401126	-0.00018316935
16	0xbb57d470	-0.003293302
17	0x3c3a74a1	0.011380346
18	0x3c4a7b75	0.012358536
19	0x3c33ab22	0.010966094
20	0x3986f0a5	0.00025737766
21	0xbb1f0211	-0.0024262706
22	0xbc2d9ce4	-0.010596488
23	0x3bdcf343	0.0067428662
24	0xbbffde4b	-0.007808482
25	0x3c844393	0.016145503
26	0xbb859fa6	-0.0040778695
27	0x3c23d423	0.009999308
28	0xbb25b712	-0.002528612
29	0x3bcf7728	0.006331343
30	0x3b10b659	0.0022081344
31	0x3bfbe978	0.0076877438
32	0x3ab2043b	0.0013581583
33	0xbaf671c1	-0.0018802212
34	0xbb7c125c	-0.0038463091
35	0x3c1c73be	0.009549079
36	0x3a97f544	0.0011593481
37	0x3bb8b4fc	0.0056368094
38	0x3c419c90	0.011817113
39	0xbb38538c	-0.002812597
40	0xbb343a1f	-0.0027500463
41	0x3bbbe04f	0.005733527
42	0x3b9a6d5a	0.0047127428
43	0x3acf5fa6	0.0015821352
44	0x3bbbbcf1	0.0057293107
45	0xba7976aa	-0.00095162785
46	0x3c29af12	0.010356681
47	0xbb4a0a71	-0.0030828977
48	0xbb265c36	-0.0025384552
49	0xba052cc6	-0.0005080219
50	0x3c46ee3b	0.0121417595
51	0x3be0ccde	0.0068603596
52	0x3b17373e	0.0023073698
53	0x3c8199a8	0.01582034
54	0xbb291e36	-0.002580536
55	0x3b3b3e42	0.0028571044
56	0xbb92edc0	-0.0044839084
57	0x3a900607	0.0010988124
58	0xbb57883c	-0.0032887598
59	0xbc175387	-0.009236223
60	0x39c5a463	0.00037697246
61	0x3b904ea4	0.004403906
62	0xbb3311c7	-0.0027323829
63	0xbc15c82a	-0.009141961
64	0x3c149e41	0.009070934
65	0xbb8a2fc1	-0.0042171185
66	0x3b851bef	0.004062168
67	0xba0a838d	-0.0005283885
68	0x3c0288e2	0.007967206
69	0xbb2948bc	-0.0025830707
70	0x3aebc1c6	0.0017986826
71	0xbc390b9a	-0.01129427
72	0x3c141a09	0.00903941
73	0x393cf1d2	0.00018019162
74	0x3aa62c9c	0.001267809
75	0x3c09ed39	0.008418375
76	0x3c11123c	0.008854445
77	0x3b5827d0	0.0032982714
78	0x3ac1eb05	0.0014794773
79	0x3c221d4a	0.009894678
80	0xbacb2fe9	-0.0015501949
81	0xbb4d0783	-0.0031284995
82	0x3bc511f5	0.0060141035
83	0x3b9ff4bc	0.0048814695
84	0x3a71d953	0.0009225804
85	0x3ae9e20a	0.0017843854
86	0x3bc7ad50	0.0060936585
87	0xbb7b023c	-0.0038300892
88	0xbab0f887	-0.0013501801
89	0x3bcf2de8	0.006322611
90	0x3bb0293c	0.0053760093
91	0x3a947501	0.0011326374
92	0x3a83da19	0.0010059505
93	0xb96ba67a	-0.00022473364
94	0x3b9efa52	0.004851618
95	0x3bd51517	0.0065027582
96	0x3c34a371	0.011025296
97	0x3afccc73	0.0019287005
98	0x3b4bf70d	0.0031122596
99	0x3b95fbb9	0.004577127
100	0xbbd2fb73	-0.0064386665
101	0xb979e656	-0.00023832297
102	0x3bc0235c	0.00586359
103	0x3c0c3213	0.0085568605
104	0x3c0919fb	0.008368011
105	0x3c19191a	0.009344364
106	0x3c8290f7	0.015938265
107	0x3bb28142	0.0054475376
108	0x3b3f3572	0.0029176143
109	0xb9578bad	-0.00020556031
110	0x3c32236b	0.010872702
111	0xbbb94d46	-0.0056549637
112	0xba2a8287	-0.00065044354
113	0x3c40efb8	0.011775903
114	0x3a5a5710	0.00083290134
115	0xb9aabd64	-0.00032566034
116	0x3ba7c39c	0.005119754
117	0x3bba4506	0.0056844978
118	0x3aac31b5	0.0013137372
119	0x390479d8	0.00012633891
120	0x3bc9aa24	0.0061543155
121	0x3c49569e	0.012288718
122	0x37eb1f28	2.8028691e-05
123	0xbc0cc312	-0.00859143
124	0xbb95ea85	-0.004575076
125	0x3b0431db	0.0020171318
126	0xb9fd2f9a	-0.00048291386
127	0x3c68dd77	0.014212958
128	0x3b4ffc7c	0.0031736186
129	0x3b815d04	0.003947856
130	0xbb0e004a	-0.0021667653
131	0xbc4c2db8	-0.012462072
132	0x3bee6494	0.0072751734
133	0x3b1d1405	0.0023968231
134	0x3b6fce59	0.0036591499
135	0x3c66e070	0.014091596
136	0x3b766763	0.0037598244
137	0xbc07af67	-0.008281565
138	0x3beb344e	0.007177866
139	0xbbafd701	-0.0053662066
140	0x3990bad0	0.00027605006
141	0x3c191aa9	0.009344735
142	0xb7a4671a	-1.9598334e-05
143	0x3af66f33	0.001880145
144	0x3bfd1c82	0.0077243457
145	0xbaefeb84	-0.0018304442
146	0x3b9bd5e3	0.004755722
147	0x3afea062	0.001942646
148	0x3c30f21a	0.010799909
149	0x3c05f733	0.008176613
150	0x3b7d16ec	0.0038618399
151	0x3c359f47	0.011085338
152	0x3adcabf0	0.0016835909
153	0x3c580230	0.013184115
154	0xbae24bc5	-0.0017265013
155	0x3ba2d06b	0.004968693
156	0xbcc572e3	-0.024102634
157	0xbc2b67a3	-0.010461721
158	0x3c014926	0.007890975
159	0x39f70775	0.00047117067
160	0x3c066f64	0.0082052685
161	0xb9faac10	-0.00047811912
162	0x3b4c2404	0.0031149397
163	0xbb8a04f5	-0.0042120167
164	0x3c1588b7	0.009126834
165	0xbc62b287	-0.01383651
166	0xbb345cfb	-0.002752124
167	0x3b5edf06	0.0034007444
168	0x3c0651e1	0.008198232
169	0x3af89f3e	0.0018968356
170	0xbb73830d	-0.003715697
171	0x3c326cd3	0.0108902035
172	0x3b1f159a	0.002427435
173	0x3a6a423b	0.0008936261
174	0x3b607210	0.0034247674
175	0xbb874ecb	-0.004129266
176	0x3b9c2a89	0.004765813
177	0x3b11c74d	0.0022244037
178	0x3c2b836c	0.010468345
179	0xbb33d11a	-0.0027437867
180	0x3bcd62c9	0.0062678796
181	0xbc2619dd	-0.010138002
182	0xbb7ef002	-0.003890038
183	0x3c2f344e	0.010693623
184	0x3c56bfed	0.013107282
185	0x3b8d12c3	0.004305215
186	0x3bb7c48c	0.005608147
187	0xbb82fe9d	-0.0039976374
188	0x3c0a8fbd	0.008457121
189	0x3b6f3eb1	0.0036505873
190	0x3c06a808	0.008218773
191	0x3c535a8c	0.012900006
192	0x3bc927e0	0.0061387867
193	0xba5dc0ec	-0.00084592286
194	0xbba5e68e	-0.0050628847
195	0x3b9d1238	0.0047934316
196	0x3bc0e2f4	0.00588643
197	0x3bffd5e4	0.00780748
198	0x3b34ceb4	0.0027589025
199	0xbb1e4cf8	-0.0024154764
200	0xb8e065e1	-0.00010700129
201	0x3bfa11c4	0.0076315124
202	0x3b7cd4d0	0.0038578995
203	0x3c129f2c	0.008949082
204	0x3c4941ba	0.012283737
205	0xbc1f6424	-0.009728465
206	0x3c3fb16d	0.011700016
207	0xbb26adc6	-0.0025433167
208	0xb7b93175	-2.2076749e-05
209	0x3b175191	0.002308939
210	0x3c21bf1a	0.009872222
211	0x3b3064a0	0.0026915446
212	0xbb405bc7	-0.0029351579
213	0x3bfbcb80	0.007684171
214	0xbc139e4e	-0.009009911
215	0xbc6d465e	-0.014482109
216	0x3c4a2b72	0.01233946
217	0x3c1cd505	0.009572272
218	0x3c521e7a	0.012824649
219	0xbb3b9689	-0.0028623661
220	0x3c05128b	0.008122097
221	0x3ba5340a	0.005041604
222	0x3c3c5291	0.011494295
223	0xbb83dc05	-0.004024031
224	0xbb1c4121	-0.002384253
225	0x3bdb3dc0	0.006690711
226	0x3c0dc44e	0.00865276
227	0x3b358124	0.0027695382
228	0x3b5b303f	0.0033445505
229	0x3a6a52d1	0.0008938732
230	0xba3f8784	-0.0007306265
231	0xbbe33973	-0.0069343387
232	0x3a4c487e	0.00077927846
233	0xbaeef88e	-0.0018232034
234	0x387bf369	6.0069757e-05
235	0xbc024709	-0.007951506
236	0x3c47532f	0.012165829
237	0x3c0fa823	0.008768114
238	0xb9801309	-0.00024428245
239	0xbbaec821	-0.005333916
240	0xbb16bcc8	-0.0023000706
241	0xbb866ac8	-0.004102085
242	0xbbc93957	-0.0061408686
243	0x3b9d5da6	0.0048024235
244	0xba623e4a	-0.00086304976
245	0xbb1bfd2b	-0.0023802023
246	0x3c6e0cdf	0.014529436
247	0x3ae71c9f	0.0017632431
248	0x3b4c2910	0.0031152405
249	0xbbd0c9cb	-0.006371712
250	0x3ba62b71	0.0050710966
251	0x3a75495b	0.0009356939
252	0xbbdbafee	-0.006704322
253	0x3c2f541e	0.010701207
254	0x3bf959e8	0.0076095946
255	0xbb920fac	-0.0044574346

network_body._body_endoder.seq_layers.2.weight f4 [256, 256]
0	0xbd7d6769	-0.061866198
1	0xbdde8a0c	-0.10866174
2	0xbd872f6a	-0.066008404
3	0xbd4d118a	-0.050065555
4	0xbce8da9b	-0.028424552
5	0x3bb4e82d	0.0055208416
6	0x3da20feb	0.07913192
7	0x3cd07530	0.025446504
8	0xbd91b6ec	-0.07114968
9	0x3dafb260	0.08578944
10	0x3c854776	0.016269427
11	0x3b31cf1f	0.002713151
12	0x3dcd4360	0.100226164
13	0xbdc73cb4	-0.09728375
14	0x3c915e84	0.017745264
15	0x3cadcae9	0.02121492
16	0x3d4058ca	0.046959676
17	0xbd632e23	-0.05546392
18	0xba5cb56f	-0.00084193697
19	0x3dcf02e7	0.101079755
20	0xbe082b89	-0.13297857
21	0x3d436ab9	0.0477092
22	0x3d398798	0.045295328
23	0x3da2bee8	0.07946569
24	0xbc549f2a	-0.012977401
25	0x3bbf2766	0.005833554
26	0x3d1a2840	0.03763604
27	0xbd8f4e8d	-0.06997404
28	0xbd9b69c5	-0.07588533
29	0x3dbd92a2	0.092564836
30	0xbe509664	-0.2036987
31	0xbcee6c83	-0.029104477
32	0xbd9409bf	-0.072284214
33	0x3c8aab99	0.016927527
34	0xbcf35e62	-0.029708091
35	0xbdd5bc9c	-0.10436365
36	0xbd798369	-0.060916338
37	0xbd9220c9	-0.071351595
38	0x3d38482e	0.04499071
39	0xbaa19865	-0.0012328742
40	0xbc0224a3	-0.007943305
41	0x3d4aad9f	0.049481984
42	0x3ac7cd97	0.0015243766
43	0xbda39f8c	-0.079894155
44	0xbbc1e25d	-0.005916877
45	0x3d4e6d53	0.05039723
46	0xbc05911b	-0.008152272
47	0x3d28e63c	0.041235194
48	0x3c83b00d	0.016075158
49	0xbda0446e	-0.07825552
50	0x3d179afa	0.03701303
51	0x3d12aa10	0.035806715
52	0xbcb280f4	-0.021790005
53	0x3cb475d1	0.022028835
54	0x3d9dbc91	0.07701982
55	0xbd8b8f67	-0.06814461
56	0xbca40b22	-0.02002484
57	0xbc530874	-0.012880433
58	0xbd29ed5e	-0.041486137
59	0xbc881473	-0.016611313
60	0xbc24d260	-0.010059923
61	0xbdef367c	-0.11680314
62	0xbd902075	-0.07037441
63	0xbe0139b6	-0.12619671
64	0xbd01de56	-0.031706177
65	0xbdb2fd46	-0.08739714
66	0xbcd023c4	-0.02540768
67	0xbd2fcf3f	-0.042922255
68	0xbdc5fbfb	-0.09667202
69	0x3d85eb32	0.065390006
70	0xbdb2517b	-0.087069474
71	0x3b9b3755	0.0047368207
72	0x3e0f3274	0.1398409
73	0x3d839430	0.06424749
74	0xbd15a329	-0.036532555
75	0xbd0d004c	-0.03442411
76	0xbd277ea9	-0.040892277
77	0x3d5f0b48	0.054454118
78	0x3d011018	0.03150949
79	0xbb8a63bc	-0.004223315
80	0x3d283205	0.041063327
81	0xbd7256cf	-0.05916482
82	0xbc67f907	-0.014158494
83	0xbc9d4b00	-0.019200802
84	0xbd925a26	-0.07146101
85	0xbd162804	-0.036659256
86	0xbd9a3984	-0.075305015
87	0x3e0ac32e	0.13551018
88	0x3db1ff77	0.08691304
89	0x3ccd9f09	0.025100248
90	0x3ca01368	0.019540504
91	0x3c995878	0.018718943
92	0x3b1cbf12	0.0023917598
93	0x3c81e71f	0.015857277
94	0x3d3cf854	0.04613526
95	0xbdd2a649	-0.102856226
96	0x3cf95c3d	0.03043949
97	0x3de7cb6b	0.11318096
98	0xbca14221	-0.019684853
99	0xbbb7e373	-0.005611831
100	0x3d400111	0.046876017
101	0xbdb277a1	-0.08714224
102	0x3dc13e35	0.09435693
103	0xbd9657ef	-0.07340991
104	0xbda2ddf2	-0.07952489
105	0x3d87b0f0	0.06625545
106	0xbdb7f01c	-0.08981344
107	0x3c7c61b8	0.015404157
108	0x3d2fca3f	0.042917486
109	0xbdad3de3	-0.084590696
110	0x3d973c08	0.07384497
111	0xbdb0b072	-0.08627404
112	0xba1babfb	-0.0005938408
113	0xbd39cc61	-0.045360927
114	0x3b1b764e	0.0023721638
115	0xbd4652c1	-0.048418764
116	0xbcdd07d1	-0.026981266
117	0x3c7f3368	0.015576221
118	0x3d736b17	0.0594283
119	0x3d1ecb25	0.038767952
120	0xbbc9e325	-0.006161111
121	0x3dea3f51	0.11437858
122	0xbca6e94f	-0.020374922
123	0x3c2829cc	0.010263871
124	0x3c90d50a	0.01767971
125	0x3c8f1244	0.017464764
126	0xbdb18c4e	-0.08669339
127	0x3d51bbac	0.05120437
128	0xbdcecf34	-0.100981146
129	0xbc478292	-0.0121771265
130	0x3d8a7cba	0.06762071
131	0xbd96c250	-0.07361281
132	0xbd07d857	-0.033165302
133	0xbd86a268	-0.06573945
134	0x3da07fd8	0.07836884
135	0x3d16477d	0.03668927
136	0x3d398a89	0.045298133
137	0xbc83bf11	-0.016082318
138	0x3d984d5d	0.07436631
139	0xbdbe34cf	-0.09287416
140	0x3e20d488	0.15706074
141	0x3bf4aca0	0.0074668676
142	0x3e02dc3e	0.12779328
143	0xbe52d709	-0.20589842
144	0x3d5ae14e	0.053437524
145	0x3d689ca5	0.056790013
146	0x3dac7bfe	0.08422087
147	0x3d61067c	0.054937825
148	0xbd33b004	-0.043869033
149	0xbb30a65a	-0.0026954622
150	0x3d798edb	0.060927253
151	0xbd375d96	-0.044766985
152	0x3d306891	0.043068472
153	0x3d9654c4	0.073403865
154	0xbcca9101	-0.024727346
155	0x3d471055	0.04859956
156	0x3d8b32b7	0.067967825
157	0xbd0f68c7	-0.035012033
158	0xbda97ab6	-0.082753584
159	0xbd357bcc	-0.044307515
160	0x3d48198b	0.048852485
161	0x3be077f8	0.006850239
162	0x3de1a4f8	0.110177934
163	0x3d26c3c2	0.040714033
164	0x3ccc5497	0.02494268
165	0xbdaa0a92	-0.083027974
166	0xbb75b62e	-0.003749262
167	0xbc18c85d	-0.009325114
168	0xbd401a91	-0.046900336
169	0x3d797931	0.060906593
170	0xbc9a43ef	-0.018831221
171	0xbd81fe21	-0.06347299
172	0x39e69b6f	0.00043984826
173	0x3c63ce3b	0.01390415
174	0x3c8f53ce	0.017496016
175	0x3c48811b	0.012237812
176	0x3d90fcca	0.07079466
177	0xbcaba624	-0.020953245
178	0x3d4aa961	0.04947794
179	0x3c91a04d	0.017776633
180	0x3de9fe8d	0.11425505
181	0x3dacec63	0.08443525
182	0xbd73c287	-0.059511688
183	0xbb8538b3	-0.004065597
184	0x3d30c404	0.043155685
185	0xbd7a512e	-0.061112575
186	0xbd2315e5	-0.039815802
187	0x3deec077	0.116578035
188	0x3c75cebf	0.015002905
189	0xbda1afcb	-0.07894858
190	0x3d802d21	0.06258608
191	0x3cdd4bdd	0.027013713
192	0xbc77b528	-0.015118875
193	0x3d7d1c61	0.061794642
194	0xbce06f62	-0.027396861
195	0xbd23fdfe	-0.040037148
196	0xbb9dd6d1	-0.004816868
197	0x3db571ac	0.08859572
198	0xbd4ba315	-0.049716074
199	0x3d51d765	0.051230807
200	0xbd85a166	-0.06524925
201	0xbcd9df44	-0.02659572
202	0xbcfe0ca2	-0.031011883
203	0xbbdf0739	-0.006806281
204	0xbc80bbfa	-0.015714634
205	0xbd59e03e	-0.05319237
206	0x3c90ce5c	0.017676525
207	0xbd6986ef	-0.05701345
208	0x3cc2b339	0.0237671
209	0x3d60a77a	0.054847218
210	0x3cbc4cb0	0.022985786
211	0x3d4c3f0d	0.049864817
212	0xbe0c5972	-0.13705996
213	0x3b59ebf6	0.0033252216
214	0xbcc410b5	-0.023933748
215	0x3cf1b823	0.029506749
216	0x3ccd6d5c	0.02507656
217	0xbd3cd2f1	-0.046099607
218	0xbbf772d5	-0.007551531
219	0xbddffb12	-0.1093656
220	0x3d51fbeb	0.05126564
221	0xbc431043	-0.011905733
222	0x3e4bad16	0.19890246
223	0xbcbcfa4f	-0.023068575
224	0xbcf0395f	-0.029324232
225	0x3c5fc687	0.013658172
226	0xbdb80bfb	-0.0898666
227	0xbe1e34a8	-0.15449774
228	0xbe3f009d	-0.18652578
229	0x3d3d7aba	0.04625962
230	0x3ccf4321	0.025300564
231	0xbd3b581a	-0.045738317
232	0xbdad9312	-0.08475317
233	0x3d160804	0.036628738
234	0x3d2a2b86	0.041545413
235	0xbd28a6cb	-0.04117469
236	0xbddb5bad	-0.10710845
237	0xbca8a1de	-0.020584997
238	0xbdd0e8d4	-0.102006584
239	0xbd4819c9	-0.048852716
240	0x3b1faed7	0.0024365687
241	0x3dcd6088	0.100281775
242	0x3b53d26e	0.003232147
243	0x3ccf68b3	0.02531848
244	0x3c6998fe	0.014257668
245	0xbda5d9cf	-0.08098184
246	0xbddb24c1	-0.107003696
247	0x3c580d92	0.013186829
248	0x3d65f623	0.056142937
249	0x3e15b5a7	0.14620076
250	0xbd724d03	-0.059155475
251	0x3d1bb2f4	0.03801246
252	0x3cdc1181	0.026863815
253	0xbc81cc37	-0.015844448
254	0x3dd4c659	0.10389394
255	0x3d5db1d2	0.05412466

network_body._body_endoder.seq_layers.2.bias f4 [256]
0	0x3be34301	0.0069354777
1	0x3b622b89	0.0034510812
2	0x39e7c790	0.0004420844
3	0xbbe1e785	-0.0068940544
4	0x38f0920b	0.000114712944
5	0x3bd6677e	0.006543099
6	0x3b3fc97a	0.0029264376
7	0x3b10eaa2	0.0022112508
8	0x3bfac17d	0.00765246
9	0xba4254a6	-0.00074131263
10	0xb944e7b4	-0.00018778333
11	0x3b924ce1	0.004464731
12	0x3b887515	0.004164348
13	0x3ba05d88	0.0048939623
14	0xb9e667b8	-0.00043946295
15	0x395b220c	0.00020898151
16	0x3b923164	0.004461454
17	0x3c1fb5d9	0.009747946
18	0x3b435719	0.0029806553
19	0x3b72899f	0.0037008298
20	0x3bcdf670	0.006285481
21	0x3b9352f1	0.0044959714
22	0xbb51366b	-0.0031923305
23	0x3c9f4d7e	0.01944613
24	0x3b92bdb1	0.0044781794
25	0x3bd3726d	0.0064528496
26	0x3a80b31f	0.0009819007
27	0xba36948f	-0.0006964886
28	0x3c22c753	0.009935218
29	0xbb865c69	-0.0041003716
30	0x38f9cd36	0.00011911469
31	0x3c5da4cc	0.01352806
32	0x3bc71753	0.0060757785
33	0xba84f937	-0.0010145073
34	0xba86e188	-0.0010290602
35	0x3c258909	0.0101034725
36	0x3b9fecea	0.0048805373
37	0x3c355bb6	0.011069229
38	0x3bf97db2	0.007613861
39	0x3b525813	0.0032095953
40	0xbb93d765	-0.004511761
41	0xbab7e66d	-0.0014030464
42	0x39a3f495	0.0003127201
43	0xbbb4aaa3	-0.0055135055
44	0x3c32a2d8	0.010903083
45	0x3befa4c3	0.0073133423
46	0xbb05c580	-0.0020411909
47	0x3b401c92	0.0029313904
48	0x3c0c053c	0.00854617
49	0x3b600f67	0.0034188868
50	0xbbcaaf03	-0.006185414
51	0x3b595ee8	0.003316814
52	0x3c5b9602	0.013402464
53	0xbbd39c96	-0.0064578755
54	0x3b18cc33	0.0023315072
55	0xbaf3b928	-0.001859461
56	0x3b0d91f8	0.0021601897
57	0xba1c2a0f	-0.0005957195
58	0xbb3918fb	-0.002824365
59	0x3c0a01af	0.008423253
60	0xbc0142b5	-0.007889439
61	0x3c09874e	0.008394076
62	0x3be39e3c	0.0069463532
63	0xbc16ed55	-0.009211858
64	0x3b8c9e86	0.0042913584
65	0x3a8d3415	0.0010772968
66	0x3a9d97bc	0.001202337
67	0xbb63aae3	-0.0034739308
68	0xbb8bbff5	-0.0042648264
69	0x3ad64497	0.0016347346
70	0x3c10a85f	0.008829205
71	0x3a7d8bbf	0.0009672008
72	0xbb9ab789	-0.004721586
73	0x3bded42d	0.0068001957
74	0x3ba31102	0.0049763927
75	0xbc426fc6	-0.011867469
76	0x3b8656e1	0.0040997122
77	0x3b611120	0.0034342483
78	0x3bfad07e	0.0076542487
79	0x3b2340d7	0.0024910474
80	0xbb771a2d	-0.003770481
81	0x3c05133d	0.008122263
82	0x3b2e285a	0.0026574344
83	0xbb6e7d57	-0.0036390626
84	0xbb3afea6	-0.002853313
85	0xbacab80b	-0.0015466226
86	0xbae40bc1	-0.0017398522
87	0x3bc11c9e	0.005893304
88	0x3a9591e9	0.0011411282
89	0xbb6f0f38	-0.0036477577
90	0x3b93d70d	0.00451172
91	0x3bbd3869	0.005774547
92	0x3c805004	0.015663154
93	0x3bc56e00	0.006025076
94	0x3bbceaa7	0.0057652774
95	0x3a48b207	0.00076559227
96	0x3a8868fd	0.0010407266
97	0x3ae4be2d	0.0017451696
98	0xbbbc28ac	-0.005742153
99	0x37df19f7	2.6595762e-05
100	0x3b198d1f	0.0023430062
101	0x3c315923	0.0108244745
102	0x3a98bfa9	0.0011653799
103	0xbc0d060d	-0.0086074
104	0x3be9fe72	0.007140928
105	0xbb7de60a	-0.003874185
106	0x3ba7ee2d	0.0051248283
107	0x3bc2964c	0.005938327
108	0xbb86c455	-0.00411276
109	0xbb939ac6	-0.0045045344
110	0xbab327f2	-0.0013668521
111	0x3b12c1d1	0.0022393356
112	0xbbb0ff7f	-0.0054015513
113	0x3b559da8	0.003259519
114	0x3c1e053b	0.009644802
115	0x3ba39d19	0.0049930927
116	0xbb21d926	-0.002469608
117	0x3c0c1cc0	0.008551776
118	0x3bfe0985	0.0077525997
119	0xbb1cc2dd	-0.0023919859
120	0x3bc17b11	0.0059045632
121	0x3abd2ad9	0.0014432325
122	0xbc3047a6	-0.01075927
123	0x3b6b3a33	0.0035892844
124	0xb8d35d0c	-0.000100785954
125	0x3c19f7c1	0.009397448
126	0xbbb591e7	-0.0055410746
127	0x39e4f581	0.00043670463
128	0x3c8fc043	0.017547732
129	0x3ba0b686	0.004904571
130	0xba7fe8c1	-0.0009762161
131	0x3b7b45ff	0.0038341281
132	0xbc0d0e01	-0.008609296
133	0xbb3d945b	-0.0028927538
134	0x398fc42d	0.00027421248
135	0xbaaacfd0	-0.0013031904
136	0x3aaf6206	0.0013380654
137	0x3afd0939	0.0019305117
138	0x3bcc030d	0.0062259496
139	0x3bc43b1e	0.0059884926
140	0x3b7a0826	0.003815183
141	0xbb6f46d2	-0.0036510718
142	0xb8f8876c	-0.00011850786
143	0xbb3bc31c	-0.002865023
144	0xbbc49661	-0.005999372
145	0x3c0763c4	0.008263532
146	0xbb520d8d	-0.0032051534
147	0xbb85675d	-0.0040711598
148	0xbaed4279	-0.0018101475
149	0x3bd01ae1	0.0063508605
150	0xbafa97a2	-0.0019118676
151	0x3b4da1e0	0.0031377003
152	0x3bb302a6	0.005462962
153	0x3b0e4eff	0.0021714566
154	0x3b63e379	0.0034773035
155	0x3c96c3c3	0.018403893
156	0x3b0fed7f	0.0021961627
157	0xbbd25cf7	-0.0064197737
158	0xb9dd9462	-0.0004226296
159	0x3c2c46ac	0.010514896
160	0x3b6097fa	0.0034270273
161	0xbbb983c4	-0.0056614596
162	0x3bfba7d0	0.007679917
163	0x3ac8a107	0.0015306779
164	0x3b95f2f4	0.0045760814
165	0x3ba40818	0.0050058477
166	0x3bbe8f2b	0.005815407
167	0x3bc52b72	0.006017142
168	0xbadf7297	-0.00170477
169	0x3b4051d9	0.002934566
170	0x3be20e2f	0.0068986635
171	0x3bb52618	0.005528223
172	0x3bb7e3e5	0.005611884
173	0x3a9a679e	0.0011780148
174	0xb99a95f0	-0.0002948488
175	0x3a71d66f	0.00092253735
176	0x3bda8121	0.0066682254
177	0x3bd73080	0.006567061
178	0xbbb9ec7f	-0.0056739445
179	0x3bdf5d70	0.0068165585
180	0xbc0ee043	-0.00872046
181	0x3a45010b	0.0007515109
182	0x3c01ff28	0.007934369
183	0x3ba3e767	0.0050019505
184	0xbc3e6766	-0.011621332
185	0x3a1c95ea	0.00059732667
186	0x3a03ac27	0.0005022906
187	0xbb844ffa	-0.0040378543
188	0x3c1c8ae6	0.0095546
189	0x39e8bf5a	0.00044393056
190	0x3c24b4a4	0.010052834
191	0x3aeef142	0.0018229859
192	0xbbc1b8f4	-0.0059119407
193	0x3c13abc4	0.00901312
194	0x3bd82fb2	0.0065974826
195	0xbaab2783	-0.001305804
196	0x3c57643a	0.0131464545
197	0x3bda3186	0.0066587357
198	0x3b1b37ed	0.0023684457
199	0x3bef6b1b	0.007306469
200	0x3a5a9b77	0.0008339206
201	0xbb2d2c84	-0.0026424238
202	0xbb58635e	-0.0033018212
203	0x3c14f0ee	0.009090645
204	0x3c8c4c67	0.017126275
205	0xba958308	-0.0011406848
206	0x39ca4911	0.0003858288
207	0x3c2b9f5f	0.010475009
208	0xbb918c22	-0.004441754
209	0x3c05ec27	0.008173979
210	0x3b3e0d2f	0.0028999557
211	0xbb23d1c6	-0.002499686
212	0xbb07038b	-0.0020601477
213	0x3aec4cc6	0.0018028251
214	0x3b84052b	0.0040289364
215	0x3c2fa6f4	0.010720957
216	0xb960ae2b	-0.00021427187
217	0x3bd2172c	0.0064114537
218	0xbb2a19ac	-0.0025955243
219	0xbb3341bc	-0.0027352413
220	0x3c23fe25	0.010009323
221	0x3c08fc23	0.008360895
222	0xbafcfe65	-0.001930189
223	0xbbdb64a3	-0.0066953464
224	0x3be089b1	0.0068523516
225	0x3b71ca94	0.0036894428
226	0xb9918d4a	-0.00027761824
227	0x3b34184d	0.0027480305
228	0xbb026666	-0.001989746
229	0xbb511088	-0.0031900723
230	0xbbf46ee0	-0.0074595064
231	0x3c260afd	0.010134456
232	0xbb3c3c59	-0.0028722493
233	0x3b07f693	0.0020746335
234	0x3bb708f0	0.005585782
235	0xbbae45de	-0.0053183874
236	0xba23f92e	-0.0006255087
237	0xbbd1e2b6	-0.0064052
238	0xbbe768c1	-0.007062048
239	0x3c1c6935	0.009546568
240	0x3b76b3ac	0.0037643714
241	0x3c2efc0d	0.010680211
242	0x3bc46fa0	0.005994752
243	0x3b4a14ef	0.0030835231
244	0xbb2c719b	-0.0026312831
245	0x3be5fd5f	0.0070187296
246	0xba9e14f8	-0.0012060693
247	0x3b0a2c02	0.002108336
248	0x3ac083d7	0.0014687729
249	0x3bc0df99	0.00588603
250	0xbaefb911	-0.0018289407
251	0xbb964020	-0.004585281
252	0x3b867033	0.0041027307
253	0x3bc331d6	0.0059568686
254	0x3b805b58	0.003917139
255	0x3b87f396	0.0041489108

network_body._body_endoder.seq_layers.4.weight f4 [256, 256]
0	0x3d51bcde	0.05120551
1	0x3cf5009d	0.029907519
2	0x3b34a048	0.0027561355
3	0x3da19c62	0.07891156
4	0xbbd88a9d	-0.006608321
5	0xbdab0a8c	-0.08351621
6	0x3c322c34	0.010874797
7	0xbcb51292	-0.022103582
8	0xbc444597	-0.011979482
9	0xbbd574cc	-0.0065141674
10	0x3d4a1dff	0.049345013
11	0x3cea2f2e	0.02858695
12	0xbdfaea77	-0.12251752
13	0xbda6118a	-0.08108814
14	0xbc4d6c6a	-0.012538055
15	0x3dbdc454	0.09265962
16	0x3da75620	0.08170724
17	0xbdc1115d	-0.0942714
18	0x3db14130	0.08655012
19	0x3d822332	0.06354369
20	0x3c0a3350	0.008435085
21	0xbcb3c5d6	-0.021944921
22	0x3c9ab5f7	0.018885596
23	0xbc542930	-0.012949273
24	0xbc3df529	-0.011594095
25	0xbb46a78d	-0.003031227
26	0xbd431155	-0.04762395
27	0x3c5785e2	0.013154479
28	0xbd8a9f54	-0.06768671
29	0x3c56b55c	0.013104763
30	0xbd64e66e	-0.055883817
31	0x3d548bf6	0.05189129
32	0xbd1490bb	-0.03627084
33	0xbe088fba	-0.13336077
34	0x3cb044fd	0.021517271
35	0x3e8cc2ba	0.27492315
36	0xbd7e6b88	-0.06211427
37	0xbda2b5e9	-0.07944853
38	0xbd4fa872	-0.05069775
39	0x3dd84fec	0.10562119
40	0x3de8d868	0.11369401
41	0xbd7820c1	-0.06057811
42	0xbdd10a75	-0.10207073
43	0xbd0e5276	-0.03474661
44	0x3d91d6d8	0.07121056
45	0xbc74de13	-0.014945525
46	0xbcf64705	-0.030063162
47	0x3b681aa0	0.003541626
48	0x3d336e96	0.043806635
49	0x3d0a0994	0.03370054
50	0x3d1eb275	0.03874441
51	0xbd9b0f5b	-0.07571288
52	0x3d2f24ff	0.04275989
53	0x3cbb4fac	0.022865139
54	0x3e37dbce	0.17954943
55	0xbd923741	-0.07139445
56	0x3d7b562b	0.061361473
57	0xbd1a28ef	-0.037636694
58	0x3d8548cf	0.06508028
59	0xbd0fa9e0	-0.035074115
60	0xbd3c8299	-0.046022985
61	0xbc2f7eb2	-0.010711359
62	0x3dc042e1	0.09387756
63	0xbc44dc12	-0.0120153595
64	0xbc892f3e	-0.01674616
65	0x3d727359	0.059192035
66	0xbd8bd8c1	-0.06828452
67	0x3cf1ad5e	0.029501613
68	0x3c742c6f	0.014903172
69	0x3d4a6996	0.0494171
70	0x3dc57364	0.0964115
71	0xbd17c4bd	-0.03705286
72	0x3dafb51f	0.08579468
73	0x3d736297	0.059420194
74	0x3d9100e8	0.07080251
75	0x3d32e86e	0.043678693
76	0xbd60d5e4	-0.054891482
77	0x3dc28d28	0.0949958
78	0xbd0df79e	-0.034659974
79	0xbcfd5d1a	-0.030928183
80	0xbd9cc4cf	-0.07654726
81	0xbd7bc490	-0.061466753
82	0xbbbe1e65	-0.005801963
83	0xbd9757da	-0.07389803
84	0xbad36f5b	-0.0016131209
85	0xbdaa3034	-0.08309975
86	0xbd646958	-0.055764526
87	0xbcd580d6	-0.02606241
88	0x3cc1402b	0.023590168
89	0x3c57db63	0.013174864
90	0x3da28714	0.0793592
91	0x3d114850	0.035469353
92	0x3d24b6a4	0.040213242
93	0xbc2584a7	-0.010102428
94	0xbd255eac	-0.04037349
95	0xbd3eaa23	-0.046548974
96	0xbce5af63	-0.028037732
97	0xbe2f7186	-0.1713315
98	0x3d88f537	0.06687396
99	0xbd53be4b	-0.05169515
100	0x3da5be39	0.08092923
101	0xbd8f8ed5	-0.07009665
102	0xbafeb196	-0.0019431587
103	0xbc185c3f	-0.009299337
104	0xbb96a9ab	-0.0045978627
105	0x3d6db4df	0.05803382
106	0x3c9da092	0.019241605
107	0xbcbc83a3	-0.023011988
108	0x3b88dd12	0.0041767443
109	0xbd3000f5	-0.042969663
110	0x3ce9bd81	0.028532745
111	0x3e1e47d3	0.15457086
112	0xbcaf6a69	-0.021413045
113	0x3da75ab9	0.08171601
114	0xbe00c8fc	-0.1257667
115	0xbe72f519	-0.2372631
116	0xbcdd8f9a	-0.027046014
117	0xbd37a618	-0.044836134
118	0x3ca3a845	0.019977698
119	0xbc70cf28	-0.014697827
120	0x3d7ca4c2	0.061680563
121	0x3d874bf0	0.06606281
122	0x3d86279d	0.065505244
123	0xbaf27f49	-0.0018501069
124	0xbd67df27	-0.0566093
125	0xbd1d23db	-0.038364273
126	0xbcc54d0e	-0.024084594
127	0x3d594a57	0.05304941
128	0x3d933ddb	0.07189532
129	0x3c92de45	0.017928252
130	0xbdd9eb03	-0.10640528
131	0x3de3d026	0.111236855
132	0x3db7d649	0.089764185
133	0x3cc086d7	0.023501797
134	0xbd63965b	-0.055563312
135	0xbbd09620	-0.0063655525
136	0xbbd1e077	-0.006404932
137	0xbcb99598	-0.02265434
138	0xbd08ae0e	-0.033369116
139	0xbd2a622a	-0.041597523
140	0xbd41a631	-0.047277633
141	0xbd954203	-0.07287981
142	0x3d99f90c	0.07518205
143	0xbdde5749	-0.10856492
144	0xbde4c90a	-0.11171158
145	0xbdb2ef15	-0.087370075
146	0x3d876cbb	0.066125356
147	0xbc74c9a4	-0.014940653
148	0xbe2f248b	-0.17103784
149	0x3d09e1b4	0.033662513
150	0xbd2a61de	-0.04159724
151	0x3cc02135	0.023453334
152	0x3cbbf92d	0.022945965
153	0xbe19c257	-0.15015541
154	0xbd50032e	-0.050784282
155	0x3d6b3b50	0.05742961
156	0x3e0d12c1	0.13776685
157	0xbdb63eb6	-0.0889868
158	0xbe02704d	-0.12738152
159	0xbdcab290	-0.09897339
160	0xbde959de	-0.11394094
161	0x3cd1528e	0.02555206
162	0x3cd47fc1	0.025939824
163	0xbcaf7d20	-0.021421969
164	0x3d89c08d	0.06726179
165	0x3d121e00	0.03567314
166	0xbd0e45fc	-0.03473471
167	0xbd66b943	-0.056329023
168	0x3d51744e	0.051136307
169	0x3d8a3458	0.06748265
170	0x3de2725d	0.11056969
171	0xbcbbe297	-0.022935195
172	0xbce956ef	-0.028483836
173	0x3d18c95d	0.03730141
174	0x3d9cee9d	0.07662699
175	0xbcdb1176	-0.026741724
176	0x3cbcc674	0.023043849
177	0x3daf5f56	0.08563106
178	0xbd96a899	-0.07356376
179	0x3d9f3c66	0.07775192
180	0x3bbb47c0	0.0057153404
181	0x3b98b055	0.0046596923
182	0x3deddc43	0.11614277
183	0x3da51658	0.08060902
184	0x3cdd13a1	0.026986899
185	0x3c0dcbf2	0.008654581
186	0xbd863ebc	-0.065549344
187	0x3dade7bf	0.08491468
188	0xbd8b903b	-0.06814619
189	0xbd0fbf0f	-0.035094317
190	0xbd864eba	-0.06557985
191	0x3d9f9f66	0.07794075
192	0xbd29e845	-0.041481275
193	0x3dcbc832	0.099502936
194	0xbc75e272	-0.015007602
195	0x3c0815b9	0.00830596
196	0x3d824a40	0.06361818
197	0xbdcfd77f	-0.101485245
198	0x3d2782ed	0.040896345
199	0x3d2d3784	0.042289272
200	0xbb682d53	-0.0035427406
201	0x3dbcdefa	0.09222217
202	0x3cd483ca	0.025941748
203	0x3d8a0218	0.067386806
204	0xbd9dd199	-0.07705993
205	0xbd984908	-0.074358046
206	0x3d6d96e0	0.058005214
207	0xbcf29e9d	-0.029616648
208	0xbbec031a	-0.007202518
209	0xbe05272f	-0.13003229
210	0x3b286fcb	0.00257014
211	0x3c64196c	0.013922077
212	0xbd92703c	-0.07150313
213	0xbc635f34	-0.013877679
214	0xbac841b7	-0.0015278374
215	0xbd9f0a21	-0.07765604
216	0xbd1996b1	-0.037497226
217	0xbd817f0b	-0.0632306
218	0x3d068646	0.032842897
219	0x3c2095bb	0.0098013235
220	0x3d9f448c	0.07776746
221	0xbdcd6b44	-0.10030225
222	0x3dd58b1e	0.10426925
223	0xbc8f9737	-0.01752816
224	0x3d20487a	0.03913162
225	0xbccc29d4	-0.024922289
226	0xbcedaf37	-0.029014213
227	0xbd1f2bc0	-0.038860083
228	0xbdd8ec87	-0.10591989
229	0x3b84bb61	0.0040506576
230	0x3d3e9aaa	0.046534218
231	0x3dced1e6	0.10098629
232	0x3d805eea	0.062681034
233	0x3cbbabd3	0.02290908
234	0xbdc24fae	-0.09487854
235	0xbc6081db	-0.013702835
236	0x3ca2c000	0.019866943
237	0xbc5fd026	-0.013660466
238	0x3d1e9c84	0.038723484
239	0xbd6ebf5c	-0.058287963
240	0xbbccc6ef	-0.0062493007
241	0xbd4d401b	-0.050109964
242	0x3bf343b2	0.0074238414
243	0xbd5afa5f	-0.05346143
244	0x3dbaf923	0.0912955
245	0xbe51fdc7	-0.20506965
246	0xbd356f3c	-0.044295534
247	0xbd37e680	-0.044897556
248	0x3bf02ab5	0.00732931
249	0xbd74bb62	-0.059749015
250	0xbdbaa406	-0.09113316
251	0xbd89e603	-0.067333244
252	0x3d38acaf	0.04508656
253	0x3d46909c	0.048477754
254	0xbcb57bd6	-0.022153776
255	0x3dbb0353	0.091314934

network_body._body_endoder.seq_layers.4.bias f4 [256]
0	0xbb93f859	-0.0045156893
1	0x3b5f0018	0.0034027155
2	0x3b4e4368	0.0031473283
3	0x3aee5115	0.0018182123
4	0xbbad89b5	-0.005295957
5	0x3b8243e1	0.003975377
6	0xbc284e8e	-0.010272635
7	0x3bc5ed5b	0.006040258
8	0xbb3a36fe	-0.0028414126
9	0xbb2d3aa3	-0.0026432655
10	0xbc0030f0	-0.007824168
11	0x39cd0fc0	0.00039112382
12	0x3c06bb89	0.008223423
13	0x3c022921	0.007944376
14	0xb9e9dc57	-0.0004460539
15	0x3b15c8af	0.0022855212
16	0x3b738a6d	0.0037161366
17	0x3b21661e	0.0024627517
18	0xbc13857c	-0.009003993
19	0xbb833b9a	-0.004004908
20	0x3a93c95c	0.001127522
21	0xb992a259	-0.00027968248
22	0x3afb7c37	0.0019186799
23	0xb9fdef94	-0.0004843442
24	0xbb58ae7c	-0.0033062985
25	0xb9c62a66	-0.00037797092
26	0x3bbcf179	0.0057660905
27	0x3b025e20	0.0019892529
28	0x3bf68c0a	0.007524018
29	0xbb2cb53d	-0.0026353144
30	0x3c54e276	0.012993446
31	0x3c492760	0.012277454
32	0x3b0557c9	0.0020346513
33	0xbb47575d	-0.0030417063
34	0xbb20b7c4	-0.0024523595
35	0xb9d09ca0	-0.00039789546
36	0x3c6d91ef	0.014500125
37	0x39de9fa2	0.00042462075
38	0xbb54517a	-0.0032397197
39	0x3c06b3fa	0.008221621
40	0xbc0a1e9b	-0.0084301485
41	0x3b2a3aa0	0.0025974885
42	0x3b53604f	0.003225345
43	0x3bb2f9d3	0.0054619103
44	0x3afdbed8	0.0019359244
45	0xbb4c6140	-0.0031185895
46	0x3c0e0981	0.008669258
47	0x3bce14ca	0.0062890993
48	0x3c44e9fd	0.012018678
49	0xbb1d612c	-0.0024014218
50	0x3b3774b8	0.0027993154
51	0x3ba36e7c	0.004987536
52	0x3a9b5567	0.0011851013
53	0xb979f9fd	-0.00023839618
54	0x3c65878c	0.014009368
55	0x3ba3ed0b	0.005002623
56	0xbbe0e6ad	-0.006863436
57	0x3c2db833	0.010602999
58	0x390c7a1f	0.00013396934
59	0x3ab675a5	0.0013920559
60	0x3c7321f3	0.014839637
61	0xbbad46d8	-0.0052879862
62	0xba8a263c	-0.0010539959
63	0x3c09b15f	0.008404105
64	0xbbc5c8b2	-0.0060358876
65	0xbb8c5322	-0.004282371
66	0x3bdcaf80	0.0067347884
67	0x3b58fe75	0.0033110653
68	0x3bfe907d	0.007768689
69	0x3ab703d2	0.001396293
70	0xbbe622eb	-0.0070232055
71	0x3a2d700d	0.0006616123
72	0x3b828ae4	0.003983842
73	0xb850bc08	-4.9766182e-05
74	0xbb0e0fb0	-0.002167683
75	0xbaac918d	-0.0013165936
76	0xbb5167bb	-0.0031952697
77	0x3b24e609	0.0025161526
78	0xbbbc2e43	-0.0057428195
79	0xbaa8e12c	-0.0012884489
80	0x3c35ea98	0.011103295
81	0xba98c1fd	-0.0011654493
82	0x3ba28967	0.0049602273
83	0xbb661f01	-0.0035113695
84	0xbbc537ec	-0.0060186293
85	0xba5d678a	-0.00084459095
86	0x3be87b1b	0.0070947534
87	0x3c87bcde	0.016569551
88	0xbb180c15	-0.002320056
89	0x3c2b645b	0.010460938
90	0x3c1198e0	0.008886546
91	0x3b6b0af6	0.0035864688
92	0x3b5558aa	0.0032554069
93	0xbb1c3ec7	-0.002384113
94	0x3beb6af0	0.007184379
95	0x3c295199	0.010334396
96	0xbbd66242	-0.006542475
97	0xbc27b019	-0.010234856
98	0x3b57e718	0.003294414
99	0x3bcd5414	0.0062661264
100	0xbb524a4a	-0.0032087737
101	0xbb2ef662	-0.0026697149
102	0xbb34d909	-0.0027595183
103	0x3c71d0a2	0.014759215
104	0x389e9780	7.562246e-05
105	0xbb73b35f	-0.003718577
106	0xbaf680dc	-0.0018806714
107	0xbbde6994	-0.0067874882
108	0x3886206d	6.395658e-05
109	0x3be111fe	0.0068686
110	0x3b4240a3	0.0029640577
111	0xbb14c20c	-0.0022698669
112	0x3c11b56c	0.008893352
113	0x3acc7941	0.0015600101
114	0x3ac527be	0.0015041751
115	0x3c440cf9	0.011965984
116	0x3b85a0f7	0.0040780264
117	0xbc1dd6ae	-0.009633703
118	0x3c076683	0.008264187
119	0x3c0b70f5	0.008510818
120	0xbba60819	-0.0050668833
121	0xbb698bab	-0.0035636227
122	0x3920bd97	0.00015329417
123	0xbbd27070	-0.006422095
124	0x3b81983c	0.0039549153
125	0x3bbea6d8	0.005818229
126	0x3c1dd6c6	0.0096337255
127	0x3c146d1f	0.00905922
128	0xb9eace2c	-0.00044785568
129	0x3c5e3c84	0.013564233
130	0xba5fcd46	-0.0008537363
131	0xbbbe4d01	-0.0058075194
132	0xbb839103	-0.0040150895
133	0xbb184321	-0.0023233371
134	0x3bf51f69	0.007480551
135	0x3c3ea725	0.01163653
136	0xbb87d767	-0.004145551
137	0xbb9f440e	-0.0048604077
138	0x3bb695cb	0.005572056
139	0x3c0c33e8	0.008557297
140	0x3b902ff2	0.004400247
141	0xbabdb2ef	-0.0014472882
142	0x3a3b7536	0.00071509497
143	0xbb159ca8	-0.002282897
144	0x3b42dba1	0.002973296
145	0xbbd0ebf2	-0.006375783
146	0xbc011f74	-0.007881034
147	0xbabe868b	-0.0014535947
148	0x3bf034b7	0.007330503
149	0x3a042f3d	0.00050424394
150	0xbb92b8c3	-0.0044775917
151	0xbb89dea4	-0.004207449
152	0xbaa688d6	-0.0012705575
153	0xba2ab4e9	-0.0006511943
154	0x3b88c82d	0.0041742534
155	0xba813c8a	-0.0009859961
156	0xbb93489d	-0.00449474
157	0x3ac55fec	0.0015058494
158	0xba0919bf	-0.0005229972
159	0xbbc8d623	-0.0061290427
160	0xba994f01	-0.0011696519
161	0x3be01a70	0.006839089
162	0xba84734c	-0.0010105162
163	0xba33b5b0	-0.00068553817
164	0x3c411578	0.011784904
165	0x3bdd6891	0.00675685
166	0x3c41f265	0.0118375765
167	0xbada3e3e	-0.001665063
168	0xbb0b8d6e	-0.0021294015
169	0x3c586e23	0.013209852
170	0xbb42ebbd	-0.0029742562
171	0x3c088190	0.008331671
172	0x3aa62516	0.0012675847
173	0xbaf120da	-0.0018396631
174	0x3c49f80b	0.012327204
175	0xbb89c7b2	-0.0042047137
176	0x3b6c7e75	0.0036086116
177	0x3b227aea	0.00247925
178	0x3b87a57b	0.0041396
179	0x3bf4dcd2	0.007472613
180	0x3b4c0107	0.0031128542
181	0x3bd14618	0.0063865297
182	0xbb2d3a12	-0.0026432318
183	0x3b41a78f	0.0029549336
184	0xb92e2c2d	-0.0001661039
185	0xbba49e1e	-0.005023732
186	0x3bb917e7	0.0056486013
187	0x3bac0bfa	0.005250451
188	0x3c00873e	0.007844744
189	0x3b479690	0.0030454732
190	0x3c48721e	0.012234239
191	0x3a697f8e	0.0008907252
192	0x3c6324bf	0.013863741
193	0x3b113762	0.0022158255
194	0xb98f6c22	-0.0002735565
195	0xbb0f5d0f	-0.0021875536
196	0xbbe3d7c3	-0.006953211
197	0x3bbf8049	0.00584415
198	0x3c0aaad9	0.008463585
199	0x3a2d9775	0.0006621995
200	0xbb538dea	-0.0032280632
201	0x3bdf42d2	0.0068133855
202	0x3c247e80	0.010039926
203	0x3b890c29	0.004182358
204	0xbbdcecb9	-0.0067420867
205	0xbb11e2d4	-0.0022260444
206	0xbc4415af	-0.01196806
207	0xbb60dac9	-0.0034310094
208	0x3b4e242f	0.0031454673
209	0x3bfb5ca0	0.007670954
210	0x3af48015	0.0018653894
211	0xba3218e8	-0.00067938725
212	0x3c955298	0.01822786
213	0xba546f81	-0.00081037736
214	0x3bfbe54a	0.0076872455
215	0xbb41c864	-0.0029568905
216	0x3a43b867	0.0007466138
217	0xbaed8c0d	-0.0018123403
218	0x3ab1061c	0.0013505849
219	0x3a78664e	0.0009475694
220	0xbc1b37e5	-0.0094737755
221	0xbbb34192	-0.005470463
222	0x3b3a5d0d	0.002843681
223	0xbb900cb0	-0.0043960437
224	0x3c35433a	0.011063391
225	0x3ba88208	0.005142454
226	0xbbc2c73d	-0.005944161
227	0x3b899786	0.004198971
228	0xbb3ca6f8	-0.0028786045
229	0x3b4778bc	0.0030436954
230	0x3bc66ecd	0.006055689
231	0x3b17a194	0.002313708
232	0xbb7ca3fe	-0.0038549895
233	0xbb08dabc	-0.002088233
234	0x3b2f7cb6	0.0026777214
235	0xbb4d13ce	-0.0031292322
236	0x3a1de9df	0.0006023924
237	0x3be84483	0.0070882454
238	0xb988d33a	-0.00026097317
239	0x3c0462e9	0.008080223
240	0x3982b4fb	0.00024930373
241	0xbc14e0e7	-0.009086824
242	0xba996150	-0.0011701975
243	0x3c0f2263	0.008736226
244	0x3c44abb6	0.01200383
245	0x3c5b6361	0.013390393
246	0x3bb6c3c4	0.0055775363
247	0xbbe0c5f4	-0.0068595354
248	0xbb3f0d91	-0.0029152373
249	0xba601ba6	-0.0008549042
250	0x3bbf6bf1	0.005841725
251	0x3c0e0200	0.008667469
252	0xb91a3b76	-0.00014708735
253	0xbbd5ad8a	-0.0065209316
254	0x3c00ffe7	0.007873512
255	0x3ba86499	0.0051389453

action_model._discrete_distribution.branches.0.weight f4 [4, 64]
0	0x3d8e00cd	0.069337465
1	0x3d616219	0.055025194
2	0xbd39d86b	-0.045372408
3	0x3bf995c5	0.007616731
4	0xbd2bbd9f	-0.041928884
5	0xbcaedb17	-0.021344705
6	0x3d30720a	0.043077506
7	0x3d68c1e3	0.05682553
8	0x3d761f9a	0.06008873
9	0xbd2eb735	-0.04265519
10	0xbd3b5a64	-0.0457405
11	0x3d8e844d	0.06958828
12	0xbd75da2a	-0.06002251
13	0xbd6e64f1	-0.058201734
14	0xbd65698b	-0.056008857
15	0x3cd5ca6e	0.026097503
16	0xbd0ccb5a	-0.03437362
17	0x3d8c2716	0.068433926
18	0xbd88abed	-0.06673417
19	0xbda8eb47	-0.082480006
20	0xbda87ef3	-0.08227339
21	0xbd19ab00	-0.037516594
22	0x3d6c1720	0.05763924
23	0x3d3c544b	0.045978826
24	0xbd815f7f	-0.063170426
25	0xbc89222d	-0.01673993
26	0x3d264f48	0.040602952
27	0x3d5369db	0.051614624
28	0x3d86b5fa	0.06577678
29	0xbd1ee3c6	-0.03879144
30	0x3d84d256	0.06485431
31	0xbd4194f0	-0.04726118
32	0x3d73e378	0.059543103
33	0xbd7cd521	-0.061726693
34	0xbd8b0fdf	-0.067901365
35	0xbd310afa	-0.04322336
36	0xbcb0bab6	-0.021573406
37	0x3dad88f2	0.08473386
38	0xbd8b494c	-0.0680109
39	0x3d83db74	0.06438342
40	0x3da34ef5	0.07974044
41	0xbd48027e	-0.0488305
42	0x3d939096	0.07205312
43	0x3d4d24ab	0.050083797
44	0x3d81c3d6	0.06336181
45	0x3d73b748	0.059500962
46	0x3d808fd4	0.06277433
47	0xbd5bf224	-0.05369772
48	0x3d7176d5	0.058951218
49	0x3d769cbc	0.060208067
50	0x3ca60821	0.020267548
51	0x3d74ea0d	0.05979352
52	0x3caa5a7c	0.0207951
53	0x3d6a36fc	0.057181343
54	0x3d4daa7f	0.050211426
55	0x3d6e2774	0.058143094
56	0x3d7400d0	0.059571087
57	0x3d390069	0.045166407
58	0x3cce2353	0.025163328
59	0x3d56b451	0.052418057
60	0x3d9709c4	0.073749095
61	0xbd48b3bf	-0.048999544
62	0x3d5e7cf3	0.05431838
63	0xbd75d0ac	-0.060013458
64	0xbc8e2105	-0.01734973
65	0x3cee5e08	0.029097572
66	0x3d977b95	0.07396618
67	0x3dccce37	0.1000027
68	0xbd0c0177	-0.034181084
69	0xbda2d610	-0.079509854
70	0xbd04d18a	-0.032426395
71	0xbb832bf2	-0.0040030414
72	0x3d32d182	0.043656833
73	0xbcca4ae4	-0.024693914
74	0xbc90911e	-0.017647322
75	0x3d1eeaa9	0.038798008
76	0xbd9c96fe	-0.07645987
77	0xbc3b8230	-0.011444613
78	0xbd3875f5	-0.045034368
79	0x3d888cf4	0.0666751
80	0xbd7b6a28	-0.061380535
81	0x3d841b0c	0.06450471
82	0xbcf7ab11	-0.030232938
83	0xbd3424db	-0.04398046
84	0xbd152018	-0.03640756
85	0xbccaffa7	-0.024780108
86	0x3d9af6e1	0.0756662
87	0xbc098eea	-0.00839589
88	0xbc8c33d6	-0.017114561
89	0x3cf19242	0.029488686
90	0x3d44887e	0.04798173
91	0x3cf9a53f	0.030474303
92	0x3d67fdb8	0.05663845
93	0xbd275f6b	-0.040862482
94	0x3b461777	0.0030226388
95	0xbda025f7	-0.07819741
96	0xbd619484	-0.055073276
97	0xbd41071f	-0.04712593
98	0xbcf5646e	-0.029955115
99	0xbd2add84	-0.04171516
100	0xbdb9755a	-0.09055586
101	0x3d2f8359	0.042849872
102	0xbbdbe7b0	-0.006710969
103	0xbd1571ba	-0.03648541
104	0x3cae1d02	0.021254066
105	0xbd450a86	-0.04810574
106	0xbd8d13ef	-0.06888568
107	0x3d8c6844	0.068558246
108	0x3d483991	0.048883025
109	0x3d04e9e2	0.03244961
110	0xbccaa6b9	-0.024737703
111	0xbd324a83	-0.04352809
112	0x3d09a1e7	0.033601668
113	0x3d19c53e	0.03754162
114	0x3d3138ed	0.04326718
115	0x3d887a8b	0.06663998
116	0xbdbc206f	-0.09185874
117	0x3cfab334	0.030603029
118	0x3ca56d73	0.020193791
119	0x3cd720a3	0.02626068
120	0x3cd9296c	0.02650901
121	0x3d6f97a9	0.058494244
122	0x3d7f649d	0.06235181
123	0x3d73bb65	0.059504885
124	0x3d4798e6	0.0487298
125	0xbd8da2ab	-0.06915792
126	0x3d8ba4e9	0.068185635
127	0xbccc1def	-0.024916617
128	0x3d42cfa0	0.047561288
129	0x3d63e4f6	0.055638276
130	0xbdce4937	-0.100725584
131	0xbda7bd51	-0.08190406
132	0xbd91420e	-0.07092677
133	0x3db718eb	0.089402996
134	0x3da425b8	0.08015007
135	0x3d4edeb0	0.05050534
136	0x3c4d85c2	0.012544097
137	0xbd3c4a16	-0.04596909
138	0xbd67786b	-0.056511324
139	0x3cb04ede	0.021521982
140	0x3d9ba89c	0.07600519
141	0xbd87cc2d	-0.0663074
142	0xbb04682e	-0.0020203697
143	0xbc8c73e5	-0.017145107
144	0x3d21045e	0.039310805
145	0x3ca9e082	0.020736936
146	0xbd36a616	-0.044591986
147	0x3ca33cef	0.019926516
148	0xbbc61378	-0.0060448013
149	0xbcf879f1	-0.030331584
150	0x3b9156e6	0.004435408
151	0x3d7dd5da	0.061971523
152	0xbd6c3c1d	-0.057674516
153	0xbd8caeaf	-0.06869256
154	0xbd081572	-0.033223577
155	0x3d1c44f4	0.038151696
156	0xbca6f6da	-0.02038138
157	0xbd07d18f	-0.033158835
158	0x3d69eb02	0.057108887
159	0x3c4e2d68	0.012584068
160	0x3da3c664	0.079968244
161	0xbd22d235	-0.03975125
162	0xbd8c262b	-0.068432175
163	0xbc4cd79f	-0.01250258
164	0x3d910af4	0.07082167
165	0x3d3371a2	0.04380954
166	0xbd928504	-0.07154277
167	0x3d70fada	0.05883298
168	0x3d14a5ad	0.036290813
169	0xbca295b1	-0.019846769
170	0x3d86f71c	0.06590101
171	0xbd4da064	-0.05020179
172	0x3d4bfc10	0.049800932
173	0x3d5a9af2	0.053370424
174	0x3d947c1d	0.07250235
175	0xbd1a405d	-0.037659038
176	0x3d09c14c	0.033631608
177	0x3d4b308c	0.049606845
178	0x3d2966e6	0.041357897
179	0xbb3e36aa	-0.0029024282
180	0x3db5061d	0.08839057
181	0x3d2f606b	0.04281656
182	0x3c8ec3e1	0.017427387
183	0x3d281383	0.041034233
184	0x3d75f4ad	0.060047794
185	0xbce737d9	-0.028224872
186	0x3bcc5c1b	0.0062365658
187	0x3d03caca	0.032175817
188	0xbd86ef83	-0.06588652
189	0xbc112e00	-0.008861065
190	0xbc5b7d58	-0.0133965835
191	0xbd4c7c2b	-0.049923103
192	0xbdcb9a39	-0.09941525
193	0xbdcd0c9f	-0.10012173
194	0x3d94f179	0.0727262
195	0x3cae13a0	0.021249592
196	0x3de33fcb	0.11096152
197	0x3cc11dbf	0.023573754
198	0xbda127d2	-0.07868923
199	0xbdd2aa6b	-0.10286411
200	0xbdf229c5	-0.11824373
201	0x3dc7ed0f	0.09762012
202	0x3dcefa4c	0.10106334
203	0xbda558bc	-0.08073565
204	0x3d833a21	0.064075716
205	0x3db5368d	0.08848295
206	0x3dbdb128	0.092623055
207	0xbdca5d60	-0.09881091
208	0x3dccf2dc	0.10007259
209	0xbdcff362	-0.101538435
210	0x3dc64538	0.09681171
211	0x3dc28232	0.09497489
212	0x3dc23508	0.09482771
213	0x3dcc0064	0.09961012
214	0xbdca23de	-0.098701224
215	0xbdaf749e	-0.08567165
216	0x3dd9a7f3	0.10627737
217	0x3dcdf978	0.10057348
218	0xbd6ef2e0	-0.058337092
219	0xbdb59d14	-0.08867851
220	0xbdb0ddbd	-0.08636043
221	0x3dd513e4	0.104041845
222	0xbdccc94a	-0.0999933
223	0x3dcdc7a2	0.100478426
224	0xbd99af97	-0.07504194
225	0x3da873fa	0.08225246
226	0x3da3dbf1	0.08000935
227	0x3dd7006e	0.10498129
228	0x3d8472b4	0.064671904
229	0xbddc4942	-0.1075616
230	0x3dbe1f22	0.09283282
231	0xbda1e039	-0.07904095
232	0xbda16ac5	-0.07881693
233	0x3dc3910c	0.0954915
234	0xbdd36344	-0.10321668
235	0xbda370db	-0.0798051
236	0xbdab8e04	-0.08376697
237	0xbdd3a812	-0.10334791
238	0xbdcc6606	-0.09980397
239	0x3dc5db70	0.09660995
240	0xbdaa7f60	-0.08325076
241	0xbdacb27e	-0.08432482
242	0xbdd3611d	-0.10321257
243	0xbdd6516d	-0.104647495
244	0x3c317c13	0.010832804
245	0xbdd7f5d9	-0.105449386
246	0xbdd87794	-0.10569683
247	0xbdb2165e	-0.086956725
248	0xbdb6824b	-0.0891157
249	0xbdcf7da7	-0.10131388
250	0xbdd16bbf	-0.10225629
251	0xbdac94d5	-0.08426825
252	0xbd961291	-0.0732776
253	0x3db2faad	0.08739219
254	0xbdd55864	-0.1041725
255	0x3dd53b85	0.10411743

action_model._discrete_distribution.branches.0.bias f4 [4]
0	0x3d3b2e02	0.045698173
1	0x3ce35330	0.027749628
2	0x3d134f09	0.035964046
3	0xbd9dbbb8	-0.0770182
