results/FullyAbstract/bachelor/bachelor-3999977.onnx (onnx, 873376 bytes, 11 tensors)

network_body._body_endoder.seq_layers.0.weight f4 [256, 7]
00000000: 36f8 57be abb8 af3e 3ef1 7abf 9432 853d
00000010: 7982 0dbf e651 a43e baf9 cabe ee24 99be
00000020: 9c70 6b3f 2413 c63e a084 8c3d 82b6 b4bd
00000030: 1883 dfbe 2605 8fbe 55f3 103e 5fbf 123e
00000040: 82ae dcbe 190f 373e d3f8 64be 9205 4cbe
00000050: 726d 393e acb1 13bf 7576 06be 372a e83e
00000060: 5e7e 9fbe 57d9 12be 106a a13e 96d4 84be
00000070: 887d 4f3e ae10 9fbe 072b 8f3e 465c 923e
00000080: d361 b6be cb47 b9be 6787 a5bd cfbf 21bf
00000090: 1e67 78be 3b8f 3f3f 040e 3b3f 4a74 6ebe
000000a0: ed91 6cbf d88e 98be b7b9 03ba 5ea5 fe3c
000000b0: 84dd 72bf 99d2 12bf 8a0f 4fbe a5cd d73e
000000c0: 27e3 d4be f4a1 8e3d ba18 eabd 9f95 87bd
000000d0: 96b7 1d3e 0c98 e03d 1f15 0fbe e78b 213e
000000e0: 0112 e3be 5640 a3be 9e9f a83e 2506 26be
000000f0: c8b3 2abf 349f 17bf 804c c03e d610 cf3e
00000100: 63ea 093e 6938 0fbf 4225 91be 5628 51be
00000110: 8426 28be 9957 acbe 7f01 b23d 6863 bd3d
00000120: 0ad4 383f c3cb 70be 0000 b83e f4f4 7cbb
00000130: 7e72 65be 523e a8be 7913 5ebf 4b4d 41be
00000140: 1de4 ffbe 7274 d0be 9699 5a3f 2b5b 8a3e
00000150: 1602 31bf f429 a53e da8a 89bd 76e1 143f
00000160: 1678 793e 3eb8 273f 1392 fcbe 28b9 f63e
00000170: c386 f73d 8ca9 0fbd b0b3 323f 4bb0 873f
00000180: 3787 7e3e 46d3 bc3e 2ab8 b7bd 311c 713e
00000190: 85d8 aabe 3992 883c 95f0 9bbe 695f 7fbe
000001a0: ea4d b63c f6ed ac3d dbb5 9fbe c093 8bbe
000001b0: 0947 173f fb1f 5cbe da21 d73e a9cb c73e
000001c0: 3350 7cbe 262f 3fbe 3168 6bbe 9a49 313e
000001d0: 1f7b 7bbe f7a0 62bd 6f86 fc3e a055 5ebf
000001e0: c432 94be 8b99 113f c9f9 9abe bc47 e7bd
000001f0: 703a 0dbe 9ef7 693e 3992 423f f5db 0cbf
00000200: 278f 3cbe b409 1d3e 032c 6cbe 3778 bfbe
00000210: 00f4 733d 20d9 c5bb 0801 f43e 576b 8fbe
00000220: 5f0a f3bd 3727 eb3e c247 00bf 53b8 21bf
00000230: 810d b83e 11d0 1cbe 9446 aabe 4116 a0be
00000240: 9481 85bf 50ff 0fbf 0c27 fdbe e40d d1be
00000250: 35ea 60be 48dc 2b3d 8d4a 17be 8f6a e03e
00000260: 332c ca3e ad95 713e 18cc 55be e2c1 8f3e
00000270: 1a4d 18be bdce b6be c652 3a3e 65be 92be
00000280: b99d 183d bb98 023e 4999 d3be 2de8 c8be
00000290: a621 913e 0c82 71bc 192a d83e fc35 453d
000002a0: f82c 03be 9bb7 2bbd 308d 3f3e 22e1 34bd
000002b0: 08e7 25bf 62a9 c7be daa6 2f3e 022b 583f
000002c0: 5de6 923e 6f15 18bf f6e4 7fbd 07f5 80be
000002d0: 51eb a93e 3d7e 903e 6695 9fbe 5223 293e
000002e0: 5a16 e03e 4f23 0f3f 3b5d cb3c 794a 693e
000002f0: 8581 ab3d 8f58 d73e c4a2 653e 242e abbe
00000300: 317d 8cbd 5d37 733b 861f 3b3f 15dd fb3e
00000310: 4d14 07be 1700 16be 9792 6abe 63ba 153e
00000320: ca57 7bbe e572 bfbe 57c7 a33e 81b3 11be
00000330: f066 0a3f aec9 613d 4530 3cbe ff97 213d
00000340: 6bd5 8bbe a699 b1bd 6fff 6bbe 2c88 8e3e
00000350: 441d 7bbd ec50 0f3f 7dd3 71bf b023 563e
00000360: 58ac 1dbd 2474 c5bc 45e4 dabd 52ee 86be
00000370: 35f2 d3bd e193 03bf 3d64 433f 51b2 d1be
00000380: 3067 d4be 3f36 1a3d a566 91bd c0c6 913e
00000390: 930b d8bd a414 88be a950 283e 97c3 11be
000003a0: 0d51 45bf f805 653c 038d 873e 0d7b 31bf
000003b0: 27ba e3be acfa 03bf 3ec0 ccbe 4eb9 3f3e
000003c0: 58f2 083e d9be df3e 7ca7 093f 33eb 7c3e
000003d0: 7cd4 173f c60a 903e 782d 463f ff83 f6bd
000003e0: 315d 3bbe e18d 7fbe 7517 81be 8de2 263f
000003f0: 85cf 8f3e 1d34 94be bd1b dc3e ca1e 1b3e
-0.21090779 0.34320578 -0.98024356 0.06503788 -0.5527721 0.32093734 -0.3964365 -0.29910988
0.91968703 0.38686478 0.06861234 -0.08823873 -0.43654704 -0.27933615 0.14155324 0.14330815
-0.4310189 0.17876853 -0.22360544 -0.19924 0.18108156 -0.5769298 -0.13131125 0.45344707
-0.31151098 -0.14340721 0.31526232 -0.2594344 0.2026273 -0.31067413 0.27962515 0.28586024
-0.3562151 -0.36187586 -0.080824666 -0.631833 -0.24258086 0.7482793 0.7306826 -0.23286548
-0.92410165 -0.2979648 -0.0005024927 0.031084713 -0.94869256 -0.57352597 -0.20220771 0.42149082
-0.41579553 0.06964484 -0.114304975 -0.06620335 0.15402064 0.10966501 -0.13972901 0.15776025
-0.44349673 -0.31885022 0.32934278 -0.16213281 -0.66680574 -0.592273 0.37558365 0.40442532
0.13468318 -0.5594545 -0.28348738 -0.20425543 -0.16420943 -0.33660582 0.086916916 0.09247476
0.72198546 -0.23515229 0.359375 -0.0038598152 -0.22406957 -0.32860047 -0.8674846 -0.18877141
-0.49978724 -0.4071384 0.85390604 0.2702268 -0.6914381 0.3225857 -0.06715937 0.58156526
0.24362215 0.65515506 -0.49330196 0.48188138 0.12086251 -0.035073802 0.6980543 1.0600675
0.24856268 0.3687994 -0.089706734 0.2354591 -0.33368316 0.016671287 -0.30456987 -0.2493874
0.02225395 0.08443825 -0.31193432 -0.27261162 0.59092766 -0.21496575 0.42018014 0.39022568
-0.24639969 -0.1867033 -0.22988965 0.17313233 -0.24558686 -0.05532929 0.49321315 -0.86849403
-0.2894498 0.5687491 -0.30268696 -0.11292979 -0.13791823 0.22848365 0.7600437 -0.5502313
-0.18413983 0.15335733 -0.23063664 -0.37396404 0.05955887 -0.006037846 0.47657037 -0.2801158
-0.118672125 0.45928356 -0.50109494 -0.6317188 0.35947803 -0.15313746 -0.33256972 -0.31266978
-1.0430169 -0.5624895 -0.49443853 -0.4083091 -0.21964343 0.041958123 -0.14774533 0.43831298
0.39486846 0.23592253 -0.20878637 0.28077608 -0.14873162 -0.35704604 0.18195638 -0.28660884
0.03725979 0.12753575 -0.41327885 -0.39239636 0.28345984 -0.014740478 0.42219618 0.048147187
-0.12810123 -0.041923147 0.18706203 -0.044160016 -0.6480565 -0.38996416 0.17153493 0.84440625
0.28691378 -0.59407705 -0.062474214 -0.2518694 0.33187345 0.28221312 -0.3116867 0.1651738
0.43767053 0.5591325 0.02482473 0.22782315 0.08374313 0.42059752 0.22425371 -0.3343364
-0.06859816 0.0037111857 0.73094976 0.4919211 -0.13191338 -0.14648472 -0.22907482 0.14621882
-0.24545208 -0.37392345 0.31988022 -0.14228632 0.5406332 0.055123977 -0.18377788 0.039451595
-0.27311262 -0.08671884 -0.23046659 0.27838266 -0.061307207 0.5598285 -0.9446333 0.20912051
-0.038494438 -0.024103232 -0.1068807 -0.263537 -0.10348932 -0.5139752 0.76324826 -0.40956357
-0.41484976 0.03764939 -0.07099656 0.28471947 -0.105490826 -0.26578248 0.1643702 -0.14234768
-0.770768 0.013978474 0.2647477 -0.69328386 -0.4447796 -0.5155437 -0.3999042 0.18723032
0.13373697 0.43700293 0.53771186 0.24699096 0.593086 0.2813322 0.7741313 -0.12036895
-0.18297268 -0.24956466 -0.2521321 0.6518944 0.28088012 -0.2894601 0.42989913 0.15148464

network_body._body_endoder.seq_layers.0.bias f4 [256]
00000000: 9a50 453b ceeb 9cb8 6f8f 6fbb e878 323c
00000010: 1043 6d3c 86e6 823a a576 b3bb 6abd 013b
00000020: 9b92 de39 7a15 5c3b 94f2 5abb 478e fcbb
00000030: 9231 753b 1dff b23b ff86 1c3b deea 823a
00000040: d1da 60bb 7ca4 523c a263 763c 8e98 043c
00000050: 181c 8e3a 84cc 4eba dacf 27bc 79ab f13b
00000060: 0b80 f1bb 98ff 683c 7c5c 31bb 9099 483c
00000070: e136 c5ba 1fcc a13b c135 393b 9a95 953b
00000080: 0599 0f3b 7ccf e5ba a726 96bb aa1a f83b
00000090: db5a 9f3a 08b1 833b 5ab1 4e3c 6597 00bb
000000a0: b3cb a4bb ce8d 903b 4ddc 963b 1263 6c3b
000000b0: f744 f63b 2b3d 7cb9 46ba 563c 6e61 47bb
000000c0: 41c1 f3ba ab8a 13ba 300d 1a3c f332 003c
000000d0: 9866 833b ea6c 853c 5d78 26bb 3c59 803b
000000e0: 72f5 81bb 7069 ec3a e8cb 9cbb 8544 32bc
000000f0: d5e3 53ba 9b5e 813b f49b 9bbb bbb4 93bb
00000100: 6fde 3b3c de07 a8bb 3d88 0f3b 9ce7 0bba
00000110: 6806 4a3c 4c41 33bb ca64 ecb9 3ca4 33bc
00000120: dada 233c e714 31bb 3a06 363a dbba ef3b
00000130: e999 023c 87e1 023b dcfc 5a39 bbec 143c
00000140: d5b6 303b 545c 62bb 4559 d73b 2788 a03b
00000150: e600 93b9 60d4 563b 0494 7c3b 506e a9bb
00000160: b9b8 39bb 8470 f83b 4030 683b 92b8 9bba
00000170: e8e4 81b8 ecf8 70ba cf2f d93b 82f7 cf3b
00000180: a8af 1b3c beb1 023b d81d 713b 6cca 713b
00000190: d4df e9bb 192b f43a b360 bb3b 6464 f13b
000001a0: a10f df3b 9464 133c 2392 8a3c 4d96 ce3b
000001b0: 75d4 873b 3d8e 59ba 6c18 203c 7468 abbb
000001c0: fb1b f7ba ba0f 3e3c 0ba7 f437 46dc 16b9
000001d0: dde7 793b eabd f03b 5dfd 803b 0a81 ab3a
000001e0: e121 1e3c edbe 6b3c c1ce 24ba 07a3 d9bb
000001f0: 798a b7bb 6abb 3d3b d21d 1c3a f444 523c
00000200: 3d72 5b3b cdf5 743b d616 ceba 3729 53bc
00000210: d907 d33b e648 8d3b b39e 733b 6eb5 823c
00000220: cbc2 ad3b 25fe 10bc a0f3 d13b d5a2 9fbb
00000230: cc99 343a 50b9 0c3c 5f0e 18bb 6874 acba
00000240: ee22 2e3c bd2f 90ba 0c9c 7e3b 8abb 623b
00000250: f673 573c ad48 183c c7ff 973b 4609 053c
00000260: 7643 393b e83e 513c da72 31bb c14a eb3b
00000270: d7a1 bcbc 805e f0bb f06e fb3b 1b69 193b
00000280: f37e 363c 3f8b c139 9d72 863b 55fd 8dbb
00000290: d24c 153c 9ad5 7ebc 0925 ccba 9f46 523b
000002a0: 35e9 b83b d167 fb3a d6c5 a5bb b3e3 473c
000002b0: 0f7d f735 c43e 1a3b c13c 3a3b f44f 41bb
000002c0: 9f25 9f3b dcee fd3a e1c1 283c fee7 45bb
000002d0: 3837 b73b d434 17bc 107c b3bb 7bf3 363c
000002e0: 8ad0 743c bb49 943b 530c f03b 33a3 0abb
000002f0: 1d31 083c 9f44 493b 86b4 f03b db70 413c
00000300: 381d 8c3b 73a6 51ba 5486 3bbb d513 603b
00000310: 0312 d83b c56e ce3b 5085 223a 6400 84ba
00000320: fa1a 313a 3094 0d3c 6ebb a93b f2b2 0a3c
00000330: d29e 4b3c 49b9 12bc 87c2 463c 4c52 20bb
00000340: 141e d8ba 212c 2a3b 4c68 213c a3de c43a
00000350: 6f82 63bb d7c0 f53b 5e0d 1fbc b5e2 71bc
00000360: b582 803c 534f 223c 0c70 553c 6f3d 91bb
00000370: 1a8b ff3b 207c b63b ccf5 493c bdc5 cfbb
00000380: ccb5 6ebb 7914 f43b 682c 2a3c e59e 4f3b
00000390: 595e 923b 5d1c 083b c27c 59b9 fbb6 16bc
000003a0: 3eff 9eb9 e17e ebbb 137e 4a3a 3713 2bbc
000003b0: bd74 4f3c ceca 113c 0fb4 2d3b 61d2 e4bb
000003c0: ca68 e1ba 63fc b0bb 7c97 d7bb 2721 b13b
000003d0: 7c20 fcba a9d6 aaba aada 653c ef90 a439
000003e0: 1b44 963a 04ac 91bb 403d 9d3b 415c a9ba
000003f0: 93bc ccbb 55a2 283c b031 d93b b6e7 9cba
0.0030107857 -7.482582e-05 -0.0036554 0.010893084 0.014481321 0.0009986914 -0.00547679 0.0019796737
0.0004245237 0.0033582137 -0.0033408748 -0.0077073905 0.003741358 0.005462541 0.0023884175 0.0009988209
-0.0034310112 0.012856599 0.015038403 0.0080930125 0.0010842113 -0.00078887516 -0.010242427 0.0073751775
-0.0073700002 0.014221095 -0.0027063182 0.012243643 -0.0015046262 0.004937663 0.00282608 0.004564953
0.0021911275 -0.0017533149 -0.0045822444 0.007571538 0.0012157814 0.0040189065 0.012615526 -0.0019621488
-0.0050291657 0.0044114357 0.0046038986 0.0036069793 0.0075155455 -0.0002405538 0.0131059345 -0.0030423063
-0.0018597023 -0.0005628268 0.009402558 0.007824647 0.004010033 0.016287286 -0.0025401332 0.0039168876
-0.003966027 0.0018036794 -0.0047850497 -0.010880594 -0.0008082961 0.0039480454 -0.0047488157 -0.0045076287
0.0114666065 -0.005127891 0.0021901273 -0.00053369417 0.012330629 -0.0027352152 -0.0004508852 -0.0109644495
0.010000909 -0.0027020515 0.0006943677 0.007315976 0.007971265 0.001997085 0.00020884298 0.009089644
0.0026964445 -0.0034539895 0.006571921 0.004899043 -0.00028038694 0.0032780394 0.0038540373 -0.005170621
-0.0028338863 0.0075817723 0.003542915 -0.0011880568 -6.1938365e-05 -0.00091923657 0.0066280137 0.006346644
0.009502329 0.0019942368 0.003679147 0.0036894334 -0.007137278 0.0018628567 0.0057183146 0.007366704
0.006807283 0.008996148 0.016915387 0.0063045383 0.0041452 -0.0008299088 0.009771448 -0.0052309576
-0.0018852943 0.011600429 2.9164852e-05 -0.00014387173 0.0038132586 0.0073468583 0.0039364533 0.0013084721
0.009651632 0.014388782 -0.0006286912 -0.006641749 -0.005601224 0.0028950819 0.00059553713 0.0128338225
0.003348484 0.0037377954 -0.0015723358 -0.012888244 0.0064401445 0.0043116687 0.003717345 0.015955653
0.005302762 -0.008849655 0.006407216 -0.004871706 0.00068893726 0.008589104 -0.0023201925 -0.001315725
0.010628445 -0.0011000555 0.0038850335 0.0034596645 0.013150206 0.009294671 0.0046386453 0.008119887
0.002826897 0.012771346 -0.0027076514 0.007180542 -0.02302639 -0.007335484 0.007673137 0.0023408595
0.0111386655 0.00036915575 0.0041030184 -0.004333178 0.009112554 -0.015553856 -0.0015575002 0.003208555
0.005643035 0.001918072 -0.0050589843 0.012200284 1.8439331e-06 0.0023535946 0.002841756 -0.0029497119
0.0048567797 0.0019373554 0.010300131 -0.0030198093 0.0055912994 -0.009228904 -0.005477436 0.011166449
0.014942298 0.004525391 0.007325688 -0.0021154403 0.008312491 0.0030711067 0.007345739 0.011806692
0.004275944 -0.000799752 -0.0028614001 0.0034191508 0.006593944 0.006299826 0.00061996747 -0.0010070917
0.0006756034 0.008641288 0.005179814 0.008465515 0.012428002 -0.008955308 0.01213134 -0.0024463115
-0.0016488456 0.0025966244 0.0098515265 0.0015019964 -0.0034715196 0.007499795 -0.009707777 -0.014763524
0.015687326 0.009906608 0.013027202 -0.0044323723 0.0077985646 0.005568996 0.012326669 -0.006340711
-0.0036424277 0.0074487296 0.010386564 0.0031680402 0.0044668135 0.002076886 -0.00020741209 -0.009198899
-0.0003032628 -0.007186756 0.0007724475 -0.010441593 0.01266211 0.00889845 0.0026505028 -0.006983087
-0.0017197367 -0.0054011806 -0.0065793376 0.0054055634 -0.0019235755 -0.0013033944 0.014029184 0.00031388502
0.0011464389 -0.0044455547 0.0047985613 -0.001292117 -0.0062480657 0.010292609 0.0066282377 -0.0011970911

network_body._body_endoder.seq_layers.2.weight f4 [256, 256]
00000000: db04 80bd c878 dcbd fd02 89bd 2037 41bd
00000010: 46fa e6bc 17ec ac3b 94a5 9f3d 0f10 ce3c
00000020: 8ee1 90bd fef3 ac3d 700e 993c 706e 7b3b
00000030: 380d cb3d 3baa c9bd 7fbf 8d3c 603c a73c
00000040: 4d9b 463d be11 5ebd c234 31ba 9153 cc3d
00000050: f4ef 07be 0993 3f3d 06b4 343d 3780 9e3d
00000060: 433c 52bc e8cd aa3b 7bd9 193d c7f6 8ebd
00000070: e758 9abd 055b bd3d 3def 51be 20be e9bc
00000080: 3221 94bd 77b5 903c 2734 fcbc 1335 d6bd
00000090: 000c 73bd e825 8fbd 2f68 363d 8ece 4bbb
000000a0: 6b5d f9bb c121 4c3d e1a7 aa3a b3ad a2bd
000000b0: 4523 d1bb 4c11 4a3d a267 04bc d332 233d
000000c0: 6ca4 853c 9678 a2bd ab5e 0e3d 6b5b 223d
000000d0: a501 a5bc 1dfc b63c 7369 9d3d 92eb 8abd
000000e0: 3688 9fbc 25b9 37bc bbba 26bd 71bb 69bc
000000f0: 9d35 1dbc b5e7 eebd 37ce 8ebd 3192 00be
00000100: b3e6 01bd 81b1 b5bd 0a83 cebc 39a1 2ebd
00000110: d144 c6bd c852 863d ae0a b3bd 7cac bb3b
00000120: 54fe 0d3e 9f45 823d 4754 1bbd af14 0fbd
00000130: b618 28bd 1b8c 5e3d 9c67 f43c b9f7 a0bb
00000140: 215c 283d 218d 70bd 9d56 75bc 618b 96bc
00000150: d922 8fbd 3aac 12bd 3b9f 9cbd d883 0b3e
00000160: f8b5 b33d be93 c03c 462f ad3c 5afe 973c
00000170: c7df 563a b623 843c a3d1 443d 2cb4 cabd
00000180: 2c25 fd3c 4fb7 e53d 910d 9fbc 0510 b4bb
00000190: ea4d 423d acd1 b2bd 49d6 c13d 8aa5 91bd
000001a0: 1a0b a2bd 44f5 843d 006b b7bd 2fdf 893c
000001b0: 2cea 2d3d 0675 abbd baad 983d 13ce afbd
000001c0: ceb4 beba 3c98 3fbd 7bfe 383b e968 4bbd
000001d0: c8a3 d0bc 3e7e 823c 7221 6d3d d86e 1c3d
000001e0: 9581 afbb 7ac3 e63d 50a3 a8bc 8910 263c
000001f0: 1e32 933c cd97 883c 8be3 aebd 53ee 513d
00000200: 560a d1bd 1959 42bc 3146 8a3d 3f37 9bbd
00000210: f4e1 08bd 8c5b 89bd 291e 9d3d b23b 123d
00000220: f62f 3a3d 62e2 8cbc 2655 943d 1967 bcbd
00000230: fbe8 213e b2d9 d93b 67f8 023e f43d 53be
00000240: a9bc 5f3d 3182 653d 9ae9 a73d 80dc 583d
00000250: e64d 32bd 4628 47bb a7db 773d f8a5 35bd
00000260: ca23 303d 89cb 963d f2d1 c3bc d35d 3f3d
00000270: c053 883d f88c 0fbd 2d9b aabd f50c 35bd
00000280: 87be 473d bbdf d63b 5ad8 de3d 1c8f 293d
00000290: 342a cd3c 58fb a8bd e99c 87bb 2526 29bc
000002a0: 35fa 43bd 6c1c 793d 5c88 9abc 5b13 81bd
000002b0: cc29 5734 bc38 663c ca8b 8f3c d45a 273c
000002c0: 7625 8d3d 3061 a1bc 96b4 443d d266 9d3c
000002d0: e3fd e63d 895b aa3d 1a74 69bd 5dc5 6cbb
000002e0: 0075 2f3d e51b 7abd cdca 24bd 77ea ee3d
000002f0: 1aeb 7a3c ddbb a4bd 2311 7f3d 1a15 d63c
00000300: b2b8 8bbc 7c69 743d 6b50 d9bc 8e16 2abd
00000310: 9e38 90bb 6e43 b43d b25d 53bd 012c 553d
00000320: 110f 80bd 548e ccbc d561 fdbc 2e3b e7bb
00000330: a567 8cbc c353 5cbd 8aa3 8f3c 7333 71bd
00000340: 3fa3 c53c 765e 583d e8d2 c03c ac71 443d
00000350: 8eb5 0cbe ad6a ab3b 1f1f c8bc c300 ee3c
00000360: d470 cd3c 658c 41bd 355d acbb b4f7 debd
00000370: bcef 563d 70c2 5dbc a547 4c3e 866a cabc
00000380: a07a eebc dfdc 543c 36b5 bbbd 825e 1ebe
00000390: 0810 3fbe c74e 3d3d e20c d23c 4e7b 3cbd
000003a0: ca34 adbd 2491 123d 4228 323d 9b2b 2fbd
000003b0: baea ddbd aade acbc 1db0 d3bd 19fe 4dbd
000003c0: bccc e139 4f89 ce3d ad28 513b 316d cf3c
000003d0: 3604 743c f831 a4bd cdac d8bd dba8 583c
000003e0: 0691 683d d9da 133e 89a4 72bd 68ce 153d
000003f0: 262b cf3c e7de 7ebc ff21 d43d 2ba3 543d
-0.06250926 -0.10765225 -0.06690023 -0.047171712 -0.028195512 0.0052771675 0.077952534 0.025154142
-0.07074271 0.08444975 0.018683642 0.0038365386 0.09914631 -0.09846922 0.017303227 0.020414531
0.04848795 -0.05421614 -0.00067598757 0.099768765 -0.13275129 0.046771083 0.044116996 0.07739299
-0.01283175 0.005212534 0.03756092 -0.06980663 -0.07536488 0.09245876 -0.20501418 -0.028533041
-0.07232894 0.017664654 -0.030786587 -0.10459342 -0.059337616 -0.06989652 0.04453295 -0.0031098458
-0.0076100132 0.049836878 0.0013020003 -0.07943287 -0.0063823783 0.0493329 -0.008081349 0.03984339
0.016313754 -0.07933156 0.03475825 0.039637964 -0.020142386 0.022337014 0.076861285 -0.06783213
-0.01947413 -0.0112135755 -0.040705424 -0.014265881 -0.009595302 -0.11665288 -0.06972926 -0.12555768
-0.031714153 -0.08871747 -0.025208969 -0.042634223 -0.096810944 0.06558758 -0.08742271 0.005727349
0.1386655 0.063609354 -0.03792217 -0.034931835 -0.04103919 0.054332834 0.029834561 -0.0049123433
0.041103486 -0.05872834 -0.0149742635 -0.018377008 -0.069890685 -0.03580878 -0.07647558 0.13624513
0.08774942 0.023507949 0.021140706 0.018553901 0.00081967976 0.01613031 0.048051488 -0.09897646
0.030901514 0.11216604 -0.019415649 -0.0054950737 0.047437586 -0.08731398 0.094647 -0.07111652
-0.07912274 0.06492093 -0.089559555 0.016830055 0.04245965 -0.0837193 0.07455011 -0.085842274
-0.0014549734 -0.04677604 0.0028227854 -0.049660597 -0.025468722 0.015929338 0.057893224 0.038191646
-0.0053560236 0.11267753 -0.020585686 0.010135778 0.017968234 0.016673947 -0.08539494 0.051252674
-0.102070495 -0.011862063 0.06751669 -0.07578897 -0.03341861 -0.06706914 0.07671768 0.03570146
0.045455895 -0.017197791 0.07242803 -0.09199352 0.15811531 0.0066482658 0.1279007 -0.20629102
0.05462328 0.056032363 0.08198853 0.05294466 -0.04353132 -0.0030388995 0.06051221 -0.044347733
0.04300288 0.0736304 -0.02390382 0.046720337 0.06656599 -0.035046548 -0.08330379 -0.04420181
0.048765685 0.0065574325 0.108811095 0.041396245 0.025044538 -0.08251065 -0.004138578 -0.010324036
-0.047846038 0.06081812 -0.01886385 -0.0630252 2.0038641e-07 0.0140516125 0.017522711 0.010214526
0.06891911 -0.019699663 0.048023783 0.019214068 0.11278894 0.0831824 -0.05699549 -0.003612838
0.04283619 -0.06106176 -0.04023247 0.11665814 0.015314842 -0.080436446 0.062272202 0.026133109
-0.017055843 0.05967091 -0.026527604 -0.041525416 -0.0044012805 0.08801924 -0.051603027 0.05204392
-0.06252874 -0.024970211 -0.030930439 -0.0070566153 -0.017139265 -0.05379082 0.017534036 -0.058886956
0.024125693 0.05282446 0.023538068 0.04795997 -0.13741133 0.0052312226 -0.024428902 0.029053098
0.025078215 -0.04725303 -0.0052601346 -0.10887089 0.052474722 -0.013535127 0.19949205 -0.024708997
-0.029111207 0.012992113 -0.091654226 -0.1546574 -0.18658459 0.046217706 0.025640909 -0.04601603
-0.08457334 0.035782948 0.043495424 -0.042766195 -0.10835786 -0.021102268 -0.10336325 -0.050291155
0.00043067883 0.10084783 0.0031915114 0.025320621 0.014893582 -0.08017343 -0.10579834 0.013223852
0.05677893 0.14438953 -0.059238944 0.036573797 0.02528913 -0.015556074 0.10358047 0.05191342

network_body._body_endoder.seq_layers.2.bias f4 [256]
00000000: b48f d23b 9b82 183b 375e c03a 6b75 8fb9
00000010: 4b20 07bb 75b9 dc3b 0604 aa3b 923c 853b
00000020: 6e7a 053c f2dd 003b 3f8a 5ebb 11db a53b
00000030: 2952 a03b a441 e03b 1504 d5b9 9526 89ba
00000040: 83eb 383b 9ba9 4f3c d18a 2d3b 562a c83b
00000050: f7fc cc3b c29a 973b c10c 4abb b7a4 8f3c
00000060: 1f92 8b3b b5b2 d53b 32ec 0e3b 0a47 71b9
00000070: e30d 113c c453 cbbb f35e 5a39 28a7 2b3c
00000080: 846b b23b 05a6 91b9 4fcc 4cba 34b2 143c
00000090: d071 bb3b ef87 403c f612 d63b 4a44 933b
000000a0: 3b53 a3bb 5d2d 4cba cace da3a 9df2 83bb
000000b0: 730d 123c 9899 8e3b b09f 54ba 45d1 3d3b
000000c0: df32 283c b0b5 003b e703 09bc 8962 2c3b
000000d0: 46d3 5e3c 52be 9abb 6d09 1e3b 0af7 27ba
000000e0: 6606 183a 71b9 95ba 993b 2cbb eed8 0b3c
000000f0: 3e05 c8bb 3041 0a3c 3cf0 053c f3fc 09bc
00000100: 8f00 483b 10d0 3a39 5df8 753a 7c73 2ebb
00000110: 6dad a9bb e07e 4a3a 8c42 103c 7e19 223b
00000120: 26fe e1bb c024 c93b b114 8d3b 2d3d 6cbc
00000130: 038b 993b 7dd7 a13b d910 093c 19d2 a43b
00000140: 6d77 f5bb 9f80 fa3b 5249 363b 9863 7bbb
00000150: 90d6 f036 f3e0 adbb 12af 42bb 756d c93b
00000160: c35e 033a ec28 03bb ae33 d33b 8336 a73b
00000170: 1aed 853c 2b10 f53b 049b cb3b a693 963a
00000180: 43ea 4239 c3ca fe3a b235 e9bb f695 0a3b
00000190: 4d23 103b d8d7 3e3c b972 bf3a 6cf7 fbbb
000001a0: 1000 ea3b f946 b0bb 0ddf c73b 8909 933b
000001b0: 665b 8cbb 8ffc 74bb 9068 05bb 365d 673b
000001c0: fd0e 96bb f275 1d3b 1ce6 293c 6a1e b83b
000001d0: 4c28 93bb dd04 0c3c 27e6 153c e091 92ba
000001e0: 96fe 9a3b 845e 5e3b b690 46bc 1111 9a3b
000001f0: 7c17 63bb f07b 103c 1afa d0bb 1b80 53bb
00000200: 38ea 8a3c ee04 823b 7f59 a239 eb36 d73b
00000210: c906 ffbb 2c25 cbbb a2dd 133a 908e 96bb
00000220: 9476 023b 0530 2c3b a5fa d63b 3333 8e3b
00000230: 6758 973b aae8 49bb 786b d8b9 ea9f 4ebb
00000240: 16f2 98bb 2af3 003c c241 46bb 814a d8bb
00000250: bc76 1dba f9ee 813b 6b58 35bb 8761 553b
00000260: f190 693b 3793 553b e64d 9f3b 63f7 a33c
00000270: 7f4e 763a f0c8 b9bb e5ec 43bb fe03 323c
00000280: d03a 2d3b 8331 babb 667d e53b 56e5 8b36
00000290: 9472 833b 72f2 9d3b 7145 f73b 02aa e43b
000002a0: 86f4 7abb 3c4b 593b d683 fc3b 30a7 bc3b
000002b0: 8f54 8d3b 8e5b edba fd6f 9eba 3cac e73a
000002c0: 341b 233c e19b b23b 2d29 18bc 3d41 c63b
000002d0: 6800 4fbc bb09 323b 16dc eb3b bfb9 d03b
000002e0: d5c9 18bc e4c6 283b f389 1b3b cab9 babb
000002f0: c902 133c dad3 2fbb 2272 083c 22a3 393b
00000300: 5c89 5abb 0be0 293c 1d4b e43b 5a86 71ba
00000310: 0f82 763c 9cf8 023c af39 5c3b 71a7 f23b
00000320: bcf6 a93a 7838 58bb c135 54bb c533 0f3c
00000330: dfca 863c 3f3c 55bb bc86 693a 38c9 293c
00000340: 606a cbbb 4c57 083c e94e a63b 63b6 11bb
00000350: e788 d9ba 678d d03a c21f 5f3b 9b8b 443c
00000360: 1313 c7ba 8c5e ae3b 7eda 00bb 4af1 3fbb
00000370: e0b2 0c3c 5f3a 013c ec05 82ba dd37 06bc
00000380: ca0f fe3b a314 4f3b eb30 2e3a 779c 233b
00000390: ce29 9bba 8b13 71bb f23f f2bb e11d 1c3c
000003a0: d308 18bb a4fc 543b 95fe ad3b ea62 a9ba
000003b0: b210 b9ba 143f 853a f36b aebb a8fc 313c
000003c0: cdac 053b 9ec8 1f3c 6c68 063c 609a 113b
000003d0: 1227 01bb 8e10 dc3b c0dc 40ba 62fa 6ab9
000003e0: 144c da3a e63c 053c f959 9dbb fc5e f3bb
000003f0: debc 9a3b ad74 e53b 37ab 923b 72e1 d23b
0.006425822 0.0023271206 0.0014676516 -0.0002736257 -0.0020618613 0.0067359754 0.005188468 0.0040660584
0.008146865 0.001966354 -0.0033956913 0.005061515 0.0048926068 0.0068437625 -0.00040629567 -0.0010463769
0.0028216548 0.012674714 0.0026480446 0.0061085625 0.0062557417 0.004626603 -0.0030830356 0.017534597
0.0042593624 0.0065215477 0.0021808264 -0.00023010015 0.0088534085 -0.006205054 0.00020825471 0.010476865
0.005444946 -0.0002778025 -0.0007812427 0.00907569 0.0057203546 0.011751159 0.006533022 0.0044942247
-0.004984287 -0.0007788742 0.0016693708 -0.0040267245 0.008914339 0.004351806 -0.00081109535 0.0028963846
0.010266035 0.0019639544 -0.008362747 0.0026303849 0.013600176 -0.004722395 0.0024114505 -0.0006407356
0.0005799293 -0.0011423064 -0.002628064 0.008535607 -0.0061041405 0.0084383935 0.008174952 -0.008422124
0.003051791 0.00017815852 0.00093830173 -0.0026619127 -0.0051781447 0.00077245943 0.0088049285 0.0024734433
-0.006896752 0.006138414 0.004305445 -0.014418882 0.004685761 0.0049390183 0.008365833 0.0050299284
-0.0074910433 0.0076447274 0.0027814698 -0.0038358923 7.1775357e-06 -0.005306357 -0.00297064 0.0061470815
0.0005011374 -0.0020013405 0.0064453697 0.005102934 0.01634841 0.007478734 0.0062135477 0.0011488094
0.00018588551 0.001943909 -0.0071169967 0.0021146513 0.0021993697 0.011648141 0.0014606334 -0.007689407
0.0071411207 -0.0053795543 0.006099588 0.0044872207 -0.0042833565 -0.0037381982 -0.0020356514 0.003530336
-0.0045794235 0.00240266 0.010369804 0.00561886 -0.0044908877 0.008546081 0.009149111 -0.001118239
0.004730056 0.0033930847 -0.012119463 0.0047017415 -0.003465145 0.0088186115 -0.0063774707 -0.0032272402
0.016957387 0.003967873 0.00030965728 0.006567826 -0.0077827913 -0.0061994996 0.0005640631 -0.0045946315
0.0019907104 0.002627374 0.006560641 0.0043395995 0.0046186927 -0.0030808845 -0.000412788 -0.0031528422
-0.004667531 0.007870475 -0.0030251597 -0.0066006784 -0.00060067675 0.0039652553 -0.002767111 0.0032559352
0.003563937 0.0032588968 0.004861581 0.020015424 0.0009395852 -0.0056697056 -0.0029895839 0.01086521
0.002643276 -0.005682172 0.007003474 4.169221e-06 0.0040114615 0.0048201615 0.00754612 0.0069782743
-0.003829272 0.0033156415 0.0077061458 0.005757235 0.0043130587 -0.001810895 -0.0012087818 0.0017675231
0.009955216 0.005450711 -0.009287161 0.0060502575 -0.012634374 0.0027166444 0.007197867 0.006369799
-0.009325464 0.0025753314 0.0023733347 -0.0056984173 0.008972832 -0.0026829154 0.008327993 0.0028325994
-0.0033346033 0.010368357 0.006966962 -0.00092134404 0.015045657 0.007993843 0.0033603718 0.0074052145
0.0012967209 -0.0032992642 -0.0032380673 0.00874037 0.016454158 -0.003253713 0.00089083216 0.010362916
-0.0062077492 0.008321594 0.005075325 -0.0022233955 -0.0016596586 0.0015911282 0.0034046029 0.011996175
-0.001518818 0.0053213295 -0.0019661481 -0.0029288107 0.008587569 0.007887452 -0.0009919978 -0.00819203
0.007753347 0.0031597994 0.00066448626 0.0024965086 -0.001183802 -0.003678533 -0.007392877 0.009528608
-0.002319862 0.0032499218 0.0053098896 -0.0012923155 -0.0014119355 0.0010165893 -0.005322927 0.010863461
0.0020397187 0.009752421 0.008203607 0.0022217259 -0.0019707126 0.0067158407 -0.0007357113 -0.00022409254
0.0016654753 0.008132195 -0.0048019853 -0.0074270945 0.0047222218 0.007002434 0.004475977 0.0064355666

network_body._body_endoder.seq_layers.4.weight f4 [256, 256]
00000000: 7431 573d 4dd6 003d 3a0e 9b3b bcd7 a43d
00000010: 8f25 d9bb 2a1e abbd 610d 2d3c 11d3 a4bc
00000020: f0b7 31bc a035 aebb 3415 4c3d 5ebc f23c
00000030: 574b 00be 6517 a4bd afbc 38bc 6f06 bd3d
00000040: 6e20 a83d 03f7 bfbd 6f9e b03d bb30 873d
00000050: d7ff 273c 11ba a6bc 9d3f a83c aec5 53bc
00000060: 6b98 38bc 3616 86ba 8e4f 4cbd 3b94 363c
00000070: 4ecb 88bd 6592 2a3c 46d0 68bd 09b0 583d
00000080: fa26 16bd eb43 08be 9e6a ba3c 86cd 8d3e
00000090: f6b7 81bd 1805 a0bd 3249 50bd e666 d73d
000000a0: ed86 e73d 8c5d 7abd fdb4 d0bd 7c96 0bbd
000000b0: fd89 913d 0a1f 42bc 887d febc 97d8 843b
000000c0: e558 393d 3e5e 093d 236b 233d 6fcc 99bd
000000d0: d1b1 343d 988e ad3c 7141 393e 6980 92bd
000000e0: f57b 803d b527 13bd 6ef6 843d d842 0abd
000000f0: f05b 38bd 86a6 20bc 73e8 bd3d ac07 3bbc
00000100: f4c3 81bc ea9d 743d 785f 8abd 657c 003d
00000110: 6ce4 833c 9a22 4f3d a93d c83d 6a1b 17bd
00000120: 6ff5 aa3d edaa 7c3d 4fc0 8d3d 1d4c 363d
00000130: df1c 61bd 834c c53d c3f7 01bd 7b8f f6bc
00000140: 2426 96bd 9ec2 7bbd 232f c7bb 8c08 99bd
00000150: dd94 a0ba a611 a9bd 57ec 63bd a216 cbbc
00000160: fc8e b93c 5025 573c 400b a13d ebc0 0d3d
00000170: 7e34 2b3d 1fdd 04bc c4cf 26bd 7207 40bd
00000180: f53f dbbc 2723 2fbe 741a 883d 6ad8 58bd
00000190: 342d a83d 0fc3 8abd 2a70 09bb f314 1fbc
000001a0: be31 9bbb 89b9 693d 8ff5 9b3c e4e6 c8bc
000001b0: 1cd8 b63b 674d 2ebd add2 ff3c 4b46 1f3e
000001c0: 47b8 b0bc 00b9 a63d 43b8 febd 34c5 72be
000001d0: ef1f d0bc 842e 3bbd 3c9e a43c f07b 82bc
000001e0: 2f6b 823d 106a 883d d5c5 853d 7219 1dbb
000001f0: ad10 61bd d829 19bd 06e8 c8bc 2748 5c3d
00000200: f0f8 8f3d 08ab 9a3c 27a2 d7bd 6b75 e43d
00000210: 604e b93d 67ad c33c be16 63bd 54e6 b9bb
00000220: d235 bfbb 06cb a9bc e566 0cbd e112 27bd
00000230: d5d5 3ebd 9e8a 94bd 6b9c 9c3d 9b22 ddbd
00000240: 1561 e2bd 7bc3 afbd c30c 873d bcfc 66bc
00000250: 51ed 2dbe 2958 0b3d 24f6 25bd 147c d03c
00000260: c564 b43c e644 19be 9129 4fbd 302d 7a3d
00000270: a57d 0e3e dc75 babd 0f3b 02be bff7 c9bd
00000280: 3ece eabd b20a ce3c a8fb d53c 342d 9abc
00000290: 5aa5 8a3d 807d 1b3d 6fd9 0cbd 8d84 62bd
000002a0: f5f9 503d dd93 8c3d b52c e23d 0d8c a4bc
000002b0: 9132 e2bc 99ee 1b3d c7a1 9f3d 1b61 d7bc
000002c0: 2469 c13c 9c0d af3d 7292 94bd b3a5 9f3d
000002d0: 04e3 b63b 5976 e73b e709 ed3d e8e0 a63d
000002e0: 8503 e93c c444 393c 30e2 84bd 901c ad3d
000002f0: 91b5 8dbd fbc2 0ebd 4486 84bd 6777 a03d
00000300: 529b 1dbd b9b2 d03d bbf8 68bc 5005 f63b
00000310: 6289 843d 9b6a cbbd 22fb 273d b54b 2c3d
00000320: 2d83 6bbb 5393 ba3d fb0a dd3c 51b5 8a3d
00000330: 500f 9bbd d257 99bd 7e50 783d f5ac f0bc
00000340: aa8e fbbb 2d2a 02be d29d 363a 807e 603c
00000350: 57aa 8ebd 2fff 50bc 1828 08bb 469d 99bd
00000360: 937a 18bd f348 7dbd da53 0d3d bde0 243c
00000370: 2ff5 9e3d 3c38 ccbd 01bd d23d e4dd 93bc
00000380: cd97 233d d1e0 c8bc bdc8 f4bc a328 1abd
00000390: 7fe1 d9bd 5b6b 993b e559 3f3d bd76 d03d
000003a0: 7428 7d3d 72d7 c03c 680a bcbd dcae 33bc
000003b0: 128d a53c c272 5bbc 7469 1d3d 9fc3 69bd
000003c0: 4d01 c4bb 6f00 47bd 70e1 0a3c 25b4 5fbd
000003d0: 1d8d ba3d 3926 52be 40c8 36bd ca9e 35bd
000003e0: 4822 0b3c 0c97 74bd 368c b7bd f4e5 8dbd
000003f0: 5e1d 383d 3537 473d df25 acbc 1f18 ba3d
0.052537397 0.031454373 0.0047319205 0.080489606 -0.006626792 -0.08355363 0.010562272 -0.020120176
-0.010847077 -0.005316451 0.04982491 0.029630836 -0.1252874 -0.08012275 -0.011275454 0.09229743
0.082093105 -0.093732856 0.08623969 0.066010915 0.010253868 -0.020352395 0.020538146 -0.0129255485
-0.011266808 -0.0010230008 -0.049880557 0.011143739 -0.06679402 0.01041088 -0.05683925 0.052902255
-0.036658265 -0.13307159 0.022755917 0.27695864 -0.06333916 -0.078134716 -0.050851054 0.10517673
0.11305032 -0.06112437 -0.10190771 -0.03407906 0.07106397 -0.011848221 -0.031065717 0.00405414
0.045250792 0.033537142 0.039897095 -0.07509696 0.04411489 0.021186158 0.1809137 -0.071533985
0.06273643 -0.03592654 0.06492315 -0.033755153 -0.045009553 -0.009805327 0.09272852 -0.011415403
-0.015840508 0.05972091 -0.067564905 0.031368632 0.016100131 0.050570108 0.09777386 -0.03689138
0.08347594 0.061686445 0.069214456 0.04450618 -0.054959174 0.09633734 -0.031730425 -0.030097714
-0.073314935 -0.0614649 -0.006078617 -0.07472333 -0.0012251396 -0.08255319 -0.055645313 -0.024791066
0.022651188 0.013131455 0.07863474 0.03460781 0.041798107 -0.00810936 -0.040725484 -0.0468821
-0.026763896 -0.17103253 0.066456705 -0.052940764 0.08211747 -0.06775486 -0.0020971396 -0.0097095845
-0.0047361543 0.057061706 0.01903799 -0.02452416 0.0055799615 -0.042554285 0.031228388 0.15554158
-0.021572245 0.08140755 -0.12437489 -0.2370804 -0.025405852 -0.045698658 0.020094983 -0.015928239
0.063681 0.06660855 0.06531874 -0.0023971465 -0.054947544 -0.03739342 -0.0245247 0.053779747
0.07029903 0.018880382 -0.10528975 0.11155208 0.09048152 0.023886396 -0.05544161 -0.005673209
-0.0058352733 -0.020726692 -0.034277815 -0.04078949 -0.046590645 -0.07253002 0.07647022 -0.10797616
-0.11053673 -0.08582207 0.06594231 -0.0140983425 -0.1698506 0.034019623 -0.04051794 0.02544979
0.022020707 -0.14967689 -0.05057675 0.06107825 0.13915117 -0.09104511 -0.12717842 -0.09861707
-0.11465119 0.025151584 0.026120976 -0.018820383 0.067698196 0.037961483 -0.03438705 -0.05530219
0.051019628 0.0686414 0.110436834 -0.020086313 -0.027612003 0.03806934 0.077945285 -0.02629142
0.023609705 0.08547518 -0.07254495 0.077952765 0.0055812616 0.0070636687 0.11574154 0.08148366
0.028444061 0.011307899 -0.06488454 0.084527135 -0.06919397 -0.034853917 -0.06470922 0.07835274
-0.038478203 0.10190339 -0.014219458 0.0075079575 0.06471516 -0.09932443 0.041010983 0.042064387
-0.003593634 0.09110131 0.026982775 0.067728646 -0.0757128 -0.074874535 0.06062364 -0.029379347
-0.007676919 -0.12711401 0.0006966266 0.013702035 -0.069660835 -0.012756153 -0.002077585 -0.07500701
-0.03722627 -0.061837148 0.034503795 0.010063347 0.07761609 -0.09971663 0.10289956 -0.018050142
0.03993969 -0.024521263 -0.029880876 -0.03763641 -0.10638713 0.004681987 0.04671659 0.101788975
0.061806157 0.023540232 -0.09181672 -0.010966983 0.02020887 -0.01339406 0.038430646 -0.057071324
-0.0059816004 -0.048584398 0.0084766 -0.05461516 0.091089465 -0.20522393 -0.044624567 -0.044340886
0.00849206 -0.059714362 -0.0896229 -0.06928626 0.04494988 0.048636634 -0.021014152 0.09086632

network_body._body_endoder.seq_layers.4.bias f4 [256]
00000000: 5cb4 7dbb de1e a63b fd62 c93a 08fb ab39
00000010: a46c 96bb 3ea2 623b f151 13bc 1bbf aa3b
00000020: 37b1 60bb 94f0 0ebb 1c47 dcbb 605b 8a39
00000030: 6a0f 3b3c f95e 093c f8d9 d7ba 68d9 91ba
00000040: 4611 593b cc35 643b 8d6e 32bc 7d5f c1bb
00000050: 5f96 33bb 6457 caba a0a6 9d3a 37f2 aeba
00000060: 1cbf 59bb 6487 03bb 6847 f93b 1c25 363b
00000070: 2bee 013c 5457 ebba cd5c 513c a8a9 323c
00000080: 7b72 b639 f546 8dbb 1a32 ddba 6e06 02b9
00000090: 8362 6f3c 2f5a c1ba 3281 1fbb 0fcf 083c
000000a0: 7a77 f8bb a7d4 3b3a 035c 673b d91b ed3b
000000b0: e319 143a dd95 aebb 10c8 0d3c ee8d c93b
000000c0: f8fe 633c 8b5e 7ebb bc8a 2d3b 9f12 493b
000000d0: 376d 23b9 1343 52bb 8a27 543c 6d68 b63b
000000e0: f955 05bc 92da 383c d67a 9cb9 5bc7 883b
000000f0: d83d 903c bf88 a5bb 9cbb ed3a 0692 193c
00000100: 7a26 11bc 362c c8bb 7013 f83b eb1c b03b
00000110: 6684 253c 0d90 bfb9 0415 d5bb fa31 073b
00000120: 93d2 783b 7877 f1ba 385c 88bb 0afc 53bb
00000130: 423d 42bb 3cec a83b ff76 f4bb da5a 2cbb
00000140: d11d 2c3c 2e4f 53ba 34fe 843b c345 8cbb
00000150: 91bd c4bb 229c 55ba 9e73 243c 5878 803c
00000160: d984 93bb 7f8a 353c ec03 103c 4545 a73b
00000170: 031f fb3a 1765 a1bb 3b8b fe3b 2780 083c
00000180: 5bce dcbb 3b4f 81bb 46c6 b63b fe29 443b
00000190: 67cf d5ba c819 93bb c7b9 3839 a806 833c
000001a0: ac9b 0eba 8eb9 92bb 0a84 04bb 936b 41bc
000001b0: 287b 3b3a 0363 fa3b fe5c 9a3a 8776 d1bb
000001c0: f22d 0f3c 7fed 4d3b 0369 773a b8c7 613c
000001d0: c0b9 463a 6add 2dbc 0306 043c 4031 1b3c
000001e0: 7c4a bfbb 4e93 96bb c185 ba38 cb8b d3bb
000001f0: 8ae4 943b dc1c b33b ece8 5a3c f8d7 183c
00000200: 028c 25bb a152 723c 9ca2 b73a 31f2 febb
00000210: 5c8b b7bb e0a7 c436 5b3a 133c b9c3 353c
00000220: 6175 d3bb 129c b1bb 2bc5 f43b 075a 0e3c
00000230: 4c22 053c 72ab d1ba 6d69 dbb9 d740 36bb
00000240: f8cf 443a 4ca2 2dbc b98c fabb 743c 63bb
00000250: 73ef 233c d741 153a 4d34 6fbb 278b a8bb
00000260: 33c4 16bb fbc7 9e39 c937 973b 5586 e7ba
00000270: b67c 26bb ce0a 123b 0021 77ba 5e8b cbbb
00000280: 02ac 61bb 4748 cf3b 133b 043a f2c5 8c3a
00000290: 3d06 253c f5d4 a33b 8984 293c db2a 94bb
000002a0: 4e97 45bb 4c01 503c bba8 b2bb 9a9b 083c
000002b0: 34a4 173b 03d2 64bb f31b 513c 1e12 aabb
000002c0: 02a8 433b 139f 573b 3127 5e3b a27e 163c
000002d0: 0dfa 893b e82c c13b 9a6c 053b bc78 a93b
000002e0: df14 76bb 7fcd 02bc 38a6 893b 902b 8b3b
000002f0: ab8a 0b3c ce28 823b 33c4 8c3c c1d4 903a
00000300: c96c 613c 6ac0 be3b 1cf5 773a 2700 aabb
00000310: 3354 11bc 1457 d53b 26ab e93b b132 6d3a
00000320: b9de d3bb 81a1 a43b a16f ff3b e9ac a63b
00000330: 5981 03bc 656c 37ba cbec 53bc 725b 47bb
00000340: f6c9 9d3a b21f 163c b4bc 1e3a 564d bcb9
00000350: 96d7 af3c 6fa5 8f39 c435 fe3b 83ed 443a
00000360: d10e 3439 42bf 6ebb aa3a 133a e839 6a3b
00000370: ee33 30bc 48e6 9bbb 09de 253b 6a2b 9cbb
00000380: 8102 143c fbe2 f93b e734 96bb cc1c 5d3b
00000390: 7b50 13bb 4562 7d3a 7705 e53b 0ce4 073b
000003a0: e285 93bb 928d e5ba 0f00 c13b 09dc 48bb
000003b0: cea9 53ba bbf0 e13b eea7 20bb 3846 ef3b
000003c0: 4513 e03a ab5b 50bc fbe4 013b 9729 533c
000003d0: cfc9 4b3c 0548 833c 5d2d 8c3b 58bb e0bb
000003e0: 7b13 81bb 9835 c4ba 0376 ba3b ebd4 053c
000003f0: 0fd9 8c3a 052f 12bc 0d41 093c 42de cb3b
-0.003871224 0.0050695976 0.0015364584 0.00032802694 -0.0045905877 0.0034581567 -0.008991704 0.00521077
-0.0034285316 -0.0021810876 -0.006722344 0.0002638949 0.011417249 0.00838446 -0.0016468158 -0.0011127414
0.0033121868 0.0034822104 -0.010890615 -0.0059012757 -0.002740286 -0.0015437421 0.0012027808 -0.0013347332
-0.0033225482 -0.0020069713 0.0076073892 0.0027793115 0.007930319 -0.0017955103 0.012778473 0.010904707
0.0003479904 -0.0043114373 -0.0016875893 -0.00012400161 0.014610889 -0.0014751608 -0.002433848 0.008350148
-0.007582602 0.00071651716 0.0035302646 0.0072359857 0.00056496094 -0.0053279237 0.008653656 0.0061509525
0.01391577 -0.0038813676 0.0026480397 0.0030681265 -0.00015585577 -0.0032083436 0.01294888 0.0055666477
-0.008138173 0.01128258 -0.0002984616 0.0041741556 0.017607614 -0.005051702 0.0018137577 0.009373194
-0.008859271 -0.006108786 0.0075706765 0.005374541 0.010102367 -0.00036537685 -0.0065027494 0.0020629154
0.003796731 -0.0018422445 -0.004161384 -0.0032346272 -0.0029638563 0.0051551145 -0.0074604745 -0.002629927
0.010505156 -0.000806081 0.0040586237 -0.004280777 -0.0060040434 -0.0008148571 0.010037331 0.015682384
-0.0045019207 0.011080383 0.008789998 0.005104693 0.0019159022 -0.004925381 0.0077680624 0.008331335
-0.0067384667 -0.0039462126 0.0055778353 0.0029932256 -0.0016312421 -0.0044891573 0.00017616815 0.015994385
-0.0005440067 -0.0044776862 -0.0020220303 -0.011805433 0.00071518356 0.0076411976 0.0011776981 -0.0063923034
0.008738982 0.0031422076 0.000943795 0.013780527 0.00075807795 -0.010611871 0.008058074 0.009472191
-0.0058377367 -0.004595197 8.894085e-05 -0.0064558736 0.0045438455 0.005466087 0.013361197 0.009328835
-0.0025260453 0.014790208 0.0014010253 -0.0077803363 -0.0056013297 5.8607984e-06 0.008986081 0.011094027
-0.0064532016 -0.0054202164 0.0074697933 0.008688456 0.008125853 -0.0015996529 -0.00041849483 -0.0027809644
0.00075077964 -0.010597777 -0.00764617 -0.0034673484 0.01000582 0.000569371 -0.003649968 -0.0051435414
-0.0023005127 0.00030285105 0.0046148044 -0.0017663935 -0.0025403923 0.0022284272 -0.00094272196 -0.006211682
-0.00344348 0.006325755 0.0005044203 0.0010740145 0.010072288 0.0049997517 0.01034654 -0.0045217103
-0.003015 0.012695622 -0.005452243 0.00833788 0.0023138644 -0.0034915216 0.012763011 -0.005190148
0.002985478 0.0032901212 0.0033897872 0.009185465 0.0042107166 0.005895246 0.002035892 0.0051718634
-0.0037549061 -0.007983564 0.004200723 0.0042471364 0.008516948 0.0039721495 0.017183399 0.0011049734
0.013758847 0.0058212774 0.00094588264 -0.0051880064 -0.008870172 0.0065106247 0.007130998 0.0009048386
-0.0064657596 0.0050241356 0.0077952896 0.0050865305 -0.008026444 -0.0006997048 -0.012934874 -0.0030419496
0.0012038338 0.00916283 0.00060553406 -0.00035915774 0.021465104 0.00027398343 0.007757874 0.00075121986
0.00017171657 -0.0036429917 0.00056163466 0.0035740081 -0.0107545685 -0.0047576763 0.0025309345 -0.0047659175
0.0090338 0.007625935 -0.004583943 0.0033739088 -0.002247839 0.00096658274 0.006989177 0.0020735292
-0.004502044 -0.0017513505 0.0058898996 -0.003064873 -0.0008074314 0.0068951524 -0.0024514156 0.007302072
0.0017095587 -0.012717168 0.001982032 0.012888334 0.012438252 0.016025553 0.0042778687 -0.0068582706
-0.00393909 -0.0014969585 0.0056903376 0.008168439 0.0010745841 -0.008922343 0.008377326 0.0062215636

action_model._discrete_distribution.branches.0.weight f4 [4, 64]
00000000: 7382 943d 6e38 623d 3888 3ebd c76b a03b
00000010: fcc7 2abd ccc9 d1bc 6277 523d 5928 6c3d
00000020: 1a91 753d 7dd3 2bbd 574f 3bbd 8c0e 903d
00000030: 1df9 84bd c8cd 6fbd a431 67bd 8c41 eb3c
00000040: 2db2 1dbd ebdb 8a3d d2cf 88bd 839e a8bd
00000050: 893c a9bd b04c 1abd dd99 6e3d 1923 403d
00000060: b8f4 80bd d14e 94bc 57a1 2c3d af34 583d
00000070: 2d3d 893d cbf2 1fbd f88c 883d e20d 43bd
00000080: f584 843d 9a6a 7dbd aabb 8bbd 14b0 32bd
00000090: 1326 c1bc 8339 ad3d 1b00 8ebd 47f7 8a3d
000000a0: 844b a73d d2e1 4ebd 7cc8 ab3d 0b2b 633d
000000b0: 5b67 823d 4091 723d 5e50 823d 2cea 5bbd
000000c0: 72c1 733d 8c54 773d 1927 a23c a439 8b3d
000000d0: cafb a83c b5e8 6a3d 00f0 503d 891d 713d
000000e0: 1272 713d 36f5 3e3d 5833 e13c 2ed6 5b3d
000000f0: 01b9 9c3d 8ae8 53bd 089e 673d a6c1 77bd
00000100: 6b56 55bc 1ca8 073d 2c89 8f3d e5ca e33d
00000110: e225 17bd 09fd a3bd 6ab2 24bd 3040 7aba
00000120: e00c 493d e3d1 f6bc 97e6 aebc 8a34 323d
00000130: 353d 9dbd 5dff 63bc f69d 4ebd 1b93 963d
00000140: d96b 8cbd 3ce4 903d abd8 10bd b54f 4dbd
00000150: f286 2abd 2f57 f5bc 03d0 a63d fa8b e6bb
00000160: e329 abbc fdf8 fc3c d3d8 673d 0b1a 103d
00000170: 7963 813d 8208 3dbd f5cc 593b 7182 a6bd
00000180: 3d70 85bd 5ba3 57bd df9b 0cbd c981 41bd
00000190: f80f c7bd af63 403d d8f0 26bc 109c 16bd
000001a0: 444d c83c 5721 5ebd d4a9 a7bd 4db3 933d
000001b0: e240 5f3d 573b 163d 098c b1bc a4d3 42bd
000001c0: a287 1e3d 6d79 303d a8bf 3d3d ac23 8c3d
000001d0: 2a3a c6bd 1884 123d 9080 cf3c 05d4 ff3c
000001e0: 5898 f53c e65c 6a3d ffd0 793d f099 843d
000001f0: 9006 623d 9ce4 90bd 774c 983d 63ba f6bc
00000200: 319d 3c3d f5da 693d ce75 cfbd 9e5d babd
00000210: 3718 97bd e754 c83d 4f62 ae3d 7950 553d
00000220: 0813 4a3c a54a 3ebd a60f 6ebd cd38 ae3c
00000230: 12d0 a33d dc4b 8dbd 7897 b5ba 466c b2bc
00000240: d6af 403d 9941 a53c 8489 36bd 569c b43c
00000250: 4eb3 bcbb 1808 f8bc f1c7 433b 4ab4 843d
00000260: 5196 73bd 6b25 96bd 5d72 21bd 308a 1b3d
00000270: 8d51 c1bc 8f3e 06bd f877 733d 0a9c 2f3c
00000280: 9491 b73d 54b2 20bd 03b3 8dbd 202b 41bc
00000290: 66c1 9e3d 2e89 383d 1409 94bd a128 7d3d
000002a0: 2d56 163d ee45 8dbc 6641 8d3d cf6b 61bd
000002b0: a220 493d f61d 5f3d de2f 983d d581 1fbd
000002c0: 5ef5 073d 9bb7 483d 66a5 343d ef4a 12bc
000002d0: 61d1 b53d beae 2e3d 682d 8a3c ff08 273d
000002e0: 838b 803d beba 03bd d72b 183c 31f4 fd3c
000002f0: d55f 94bd d60b 2ebc 5d27 92bc 5826 4bbd
00000300: b0eb e9bd e66c ebbd 55b7 b53d 6a12 b03c
00000310: 6490 003e 7674 593c 678c b9bd 19e7 efbd
00000320: b1ae 07be 7f65 e53d 4fc7 eb3d c896 c1bd
00000330: 72de 8a3d 80d9 d23d df01 dc3d 69be e4bd
00000340: 95c5 e23d 85aa edbd e0f4 e23d 8dd6 db3d
00000350: 020e e03d b43e e93d f759 e6bd 14a0 c9bd
00000360: 5f7c f73d ca73 e63d aa55 95bd 3d3a d3bd
00000370: 2930 cdbd ac16 f23d b8ed e2bd 0fe5 ea3d
00000380: a4da afbd db15 c53d ffac c13d 4968 f43d
00000390: c439 933d d769 f9bd 9038 db3d a124 c2bd
000003a0: a322 bdbd b158 e03d 510b d9bd b8c4 bbbd
000003b0: 24a0 c8bd 0a38 f0bd 5d10 ebbd b25f e33d
000003c0: cc02 c7bd 8aa8 c9bd 7f57 f1bd 971d e6bd
000003d0: de8c cc3c 10bb f4bd 1628 f5bd 0b47 cfbd
000003e0: d982 d5bd 027a bbbd d9a0 e3bd 1e5e c9bd
000003f0: 5f66 a9bd c8ef d13d c8c9 ecbd a031 f23d
0.07251444 0.055229597 -0.046516627 0.0048956606 -0.041694626 -0.02560892 0.051383384 0.057655666
0.059952833 -0.041949738 -0.04572996 0.070340246 -0.06492827 -0.058545858 -0.056443825 0.028717779
-0.0385 0.06780227 -0.066802636 -0.08233359 -0.08263499 -0.03767079 0.058252204 0.04690847
-0.062966764 -0.018103989 0.042146053 0.052784618 0.067011215 -0.039049905 0.06667513 -0.04762066
0.06470672 -0.06186924 -0.068229035 -0.043624952 -0.023577726 0.08458235 -0.06933614 0.06785446
0.081687 -0.050508328 0.08387849 0.05546097 0.0636737 0.059220552 0.06362985 -0.05369012
0.059510656 0.060383365 0.019794034 0.067981035 0.020627875 0.057350833 0.05101013 0.058866058
0.058946677 0.04662057 0.027490303 0.053671055 0.07652474 -0.05173544 0.056547195 -0.060487412
-0.013021092 0.033119306 0.07008585 0.111226834 -0.036901362 -0.08007247 -0.04020921 -0.0009546308
0.049084544 -0.030129379 -0.021350188 0.043507136 -0.0767769 -0.013915864 -0.050443612 0.07352277
-0.06856508 0.07074782 -0.03536288 -0.050124843 -0.0416326 -0.029948799 0.08145144 -0.0070357295
-0.020893997 0.030880446 0.056603264 0.035181087 0.06317801 -0.04615069 0.0033233736 -0.081303485
-0.065155484 -0.052646022 -0.034328338 -0.047242913 -0.09719843 0.046970066 -0.010189258 -0.036769927
0.024450906 -0.054231014 -0.08186689 0.07211933 0.054505236 0.036677685 -0.02167322 -0.047565117
0.03870357 0.04308455 0.046325356 0.06842741 -0.09679063 0.035770506 0.025329858 0.031229028
0.02997987 0.0572175 0.06099033 0.06474674 0.05518204 -0.07074854 0.074364595 -0.030118173
0.046048347 0.05709358 -0.10129891 -0.09099887 -0.073776655 0.09781819 0.085148446 0.052078698
0.012333639 -0.046457905 -0.058120392 0.02126732 0.07998671 -0.06899235 -0.0013854345 -0.021780144
0.04704269 0.020172881 -0.04456474 0.022047203 -0.0057586795 -0.030277297 0.0029873813 0.064797
-0.059469525 -0.07331356 -0.039415706 0.037973583 -0.023598457 -0.032774504 0.059440583 0.010718355
0.08963314 -0.039232567 -0.069189094 -0.011790067 0.077517316 0.0450527 -0.07228294 0.061806325
0.036703277 -0.01724526 0.068972394 -0.055034455 0.049103387 0.054471932 0.07431005 -0.038942177
0.033192985 0.049003225 0.04410305 -0.008928998 0.088778265 0.042647116 0.016867355 0.040780064
0.0627661 -0.032160513 0.009287796 0.031000229 -0.07244841 -0.010622939 -0.017841036 -0.049597114
-0.11421907 -0.1149538 0.088728584 0.021493156 0.1255508 0.013272395 -0.09059983 -0.11714
-0.13250233 0.112009995 0.115126245 -0.09452587 0.06780709 0.10295391 0.107425444 -0.1116913
0.11072842 -0.1160479 0.110818624 0.10734282 0.10940172 0.11388913 -0.11247628 -0.098449856
0.12084269 0.11252554 -0.0729173 -0.103138424 -0.100189514 0.118207306 -0.110804975 0.11469471
-0.08586624 0.09623309 0.094568245 0.11933953 0.07188752 -0.121783905 0.10704148 -0.09479643
-0.09235122 0.109544165 -0.105978616 -0.091683805 -0.097961694 -0.117294386 -0.114777304 0.11102237
-0.0971733 -0.098465994 -0.11784267 -0.112361126 0.024969514 -0.11949742 -0.119705364 -0.10120972
-0.10425348 -0.091541305 -0.11114664 -0.098324046 -0.08271479 0.10250813 -0.11561924 0.118258715

action_model._discrete_distribution.branches.0.bias f4 [4]
00000000: 358e 3b3d 736c 073d acf0 113d 75dc b9bd
0.045789916 0.03306241 0.035629913 -0.09075252
