results/FullyAbstract/bachelor/bachelor-997662.onnx (onnx, 76519 bytes, 9 tensors)

network_body._body_endoder.seq_layers.0.weight f4 [64, 7]
000000 89 21 4a be bc ad a9 be df f5 45 be fb 6e 0a 3c
       -0.19739355 -0.3314036 -0.19332074 0.008449311
000010 32 26 28 3f 16 77 39 3e 27 d7 e3 3d 24 e2 0a be
       0.6568328 0.18111834 0.111250214 -0.13562828
000020 2c f8 db bd ec e3 18 3f 8c f5 4c bf e1 51 b3 3e
       -0.107406944 0.5972278 -0.80062175 0.35023406
000030 51 03 92 3d 41 84 a5 3e 8c b0 b8 be 8a c5 af 3e
       0.07129539 0.32327464 -0.36072195 0.34330398
000040 1a 13 73 3e 90 ea e9 bc ee b3 23 be a1 f7 8c be
       0.23737755 -0.02855423 -0.15986606 -0.27532676
000050 0b 55 da be 41 f5 9a be eb be 12 bb b5 d4 f2 be
       -0.42643008 -0.3026524 -0.0022391628 -0.47427908
000060 2e 07 ec be af 91 14 bf 1c ca 43 3e 37 fd f2 be
       -0.46099228 -0.58034796 0.19120067 -0.47458813
000070 e6 a6 8d be 6b e7 fc be bf 05 7e bd 6e aa 3f 3e
       -0.27666396 -0.49395308 -0.0620172 0.18717358
000080 db 2c 31 bd b3 aa e4 bc d1 54 a7 3d 10 69 16 bf
       -0.043255668 -0.027913427 0.08170474 -0.5875406
000090 39 e9 39 bf 41 98 14 bf 25 36 02 3f 61 0e 4d 3e
       -0.72621495 -0.5804482 0.5086387 0.20025016
0000a0 f8 e8 ac be 82 3c f3 3c b4 4e 69 bf 20 e6 1b 3f
       -0.3377149 0.029691938 -0.91135716 0.6089802
0000b0 3e 77 a0 3e 47 64 98 3c e5 99 1d be ba 86 0f 3f
       0.31340975 0.018602503 -0.15390737 0.5606495
0000c0 b4 23 3e 3c 87 d4 1b 3d 33 73 13 3f 75 59 f1 be
       0.011605192 0.03804448 0.57597655 -0.47138563
0000d0 76 e2 0d 3f b8 65 c4 bd 4d 68 d4 3c 43 eb 18 3e
       0.55423677 -0.09589714 0.02592864 0.14933495
0000e0 04 2c 22 bf 2a f3 c0 bb 42 3d cb be 3a 34 ff bd
       -0.6334841 -0.0058883624 -0.39695174 -0.12461133
0000f0 06 3a 10 be de db fb bd a9 f5 00 3f 35 d5 52 be
       -0.14084634 -0.12297796 0.5037485 -0.20589145
000100 34 72 d1 bd 74 b7 6c 3f 2b 61 55 be 63 8c 85 bc
       -0.10226861 0.9246743 -0.20837848 -0.016302293
000110 27 dc e5 be f9 1b 94 3e 70 04 78 bf 71 5f 87 bf
       -0.44894525 0.2892759 -0.9688177 -1.0576001
000120 d5 0e 6a be 6c e4 ba 3e bf 5f e1 be d2 7c 82 be
       -0.2285722 0.36502397 -0.4401836 -0.25485855
000130 c6 6e 83 3d 4b 53 f9 3c 33 8a 04 be ef df fe 3e
       0.06417613 0.030435225 -0.12943344 0.49780223
000140 10 90 b6 be ac 2a db be 48 1b 18 3f 63 e6 d4 bd
       -0.35656786 -0.42805994 0.5941663 -0.10395505
000150 21 0f 81 be 2c 20 cb be 7d 80 b6 3e b4 2c 0b 3f
       -0.25206855 -0.39672983 0.35644904 0.54365087
000160 9c 15 5b 3e 15 93 3d bf 05 eb d3 3c 78 8f ee bc
       0.21394962 -0.74052554 0.025868902 -0.029121146
000170 3f a7 d8 3d 88 fb 41 3e a4 7e f7 3e 54 fb 56 bf
       0.10578775 0.18943608 0.48338807 -0.83977246
000180 96 5f 32 3e f7 09 22 3f 86 76 3d 3e a0 5a 14 3e
       0.17419276 0.63296455 0.18502244 0.14487696
000190 a1 58 8f 3e 5c 1f 18 bf 40 ee b0 3d 8d 89 a4 3e
       0.27997306 -0.5942285 0.086391926 0.32136193
0001a0 a6 26 cd 3e ed 08 95 be 3c 55 38 bd f2 0b cc be
       0.4006855 -0.29108372 -0.04500316 -0.39852864
0001b0 5d 2d 8d be 84 18 90 be 05 ac 6b 3e 2d fe 82 bc
       -0.27573672 -0.28143704 0.23014839 -0.015990341
0001c0 1a d5 5f 3e 9f f4 af 3e 17 2c 15 bd b8 9c 4d bf
       0.21858636 0.3436632 -0.036419 -0.8031726
0001d0 f2 e2 ec 3e c3 78 2b bd 55 b7 dd 3e 94 cf 0c bf
       0.46266896 -0.041863214 0.43303934 -0.5500424
0001e0 ef 3f 41 be f2 47 e4 be 41 7c d0 3e c0 cd 89 be
       -0.18872045 -0.4458614 0.40719798 -0.26914787
0001f0 db 62 4a 3f 7c 53 00 3e 33 69 90 be 4b 4f 53 3d
       0.7905709 0.12531847 -0.2820526 0.05158929
000200 02 92 3c be a1 e2 c5 3e 46 87 78 3f 17 b5 ce 3c
       -0.18415073 0.38649467 0.9708141 0.025232835
000210 c5 79 80 3e a9 0f 80 bc 87 78 31 3e 75 5f 47 3e
       0.25092903 -0.015632467 0.17331134 0.19470008
000220 2e 4f 19 3e 49 a3 78 be cb 95 38 be 6a 13 98 3e
       0.14971611 -0.24281038 -0.18025891 0.29702312
000230 be f6 83 bf a1 4a 50 3e f9 9a a4 be f8 94 df bd
       -1.0309675 0.20340969 -0.32149485 -0.109170854
000240 a6 2e 94 be fd 45 23 3f 61 cf 66 3e a2 4d 0d 3e
       -0.2894184 0.6377867 0.22540046 0.13799146
000250 4e c4 c8 be 3f d5 1b bf 4f bf d5 3e 13 04 4a 3e
       -0.3921227 -0.6087226 0.4174752 0.19728117
000260 c4 16 b0 3e 91 19 8a 3e 71 0e f4 bd 69 e2 9f 3d
       0.3439237 0.2697263 -0.11916817 0.07806856
000270 c2 c1 a6 3e ab 18 54 be 0c b6 c9 be f4 a3 23 3e
       0.325697 -0.20712535 -0.39396703 0.15980512
000280 3d a8 15 3f c7 2c 08 bf 0e 35 6e 3e 9d 99 26 3e
       0.58459836 -0.53193325 0.23262426 0.16269536
000290 69 e2 71 be 30 e3 fe be 2c c1 b7 bd a9 0f 03 3b
       -0.23621525 -0.49782705 -0.089723915 0.0019998348
0002a0 e8 85 68 bf e5 b9 ac be c5 d2 de 3e b5 83 0a 3f
       -0.90829325 -0.33735576 0.4352018 0.5410722
0002b0 39 d1 df 3e a5 50 30 be 35 0a 4f bf 22 b5 e2 be
       0.43714312 -0.17218263 -0.8087495 -0.44278818
0002c0 46 1f 37 bb 43 07 b9 3e 96 e6 0e bf f5 e0 70 be
       -0.0027942224 0.36138353 -0.55820596 -0.23523314
0002d0 cc 35 fc be 25 66 bf bc ae e4 d7 3d 7e 60 26 bf
       -0.49259794 -0.023364136 0.10541664 -0.64990985
0002e0 7b 67 3c 3e 05 5f 54 3f 04 72 28 3f 08 c6 5c be
       0.1839885 0.8295749 0.65798974 -0.21559918
0002f0 23 fc 41 3e bd 9f fa be a6 2e fa 3e 25 86 a6 3d
       0.18943839 -0.48949996 0.48863715 0.08131055
000300 40 4d 6d 3d c8 4b 97 3e dc 31 70 be b7 24 1a 3e
       0.057935 0.29550004 -0.2345652 0.15053068
000310 58 77 27 3f 39 b5 68 3e 2e 15 ea be 66 ef de 3d
       0.6541648 0.22725381 -0.45719284 0.108855054
000320 ff c4 a8 be 75 ca 9e 3e 69 1c ba 3d ec 85 10 bf
       -0.32962796 0.31013837 0.0908745 -0.5645435
000330 38 e8 2c 3f 7c 80 1f be 4b 5e 25 3f 15 3c 9e be
       0.6754184 -0.15576357 0.64597005 -0.30905214
000340 2a 37 eb 3d b4 7e fe bd 36 49 c8 3e 14 47 80 be
       0.11485131 -0.124265105 0.39118356 -0.25054228
000350 79 af d5 be 1d e7 91 be 47 89 c6 3e c2 cf 33 bf
       -0.41735438 -0.28496638 0.3877661 -0.7023889
000360 63 0c db 3e 35 48 0e 3f 08 44 92 3c 6a 21 99 3f
       0.42782888 0.5557893 0.017854705 1.1963322
000370 3d 13 ce 3e ea 8a 43 be fd c0 5f 3e ba ec e8 3e
       0.40249053 -0.1909596 0.21850963 0.45493108
000380 55 4a 62 3f 68 9f 6e be 1e 64 5f 3f a2 90 d3 3d
       0.8839467 -0.23302996 0.8726214 0.10330321
000390 7b bb 21 bd 27 28 f6 be 14 56 13 bf ec a0 0e 3e
       -0.039485436 -0.4807751 -0.5755322 0.13928574
0003a0 0f 20 e7 be 85 df f4 be e5 7f f2 bd f7 bf e4 be
       -0.45141646 -0.47826782 -0.118408 -0.44677708
0003b0 bb 71 ab be fd 8b cf 3d 04 7e ce 3d 57 30 67 3a
       -0.33485207 0.101341225 0.10082629 0.0008819154
0003c0 97 5f 39 be 13 71 37 be 63 1f 8b bd d8 04 c9 3e
       -0.18102871 -0.17914228 -0.06793096 0.39261508
0003d0 58 cc 5d bc 37 ac 03 3f 07 84 42 3e 4d 4b 9e 3e
       -0.013537489 0.51434654 0.18995677 0.30916825
0003e0 6a cc 07 bf 01 eb 52 3f 72 bc 55 3e 1a 70 52 be
       -0.53046286 0.8238984 0.20872667 -0.20550576
0003f0 ad 72 81 bd d0 ba 1e 3e 3a 8d 3d bf 95 d9 94 3e
       -0.06320701 0.15500951 -0.7404362 0.29072252

network_body._body_endoder.seq_layers.0.bias f4 [64]
000000 90 2d 1e bd 18 b8 c8 bc 95 dd 42 bc a0 cb e6 3c
       -0.03861767 -0.024501845 -0.01189365 0.028173268
000010 a7 35 a3 bc 0e ac 0e bd 50 83 b9 3c 07 97 92 ba
       -0.019923044 -0.034832053 0.022645622 -0.0011183926
000020 ec 3a c7 3c c1 00 ba 3c 93 31 34 3b ed ce 2a 3c
       0.024320088 0.022705438 0.002749537 0.0104253115
000030 94 99 ea bc 0b c4 e0 3c ad 92 fc bc bf cc 6a 3d
       -0.028637685 0.02743723 -0.03083166 0.057324167
000040 f9 1a 50 bc bf 68 b1 bc 2c 9b b1 bc 03 12 ba bc
       -0.012701743 -0.021656392 -0.021680437 -0.022713667
000050 14 e2 2b 3d c6 37 c9 3c e6 42 d6 3b 55 d9 8d 3c
       0.04196365 0.024562728 0.0065387366 0.017315546
000060 e0 f9 13 bc 13 89 f8 3b 07 b3 ab bc f6 8d 17 3d
       -0.009031743 0.0075847 -0.02095939 0.03700062
000070 68 11 ee 3c 41 67 65 bc da 07 11 3c fa d2 81 bd
       0.029061034 -0.014001668 0.00885197 -0.06339069
000080 be 4b 95 bc 56 45 17 bd 89 e8 24 bc 10 95 bb 3c
       -0.018224593 -0.03693136 -0.010065206 0.022898227
000090 00 93 81 bb e7 18 15 3c ff 3a ab bc 56 28 12 3d
       -0.0039542913 0.009100175 -0.020902155 0.035683
0000a0 29 e2 ae bb 6b f6 fe bc 5d 91 fe 3c 94 58 81 3c
       -0.005337019 -0.03112336 0.031075174 0.015789308
0000b0 41 3d 00 bd ec 87 d8 3b b6 23 ad 3b c2 b5 36 3d
       -0.031308416 0.006608 0.005283798 0.04460693
0000c0 e9 f4 6f bc 5a cf 94 3a 32 36 f4 3b b6 a1 ca 3b
       -0.0146457935 0.00113533 0.0074527496 0.006183828
0000d0 42 7d 55 3c 19 ee d3 3c ff 85 80 3c e2 b1 6c 3d
       0.013030352 0.02587037 0.015688894 0.05778683
0000e0 c8 9b 09 3d dd bf dc bc 61 87 49 3c 6c 2a ac 3c
       0.03359583 -0.026946956 0.012300343 0.021016322
0000f0 bf 4a 78 bc ab 20 60 3d b1 35 2b 3d 06 9e 53 bc
       -0.01515454 0.054718655 0.04179925 -0.012916094

network_body._body_endoder.seq_layers.2.weight f4 [64, 64]
000000 b0 9a 2c 3e d9 1d 7d 3d 68 07 65 3e c6 5d 18 3e
       0.16855884 0.061796043 0.22366107 0.14879522
000010 37 0c 00 3e ba d0 4d bd 76 a7 86 bd 16 2d ce bc
       0.1250466 -0.050247885 -0.065749094 -0.025167983
000020 d0 99 12 bd fe 91 01 be 7a aa 97 3d 9c f3 0e be
       -0.03579122 -0.12653348 0.07405563 -0.13960117
000030 80 59 00 3e 42 41 ae 3d 76 09 d9 3d a5 9e 98 3d
       0.12534142 0.08508541 0.10597508 0.07452134
000040 86 95 23 3d 31 68 57 be bf 92 af ba 80 3b 45 3d
       0.03993752 -0.2103584 -0.0013395174 0.048152447
000050 c7 44 0c 3e 37 94 08 3d e6 79 47 be dd 27 07 bd
       0.13698111 0.033344474 -0.19480094 -0.032997
000060 a6 12 b9 bc 80 7c 27 3e 24 ee 8d 3d 61 cc 89 3c
       -0.0225919 0.16356087 0.06930187 0.016821088
000070 1c c3 69 3e f0 82 7f bc 82 19 2f be 74 63 86 3d
       0.22828335 -0.015595183 -0.17099574 0.06561938
000080 d0 de 26 be ad 98 b8 3c e1 90 15 be d1 cd 10 3e
       -0.16295934 0.022533739 -0.14606048 0.14141013
000090 44 1d 88 3d 4a 7a 33 be db 4b f6 bc a2 bc c3 3c
       0.06646207 -0.17527118 -0.030065468 0.023893658
0000a0 b9 a1 09 3e 76 bd 1c be bf f8 d9 bd 60 54 a7 3e
       0.13440599 -0.15306649 -0.10643148 0.3268156
0000b0 aa ff ff 3d 75 8a 06 3d 53 1a 8d bd a8 e9 f6 bd
       0.12499936 0.032846887 -0.068897866 -0.12056285
0000c0 03 09 32 3e 4d bb 5b bb 1b 87 81 3c ec 52 34 3e
       0.1738625 -0.0033528388 0.015811494 0.17609757
0000d0 2a 3d 0f 3e a5 0d 3e 3e 34 fc 48 be 44 64 36 be
       0.13988176 0.18559892 -0.19627458 -0.17811686
0000e0 27 a6 92 bd cd 50 4e 3e 1c e1 cf 3d 6e 90 3f be
       -0.07160597 0.2014801 0.10150358 -0.1870744
0000f0 e4 50 86 be 3c 2b 92 3c a6 fa cc 3d 04 2f 80 3e
       -0.2623359 0.017842881 0.10008745 0.2503587
000100 bc 79 35 bc 4c 05 bd 3d b5 d0 24 3e 63 d4 01 be
       -0.011076387 0.09229526 0.1609524 -0.12678675
000110 da 11 90 bc 5f b5 93 bc 8c 80 37 bd c7 e6 80 3e
       -0.017586637 -0.01803082 -0.044800326 0.2517607
000120 db 24 0b 3d 7a 81 cf 3d 93 b4 e8 bc 34 82 fa bd
       0.033970695 0.101321176 -0.028406417 -0.122318655
000130 e2 75 c5 bd fc db a0 bd 9d 36 b3 3d 2d 1b 87 bd
       -0.09641625 -0.07854459 0.08750651 -0.0659698
000140 d4 f9 6f 3d 68 37 38 be 48 64 a9 3d b9 0d 40 bc
       0.058587864 -0.17989886 0.0827108 -0.011722022
000150 fc c2 72 3e ac ce 19 3d fa f5 98 3d 79 fd 7b 3d
       0.23707193 0.037550613 0.07468791 0.061521027
000160 9d 72 35 3d 1b 0c 69 3d c4 c8 f8 3d 14 1f 2d 3e
       0.044298757 0.05689631 0.12147668 0.16906387
000170 ea a8 5c 3e ce c6 b0 bb 37 ee 74 be d8 c4 92 3d
       0.2154881 -0.005394793 -0.23918997 0.07166451
000180 ad d5 53 3e 93 26 18 bc 1c fa 99 3c 93 b3 f0 bd
       0.2068698 -0.009286541 0.01879602 -0.11753001
000190 b0 32 38 be 41 b8 05 bd 60 bb 47 3e 38 05 7e 3d
       -0.17988086 -0.03264642 0.19505072 0.062016696
0001a0 25 ce 87 3c a9 9d c3 3d dd 7a 06 bd bf b4 0a 3e
       0.01657779 0.09551556 -0.032832015 0.13545512
0001b0 fb 80 c7 3d 0e b7 26 be f6 f7 b6 3d d3 5c 94 3d
       0.09741398 -0.16280767 0.089340135 0.07244267
0001c0 c2 92 d7 bd bd 5e d5 bc ea a0 2b 3d aa db be bc
       -0.10526039 -0.026046151 0.041901506 -0.023298103
0001d0 75 bb 61 bd 12 34 34 be 6b 42 93 3d a1 fd 9b 3d
       -0.055110414 -0.17597988 0.071904026 0.07616735
0001e0 f4 06 8a bd e4 58 a9 bc 62 7e d6 3d e0 fe 85 3d
       -0.067396075 -0.02067227 0.10473324 0.06542754
0001f0 3b 9f 96 3d 95 3d d4 bd 7e a4 0a 3e 93 4b 00 3d
       0.073545896 -0.10363308 0.13539311 0.031322073
000200 e7 41 ad 3c b4 7e 50 3e 2e 1d e9 bc 78 63 ab 3c
       0.021149589 0.20360833 -0.028456297 0.020921454
000210 4f 72 c3 bd 7f 32 13 be 4b 4b 21 3e 0d 32 38 3e
       -0.09543287 -0.14374731 0.15751378 0.17987843
000220 49 e7 9d 3d 58 8d 71 3c a5 f2 20 bd 12 15 1b be
       0.0771013 0.014743172 -0.039293904 -0.15144756
000230 14 5f 9a bc d2 f7 4d be f1 27 20 3d 45 f2 10 be
       -0.018844165 -0.20114067 0.03910059 -0.14154918
000240 df dc 8b 3d 16 04 14 be 80 1f 12 be 3c 30 e0 bc
       0.06829237 -0.14454684 -0.14269829 -0.02736675
000250 34 1a 44 bd 04 4a f7 bc 0d e5 06 bd eb 37 e6 ba
       -0.04787655 -0.03018666 -0.032933284 -0.0017564272
000260 06 57 08 3c 54 1d 0c be 27 bc 32 bd e1 59 7f bb
       0.008321529 -0.13683063 -0.043636467 -0.0038963484
000270 c8 7e aa 3b 99 60 53 3c 56 cd 10 3e 87 39 b0 bd
       0.005203102 0.012901449 0.1414083 -0.086047225
000280 3c 21 2e 3c ec 5d 2c 3e c9 86 8d 3e d8 8e 59 be
       0.010628041 0.16832703 0.27641895 -0.21245897
000290 7b 5a 06 be 49 85 90 bd c4 67 9d bd 2b 73 84 bd
       -0.13120453 -0.07056672 -0.07685807 -0.06467279
0002a0 0e b8 85 3e 90 de 7c 3e 34 85 a4 bc 34 07 ec bd
       0.26116985 0.24694276 -0.020083047 -0.115248114
0002b0 3e 1f 46 bc 31 f6 b0 bd dc 24 18 be 0d 30 01 be
       -0.01209241 -0.08640707 -0.1485781 -0.12615986
0002c0 32 99 ad bd f8 de c6 bd 92 14 36 3d de 14 ac bb
       -0.08476485 -0.09710497 0.04445321 -0.005251511
0002d0 e0 b8 92 3d 50 dc 97 bb 39 4b a7 bd a3 59 f9 3d
       0.07164168 -0.0046344176 -0.081686445 0.121753
0002e0 b6 b6 d1 bd f9 19 38 bd 9a 72 2d bc 08 08 a7 3d
       -0.102399275 -0.044946644 -0.010586405 0.08155829
0002f0 6e 2e ff 3d 57 bb 59 bd 7a 34 1a be 57 0d 8f bd
       0.12460028 -0.053157177 -0.1505908 -0.06984966
000300 75 d7 11 bd 95 51 d2 3d 82 9a e1 3b 01 a3 df 3d
       -0.035605866 0.10269467 0.006884874 0.109197624
000310 15 03 61 3a 39 58 96 bd 15 be 88 be c3 34 83 be
       0.0008583528 -0.07341046 -0.2670752 -0.25626191
000320 b3 d8 8a 3e 48 9d 97 bd 53 af 5b 3e fb a1 5e 3d
       0.27118453 -0.07403046 0.214536 0.054353695
000330 e5 7a 33 be 7b aa 14 bd 15 10 99 ba 25 8d bc bd
       -0.1752735 -0.036295395 -0.0011677766 -0.09206609
000340 1b 26 c5 3b b7 25 80 3c d3 1b 85 bd 24 7d 1e be
       0.0060165054 0.015642984 -0.06499448 -0.15477425
000350 4c 0b 3a be e2 01 b3 3d 4c 29 5f bc 2b 36 6a be
       -0.18168372 0.087405935 -0.013620686 -0.22872226
000360 12 4a 02 be 48 c0 29 bd ae 21 1f 3c 94 ad c7 bc
       -0.12723568 -0.04144314 0.00971262 -0.02437476
000370 33 65 48 bd 50 cf a5 bd 67 1b 2b 3e 41 4d 7b bd
       -0.048924636 -0.08096182 0.16709672 -0.061352972
000380 c0 86 ed bc ae 50 fe bd 6d 0e 11 3d a3 e9 7a bc
       -0.028994918 -0.12417732 0.035414148 -0.015314492
000390 a2 87 ae 3c 10 71 49 3d 33 16 b0 ba 29 1b 7c be
       0.02130491 0.04918009 -0.001343435 -0.24619736
0003a0 67 48 9d 3e 6b 20 4a bd df 68 a3 3d 2d c8 f4 3d
       0.307193 -0.049347322 0.07978987 0.11952243
0003b0 98 0e 68 3d 89 15 47 3e 0b 09 6f 3d 6f 92 16 be
       0.056654543 0.19441809 0.058358233 -0.14704297
0003c0 16 d7 0b be 9e e6 c2 3c 46 ea 88 ba c9 be 21 3c
       -0.13656268 0.023791607 -0.0010445795 0.009872147
0003d0 1e 58 72 bd c5 2c 88 3e e8 17 2f be 35 22 b5 3d
       -0.059166066 0.26596656 -0.17098963 0.08844415
0003e0 36 4a 7d 3d 7e 87 55 3b fe de f4 3c dc 16 04 3d
       0.06183835 0.003258198 0.029891487 0.032248363
0003f0 0b de af 3d a3 ac c1 3d 94 95 09 be a9 7d 7a 3c
       0.08587273 0.09456756 -0.13435966 0.015288749

network_body._body_endoder.seq_layers.2.bias f4 [64]
000000 57 5b 40 3c dd 6e 15 bd f7 84 3d bc 8b e5 01 3b
       0.011740527 -0.03648268 -0.011567346 0.0019820656
000010 5b 6b 0b 3d 27 cf 26 bd 2e f1 2f bc 59 ef b1 3c
       0.03403793 -0.0407249 -0.010738654 0.021720575
000020 2f 1a 32 3c db 7e fa 3b 65 a7 10 bd cd fa a3 3c
       0.0108705005 0.007644517 -0.03531589 0.020017052
000030 9c 3b 2d 3d e9 7a 80 bc a5 fe 27 3d e0 31 f8 bc
       0.042293176 -0.015683608 0.041014332 -0.03029722
000040 bb 37 26 3c 2f 30 f5 3c 03 a6 a8 bc e4 c6 c8 3b
       0.010145123 0.029930202 -0.020586973 0.0061272252
000050 f1 bd c1 bc d9 17 8e 3b 82 41 25 3c b0 11 7d ba
       -0.023650141 0.004336339 0.010086419 -0.000965382
000060 80 28 6c 3c 6d a1 16 3c 92 43 0c 3d ae d7 cc 3c
       0.014413953 0.00919376 0.034244128 0.025005188
000070 0b ab 46 bc f1 d1 1a 3d 47 a8 8b 3d 5a 8f c3 bb
       -0.012125741 0.037797872 0.06819206 -0.0059680166
000080 47 c9 13 3d 15 7e db 3c 9c dd 35 3d 35 d8 fe bc
       0.036080625 0.026793519 0.044400796 -0.031108955
000090 ae eb 99 bc 78 61 8b 3b 22 ec 9c 3b 0f 27 97 3a
       -0.018789139 0.0042535625 0.0047888914 0.0011532026
0000a0 50 68 9f 3c 30 69 0a 3c 3c e6 f5 3c 20 21 2a 3d
       0.01945892 0.00844793 0.03001701 0.041535497
0000b0 c0 6b 32 bd d5 ab 27 3d 5d 0e 71 3b 89 46 f5 bc
       -0.04355979 0.040935356 0.0036782243 -0.02994086
0000c0 4e 2a 73 3d 64 34 49 3d 60 b3 0e 3d 95 5f f1 bc
       0.059366517 0.04912223 0.034839034 -0.029464522
0000d0 d5 dc 0f bb fd 01 ce 3c ed a8 f2 bc f9 98 a7 bc
       -0.0021951695 0.025147432 -0.029621566 -0.020458685
0000e0 49 69 2a bc a7 cb 2d 3c d8 9a bd bc 89 8f 35 3d
       -0.0104010785 0.0106076365 -0.023145124 0.04432634
0000f0 50 3d 06 3d 1b 38 a3 3c 19 24 4b bc 6e 40 2e bd
       0.032773316 0.019924214 -0.012398743 -0.042541914

action_model._discrete_distribution.branches.0.weight f4 [4, 32]
000000 7e ee 12 3e 6f 7d 23 be c9 96 84 3e 2c 09 24 be
       0.1434879 -0.15965818 0.2589629 -0.16019124
000010 b2 a4 1c be 2c 83 b3 3c c1 64 28 be 2a 60 53 be
       -0.15297201 0.021913134 -0.16444685 -0.20642152
000020 88 41 17 be 88 e2 a6 bd 64 04 12 3e a4 32 42 be
       -0.14771092 -0.08148676 0.14259487 -0.1896463
000030 2a 0a 2c be f3 a3 57 be a3 20 c4 bd 4f 04 7d be
       -0.16800752 -0.21058635 -0.095765375 -0.24708675
000040 0c 59 34 3e de 24 08 be 4a 10 29 be bc 09 8e be
       0.17612094 -0.13295314 -0.1651012 -0.27741802
000050 87 91 22 3e 2d c7 0c 3e 58 05 1e be 9c 83 4b 3e
       0.15875827 0.13747855 -0.15431726 0.19874424
000060 d9 ea 28 be 78 77 2a 3e 1a 57 ec bd 5d 49 39 3e
       -0.16495837 0.16647136 -0.11540051 0.18094392
000070 32 2f 2a bc 6f 68 3e 3e db 5b 4b be 2e d6 b3 3d
       -0.010387229 0.18594526 -0.19859259 0.08781086
000080 53 c5 65 bd 88 30 c3 3d 80 80 0c be b7 2c ea 3d
       -0.056096386 0.09530741 -0.13720894 0.1143431
000090 48 67 90 3d 80 63 8b be 5f d3 ff 3c da 6b 44 3d
       0.07050949 -0.2722435 0.03122872 0.047954418
0000a0 25 fa 39 3d 71 48 15 3e e6 df 6a bd f9 f6 53 3d
       0.045404572 0.14578415 -0.057342432 0.051749203
0000b0 be 04 b8 3d 6f 1c 18 3e 59 3a 9e 3d fc 8a 80 bc
       0.089852795 0.14854597 0.07725973 -0.015691273
0000c0 3f 37 8a bd d4 c1 3a 3e f7 0d 12 3e 10 a5 f0 3d
       -0.067488186 0.18238002 0.1426314 0.11750233
0000d0 29 ce c6 bd 7c 5b 05 bd a7 58 0e 3d f5 13 af bd
       -0.09707291 -0.03255795 0.034752514 -0.085487284
0000e0 da ef f4 3d c7 06 99 bd 0a 6d 01 3d 66 59 c2 bd
       0.119598106 -0.07471996 0.03159813 -0.09489708
0000f0 c8 c2 55 3e b8 cf ad bd 98 1a c5 3d 44 66 4c be
       0.20875084 -0.08486885 0.09624213 -0.19960886
000100 ca ee a0 bd d5 35 9c 3d b0 87 57 bd 32 aa d6 3d
       -0.078580454 0.07627455 -0.052619636 0.10481681
000110 5f 30 34 3d e0 a2 32 3e 44 51 b4 3d aa 94 b5 3d
       0.043991443 0.17444944 0.08804563 0.08866246
000120 7f 42 8d 3d a9 ce 36 3c ad a3 1d bd e1 64 9d 3d
       0.06897449 0.01115767 -0.03848617 0.07685257
000130 4e 8d d7 3c 2c c6 68 3d 8f f3 13 bb 93 ae 86 3e
       0.026312497 0.056829616 -0.0022575592 0.26305065
000140 42 85 5f bd 04 5d 1e 3d f7 80 af 3d 27 a0 82 3c
       -0.054570444 0.038662925 0.0856952 0.015945507
000150 d3 a5 8b bd 30 bb a3 bd d7 e3 88 3d 9d e4 5d bd
       -0.06818738 -0.079946876 0.06684082 -0.0541731
000160 2d 68 c9 3d ac fa 84 bd 2d 23 c1 3c b5 b0 62 bd
       0.09834323 -0.06493124 0.023576343 -0.055344302
000170 5a c9 29 be 28 2b 80 bd c6 11 c6 3c 9d 5d 56 3e
       -0.16580716 -0.062582314 0.024178397 0.20934148
000180 d4 cd 3d be d3 c7 2c 3e 60 ca a4 be da 17 f8 3d
       -0.18535548 0.16873102 -0.3218565 0.12113924
000190 49 f1 08 3e 56 3e 04 3e d4 88 62 3e 5c d0 61 3e
       0.13373293 0.12914404 0.22122508 0.22052139
0001a0 c2 3c 45 3e ab 22 81 bc c5 d1 f4 bd a8 9d 61 3e
       0.19261459 -0.015763601 -0.11954073 0.22032797
0001b0 9b b6 35 3e 6e 38 61 3e ce 9f 0e 3e 1d 50 70 3e
       0.1774544 0.21994182 0.13928148 0.23468061
0001c0 f8 09 5c be 10 e2 07 3e d9 b0 60 3e c2 75 bc 3e
       -0.21488178 0.1326983 0.21942462 0.36808592
0001d0 58 b2 f9 bd d7 64 29 be 2a 86 3f 3e 28 44 59 be
       -0.121922195 -0.16542374 0.18703523 -0.21217406
0001e0 32 61 33 3e d3 cc 54 be d0 db f6 3d ec 39 3d be
       0.17517546 -0.20781259 0.12053645 -0.18479127
0001f0 64 92 e0 3c af 4e 67 be 5b c2 08 3e 93 65 96 bd
       0.027413554 -0.22588609 0.1335539 -0.073435925

action_model._discrete_distribution.branches.0.bias f4 [4]
000000 11 32 fa 3d 5c 93 6c bd 14 48 61 bd e2 ee 0d be
       0.12216581 -0.05775772 -0.05500038 -0.13860658

onnx::LSTM_98 f4 [1, 128, 64]
000000 58 1b 28 3c 01 42 59 be e8 8e ba bd f0 ba 45 3e
       0.0102604255 -0.21216585 -0.091092885 0.19309592
000010 b5 f4 ac 3d 60 ad b6 3d f6 59 36 be 6e 4d 07 be
       0.08445112 0.089197874 -0.17807755 -0.13213131
000020 67 e3 26 3e 31 e5 e1 bd 69 03 76 3e f2 10 eb 3d
       0.16297685 -0.11030043 0.24024738 0.114778414
000030 c1 42 3c 3e e9 b1 84 3d 23 b8 0e 3c 80 31 00 3e
       0.1838484 0.06479246 0.008710894 0.12518883
000040 84 17 a1 bd 7e 8c 00 3e 1c 2d 0d be a4 71 a9 3d
       -0.078658134 0.12553594 -0.13786739 0.08273628
000050 81 e6 48 be 26 ad 8c 3e 64 8e 1c be 75 55 3c 3e
       -0.1961918 0.27475852 -0.15288693 0.18391974
000060 2d 90 2b 3e f9 98 d5 3d 03 24 49 3e 6d 05 2e 3e
       0.16754217 0.10429568 0.19642644 0.16994257
000070 7a 33 9b 3d 42 66 61 3e 4e dd f9 3b 0d a1 4b bd
       0.07578178 0.22011665 0.0076252585 -0.049714137
000080 b1 fa 68 3c e4 00 c7 3d 2b 94 c5 3c 4d 82 51 bd
       0.014219926 0.09716967 0.024118504 -0.051149655
000090 bb a4 12 3e ff e8 a4 3d 68 5c 89 bd 39 66 6e bd
       0.14320652 0.08052253 -0.06707078 -0.058202956
0000a0 da 2a 61 bc 79 c5 44 3e 28 d9 1d 3e e0 be 0e be
       -0.013743127 0.19215955 0.1541487 -0.1394
0000b0 ae ec 06 3e c5 de 2e 3e d5 4f 1d be 75 51 93 bd
       0.13176224 0.17077167 -0.15362485 -0.07193271
0000c0 97 2b 8f 3e e2 ba 8c 3e c9 b2 bd 3d 31 bc a3 3c
       0.27962944 0.2748633 0.09262616 0.019987198
0000d0 6d e6 86 3e ff 9c b7 bc ee fb 1b 3e ff dc 47 3e
       0.26347676 -0.022413729 0.15232822 0.19517897
0000e0 85 5a 4d 3e 6f 06 01 3e a8 4e 48 3d 2e 0b 86 3d
       0.20054062 0.1260011 0.048903137 0.06545101
0000f0 1b 92 d4 3d cb 2c 43 be 60 54 42 be 53 df 61 be
       0.1037943 -0.19060056 -0.18977499 -0.22057848
000100 e9 54 e7 bd 3b 89 94 bd da bd 42 be 5a b8 8b 3d
       -0.11295492 -0.07252737 -0.19017735 0.06822272
000110 27 74 5a be 91 3b 13 be 79 3e f2 3b 54 28 8a 3e
       -0.21333371 -0.14378192 0.007392701 0.26983893
000120 d8 3a 38 be e4 4f 51 be 58 5e a0 3d 3a 43 84 3e
       -0.17991197 -0.20440632 0.07830495 0.2583254
000130 85 af 1b 3c c2 a2 2f 3e 25 12 3f 3e 2a b1 53 3e
       0.009502296 0.17151931 0.18659265 0.20673051
000140 57 4a a6 3d 49 77 b7 3d 07 af 27 be 6b f4 15 3e
       0.08119648 0.08958299 -0.16375361 0.1464402
000150 0c 6f ab 3d 97 83 61 be 9b 4e 3e be 9b 26 49 bd
       0.0837079 -0.22022854 -0.18584673 -0.049109083
000160 d6 96 81 3e 11 43 09 3e 03 88 55 bd a0 db b0 bd
       0.2531039 0.1340449 -0.052131664 -0.0863564
000170 72 63 f0 3d bd 8a 5f 3e bc 6c 96 3c da 40 3f be
       0.11737718 0.21830268 0.018362395 -0.18677083
000180 2f 03 0a be f5 ce 82 3d 0c 91 82 3d f1 13 1b 3e
       -0.13477777 0.0638713 0.06375322 0.15144326
000190 0a 90 e9 bd 28 fb 66 3d 83 40 18 be 7e 65 b5 3d
       -0.114044264 0.056391865 -0.1486836 0.08857249
0001a0 29 d9 b6 3d 10 54 32 3e bf 92 0b 3e 0e d6 ee 3d
       0.08928139 0.1741488 0.13630198 0.116619214
0001b0 ee e2 30 be 96 4d 16 3e c5 fc b2 3d ac 49 4a 3e
       -0.17274067 0.14678034 0.08739618 0.19754666
0001c0 6e 5c 41 be 54 a2 f8 3d 39 18 37 bd ac ed 2b 3e
       -0.18882915 0.12140337 -0.044700835 0.16789883
0001d0 1a e6 07 3e 18 1d 19 be db a5 07 3e f8 75 25 3c
       0.1327137 -0.14952505 0.13246863 0.010098927
0001e0 6d e6 6e 3e 6a bb 19 be 0f 26 19 3d c5 d7 1f 3d
       0.23330088 -0.15012899 0.03738981 0.039024133
0001f0 e6 4c 62 3d 52 bd 01 be 72 c2 cf 3c 06 3b 1f 3e
       0.055249117 -0.12669876 0.025361273 0.1554986
000200 7e 66 84 be 84 ca e5 bb 4c 80 a5 bd d6 a6 73 bd
       -0.25859445 -0.007012667 -0.08081111 -0.05948528
000210 3e 60 46 bd 6a 7b df 3d 3f c5 23 3e 80 00 25 3e
       -0.048431627 0.10912211 0.15993212 0.16113472
000220 c9 2f 80 3d 45 fe 81 bc 9e e2 6d 3e 18 92 eb bd
       0.06259114 -0.015868315 0.23230979 -0.115024745
000230 ed 74 2e 3e be f4 6f bb 8c c6 0e 3e 4a de 9d bc
       0.17036791 -0.0036614384 0.13942927 -0.019271035
000240 c2 8e e6 bd fb 78 ed 3b 84 90 01 be 0e 92 27 be
       -0.11257698 0.007247088 -0.12652785 -0.16364309
000250 2a 1a ef 3d 2c 35 33 3d 47 94 87 3c 7c 87 28 be
       0.11674912 0.04375188 0.016550196 -0.16457933
000260 94 72 80 be 52 a8 f3 3d a5 5f 94 bd 78 15 21 bd
       -0.25087416 0.11897339 -0.07244805 -0.039327115
000270 d5 9e 4c be 80 26 20 bd 44 87 3b 3e f3 27 9a bd
       -0.19982465 -0.039099216 0.18313318 -0.07527151
000280 83 68 26 be 05 cf 4b 3d 8c 94 b7 3c 0d e2 d9 bc
       -0.16250806 0.049757976 0.0224097 -0.026597047
000290 f0 d8 0f be 13 a8 07 bd 72 a2 41 3e 96 27 81 bd
       -0.14047599 -0.033119272 0.18909624 -0.063063785
0002a0 8d 57 72 3e 1e a7 2a bb 05 f5 87 bc c9 5c 02 bd
       0.2366621 -0.002603955 -0.016596327 -0.031826768
0002b0 c0 43 22 3e 67 eb b2 bc 8e b9 d9 3d 6b 8f 63 bd
       0.15846157 -0.021840764 0.10631095 -0.055556696
0002c0 ab 6a fd 3d 7d 22 06 3c 9c 0b 9d 3c 07 7b 76 be
       0.12373861 0.008186934 0.019170575 -0.24070369
0002d0 63 c9 9d be a4 3d 30 3d 85 60 14 3d 43 ca da bc
       -0.30817708 0.043027535 0.03622486 -0.026707774
0002e0 29 58 83 be 74 96 20 3e 9a a0 b7 3d d0 9c 47 be
       -0.25653198 0.15682393 0.08966179 -0.19493413
0002f0 44 05 75 bc e7 74 ed bc ec 9f f3 bd a2 f1 07 bd
       -0.014954869 -0.028986407 -0.11895737 -0.033189423
000300 46 ad 31 3e d6 e0 f1 3d 34 43 0a bc 5a 5c 83 bd
       0.17351255 0.11810462 -0.008438874 -0.06414099
000310 24 b7 06 3e 0b fb 52 3e 9f 5d 27 3e 87 25 83 bd
       0.131558 0.20603578 0.16344307 -0.06403642
000320 9b b9 4e 3d 9d 67 f8 bd 48 ce 5b 3e e7 c1 30 3e
       0.050469976 -0.12129138 0.21465409 0.17261468
000330 c7 31 41 3d 22 6d 2f 3e 6c e0 cc 3d a2 89 fe 3d
       0.047166612 0.17131475 0.100037426 0.12428595
000340 a5 ff a3 3d 53 c1 8b 3e 9b f8 6b be 95 b5 36 be
       0.08007745 0.27295932 -0.23044054 -0.17842706
000350 f1 da bb bd 5c 18 9a 3d a4 11 75 3e 98 00 fd 3c
       -0.09172619 0.075241774 0.2393251 0.030884072
000360 7c 87 cc 3d c3 3b 9c 3d 1d a0 23 be e4 30 0a be
       0.09986779 0.07628586 -0.15979047 -0.13495213
000370 f8 c6 2c 3e ed 62 8b 3e f7 09 4a 3e 36 19 32 be
       0.16872776 0.27223912 0.19730364 -0.1739243
000380 e1 db ee 3d d6 67 7b be 52 0d 34 bc ee 90 14 be
       0.11663032 -0.24551329 -0.010989504 -0.14508411
000390 df 12 87 3d 74 42 5d 3e 33 37 eb b9 a6 2b 52 3e
       0.06595396 0.21607381 -0.0004486382 0.20524463
0003a0 ab 6b 1f 3e 13 54 23 3e 06 80 5c be fe 0e 20 bd
       0.15568416 0.1595004 -0.21533212 -0.039076798
0003b0 f7 b8 b9 38 c8 bb 01 3b 18 7a 4b bd 99 62 81 3e
       8.85594e-05 0.0019795764 -0.049676985 0.25270537
0003c0 33 eb 03 be bb 26 3a bd 2f ee 9e bd bd 2d 4c 3d
       -0.1288269 -0.045447093 -0.07760274 0.049848307
0003d0 46 c6 36 be 91 c8 82 3e 6a b0 43 be 17 74 57 be
       -0.17849073 0.25543645 -0.19110265 -0.21040379
0003e0 5e 75 d5 bd 3b 5c 2c bb c6 78 55 3e 1e 8d e6 bd
       -0.10422777 -0.002630009 0.20846853 -0.11257385
0003f0 7f 10 c0 3c 3a 6d 25 3e 32 11 64 bd 88 76 34 be
       0.023445366 0.16154948 -0.05568046 -0.17623341

onnx::LSTM_99 f4 [1, 128, 32]
000000 93 6f 95 3e 55 bf 2d be 03 20 c6 bd 7a 70 c8 bd
       0.29186687 -0.16967519 -0.096740745 -0.09787078
000010 b7 d8 4b 3d c1 0e 24 3d 70 d9 23 be 1e 65 5c 3e
       0.049767222 0.040053133 -0.16000915 0.21522948
000020 cc 44 ac 3c 4b 24 e0 bd d6 b8 5f be 61 45 83 be
       0.021028899 -0.10944422 -0.21847853 -0.2563887
000030 b4 0c 97 3d b5 0e 29 3d c3 cb 7e be 1b f2 01 be
       0.0737547 0.04127379 -0.24882416 -0.12690012
000040 86 4c 90 3e 34 d3 8c bb e3 66 ec bd ac 0a fa 3d
       0.28183383 -0.0042976383 -0.115430616 0.12209067
000050 62 71 a9 bd 6e fb 22 3d 06 b4 99 be 05 77 8b be
       -0.08273579 0.039790563 -0.3002016 -0.27239242
000060 f3 ce 75 be 49 55 77 3e a1 81 1f be 08 2f 89 3e
       -0.24004726 0.24153627 -0.15576793 0.26793694
000070 db 4f 99 3e c0 15 19 be 61 69 8e 3d b7 19 37 3e
       0.29943737 -0.14949703 0.06953693 0.17880903
000080 c2 3d 87 be 3c a5 4d 3e 96 19 4e 3e 6f 6f 6b 3d
       -0.26414305 0.20082563 0.20126948 0.05747932
000090 96 70 2e be d2 9f f2 bd a7 67 09 bc 34 e6 e0 bd
       -0.17035136 -0.118468896 -0.008386529 -0.10981408
0000a0 f6 45 c0 3d c2 72 59 be fe cf 72 be bb 08 08 be
       0.09388344 -0.21235183 -0.23712155 -0.1328458
0000b0 25 be 85 be 98 fe 8a be 9b f3 74 be 2d 27 dd bd
       -0.2612163 -0.27147365 -0.23921053 -0.10798488
0000c0 28 5f 93 bd 78 61 e8 bb 92 c9 81 3e 49 b4 94 bd
       -0.07195884 -0.0070916973 0.25349098 -0.07260949
0000d0 c7 f0 be bd 9e 7a 53 be 62 55 6f bd 97 79 9e bd
       -0.093232684 -0.20652243 -0.058431037 -0.07738035
0000e0 ab d3 c4 bd 01 2d 4f be a9 9a 0a 3e 7a 29 e4 bd
       -0.09610685 -0.20232011 0.1353556 -0.111407235
0000f0 25 e3 16 3e c7 b3 eb bc 87 60 34 3d f8 d3 52 be
       0.14735086 -0.028772248 0.04403737 -0.20588672
000100 05 fe 9a 3e 28 bd f9 bd 89 df ab bd 16 42 a0 be
       0.30271927 -0.12194282 -0.08392245 -0.3130042
000110 33 48 03 3e 1c ba 02 3b f4 c2 bf 3c 61 b9 50 bd
       0.1282051 0.0019947356 0.02340839 -0.05095804
000120 bc a0 ab be 2b 87 83 be ff 38 19 3e 53 3c 60 bd
       -0.33521068 -0.25689062 0.14963149 -0.05474503
000130 57 36 55 be 67 74 c3 3d d1 47 84 be 53 f9 50 3d
       -0.2082151 0.09543686 -0.25836042 0.051019024
000140 2d 24 46 3e e0 1a 89 3e 8e 23 6e be 12 fe bd bc
       0.19349737 0.26778316 -0.2325575 -0.02319244
000150 04 1e 62 3d 4c 75 92 3c 04 e7 1d 3d d8 48 b0 3e
       0.055204406 0.017878197 0.03855039 0.34430575
000160 fe 6f 93 be 3b 60 87 be f6 ec 9d 3d bc 66 34 be
       -0.2879638 -0.26440606 0.07711212 -0.17617315
000170 c6 ba 29 3b 09 1a 47 3d fc 83 b7 bc f8 7e 87 be
       0.002589868 0.048608813 -0.022401802 -0.26464057
000180 23 e2 ad 3d d3 61 6b 3d 94 1d 19 3e 2d c1 64 3e
       0.08490398 0.05746634 0.1495269 0.22339316
000190 85 f4 5a 3c ba 22 97 3e 72 20 4a be 88 68 59 bd
       0.013363962 0.29518682 -0.1973894 -0.053078204
0001a0 3b 10 72 3d 16 28 5c 3e 1b 5d 11 be 2f c6 63 be
       0.05909751 0.21499667 -0.14195673 -0.2224357
0001b0 73 07 67 3e 8b 83 5a be 0d 4b 8c be 73 13 4a 3e
       0.22561435 -0.21339242 -0.2740101 0.19733982
0001c0 5c 2d 1b 3e 94 3d 08 be 74 c2 87 3e a9 25 9c bd
       0.15154022 -0.1330474 0.26515543 -0.076243706
0001d0 57 ef d8 3d aa 29 78 3e 5f cd 88 be 79 2e c4 bd
       0.105925255 0.24234644 -0.26719186 -0.095791765
0001e0 77 26 fa bd b9 e0 79 be 62 10 89 3d f2 63 7b 3d
       -0.12214368 -0.24402131 0.06692578 0.061374612
0001f0 0b d9 f5 3c 4c 2d 4d 3d 8c f6 24 3e 4f d5 ef bd
       0.03001072 0.050092027 0.16109675 -0.11710607
000200 45 01 ba bd 10 c9 76 3e af c0 3f 3c d0 cf 7a be
       -0.090822734 0.24100137 0.011703654 -0.24493337
000210 b8 dd 24 be d4 50 8e be b0 ee 29 3e e9 0a 96 3e
       -0.16100204 -0.27796042 0.16594958 0.293052
000220 9e be 66 bd 7d e7 e6 3d cb c7 6b be 46 89 54 3d
       -0.05633413 0.11274622 -0.23025434 0.051888727
000230 9a 37 51 3e 65 f9 37 3e ad f2 27 be 89 79 61 be
       0.20431367 0.1796623 -0.16401167 -0.22019018
000240 68 37 95 be 47 2d 16 3d ae 0d 03 be 51 37 35 be
       -0.29143834 0.036664274 -0.12798187 -0.17696883
000250 05 17 c6 bc 86 36 8d 3e 53 33 db bd 6c bb 66 be
       -0.024180898 0.2758066 -0.10703149 -0.22532433
000260 5d 0f 48 3e af 9a cd bb 6c 45 94 3c e8 cd 91 3e
       0.1953711 -0.0062745432 0.01809951 0.28477407
000270 e0 a6 30 be d0 f3 e1 3d e1 b9 b9 bb 1f 1d dc 3c
       -0.17251158 0.11032832 -0.0056679104 0.026869355
000280 e0 e6 9c bd e8 14 34 bd 8f a1 95 3e b5 2b 48 be
       -0.076612234 -0.04396525 0.29224822 -0.19547923
000290 de c6 21 be 44 db 15 3d 03 a4 12 be a6 75 ac 3d
       -0.15798518 0.03658606 -0.14320378 0.08420877
0002a0 7b e9 85 3d 20 7f 54 be a4 d1 e8 bd e3 24 92 be
       0.065386735 -0.2075162 -0.11368111 -0.28543767
0002b0 76 84 c3 be 6e 20 65 3e 54 95 ce bd 27 96 03 3d
       -0.38186997 0.22375652 -0.10087076 0.03212562
0002c0 4d a3 27 3e 15 de 52 3e ce 9c 7a be 4a 0e 08 be
       0.16370888 0.2059253 -0.24473879 -0.13286701
0002d0 75 90 a3 bb 1c 7b 22 3e 9e 1f 2d bd bf bb b4 3e
       -0.004991586 0.15867275 -0.04226648 0.3529949
0002e0 a5 48 16 be 04 50 25 be 09 05 11 3e d7 d0 ae 3e
       -0.14676149 -0.16143805 0.14162077 0.34143707
0002f0 fb 22 16 bd 32 32 80 3e 02 b6 a5 bd 6f 5f 3b 3e
       -0.036654454 0.25038296 -0.08091356 0.18298124
000300 4a b1 d2 3d 83 19 f4 3d 55 56 90 be 5c 4f 1e bd
       0.102877215 0.119189285 -0.28190866 -0.0386499
000310 aa 3d 0f be 0d 9d 17 bc 15 13 fc bd f2 f7 4f 3e
       -0.13988367 -0.009253752 -0.12308327 0.20309427
000320 07 a2 90 3e ca df 30 3c 19 55 75 be bf d2 11 bd
       0.28248617 0.010795543 -0.23958243 -0.035601374
000330 48 74 99 be 1c 73 9a 3d ea 9c 89 3d ca 83 87 3e
       -0.29971528 0.075414866 0.06719382 0.26467735
000340 b2 d3 79 3e 30 05 ed 3c 2d 54 97 bd 59 f6 b1 be
       0.24397162 0.028933138 -0.07389102 -0.3475826
000350 2d 6d 12 be a4 26 2c be 90 16 54 be d9 b3 d9 bc
       -0.1429946 -0.16811615 -0.20711732 -0.026575016
000360 20 53 2c 3e 23 77 87 3e 55 21 2e bd da 5e 02 3d
       0.16828585 0.26458082 -0.042512257 0.03182874
000370 ba 55 2c 3e 2c ef eb 3d 09 dc c2 3d a9 21 86 3e
       0.16829577 0.11520228 0.095146246 0.26197556
000380 c8 aa 4a 3e 0d fd 48 3e 37 63 91 3e 99 db 42 3e
       0.1979171 0.19627781 0.28396007 0.19029082
000390 78 ca 26 be 3c 89 49 3e ca 1a 83 3e c7 af 83 be
       -0.16288173 0.19681257 0.25606376 -0.25720045
0003a0 14 cd 1c 3e 49 66 88 be 82 ed ba 3d 89 1e b0 3d
       0.15312606 -0.26640537 0.09127332 0.08599574
0003b0 69 0d 6f 3e f7 81 f5 bc 34 4c 98 be fa 96 90 bd
       0.2334496 -0.029969199 -0.29745638 -0.070600465
0003c0 77 e2 2e be d0 c8 b4 3d c3 96 cc 3d 00 ea 83 3e
       -0.17078577 0.088273644 0.09989693 0.25764465
0003d0 b3 53 84 3e 42 29 d3 3d a6 f1 45 3e 25 07 69 3e
       0.25845107 0.10310604 0.19330463 0.22756632
0003e0 7c c0 84 3d a9 f7 b4 3d be 95 89 bd c4 a5 96 3e
       0.06482026 0.088363 -0.06718014 0.29423344
0003f0 e1 d9 33 be 09 0e d0 3d a1 53 48 be 18 64 09 bd
       -0.17563583 0.10158927 -0.19563152 -0.033542722

onnx::LSTM_100 f4 [1, 256]
000000 9a b6 27 3d b0 b0 dd 3c 77 56 fb bc 62 70 14 3d
       0.040945627 0.02706179 -0.030680878 0.03623999
000010 5b 05 c9 3c 61 be b4 3d 27 e9 d3 3a d6 62 08 3c
       0.024538686 0.088253744 0.0016167507 0.008324346
000020 75 07 10 bc fa 60 73 3c 2f d8 52 3d 53 4d 24 3d
       -0.00879084 0.014854664 0.0514757 0.040112805
000030 4f 7e 8f 3b bb 73 0c 3d 7a ac 05 3c d8 d3 3c bd
       0.004379071 0.034290057 0.008158797 -0.046100467
000040 75 74 5e bc 0e 7f 42 3c 09 de 3c 3d a3 23 ab 3b
       -0.01357757 0.0118711125 0.046110187 0.005222754
000050 27 7e 2c 3d 7c c2 b2 3c d1 5c ea 3c a7 ae d2 3c
       0.042112496 0.021821253 0.028608711 0.025718046
000060 f6 d1 24 3d a0 a4 bd 3c 64 ea 31 3d 7d 7e 7f 3d
       0.040239297 0.023149788 0.043436423 0.062376488
000070 66 9c 62 3d a7 0c 35 3d fb 02 b5 3c ec f9 7d 3c
       0.055324934 0.04420152 0.022096148 0.015501481
000080 67 3b 5c bb 10 f4 e1 3c dd ec 0e 3c 32 ea c5 3c
       -0.0033604742 0.027582198 0.008723465 0.024159525
000090 c6 43 c1 3b d3 c5 a8 3d 49 63 b9 bb 76 ea 04 3c
       0.005897972 0.08240857 -0.0056575877 0.0081125405
0000a0 41 04 bd bc c7 97 b4 3d 36 87 f3 3c 6c 44 39 3d
       -0.023073317 0.08818012 0.02972756 0.045231268
0000b0 45 10 07 bc fa e3 97 3d d9 5e 92 3d 58 72 d1 3c
       -0.008243625 0.0741653 0.07146997 0.025567219
0000c0 7a e0 aa 3d af c4 de 3c cd 93 5a 3c e0 8a 6d bc
       0.08343597 0.027193395 0.0133409025 -0.014498442
0000d0 9c 97 02 3d a9 f2 2c 3d d0 c7 46 3a 5a 49 ce 3c
       0.031882867 0.042223606 0.0007582875 0.025181461
0000e0 dc ff 3c 3d f9 48 b7 ba 4a 5f 09 3d e9 02 99 3c
       0.046142444 -0.001398354 0.03353814 0.018678145
0000f0 6c 26 53 3d a7 27 4f 3d ba df a6 bc 1f 11 04 3d
       0.051550314 0.050574925 -0.020370353 0.03224289
000100 0d 1e 83 3f 67 09 84 3f 5d f9 82 3f b5 08 82 3f
       1.0243546 1.0315369 1.023235 1.0158907
000110 68 7c 6b 3f 7a 56 83 3f e9 fc 82 3f 6b 21 7b 3f
       0.91986704 1.0260766 1.0233432 0.98097867
000120 91 a0 84 3f 86 84 83 3f 40 ee 83 3f 59 20 84 3f
       1.0361501 1.0274818 1.0307083 1.0322372
000130 03 1a 84 3f c4 e7 86 3f 7d df 85 3f 60 f0 81 3f
       1.0320438 1.0539479 1.0458828 1.0151482
000140 6e c4 82 3f d4 73 8a 3f 3f 1e 80 3f 02 13 84 3f
       1.0216196 1.0816598 1.000923 1.0318301
000150 07 b9 81 3f 6c 31 83 3f 47 43 85 3f 18 2e 87 3f
       1.0134591 1.0249457 1.0411156 1.0560942
000160 db cf 80 3f 7c bc 80 3f c7 8c 85 3f 2d b3 77 3f
       1.0063432 1.0057521 1.0433587 0.96757776
000170 63 2c 84 3f 95 69 86 3f bd 40 82 3f c3 f8 81 3f
       1.0326046 1.0500971 1.0176007 1.0154041
000180 ca bf 25 3c b3 1c 84 bc 1e b2 04 3d 63 83 5d bb
       0.010116527 -0.016126966 0.03239643 -0.0033800236
000190 82 e7 50 bb 06 24 59 bc 00 8f 21 bd 22 77 30 bd
       -0.003187627 -0.013253218 -0.039443016 -0.043082364
0001a0 35 14 68 bc 32 5a 1a 3c 86 ef 27 b7 33 ba 4b bc
       -0.014164974 0.009420918 -1.0009744e-05 -0.01243453
0001b0 3b 42 c1 bc c6 96 82 bc 8f c0 ca 3d c3 7d c7 bc
       -0.023591151 -0.015941035 0.09900009 -0.02435196
0001c0 5b 3f be 3c 9a 18 52 bb fb e6 88 bc bd fc 83 3c
       0.02322357 -0.003205812 -0.016711703 0.016111726
0001d0 aa bd eb bb c0 db 01 3d 9a b6 ae bc 91 54 e2 3c
       -0.0071942406 0.03170371 -0.021327306 0.027628215
0001e0 a2 10 4f bc 1c 71 6a 3d e9 34 41 3d 61 29 75 3c
       -0.012638243 0.057236776 0.0471696 0.014963479
0001f0 42 67 09 bc 35 74 b6 3c d8 49 f8 bc db 14 02 bd
       -0.008386435 0.022272209 -0.030308649 -0.03175817
000200 9a b6 27 3d b0 b0 dd 3c 77 56 fb bc 62 70 14 3d
       0.040945627 0.02706179 -0.030680878 0.03623999
000210 5b 05 c9 3c 61 be b4 3d 27 e9 d3 3a d6 62 08 3c
       0.024538686 0.088253744 0.0016167507 0.008324346
000220 75 07 10 bc fa 60 73 3c 2f d8 52 3d 53 4d 24 3d
       -0.00879084 0.014854664 0.0514757 0.040112805
000230 4f 7e 8f 3b bb 73 0c 3d 7a ac 05 3c d8 d3 3c bd
       0.004379071 0.034290057 0.008158797 -0.046100467
000240 75 74 5e bc 0e 7f 42 3c 09 de 3c 3d a3 23 ab 3b
       -0.01357757 0.0118711125 0.046110187 0.005222754
000250 27 7e 2c 3d 7c c2 b2 3c d1 5c ea 3c a7 ae d2 3c
       0.042112496 0.021821253 0.028608711 0.025718046
000260 f6 d1 24 3d a0 a4 bd 3c 64 ea 31 3d 7d 7e 7f 3d
       0.040239297 0.023149788 0.043436423 0.062376488
000270 66 9c 62 3d a7 0c 35 3d fb 02 b5 3c ec f9 7d 3c
       0.055324934 0.04420152 0.022096148 0.015501481
000280 67 3b 5c bb 10 f4 e1 3c dd ec 0e 3c 32 ea c5 3c
       -0.0033604742 0.027582198 0.008723465 0.024159525
000290 c6 43 c1 3b d3 c5 a8 3d 49 63 b9 bb 76 ea 04 3c
       0.005897972 0.08240857 -0.0056575877 0.0081125405
0002a0 41 04 bd bc c7 97 b4 3d 36 87 f3 3c 6c 44 39 3d
       -0.023073317 0.08818012 0.02972756 0.045231268
0002b0 45 10 07 bc fa e3 97 3d d9 5e 92 3d 58 72 d1 3c
       -0.008243625 0.0741653 0.07146997 0.025567219
0002c0 7a e0 aa 3d af c4 de 3c cd 93 5a 3c e0 8a 6d bc
       0.08343597 0.027193395 0.0133409025 -0.014498442
0002d0 9c 97 02 3d a9 f2 2c 3d d0 c7 46 3a 5a 49 ce 3c
       0.031882867 0.042223606 0.0007582875 0.025181461
0002e0 dc ff 3c 3d f9 48 b7 ba 4a 5f 09 3d e9 02 99 3c
       0.046142444 -0.001398354 0.03353814 0.018678145
0002f0 6c 26 53 3d a7 27 4f 3d ba df a6 bc 1f 11 04 3d
       0.051550314 0.050574925 -0.020370353 0.03224289
000300 0d 1e 83 3f 67 09 84 3f 5d f9 82 3f b5 08 82 3f
       1.0243546 1.0315369 1.023235 1.0158907
000310 68 7c 6b 3f 7a 56 83 3f e9 fc 82 3f 6b 21 7b 3f
       0.91986704 1.0260766 1.0233432 0.98097867
000320 91 a0 84 3f 86 84 83 3f 40 ee 83 3f 59 20 84 3f
       1.0361501 1.0274818 1.0307083 1.0322372
000330 03 1a 84 3f c4 e7 86 3f 7d df 85 3f 60 f0 81 3f
       1.0320438 1.0539479 1.0458828 1.0151482
000340 6e c4 82 3f d4 73 8a 3f 3f 1e 80 3f 02 13 84 3f
       1.0216196 1.0816598 1.000923 1.0318301
000350 07 b9 81 3f 6c 31 83 3f 47 43 85 3f 18 2e 87 3f
       1.0134591 1.0249457 1.0411156 1.0560942
000360 db cf 80 3f 7c bc 80 3f c7 8c 85 3f 2d b3 77 3f
       1.0063432 1.0057521 1.0433587 0.96757776
000370 63 2c 84 3f 95 69 86 3f bd 40 82 3f c3 f8 81 3f
       1.0326046 1.0500971 1.0176007 1.0154041
000380 ca bf 25 3c b3 1c 84 bc 1e b2 04 3d 63 83 5d bb
       0.010116527 -0.016126966 0.03239643 -0.0033800236
000390 82 e7 50 bb 06 24 59 bc 00 8f 21 bd 22 77 30 bd
       -0.003187627 -0.013253218 -0.039443016 -0.043082364
0003a0 35 14 68 bc 32 5a 1a 3c 86 ef 27 b7 33 ba 4b bc
       -0.014164974 0.009420918 -1.0009744e-05 -0.01243453
0003b0 3b 42 c1 bc c6 96 82 bc 8f c0 ca 3d c3 7d c7 bc
       -0.023591151 -0.015941035 0.09900009 -0.02435196
0003c0 5b 3f be 3c 9a 18 52 bb fb e6 88 bc bd fc 83 3c
       0.02322357 -0.003205812 -0.016711703 0.016111726
0003d0 aa bd eb bb c0 db 01 3d 9a b6 ae bc 91 54 e2 3c
       -0.0071942406 0.03170371 -0.021327306 0.027628215
0003e0 a2 10 4f bc 1c 71 6a 3d e9 34 41 3d 61 29 75 3c
       -0.012638243 0.057236776 0.0471696 0.014963479
0003f0 42 67 09 bc 35 74 b6 3c d8 49 f8 bc db 14 02 bd
       -0.008386435 0.022272209 -0.030308649 -0.03175817
