results/FullyAbstract/bachelor/bachelor-29499880.onnx (onnx, 76519 bytes, 9 tensors)

network_body._body_endoder.seq_layers.0.weight f4 [64, 7]
00000000: 19f2 183f 530c 59be bcc2 0ebf c57a c4bc
00000010: 10b4 433e 3119 dfbc 1608 a13e 9581 3abf
00000020: dcf1 1f3f f06b d9bd 9a98 c2be d175 b0bd
00000030: 2cae 9bbe 86fa 89bb 3a2e dd3e a4be 4fbe
00000040: c9bb 14be f295 3c3d 6aa5 65bf 78f5 d43e
00000050: 0252 4bbd 3e3c 4d3e 2809 1d3f 0368 afbe
00000060: dae8 26bf f228 e9bd 333e 043e 4f8b 16be
00000070: 0491 a5be 2e62 153f 5a7e f6be 017d 3cbf
00000080: 9561 7dbd 194e 0dbe 4747 1cbe 94f5 873e
00000090: 0f38 a93e 7791 ab3e 355a febd 845b 6d3d
000000a0: 6cc5 0c3e 8e77 3c3e 9e59 0cbf 4aa8 733d
000000b0: b232 ba3d ec97 c0be 69c7 2abf 9501 2c3f
000000c0: 9cc4 053f 9f2e 10be 0aa3 3dbf f7e0 25be
000000d0: 8e55 1b3e a57b 2a3d 12a3 23bd 7ec9 92be
000000e0: f6d6 1ebe 910c 30bf 82ef 57be ada3 1fbf
000000f0: 8401 a53e 29fe 1ebe 73cf 12bf 01db d83e
00000100: 58d3 2e3e c173 e2bd 58c6 88be bd1f e03e
00000110: 6c9e cfbd 9315 073f 96f7 963e c2ad 9ebd
00000120: adb1 b33e 428f 1cbf 124b c13d 46f0 06be
00000130: 5a80 b6be 99da 243e 79dc adbe 93ff 2d3d
00000140: 0af1 783d 2928 1b3e ddeb d43c ef67 3fbf
00000150: 2fb6 99be 5f64 a23e 7b42 193f b935 623e
00000160: 7a7e 46be 1e78 2dbe 6a7b 0e3f 23ec 8dbe
00000170: b027 1a3f d633 083f 2b52 febb f139 363e
00000180: 84a0 85be 8e70 bc3e ad1a 81bf 6ae7 813e
00000190: a101 1e3d 1dbd 51be e6b7 b53e 6423 803e
000001a0: 8e8d 613d 7f3f a13e 08de d53d 4bfc 2b3e
000001b0: f951 b9be dba0 26bf a2df 923e b719 f93e
000001c0: 468a 9bbe 0bb4 9ebe b9e7 4d3f eb4d 90be
000001d0: f92b eebd b6fd 153e 8d0c 4ebe 7a7d 373e
000001e0: 5a00 8a3e 98b1 8c3f 3ef7 183e 36c3 9abe
000001f0: 7969 243e 79d9 81be e6d2 663c e921 713e
00000200: 35d9 30be a07b cebe 9bde a5bd 6100 e03e
00000210: 50e3 ec3e 0c24 69bf ac9c 4ebf f933 aebe
00000220: 6291 b63e f42f 913f bfc7 41be 32ce 30be
00000230: 7ecd a53f 8880 9e3f afb2 81bd d784 dc3e
00000240: bd6f 88be 0587 f9bd 718f 193e 7af1 813e
00000250: 639a b8be 8aea 4b3c cfce 6f3e 5dea d43d
00000260: fced 5abd 0967 14bf 0aba f9be 4020 4e3e
00000270: 4f0e 243e f0fd a5be b8e8 0c3f f25d 20bd
00000280: 29b9 093f cebb ad3e c190 313f d771 a6be
00000290: 1b52 34bf 1ac6 8dbc bf85 b93c 11a2 19bf
000002a0: d155 523f 56fb c43c 008c 00bf 5a59 693e
000002b0: f28b dfbe 298a cabe 4094 8a3e 10d0 683f
000002c0: 9f00 c0bd 4f81 853d b03c b63e c375 8bbe
000002d0: 2701 073f 4649 dcbe 0fee 27be 6051 253e
000002e0: 9a3b 38be 65ba 52bf 864c efbe 9727 e63d
000002f0: de22 05bf d0dc 033e 156f 443e dce7 da3d
00000300: 9d6b 5cbe cfc1 f0be 8d99 a63e 3a65 e8bd
00000310: 7bf4 61be 5db3 b63e f733 153f e2c8 d9bc
00000320: 913b d7be 643a aabd 3ae4 50bd 5537 013e
00000330: 518d 96be fa65 47bf 25fd bf3e d9bf 39bf
00000340: e394 e73d 159f 8ebe 1485 7fbd 71bf e9be
00000350: 6e7a 90bf 53c7 833e 17f0 6c3e 7c42 57be
00000360: c446 8d3e 0fc7 ac3d 5aee d6bd 547e ed3c
00000370: 81d6 8e3c 917f 1c3e ec77 bd3e c81b 9abe
00000380: a6b9 573f c636 e73e 37ab c7be 25d7 b9bd
00000390: e01c b53e 432b 403e 6fea 793c 35eb 713f
000003a0: 2609 b73e 4b63 f7be 824c 58bf 4746 f4bd
000003b0: 272c 393e 351d 7c3e 3408 963f 67aa 013f
000003c0: f8e3 3cbf 634d 35bb 95d4 dfbd ef36 443d
000003d0: ae06 8c3e 6667 75bf 7b0f 513e 61b7 5d3e
000003e0: 66be b1bc 7912 1dbf b824 1d3e aa76 bcbe
000003f0: b449 003e 7f40 423f 90c7 203d ecbb 44be
0.5974441 -0.21196108 -0.5576589 -0.023984322 0.19111657 -0.027233692 0.31451482 -0.72853976
0.62478423 -0.106162906 -0.3800705 -0.08616222 -0.3040632 -0.004210773 0.4319933 -0.20287567
-0.1452476 0.046041436 -0.89705527 0.41593528 -0.049638756 0.20042512 0.61342096 -0.34259042
-0.65199053 -0.11384763 0.12914352 -0.1470158 -0.323372 0.58352935 -0.48143274 -0.7362824
-0.06186064 -0.13799323 -0.15261565 0.2655455 0.33050582 0.33509418 -0.124195494 0.057948604
0.13747185 0.18404981 -0.54824245 0.059486665 0.090917006 -0.37615907 -0.66710526 0.67189914
0.5225313 -0.14080285 -0.740769 -0.16199099 0.15169355 0.041621823 -0.039950438 -0.2866935
-0.15511689 -0.68769175 -0.21087459 -0.62359124 0.3222772 -0.15526642 -0.5734779 0.42354587
0.17072809 -0.110572346 -0.26713824 0.43774214 -0.101376384 0.52767295 0.29485768 -0.077479854
0.35096493 -0.61156094 0.09438147 -0.13177595 -0.356448 0.16099013 -0.3395727 0.042480063
0.060776748 0.15152039 0.025991375 -0.74767965 -0.30021808 0.31717202 0.59867066 0.22090806
-0.19384184 -0.16940352 0.55657065 -0.2771922 0.6021681 0.53204095 -0.00776126 0.1779554
-0.26099026 0.36804622 -1.0086266 0.25371867 0.038575772 -0.20482297 0.35491866 0.25027
0.055066638 0.31493756 0.1044274 0.16795461 -0.36195353 -0.65089196 0.28686243 0.4865243
-0.30378932 -0.30996737 0.80431706 -0.28184447 -0.11629481 0.14647564 -0.20121975 0.1791896
0.26953393 1.0991697 0.14938065 -0.3022706 0.1605586 -0.2536123 0.014088368 0.23548092
-0.17270358 -0.40328693 -0.08099099 0.4375029 0.46267176 -0.9107063 -0.8070781 -0.34024027
0.35657793 1.1342759 -0.18923853 -0.17266157 1.2953336 1.2382975 -0.06332909 0.430701
-0.2664775 -0.12183956 0.14996125 0.25379544 -0.36055288 0.012446055 0.23418735 0.10396264
-0.053449616 -0.5796972 -0.4877475 0.2012949 0.16021083 -0.324203 0.550426 -0.039152093
0.53798157 0.33932346 0.693615 -0.32508728 -0.70437783 -0.017306376 0.022646783 -0.6001292
0.82162195 0.024045628 -0.50213623 0.22787991 -0.43661457 -0.39558533 0.2706623 0.9094248
-0.093751185 0.06518804 0.35593176 -0.27238283 0.52736133 -0.43024653 -0.16399406 0.16144323
-0.17991486 -0.82315665 -0.4673807 0.1123802 -0.5200633 0.12877202 0.19183 0.10688755
-0.21525426 -0.47022864 0.32539025 -0.113474324 -0.22065918 0.35683718 0.5828242 -0.026585046
-0.42037633 -0.083119184 -0.050998904 0.12618764 -0.2940469 -0.7788998 0.3749782 -0.7255836
0.11307695 -0.27855745 -0.062382773 -0.4565387 -1.1287363 0.2573801 0.23138462 -0.21021456
0.27593052 0.08436405 -0.10494681 0.028990902 0.017436268 0.15283038 0.37005556 -0.3009932
0.8426765 0.45158976 -0.38997814 -0.09074239 0.35373592 0.18766503 0.015253647 0.9449952
0.35749167 -0.48317942 -0.8449174 -0.11927467 0.18083249 0.24620517 1.1721253 0.5065064
-0.7378535 -0.0027664534 -0.10929219 0.04790395 0.27348846 -0.958609 0.20416062 0.21651985
-0.021697234 -0.6135631 0.15346038 -0.36809283 0.12528116 0.75879663 0.039252818 -0.19212312

network_body._body_endoder.seq_layers.0.bias f4 [64]
00000000: 3848 7c3d 9ffd 20be 03af babd b8ef 9b3e
00000010: a923 acbd bfca fbbd d322 c13d 06dd 0b3d
00000020: f388 0bbe 901a 233e 1e45 53be e14d 8cbe
00000030: 4004 62be cd04 993c 5d68 96be 32a7 e7bc
00000040: 6e13 38bd af31 34be 5337 4dbe 7f52 3f3e
00000050: 54a2 8a3e d699 2e3e d751 fa3b a17f 3b3f
00000060: 1295 643e 242b 75bd 465e 9cbe 6853 fcbd
00000070: dccc a43d 570a 863e 94a6 3b3e f111 82be
00000080: aa53 213d a796 cabd 690c 493e 31b8 1bbe
00000090: 00ea c63d 553b 5ebe ea02 c3bd 904a d4bc
000000a0: 98cf 2fbe 5b5e ef3d 5d67 8dbe cf3f 983e
000000b0: b75e 51be 838a 6a3e a20d 68be 1a3c f8bd
000000c0: ff10 9e3e 7b57 543d ee3f 1ebe be5d 0b3f
000000d0: 7e75 99bd 4381 f83d ac2f 833e 78ff 68be
000000e0: 801a 1dbe f27a b43c 1035 c33e cac0 90be
000000f0: 37ea 2cbe 41eb 10be 23fe a6bd 8fd7 443e
0.06159231 -0.15721749 -0.09115412 0.30456328 -0.08405239 -0.1229453 0.0943047 0.03414633
-0.1362646 0.15928102 -0.20631835 -0.27403167 -0.22071934 0.018679047 -0.29376498 -0.028277967
-0.044940405 -0.17597078 -0.20040636 0.18683814 0.27076972 0.17050871 0.0076391506 0.7324162
0.22322491 -0.059855595 -0.30540675 -0.12320596 0.08046886 0.26179764 0.18325263 -0.25404313
0.03938643 -0.09892016 0.1963364 -0.15206982 0.09712601 -0.21702321 -0.0952204 -0.02591446
-0.17169034 0.11687919 -0.27617922 0.29736182 -0.20446287 0.229044 -0.2266145 -0.121208385
0.30872342 0.05184124 -0.15454075 0.54439914 -0.07493113 0.1213403 0.25622308 -0.22753704
-0.1534214 0.022031281 0.3812642 -0.28272086 -0.16886221 -0.14152242 -0.081539415 0.19222854

network_body._body_endoder.seq_layers.2.weight f4 [64, 64]
00000000: c4a9 2d3e b30b 1e3e 267a 81bd 6e2c 6e3e
00000010: ec14 063e f117 603b 5f0a 05be aa27 06be
00000020: c025 803d 274b 85be 3d1d debd d8bc b13e
00000030: 60b8 ac3d ab34 d0bc cdfa ea3c 57ff 99bd
00000040: 018b b03d a336 97be 8a7b 233e bd4e 173e
00000050: 1ef1 71be 60b3 183e e7dc b53d e2bb 0cbe
00000060: a306 a8be a4b5 92bb 289a fd3d 575c b63d
00000070: b414 383c dc49 b7be e041 07be b232 a53d
00000080: 3126 c8bd 11d8 ddbd 711d 483d 6c9b e93d
00000090: a73f b0bd 0a30 99bb 0e07 b63d d4cc 4c3d
000000a0: 1bbb e3bc 9a9f 883d de68 a63d 2a13 3fbe
000000b0: 8d99 613e 7b5d d3be 476b c6bd 494d 303d
000000c0: a8b2 5abd e74e 903e 4423 a6bd ab83 76be
000000d0: a4d0 bb3d b5e4 13bb 2cda 00be a2b3 873e
000000e0: 1628 cb3d 0c32 c7bd 4620 91be 0c04 433e
000000f0: 0da1 9c3d 58c2 c7bd f3c7 2abc a09a bf3d
00000100: 69f5 87bc 1189 b5bc 9f24 33bd 30b0 92bd
00000110: bd81 303d dd6b b9bc 4f2b 25bd 5bde fabe
00000120: 4c6d be3b 38f0 eabd 2af9 e8bd 70b0 babd
00000130: 5edb 2c3d 9ede 0c3e af6b 10be a042 323d
00000140: e9af 40be 5b2f 4bbd 8f79 a33a bf4f d63d
00000150: 890f aabc a17c 82be bb72 3a3e abbc 2e3e
00000160: 115a e7bd 4585 26be f9b3 953e f7a5 18be
00000170: d78a 3fbe 74c7 8ebe f108 55be 52b9 a4bc
00000180: 578e dd3c f499 d43d 8089 1dbe 3d80 d9be
00000190: afea 01be c758 aabd f181 eebc e0ec b1be
000001a0: 90fa dc3d 9034 46bc f376 d8be d303 aabd
000001b0: 40e5 243e 5660 903a 1097 473d c798 e2be
000001c0: b89e a4bc bdba 24be af93 26be 75ba 8bbe
000001d0: e9cb 803c d474 0abe 6938 a63d 30d6 3a3d
000001e0: 3228 773e caa9 37bd 404c 6fbe d5b5 7abe
000001f0: abee 933e a153 47bd cf87 2e3d 4a87 84bd
00000200: 8e16 9ebe 9bb8 3c3d c579 3d3e f96c 9bbe
00000210: cefb 5cbe de05 6dbe 6b1b c6be 2020 da3d
00000220: 4b4c 6ebe 64cd 6ebe 9f7c 783e 3514 463e
00000230: 675a 743e 5880 27be f607 1c3e a498 f73c
00000240: 5deb 133e 6700 543e d862 61be d682 87bb
00000250: 62cf 8a3d df64 9a3d ce37 0abe f96d 34bf
00000260: 9025 fabd cca1 4b3d 26bf 98bd a87c eabd
00000270: 3ddf 9cbc b464 20bd d50d 2d3e 641d 443e
00000280: 6dfa 71be 6edd a0be 4d36 30be 9a82 80be
00000290: 6c38 4dbe 1cbb 533e ea24 0bbd 0135 be3d
000002a0: 483d cebd 12ca f9bc 1b67 683e 27e8 7d3e
000002b0: 275a e13d 633d 943e 45e2 2bbc 6265 95bb
000002c0: 5367 13be c454 dbbb 22f1 233d d706 bb3d
000002d0: fea2 c23e bd7b 3b3e 8940 1bbe 4b09 743e
000002e0: 6955 173e 3242 e23c b7f1 b1bd 44cb a03d
000002f0: ba27 cb3e 60ad 6b3e 517f 98bd 8bf6 c23e
00000300: 98b2 0fbe fce3 30be 532a 093e 4244 67bc
00000310: 672c 56be c4ec ebba 6a65 81be 6443 d3be
00000320: 8b3f 46be 654d cb3d d640 5bbe ce35 f4ba
00000330: 67b8 82bb 87a7 e8bd 2634 60be 6b1c 31be
00000340: 4628 16be 9cf1 5b3e 57b1 fe3c 4cd1 303d
00000350: f446 b8bd 4f26 3bbe 6ff4 e4bd 1ada abbe
00000360: 322a c0bd d4d5 05bc 229c 1ebc fb50 d63c
00000370: 037f 2abc 17a7 99bd b9dc ff3d 3ccb d03d
00000380: dcae 6abe bb41 49bd 69f9 57be 0ba5 54bd
00000390: 5f74 54bd 04ca 463d cc64 8ebd 9854 f13d
000003a0: e091 d13b 27d1 dd3c 3f4d 353e 136e fbbc
000003b0: 6bbf eb3d 6ab1 10be ac87 0ebe 2a5f 15bd
000003c0: a86c 4abe 6281 0fbd b66e 123e a8d2 e03d
000003d0: 4d42 c93d e5a5 843d a0c4 a3bd 139e 25bb
000003e0: 0afa ba3c cd12 56bd bf79 563d d665 6b3d
000003f0: a881 083a 4ad4 2e3e 2203 66be 764c 843d
0.16959292 0.1543415 -0.06322126 0.23259136 0.13093919 0.0034193958 -0.12992238 -0.13101068
0.062572 -0.260339 -0.108454205 0.3471439 0.08433604 -0.025415739 0.028684044 -0.07519405
0.08620263 -0.29533872 0.15965095 0.1477613 -0.23627135 0.14912176 0.088800244 -0.13743547
-0.32817563 -0.0044772197 0.123829186 0.08904331 0.011235405 -0.35798538 -0.13208723 0.0806631
-0.097729094 -0.10832227 0.048856203 0.114065975 -0.08605891 -0.004674916 0.08888064 0.050000027
-0.02779918 0.066710666 0.081254706 -0.18659654 0.22031231 -0.41282257 -0.0968843 0.043042455
-0.053393036 0.28185198 -0.08112195 -0.24073665 0.091706544 -0.002256674 -0.12583226 0.26504236
0.09919755 -0.097263426 -0.28344935 0.19044513 0.076479055 -0.09753865 -0.010423648 0.09355664
-0.016596513 -0.022160085 -0.043736096 -0.07162511 0.043092478 -0.022634441 -0.040324505 -0.4899777
0.005811369 -0.11471599 -0.11375649 -0.09115684 0.042201392 0.13756797 -0.14103578 0.04352057
-0.18817104 -0.04960571 0.001247214 0.10464429 -0.02075936 -0.2548571 0.18207829 0.17064159
-0.11296476 -0.16261776 0.2923887 -0.1490706 -0.18705307 -0.27886546 -0.20804192 -0.020107899
0.027045412 0.10380927 -0.15384483 -0.4248065 -0.12687181 -0.08317714 -0.029114695 -0.34751034
0.107899785 -0.012097493 -0.4227825 -0.08301511 0.16103077 0.0011015038 0.04872805 -0.44257185
-0.020095214 -0.1608686 -0.16267274 -0.27290693 0.015722232 -0.13521129 0.08116228 0.04561442
0.24136427 -0.044839658 -0.23368931 -0.24483426 0.28893027 -0.04866374 0.042609986 -0.06471117
-0.30876583 0.04607449 0.18503483 -0.30356577 -0.21580431 -0.2314677 -0.38692793 0.106506586
-0.23271291 -0.23320538 0.24266289 0.19343646 0.23862611 -0.16357553 0.15237412 0.030224152
0.14445253 0.20703278 -0.22010362 -0.00413547 0.067778364 0.07538771 -0.1349785 -0.70480305
-0.12214196 0.04971485 -0.07458334 -0.114495575 -0.019149417 -0.039158538 0.16899808 0.19151837
-0.23630686 -0.31418937 -0.17208214 -0.2509964 -0.20041054 0.20676845 -0.03397075 0.092874534
-0.10070282 -0.030491862 0.22695582 0.2479559 0.11003523 0.28953084 -0.010490959 -0.004559205
-0.14394884 -0.0066934545 0.040024884 0.09132164 0.38014978 0.18308921 -0.15161337 0.2383167
0.14778675 0.027619455 -0.086886816 0.0785127 0.39678746 0.23015356 -0.07446159 0.38078722
-0.14032972 -0.17274469 0.13395052 -0.014115395 -0.20915376 -0.0017999639 -0.25272685 -0.41262352
-0.19360177 0.09926871 -0.21411452 -0.0018631758 -0.0039892676 -0.11360078 -0.21894893 -0.17295997
-0.146638 0.21478885 0.031090422 0.04316835 -0.08997908 -0.18276332 -0.111794345 -0.33564836
-0.09383048 -0.008168656 -0.00968078 0.026161661 -0.0104062585 -0.07502573 0.124932714 0.10195014
-0.22918266 -0.04913495 -0.21091236 -0.05191521 -0.051868793 0.0485325 -0.06952819 0.11783713
0.0063955635 0.02707727 0.17705248 -0.030692136 0.115111195 -0.14130178 -0.13918942 -0.03646771
-0.19768012 -0.0350355 0.14300045 0.109776795 0.09827099 0.06476954 -0.079964876 -0.0025271222
0.022824306 -0.052264024 0.0523622 0.057470165 0.00052073086 0.1707317 -0.22462133 0.06459896

network_body._body_endoder.seq_layers.2.bias f4 [64]
00000000: 651c a9be 0dbb 4bbd 32ba 85bd 6d05 35be
00000010: fc9c dc3d 37f6 2bbe ba58 273d d4f7 eabc
00000020: 46e1 53bc 2932 1a3e 4050 48be 2b8d 96bd
00000030: b71a 5b3e 4d26 a33e 9869 cb3d d7b9 e03d
00000040: 32df e2bd eb02 bebd f9f3 893e 7695 92be
00000050: 6dc2 61bd af5b 26bd 2b39 eabb c75d c03d
00000060: 23c2 213e 2ef9 a6bd 8f04 39be 8403 a3b9
00000070: 8b72 2ebe 6b25 9dbc 8f37 32be 6ee9 433e
00000080: 3166 8c3d ec5c c6be 733e 45bd 880d 40be
00000090: a556 583e b807 cf3e 2d21 a43d 5561 ab3d
000000a0: 2be8 283e 4170 b13e 6281 173e 2102 dd3d
000000b0: 45d9 b8bd 2cf0 163d 052e 1fbc 276a 06bd
000000c0: feda 9fbd 52f3 43bd 01c4 583e 5f3a 9cbe
000000d0: 3cfb e73c d4de 913d b662 833d 1ae5 51bd
000000e0: 7b12 07be fa7e d63e a14b c83c d636 1f3d
000000f0: 6f83 5c3e 3d1f 9e3e bb7b 50bd 90e1 f63d
-0.33029476 -0.049738932 -0.065296546 -0.17677851 0.1077213 -0.16793142 0.0408561 -0.028682627
-0.012932127 0.15058197 -0.19561863 -0.073511444 0.2139691 0.3186516 0.0993225 0.10972946
-0.110777274 -0.092779 0.2694395 -0.28629655 -0.05511706 -0.04061478 -0.0071479282 0.093928866
0.15796714 -0.08152996 -0.18068145 -0.00031092402 -0.17035882 -0.019182881 -0.17404006 0.19132015
0.06855429 -0.3874277 -0.04815526 -0.18755162 0.21126802 0.40435576 0.0801414 0.08368174
0.16494815 0.34655955 0.1479545 0.10791422 -0.09025816 0.03685014 -0.009715562 -0.03281608
-0.07805441 -0.04783947 0.2116852 -0.30513284 0.02831804 0.07122579 0.06415312 -0.05124388
-0.13190643 0.4189375 0.024450125 0.038870655 0.21534513 0.30883208 -0.05089925 0.120547414

action_model._discrete_distribution.branches.0.weight f4 [4, 32]
00000000: 23c7 823e d882 c23e 2850 43bf 7523 153f
00000010: a62b 163f 1544 d63d 6169 1ebf a316 56bf
00000020: 4e28 453c b325 7ebe cf0c 8140 4254 dbbe
00000030: 17bc bdbe 679a 01bf 6387 cc3e 1c13 9bbf
00000040: 4dfb 0cc0 0645 5e3e cc58 8abf 928b 233e
00000050: 9272 3a3e 946a 1fbe a6ac 63be 9e54 d9bf
00000060: 4bdb 5d3f 5e61 86bf 0fd5 993e 08fb e53e
00000070: 643c 073e 7017 b43e 53a2 16be 1f72 67be
00000080: 2a03 c03e 7af0 2bbe d19e a4be 7bfc 16be
00000090: 0aa2 de3e 092a 98bd 72ad 833f 67fe 48be
000000a0: ba5b 48bf 8784 0fbf 0c4d dbbf f68c 1abf
000000b0: b2f9 cebd 0ec8 b73e 520a 163e b180 423f
000000c0: 7342 8f3f f811 11bd dd41 de3e 9c04 1bbe
000000d0: f0c7 113f 42c9 55be 31fe df3e b4ad e03e
000000e0: 9a9c cc3e 77e7 4e3f 42c2 f73c c7e9 8a3b
000000f0: 9f5b f2bd 0fb1 dabe e827 debd 43e3 8cbf
00000100: b0f9 07c0 c877 7b3c 5802 e73e ddc5 c33e
00000110: 455c f0bf 0323 20be 2db8 03bf 4e60 0440
00000120: b786 503f 010b bb3d 7a63 15c0 c01f 01be
00000130: 7806 2b3f 0644 843e 4a1f 95bf f78a 50bf
00000140: 93f4 a3bf 154a 55bf 7143 e33f 223d 583f
00000150: 799a 3d3f 81e9 22bf 6b64 21bf 593e 8b3f
00000160: 5eb0 2fbf 2fef f03d d0e5 763d 076a 3b3c
00000170: 9e5d 7e3e fff3 fc3d cbfe 5dbe 5ad4 1440
00000180: 10d6 9cbd 9792 5cbe 9705 ce3e d296 6ebe
00000190: d654 e5be 6bcc 483d 427b b8be ad7e cc3e
000001a0: 574a c73e ef73 3d3f bc35 86bf 4049 4d3e
000001b0: 34ad 823e 77b3 153e a602 713d 4e86 6f3f
000001c0: 247b b83f f7ce 473e 70eb 093e 479b 95be
000001d0: 44e1 99bf 5b7b fb3e 228b 2a3e fff4 da3e
000001e0: 9763 88bf 42dd 823e ee8a 76be 920a 10bf
000001f0: 8fdd b6be 16c4 483d ab67 cf3e 123c 373d
0.25542554 0.3799045 -0.76294184 0.5825723 0.5866035 0.10462204 -0.61879545 -0.8362829
0.012033535 -0.24819069 4.0328135 -0.4283772 -0.37057564 -0.50626224 0.39947042 -1.2115207
-2.2028382 0.21706018 -1.0808349 0.1597121 0.18207768 -0.15568 -0.22233829 -1.6978948
0.8666274 -1.0498464 0.30045363 0.44918084 0.13206631 0.3517413 -0.1471036 -0.22602127
0.37502414 -0.16790953 -0.32152417 -0.14744751 0.43483 -0.074298926 1.0287306 -0.19628297
-0.78264964 -0.56061596 -1.7132888 -0.6037134 -0.10106219 0.35894817 0.14652374 0.7597762
1.1192154 -0.035417527 0.43409625 -0.15138477 0.56945705 -0.20877555 0.4374862 0.43882525
0.39963228 0.8082194 0.030243997 0.004239294 -0.118338816 -0.4271321 -0.10847455 -1.1006855
-2.1246147 0.015348382 0.45118976 0.38236895 -1.8778158 -0.15638356 -0.51452905 2.068378
0.8145556 0.09132958 -2.3341966 -0.12609768 0.66806746 0.25833148 -1.1650174 -0.81462044
-1.2809013 -0.83316165 1.7754956 0.8446828 0.7406383 -0.6363755 -0.6304385 1.0878402
-0.6862849 0.11764371 0.06027776 0.011438853 0.248404 0.12351226 -0.21679227 2.325461
-0.07658017 -0.21540295 0.4023864 -0.23299721 -0.44791287 0.049023073 -0.36031538 0.39940396
0.38923904 0.74005026 -1.0485148 0.20047474 0.25522768 0.14619242 0.058840416 0.9356431
1.441258 0.19512545 0.13468719 -0.2922003 -1.2021871 0.4911755 0.16654637 0.42765042
-1.0655392 0.2555943 -0.24076435 -0.5626613 -0.3571591 0.049015127 0.4050878 0.044735022

action_model._discrete_distribution.branches.0.bias f4 [4]
00000000: e200 8340 d97e fcbf eb19 3bc0 1ca5 18bf
4.093858 -1.9726211 -2.923457 -0.59626937

onnx::LSTM_98 f4 [1, 128, 64]
00000000: 4dbc 72be 250b cabc 8214 c53d f8aa f2bd
00000010: d7a0 313e 6c38 523e bfd9 be3d 651c 053e
00000020: 31e3 bebd 73f6 02be 4b52 35bd 8daa 743d
00000030: 0eee 0cbe 5f56 f53d 3518 07be fe9c 053e
00000040: a5e8 a43e 0b0b 9ebd 5967 41be 9991 113e
00000050: 16fb 073f 9820 283e d8bf 93bd f697 a63e
00000060: 3f66 343d ffb8 b23d a733 aa3d a7c3 a0bd
00000070: 13a6 bf3d 3015 5cbe 0499 303f 0aaa 0a3f
00000080: a4ca 3f3e b868 94be b91c 34bd 17f1 c73c
00000090: 738a e3bc 971b 233e 397e 873d 77cf 5c3e
000000a0: 0e8c b13d 9378 e4bc d852 8a3e 3791 b4bc
000000b0: 9597 003e 27b6 343e d824 533e d327 503e
000000c0: 8801 54bc 985e 863e d153 5bbd 7506 05be
000000d0: c414 a23c f6d6 ea3d c81f b03d d546 663e
000000e0: 6be6 193e dee2 d1bd cde7 e7bd 2c75 143e
000000f0: c800 773e 87bd 383d 27e9 9f3e 8d44 b33e
00000100: 9531 ce3e f04f 973e 7b82 2d3e a902 473e
00000110: 025e f03d 6239 db3d 8427 33bd 1d9b a6be
00000120: 3e3d 493d 89fd ee3e afff e1bd b6fe 903d
00000130: dfb1 083e 748b 0dbe 32ea 6c3d dc45 58be
00000140: 681c 9b3e 1cdd 043b 5ae3 063e 47be 8cbe
00000150: 51c2 4abe e414 7b3e 8879 833d cdc9 e93e
00000160: d58a 08bf a4b1 823d f195 f53d ebe6 b3bc
00000170: e846 053d b0b2 8cbe 3388 9bbe 08de 98be
00000180: 32e4 5dbd 45b4 1f3d c7ee 7e3b 4bb9 6d3e
00000190: 275d 6c3d 30af 363e f202 11be 9a9e 92be
000001a0: b294 2bbe 0b64 82bd db90 e73d fc37 8a3d
000001b0: e516 5ebe a6a2 c93c f2a9 69be 0555 0bbd
000001c0: 9a93 adbe 3d5c 673e 44d8 3cbe edd9 483e
000001d0: ae0e 91be cf5d a23d 6c99 5fbe 0716 ffba
000001e0: 81d4 d2bd b1c0 603e 6394 15be a467 0d3e
000001f0: 85e4 243d 1a42 57bd c420 09be 0274 f0bd
00000200: 5a23 af3c 6f27 7cbe 7fe1 cf3e d91f b73e
00000210: 6cb5 0c3e 4774 773e 15c1 bbbd a1f3 5c3e
00000220: f1b2 583e 5b65 883d 35c0 d0be db0a ec3c
00000230: b444 f03d 9a80 393e 4e7c a93e 94e0 dfbd
00000240: 289b bd3d 4a27 9d3d e8ca 9f3e c173 603d
00000250: 0adf c23e e08e e43d 7555 2bbd d37e e43e
00000260: 9a38 89bd 14dd e33e 8c04 c63d 715b ebbe
00000270: adf7 1bbe 2666 8a3d 2a15 bd3c 7664 483e
00000280: 5891 8c3d 35ff f53e ef19 e83e 4ddb fb3d
00000290: dff8 203e f2cb 93be 3272 16be fa23 683e
000002a0: 3d36 893e c2b2 a8be 51e9 6b3e c6b8 39bd
000002b0: c5f2 ccbd f6f6 dd3d 92e2 a53e 95af febc
000002c0: 0a4c debd cd20 913e 4f89 e7bd 0796 d43e
000002d0: 6ab4 08be 0258 69bc 53df 8b3e 6c62 033e
000002e0: 1a6b 103e d572 ddbd e72d 043e e4e2 543d
000002f0: 15b7 bf3d 1693 73bd e2f7 bf3e ea0d cc3e
00000300: 53f1 56bc ab04 28be 91e3 3abe 2188 4dbd
00000310: c5a4 1dbe 31bf 97ba 65fc 3fbe 8fdc 463e
00000320: 1f60 543e 720b 143e 46be c93e c54d 7cbd
00000330: cde8 5c3e 5f2c 27be f863 b0be 28bc 36bd
00000340: a6ff a8be fb3a 6bbe 96cf 273e 34fa 3f3e
00000350: b7af 903d e66d b43d c879 e83d 4854 a93e
00000360: 6f06 aa3e f1e4 6e3d 54f6 aabe c998 64be
00000370: ede5 b6bc 8c4b 143f f047 353b eba9 cf3e
00000380: b64f 143e b709 10be 47bc dc3e 0563 433d
00000390: 7808 fc39 1935 833d 71ae 723d 0b5a be3d
000003a0: 3216 203e dcdd 633e 880d 15bd e523 b43d
000003b0: c114 243d 0ccd 39bd 43dd d33d 3be3 c1bc
000003c0: 51fe a3bc e70b bebc 1cec 1e3e af01 99be
000003d0: d4c9 16be 2636 4a3e 1ab8 213e 0d7a 42bd
000003e0: 81d7 df3d c61c b33e d5bc e0bc e1ff 173d
000003f0: 17ca 3f3e babc c73d 741f 773d cf7f 44be
-0.23704644 -0.024663517 0.09623052 -0.11849016 0.17346512 0.20529336 0.093188755 0.12999113
-0.09320677 -0.12789325 -0.044267934 0.059732962 -0.13762686 0.119793646 -0.13192828 0.13048169
0.32208744 -0.0771695 -0.1888708 0.14215697 0.531175 0.16418684 -0.07214326 0.32537812
0.044042822 0.087266915 0.08310633 -0.07849818 0.09357848 -0.21492457 0.68983483 0.5416571
0.18729645 -0.28986144 -0.043972705 0.024406953 -0.027775979 0.15928493 0.06615872 0.21563517
0.086692914 -0.027889526 0.2701633 -0.0220419 0.12557824 0.1764761 0.20619524 0.20327692
-0.012939818 0.26244044 -0.05354673 -0.12990744 0.019785292 0.11466782 0.08599812 0.22487958
0.15029304 -0.102483496 -0.11323509 0.14497823 0.24121392 0.045102622 0.3123257 0.35013238
0.40272203 0.29553175 0.16944306 0.19434609 0.117366806 0.10704304 -0.043738857 -0.32540217
0.04913067 0.46677807 -0.11035096 0.07079832 0.13349102 -0.13822728 0.057840534 -0.21120399
0.3029511 0.0020273393 0.13172665 -0.2748892 -0.19800688 0.24519688 0.064196646 0.45661774
-0.5333684 0.063815385 0.1199149 -0.021960696 0.032538325 -0.27480078 -0.3037735 -0.29856896
-0.054172702 0.038990278 0.0038899647 0.23215215 0.057706024 0.17840266 -0.1416128 -0.28636628
-0.16755942 -0.06366738 0.11306926 0.067489594 -0.21688421 0.02461369 -0.22818735 -0.034016628
-0.33901674 0.2259378 -0.18441874 0.19614382 -0.28331512 0.07928049 -0.2183587 -0.0019461521
-0.10294438 0.21948506 -0.14607386 0.13809067 0.040256996 -0.052553274 -0.13391405 -0.11740877
0.021379162 -0.24624418 0.40601727 0.35766485 0.13741082 0.2416545 -0.09167687 0.21577312
0.2116201 0.06659957 -0.40771642 0.02881377 0.11731854 0.18115464 0.3310265 -0.10931507
0.09258109 0.076735094 0.31209493 0.05479789 0.3806079 0.11160064 -0.041829545 0.4462801
-0.06700249 0.44504607 0.09668836 -0.45968202 -0.152312 0.067577645 0.02308138 0.19569573
0.068636596 0.4804627 0.45332286 0.12297688 0.15719937 -0.28866535 -0.14692 0.22669974
0.26799193 -0.3294888 0.23038222 -0.04534223 -0.10007242 0.1083812 0.32399422 -0.031089583
-0.10854347 0.28345338 -0.113054864 0.41520712 -0.13350073 -0.014242174 0.2731882 0.12830514
0.14103356 -0.10812918 0.12908135 0.051974192 0.09361092 -0.059466444 0.37493807 0.39854366
-0.01311906 -0.1640803 -0.18250872 -0.05017865 -0.15394886 -0.0011577365 -0.18748625 0.19420074
0.20739792 0.14457491 0.3940298 -0.061597604 0.21573181 -0.1632552 -0.3445127 -0.044613034
-0.33007544 -0.22971718 0.16387782 0.18747789 0.07064765 0.08810024 0.11351353 0.33072114
0.33208033 0.058323804 -0.33391058 -0.22323908 -0.022326434 0.57927775 0.0027661286 0.40559325
0.14483532 -0.14066206 0.43112394 0.047701854 0.00048071495 0.06406612 0.05924839 0.09294518
0.15633467 0.22252601 -0.036389858 0.08795909 0.040058855 -0.045361564 0.10344937 -0.023667922
-0.020018728 -0.023199035 0.15519756 -0.29884097 -0.14725429 0.19747218 0.15792885 -0.047479678
0.10929776 0.3498289 -0.027433792 0.03710926 0.18729435 0.097527936 0.06033273 -0.1918938

onnx::LSTM_99 f4 [1, 128, 32]
00000000: 67f3 dc3d 862f 603d d422 01be 6224 5fbe
00000010: a2a0 d43e daa8 a93e 290e 18be 5f89 d3be
00000020: a8ee 46be dc87 ad3e 7718 14bd 5409 1e3d
00000030: 1a14 7d3b 4d1f 8abe 65fb 7ebd a40a 78be
00000040: eaa6 153d 0481 083e 2ca2 943e 33fb 13bf
00000050: 60f7 4dbc 86ed cabe ee28 1bbe c52d 6dbc
00000060: 0735 1bbd 100d 90be 0cd9 9c3d a574 86be
00000070: d7dc f83d 0174 ad3e 051f 513e d193 a0bd
00000080: 002c 8f3c fab2 4f3d 6bfe 49be ae1a 1ebe
00000090: 660e b13e 0212 9dbd dafd b23d 3983 5abe
000000a0: ac7b 95bc 99df 693e 4152 943d e22e 233e
000000b0: d299 cabd 93a0 83bd 8f95 8c3e 0ff9 a63e
000000c0: 059c bb3d d70f a53e ca93 9abe d01d 6bbe
000000d0: b890 a13e 39db 79bd 946f b73e 399d c53d
000000e0: 96bd 6c3c 6f25 0c3d 847f 96be 1513 0cbd
000000f0: 24bb 9ebe 6ded 90be cc45 9e3e 210c e1be
00000100: ed6a a03e ebfd 0ebf f8d0 b5be b35f 233d
00000110: 1775 bbbe 22d7 dbbd 487e 41bd a56b c43e
00000120: 03f1 b4bd 5b5d 763d 2e94 85bc fb47 173d
00000130: 1db0 33be 00d2 3bbe 7cce 833d dc7b da3e
00000140: 11f9 473e b0f8 31bf 0572 d83e f301 cabd
00000150: 4388 50bd 592b 45be 0b42 3fbe 579e 88bc
00000160: 7c27 cf3e 311f 8dbe a61f 88be db1e ea3e
00000170: c6d2 de3d 7f92 d73c b9ad c0be 7beb 7b3d
00000180: c742 163d 2d9e c63e 6d52 12be 7faf 0f3d
00000190: 5e13 143e 1733 8d3e f776 8cbd 3ebf 2cbe
000001a0: 6724 9c3b 33eb 303e 4aea 6f3e 3b18 cebe
000001b0: fb5f 563c db56 2fbe 4c42 50be f50d 56be
000001c0: c2b4 023e fe56 85bd fa0f 753e d270 bc3d
000001d0: acb2 90be cece 513e ad74 e9bd 1be6 eb3c
000001e0: 32fa cf3e cbf3 0a3e 4d0e d03d f711 12be
000001f0: 97a9 16bd d8ef bcbd ea50 4c3e b7e7 2c3e
00000200: 633e 023d 71f5 9d3d 427a 643d 9ebd 593e
00000210: 7ac0 6dbc e95f c43d d2fd fdbc f0fa 07be
00000220: b8e6 85bd 1f6c 423c fd71 18be 2f55 533e
00000230: 7ad2 f83e aa50 16be e74d 68be 2a50 6ebe
00000240: 0e53 403e 7dd5 02be cb26 e8bd 348f 9e3e
00000250: 04bb 8fbe 3260 ca3e 0c5f ab3c 33e4 4a3d
00000260: 7a5a 04bf 8f5a 343e 6d9e 60bd 0e2d a43d
00000270: 55eb 8c3e 28c0 e93e ed71 7ebe e571 053f
00000280: 7bcd 87be bb16 4bbe f125 463d ff3c cd3c
00000290: 90a5 f3bd e48c d6bd af09 8bbd 7878 b7bd
000002a0: e617 a73d d8a4 c6be 308b fc3e e0f5 ed3e
000002b0: fcc4 80bc ffe6 a1be 9f7b c73e f2d4 5e3e
000002c0: 6cec 933e 2048 8abe 151c d0be 679a 393e
000002d0: a65f 21be 748f 04bc 512e 3b3c 2dd2 8bbd
000002e0: a2d1 763e 9453 88bd 5567 c43d 11e8 45bd
000002f0: 7bb4 6cbe 8df4 e5be 9e37 8dbe 1c83 91bc
00000300: 5155 73be 0834 a93e 657d 003f 754f 2e3e
00000310: 4d7e ef39 e372 033e 561f afbe 9afd b7be
00000320: 79d6 e33e 4075 6ebe a004 c8be d884 373e
00000330: d055 78be 4df0 e63d f41c bc3e d55e 8ebe
00000340: 581e a7be 0241 b13d ee29 f0bd c38c bdbe
00000350: a4a9 7bbd b82d 063e 84f9 dcbe 8946 b8be
00000360: 1463 49be a655 563e fe18 c5be c337 133d
00000370: a145 81be 1c65 c9be 4b40 043e 0bbc b83e
00000380: ae17 bd3e dd06 df3d 9d73 b43d 6549 aabd
00000390: 085e d03e f1f7 43bd 5f05 a2bd 1da7 943d
000003a0: 7dda 10be 736f e83d f7f6 abbe 402b 783e
000003b0: ec57 233e 0497 063f f48f b93d b535 0d3d
000003c0: b42b 7f3e 51af a13c 902a c53d 479d a5bd
000003d0: 3577 33be 4d83 5abd eeb4 853e 1e84 6a3c
000003e0: d465 76be 1cd8 5abd 84c4 263e 8d96 58be
000003f0: 84f4 6cbd 8a15 893e a92c 80be 8109 6ebd
0.10788613 0.054732822 -0.12610942 -0.21791223 0.41528803 0.33136636 -0.14849152 -0.41315743
-0.19426978 0.33892715 -0.036156144 0.038583115 0.0038616718 -0.26977006 -0.062251467 -0.24222809
0.036536135 0.13330466 0.29029977 -0.57805175 -0.012571186 -0.3963434 -0.15152332 -0.014476244
-0.037892368 -0.28134966 0.07658586 -0.26260868 0.12151497 0.33877566 0.2042199 -0.07840694
0.017477036 0.050707795 -0.19725959 -0.15439865 0.34581298 -0.0766945 0.087398246 -0.2133912
-0.018247448 0.22839202 0.07242251 0.15935853 -0.0989262 -0.064271115 0.27457854 0.32611892
0.09160618 0.32238647 -0.3019088 -0.22960591 0.31555724 -0.061000083 0.35827315 0.096491285
0.014449498 0.034215387 -0.29394162 -0.034197886 -0.31002152 -0.28306141 0.30912626 -0.43954566
0.31331578 -0.558562 -0.35510993 0.039886188 -0.3661277 -0.10734393 -0.04723957 0.38363376
-0.08835032 0.060147624 -0.01630601 0.03693388 -0.1754765 -0.18341827 0.06435868 0.42672622
0.19528605 -0.6952009 0.4227449 -0.09863653 -0.0509112 -0.19254817 -0.18677537 -0.016677065
0.40459812 -0.2756286 -0.26586646 0.45726666 0.108800456 0.026314972 -0.3763254 0.06150387
0.036684778 0.38792554 -0.14289255 0.035079475 0.14460513 0.2757804 -0.06858628 -0.16869828
0.0047650817 0.17277221 0.23429218 -0.4025286 0.013084407 -0.17122976 -0.2033779 -0.20903762
0.12764266 -0.06510733 0.23931876 0.09201206 -0.28261316 0.20489046 -0.11399207 0.028796246
0.4062057 0.13569562 0.10158978 -0.14264666 -0.036782827 -0.09225434 0.19952741 0.16885267
0.031797778 0.0771283 0.055780657 0.2126374 -0.014511222 0.09588606 -0.03100482 -0.13279319
-0.06538147 0.011866598 -0.14887233 0.20637964 0.4859808 -0.14679208 -0.22685967 -0.23272768
0.18781683 -0.12776752 -0.11335524 0.3096863 -0.2807237 0.39526516 0.020919345 0.049534034
-0.51700556 0.1761267 -0.054838587 0.08016406 0.27523294 0.45654416 -0.24848147 0.52126914
-0.26523957 -0.1983289 0.048376027 0.0250535 -0.11896813 -0.104760915 -0.067889564 -0.089585245
0.08158855 -0.3879764 0.49324942 0.4647665 -0.01571893 -0.3162155 0.38961503 0.2176092
0.28891313 -0.27008152 -0.40646425 0.18125306 -0.15759143 -0.0080908425 0.011424617 -0.06827197
0.24103406 -0.06656566 0.095900215 -0.04831702 -0.23115723 -0.4491314 -0.27581495 -0.017762713
-0.23763014 0.3304751 0.50191337 0.17022498 0.00045679734 0.12836795 -0.34203595 -0.3593567
0.44499567 -0.23286915 -0.3906603 0.1792177 -0.24251485 0.112763025 0.3674084 -0.27806726
-0.32640338 0.086549774 -0.117267475 -0.37021455 -0.06144108 0.13103378 -0.43159115 -0.35991314
-0.19666702 0.2093111 -0.3849563 0.03594185 -0.25248435 -0.39334953 0.12915151 0.36080965
0.3693213 0.10889981 0.08811114 -0.0831478 0.4069674 -0.047843877 -0.07911181 0.07258437
-0.14145847 0.11349382 -0.33586857 0.24235249 0.15951508 0.5257418 0.0906066 0.034475047
0.24919015 0.019736918 0.09627259 -0.08086639 -0.17525943 -0.053347874 0.261146 0.014313726
-0.24062282 -0.053428754 0.16285902 -0.2115118 -0.057850376 0.26774246 -0.25034073 -0.058114532

onnx::LSTM_100 f4 [1, 256]
00000000: c9ab e03d 19e4 e63d 8f75 2abd 249b 033e
00000010: 9087 8a3b aa55 2b3d d39d 933e df33 2d3e
00000020: 9a43 c03e a3ad c43d 04ed 8f3e 26b7 133e
00000030: dbc1 94bd ac95 863d 473b 563e 6310 5dbe
00000040: 8754 7b3e 7a1f 3d3e da16 823d 6adb 25bb
00000050: da60 943d e402 2c3c e8a4 17be fdad ae3d
00000060: 659e 5dbe d8e5 a43d 2a31 3c3d dbf6 d23d
00000070: 3b72 8bbd 698d cb3c 47a7 903d 8ee1 773d
00000080: a066 113e 6a73 9f3e 7512 5f3d 4120 cabc
00000090: b927 853e d487 6d3e afff 413e cab8 213e
000000a0: 1408 fb3d 2bf0 943e a457 56be 4348 163d
000000b0: 524e 863e a5e2 eabc dd03 8fbd b4dd fdbd
000000c0: f0a6 e53e b93b d33e 1342 963d a71a 933d
000000d0: 3897 d9bd b1ab 013d 556b 1f3e 1c25 97be
000000e0: cdd5 86be db57 5abd 6c4f 883e e8bb 023e
000000f0: eb6a ac3e 46e3 d23d b320 ca3d 3d5d 1f3e
00000100: 25e6 8e3f 8811 933f 0de9 783f 1486 853f
00000110: 7435 823f af43 393f 61b7 773f d113 993f
00000120: 396e 853f 16fb 6d3f 131d 783f 890e 823f
00000130: 4110 643f 2b35 223f ccfb 8f3f 7756 5e3f
00000140: f31d 463f 40ef 493f fb65 883f 8a61 3a3f
00000150: 6f3b 7e3f 0ecd 783f ce3f 743f f0c2 7f3f
00000160: d9b6 5d3f 084f 353f fa5e 9b3f c65f 7d3f
00000170: 2be3 5d3f 98ff 8d3f abdc 893f f852 893f
00000180: 2014 0d3e 072d 8f3e ac0f bb3d 73a0 20be
00000190: 2136 a2bc e438 323e c331 813e f6c0 79bd
000001a0: c1b5 07be bca1 253e 1b66 8fbe 8301 7fbd
000001b0: a821 e0b9 309c 023d 7a69 8fbd 7690 1dbe
000001c0: 670c 753e 2c82 ff3d 5ee6 ccbd b49d 6b3e
000001d0: 2c7a f0bc 9a6a a93d 26a4 15bd af40 a73e
000001e0: 888e 633d 18e4 1e3e de8c 683d f486 0dbd
000001f0: d99e 58be d3ab 503e c90d cebb f5f3 f93b
00000200: c9ab e03d 19e4 e63d 8f75 2abd 249b 033e
00000210: 9087 8a3b aa55 2b3d d39d 933e df33 2d3e
00000220: 9a43 c03e a3ad c43d 04ed 8f3e 26b7 133e
00000230: dbc1 94bd ac95 863d 473b 563e 6310 5dbe
00000240: 8754 7b3e 7a1f 3d3e da16 823d 6adb 25bb
00000250: da60 943d e402 2c3c e8a4 17be fdad ae3d
00000260: 659e 5dbe d8e5 a43d 2a31 3c3d dbf6 d23d
00000270: 3b72 8bbd 698d cb3c 47a7 903d 8ee1 773d
00000280: a066 113e 6a73 9f3e 7512 5f3d 4120 cabc
00000290: b927 853e d487 6d3e afff 413e cab8 213e
000002a0: 1408 fb3d 2bf0 943e a457 56be 4348 163d
000002b0: 524e 863e a5e2 eabc dd03 8fbd b4dd fdbd
000002c0: f0a6 e53e b93b d33e 1342 963d a71a 933d
000002d0: 3897 d9bd b1ab 013d 556b 1f3e 1c25 97be
000002e0: cdd5 86be db57 5abd 6c4f 883e e8bb 023e
000002f0: eb6a ac3e 46e3 d23d b320 ca3d 3d5d 1f3e
00000300: 25e6 8e3f 8811 933f 0de9 783f 1486 853f
00000310: 7435 823f af43 393f 61b7 773f d113 993f
00000320: 396e 853f 16fb 6d3f 131d 783f 890e 823f
00000330: 4110 643f 2b35 223f ccfb 8f3f 7756 5e3f
00000340: f31d 463f 40ef 493f fb65 883f 8a61 3a3f
00000350: 6f3b 7e3f 0ecd 783f ce3f 743f f0c2 7f3f
00000360: d9b6 5d3f 084f 353f fa5e 9b3f c65f 7d3f
00000370: 2be3 5d3f 98ff 8d3f abdc 893f f852 893f
00000380: 2014 0d3e 072d 8f3e ac0f bb3d 73a0 20be
00000390: 2136 a2bc e438 323e c331 813e f6c0 79bd
000003a0: c1b5 07be bca1 253e 1b66 8fbe 8301 7fbd
000003b0: a821 e0b9 309c 023d 7a69 8fbd 7690 1dbe
000003c0: 670c 753e 2c82 ff3d 5ee6 ccbd b49d 6b3e
000003d0: 2c7a f0bc 9a6a a93d 26a4 15bd af40 a73e
000003e0: 888e 633d 18e4 1e3e de8c 683d f486 0dbd
000003f0: d99e 58be d3ab 503e c90d cebb f5f3 f93b
0.109702654 0.11273975 -0.04161602 0.1285215 0.004227586 0.041829742 0.28831348 0.16914319
0.37551576 0.09603431 0.28110516 0.14425334 -0.072635375 0.065715164 0.2092105 -0.21588282
0.24543963 0.18469039 0.06352015 -0.0025307783 0.072450355 0.010498736 -0.14809 0.085292794
-0.21642454 0.08051652 0.045945324 0.1030099 -0.06808897 0.024847703 0.070631556 0.06051784
0.14199305 0.3114274 0.05446096 -0.024673583 0.26006868 0.23196346 0.18945192 0.15793148
0.122574 0.29089484 -0.2093187 0.036690008 0.2623163 -0.028672526 -0.06983159 -0.12395802
0.44853926 0.41256502 0.073368214 0.07182818 -0.10624546 0.03165788 0.15568288 -0.295205
-0.26334992 -0.05330644 0.26623094 0.12766993 0.33675322 0.10297255 0.09869518 0.15562911
1.1163985 1.1489725 0.9723061 1.0431542 1.0172563 0.723689 0.9676419 1.1959172
1.0424262 0.9296125 0.96919364 1.0160686 0.890873 0.6336238 1.1248717 0.86850685
0.7738945 0.7888069 1.0656122 0.7280508 0.9930944 0.9718789 0.9540986 0.99906826
0.8660713 0.7082372 1.213836 0.98974264 0.86674756 1.1093626 1.0770468 1.0728445
0.13777208 0.2796404 0.091338485 -0.15686207 -0.019801201 0.17404515 0.25233278 -0.060975038
-0.13252927 0.16174978 -0.28007588 -0.0622573 -0.00042749685 0.031887233 -0.0700254 -0.15387139
0.23930512 0.12476 -0.100048766 0.23009378 -0.029355131 0.08272286 -0.036533497 0.32666537
0.05555585 0.15516698 0.056774966 -0.03455253 -0.21154346 0.20378046 -0.0062882644 0.007627959
0.109702654 0.11273975 -0.04161602 0.1285215 0.004227586 0.041829742 0.28831348 0.16914319
0.37551576 0.09603431 0.28110516 0.14425334 -0.072635375 0.065715164 0.2092105 -0.21588282
0.24543963 0.18469039 0.06352015 -0.0025307783 0.072450355 0.010498736 -0.14809 0.085292794
-0.21642454 0.08051652 0.045945324 0.1030099 -0.06808897 0.024847703 0.070631556 0.06051784
0.14199305 0.3114274 0.05446096 -0.024673583 0.26006868 0.23196346 0.18945192 0.15793148
0.122574 0.29089484 -0.2093187 0.036690008 0.2623163 -0.028672526 -0.06983159 -0.12395802
0.44853926 0.41256502 0.073368214 0.07182818 -0.10624546 0.03165788 0.15568288 -0.295205
-0.26334992 -0.05330644 0.26623094 0.12766993 0.33675322 0.10297255 0.09869518 0.15562911
1.1163985 1.1489725 0.9723061 1.0431542 1.0172563 0.723689 0.9676419 1.1959172
1.0424262 0.9296125 0.96919364 1.0160686 0.890873 0.6336238 1.1248717 0.86850685
0.7738945 0.7888069 1.0656122 0.7280508 0.9930944 0.9718789 0.9540986 0.99906826
0.8660713 0.7082372 1.213836 0.98974264 0.86674756 1.1093626 1.0770468 1.0728445
0.13777208 0.2796404 0.091338485 -0.15686207 -0.019801201 0.17404515 0.25233278 -0.060975038
-0.13252927 0.16174978 -0.28007588 -0.0622573 -0.00042749685 0.031887233 -0.0700254 -0.15387139
0.23930512 0.12476 -0.100048766 0.23009378 -0.029355131 0.08272286 -0.036533497 0.32666537
0.05555585 0.15516698 0.056774966 -0.03455253 -0.21154346 0.20378046 -0.0062882644 0.007627959
