results/FullyAbstract/bachelor/bachelor-10499999.onnx (onnx, 76519 bytes, 9 tensors)

network_body._body_endoder.seq_layers.0.weight f4 [64, 7]
00000000: 5408 31be a826 fe3e f382 753e 7ca0 73be
00000010: ae76 1b3e ab4e 00ba abda 62be fafb b9be
00000020: 99a7 213e 2187 f63d 991d 07bd c0ab 8bbd
00000030: a4d4 623d 19f6 0cbf 5a6d 55bd 1380 283e
00000040: 2eb0 3abe ae30 f43e 49ad ea3e 5a21 a63e
00000050: 7bdf f83c b18a 103f c6cc e3bd 8c9d 093e
00000060: 19c4 7ebe f113 173f 71a8 61be 478f 923e
00000070: dfc4 9fbd 1a93 3d3e 1ccf 3f3e 4dc1 49bc
00000080: 03ea 8fbd 92c6 ecbb 6655 81be 8663 9dbe
00000090: 13aa 10bd 881d d6be a8ac cd3e 185f 22be
000000a0: 42c8 9f3e 1394 a53e 19cc 423e d5d9 c93e
000000b0: b3c3 0cbe 8cc3 efbd 2756 16be 874b 203f
000000c0: 9b44 8b3d 1f21 4e3d c5ed 37be e00f aabd
000000d0: 9a11 5a3e 13ab 15bf 9f1d 11bd a0b1 823e
000000e0: be0a e63e a2d1 c53d 38cf 893e b5cd 46be
000000f0: d375 553e 0a49 11bd b4fc 41be 3d7a 9ebe
00000100: 18e8 843e eff3 a53e ba4c 3b3d e26e bfbe
00000110: 94a2 eabe 4964 e33d ee27 783f a390 433e
00000120: acb1 fcbe 20db b5bd 263b 0fbf 9b63 12bf
00000130: f070 b03e 2003 bebe e044 29bf abff cf3e
00000140: d686 03bb 7935 2bbe b1f8 ffbe 5c18 0d3e
00000150: 16fd 92be fa04 133f 3083 2fbf 80f5 01bf
00000160: c503 82be 7de7 0fbf 8a6d ccbe 8583 83bf
00000170: dbca 243e 6d5a 843e 6d82 e83e baa5 5b3d
00000180: 288d 863e 8a7d fcbd 7b22 d83e 64a6 3a3f
00000190: 1724 e8be 6a33 9ebe 89c8 47be 1fc4 71be
000001a0: abd4 efbe 7f93 953e 1567 363f b075 183f
000001b0: 4ec0 83be b01d 8ebe f8dc b3bc c18c 12bf
000001c0: d461 9ebe 712b 50be 58d9 00bf 87b9 0f3e
000001d0: 04b7 c13e a7ab e2be 4b3c 11bf fde4 073f
000001e0: 875a 81be a125 033f 9bbf a83e 41ce a93e
000001f0: 6229 933d eea8 773d 84a7 d0be 42f1 54be
00000200: 16f9 823e f480 a8bd 5ba8 87bc 2e68 66bd
00000210: 3018 df3e e774 f13e c49a 08bf 1f9f 793e
00000220: 96e2 303f 9ef0 92bd d494 78be d5f1 c93e
00000230: 1582 9f3e 119a c4be 2c52 1bbe 3e3d 9d3e
00000240: d817 073e 78e5 d23e 19be 243e d1a0 02bf
00000250: 8775 9c3e 9e1d e2bd c0dd 53be 8722 46be
00000260: 4b5d 963d 2f5f 9fbe 0a12 cfbe 9409 37be
00000270: e320 013f d8fe d43e 266f 49be a5eb 133e
00000280: a2d2 89be 43a2 00be 1723 05bf 626a 1dbf
00000290: 4353 36bc 1461 0abf 901b c13e 1949 85be
000002a0: d63a d13e 873e 363d c11e f83a 631c df3e
000002b0: f5f5 9d3e f4cf a73d e200 c23d 1d28 38bf
000002c0: ff1e a5bc 4020 db3e f73c 163f 99c7 6b3e
000002d0: 4ba1 06be e246 7dbe 2e04 7cbf 00f7 6d3e
000002e0: b58e b7bd 8bc1 bebe 39c5 053e a2cd 3e3c
000002f0: 2ddd 73bf 976f 2e3f 6a2d 423e 5525 f4be
00000300: 7b28 253c 0bcd 4abe ea32 20bb e79b c93e
00000310: b1db c13e bedc 6b3d d57a 8c3e a54e 2d3f
00000320: 5245 cd3d ee86 cc3e fbdf b7bd 0263 0f3f
00000330: cb3c 7d3c b9af adbc f5f6 d0be 740c be3d
00000340: a98c 263d 8bea 26be 71a7 cd3e 33a3 093f
00000350: 7ccd f6bd 2b4c abbe 08c4 5d3c 2c4d f13d
00000360: d39b 3cbe 480d a5be aef3 3abe 0010 293f
00000370: ea8b c63c 1a5e 403e bb66 cc3d c7a8 ecbd
00000380: 16e5 393f c532 6bbe 14e9 4abf 1f23 013f
00000390: f3e6 0b3e 4cc5 213e ddf5 993e c62a abbe
000003a0: e4c2 6fbe e1fd 773e 2942 06be ea0b 45bd
000003b0: 806b 883e 9589 1e3f 2fc6 1abd da5f e2be
000003c0: cb16 20bf 29d5 933d 905d dc3d 9578 743e
000003d0: 8797 3f3d 8ff6 2c3e d63e aabe 77a7 debe
000003e0: 301a 5fbe 5b74 3cbf 3a89 a5bc 7538 cabe
000003f0: 3e80 1ebf 0a77 783e 1b8f 143f c25c 0ebf
-0.17288333 0.49638867 0.23975734 -0.23791689 0.15181991 -0.0004894535 -0.22153728 -0.36325055
0.1578659 0.120374925 -0.03298721 -0.06819868 0.05537857 -0.55063015 -0.05210624 0.16455106
-0.1823127 0.4769339 0.4583533 0.3244732 0.030380001 0.56461626 -0.11123042 0.13439006
-0.24879493 0.59014803 -0.22036912 0.28624937 -0.07801222 0.18513146 0.1873135 -0.012314153
-0.07027056 -0.00722582 -0.25260466 -0.30739993 -0.035318445 -0.41819406 0.4017079 -0.15856588
0.31207472 0.32339534 0.1902317 0.39424005 -0.13746528 -0.117072195 -0.14681302 0.62615246
0.06800195 0.050324555 -0.17961796 -0.08303809 0.21295777 -0.58464164 -0.03542864 0.25526142
0.4493007 0.09659125 0.26915908 -0.19414409 0.20845728 -0.035470046 -0.18944055 -0.30952635
0.25958323 0.3241267 0.04572747 -0.37389284 -0.45827162 0.11103112 0.9693593 0.19098143
-0.49354303 -0.088796854 -0.5594963 -0.57183236 0.34461164 -0.3711176 -0.6612072 0.40624747
-0.0020069382 -0.16719617 -0.49994424 0.13778824 -0.28708714 0.5742947 -0.6855955 -0.5076523
-0.253935 -0.562126 -0.39927322 -1.0274512 0.16093008 0.2585024 0.45412007 0.053624846
0.2627957 -0.12328632 0.42213807 0.7291014 -0.45340034 -0.308986 -0.19510092 -0.2360997
-0.4684194 0.29214093 0.7125104 0.59554577 -0.25732654 -0.27757025 -0.021955952 -0.57246023
-0.30934012 -0.20329072 -0.5033164 0.14035617 0.37834942 -0.44271585 -0.56732625 0.53083783
-0.2526438 0.5122929 0.32958683 0.33165172 0.071856275 0.06046384 -0.40752804 -0.20795158
0.25580662 -0.08227721 -0.01655977 -0.056251697 0.4357314 0.47159502 -0.53361154 0.24377106
0.6909574 -0.071748 -0.24275523 0.39442316 0.31153932 -0.38398793 -0.15168065 0.30710787
0.1319269 0.41190696 0.16088142 -0.51026636 0.30558416 -0.11040805 -0.2069006 -0.19349109
0.07342013 -0.31127307 -0.4044345 -0.17874748 0.50440806 0.4160068 -0.19671306 0.1444536
-0.26918513 -0.12561898 -0.5200667 -0.6149045 -0.01112825 -0.5405438 0.3771634 -0.26032332
0.408652 0.044493224 0.0018930064 0.43576345 0.30851713 0.08193961 0.09472825 -0.7193621
-0.020156382 0.42798042 0.58686775 0.23025359 -0.13147466 -0.24734071 -0.9844388 0.23238754
-0.08962766 -0.37257037 0.13063516 0.011645706 -0.9525936 0.6813902 0.18962637 -0.47684732
0.010080452 -0.1980478 -0.002444441 0.39376757 0.37862924 0.057583563 0.27437463 0.6769813
0.100229874 0.39946693 -0.08978268 0.5601045 0.015456389 -0.021201955 -0.40813413 0.09279719
0.040661488 -0.16300409 0.4016681 0.5376465 -0.12050912 -0.3345655 0.013535507 0.117822975
-0.18418817 -0.32236695 -0.18257019 0.6604004 0.024236638 0.18785897 0.09980532 -0.11555629
0.7261518 -0.22968586 -0.792619 0.50444216 0.13662319 0.15797919 0.3007039 -0.3343107
-0.23414189 0.24217941 -0.13111176 -0.048107065 0.26644516 0.61928684 -0.03778666 -0.44213754
-0.6253478 0.072183914 0.10760033 0.23874123 0.046775367 0.1689093 -0.33251065 -0.4348714
-0.21787333 -0.73615044 -0.020207036 -0.39496198 -0.6191443 0.2426416 0.5803086 -0.5561029

network_body._body_endoder.seq_layers.0.bias f4 [64]
00000000: b6be 533e 9496 b9bd 9e5e 31bb 2163 edbd
00000010: d7b8 76be 623f 403d 9b99 883d d6f8 0b3d
00000020: a614 b3bb e3fa 5dbd bcb4 c63d c320 42bd
00000030: c79e e83c 5225 d5bd b67a 2a3e f99a 513d
00000040: f2d7 6dbd cfbc 3c3d 43aa 8bbc 818b 873e
00000050: 2253 83bd fd42 1abe af72 7d3e 54a1 243b
00000060: 978b 0dbe fbdd 9fbd 2899 91be 002f cc3d
00000070: a7fc efbd 8f12 13bd 1d30 cd3d ea0d 5d3e
00000080: a6f9 703e 5d1f 4d3c f4d8 d7bd 622d 973b
00000090: dd83 d93d 741d e4bd d06b e0bd 1698 a0bd
000000a0: ec97 153e 20dd 41be 71f6 6b3d fb14 fc3d
000000b0: 62b0 7bbd 7714 393d 55de 4bbd 6d1e 64bd
000000c0: d123 4d3c 389c a5bd 1732 34bd 8007 10bc
000000d0: 7e69 1a3e 49c2 66bd c07f 11bd af3b 353c
000000e0: 14c5 f33b 0631 263d 5626 8bbb 0130 d5bd
000000f0: f6b2 283d 3687 553c 9308 683c 8859 d4bd
0.20678219 -0.090619236 -0.0027064453 -0.11591173 -0.24093948 0.046935447 0.06669923 0.034172855
-0.005465108 -0.054194342 0.09702441 -0.047394525 0.028396023 -0.10407509 0.16648373 0.051173184
-0.05806727 0.0460785 -0.01704896 0.2647362 -0.06412341 -0.15064617 0.2475078 0.0025120573
-0.1382278 -0.07806011 -0.2843716 0.09969902 -0.117181115 -0.03590637 0.100189425 0.21587339
0.23532733 0.012519685 -0.105394274 0.0046135643 0.10620854 -0.1113843 -0.109580636 -0.07841508
0.14608735 -0.18932009 0.05760807 0.12308689 -0.06144751 0.045185532 -0.04977258 -0.05569308
0.012520746 -0.08086437 -0.043993082 -0.008790851 0.15079305 -0.05633763 -0.035522223 0.011061593
0.007439265 0.040574096 -0.0042465134 -0.10409547 0.041186295 0.013032725 0.0141622005 -0.10368639

network_body._body_endoder.seq_layers.2.weight f4 [64, 64]
00000000: 72fb 78be 72b5 f33d 4966 283e 7562 993d
00000010: cef1 003e c718 923d cb19 34bd c9d2 3c3e
00000020: a506 e2bc e9c2 7ebc 3343 1c3d 8154 19bd
00000030: d651 f0bd 0b18 3a3e 07a8 993c 4ccd eebd
00000040: 4d5a 753e ebc8 843e faa3 953d 3cff 003e
00000050: 0d87 453e df9d 49bd bde4 73bd 351a 313e
00000060: 635d 203c ecf6 513e 0bf7 bd3b eb45 ab3e
00000070: 7eb2 693e b297 223e e13f 91bb d6b5 70be
00000080: c03c 8d3e b236 1a3e dad0 f83d 3e1d b43d
00000090: b1bf 6fbe f339 12bd da14 173e 70e2 8b3d
000000a0: c888 55be b58a af3c 523b 8bbe ab3a 10bd
000000b0: 5af9 8abc a165 3a3e 9d17 b63e 9f82 483d
000000c0: 2561 133e 3eba 3d3e 45dd afba c44d 1d3e
000000d0: 7874 023e 67b0 4bbc a21e 6abd 7997 e0be
000000e0: 7223 53bd cd16 a63d 43e8 04be 9aa8 96be
000000f0: 7560 a1bd c711 debc df96 87bd 90f7 4e3e
00000100: 9944 dabd 7cc8 f63b ad01 4abe 5b1f e8bd
00000110: e257 2b3e 3932 eeb8 6aa1 e1bd 5a6f a9bd
00000120: 8145 893d bb36 9bbd 6d37 efbd f1da 8d3e
00000130: cac5 413e 479a 133e 13e5 57be 4dca 54be
00000140: b256 723d 061c dcbd 70be 133e a32a 803c
00000150: 04a6 023e 783b 2e3e 1187 633d dfa2 8abe
00000160: b6b2 2fbd 46ec 823e 4a3f b43e 25dc f1bd
00000170: dcd4 71be 4c24 7a3d 8223 21be 24f2 113e
00000180: 60b7 d2bd 36ec 193e d8f7 793d f83d a43d
00000190: f97d d03e 4c7c eb3d 6efb 2f3e acbc 283d
000001a0: 5fca fe3c d81a d43d 68a7 493e 585f e7bc
000001b0: e966 53bd 1ad8 03bd 5764 3ebd c464 6e3d
000001c0: fd3c f53c 3c80 6abc 7d87 1dbe 7cb5 cfbc
000001d0: a62e 81bd ccf7 b1bd cb4d c33b 3af0 563d
000001e0: 0d27 753d c0c0 85be a33c 39bd 08ca 8f3e
000001f0: 14a7 31be 194c 1ebe 0632 813c 9c3d 953e
00000200: 5bf7 5b3e 66ca 08bd de08 14bd ed57 183e
00000210: 7fb1 edbc 6b75 3d3d b6c5 9e3d afdd ea3d
00000220: 9d90 56bd 6692 74be 26cd 17be 8625 353e
00000230: ee6d 86bb 9c26 2abe b199 aebc ec02 d9bd
00000240: 3f6d 163d 8a37 bcbc 65af 79be e612 4f3d
00000250: 61fc 9bbd a661 46bd 07e5 863d 434b 4c3e
00000260: d034 9dbc 5989 853c 93d9 913c 655d 15be
00000270: 5b78 0a3e 3092 d9bd d232 9b3d d69c 18be
00000280: 3742 cc3e 030f 8bbe 75c1 263e 5726 8ebc
00000290: 0e31 94bc ea32 e33d e50f e9bc e3f5 70be
000002a0: 4fd3 17be 50e4 c53c 1d2d aebc ef9f b3bc
000002b0: e2cc 853d 41ae 183e 9a5e c13e 1ba0 243d
000002c0: b430 663d e60d b23c 24fe 8e3e 68bb 623e
000002d0: 460a 8e3e 4bec 9cbe 497d 0abd 7390 aa3d
000002e0: 9f88 c73c 15c4 ca3e 7672 bbbd e5c3 0c3e
000002f0: 4f19 243d 5c2f afbd 0298 743d 52f6 5c3d
00000300: a6f3 733e f61d 293e aaf2 153e 4cd3 3abc
00000310: f589 ab3d ce87 3d3d ae8f 533e 3de8 7fbe
00000320: 0b3f 2f3d df46 69be cb78 db3e 4f47 863d
00000330: 114e 613e 08d8 1c3e 725f 543e 53cf c53d
00000340: 0386 5d3e 1428 c83b 6319 5ebc 2f26 4fbe
00000350: 6f85 9fbd 839a 833d 44e7 aabe 5dab 1b3d
00000360: d8e9 ed3d 9ee6 093d 4b6e 54bc c536 453e
00000370: 81a6 f9bd d9ed fb3d 2df7 bd3d a12b 0abe
00000380: 118a b4bd 223f d83d fde3 063c b183 a33e
00000390: 5e97 07be 26e6 08be b10d 6cbd 279c 303d
000003a0: c86b c33d 2bbf 703e 44c1 803e bab4 e63d
000003b0: 444b 2f3d 30b2 9fbe abf8 88be c47a a83b
000003c0: a118 09be a619 213e b654 3ebe eca6 0e3d
000003d0: fcfa 93bd 13dc 0abe f4f6 a53e c452 05bc
000003e0: d6c7 19be 413d 3ebe c029 863e 8ad2 0c3e
000003f0: 2ad2 8f3d 367a 8b3e 3453 353e e01d 123d
-0.24314669 0.11899842 0.16445269 0.07489482 0.12592241 0.07133632 -0.04396991 0.18439783
-0.027591059 -0.0155494 0.038150024 -0.037434105 -0.11734359 0.18173234 0.01875688 -0.11660251
0.23960228 0.25934538 0.07306667 0.12597364 0.19289799 -0.049222823 -0.059544314 0.17295153
0.00978789 0.2050435 0.005797272 0.3345178 0.22821996 0.1587818 -0.004432664 -0.23506865
0.2758541 0.15059927 0.1214921 0.0879464 -0.23412968 -0.035699796 0.14754048 0.06830299
-0.20852959 0.021428445 -0.27193695 -0.0352122 -0.016964603 0.18202831 0.3556489 0.048952695
0.14392526 0.18528077 -0.0013417384 0.15361696 0.12739742 -0.012432194 -0.05715812 -0.43865564
-0.051547475 0.08109818 -0.12979226 -0.29425508 -0.07879726 -0.027108086 -0.06620573 0.20211625
-0.10657615 0.007531224 -0.19727202 -0.113341056 0.16732743 -0.00011358079 -0.110171154 -0.08273192
0.0670271 -0.075787984 -0.116804935 0.27706102 0.18923107 0.14414321 -0.21083479 -0.20780297
0.05916471 -0.107475325 0.14428115 0.01564533 0.12758642 0.17014873 0.05554873 -0.27077386
-0.04289504 0.25570887 0.35204536 -0.11809567 -0.23616356 0.06106977 -0.15736201 0.14252526
-0.10288882 0.15031514 0.061027378 0.08019632 0.4072111 0.11498317 0.17185757 0.041195557
0.031102357 0.103566825 0.19692767 -0.028243706 -0.051611815 -0.032188512 -0.04648241 0.058201566
0.029936308 -0.0143128 -0.15383716 -0.025355093 -0.063077256 -0.08689842 0.0059602014 0.05247519
0.059851695 -0.2612362 -0.045223843 0.28083825 -0.17348891 -0.15458716 0.015770923 0.29148567
0.21481077 -0.033396147 -0.03614127 0.14877291 -0.0290153 0.046254557 0.07752554 0.11468064
-0.052384008 -0.23883972 -0.14824352 0.17690095 -0.00410246 -0.16616291 -0.02131352 -0.105962604
0.03672528 -0.022975702 -0.24383314 0.050555132 -0.07616497 -0.04843297 0.06586652 0.19950585
-0.019190222 0.016300844 0.017803943 -0.14586408 0.13522474 -0.10623586 0.075780526 -0.14903578
0.39894268 -0.2715989 0.16284736 -0.017352266 -0.018089797 0.110936955 -0.028449962 -0.23531298
-0.14826702 0.02415672 -0.021261746 -0.021926848 0.06533219 0.14910223 0.37767488 0.04019175
0.05619879 0.021735143 0.2792827 0.22141802 0.27742213 -0.30649027 -0.033810887 0.08328333
0.024357138 0.39602724 -0.09152691 0.13746603 0.0400632 -0.08553955 0.05971528 0.053945847
0.23823413 0.16515335 0.1464335 -0.011402916 0.083759226 0.04627209 0.20660278 -0.24990936
0.04278473 -0.22780941 0.42865595 0.0655657 0.22002436 0.15316784 0.20739534 0.096586846
0.21633153 0.0061082933 -0.013555857 -0.2022941 -0.07789122 0.06425955 -0.33379567 0.03800522
0.11616868 0.0336672 -0.012965749 0.19259174 -0.12189961 0.12301225 0.09275661 -0.13493206
-0.088153966 0.10558917 0.008233068 0.3193641 -0.13241336 -0.13369045 -0.057630245 0.04311767
0.09542042 0.23510425 0.2514745 0.112649396 0.04279639 -0.31190634 -0.2675222 0.005141588
-0.13388301 0.1573244 -0.18587002 0.034827158 -0.07225606 -0.13560514 0.32414973 -0.008137409
-0.15017638 -0.18578054 0.26203728 0.1375219 0.070225075 0.27241677 0.1770752 0.035673022

network_body._body_endoder.seq_layers.2.bias f4 [64]
00000000: 4695 17be 5cea 87bd ea64 3b3c 174a 143e
00000010: f5dc cf3c 6bd0 5b3e 9ff3 123e 6c63 af3d
00000020: 3fc8 863c 0fee 10bc 66ba 123c 3cba cfbc
00000030: 603c 7cbd f124 0ebe 35e7 c9bd 030e 87bd
00000040: b7ea a93d cb93 ec3d 27ba 0bbb 285a 803d
00000050: 182c f03d 126c b5bc 9dea 393d 31e5 4a3d
00000060: 0bd2 413d c017 da3d 3d33 60bd a425 51be
00000070: 2b59 1ebc e819 23be a45a 68bc 4892 993d
00000080: 6aad adbd 1a58 3bbd 22e2 363d 6280 963d
00000090: 0cc2 3dbd 1c7c d43d a65b 1a3d 2031 063e
000000a0: e9ef 9a3d e1a6 84bd 72a0 8f3d 9039 b63d
000000b0: e00e 213d 710e cd3d aa66 5dbc c398 9d3d
000000c0: 446e 07be 81db 463e 6240 b73c e7c8 4e3c
000000d0: 17ab 743d d960 f63b b294 543e 9b44 983d
000000e0: 5444 f63c 96d4 ed3d eb75 9c3d 62c0 1abd
000000f0: 44a7 bcbd 8c17 9b3d 04cf c53d 97ab 503e
-0.14803037 -0.066364974 0.011437634 0.14481388 0.025373915 0.21466224 0.14350747 0.08563885
0.016452907 -0.00884582 0.008955574 -0.025357358 -0.061581016 -0.1388128 -0.09858552 -0.065944694
0.082967214 0.11551627 -0.0021320672 0.06267196 0.1172716 -0.022146259 0.04538976 0.04953498
0.047319453 0.10649061 -0.054736365 -0.20424515 -0.009664814 -0.15927851 -0.014181767 0.07498604
-0.08480342 -0.045738317 0.04464925 0.07348706 -0.046327636 0.103752345 0.03768506 0.13104677
0.075652905 -0.06477142 0.070130244 0.08897698 0.039320827 0.1001252 -0.013513247 0.076951526
-0.13225657 0.19419672 0.022369567 0.012621141 0.059733476 0.0075188694 0.20759848 0.074349605
0.030061878 0.11612813 0.076396786 -0.037781127 -0.09211591 0.075728506 0.09658626 0.20377956

action_model._discrete_distribution.branches.0.weight f4 [4, 32]
00000000: 9941 d8bf 4191 10bf 96d6 543f 43f1 883d
00000010: e7f5 2bbd 2879 233f 45ae 0c3e 644c 6d3e
00000020: fab5 81be a1d3 a13e 8ec5 723f d75b 643e
00000030: bdce 07bf 4c91 b7bf 54b6 0ebe 806c ce3e
00000040: 0601 753e 9de1 ea3e 2f12 4a3f 4912 13be
00000050: aaa1 9bbf 5bdd 51bf ab08 70bc 9582 9d3e
00000060: 7e6e 63be bead 16bf da6f 36bf f99a 0b3e
00000070: 295a 823e c182 323f d038 2f3f 58e2 3a3e
00000080: 144c c83e e512 a0bd 23be c83c e74e 1b3e
00000090: 3df7 f5bd 887e 74be fa1f 0a3f 4dd5 eabe
000000a0: e762 183f db43 06be 169c 1cbf 1a0d cabe
000000b0: 2ef9 383e bd6b 223e 25f2 c4bd 50db 52bd
000000c0: 5fdf 9b3e faee 89be 85e1 203e c0da febd
000000d0: c77d 213f ea12 053f d140 00be 1b75 80be
000000e0: 73d3 f33a 4627 3b3d 11fb 313f 0694 183e
000000f0: aa61 03be c3e9 96be 62f8 36be 790a b33d
00000100: c915 393f d834 4e3e 6efb f1be 686e 49be
00000110: 6e2d f03e a8c9 88be a714 26bf 48ff 343e
00000120: 29f4 08be c3b8 23be 90a0 47be f5aa bbbe
00000130: 34bd bc3e 2e53 7e3f 559e 39bd d27a 3a3e
00000140: b7eb 88be 8598 ebbd b312 1bbf e970 c5bd
00000150: 69b9 e43e 8ada 52be b9db dcbd 5574 df3e
00000160: 8ada 963e d7af 2fbe c58c 80be e715 1fbf
00000170: 5bb6 5fbd 6a94 38bd c56f d2bd 85b8 753d
00000180: c2d2 813f c776 8a3f 894c 3abf a4fc c4bd
00000190: 0463 3bbf db64 adbe 741c 55be 1e35 fb3c
000001a0: a86a 11be 217e 3b3d 6a3b c2be 63f5 d83f
000001b0: 1097 713e f545 2e3f 9557 013f 7ec1 a8bf
000001c0: 403a 18bf a7a1 0abe 7fe8 96bf f2fc 803f
000001d0: fc75 da3e e9dd 2d3f 9922 ee3e 8974 b9bf
000001e0: 7990 57bd 7e66 713f 7188 7f3e de0a 4b3f
000001f0: a73d 38be 7c81 34bf 0612 77bf 9f5a 12bf
-1.6895019 -0.5647164 0.8313993 0.06686642 -0.041982558 0.63856745 0.13738354 0.23173672
-0.2533415 0.31606773 0.94832695 0.22300659 -0.5304983 -1.4341216 -0.1393674 0.40317154
0.23926172 0.45875254 0.78933996 -0.14362444 -1.2158711 -0.81978387 -0.014650504 0.3076369
-0.22210118 -0.5885886 -0.7126442 0.13633336 0.25459412 0.69730765 0.68446064 0.18250406
0.39120543 -0.07816104 0.024504727 0.15166818 -0.120100476 -0.23876393 0.5395504 -0.4586586
0.59525913 -0.13111822 -0.6117567 -0.3946312 0.18063805 0.15861411 -0.09616498 -0.051478684
0.30443856 -0.26940137 0.15711029 -0.12444067 0.63082546 0.51981986 -0.12524725 -0.25089344
0.0018602445 0.04569175 0.6952372 0.14900216 -0.12830225 -0.2947522 -0.17868188 0.08742232
0.72298867 0.20137346 -0.47262138 -0.19671023 0.4690966 -0.26716352 -0.6487526 0.17675507
-0.1337439 -0.1598845 -0.19494843 -0.36653867 0.368631 0.9934567 -0.045317013 0.18210915
-0.26742336 -0.115037 -0.6057541 -0.096406765 0.44672707 -0.20591179 -0.10784096 0.43643442
0.29463607 -0.17156921 -0.251074 -0.62142795 -0.054617267 -0.045063414 -0.102752246 0.059990425
1.0142443 1.0817498 -0.72773033 -0.096185 -0.7319796 -0.3386601 -0.20811635 0.030664977
-0.14200842 0.045774583 -0.37935954 1.6949886 0.23592782 0.68075496 0.50524265 -1.3184049
-0.5946388 -0.13538228 -1.1789702 1.0077193 0.4266814 0.67916733 0.4651077 -1.4488689
-0.052628014 0.94297016 0.24954392 0.79313457 -0.17992269 -0.7051008 -0.96511877 -0.57169527

action_model._discrete_distribution.branches.0.bias f4 [4]
00000000: c6da 0640 8f36 87bf 359a 9bbd 72cd e3bf
2.1071029 -1.0563525 -0.07597772 -1.7797072

onnx::LSTM_98 f4 [1, 128, 64]
00000000: faf0 adbc 6e01 663e d1c4 463e b59b 7b3c
00000010: fbe2 65bc 38b9 81be eef7 413e e414 8bbe
00000020: 9a47 f6bd d3ae a83d 8d77 5dbd fe0a 033e
00000030: 3c86 75bc 0287 123e 61c4 53bc 7dbf a83e
00000040: 37a3 023e f7bd 23bd a984 a83d 9caa 58bd
00000050: c13c 1cbd 9eb8 13be 4ef1 05be cdf2 6ebd
00000060: f899 48be bc1b db3b 37c4 afbe 2593 d23e
00000070: d83f 313e 145e 093c 7bf5 bcbd 2ab3 7dbe
00000080: bbc6 2cbe 15cc c63c 952a 67be fa54 d93e
00000090: 3c1a 383e a7f0 5f3d b1ea 733e 877b d53b
000000a0: 84e9 5c3e b9aa 0a3e 8682 1abe af3f f2bd
000000b0: 3bd0 80be a0ac 74be d06c 7a3c 724a 82be
000000c0: 4b49 ef3d c5b8 9a3d ef0f 2a3e 8b25 d3bd
000000d0: 9922 3e3e 2692 80bb 4eb8 833d b67e c5bd
000000e0: 11c5 e43d 62db c33d 0f47 25bc b69c 773e
000000f0: aa1c 163e 3877 d5be cd21 0bbe 41aa 86bd
00000100: e374 16be 59fd 223e 328b ccbb d993 c9bd
00000110: f2dc b9bd ea28 fe3d da3a 78be 5365 c33c
00000120: bd4f 8bbe 7712 163d 227c a53e 7a92 233e
00000130: c9a4 8a3e 5da2 e33c 00f1 36be 1acf bdbe
00000140: 4fc1 dc3e a677 b9bd 4560 983e 23f7 69bd
00000150: 211d 6abe 511d 923d 3600 963e ba86 c5bc
00000160: d4b6 5b3e e09f 873e d17b 87be bc14 5a3e
00000170: 3187 2bbe b219 7dbd 4930 fe3b 0de9 b03e
00000180: e3cc da3e 5f61 643d 01cd 0ebb 81fb b0be
00000190: e345 393e a9a4 dd3d 15b4 b83c beb2 ab3e
000001a0: ca66 dfbd 3f40 8c3d aa62 703d df47 3b3d
000001b0: eea8 db3e 57a5 8e3e f793 e43d efbe 3f3d
000001c0: 71f0 b8bc 9003 87be dc96 273e 94e5 4fbd
000001d0: f3d9 4b3d 819f 1fbc 817a b43d fbea ac3e
000001e0: 0f36 d03d f649 593e 67ec 01be 84e0 d4bd
000001f0: 874a 983c fded 3a3c 64d1 183e 8a30 363c
00000200: 14e6 ff3c 6e9e b83e db07 063d 078e 54be
00000210: 8b9d 5e3e 6fe2 6ebe d165 363e 0f2b 023e
00000220: 16e2 30be cb45 4a3e d271 04be 9ba6 5fbc
00000230: 157f 6abe 9096 573e 7613 46bd 1105 1dbe
00000240: 37c5 513e 27e4 0c3e 7bc3 95be 2658 0cbe
00000250: 60b8 163e b951 a63e 043e 0bbe 4588 cdbd
00000260: 7a61 94be c29f a8bd 16cb 60bd dd3a e33d
00000270: a8fb 05be f45f a43b ead3 1cbe 3fd4 5bbe
00000280: 67db 63be eb25 893d 6f90 edbd ecb8 8c3e
00000290: 1913 673d 4f8c 4d3b 2296 6d3e 112c 33bd
000002a0: f778 613e a356 9abc f382 f1bd 3d97 63be
000002b0: 68ca 93be bd56 82bd 3ea6 b13d a1aa 51be
000002c0: 1342 7c3d 828d d8bc 8b8f 93bd 8244 9dbb
000002d0: b5c3 273e add8 0f3e 7ae1 3dbe f4f4 42be
000002e0: 9e76 7dbe 5c3d b73d cbab 9a3e 1b10 3f3e
000002f0: 60eb 22be 922e 16be 1032 eebd 05a7 f6bd
00000300: 3767 133e 74b9 963e 9959 0a3e 84cb 983d
00000310: 7222 083e 8cdc 393e d98a e13e 00a6 23be
00000320: 16c9 a3bc 4e59 153d 5b0a 093e 7087 38bc
00000330: 79f0 d2bd b9bd 433e 7b68 a5bd d686 833d
00000340: bc3b 2a3d 53fe e3bd eb17 273e ecc2 f1bd
00000350: 6563 d7bd 6ecb cebd d12f 21be 2441 cc3d
00000360: 8302 3bbb a63b 42bb b7b1 95be c030 24be
00000370: 28e5 ce3e 9a36 933d 04fd 50be 9a1f 82bd
00000380: f1fa 203e 0c7c d33c eea1 81bc 3093 ff3d
00000390: 4bb4 03bc dd94 bb3d c91c 1c3e b258 4cbe
000003a0: df75 243e c15e 16be d82a 47be 08f5 8a3e
000003b0: ee56 ccbd 9d8b 3dbe ad94 3cbe 77dd 683d
000003c0: 05f9 993e 870c 1bbe a4ea a93e 0687 023d
000003d0: 6b85 223e cec6 183e 553e 843d 1619 a3bd
000003e0: a07b 90bd e921 e8bd bde5 6e3e dc38 bc3d
000003f0: 1631 07be bdf9 d2bd 8838 82bd de7d 95bd
-0.02123307 0.22461483 0.19411017 0.015356948 -0.014031167 -0.25336623 0.18942234 -0.27164376
-0.12025376 0.0823647 -0.05406909 0.12797162 -0.014985617 0.14309314 -0.012925238 0.32958594
0.12757574 -0.039976086 0.08228428 -0.05289708 -0.038143877 -0.14425895 -0.13080332 -0.05833702
-0.19589984 0.006686656 -0.34329388 0.41127887 0.1730951 0.008384246 -0.09226509 -0.24775377
-0.16872685 0.024267236 -0.22574838 0.42447644 0.17978758 0.054672863 0.23819996 0.0065149697
0.21573454 0.13541688 -0.15088853 -0.11828553 -0.25158867 -0.23893976 0.015284732 -0.25447422
0.116839014 0.07554773 0.1660764 -0.10309895 0.18567885 -0.0039236723 0.06431638 -0.09643309
0.111704 0.09563328 -0.0100877425 0.24180874 0.14659372 -0.4169252 -0.13587113 -0.06575442
-0.14693026 0.15916957 -0.0062421793 -0.09842653 -0.09075345 0.124101475 -0.242412 0.023852026
-0.27209273 0.036638703 0.32321268 0.15973845 0.27078846 0.027787382 -0.17865372 -0.37072068
0.43116233 -0.09056024 0.29760948 -0.057120454 -0.22862674 0.07134498 0.29297036 -0.024112094
0.21456462 0.26489162 -0.26461652 0.21296972 -0.1675079 -0.061792083 0.007757221 0.34552804
0.4273444 0.055756923 -0.0021789672 -0.34566882 0.18093066 0.10822422 0.022546807 0.33534807
-0.10908277 0.068481915 0.058687843 0.04572284 0.4290232 0.2786052 0.111610346 0.046812948
-0.022575589 -0.26369905 0.16366142 -0.050756052 0.0497684 -0.009742619 0.08812428 0.33773026
0.10166561 0.2121962 -0.12687837 -0.103943855 0.018590225 0.01140928 0.14923626 0.011119971
0.03123764 0.36058372 0.032722335 -0.20757304 0.21739785 -0.23328565 0.17812277 0.12711738
-0.17273745 0.19753186 -0.12934044 -0.013650562 -0.2290004 0.21053529 -0.048358403 -0.15333964
0.20485388 0.13758908 -0.29250702 -0.13705501 0.14718771 0.32484224 -0.13597876 -0.10035757
-0.2898062 -0.082335964 -0.054881178 0.11095212 -0.1308428 0.0050163213 -0.15315214 -0.21467684
-0.22251664 0.066966854 -0.11599814 0.27484834 0.056414697 0.0031364148 0.23201802 -0.043743197
0.220188 -0.01884014 -0.11792555 -0.22225662 -0.2886536 -0.063642 0.08674286 -0.20475246
0.06158645 -0.026434664 -0.07205113 -0.0047994265 0.1638325 0.14047499 -0.18543044 -0.19038755
-0.2475228 0.0894725 0.30209193 0.18658487 -0.15910101 -0.14666203 -0.116306424 -0.12043575
0.14394842 0.29438365 0.13510741 0.074606925 0.1329439 0.18150538 0.44051245 -0.15981293
-0.019993346 0.03646212 0.13382857 -0.01126276 -0.10299773 0.19115342 -0.08076569 0.06422202
0.041560873 -0.11132493 0.16317718 -0.118047565 -0.10517005 -0.10097395 -0.15740897 0.09973362
-0.0028535433 -0.0029637604 -0.29237148 -0.16034222 0.40409207 0.07188149 -0.20409018 -0.06353684
0.15720727 0.025815986 -0.015824284 0.12479246 -0.008038591 0.09159253 0.15245356 -0.1995571
0.16060589 -0.14684583 -0.19449937 0.2714007 -0.09977518 -0.1851029 -0.1841609 0.05685183
0.300728 -0.15141498 0.3318683 0.03186705 0.15871207 0.14919588 0.064572014 -0.07963769
-0.070548296 -0.11334593 0.23329826 0.091905326 -0.13202319 -0.1030154 -0.06358439 -0.07299398

onnx::LSTM_99 f4 [1, 128, 32]
00000000: 3eea 90bd 05e8 f53e 3605 1c3e 8518 ce3d
00000010: 3ad5 603e eb59 7b3a 5ef4 2cbe 37a7 2fbd
00000020: 6727 253d 754a db3c 8a2b 883e a4b6 33be
00000030: 4d44 953e 9de7 57be c334 863e f4dd 4bbe
00000040: 33f3 01be 59bd 5bbe 857b 1b3e c64e f03c
00000050: 075e 1ebd fe83 1e3e 0c77 8a3d 3284 c6bd
00000060: f8b1 4abe 6d44 9c3b 1a3d b43e fd84 22bd
00000070: 1144 cabd 41eb 9bbe 0064 9cbe 49aa c8bb
00000080: 4408 573e fbab d13e faa5 ab3e d053 2dbd
00000090: 74a9 843c e1ed 593e e0bb dfbc 45c9 b5be
000000a0: a741 d8bd a9e3 cebd 7b7b 9ebe ac7e 08be
000000b0: 3edd 833e b0e6 663b c98d 23be 9f87 e03d
000000c0: 7114 14bd 1b92 4abe b132 923d 0fe0 54bd
000000d0: 3dfb 2a3e 7d5d b1be 65b1 443e 63a0 31bc
000000e0: 297c 1a3e 4108 00be 0c5f 44be 7e55 48bc
000000f0: 2be5 aebd 36fb e23d 5d7b 7abd 9658 8d3e
00000100: f8a0 f6bd e532 19be 08e9 69be 0c7e a6be
00000110: d06c ccbd 42a2 973e 5629 713d 6c7f 003c
00000120: 960f 47be a091 c4be 4ca0 863e 38fd 62bd
00000130: c1f8 85be 4d45 84be a44f 5c3e 7d1e b03d
00000140: 0417 7ebc 4fe6 81be 66d3 5abe ed63 e2bb
00000150: 410d 06be c30c 31be 3e37 15be 6e13 a7bc
00000160: f3f4 1d3e 2349 873e c5d2 95be 45dd db3d
00000170: 9dac d7be 5eaf a03d 0dfc b3be d008 cdbd
00000180: ecd3 f3bc 9a15 4f3e c5f3 78bd 06bf b73e
00000190: f338 823d 94f7 55be a6fa 823e 21f3 913d
000001a0: 221c 913d 37b4 55be c7ca d53e 09aa 623e
000001b0: 7e4c 60be 7e07 403e 92fd d3be 73df 3b3e
000001c0: e571 89be b544 703e d815 7cbc 6cd4 babd
000001d0: 660f c63e 5285 783d 1c0b 7dbe 8451 a5be
000001e0: 632f aabe af3b 9cbe 3741 9abe 78ff b8bd
000001f0: b8cc 933d 0629 dbbe 2cb8 c83b 5376 89be
00000200: cc8b d63d 27ce 8abc f3e5 e0bd 3ed0 7dbe
00000210: 081d 7a3e 085b 06bd 789d 81bd 6a26 713e
00000220: 468d 923e 4cdc 8cbd 8712 86bd f544 98be
00000230: 1e6b 523c db16 1b3e 52f1 26be 90da bbbd
00000240: a89e 243e b9eb c33e 6c37 fc3c 3743 ba3c
00000250: 445b 2bbd 0ab7 c33b b148 3a3e c92a 3c3e
00000260: 7aa2 d8be 81c3 1fbd 06cd 5fbe ed4d fe3d
00000270: 798e 92be 69d7 66bb b5ef 183e 2422 80be
00000280: eeaf 33be aefc b6bd de83 bf3e f7d2 c0bd
00000290: f56c ba3e bda6 763d 87af 7b3e 78e4 1fbe
000002a0: 0a0f e73d 420c 64bd 3706 a73d ddc9 e0be
000002b0: da9f b3be cc3d 203e 1f09 9c3d aeec 7b3e
000002c0: 4dcc 28bc 517c 923c bce9 113d f615 c7be
000002d0: d669 823e deb2 2b3e e0d4 a8be 5195 8d3c
000002e0: 97f4 1fbe 0d34 5abd f27e 993e c3ce f0be
000002f0: 3682 e6bd 20c6 e1bd 76eb 14be 2813 25bd
00000300: 0ef6 8bbe 0bbd 56bd a96e 2fbe 1270 a5bd
00000310: 6190 86be 13aa 15be 6f41 0e3e f3a4 b03e
00000320: 73d7 ae3e 4f8c 86bd d51a 443e 683a 813e
00000330: 32ef a7be b80b 24be d5ab b2be 837e 1c3e
00000340: f88d a33d dab8 babe b2aa c3bd 54b4 68bc
00000350: 6bfe 993e 7fe6 cebd 5fa8 cdbe c577 84be
00000360: b582 65bd 65c0 e0be ea74 023f d505 993d
00000370: ff00 513e 6c9c af3e 8701 0d3d bbc5 803e
00000380: 71c4 8bbe 4c1e 88be d659 f8bd d926 2ebc
00000390: 1102 d43c bfdf 533e 2587 fdbe 5d91 c7bc
000003a0: b6da e33e b2ba 87be b04d 073e 6bd5 333c
000003b0: d82f 84be 8bdd df3d 58d1 95bd ffa7 a8ba
000003c0: 2c7e 0cbe 4d31 81be c548 88bd c105 e13d
000003d0: 3360 f73e f75a 5b3e b10a 9cbe 3989 bc3d
000003e0: a4fe eabc 0d46 2bbe 3594 883e ba08 1ebe
000003f0: db85 3bbd 05c4 103e 63ff 513e 3a98 a7bc
-0.07075928 0.4802858 0.15236363 0.100632705 0.2195634 0.0009588289 -0.16890094 -0.042884078
0.04032078 0.026768902 0.26595718 -0.1755014 0.29153672 -0.21084447 0.2621213 -0.19908887
-0.1269043 -0.21458949 0.15183838 0.029334437 -0.03866389 0.15480039 0.06760988 -0.09693183
-0.19794452 0.004768899 0.35202867 -0.03967761 -0.09876264 -0.30452922 -0.30545044 -0.006123815
0.20999247 0.40951523 0.33525068 -0.042316258 0.016194083 0.2128215 -0.027311265 -0.3550512
-0.10559397 -0.101020165 -0.30953583 -0.13329571 0.25754732 0.0035232715 -0.15972055 0.10963368
-0.036152307 -0.19782297 0.07138575 -0.05197149 0.16697402 -0.34641638 0.19208296 -0.010841462
0.15086426 -0.12503149 -0.19176883 -0.012227414 -0.08539804 0.11083071 -0.061152805 0.27606648
-0.12042421 -0.14960821 -0.228428 -0.3251804 -0.09981692 0.2961598 0.05887731 0.00784288
-0.1943954 -0.38392353 0.26294172 -0.05541727 -0.26166347 -0.25834122 0.21514755 0.08599565
-0.015508417 -0.25371024 -0.21369705 -0.0069088847 -0.13090993 -0.17290024 -0.14571854 -0.020395007
0.15425472 0.26422986 -0.29262367 0.10735563 -0.4212388 0.07845949 -0.35153237 -0.100114465
-0.029764138 0.20223084 -0.06077935 0.35887927 0.063585185 -0.20895225 0.25581855 0.07126451
0.07085444 -0.20869528 0.4175627 0.22135176 -0.2190418 0.18752858 -0.41404396 0.18346958
-0.26844707 0.2346371 -0.015386067 -0.091225475 0.38683623 0.06067402 -0.24711269 -0.32288754
-0.33239278 -0.30514285 -0.3012788 -0.09033102 0.072167814 -0.42804736 0.0061254706 -0.26848087
0.10475883 -0.016944004 -0.10981359 -0.2478647 0.24425137 -0.032801658 -0.06328863 0.2354981
0.28623408 -0.06877956 -0.065465026 -0.2974011 0.012842922 0.15145437 -0.16302994 -0.09172547
0.16076148 0.3826578 0.030788146 0.022737129 -0.041835085 0.0059727477 0.18191792 0.18375696
-0.4231146 -0.039004806 -0.21855554 0.12417207 -0.28624323 -0.003522361 0.14935191 -0.25026047
-0.1754758 -0.089349136 0.37405294 -0.09415238 0.36411253 0.060217608 0.24578677 -0.15614498
0.11282165 -0.055675752 0.08155482 -0.4390401 -0.35082895 0.15648574 0.07618927 0.24602005
-0.010302615 0.017881544 0.035623297 -0.38883942 0.2547137 0.16767451 -0.3297491 0.017283114
-0.15620647 -0.053272296 0.29979664 -0.47032747 -0.112553045 -0.110241175 -0.14542946 -0.040301472
-0.27336162 -0.05242638 -0.17132057 -0.08078016 -0.26282027 -0.1461566 0.13892148 0.34500846
0.3414875 -0.065697305 0.1915086 0.25239873 -0.3279968 -0.16020095 -0.34896722 0.15282635
0.07986063 -0.36469156 -0.09554042 -0.01420315 0.30076918 -0.101025574 -0.4016752 -0.25872627
-0.056032855 -0.43896785 0.50959647 0.074718155 0.20410536 0.34299028 0.034425285 0.25150856
-0.2729831 -0.26585615 -0.1212651 -0.010629379 0.025879892 0.20690821 -0.4951717 -0.024361307
0.445028 -0.26509625 0.13213229 0.010976176 -0.25817752 0.10930928 -0.0731532 -0.001286745
-0.13720006 -0.25232926 -0.06654505 0.109874256 0.48315582 0.21421419 -0.30476907 0.09205861
-0.028685875 -0.16725941 0.26675573 -0.15433016 -0.04578195 0.14137276 0.20507579 -0.02045833

onnx::LSTM_100 f4 [1, 256]
00000000: 87b7 6e3c 5f32 7dbb 7f63 9c3b 2267 cd3d
00000010: e520 b43d bf69 ff3d e9b3 1e3d 19b3 f2bd
00000020: c900 c53d f0d8 9dbd bff2 f73c 3e32 f03b
00000030: 5f53 0abd 4b7e 823e e2bd 093e 3ac2 fa38
00000040: acbe 9c3d 548b 4cbd 2064 54bc a7f2 d23d
00000050: 5b82 683e 65f0 263d 9050 c03c 6bcb 903d
00000060: e8aa b83d cfbc 323e 467e 173e 9648 db3c
00000070: 5f52 cf39 5943 9fbd f451 6f3d 8992 d53d
00000080: c865 e83d cad9 ddbd 7c1e 96bc ae15 433c
00000090: 00f2 5dbb 1c73 093d e253 a0bc f21f 47bd
000000a0: b47c da3d 5190 9f3e 8599 c53d f29e 863d
000000b0: ff42 d8bd 0723 4d3e 50e5 483e 14ef c0bd
000000c0: 4fd4 8f3e fc1d 07be 86b8 fd3a cd33 aa3b
000000d0: 2c0e 90be b56f 253d 235c 8a3d d4df 8dbd
000000e0: 605f 03bc 57ad 593e 5a7e c3bd 4b1f 143e
000000f0: 27cb dcbd 5830 003d 7d81 c2bb 7ddb 6a3c
00000100: 8c12 803f f86f 833f 94e8 6a3f a391 8f3f
00000110: 26ff 963f 5fb6 8b3f f6bb 883f 5075 813f
00000120: a5d7 783f a74d 7c3f 692b 653f 8092 8a3f
00000130: 86c4 8c3f f761 653f 07cd 7e3f 6215 843f
00000140: 1618 823f 2eef 6a3f c405 623f 51aa 8b3f
00000150: 9ec8 883f a5bb 8a3f 95e8 833f 1fd9 6f3f
00000160: f1c5 823f 08ed 8d3f c431 893f ea84 6c3f
00000170: 43c8 953f 29af 583f 19c2 823f 3f6c 7b3f
00000180: 1e12 5c3e d731 f3bd 313e c9bc f16a 0c3d
00000190: 00d1 c33c c880 eebd 97e7 d53d b73f 60bc
000001a0: 9dea 563c 6813 923d 4da7 0ebe beda 6dbd
000001b0: 1225 e6bd 90bb 9cbd 60bf cd3d 8a8f 46bc
000001c0: fef2 773d fffb 683d f50c 2f3e c780 8b3b
000001d0: 53c8 14bd 9b4f df3d 0645 cd3d 0113 20bd
000001e0: 925b f1bd 1f41 923d 74a8 243c 4a08 89bd
000001f0: 93b1 8c3d a3a9 ba3c 375e 03be b07a 18bd
00000200: 87b7 6e3c 5f32 7dbb 7f63 9c3b 2267 cd3d
00000210: e520 b43d bf69 ff3d e9b3 1e3d 19b3 f2bd
00000220: c900 c53d f0d8 9dbd bff2 f73c 3e32 f03b
00000230: 5f53 0abd 4b7e 823e e2bd 093e 3ac2 fa38
00000240: acbe 9c3d 548b 4cbd 2064 54bc a7f2 d23d
00000250: 5b82 683e 65f0 263d 9050 c03c 6bcb 903d
00000260: e8aa b83d cfbc 323e 467e 173e 9648 db3c
00000270: 5f52 cf39 5943 9fbd f451 6f3d 8992 d53d
00000280: c865 e83d cad9 ddbd 7c1e 96bc ae15 433c
00000290: 00f2 5dbb 1c73 093d e253 a0bc f21f 47bd
000002a0: b47c da3d 5190 9f3e 8599 c53d f29e 863d
000002b0: ff42 d8bd 0723 4d3e 50e5 483e 14ef c0bd
000002c0: 4fd4 8f3e fc1d 07be 86b8 fd3a cd33 aa3b
000002d0: 2c0e 90be b56f 253d 235c 8a3d d4df 8dbd
000002e0: 605f 03bc 57ad 593e 5a7e c3bd 4b1f 143e
000002f0: 27cb dcbd 5830 003d 7d81 c2bb 7ddb 6a3c
00000300: 8c12 803f f86f 833f 94e8 6a3f a391 8f3f
00000310: 26ff 963f 5fb6 8b3f f6bb 883f 5075 813f
00000320: a5d7 783f a74d 7c3f 692b 653f 8092 8a3f
00000330: 86c4 8c3f f761 653f 07cd 7e3f 6215 843f
00000340: 1618 823f 2eef 6a3f c405 623f 51aa 8b3f
00000350: 9ec8 883f a5bb 8a3f 95e8 833f 1fd9 6f3f
00000360: f1c5 823f 08ed 8d3f c431 893f ea84 6c3f
00000370: 43c8 953f 29af 583f 19c2 823f 3f6c 7b3f
00000380: 1e12 5c3e d731 f3bd 313e c9bc f16a 0c3d
00000390: 00d1 c33c c880 eebd 97e7 d53d b73f 60bc
000003a0: 9dea 563c 6813 923d 4da7 0ebe beda 6dbd
000003b0: 1225 e6bd 90bb 9cbd 60bf cd3d 8a8f 46bc
000003c0: fef2 773d fffb 683d f50c 2f3e c780 8b3b
000003d0: 53c8 14bd 9b4f df3d 0645 cd3d 0113 20bd
000003e0: 925b f1bd 1f41 923d 74a8 243c 4a08 89bd
000003f0: 93b1 8c3d a3a9 ba3c 375e 03be b07a 18bd
0.0145701235 -0.003863476 0.004772603 0.10029437 0.08795337 0.12471341 0.038745794 -0.118505664
0.096192904 -0.07707393 0.030267118 0.007330208 -0.033770915 0.2548698 0.13451341 0.000119571065
0.07653555 -0.04993756 -0.012963325 0.103001885 0.22705977 0.0407566 0.023475915 0.07070049
0.09016973 0.17454837 0.14794263 0.02676801 0.00039543488 -0.077765174 0.058427766 0.1042834
0.11347538 -0.108325556 -0.018325083 0.011907024 -0.0033866167 0.033557042 -0.019571248 -0.04861445
0.106683165 0.31164792 0.09648422 0.06573285 -0.105596535 0.20032893 0.19618726 -0.094206005
0.28091666 -0.13195032 0.001935736 0.0051941634 -0.28135812 0.040389735 0.06755855 -0.069274575
-0.008018345 0.2125753 -0.09545584 0.14465062 -0.10780936 0.031296104 -0.0059358464 0.014334557
1.000566 1.0268545 0.91761136 1.121632 1.1796615 1.091503 1.0682361 1.0113926
0.9720405 0.9855599 0.89519364 1.0825958 1.0997474 0.8960261 0.99531597 1.0319026
1.01636 0.9177121 0.8829005 1.0911351 1.0686224 1.0838515 1.0305353 0.93690675
1.0216657 1.1087961 1.0718312 0.9239031 1.170174 0.84642273 1.0215484 0.98212045
0.21491286 -0.118747406 -0.024565788 0.034281675 0.02390337 -0.11645657 0.10444563 -0.013687066
0.01311746 0.07132608 -0.13931008 -0.058069937 -0.11237539 -0.07652962 0.100462675 -0.012119183
0.06053447 0.056880947 0.17094786 0.004257295 -0.036323857 0.109038554 0.10022931 -0.039080624
-0.11785044 0.07141327 0.010049928 -0.06691034 0.06869807 0.022785967 -0.12828909 -0.03722638
0.0145701235 -0.003863476 0.004772603 0.10029437 0.08795337 0.12471341 0.038745794 -0.118505664
0.096192904 -0.07707393 0.030267118 0.007330208 -0.033770915 0.2548698 0.13451341 0.000119571065
0.07653555 -0.04993756 -0.012963325 0.103001885 0.22705977 0.0407566 0.023475915 0.07070049
0.09016973 0.17454837 0.14794263 0.02676801 0.00039543488 -0.077765174 0.058427766 0.1042834
0.11347538 -0.108325556 -0.018325083 0.011907024 -0.0033866167 0.033557042 -0.019571248 -0.04861445
0.106683165 0.31164792 0.09648422 0.06573285 -0.105596535 0.20032893 0.19618726 -0.094206005
0.28091666 -0.13195032 0.001935736 0.0051941634 -0.28135812 0.040389735 0.06755855 -0.069274575
-0.008018345 0.2125753 -0.09545584 0.14465062 -0.10780936 0.031296104 -0.0059358464 0.014334557
1.000566 1.0268545 0.91761136 1.121632 1.1796615 1.091503 1.0682361 1.0113926
0.9720405 0.9855599 0.89519364 1.0825958 1.0997474 0.8960261 0.99531597 1.0319026
1.01636 0.9177121 0.8829005 1.0911351 1.0686224 1.0838515 1.0305353 0.93690675
1.0216657 1.1087961 1.0718312 0.9239031 1.170174 0.84642273 1.0215484 0.98212045
0.21491286 -0.118747406 -0.024565788 0.034281675 0.02390337 -0.11645657 0.10444563 -0.013687066
0.01311746 0.07132608 -0.13931008 -0.058069937 -0.11237539 -0.07652962 0.100462675 -0.012119183
0.06053447 0.056880947 0.17094786 0.004257295 -0.036323857 0.109038554 0.10022931 -0.039080624
-0.11785044 0.07141327 0.010049928 -0.06691034 0.06869807 0.022785967 -0.12828909 -0.03722638
