results/FullyAbstract/bachelor/bachelor-2499987.onnx (onnx, 873376 bytes, 11 tensors)

network_body._body_endoder.seq_layers.0.weight f4 [256, 7]
0	0xbe5b16f8	-0.2139548
1	0x3eadd746	0.33953303
2	0xbf7a6fe6	-0.97826993
3	0x3d87aaca	0.06624372
4	0xbf0d5e82	-0.5522233
5	0x3ea3f068	0.32019353
6	0xbecaf9ba	-0.3964365
7	0xbe97c9c2	-0.29646116
8	0x3f6b10a9	0.91822296
9	0x3ec73828	0.3891003
10	0x3d8ecb91	0.06972421
11	0xbdb0e31e	-0.08637069
12	0xbee030f7	-0.43787357
13	0xbe8ecc95	-0.2789046
14	0x3e111b4a	0.14170566
15	0x3e12dcfb	0.1434211
16	0xbedbfa78	-0.4296453
17	0x3e35066d	0.17678232
18	0xbe67a443	-0.22621255
19	0xbe4d7987	-0.2006589
20	0x3e396d72	0.18108156
21	0xbf132339	-0.5747562
22	0xbe08326d	-0.13300486
23	0x3ee6e946	0.45099849
24	0xbe9f0c02	-0.3106385
25	0xbe105dba	-0.14098254
26	0x3e9fc228	0.31202817
27	0xbe85768b	-0.26067004
28	0x3e4ff2d0	0.2030747
29	0xbe9feafd	-0.3123397
30	0x3e8e996e	0.27851433
31	0x3e91e5bb	0.28495583
32	0xbeb6466f	-0.35600612
33	0xbeb7d9fc	-0.35908496
34	0xbda7b7ef	-0.081893794
35	0xbf200e75	-0.6252206
36	0xbe7745ab	-0.2414767
37	0x3f3f1907	0.74647564
38	0x3f3b0806	0.7305912
39	0xbe6feb51	-0.2342961
40	0xbf6c4abf	-0.92301553
41	0xbe98d05c	-0.29846466
42	0x3b6b6345	0.0035917324
43	0x3cfdfd24	0.031004496
44	0xbf72525e	-0.9465693
45	0xbf1375ab	-0.5760142
46	0xbe50b191	-0.20380236
47	0x3ed86934	0.42267764
48	0xbed4e327	-0.41579553
49	0x3d8b063b	0.06788298
50	0xbdead787	-0.1146689
51	0xbd85bbbc	-0.06529948
52	0x3e1e165d	0.15438218
53	0x3de31d6d	0.11089597
54	0xbe115204	-0.14191443
55	0x3e21d14a	0.15802494
56	0xbee262ff	-0.44216153
57	0xbea2f33f	-0.31826207
58	0x3ea8bd37	0.3295686
59	0xbe25d4b6	-0.16194424
60	0xbf2a95b3	-0.6663467
61	0xbf181545	-0.59407455
62	0x3ec1105f	0.37707803
63	0x3ece8abf	0.4034023
64	0x3e0aa1f1	0.13538338
65	0xbf0f82e3	-0.5605909
66	0xbe92099f	-0.28522965
67	0xbe51c0db	-0.20483725
68	0xbe284871	-0.16433884
69	0xbeac5799	-0.33660582
70	0x3db387f7	0.087661676
71	0x3dc0c97a	0.094134286
72	0x3f38b900	0.7215729
73	0xbe71af26	-0.2360197
74	0x3eb827f8	0.35967994
75	0xbb599cf4	-0.0033205124
76	0xbe647e26	-0.22313747
77	0xbea5fb9d	-0.32418528
78	0xbf5ca6fa	-0.86192286
79	0xbe42a345	-0.19007595
80	0xbf00d52d	-0.5032528
81	0xbed1de8e	-0.40990108
82	0x3f5b8014	0.85742307
83	0x3e8a5b2b	0.2702268
84	0xbf30bca7	-0.6903786
85	0x3ea44be5	0.32089153
86	0xbd8bde34	-0.06829491
87	0x3f1520c5	0.5825313
88	0x3e78b6c7	0.24288474
89	0x3f27c516	0.65535104
90	0xbefd0844	-0.4942037
91	0x3ef63103	0.48084268
92	0x3df82c7f	0.12117862
93	0xbd16ecfa	-0.036847092
94	0x3f329950	0.69765186
95	0x3f879d4e	1.059488
96	0x3e7f0a4f	0.24906276
97	0x3ebcdbf1	0.36886552
98	0xbdb44d5b	-0.08803817
99	0x3e6eec4d	0.23332329
100	0xbeaa1f16	-0.33226842
101	0x3c90c1f3	0.017670607
102	0xbe9ba11b	-0.3039635
103	0xbe8186e8	-0.25298238
104	0x3cb64dea	0.02225395
105	0x3da7d507	0.081949286
106	0xbe9fd84e	-0.31219715
107	0xbe8c03e7	-0.27346727
108	0x3f16ff98	0.58983755
109	0xbe5bc805	-0.2146302
110	0x3ed6a3af	0.41921756
111	0x3ec763f8	0.38943458
112	0xbe7d3b5a	-0.24729672
113	0xbe3e98ac	-0.18612927
114	0xbe6b7608	-0.22994244
115	0x3e30a632	0.17250898
116	0xbe7c1e54	-0.24620944
117	0xbd5de2bd	-0.054171313
118	0x3efc866f	0.49321315
119	0xbf5d8c12	-0.86541855
120	0xbe971830	-0.2951064
121	0x3f116555	0.56795245
122	0xbe9a8e98	-0.30186915
123	0xbdded142	-0.108797565
124	0xbe0dfddd	-0.13866372
125	0x3e69bb63	0.22825389
126	0x3f4178dd	0.7557505
127	0xbf0d4a8e	-0.55191886
128	0xbe3a7a0f	-0.18210624
129	0x3e2266ea	0.15859571
130	0xbe6be004	-0.23034674
131	0xbebe888d	-0.37213555
132	0x3d73f400	0.05955887
133	0xbbb4fddf	-0.005523428
134	0x3ef3b0a2	0.47595698
135	0xbe8f438a	-0.27981216
136	0xbdf4c309	-0.119512625
137	0x3eeb6da1	0.45982078
138	0xbeff6a7a	-0.49885923
139	0xbf21b853	-0.6317188
140	0x3eb65476	0.35611314
141	0xbe1bdd5c	-0.1522116
142	0xbeaa0d6c	-0.33213365
143	0xbea069bc	-0.3133067
144	0xbf85d376	-1.0455158
145	0xbf0fa2e5	-0.5610793
146	0xbefd270c	-0.49443853
147	0xbecfca6e	-0.4058413
148	0xbe6244ab	-0.22096507
149	0x3d35c509	0.04437736
150	0xbe15b888	-0.14621174
151	0x3ee034e1	0.43790343
152	0x3ec86845	0.3914205
153	0x3e7195ad	0.23592253
154	0xbe54785e	-0.20749041
155	0x3e8f78b3	0.28021774
156	0xbe171c0b	-0.14756791
157	0xbeb67e44	-0.35643208
158	0x3e3b0bbc	0.18266195
159	0xbe937f08	-0.28807855
160	0x3d189db9	0.03725979
161	0x3e02c22b	0.12769382
162	0xbed2ff34	-0.4121033
163	0xbec89091	-0.39172795
164	0x3e91a206	0.28443927
165	0xbc801935	-0.01563702
166	0x3ed87578	0.42277122
167	0x3d4535fc	0.048147187
168	0xbe03d702	-0.12874988
169	0xbd230025	-0.03979506
170	0x3e3ffe94	0.18749458
171	0xbd2d2336	-0.042269908
172	0xbf26584c	-0.6497848
173	0xbec85789	-0.39129284
174	0x3e30505f	0.17218159
175	0x3f57e621	0.84335524
176	0x3e945e99	0.28978422
177	0xbf1879a7	-0.59560627
178	0xbd86c8df	-0.06581282
179	0xbe823c23	-0.25436506
180	0x3eaa24d4	0.33231223
181	0x3e907e3d	0.28221312
182	0xbea083f0	-0.3135066
183	0x3e265f54	0.16247302
184	0x3ee0208e	0.43774837
185	0x3f0eebf6	0.558288
186	0x3cb53f93	0.022125041
187	0x3e6a16ae	0.22860214
188	0x3da9c9fb	0.08290478
189	0x3ed536aa	0.41643268
190	0x3e65beb2	0.22436026
191	0xbeab7c5b	-0.33493313
192	0xbd8c4de4	-0.06850794
193	0x3b16fb18	0.0023037847
194	0x3f3b06ac	0.73057055
195	0x3efbdd15	0.4919211
196	0xbe05e6aa	-0.13076273
197	0xbe155b36	-0.14585575
198	0xbe690227	-0.22754727
199	0x3e16f502	0.147419
200	0xbe7a3d6d	-0.24437495
201	0xbebfd351	-0.3746591
202	0x3ea3c757	0.31988022
203	0xbe0f8d82	-0.14018825
204	0x3f0a1565	0.53938895
205	0x3d6acf21	0.05732644
206	0xbe3c98b4	-0.18417627
207	0x3d219417	0.03944787
208	0xbe8c227a	-0.27370054
209	0xbdb199a6	-0.08671884
210	0xbe6a8cbc	-0.22905248
211	0x3e8e9e61	0.2785521
212	0xbd7b3118	-0.061326116
213	0x3f0f1197	0.55886215
214	0xbf7249ad	-0.9464367
215	0x3e55622c	0.20838231
216	0xbd1f3b00	-0.038874626
217	0xbcf8d327	-0.030374123
218	0xbdd6952f	-0.10477673
219	0xbe86e370	-0.26345396
220	0xbdd6ef6b	-0.10494884
221	0xbf03b467	-0.5144715
222	0x3f441891	0.76599985
223	0xbed1b251	-0.40956357
224	0xbed47fe5	-0.41503826
225	0x3d1af9ab	0.03783576
226	0xbd8f78c0	-0.07005453
227	0x3e924021	0.2856455
228	0xbdd80da5	-0.105494775
229	0xbe88276d	-0.2659258
230	0x3e289bb2	0.16465643
231	0xbe1303d3	-0.14356928
232	0xbf45ac7a	-0.77216303
233	0x3c662926	0.0140478965
234	0x3e87bb1c	0.2650994
235	0xbf314af7	-0.6925501
236	0xbee29319	-0.44252852
237	0xbf03dcb5	-0.5150865
238	0xbecf23ca	-0.40456992
239	0x3e3e643a	0.18592921
240	0x3e0b69f8	0.13614643
241	0x3ee124ad	0.43973294
242	0x3f093e67	0.53610843
243	0x3e7deb63	0.24796824
244	0x3f182f57	0.59447235
245	0x3e900f03	0.28136453
246	0x3f46d3dc	0.7766702
247	0xbdf10c33	-0.11769905
248	0xbe3ee0d2	-0.1864045
249	0xbe80b120	-0.25135136
250	0xbe8163a8	-0.25271344
251	0x3f26e28d	0.6518944
252	0x3e8e97bf	0.27850148
253	0xbe9512bc	-0.29115856
254	0x3edbc388	0.42922616
255	0x3e19d17e	0.15021321

network_body._body_endoder.seq_layers.0.bias f4 [256]
0	0xba4c6d56	-0.0007798275
1	0x39870964	0.00025756203
2	0xbb2ffcbc	-0.0026853522
3	0x3bf885c7	0.007584307
4	0x3c51cf88	0.012805827
5	0xba17c9b4	-0.0005790249
6	0xbb8df67b	-0.0043323613
7	0x3b413585	0.0029481363
8	0xba528284	-0.00080303126
9	0x3b9f4da4	0.0048615504
10	0xbaf5c286	-0.0018749989
11	0xbb93b3f8	-0.004507538
12	0x3b44255f	0.0029929501
13	0x3b9c750f	0.0047746967
14	0x3a5aebb1	0.0008351161
15	0x39df92ae	0.0004264316
16	0xbb4077c9	-0.0029368273
17	0x3bfcfbc9	0.007720445
18	0x3c56048a	0.013062606
19	0x3bfae334	0.0076564793
20	0x3b07d2c7	0.0020724998
21	0xbb3b5b58	-0.002858838
22	0xbc2e71f9	-0.01064729
23	0x3bea70e6	0.007154572
24	0xbbbef2be	-0.005827277
25	0x3c8941b2	0.016754959
26	0xbba27382	-0.0049576173
27	0x3c31ee86	0.010860091
28	0xba949e1d	-0.0011338625
29	0x3ba66835	0.0050783404
30	0x3b9955d1	0.0046794196
31	0x3c057567	0.008145667
32	0x3ac16704	0.0014755432
33	0xbb81e59e	-0.00396414
34	0xbba65158	-0.005075615
35	0x3c3e4961	0.011614175
36	0x3a1245b4	0.00055798446
37	0x3bd5c6f2	0.0065239603
38	0x3c43b814	0.011945743
39	0xbb83380e	-0.004004485
40	0xbb357262	-0.0027686586
41	0x3bcba28a	0.0062144445
42	0x3bba3608	0.0056827106
43	0x3aa83899	0.001283425
44	0x3bbcf67d	0.0057666884
45	0xba5bf207	-0.0008390252
46	0x3c0ed0bd	0.008716759
47	0xbae60338	-0.0017548567
48	0xbafbb631	-0.0019204078
49	0xbb011f90	-0.001970265
50	0x3c62a7ee	0.013833983
51	0x3bea1fd6	0.0071449084
52	0x3b80167e	0.0039089313
53	0x3c5bc2d0	0.013413146
54	0x39533d9e	0.00020145482
55	0x3b8fca54	0.004388133
56	0xbbad76d1	-0.005293705
57	0x3ab6841f	0.0013924873
58	0xbb51636e	-0.0031950134
59	0xbc189ba7	-0.009314454
60	0x3ac9ced9	0.0015396728
61	0x3bbb10a8	0.0057087727
62	0xbb36b8b8	-0.0027881097
63	0xbc15a3fa	-0.009133333
64	0x3c09d473	0.008412468
65	0xbbb89503	-0.005632998
66	0x3b1aca0a	0.002361896
67	0x3a2111c5	0.00061443105
68	0x3c075c12	0.008261697
69	0xb9e1b0bc	-0.00043047022
70	0x3b2968a9	0.0025849736
71	0xbc33de62	-0.010978313
72	0x3c084582	0.008317353
73	0x3a615d1b	0.00085969426
74	0x39698af9	0.00022272383
75	0x3c22ff6e	0.0099485945
76	0x3bd964d2	0.006634333
77	0x3b9ef039	0.004850414
78	0x3aa48aae	0.0012553537
79	0x3be965e6	0.007122743
80	0xbb5a8023	-0.0033340536
81	0xbb13d96b	-0.002256001
82	0x3bc172fc	0.0059036
83	0x3ba15334	0.0049232487
84	0x3b97a6f0	0.004628055
85	0x3ba6fcb4	0.0050960425
86	0x3bba47de	0.005684837
87	0xbb993b9e	-0.0046762964
88	0xba737485	-0.0009287077
89	0x3bd3b8be	0.006461232
90	0x3c0a11d2	0.0084271
91	0xba87e159	-0.0010366841
92	0x3a8f0230	0.0010910686
93	0xba1980f1	-0.00058557006
94	0x3b96064e	0.0045783883
95	0x3bca826b	0.006180098
96	0x3c3602d1	0.01110907
97	0x3b2acf8b	0.0026063647
98	0x3ba6fc73	0.0050960123
99	0x3b8a48da	0.0042201104
100	0xbbddc244	-0.006767543
101	0xba5af86e	-0.0008353059
102	0x3bdd20ff	0.006748318
103	0x3c08a9d3	0.0083412705
104	0x3c418f26	0.011813914
105	0x3c0b4cc4	0.008502189
106	0x3c6d9f7f	0.014503359
107	0x3bd7401f	0.006568923
108	0x3b529aa5	0.0032135632
109	0x3b1f8943	0.002434329
110	0x3c3d5ec9	0.011558243
111	0xbbd54a82	-0.006509126
112	0xb901872c	-0.00012352754
113	0x3c3e68d9	0.011621677
114	0x3ae18e2c	0.0017208508
115	0xbac80924	-0.0015261513
116	0x3bffbe80	0.007804692
117	0x3bb35ab5	0.0054734596
118	0x39930ccd	0.00028047562
119	0x3a2ed607	0.0006669466
120	0x3bb278a5	0.005446511
121	0x3c620126	0.013794219
122	0x3a8129f6	0.0009854424
123	0xbbfcad2b	-0.007711073
124	0xbb5f1be1	-0.0034043717
125	0x3aae49b2	0.0013297109
126	0xba75caee	-0.0009376247
127	0x3c5f3331	0.013623045
128	0x3b65a396	0.0035040132
129	0x3b5c9fb1	0.003366452
130	0xbb1b8c43	-0.0023734726
131	0xbc3dc874	-0.011583436
132	0x3bcd6352	0.0062679434
133	0x3b01ebea	0.0019824454
134	0x3b3db801	0.0028948786
135	0x3c5a54db	0.013325895
136	0x3b1e1d5e	0.002412639
137	0xbc01783e	-0.007902203
138	0x3bd7f010	0.006589897
139	0xbb896daa	-0.004193981
140	0xba35797a	-0.00069227035
141	0x3c2317d9	0.009954416
142	0x3a6a2788	0.0008932282
143	0x3a8ea4f2	0.0010882898
144	0x3bcbfb52	0.006225028
145	0xbb8239d9	-0.003974181
146	0x3b8fec5f	0.0043921913
147	0x3a9c8796	0.0011942263
148	0x3c1e9eb9	0.009681397
149	0x3be47a48	0.006972585
150	0x3b6111ef	0.0034342965
151	0x3c66c216	0.01408436
152	0x3aa3e48c	0.0012504025
153	0x3c6bdb96	0.014395615
154	0xb9311a26	-0.00016889776
155	0x3b59bc7b	0.0033223915
156	0xbcb7dca2	-0.022444073
157	0xbc270721	-0.010194571
158	0x3c07b8c0	0.008283794
159	0x3a7783cb	0.0009441941
160	0x3c0d3432	0.008618401
161	0x3a32512c	0.00068022567
162	0x3b2d1e93	0.0026415929
163	0xbb8c35d0	-0.004278876
164	0x3b9b4875	0.004738862
165	0xbc4aa0a5	-0.012367402
166	0xbbaaf253	-0.0052168756
167	0x3b720629	0.0036929941
168	0x3c09eddb	0.008418526
169	0x3b7ccb80	0.0038573444
170	0xbb81c76f	-0.003960542
171	0x3c318f84	0.010837439
172	0x3b8a9943	0.004229696
173	0x39e1ab5d	0.0004304302
174	0x3b8f7bff	0.004378795
175	0xbb4d08b3	-0.0031285703
176	0x3b7e3cfd	0.0038793676
177	0x3adfe807	0.0017082699
178	0x3c17157a	0.009221429
179	0xbb3b6eda	-0.0028600008
180	0x3bc07a53	0.005873957
181	0xbc18af3c	-0.009319123
182	0xba4a2141	-0.00077106437
183	0x3c286add	0.010279384
184	0x3c4956a6	0.012288725
185	0x3b710fdb	0.0036783132
186	0x3b81cbbb	0.003961054
187	0xbb95df01	-0.0045737033
188	0x3c112b7c	0.008860465
189	0x3b39dac0	0.0028359145
190	0x3c0159e4	0.007894967
191	0x3c6f716d	0.014614445
192	0x3bc85c62	0.0061145285
193	0xba8c93d7	-0.0010725212
194	0xbba650f5	-0.005075569
195	0x3b8a99e8	0.004229773
196	0x3bb260f9	0.005443689
197	0x3c0ab2a6	0.008465445
198	0x3b199ba7	0.0023438723
199	0xbb0570c5	-0.0020361405
200	0xba1b24a7	-0.00059182424
201	0x3bf41658	0.0074489526
202	0x3b7db90a	0.0038715028
203	0x3bee7ce5	0.007278072
204	0x3c41a8cb	0.011820029
205	0xbc11ac2a	-0.008891145
206	0x3c446899	0.011987829
207	0xbb287d4f	-0.0025709455
208	0x3944af42	0.00018757305
209	0x3b5b1f11	0.0033435265
210	0x3bf41581	0.0074488525
211	0x3b50dc6a	0.0031869658
212	0xbb06bc6c	-0.0020559086
213	0x3c157c87	0.009123928
214	0xbbf363b4	-0.007427657
215	0xbc58188a	-0.013189444
216	0x3c43bf8f	0.011947527
217	0x3c1a39a0	0.009413153
218	0x3c41d75c	0.011831131
219	0xbaea00d1	-0.0017853027
220	0x3be59f71	0.0070075323
221	0x3b9988a9	0.0046854806
222	0x3c4701e1	0.012146444
223	0xbabcd954	-0.001440803
224	0xba3e9dc0	-0.00072714314
225	0x3bff696b	0.007794549
226	0x3c27555a	0.0102132205
227	0x3b18c072	0.0023308066
228	0x3b288f31	0.0025720114
229	0x3b140404	0.0022585401
230	0x3ae57ead	0.0017509066
231	0xbb9ab3b9	-0.0047211316
232	0x3ab96471	0.0014144314
233	0xbb4e2973	-0.003145781
234	0x3a269d18	0.0006355806
235	0xbc1a8014	-0.00942995
236	0x3c613929	0.013746538
237	0x3c0e2494	0.008675713
238	0x3a873443	0.0010315258
239	0xbb880960	-0.004151508
240	0xba2fe3aa	-0.0006709645
241	0xbbd2b234	-0.006429935
242	0xbba08576	-0.0048987223
243	0x3b8d56fe	0.004313349
244	0xba6d49f5	-0.0009051853
245	0xbb15f86d	-0.002288367
246	0x3c599b8a	0.013281712
247	0x3b0b8524	0.0021289075
248	0x3b8099b3	0.0039245724
249	0xbb69c576	-0.0035670674
250	0x3ba838ba	0.0051337155
251	0x3a5b55b4	0.0008366958
252	0xbbd5740a	-0.006514077
253	0x3c3fda07	0.011709697
254	0x3beeb0a5	0.0072842413
255	0xbb9258bf	-0.0044661458

network_body._body_endoder.seq_layers.2.weight f4 [256, 256]
0	0xbd80def3	-0.06292524
1	0xbde090b0	-0.10965097
2	0xbd89e2b7	-0.067326955
3	0xbd50b5eb	-0.05095474
4	0xbcec1887	-0.02882029
5	0x3ba181c7	0.0049288007
6	0x3da1c7f8	0.07899469
7	0x3cc6ebda	0.024282385
8	0xbd9250cb	-0.07144316
9	0x3dae9cda	0.08526011
10	0x3c8ae395	0.016954223
11	0x3b27cb77	0.0025603452
12	0x3dcac0b0	0.099000335
13	0xbdca7a2d	-0.098865844
14	0x3c879582	0.016550783
15	0x3caa08cb	0.020756146
16	0x3d3e3be2	0.046443827
17	0xbd64f22d	-0.05589502
18	0xba8fe978	-0.0010979613
19	0x3dccd300	0.100011826
20	0xbe083087	-0.13299762
21	0x3d425102	0.047440536
22	0x3d36ec95	0.044659216
23	0x3da19eee	0.078916416
24	0xbc513153	-0.0127681075
25	0x3bbacc8b	0.005700653
26	0x3d166f4a	0.036727227
27	0xbd8da328	-0.06915885
28	0xbd9c7632	-0.076397315
29	0x3dbb909d	0.09158442
30	0xbe4fb941	-0.20285513
31	0xbce94ffb	-0.02848052
32	0xbd96fa35	-0.07371942
33	0x3c856a52	0.016286049
34	0xbd003022	-0.031295903
35	0xbdd7a59c	-0.10529634
36	0xbd77d003	-0.06050111
37	0xbd93f3d6	-0.072242424
38	0x3d3746e7	0.044745352
39	0xbaec8d4d	-0.0018047482
40	0xbc003697	-0.007825515
41	0x3d501f9e	0.050811402
42	0x3a37da5f	0.0007013436
43	0xbda440fc	-0.08020207
44	0xbbcde115	-0.0062829354
45	0x3d484090	0.048889697
46	0xbc0e6042	-0.008689942
47	0x3d261d4e	0.04055529
48	0x3c740863	0.014894578
49	0xbda0eb2b	-0.07857355
50	0x3d13fd4f	0.036130246
51	0x3d1614b5	0.03664084
52	0xbcae0ae8	-0.021245435
53	0x3cb2799d	0.021786505
54	0x3d9e6288	0.07733637
55	0xbd8adf40	-0.06780863
56	0xbca8516f	-0.020546643
57	0xbc53e294	-0.012932438
58	0xbd2b991c	-0.041894063
59	0xbc84986f	-0.016185967
60	0xbc3753f9	-0.011189454
61	0xbdefbbdb	-0.117057525
62	0xbd91d2ae	-0.07120262
63	0xbe01f295	-0.12690194
64	0xbd02bb0e	-0.03191667
65	0xbdb3de1c	-0.087825984
66	0xbccd3167	-0.025047971
67	0xbd3063ad	-0.04306381
68	0xbdc66457	-0.09687107
69	0x3d83f5f8	0.06443399
70	0xbdb21476	-0.08695309
71	0x3b86ee86	0.0041177897
72	0x3e0ed950	0.13950086
73	0x3d817802	0.06321718
74	0xbd1b9200	-0.037981033
75	0xbd0f8a26	-0.035043858
76	0xbd278d9c	-0.040906534
77	0x3d604804	0.05475618
78	0x3cfd6a58	0.030934498
79	0xbb98f13d	-0.0046674297
80	0x3d277596	0.040883623
81	0xbd74993d	-0.059716452
82	0xbc778115	-0.015106459
83	0xbc8df025	-0.017326424
84	0xbd9189ec	-0.07106385
85	0xbd15b50e	-0.03654962
86	0xbd9c703e	-0.07638596
87	0x3e09bfe4	0.13452107
88	0x3db069b6	0.08613913
89	0x3ccfaf59	0.025352167
90	0x3ca2efa8	0.019889668
91	0x3c97ba4b	0.018521449
92	0x3b06a6c8	0.0020546187
93	0x3c7f7277	0.015591255
94	0x3d3ccae5	0.046091933
95	0xbdd17bb8	-0.102286756
96	0x3cf2a445	0.029619345
97	0x3de65b3d	0.11247871
98	0xbca0ed27	-0.019644333
99	0xbb6abd5d	-0.0035818436
100	0x3d3a119c	0.04542695
101	0xbdb27c6b	-0.08715137
102	0x3dc2e6aa	0.09516652
103	0xbd95b070	-0.073090434
104	0xbda52903	-0.08064463
105	0x3d85ae8b	0.06527432
106	0xbdb52825	-0.088455476
107	0x3c83fe33	0.016112423
108	0x3d28597f	0.041100975
109	0xbdade83d	-0.084915616
110	0x3d95eb89	0.073203154
111	0xbdb1de38	-0.08684963
112	0x381695a4	3.590215e-05
113	0xbd3d5422	-0.046222813
114	0x3ade8170	0.0016975831
115	0xbd49bd1f	-0.049252626
116	0xbcdb7403	-0.026788717
117	0x3c7b5532	0.015340136
118	0x3d71c775	0.059028108
119	0x3d1901ea	0.03735534
120	0xbbd0db7c	-0.006373821
121	0x3dea3e91	0.11437715
122	0xbca6e303	-0.02037192
123	0x3c0e65f0	0.008691296
124	0x3c8e1329	0.01734312
125	0x3c8c7806	0.017147075
126	0xbdb19893	-0.08671679
127	0x3d50abb9	0.050945017
128	0xbdd0c4ce	-0.101937875
129	0xbc590562	-0.013245912
130	0x3d886e76	0.06661694
131	0xbd995d1b	-0.074884616
132	0xbd0c3129	-0.03422657
133	0xbd89db9b	-0.067313395
134	0x3d9f7960	0.07786822
135	0x3d14d142	0.036332376
136	0x3d35ffa1	0.04443324
137	0xbc8b3e4b	-0.016997477
138	0x3d957799	0.07298202
139	0xbdbf6882	-0.09346105
140	0x3e202eb2	0.15642813
141	0x3bdbc2bb	0.0067065633
142	0x3e032a62	0.12809137
143	0xbe5318d3	-0.20614938
144	0x3d5b153c	0.053487048
145	0x3d673e7f	0.056456085
146	0x3da99f59	0.08282346
147	0x3d5b5772	0.05355019
148	0xbd352f68	-0.044234663
149	0xbb79eb05	-0.0038134467
150	0x3d76516a	0.060136236
151	0xbd3ba3c8	-0.04581049
152	0x3d29aaf1	0.041422788
153	0x3d964f25	0.07339314
154	0xbcc7686f	-0.02434179
155	0x3d40c696	0.047064386
156	0x3d8ab37b	0.067725144
157	0xbd134891	-0.035957877
158	0xbdab9e0a	-0.08379753
159	0xbd38a9ba	-0.04508374
160	0x3d473a0b	0.04863934
161	0x3b9f5ed3	0.004863599
162	0x3de1237b	0.109930955
163	0x3d24a84a	0.040199555
164	0x3ccabac8	0.024747267
165	0xbdab044d	-0.0835043
166	0xbb7f2cd6	-0.0038936636
167	0xbc13ebb8	-0.009028368
168	0xbd40be28	-0.047056347
169	0x3d78229d	0.060579885
170	0xbc9df740	-0.019282937
171	0xbd829dc1	-0.063777454
172	0xb9e80b6a	-0.00044258992
173	0x3c608a80	0.013704896
174	0x3c8d4ac7	0.01724757
175	0x3c442826	0.011972463
176	0x3d8ff2d6	0.07028739
177	0xbca62bf6	-0.020284634
178	0x3d4512cb	0.048113625
179	0x3c9aed5d	0.018912012
180	0x3de83ccc	0.11339721
181	0x3daa43ea	0.08313735
182	0xbd6e4e81	-0.058180336
183	0xbb9b9a9c	-0.0047486555
184	0x3d315f62	0.043303855
185	0xbd748e02	-0.05970574
186	0xbd22c2db	-0.03973661
187	0x3dec29e6	0.11531429
188	0x3c7ddfe0	0.0154952705
189	0xbda50a0d	-0.08058558
190	0x3d7db416	0.06193932
191	0x3ce376c8	0.0277666
192	0xbc89f6b7	-0.016841276
193	0x3d809f5e	0.06280397
194	0xbce8f9dd	-0.028439457
195	0xbd28d13a	-0.04121516
196	0xbbaa5cfa	-0.005199072
197	0x3db43372	0.08798875
198	0xbd529602	-0.05141259
199	0x3d4e3d3c	0.050351366
200	0xbd854f5c	-0.06509277
201	0xbcd03a50	-0.02541843
202	0xbd01992b	-0.031640213
203	0xbbe19352	-0.006884017
204	0xbc853ec5	-0.016265282
205	0xbd5ad5fa	-0.05342672
206	0x3c8fc220	0.01754862
207	0xbd65df41	-0.056121115
208	0x3cc83dfe	0.024443623
209	0x3d66047b	0.056156617
210	0x3cb239ba	0.021756042
211	0x3d46bed9	0.04852185
212	0xbe0d396e	-0.13791439
213	0x3bb4406d	0.005500844
214	0xbcc5b393	-0.02413348
215	0x3cea3b39	0.028592693
216	0x3cc50ace	0.024053004
217	0xbd3d23df	-0.046176787
218	0xbb9b3f38	-0.004737761
219	0xbde13ccd	-0.10997925
220	0x3d4d9723	0.050192963
221	0xbc4ad735	-0.012380411
222	0x3e4af436	0.19819722
223	0xbcc8253c	-0.024431817
224	0xbcfa9a0e	-0.030591037
225	0x3c60f099	0.013729238
226	0xbdb7d265	-0.089756764
227	0xbe1e4779	-0.15456952
228	0xbe3ee7bf	-0.18643092
229	0x3d3bf01e	0.04588329
230	0x3ccff954	0.025387444
231	0xbd3ca15c	-0.04605232
232	0xbdaf2810	-0.08552563
233	0x3d177682	0.036978252
234	0x3d32a60c	0.043615386
235	0xbd2ba5f0	-0.041906297
236	0xbddb0906	-0.106950805
237	0xbcafb3b6	-0.021447998
238	0xbdd1716b	-0.10226711
239	0xbd4a98b1	-0.049462024
240	0x3b2022c7	0.0024434791
241	0x3dccd1c5	0.10000948
242	0x3b52f94e	0.0032192054
243	0x3cd138d3	0.025539791
244	0x3c66da32	0.014090108
245	0xbda7729b	-0.08176156
246	0xbddb4df8	-0.10708231
247	0x3c5fc256	0.013657173
248	0x3d616d6e	0.055036
249	0x3e15888d	0.14602871
250	0xbd7518ac	-0.059837982
251	0x3d198563	0.037480723
252	0x3cd29f06	0.025710594
253	0xbc7e1813	-0.015508669
254	0x3dd30f22	0.10305621
255	0x3d567cc0	0.052365065

network_body._body_endoder.seq_layers.2.bias f4 [256]
0	0x3bbea11a	0.0058175446
1	0x3b8f233a	0.004368213
2	0x3b34d41a	0.0027592243
3	0xbb9bae71	-0.0047510196
4	0xbae08534	-0.0017129541
5	0x3c06a4d9	0.008218014
6	0x3ba976ac	0.0051716175
7	0x3b1ebfe4	0.0024223262
8	0x3bf308e1	0.00741683
9	0xbaaa8bfa	-0.0013011687
10	0x3a2024ca	0.00061089976
11	0x3b2bbbab	0.0026204388
12	0x3b67d8b4	0.0035376968
13	0x3bdcb678	0.006735619
14	0x3b047881	0.0020213427
15	0x3b377334	0.002799225
16	0x3b9df666	0.0048206327
17	0x3c26c7ab	0.0101794405
18	0x3b0af3e2	0.0021202494
19	0x3aa5dd32	0.0012654422
20	0x3be70b17	0.0070508826
21	0x3aa29b32	0.0012405871
22	0xbb2acaea	-0.0026060888
23	0x3ca234d6	0.019800585
24	0x3b8413fd	0.004030703
25	0x3bd28f80	0.006425798
26	0xbab23a1a	-0.0013597638
27	0xbae6bf22	-0.001760457
28	0x3c394732	0.011308478
29	0xbbb4d989	-0.0055190963
30	0x39b7136c	0.0003491895
31	0x3c591012	0.01324846
32	0x3bb6f114	0.005582938
33	0xbaabbbdc	-0.0013102251
34	0xbaab9dc2	-0.001309328
35	0x3c3dd1cb	0.011585663
36	0x3b7b9b00	0.0038391948
37	0x3c265b63	0.010153624
38	0x3beff847	0.007323298
39	0x3b2a1250	0.0025950857
40	0xbba1b939	-0.0049354103
41	0xbb452c08	-0.003008606
42	0x39080e30	0.00012975256
43	0xbb32bd95	-0.0027273644
44	0x3c11d630	0.008901164
45	0x3bce5e75	0.0062978812
46	0xbb0b371a	-0.002124256
47	0x3ad16d50	0.0015978012
48	0x3c0df5d0	0.008664563
49	0x3b460f83	0.0030221648
50	0xbbf212fc	-0.007387517
51	0x3b3c43a3	0.0028726838
52	0x3c6f2dc8	0.014598317
53	0xbbfc74c4	-0.0077043492
54	0x3ac21abf	0.0014808996
55	0xbae4fa03	-0.0017469529
56	0x3b1a9797	0.002358889
57	0xbb6b44c8	-0.003589915
58	0xbb6f7d96	-0.003654336
59	0x3c10eebc	0.008845981
60	0xbbe5247c	-0.0069928747
61	0x3c0bb034	0.008525897
62	0x3b95ad59	0.004567784
63	0xbc18793d	-0.009306249
64	0x3b9c3175	0.004766638
65	0x3ab14d9d	0.0013527159
66	0xba280f67	-0.00064109865
67	0xbb394681	-0.0028270783
68	0xbb6d6942	-0.0036226069
69	0x3ad3265b	0.0016109453
70	0x3c007855	0.007841189
71	0x3b0f492b	0.002186368
72	0xbba63dd8	-0.0050732903
73	0x3bd79135	0.0065785893
74	0x3afeab53	0.0019429721
75	0xbc3dd89b	-0.011587287
76	0x3b81f7d6	0.003966312
77	0x3b0913ed	0.0020916418
78	0x3bf6b432	0.007528805
79	0x3acf77a5	0.0015828504
80	0xbb2217a5	-0.0024733332
81	0x3c0d6847	0.008630819
82	0x3b165079	0.002293615
83	0xbb9be9b5	-0.0047580847
84	0xbb87e158	-0.004146736
85	0xb9c06167	-0.00036693664
86	0xbae8d013	-0.0017762206
87	0x3bbbb805	0.005728724
88	0xb9a1d700	-0.000308685
89	0xbb2e2c33	-0.0026576638
90	0x3b890c2b	0.0041823587
91	0x3ba9671c	0.0051697623
92	0x3c84b842	0.016201142
93	0x3bcf69eb	0.006329765
94	0x3bae0ce6	0.005311596
95	0xb9e43383	-0.00043525928
96	0x3aa6e40a	0.0012732756
97	0x3b6bc86c	0.0035977615
98	0xbbddde7d	-0.0067709074
99	0xba2b50a1	-0.0006535147
100	0x3b1ad241	0.0023623856
101	0x3c3e76ed	0.011625034
102	0xbaa21ed1	-0.0012368803
103	0xbc1b3805	-0.009473805
104	0x3bc5a21c	0.006031288
105	0xbba8de84	-0.005153479
106	0x3baef74e	0.0053395396
107	0x3b953118	0.0045529716
108	0xbb724d16	-0.0036972216
109	0xbbcbe0f5	-0.0062218853
110	0xba8009e4	-0.0009768573
111	0x3b6206dd	0.0034488954
112	0xbba57481	-0.0050492887
113	0x3b40da52	0.0029427004
114	0x3c14ca80	0.009081483
115	0x3b9868c5	0.0046511614
116	0xbb0289f8	-0.0019918662
117	0x3c198389	0.009369739
118	0x3bebd4e1	0.007197008
119	0xbae89297	-0.0017743882
120	0x3bcd85a0	0.006272033
121	0x3b2c65f8	0.0026305895
122	0xbc022572	-0.007943498
123	0x3bb3d238	0.0054877065
124	0xbb041d38	-0.0020159017
125	0x3c34efc0	0.011043489
126	0xbbb363bb	-0.0054745353
127	0xb7f4b1ae	-2.9169805e-05
128	0x3c8945ea	0.01675697
129	0x3bcd586c	0.006266644
130	0xb9bbf504	-0.0003584997
131	0x3b910a74	0.004426295
132	0xbc1d9d2c	-0.009619992
133	0xba82fe46	-0.0009993992
134	0x3a9ee108	0.0012121508
135	0xbacc0bc2	-0.0015567469
136	0x39025e54	0.00012432906
137	0xb8cc7e57	-9.751011e-05
138	0x3bb60aca	0.0055554854
139	0x3b72ec9b	0.0037067297
140	0x3b95cb05	0.004571321
141	0xbb8a33ff	-0.004217624
142	0x3a8f8998	0.001095104
143	0xbae0f40c	-0.0017162575
144	0xbb81051f	-0.003937378
145	0x3be5d155	0.0070134797
146	0xbb143f45	-0.002262072
147	0xbb593831	-0.0033145065
148	0x39c99266	0.00038446783
149	0x3b85e40d	0.0040860237
150	0xbb392b97	-0.0028254741
151	0x3b26f3cd	0.0025474906
152	0x3bde51f5	0.0067846724
153	0x3b8dfb53	0.0043329387
154	0x3abe921d	0.0014539395
155	0x3c96f27a	0.018426169
156	0x3af0e2ea	0.0018378173
157	0xbbe8dd00	-0.0071064234
158	0xb91b9c55	-0.0001484019
159	0x3c376140	0.01119262
160	0x3b41b473	0.002955702
161	0xbb93fd7b	-0.004516301
162	0x3b8cb1f2	0.0042936737
163	0x39e462bd	0.00043561115
164	0x3be3d92a	0.006953378
165	0x3bad71d8	0.0052931122
166	0x3b9b62aa	0.0047419863
167	0x3bb5b37c	0.005545078
168	0xb8ffc49f	-0.00012195971
169	0x3b982743	0.0046433522
170	0x3bb3eda6	0.0054909764
171	0x3baba66e	0.005238346
172	0x3b9c1029	0.0047626686
173	0xbad9096e	-0.0016558596
174	0xba9ef1ab	-0.0012126466
175	0xb9c916af	-0.00038354608
176	0x3bd54085	0.0065079355
177	0x3bf30da5	0.007417398
178	0xbbe47bbd	-0.0069727586
179	0x3bcf9e4b	0.0063360087
180	0xbc065b95	-0.008200546
181	0xbac075a7	-0.0014683501
182	0x3c1adb41	0.009451688
183	0x3bfcc001	0.0077133183
184	0xbc439bdc	-0.011939015
185	0x3a92aa70	0.001118971
186	0x3a8e7d66	0.0010871112
187	0xbb88f258	-0.0041792803
188	0x3c18d43a	0.0093279425
189	0x3a596767	0.0008293301
190	0x3c2bfd5a	0.010497415
191	0xb889a66c	-6.5636676e-05
192	0xbb721d0f	-0.003694359
193	0x3c38f565	0.011288975
194	0x3be73fc6	0.007057163
195	0xbafbfc1a	-0.0019224912
196	0x3c831d84	0.016005285
197	0x3c1c2e97	0.009532592
198	0x3ac33024	0.0014891666
199	0x3bf8577f	0.0075787897
200	0x3b96a6a4	0.004597502
201	0xbb8b7171	-0.0042554666
202	0xbb4f0c95	-0.0031593193
203	0x3c02601d	0.0079574855
204	0x3c8eeeca	0.017447848
205	0xbab12b3f	-0.0013516917
206	0x3b036cb9	0.0020053817
207	0x3c2fa633	0.010720777
208	0xbb34d0c5	-0.0027590257
209	0x3c091c88	0.008368619
210	0x3b7a1889	0.0038161597
211	0xbb27abc5	-0.002558456
212	0xbab8967d	-0.0014082935
213	0x3b53952f	0.0032284965
214	0x3b7603f8	0.0037538987
215	0x3c40f377	0.011776797
216	0xbb0912d6	-0.0020915768
217	0x3bf18e98	0.007371735
218	0xbad2619d	-0.001605082
219	0xbb229416	-0.0024807504
220	0x3c3cb620	0.011518031
221	0x3c19a824	0.009378467
222	0xbb371205	-0.0027934324
223	0xbc09b5ed	-0.008405191
224	0x3be988cc	0.007126903
225	0x3b903ef3	0.0044020354
226	0xba639b81	-0.00086825347
227	0x3ab8133b	0.0014043817
228	0xba843909	-0.0010087799
229	0xbb97a952	-0.004628339
230	0xbbdab0f6	-0.0066739274
231	0x3c1d9ded	0.009620172
232	0xbb4de23b	-0.0031415361
233	0x3a73cc07	0.0009300117
234	0x3bbc656f	0.0057493965
235	0xbb933867	-0.0044928077
236	0x3af2af36	0.0018515352
237	0xbbe45e16	-0.0069692237
238	0xbbca3e57	-0.0061719823
239	0x3c2f0e8e	0.010684622
240	0x3b51fd48	0.0032041837
241	0x3c4085e0	0.011750668
242	0x3bc04cfb	0.005868552
243	0x3b16f027	0.0023031326
244	0xbb5866b4	-0.00330202
245	0x3badd0cd	0.005304432
246	0x384a8b0f	4.829006e-05
247	0x3b01cb0a	0.0019804859
248	0x3a6ac007	0.0008955006
249	0x3bb64d78	0.005563434
250	0xba966190	-0.0011473168
251	0xbb9924c7	-0.0046735737
252	0x3b76edd8	0.0037678387
253	0x3bc3e303	0.0059779896
254	0x3b572114	0.0032826113
255	0x3b544e98	0.0032395478

network_body._body_endoder.seq_layers.4.weight f4 [256, 256]
0	0x3d50966a	0.050924696
1	0x3cef7b43	0.02923358
2	0x3b11dcaa	0.002225677
3	0x3d9eaf40	0.0774827
4	0xbc0605f7	-0.008180133
5	0xbdaa6470	-0.08319938
6	0x3c1e62e8	0.009667136
7	0xbcb79fdc	-0.022415094
8	0xbc3c9c9e	-0.01151195
9	0xbbf4bbbb	-0.0074686683
10	0x3d49000f	0.04907232
11	0x3ced1546	0.028940808
12	0xbdfc8610	-0.12330258
13	0xbda2cf9d	-0.07949755
14	0xbc4d8f5d	-0.0125463875
15	0x3dbe844f	0.093025796
16	0x3da88419	0.08228321
17	0xbdc13262	-0.09433438
18	0x3db05c1e	0.0861132
19	0x3d8281e8	0.06372434
20	0x3bfc3d2a	0.007697721
21	0xbcb20879	-0.021732556
22	0x3ca777b9	0.02044283
23	0xbc5661be	-0.013084827
24	0xbc29b54c	-0.010358166
25	0xbb2e2a6e	-0.0026575583
26	0xbd45723a	-0.048204638
27	0x3c3b4e55	0.01143225
28	0xbd889571	-0.06669129
29	0x3c4823fd	0.0122156115
30	0xbd66eba9	-0.056377087
31	0x3d568fb6	0.052383147
32	0xbd168ab4	-0.03675337
33	0xbe098ccd	-0.13432617
34	0x3cbeaaba	0.023274768
35	0x3e8d132c	0.2755369
36	0xbd824eb2	-0.06362666
37	0xbda3e156	-0.08001964
38	0xbd4f0cf7	-0.050549474
39	0x3dd79c44	0.10527852
40	0x3de84522	0.11341311
41	0xbd6d21e5	-0.057893652
42	0xbdcf2bac	-0.101157516
43	0xbd0a7890	-0.033806384
44	0x3d94c233	0.07263603
45	0xbc8fba22	-0.01754481
46	0xbcef63a8	-0.029222324
47	0x3b93b51f	0.0045076753
48	0x3d2db456	0.04240831
49	0x3d0b83e8	0.034061342
50	0x3d2ad0bb	0.041702967
51	0xbd9e2a53	-0.077229165
52	0x3d2dd8cc	0.04244308
53	0x3cad395e	0.021145519
54	0x3e38366e	0.17989513
55	0xbd917bed	-0.07103715
56	0x3d76a4fa	0.060215928
57	0xbd145afc	-0.036219582
58	0x3d834299	0.06409187
59	0xbd1b852a	-0.037968792
60	0xbd41bfaf	-0.047301944
61	0xbc2a103f	-0.01037985
62	0x3dbd9114	0.09256187
63	0xbc425ad9	-0.01186248
64	0xbc80e3b7	-0.015733583
65	0x3d6b80dc	0.057495937
66	0xbd8b3ba6	-0.067984864
67	0x3ce4c8fd	0.02792787
68	0x3c852b5d	0.016256029
69	0x3d531dfa	0.05154226
70	0x3dc3f460	0.09568095
71	0xbcfd80b7	-0.030945165
72	0x3dadd459	0.08487768
73	0x3d6d5a42	0.057947405
74	0x3d915d51	0.07097877
75	0x3d343806	0.04399874
76	0xbd5a04e3	-0.053227317
77	0x3dc0d1bd	0.094150044
78	0xbd0f1d77	-0.03494021
79	0xbd0216f2	-0.031760164
80	0xbd9ebcf2	-0.07750882
81	0xbd81297c	-0.06306741
82	0xbbc451d0	-0.005991198
83	0xbd985ce1	-0.0743959
84	0xbb2057b8	-0.0024466347
85	0xbda7964f	-0.08182966
86	0xbd64dd66	-0.055875205
87	0xbcd8945b	-0.026437929
88	0x3cb649d0	0.022251993
89	0x3c555b76	0.013022294
90	0x3da08dcc	0.078395456
91	0x3d0704a0	0.032963395
92	0x3d23ca83	0.039988052
93	0xbc33bef9	-0.010970824
94	0xbd237a72	-0.039911695
95	0xbd409565	-0.047017474
96	0xbce9d511	-0.02854398
97	0xbe2d723d	-0.1693811
98	0x3d8a7505	0.06760601
99	0xbd5682b8	-0.052370757
100	0x3da2b0a6	0.07943849
101	0xbd8f5695	-0.06998936
102	0xbb2d5d93	-0.002645348
103	0xbc19e7eb	-0.009393672
104	0xbb754a51	-0.003742833
105	0x3d675407	0.05647662
106	0x3c9a8c8c	0.018865846
107	0xbcbb320f	-0.022851018
108	0x3bc052b3	0.0058692335
109	0xbd297449	-0.041370664
110	0x3cf96719	0.030444669
111	0x3e1f50c2	0.1555815
112	0xbca9b958	-0.020718262
113	0x3da59f02	0.08086969
114	0xbe00664b	-0.12539022
115	0xbe73bdb5	-0.23802836
116	0xbcc34b00	-0.023839474
117	0xbd3a1ed7	-0.045439567
118	0x3ca07156	0.019585293
119	0xbc8ccc6f	-0.017187325
120	0x3d7f1572	0.06227631
121	0x3d85e827	0.0653842
122	0x3d877d0b	0.06615647
123	0xbb1ca3ac	-0.0023901267
124	0xbd68da24	-0.05684866
125	0xbd191823	-0.037376534
126	0xbcd0a401	-0.025468828
127	0x3d5ebce5	0.054379363
128	0x3d92d338	0.07169193
129	0x3c9e3a32	0.019314859
130	0xbddc249c	-0.1074917
131	0x3de7aadb	0.11311885
132	0x3db56629	0.08857376
133	0x3ccd9459	0.025095152
134	0xbd62f7f1	-0.055412237
135	0xbbe3ea23	-0.0069554015
136	0xbbee45f4	-0.0072715227
137	0xbcc9f7a7	-0.024654223
138	0xbd0f9934	-0.035058215
139	0xbd257d04	-0.040402427
140	0xbd41efb5	-0.047347743
141	0xbd9a8e47	-0.075466685
142	0x3d9ad340	0.07559824
143	0xbdda4a91	-0.10658754
144	0xbde68f17	-0.11257761
145	0xbdb343a5	-0.087531365
146	0x3d891955	0.06694285
147	0xbc6dc8ba	-0.014513189
148	0xbe2ead4e	-0.17058298
149	0x3d0c54f2	0.034260698
150	0xbd257213	-0.040391993
151	0x3cb52e25	0.02211673
152	0x3ca5d4ac	0.020243011
153	0xbe1a7814	-0.15084869
154	0xbd58f800	-0.052970886
155	0x3d73c0c8	0.059510022
156	0x3e0af632	0.13570479
157	0xbdb695f7	-0.08915322
158	0xbe020250	-0.12696195
159	0xbdcb9e62	-0.099423185
160	0xbdea10d5	-0.11428992
161	0x3cc9bcb9	0.024626123
162	0x3cd9b844	0.026577123
163	0xbcab9dbd	-0.020949239
164	0x3d8a8550	0.067637086
165	0x3d09b920	0.033623815
166	0xbd163939	-0.036675666
167	0xbd6aa0d4	-0.057282284
168	0x3d50bcf1	0.05096144
169	0x3d8a839f	0.06763386
170	0x3de3472f	0.110975616
171	0xbcbd06ac	-0.02307447
172	0xbcf71350	-0.030160576
173	0x3d1b82c7	0.037966516
174	0x3d9e999b	0.07744142
175	0xbcdf1f65	-0.02723665
176	0x3cbd9c3e	0.023145791
177	0x3daf3727	0.08555441
178	0xbd974d51	-0.07387794
179	0x3d9e9294	0.07742801
180	0x3c02d18a	0.007984528
181	0x3b9c7fd4	0.0047759805
182	0x3dec50fc	0.11538884
183	0x3da6cdfd	0.08144758
184	0x3cdc2987	0.02687527
185	0x3c2a15eb	0.010381202
186	0xbd8951c5	-0.067050494
187	0x3dad891d	0.08473418
188	0xbd8cb2d9	-0.0687005
189	0xbd0eed90	-0.034894526
190	0xbd84fa30	-0.06493032
191	0x3d9ead46	0.07747893
192	0xbd21702d	-0.03941362
193	0x3dd03937	0.10167163
194	0xbc822c31	-0.015890213
195	0x3bdc4329	0.0067218733
196	0x3d849025	0.06472806
197	0xbdcf4b84	-0.10121825
198	0x3d21bc51	0.039486233
199	0x3d2f7645	0.0428374
200	0xbb21af72	-0.0024671224
201	0x3dba9b7a	0.09111686
202	0x3ce0735b	0.027398756
203	0x3d873f0f	0.06603824
204	0xbd9f6747	-0.077833705
205	0xbd97c83b	-0.07411238
206	0x3d6c8195	0.057740767
207	0xbcefc4ef	-0.02926871
208	0xbbf9303f	-0.0076046283
209	0xbe02c1e5	-0.12769277
210	0x3afd18cd	0.0019309759
211	0x3c5d97e0	0.013524979
212	0xbd8e6f97	-0.06954878
213	0xbc5807bc	-0.013185438
214	0xbacc2ed9	-0.0015577927
215	0xbd9fb04e	-0.07797299
216	0xbd1c5f3b	-0.038176756
217	0xbd7d2df3	-0.0618114
218	0x3d09eb70	0.033671796
219	0x3c325d75	0.01088654
220	0x3da1e4c1	0.079049595
221	0xbdcb7c9b	-0.09935876
222	0x3dd35c46	0.10320334
223	0xbc832ae9	-0.016011672
224	0x3d236ed2	0.03990061
225	0xbcd0d1db	-0.025490692
226	0xbce88972	-0.028385852
227	0xbd26f18e	-0.04075771
228	0xbddbd7fa	-0.10734554
229	0x3ba125c8	0.004917834
230	0x3d3fe3ab	0.04684798
231	0x3dc72bed	0.09725175
232	0x3d800582	0.062510505
233	0x3cb02df3	0.021506285
234	0xbdc21cd8	-0.09478158
235	0xbc6bd31b	-0.014393593
236	0x3cb25413	0.021768605
237	0xbc699ae2	-0.014258118
238	0x3d200cf1	0.039074842
239	0xbd6ee505	-0.05832388
240	0xbbb72b96	-0.0055899126
241	0xbd542d99	-0.051801298
242	0x3be01790	0.0068387464
243	0xbd599309	-0.05311874
244	0x3dbadcd6	0.09124152
245	0xbe520f34	-0.20513612
246	0xbd3821ef	-0.044954237
247	0xbd367d56	-0.044553123
248	0x3bfb3913	0.007666716
249	0xbd6f29d6	-0.058389507
250	0xbdb89541	-0.09012843
251	0xbd8bf70d	-0.068342306
252	0x3d380dd2	0.044935055
253	0x3d433306	0.04765608
254	0xbcd490d5	-0.025947968
255	0x3dbb4c0d	0.09145365

network_body._body_endoder.seq_layers.4.bias f4 [256]
0	0xbb556022	-0.003255852
1	0xba87e65e	-0.0010368337
2	0x3b6f68f3	0.003653106
3	0x3b4d6914	0.003134315
4	0xbb385970	-0.002812948
5	0x3b21828d	0.0024644465
6	0xbbf8db12	-0.0075944746
7	0x3bccfdbc	0.0062558334
8	0xbae437ec	-0.0017411686
9	0xbb187b98	-0.0023267027
10	0xbc13a2d0	-0.0090109855
11	0x3b395523	0.0028279505
12	0x3c289ef9	0.010291808
13	0x3c25c456	0.010117611
14	0xba8128e6	-0.0009854108
15	0x3b30d061	0.0026979672
16	0x3b52bc81	0.0032155814
17	0x370af175	8.28166e-06
18	0xbc1d4373	-0.009598601
19	0xbb31c9df	-0.0027128381
20	0x3b008379	0.0019609614
21	0x39294147	0.00016141414
22	0x3ad824e8	0.0016490491
23	0x3a719edc	0.00092170923
24	0xbba61c8c	-0.005069321
25	0xb9ee9894	-0.00045508577
26	0x3b45effd	0.0030202859
27	0x39c576c0	0.00037663244
28	0x3bfe4268	0.007759381
29	0xbb72cfd4	-0.0037050145
30	0x3c75d2aa	0.0150038395
31	0x3c367334	0.011135865
32	0x3b7c2b57	0.003847798
33	0xbb8a441c	-0.004219545
34	0xbb75eb79	-0.0037524386
35	0x3a714e93	0.0009205129
36	0x3c6c6d56	0.014430365
37	0xb950c8b0	-0.00019911188
38	0xbb51915d	-0.0031977512
39	0x3c066061	0.008201689
40	0xbc1ab101	-0.009441615
41	0x3b1b05e9	0.0023654646
42	0x3b3f9326	0.0029231994
43	0x3c039869	0.008031943
44	0x3a85984c	0.0010192483
45	0xbae1773a	-0.001720167
46	0x3c22495b	0.009905185
47	0x3bf31e93	0.007419416
48	0x3c301fe4	0.010749791
49	0xba708aa7	-0.0009175934
50	0x3b6db52e	0.0036271322
51	0x3b92737b	0.0044693328
52	0x3a60b86e	0.0008572404
53	0x3a4b9208	0.0007765596
54	0x3c6d0c25	0.0144682275
55	0x3bb0eaf9	0.0053991047
56	0xbbc8c6e4	-0.0061272252
57	0x3c45b901	0.012068034
58	0x3ac857ad	0.0015284918
59	0x3a78b05a	0.00094867276
60	0x3c74c605	0.01493979
61	0xbba7d4cf	-0.0051218043
62	0xba9abef7	-0.001180618
63	0x3c0c2339	0.00855332
64	0xbbb03c9b	-0.0053783185
65	0xbba7f1ee	-0.005125276
66	0x3bd9ced8	0.006646972
67	0x3b32a963	0.0027261607
68	0x3bc9cb18	0.006158244
69	0xb905aef2	-0.0001274904
70	0xbbbacc39	-0.005700615
71	0x3a561db4	0.0008167878
72	0x3b7449c4	0.0037275413
73	0xbb6084b6	-0.003425879
74	0x3a4f6792	0.00079118565
75	0xbafdcf70	-0.0019364189
76	0xbad2551c	-0.0016047093
77	0x3bb91786	0.005648556
78	0xbb9d63d2	-0.0048031593
79	0xbbbd6418	-0.0057797544
80	0x3c3bbff1	0.011459337
81	0xbb6a865c	-0.003578565
82	0x3bb5de8c	0.0055502113
83	0xbb2ff0da	-0.002684644
84	0xbb798ec0	-0.003807947
85	0xba2e522a	-0.00066498166
86	0x3bae722e	0.00532367
87	0x3c87c743	0.016574508
88	0xbb4a9b06	-0.0030915155
89	0x3c4fe315	0.012688418
90	0x3c1ce2d2	0.009575563
91	0x3b54d8bf	0.0032477824
92	0x3b7f380e	0.0038943323
93	0xba706f9e	-0.00091719057
94	0x3c044220	0.008072406
95	0x3c211d24	0.009833608
96	0xbba46517	-0.0050169337
97	0xbc227d4d	-0.009917569
98	0x3b6607d4	0.003509988
99	0x3b900498	0.004395079
100	0xbb312ef6	-0.0027036048
101	0xba94786a	-0.001132739
102	0xb9f672aa	-0.00047006208
103	0x3c6bce65	0.01439247
104	0xba45d191	-0.00075461814
105	0xbb4029d6	-0.002932181
106	0xbaac45cf	-0.0013143363
107	0xbc066516	-0.008202812
108	0xbb2beadc	-0.0026232516
109	0x3ba5a98a	0.005055611
110	0x3ae0ef80	0.001716122
111	0xbb423450	-0.0029633231
112	0x3c3484d9	0.0110180015
113	0x39c7338b	0.0003799464
114	0x3b2cc92c	0.0026365025
115	0x3c359ad3	0.011084276
116	0x3b3cb4eb	0.002879436
117	0xbc352577	-0.011056296
118	0x3c0b8347	0.008515186
119	0x3c0a37c9	0.008436152
120	0xbbc254c7	-0.0059305164
121	0xbb14cb04	-0.0022704015
122	0xb9ce8c54	-0.00039395934
123	0xbbe5fc38	-0.007018592
124	0x3ba1dcc2	0.0049396465
125	0x3bd43467	0.0064759734
126	0x3c3a4afb	0.011370416
127	0x3c0d7e8a	0.008636126
128	0xbaa17237	-0.0012317364
129	0x3c5c04c7	0.013428873
130	0xbac21d02	-0.001480967
131	0xbbc95d5e	-0.0061451634
132	0xbb29aa34	-0.0025888802
133	0xbabef9d6	-0.0014570307
134	0x3c0a97c3	0.008459034
135	0x3c3aedf7	0.011409274
136	0xbb84e587	-0.004055682
137	0xbb71bb4c	-0.003688532
138	0x3b463eaf	0.0030249765
139	0x3bff2765	0.0077866786
140	0x3b646908	0.0034852643
141	0xba2d7721	-0.0006617178
142	0xb91bb887	-0.00014850694
143	0xbb2367b6	-0.0024933643
144	0x3b088d54	0.0020836191
145	0xbbafb31d	-0.005361928
146	0xbc0b2ab4	-0.008494068
147	0xbae40d7e	-0.001739904
148	0x3c162667	0.009164429
149	0xba918d84	-0.0011104797
150	0xbbcff66f	-0.006346516
151	0xbb158178	-0.0022812765
152	0x3a909601	0.0011031033
153	0xba88e834	-0.0010445178
154	0x3b2193a0	0.0024654642
155	0x38d4b671	0.0001014293
156	0xba89cc87	-0.0010513224
157	0x3a93dc5b	0.0011280881
158	0x38f8da7d	0.00011866258
159	0xbbca7649	-0.0061786515
160	0xbb8216d2	-0.0039700055
161	0x3bbac412	0.005699643
162	0xbb3a6f88	-0.0028447825
163	0xba8e3884	-0.0010850583
164	0x3c36c5a6	0.0111555215
165	0x3bb24de2	0.0054414133
166	0x3c0f6b82	0.008753659
167	0xbb0be4e0	-0.0021346137
168	0xbb94507b	-0.0045261956
169	0x3c575f1d	0.013145235
170	0xbb129050	-0.002236385
171	0x3bea69b1	0.0071537127
172	0x3a5bf69e	0.0008390936
173	0xbaea7308	-0.0017887065
174	0x3c672381	0.014107586
175	0xbbc41207	-0.0059835943
176	0x3b095b86	0.0020959093
177	0x3b412aeb	0.0029475044
178	0x3bc9473b	0.0061425245
179	0x3b9e07b8	0.0048226975
180	0x3acd71c7	0.0015674167
181	0x3bc6f9ab	0.006072243
182	0xbb8de3a2	-0.0043301145
183	0x3b0ac0e3	0.0021172098
184	0xb8a4a0e7	-7.8501e-05
185	0xbb8324ff	-0.004002213
186	0x3b5c78cd	0.0033641339
187	0x3b981d20	0.004642144
188	0x3c07d7ff	0.008291244
189	0x3aa8c3c1	0.0012875722
190	0x3c343a0c	0.011000168
191	0x38ca6790	9.6514006e-05
192	0x3c5e882c	0.013582271
193	0x3ad10f78	0.0015950045
194	0xba4689fe	-0.0007573663
195	0xbb85fe26	-0.0040891347
196	0xbba6495b	-0.0050746626
197	0x3c150cc3	0.009097281
198	0x3be876c2	0.007094235
199	0x38960131	7.152779e-05
200	0xbb90e0b8	-0.00442132
201	0x3beedd5c	0.0072895717
202	0x3c29348a	0.010327468
203	0x3bb11800	0.0054044724
204	0xbbc2a4e0	-0.005940065
205	0xba7bf3bf	-0.0009611211
206	0xbc45b373	-0.01206671
207	0xbb69da93	-0.003568326
208	0x3b43e2d6	0.0029889843
209	0x3c0d98ba	0.00864237
210	0x3a004b0a	0.0004893994
211	0x38887bd6	6.5080516e-05
212	0x3ca2901a	0.019844104
213	0xb992af64	-0.00027977966
214	0x3bc82acd	0.006108618
215	0xbb7b2b90	-0.0038325526
216	0x3a277172	0.0006387449
217	0xbb35450f	-0.002765957
218	0x3af5c268	0.0018749954
219	0x3a04ff01	0.0005073399
220	0xbc1bd1bb	-0.009510453
221	0xbb84e063	-0.0040550693
222	0x3afe834e	0.0019417794
223	0xbbaa940c	-0.005205637
224	0x3c17100d	0.009220135
225	0x3bac8416	0.0052647693
226	0xbb92e0b9	-0.0044823554
227	0x3b375950	0.0027976818
228	0xba940835	-0.001129395
229	0x3b61907f	0.0034418402
230	0x3b86ef68	0.004117895
231	0x3a837446	0.0010029159
232	0xbba5739f	-0.0050491835
233	0xbb0be3d6	-0.0021345518
234	0x3b666f3f	0.0035161523
235	0xbaf2e2ef	-0.0018530766
236	0x3ad07d2c	0.0015906445
237	0x3bd45d7b	0.0064808703
238	0xbaf60ac1	-0.0018771515
239	0x3bd11dd4	0.0063817296
240	0xba20a1b3	-0.00061276107
241	0xbc432e3f	-0.011912881
242	0x39a5b87c	0.00031608704
243	0x3be39962	0.006945775
244	0x3c3e61da	0.011620009
245	0x3c27941b	0.010228182
246	0x3b94010d	0.004516727
247	0xbb951c8f	-0.0045505236
248	0xbad98402	-0.0016595128
249	0x3a4f3813	0.0007904779
250	0x3bc67c7e	0.006057321
251	0x3c1d2101	0.009590388
252	0x3a233af4	0.0006226741
253	0xbc00e37d	-0.007866737
254	0x3bd92476	0.006626661
255	0x3bb6c100	0.0055772066

action_model._discrete_distribution.branches.0.weight f4 [4, 64]
0	0x3d8cc4a8	0.06873447
1	0x3d5a389a	0.053276636
2	0xbd3580d0	-0.0443123
3	0x3bc2300a	0.005926137
4	0xbd291ba1	-0.041286115
5	0xbc838172	-0.016052935
6	0x3d2650c4	0.040604368
7	0x3d60a865	0.054848094
8	0x3d72bd96	0.059262834
9	0xbd2d8dff	-0.042371746
10	0xbd35ea4b	-0.044412892
11	0x3d8bb8fd	0.06822393
12	0xbd65d69a	-0.056112863
13	0xbd69ea78	-0.057108372
14	0xbd5f7916	-0.054558836
15	0x3ccd83bb	0.025087228
16	0xbcfb100d	-0.030647302
17	0x3d8947c4	0.06703141
18	0xbd85cbac	-0.06532988
19	0xbda35f05	-0.07977108
20	0xbda2ff45	-0.07958845
21	0xbd154c0a	-0.03644947
22	0x3d677f95	0.056518156
23	0x3d31afa0	0.04338038
24	0xbd7e5b23	-0.062098633
25	0xbc755210	-0.0149731785
26	0x3d17cf9c	0.037063226
27	0x3d4b456c	0.049626753
28	0x3d828469	0.063729115
29	0xbd19423e	-0.03741669
30	0x3d80f2bb	0.06296297
31	0xbd4112cc	-0.047137067
32	0x3d63f7e4	0.05565633
33	0xbd7730df	-0.06034934
34	0xbd87bda6	-0.066279694
35	0xbd2bad7f	-0.041913506
36	0xbca34b52	-0.019933376
37	0x3daafe92	0.08349337
38	0xbd877726	-0.06614523
39	0x3d7bd85a	0.061485626
40	0x3d9ff924	0.07811192
41	0xbd412f29	-0.047164116
42	0x3d8ca2b4	0.06866971
43	0x3d396034	0.045257762
44	0x3d7cc51f	0.061711427
45	0x3d712a59	0.058878276
46	0x3d78ac89	0.060711417
47	0xbd58c763	-0.052924525
48	0x3d6a3516	0.057179533
49	0x3d70b02d	0.058761764
50	0x3ca85e63	0.02055282
51	0x3d716d8a	0.058942355
52	0x3c9ee340	0.01939547
53	0x3d647864	0.055778876
54	0x3d4657b3	0.04842348
55	0x3d67bbb6	0.0565755
56	0x3d6dc2ef	0.05804723
57	0x3d2e4aab	0.042551678
58	0x3cc0cc74	0.02353499
59	0x3d501a4f	0.05080634
60	0x3d9516fa	0.07279773
61	0xbd44eebe	-0.048079245
62	0x3d59603d	0.053070296
63	0xbd7020ff	-0.058625218
64	0xbc934f50	-0.017982155
65	0x3cd8bc72	0.026457045
66	0x3d9a1ee1	0.07525421
67	0x3dc7897f	0.09743022
68	0xbd019a2e	-0.031641178
69	0xbd9be2d0	-0.076116204
70	0xbcfb92c8	-0.03070964
71	0xbbd1e1fe	-0.006405114
72	0x3d283d6d	0.041074205
73	0xbcb1dd1b	-0.021711877
74	0xbc72cbdb	-0.014819111
75	0x3d13284d	0.035927106
76	0xbd932c95	-0.07186238
77	0xbc14a16b	-0.009071688
78	0xbd2d0aec	-0.042246744
79	0x3d7db5cc	0.061940953
80	0xbd6db3ea	-0.058032908
81	0x3d7c927c	0.061663136
82	0xbce0586c	-0.027385913
83	0xbd2b5f8f	-0.04183918
84	0xbd0d3127	-0.034470703
85	0xbcb2ca37	-0.02182494
86	0x3d94544a	0.07242639
87	0xbc146ead	-0.00905959
88	0xbc6d5f49	-0.01448805
89	0x3cf64e59	0.030066656
90	0x3d37a9ac	0.044839546
91	0x3ce90058	0.028442547
92	0x3d58af24	0.052901402
93	0xbd1ba593	-0.0379997
94	0x3a964008	0.0011463175
95	0xbd9771ea	-0.07394774
96	0xbd588425	-0.052860398
97	0xbd35a872	-0.044350095
98	0xbcdefb29	-0.027219372
99	0xbd1c59d7	-0.038171615
100	0xbdad0a28	-0.08449203
101	0x3d22e673	0.039770555
102	0xbb8b8152	-0.0042573595
103	0xbd16965f	-0.0367645
104	0x3c9811d2	0.018563185
105	0xbd3947cc	-0.045234486
106	0xbd8c5a80	-0.06853199
107	0x3d85a090	0.065247655
108	0x3d3e53b7	0.046466555
109	0x3cf3981d	0.02973562
110	0xbce04241	-0.027375342
111	0xbd2755b1	-0.040853206
112	0x3cfc6c2f	0.030813305
113	0x3d0e1df9	0.034696553
114	0x3d27bd64	0.0409521
115	0x3d858296	0.06519048
116	0xbdb1cbbc	-0.086814374
117	0x3ce3afc3	0.02779377
118	0x3c915c5d	0.017744238
119	0x3cc28658	0.0237457
120	0x3cc6c138	0.024262056
121	0x3d6363de	0.055515163
122	0x3d7521b1	0.059846584
123	0x3d68b023	0.056808602
124	0x3d38066e	0.044928007
125	0xbd87f8c5	-0.06639246
126	0x3d802abb	0.0625815
127	0xbcb46d8d	-0.022024894
128	0x3d3f16b3	0.046652507
129	0x3d62c7f1	0.05536646
130	0xbdca0f8f	-0.09866249
131	0xbd9e3d3f	-0.077265255
132	0xbd8f15d9	-0.06986589
133	0x3da3ea46	0.080036685
134	0x3d9fb1a0	0.07797551
135	0x3d4d2b29	0.05008999
136	0x3c485b34	0.012228776
137	0xbd38486f	-0.044990953
138	0xbd656fb9	-0.05601475
139	0x3caeaca5	0.021322558
140	0x3d8b0bee	0.06789385
141	0xbd85dc34	-0.06536141
142	0xbae8496b	-0.0017722076
143	0xbc79e11a	-0.015251422
144	0x3d0e6477	0.03476378
145	0x3ca8aec5	0.02059115
146	0xbd35ba2a	-0.044366993
147	0x3c97bbd9	0.01852219
148	0xbbc119e0	-0.005892977
149	0xbcf55003	-0.02994538
150	0x3b90be64	0.0044172276
151	0x3d76e215	0.060274202
152	0xbd69b058	-0.05705294
153	0xbd87b4ab	-0.066262566
154	0xbce57387	-0.02800919
155	0x3d196dfe	0.037458412
156	0xbc94468c	-0.018100046
157	0xbd06ff8b	-0.03295855
158	0x3d665404	0.056232467
159	0x3c28a200	0.01029253
160	0x3da06363	0.078314565
161	0xbd21b54e	-0.039479546
162	0xbd8b7b0d	-0.068105794
163	0xbc5af162	-0.013363214
164	0x3d844965	0.064593114
165	0x3d32e52d	0.04367559
166	0xbd9154ea	-0.07096274
167	0x3d6a71e0	0.057237506
168	0x3d137e29	0.036008988
169	0xbca29f5e	-0.019851383
170	0x3d84163a	0.06449552
171	0xbd35310f	-0.04423624
172	0x3d49e7c4	0.049293295
173	0x3d57b122	0.05265916
174	0x3d93db29	0.07219536
175	0xbd176952	-0.036965676
176	0x3d0a15b5	0.033712108
177	0x3d4a692f	0.049416717
178	0x3d240a12	0.040048666
179	0xbb876144	-0.004131468
180	0x3dae8929	0.08522255
181	0x3d2e61ec	0.042573854
182	0x3c8c03d6	0.017091673
183	0x3d26210e	0.040558867
184	0x3d735592	0.059407778
185	0xbcd7ce84	-0.026343592
186	0x3bd868ce	0.0066042906
187	0x3d0309ea	0.031991877
188	0xbd840896	-0.0644695
189	0xbc21a39e	-0.0098656695
190	0xbc1d0630	-0.009583995
191	0xbd4b9ab1	-0.049708072
192	0xbdc4126f	-0.095738284
193	0xbdbd5b44	-0.09245923
194	0x3d82fb54	0.06395593
195	0x3caa43fb	0.020784369
196	0x3dd3abe6	0.103355214
197	0x3cc5ce2f	0.024146168
198	0xbd965957	-0.07341259
199	0xbdc2636e	-0.09491621
200	0xbde3d2f9	-0.11124224
201	0x3db86bb9	0.090049215
202	0x3dbf5dc5	0.09344057
203	0xbd95cdc1	-0.07314635
204	0x3d7db2e3	0.061938178
205	0x3da61faa	0.08111508
206	0x3dacbea2	0.08434798
207	0xbdbb5184	-0.09146407
208	0x3dc3696f	0.09541594
209	0xbdc01b34	-0.093801886
210	0x3db6c9e8	0.08925229
211	0x3db56d39	0.08858723
212	0x3db1ae0d	0.08675776
213	0x3dbca15f	0.092104666
214	0xbdba146e	-0.09085928
215	0xbd9ee50b	-0.0775853
216	0x3dca47e9	0.09876997
217	0x3dbc44c2	0.09192802
218	0xbd61a8f9	-0.055092786
219	0xbda5d3f0	-0.080970645
220	0xbda335c5	-0.0796924
221	0x3dc544eb	0.09632286
222	0xbdbd3f2c	-0.09240565
223	0x3dc4562c	0.095867485
224	0xbd8d578d	-0.069014646
225	0x3d991931	0.07475508
226	0x3d93f3ce	0.072242364
227	0x3dc8a146	0.097963855
228	0x3d75a0bf	0.059967753
229	0xbdcc55c3	-0.09977295
230	0x3dad0673	0.08448496
231	0xbd919c33	-0.07109871
232	0xbd91c81c	-0.07118246
233	0x3db321b6	0.08746664
234	0xbdc3ad4a	-0.09554537
235	0xbd99499e	-0.074847445
236	0xbd9bd674	-0.07609263
237	0xbdc4d539	-0.096109815
238	0xbdbb560f	-0.09147274
239	0x3db6d50e	0.08927356
240	0xbd9b4c0d	-0.07582865
241	0xbd9cbc8a	-0.076531485
242	0xbdc5a947	-0.09651428
243	0xbdc987aa	-0.09840329
244	0x3c088609	0.008332738
245	0xbdc84db3	-0.09780445
246	0xbdc8cd9a	-0.098048404
247	0xbda28f76	-0.07937519
248	0xbda6f45a	-0.08152075
249	0xbdc1d161	-0.09463764
250	0xbdc3a1e6	-0.09552364
251	0xbd9cde23	-0.07659557
252	0xbd87c1cb	-0.0662876
253	0x3da87387	0.0822516
254	0xbdc940fa	-0.098268464
255	0x3dc5c3e0	0.09656501

action_model._discrete_distribution.branches.0.bias f4 [4]
0	0x3d35cc34	0.044384196
1	0x3ccbae3f	0.02486336
2	0x3d12745e	0.035755508
3	0xbd8e9082	-0.069611564
