results/FullyAbstract/bachelor/bachelor-11226185.onnx (onnx, 76519 bytes, 9 tensors)

network_body._body_endoder.seq_layers.0.weight f4 [64, 7]
-0.16620603 0.50164765 0.24426179 -0.24765499 0.12076047 0.0034035665 -0.23168483 -0.35353065
0.15004376 0.12676902 -0.030726967 -0.08611433 0.049786996 -0.54694 -0.0575437 0.13493384
-0.19181406 0.44244772 0.49098107 0.29756016 0.022178115 0.59466153 -0.11801941 0.13587284
-0.24136744 0.61324763 -0.23650946 0.28624937 -0.08251434 0.18243963 0.1769913 -0.010152114
-0.0886101 -0.0058188452 -0.24293156 -0.28757423 -0.038718656 -0.40431148 0.38474086 -0.13051647
0.3230769 0.32339606 0.20816208 0.43676254 -0.14110374 -0.087727636 -0.15719746 0.6271341
0.06800195 0.067432396 -0.18377507 -0.07052958 0.2101254 -0.5805309 -0.037080064 0.2632167
0.44255224 0.082054384 0.28071675 -0.181771 0.20851284 -0.02591983 -0.19094208 -0.32978526
0.25559798 0.32662457 0.053740386 -0.38844672 -0.4490028 0.10017693 0.97661644 0.178702
-0.48755887 -0.0954106 -0.56778806 -0.56567293 0.34461164 -0.38733062 -0.662192 0.4103422
-0.0029226346 -0.16113798 -0.47862837 0.14346531 -0.26813242 0.57350993 -0.6795979 -0.50979316
-0.28559765 -0.56827587 -0.39927322 -1.0391728 0.117547266 0.26064572 0.4372433 0.05492728
0.25410354 -0.1224248 0.4385208 0.7288942 -0.4465916 -0.30603936 -0.21512152 -0.23253773
-0.4684194 0.2735868 0.71155584 0.5648905 -0.2691967 -0.28098577 0.00922148 -0.58239734
-0.29130238 -0.16820654 -0.4952801 0.16640137 0.36892006 -0.45007858 -0.56732625 0.5237495
-0.25081912 0.5199122 0.3243875 0.3210957 0.08789143 0.067816816 -0.42414322 -0.22911589
0.23246728 -0.086553365 -0.004101047 -0.049352147 0.43687278 0.46931997 -0.5302362 0.24065864
0.6998119 -0.05201317 -0.22999208 0.3896677 0.3286057 -0.3894318 -0.1524648 0.2939797
0.14723085 0.39377356 0.15144283 -0.5270604 0.30809015 -0.13913114 -0.19706582 -0.20290932
0.08388911 -0.31127307 -0.4069642 -0.19801085 0.5069132 0.41328683 -0.1885371 0.1396534
-0.28124154 -0.09999325 -0.5175345 -0.5841873 -0.04748498 -0.54158425 0.3599329 -0.26032332
0.38849357 0.028287552 -0.007980994 0.42027476 0.28051907 0.08570889 0.10224202 -0.7289934
-0.041967418 0.42192695 0.5732892 0.24166654 -0.13672727 -0.25795084 -1.0001146 0.21914525
-0.092006125 -0.39313665 0.1290839 0.0226637 -0.9525936 0.6878052 0.19929212 -0.48912832
0.009723409 -0.18101743 0.02063296 0.39376757 0.37917435 0.039714716 0.28344873 0.6767407
0.10428176 0.3706288 -0.078803286 0.5605488 0.0276276 -0.025621569 -0.40984827 0.08453984
0.038905196 -0.16300409 0.40193188 0.5495045 -0.12831792 -0.3343371 0.0004618618 0.1373662
-0.18418817 -0.32848808 -0.19938385 0.66354084 0.051740803 0.18386133 0.09842483 -0.11644108
0.7263345 -0.2192222 -0.807867 0.51114047 0.13469242 0.13472791 0.3007039 -0.3441228
-0.24490455 0.24889326 -0.11210109 -0.06362725 0.2688001 0.6237324 -0.016270692 -0.39270052
-0.6272792 0.11598521 0.11904271 0.24978828 0.046775367 0.19144808 -0.32900923 -0.4068731
-0.21139856 -0.75258785 -0.04834114 -0.39496198 -0.6663005 0.25627166 0.56678486 -0.5634334
00000000: ea31 2abe fb6b 003f c31f 7a3e 4599 7dbe
00000010: 4451 f73d 5f0e 5f3b ca3e 6dbe f801 b5be
00000020: 12a5 193e bdcf 013e 1fb7 fbbc b65c b0bd
00000030: 73ed 4b3d 4304 0cbf f1b2 6bbd 192c 0a3e
00000040: e86a 44be 8288 e23e df61 fb3e ce59 983e
00000050: e1ae b53c bd3b 183f 29b4 f1bd 4022 0b3e
00000060: 0729 77be ccfd 1c3f 892f 72be 478f 923e
00000070: 47fd a8bd 74d1 3a3e 353d 353e 0d55 26bc
00000080: 3679 b5bd 03ac bebb 0dc3 78be ee3c 93be
00000090: 7497 1ebd ea01 cfbe c1fc c43e 1ca6 05be
000000a0: 566a a53e 2b94 a53e 7128 553e 579f df3e
000000b0: 807d 10be 8caa b3bd 5ff8 20be dc8b 203f
000000c0: 9b44 8b3d ff19 8a3d 882f 3cbe d071 90bd
000000d0: 1d2b 573e ac9d 14bf 44e1 17bd 57c4 863e
000000e0: 3596 e23e 210c a83d 1bba 8f3e 2d22 3abe
000000f0: 6484 553e d355 d4bc 5286 43be 9dd9 a8be
00000100: bddd 823e 563b a73e e11e 5c3d 7de2 c6be
00000110: b2e3 e5be 9029 cd3d 8903 7a3f a8fd 363e
00000120: 51a1 f9be a266 c3bd 8f5a 11bf f1cf 10bf
00000130: f070 b03e 3350 c6be 6a85 29bf 5f18 d23e
00000140: ac89 3fbb 5b01 25be c70e f5be 92e8 123e
00000150: a748 89be 8cd1 123f 21fa 2dbf ce81 02bf
00000160: db39 92be 877a 11bf 8a6d ccbe 9d03 85bf
00000170: 9fbc f03d 5b73 853e 5bde df3e 6dfb 603d
00000180: dc19 823e dbb9 fabd cc85 e03e cf98 3a3f
00000190: a7a7 e4be 31b1 9cbe d148 5cbe 5f1e 6ebe
000001a0: abd4 efbe 9213 8c3e 8628 363f aa9c 103f
000001b0: 26d4 89be 5edd 8fbe b115 173c fe17 15bf
000001c0: 9625 95be 563e 2cbe 5a95 fdbe 1f65 2a3e
000001d0: 17e3 bc3e b370 e6be 4b3c 11bf 7214 063f
000001e0: 5d6b 80be f718 053f 1e16 a63e a866 a43e
000001f0: 6c00 b43d 8be3 8a3d 4d29 d9be 5b9d 6abe
00000200: e70b 6e3e e442 b1bd 1362 86bb 7a25 4abd
00000210: caad df3e b54a f03e 8fbd 07bf 386f 763e
00000220: df26 333f c30b 55bd 0b83 6bbe 8682 c73e
00000230: 023f a83e 9b63 c7be bc1f 1cbe 8284 963e
00000240: afc3 163e b09c c93e d413 1b3e 6eed 06bf
00000250: febd 9d3e 6578 0ebe 9fcb 49be 76c7 4fbe
00000260: 0ece ab3d 2f5f 9fbe 9d5d d0be 5bc3 4abe
00000270: 10c5 013f 559a d33e df0f 41be 4d01 0f3e
00000280: e4fe 8fbe 43c9 ccbd 247d 04bf 4d8d 15bf
00000290: 9c7f 42bd 44a5 0abf 2049 b83e 1949 85be
000002a0: a1e8 c63e 4cbb e73c b7c2 02bc 412e d73e
000002b0: 32a0 8f3e 2488 af3d 4464 d13d 509f 3abf
000002c0: 07e6 2bbd cf06 d83e 15c3 123f 6f77 773e
000002d0: 3c02 0cbe 2212 84be c103 80bf 9d67 603e
000002e0: b56d bcbd 3549 c9be 922e 043e 39a9 b93c
000002f0: 2ddd 73bf 0014 303f 3c13 4c3e 076f fabe
00000300: ef4e 1f3c a25c 39be 7406 a93c e79b c93e
00000310: 2423 c23e e6ab 223d 3120 913e e13e 2d3f
00000320: ad91 d53d 0fc3 bd3e 9e63 a1bd 2080 0f3f
00000330: 4753 e23c 53e4 d1bc a2d7 d1be 3923 ad3d
00000340: 0e5b 1f3d 8bea 26be 04ca cd3e 54ac 0c3f
00000350: c665 03be 3b2e abbe 0b26 f239 baa9 0c3e
00000360: d39b 3cbe 972f a8be 482b 4cbe d0dd 293f
00000370: 2aee 533d 2546 3c3e f592 c93d a978 eebd
00000380: 0ff1 393f c97b 60be 5fd0 4ebf 1ada 023f
00000390: cfec 093e 1df6 093e ddf5 993e dd30 b0be
000003a0: 42c8 7abe e0dd 7e3e 4295 e5bd 014f 82bd
000003b0: 2ba0 893e edac 1f3f 1d4a 85bc 0b10 c9be
000003c0: 5f95 20bf a789 ed3d aacc f33d 80c8 7f3e
000003d0: 8797 3f3d f70a 443e e673 a8be ac51 d0be
000003e0: dd78 58be 99a9 40bf 5c01 46bd 7538 cabe
000003f0: ab92 2abf 0a36 833e d018 113f 2c3d 10bf

network_body._body_endoder.seq_layers.0.bias f4 [64]
0.22644722 -0.09136802 -0.024201011 -0.08769733 -0.2524548 0.026647756 0.09310648 0.03789792
-0.012194194 -0.03425169 0.11106034 -0.057898775 0.024038892 -0.11574659 0.19145823 0.051235292
-0.07708231 0.035093907 -0.021234464 0.26309326 -0.06381573 -0.14362638 0.2563119 -0.018130288
-0.17486788 -0.0546747 -0.2875659 0.10751988 -0.14848278 -0.046102088 0.12008264 0.22174956
0.23278376 -0.004503451 -0.1226035 0.005632381 0.115568675 -0.103402875 -0.11300694 -0.07410552
0.15325347 -0.17033796 0.0855343 0.14113979 -0.05840957 0.025250841 -0.041658383 -0.060409293
0.042685956 -0.09029244 -0.044753745 -0.018679213 0.16488172 -0.050837994 -0.047913946 0.018257027
0.0132318465 0.034805633 -0.0082380865 -0.10370598 0.03344462 0.011896224 0.024651553 -0.11435991
00000000: c8e1 673e 281f bbbd 3341 c6bc a89a b3bd
00000010: c141 81be 654c da3c 9cae be3d d93a 1b3d
00000020: 28ca 47bc 804b 0cbd 9b73 e33d 4427 6dbd
00000030: 36ed c43c 8c0c edbd a00d 443e 19dc 513d
00000040: 55dd 9dbd a1be 0f3d e6f3 adbc 29b4 863e
00000050: d2b1 82bd cb12 13be 503b 833e f885 94bc
00000060: 9110 33be 94f2 5fbd d63b 93be 6233 dc3d
00000070: df0b 18be 8bd5 3cbd e3ed f53d 5112 633e
00000080: de5e 6e3e af91 93bb 8b17 fbbd d68f b83b
00000090: 45af ec3d e3c4 d3bd 2f70 e7bd a3c4 97bd
000000a0: 7aee 1c3e 136d 2ebe 9b2c af3d f386 103e
000000b0: e03e 6fbd dada ce3c fba1 2abd bc6f 77bd
000000c0: 78d7 2e3d 3eeb b8bd b44f 37bd 2605 99bc
000000d0: c1d6 283e 803b 50bd 6a41 44bd c38f 953c
000000e0: 63ca 583c 5a90 0e3d 0af9 06bc cd63 d4bd
000000f0: 3afd 083d 61e8 423c 0ef2 c93c 8735 eabd

network_body._body_endoder.seq_layers.2.weight f4 [64, 64]
-0.24781479 0.12759727 0.17159934 0.058308512 0.13563743 0.06435542 -0.069802135 0.18998891
-0.04138572 -0.0038431652 0.04400878 -0.040912446 -0.11578526 0.18738969 0.019474337 -0.1182797
0.23916778 0.25143793 0.06584828 0.12696584 0.18020779 -0.067526825 -0.060700774 0.14412332
0.010475231 0.20796482 -0.013742419 0.3520782 0.2251874 0.1436574 -0.011838649 -0.24095574
0.30082172 0.13065925 0.10735078 0.06467403 -0.24628636 -0.06980623 0.13466537 0.041540775
-0.24174285 0.020108618 -0.28697678 -0.02893437 -0.004208832 0.15752262 0.3578672 0.023240639
0.12826805 0.18317978 0.0007614083 0.14682458 0.12260744 -0.009980399 -0.05794007 -0.4434685
-0.051832553 0.10046654 -0.15711243 -0.30950323 -0.06685053 -0.022504281 -0.090678915 0.2017497
-0.10255798 0.028168429 -0.19155432 -0.12443859 0.16106327 0.018237691 -0.10348284 -0.0660909
0.06810971 -0.08073631 -0.099596225 0.27438375 0.20877981 0.16000056 -0.192146 -0.20718014
0.06830767 -0.09276176 0.1671015 0.0118125025 0.17164408 0.19418852 0.095000036 -0.24404575
-0.039328594 0.2273356 0.37659904 -0.11422187 -0.2030297 0.06575086 -0.1542844 0.15629798
-0.09177513 0.19289275 0.0867054 0.096841864 0.4257216 0.12968268 0.20019966 0.052557215
0.051469978 0.12892815 0.20219706 -0.024203213 -0.0639008 -0.0044911387 -0.047973517 0.0828344
0.03200468 -0.018650407 -0.14859709 -0.011848528 -0.097235605 -0.114604786 0.01410957 0.06763809
0.084868215 -0.24402581 -0.020234417 0.30728802 -0.17167093 -0.14973415 0.0331299 0.30766413
0.22155987 -0.020241767 -0.028017892 0.15568727 -0.019698493 0.032677826 0.06718348 0.11936206
-0.034648556 -0.22339739 -0.12763077 0.17021771 0.008309817 -0.16341068 -0.010503318 -0.09094251
0.038969677 -0.020323481 -0.2545569 0.047832448 -0.07816737 -0.052448 0.058224235 0.19001979
-0.017229551 0.018201286 0.0099124 -0.153078 0.13085444 -0.092132024 0.056110915 -0.14912705
0.38751957 -0.2726544 0.15512864 -0.0035519935 0.00035229043 0.11311588 -0.032180242 -0.22596975
-0.1617562 0.030813172 -0.01385673 -0.0030600617 0.07429209 0.13307954 0.37953332 0.056350984
0.06625834 0.031699788 0.27761713 0.23292668 0.273725 -0.30926985 -0.04773235 0.08456769
0.023418633 0.3988479 -0.097679146 0.13277361 0.052175622 -0.07055235 0.05695112 0.065030776
0.24970214 0.15280533 0.14375497 -0.011277827 0.08749139 0.03962815 0.22248372 -0.23854889
0.04224603 -0.21617006 0.44502082 0.08738862 0.23106879 0.14528766 0.2305259 0.105728075
0.22212899 -0.009938131 -0.0032164294 -0.22170962 -0.1005684 0.055060316 -0.33261344 0.033684704
0.089427166 0.029408216 -0.023852907 0.2144711 -0.12314992 0.13328394 0.114500664 -0.12063581
-0.09724483 0.11079294 -0.008000737 0.33147374 -0.12422844 -0.111759685 -0.06749858 0.050808128
0.09895851 0.23702519 0.25713232 0.12021956 0.04961155 -0.33106843 -0.30735558 0.005989183
-0.1272555 0.16872859 -0.17708719 0.05330168 -0.07356615 -0.121012844 0.32773665 -0.006585342
-0.15417814 -0.17986065 0.25694528 0.12379334 0.080170706 0.27873373 0.17964663 0.03938992
00000000: 29c3 7dbe dca8 023e bdb7 2f3e e8d4 6e3d
00000010: 8ae4 0a3e c6cc 833d 6cf4 8ebd 748c 423e
00000020: 1384 29bd 9ddd 7bbb 8d42 343d cf93 27bd
00000030: d320 edbd 15e3 3f3e a588 9f3c a13c f2bd
00000040: 66e8 743e 79bc 803e 77db 863d 5503 023e
00000050: 6488 383e 814b 8abd 60a1 78bd 1095 133e
00000060: 4ea0 2b3c bbf4 543e e227 61bc 9843 b43e
00000070: 8797 663e ed1a 133e e5f6 41bc 1abd 76be
00000080: 4e05 9a3e 8acb 053e bada db3d d173 843d
00000090: 7e32 7cbe 92f6 8ebd b8e5 093e a926 2a3d
000000a0: 708b 77be d4ba a43c 9fee 92be c607 edbc
000000b0: 3eea 89bb 9c4d 213e 5f3a b73e 2763 be3c
000000c0: b358 033e 7b93 3b3e 3f99 473a 2f59 163e
000000d0: 9c19 fb3d d484 23bc 9152 6dbd 4e0e e3be
000000e0: 5f4e 54bd 67c1 cd3d 15e2 20be 3577 9ebe
000000f0: eee8 88bd e65a b8bc deb5 b9bd 7997 4e3e
00000100: eb09 d2bd 7ac1 e63c d126 44be a9d9 febd
00000110: c5ed 243e 3667 953c d0ee d3bd aa5a 87bd
00000120: 1b7d 8b3d 1459 a5bd 1bf9 cbbd 077c 8c3e
00000130: 60ca 553e 30d7 233e ecc1 44be 0827 54be
00000140: e4e4 8b3d e1f9 bdbd a81c 2b3e 3a89 413c
00000150: 77c3 2f3e 5bd9 463e 618f c23d 21e7 79be
00000160: 0517 21bd aaca 683e 97d1 c03e 28ed e9bd
00000170: 05e7 4fbe 63a8 863d bbfc 1dbe 940c 203e
00000180: 99f4 bbbd ad85 453e 9a92 b13d 0755 c63d
00000190: 2ef8 d93e 89cb 043e 2401 4d3e 3c46 573d
000001a0: 2fd2 523d be05 043e bf0c 4f3e d145 c6bc
000001b0: 6cde 82bd 672a 93bb e17f 44bd 15a5 a93d
000001c0: 5717 033d bdc8 98bc d629 18be 5420 42bc
000001d0: 7623 c7bd eab5 eabd d32b 673c d785 8a3d
000001e0: 63cf ad3d e7e1 79be a6c2 a5bc db54 9d3e
000001f0: 81ca 2fbe e953 19be 38b3 073d 2786 9d3e
00000200: 97e0 623e 10d2 a5bc c785 e5bc 7c6c 1f3e
00000210: bc5e a1bc 2fd9 053d 7e97 893d 1974 f43d
00000220: a5eb 0dbd 49c2 64be a4b1 02be 8d4d 2e3e
00000230: e625 083c 2155 27be 1c16 2cbc 1140 babd
00000240: ab9e 1f3d 6e7d a6bc 4855 82be f5eb 433d
00000250: 3716 a0bd b7d3 56bd 897c 6e3d 8c94 423e
00000260: fd24 8dbc dd1a 953c 9e67 223c 7bc0 1cbe
00000270: b5fe 053e b7af bcbd 8fd4 653d c3b4 18be
00000280: f768 c63e 5c99 8bbe 0bda 1e3e 90c8 68bb
00000290: 9fb3 b839 4ca9 e73d 6ecf 03bd 9d64 67be
000002a0: 6ba3 25be e86b fc3c 5707 63bc 518b 48bb
000002b0: 7426 983d 0146 083e 3152 c23e 4ad0 663d
000002c0: 74b2 873d a3d7 013d d523 8e3e 5584 6e3e
000002d0: af25 8c3e 9e58 9ebe ff82 43bd d331 ad3d
000002e0: 6fd8 bf3c cb35 cc3e 010c c8bd cef5 073e
000002f0: 1bb6 553d c07d 90bd 9445 693d db2e 853d
00000300: ebb1 7f3e 0079 1c3e 8134 133e a3c6 38bc
00000310: b02e b33d 2151 223d c6d2 633e 2946 74be
00000320: 2c0a 2d3d af5b 5dbe c5d9 e33e cef8 b23d
00000330: 4c9d 6c3e 4ac6 143e fb0e 6c3e f687 d83d
00000340: c875 633e 8bd3 22bc bbca 52bb d907 63be
00000350: cef6 cdbd ed86 613d 4f4c aabe f9f8 093d
00000360: 9725 b73d 80e9 f03c 2c67 c3bc 509e 5b3e
00000370: 0636 fcbd 967b 083e 537f ea3d e80f f7bd
00000380: 4c28 c7bd 69e7 e23d 8615 03bc edb6 a93e
00000390: 7b6b febd 43e2 e4bd b23c 8abd 2f1c 503d
000003a0: c2aa ca3d bbb6 723e d9a6 833e ac35 f63d
000003b0: 7b35 4b3d cd81 a9be b65d 9dbe e940 c43b
000003c0: 444f 02be 30c7 2c3e 5856 35be dd52 5a3d
000003d0: daa9 96bd 95d5 f7bd 19cd a73e dac9 d7bb
000003e0: e0e0 1dbe 642d 38be 558e 833e 5d87 fd3d
000003f0: 8a30 a43d 30b6 8e3e 49f5 373e 5357 213d

network_body._body_endoder.seq_layers.2.bias f4 [64]
-0.18207817 -0.053072486 0.008249389 0.16230962 0.00815603 0.21680555 0.15393409 0.076040976
0.041546557 -0.017680986 0.010201751 -0.039827984 -0.05244385 -0.13451684 -0.094757676 -0.0793037
0.053741604 0.13424571 0.012015887 0.0705394 0.11550055 -0.03628057 0.056708466 0.03773093
0.049176823 0.10764103 -0.10868747 -0.2171865 -0.04051231 -0.17221522 -0.015977388 0.09884952
-0.094216175 -0.03038653 0.06639492 0.08663957 -0.04170159 0.10142549 0.0345019 0.11764908
0.09632555 -0.07519097 0.061283357 0.07979853 0.04672868 0.08284753 0.019155174 0.11258366
-0.112566665 0.20237364 0.01377038 0.016317474 0.086957105 0.0191039 0.20781875 0.087465465
0.044859793 0.12006375 0.047062553 0.008334285 -0.090028614 0.07666294 0.061202038 0.23103572
00000000: b372 3abe 8962 59bd 7228 073c 7e34 263e
00000010: dfa0 053c 4602 5e3e e6a0 1d3e 5fbb 9b3d
00000020: b92c 2a3d b7d7 90bc 3f25 273c ab22 23bd
00000030: 5dcf 56bd c8be 09be 5010 c2bd fa69 a2bd
00000040: 2820 5c3d b577 093e 48de 443c f676 903d
00000050: 8d8b ec3d ef9a 14bd 2347 683d bf8b 1a3d
00000060: a36d 493d e672 dc3d 8997 debd 2366 5ebe
00000070: 3cf0 25bd 3059 30be 03e3 82bc 9e71 ca3d
00000080: 69f4 c0bd 2ced f8bc 0ffa 873d 1670 b13d
00000090: 49cf 2abd 2bb8 cf3d dd51 0d3d 00f2 f03d
000000a0: 5446 c53d b9fd 99bd 4204 7b3d 696d a33d
000000b0: 9366 3f3d f7ab a93d 50eb 9c3c 4392 e63d
000000c0: 5a89 e6bd 093b 4f3e 299d 613c 39ac 853c
000000d0: 9116 b23d c87f 9c3c 70ce 543e 1821 b33d
000000e0: e7be 373d fce3 f53d aac4 403d 868c 083c
000000f0: ec60 b8bd 7601 9d3d fdae 7a3d a194 6c3e

action_model._discrete_distribution.branches.0.weight f4 [4, 32]
-2.0953376 -0.50631964 0.6351938 0.32576907 -0.016871504 0.46601817 0.3782827 0.2704268
-0.1386742 -0.095604554 0.85376954 0.28206235 -0.53261197 -1.7258719 0.027885918 0.34797746
0.35256624 0.4624354 0.72991055 -0.14308417 -1.2844864 -0.85819435 -0.24400511 0.2928694
-0.1844633 -0.62922484 -0.37925178 0.1720691 -0.0057308595 0.80674076 0.5266393 -0.19387233
0.7808551 -0.109934494 0.18257721 -0.065558314 -0.10569828 -0.08365367 0.36146507 -0.4637762
0.5300841 0.2522629 -0.51054436 -0.4425063 0.15559284 0.3754126 -0.2622625 -0.04191609
0.18407391 -0.25324026 0.20882046 -0.09273056 0.6914359 0.5697911 0.038022764 -0.27779955
-0.003421257 0.078237765 0.44083363 0.15744814 0.08105469 -0.4079769 -0.04955596 0.41936398
0.65751004 0.15879907 -0.42943603 -0.21793145 0.42814553 -0.27941465 -0.6963386 0.13057233
-0.17093013 -0.20590773 -0.21493524 -0.40049386 0.38063222 1.059149 -0.020907667 0.23309635
-0.2413691 -0.122881435 -0.57617974 -0.11992441 0.45443153 -0.21759361 -0.04589942 0.48775867
0.31804377 -0.20241226 -0.30251807 -0.6822426 -0.034744497 -0.012670713 -0.052240707 0.062776975
1.1101809 1.12605 -0.7057031 -0.20410119 -0.71916765 -0.2510652 -0.28709215 -0.039303795
-0.19575664 0.15634187 -0.33033243 1.8027519 0.2637762 0.75472385 0.43349642 -1.311066
-0.6476645 -0.19513118 -1.2655702 0.97297716 0.46475515 0.67384624 0.5260803 -1.4978796
-0.07813135 0.9841825 0.16212793 0.85168046 -0.072758675 -0.7242333 -0.9275779 -0.511241
00000000: 031a 06c0 2a9e 01bf 109c 223f 34cb a63e
00000010: 1c36 8abc ef99 ee3e 45ae c13e 6275 8a3e
00000020: 9c00 0ebe 52cc c3bd a490 5a3f 7a6a 903e
00000030: 4259 08bf 5fe9 dcbf 0271 e43c 1a2a b23e
00000040: 9083 b43e 55c4 ec3e 6bdb 3a3f a884 12be
00000050: 0d6a a4bf a0b2 5bbf 7adc 79be faf2 953e
00000060: f3e3 3cbe e114 21bf 4a2d c2be e232 303e
00000070: efc9 bbbb 9086 4e3f d5d1 063f 7886 46be
00000080: 1fe6 473f 5625 e1bd 85f5 3a3e 7043 86bd
00000090: 5778 d8bd 9e52 abbd f311 b93e 1374 edbe
000000a0: 97b3 073f 9a28 813e 09b3 02bf 3090 e2be
000000b0: bb53 1f3e 1536 c03e 4547 86be 35b0 2bbd
000000c0: df7d 3c3e b5a8 81be 08d5 553e 85e9 bdbd
000000d0: f101 313f d4dd 113f c2bd 1b3d be3b 8ebe
000000e0: 2b37 60bb 1f3b a03d f2b4 e13e 163a 213e
000000f0: 0000 a63d 59e2 d0be 31fb 4abd e0b6 d63e
00000100: 9452 283f 399c 223e 0adf dbbe 6c29 5fbe
00000110: e435 db3e 700f 8fbe 3f43 32bf c1b4 053e
00000120: 4f08 2fbe 7ad9 52be fc17 5cbe 880d cdbe
00000130: 3ae2 c23e 3292 873f 8e46 abbc cfb0 6e3e
00000140: 7629 77be 43a9 fbbd 8480 13bf ee9a f5bd
00000150: 40ab e83e dcd0 5ebe 0801 3cbd 81bb f93e
00000160: a2d6 a23e 2945 4fbe a6e3 9abe 73a7 2ebf
00000170: 3f50 0ebd d298 4fbc 5afa 55bd 3791 803d
00000180: 681a 8e3f 6822 903f f5a8 34bf e7ff 50be
00000190: 5f1b 38bf 9e8b 80be befd 92be 04fd 20bd
000001a0: 6e74 48be 1518 203e 5521 a9be 93c0 e63f
000001b0: ad0d 873e 9535 413f 3ef3 dd3e 03d1 a7bf
000001c0: 57cd 25bf 78d0 47be 34fe a1bf 0815 793f
000001d0: 63f4 ed3e 3081 2c3f 33ad 063f 85ba bfbf
000001e0: 5403 a0bd 62f3 7b3f dd04 263e bb07 5a3f
000001f0: 8002 95bd 5b67 39bf bf75 6dbf b1e0 02bf

action_model._discrete_distribution.branches.0.bias f4 [4]
2.2790658 -1.2104634 -0.0642381 -1.8652859
00000000: 37dc 1140 77f0 9abf 448f 83bd b0c1 eebf

onnx::LSTM_98 f4 [1, 128, 64]
-0.0021580588 0.1892484 0.2113457 0.014993071 -0.010069784 -0.24928734 0.19606303 -0.2716793
-0.14741637 0.06666805 -0.05278516 0.11145148 -0.009067264 0.1436198 -0.017683266 0.29662758
0.13827975 -0.02697062 0.08099415 -0.06838563 -0.032345247 -0.12955701 -0.13439667 -0.06107772
-0.19814801 -0.0037344461 -0.37791607 0.42718968 0.16993847 -0.0036932384 -0.08931412 -0.2621164
-0.17186575 -1.1580591e-05 -0.20782454 0.43560088 0.18004917 0.053878985 0.2666987 0.039594788
0.19629785 0.13965155 -0.1618666 -0.122044675 -0.25289944 -0.21681115 0.0038566021 -0.27304628
0.09445152 0.061588787 0.14112355 -0.09085886 0.20958921 0.014350437 0.09957749 -0.084906
0.106421016 0.09352613 -0.017427685 0.25533885 0.07600764 -0.44298008 -0.15513639 -0.056824055
-0.15330347 0.16205527 -0.04161126 -0.11282764 -0.11827069 0.10398654 -0.25352865 0.021491611
-0.2806314 0.041118048 0.37717843 0.13477983 0.31310698 -0.0020698225 -0.18005578 -0.34426677
0.45272487 -0.09808267 0.28936997 -0.09777464 -0.25242555 0.05776474 0.3023936 -0.02737599
0.20504925 0.253177 -0.24306944 0.17405 -0.14777999 -0.062283516 -0.022237767 0.37232184
0.45893312 0.07681773 -0.028920561 -0.34663984 0.15715171 0.10959065 0.014511554 0.29573324
-0.08750718 0.058653165 0.05141564 0.04924425 0.41900647 0.24886058 0.13376594 0.039014265
0.005086645 -0.25752667 0.16793415 -0.09501066 0.009990281 0.016690703 0.041861754 0.30688825
0.07289762 0.19501206 -0.16146813 -0.14762221 0.052446365 0.003168558 0.17222674 -7.1373855e-05
0.056811806 0.35669118 0.06451156 -0.1877394 0.21852788 -0.21330112 0.1901881 0.13777263
-0.16524655 0.18830685 -0.10027944 0.010946671 -0.24201465 0.22919029 -0.04405262 -0.15125483
0.23435143 0.15250011 -0.27543667 -0.13338816 0.15383087 0.32909983 -0.11201567 -0.10692999
-0.28530625 -0.101241656 -0.0814704 0.15133975 -0.12523991 0.016416295 -0.1605277 -0.23431699
-0.2322073 0.06531248 -0.094021685 0.271445 0.0661423 0.021051839 0.2676899 -0.04329572
0.22228102 -0.02078557 -0.10029278 -0.21122207 -0.2650335 -0.04083124 0.07861059 -0.20632578
0.06434367 -0.02145685 -0.058151342 0.024028555 0.19148123 0.14868198 -0.15392673 -0.20213154
-0.25188267 0.10824293 0.32797933 0.1935884 -0.16271715 -0.19575064 -0.120319165 -0.10967434
0.14268912 0.2356677 0.1344623 0.08018538 0.08723608 0.17710376 0.4120584 -0.18827698
-0.0143526895 0.010747393 0.1595674 -0.015838712 -0.076624654 0.201826 -0.081294246 0.039359767
0.01125098 -0.12117694 0.17458431 -0.17191525 -0.102226555 -0.13389403 -0.19351716 0.07594045
-0.014349545 -0.017298015 -0.3015562 -0.1938876 0.38755754 0.0699039 -0.221883 -0.080126636
0.124285996 0.06091072 -0.029716305 0.094784245 -0.055316728 0.09066476 0.13925703 -0.22182286
0.13200247 -0.12819399 -0.2000612 0.2588588 -0.107778065 -0.19532883 -0.18834971 0.027294416
0.2789742 -0.19397952 0.3132013 0.0136711225 0.1405195 0.1214834 0.05366171 -0.06458374
-0.06515205 -0.14504686 0.21233755 0.03477246 -0.13729252 -0.15428694 -0.084111065 -0.07927297
00000000: 386e 0dbb 55ca 413e 026b 583e 7fa5 753c
00000010: bcfb 24bc 2e45 7fbe bfc4 483e 8d19 8bbe
00000020: 51f4 16be 4289 883d 4035 58bd ac40 e43d
00000030: dd8e 14bc 1211 133e 7fdc 90bc 92df 973e
00000040: 3599 0d3e 7df1 dcbc 43e0 a53d c40d 8cbd
00000050: 737c 04bd 98aa 04be 489f 09be a22c 7abd
00000060: 50e7 4abe 9cbd 74bb 377e c1be 9bb8 da3e
00000070: 5a04 2e3e 420a 72bb 52ea b6bd 1f34 86be
00000080: 93fd 2fbe 424a 42b7 f5cf 54be 1407 df3e
00000090: cf5e 383e 36b0 5c3d bb8c 883e 252e 223d
000000a0: 4e02 493e d100 0f3e 5cc0 25be 8ff2 f9bd
000000b0: 097c 81be be03 5ebe 0cbf 7c3b b9cc 8bbe
000000c0: cc6f c13d 8644 7c3d b182 103e 3614 babd
000000d0: 8e9e 563e 181e 6b3c 48ef cb3d 32e3 adbd
000000e0: 43f3 d93d a18a bf3d 81c4 8ebc c6bb 823e
000000f0: e5a9 9b3d 49ce e2be 13dc 1ebe 57c0 68bd
00000100: 96fb 1cbe d1f1 253e 9270 2abd 2d12 e7bd
00000110: e737 f2bd e5f6 d43d 82ce 81be 2d0f b03c
00000120: ebae 8fbe 666b 283d 881d c13e b903 0a3e
00000130: 8f4f a03e dca5 07bb 8b60 38be bc43 b0be
00000140: 8ecb e73e 91df c8bd 4d28 943e 123e c8bd
00000150: ec3d 81be b89a 6c3d 55d3 9a3e 9d43 e0bc
00000160: 6ef8 513e 6aa0 813e 32e7 78be 2a3a 323e
00000170: a353 17be 001d 7fbd fa2b b6bc f8a0 be3e
00000180: 48f9 ea3e 9d52 9d3d d0ea ecbc c77a b1be
00000190: 61ec 203e 1071 e03d dec1 6d3c 596a 973e
000001a0: f736 b3bd 4d3e 703d 3599 523d 57b4 493d
000001b0: 0488 d63e 4fd5 7e3e f0f9 083e 6ccd 1f3d
000001c0: dfad a63b 89da 83be eef6 2b3e f394 c2bd
000001d0: 47ae 233c f1ba 883c 3b77 2b3d 7520 9d3e
000001e0: 594b 953d 3eb1 473e e757 25be 472a 17be
000001f0: 00d2 563d 95a7 4f3b 355c 303e 8cae 95b8
00000200: 7fb3 683d 3aa0 b63e a31e 843d c23e 40be
00000210: c6c5 5f3e 9c6b 5abe abc0 423e 4514 0d3e
00000220: 6436 29be 83d3 403e 4f5f cdbd aa59 333c
00000230: b0d2 77be dcb0 6a3e 8570 34bd 8ce2 1abe
00000240: d2f9 6f3e fd28 1c3e 0906 8dbe e896 08be
00000250: d785 1d3e c67f a83e 7968 e5bd 1cfe dabd
00000260: a913 92be c957 cfbd f4d9 a6bd cff8 1a3e
00000270: e43e 00be 777b 863c 6061 24be cbf0 6fbe
00000280: c0c7 6dbe 8dc2 853d 718e c0bd d7fa 8a3e
00000290: 9d75 873d e874 ac3c a70e 893e da56 31bd
000002a0: a39d 633e 8046 aabc 4d66 cdbd 994a 58be
000002b0: 79b2 87be a93e 27bd 97fe a03d 1147 53be
000002c0: 9dc6 833d 47c6 afbc 1a30 6ebd 88d7 c43c
000002d0: a813 443e 1740 183e f89e 1dbe 92fb 4ebe
000002e0: c4f6 80be 78ae dd3d e8ec a73e 0a3c 463e
000002f0: 539f 26be db72 48be e569 f6bd f19c e0bd
00000300: 191d 123e e052 713e 7cb0 093e 3c38 a43d
00000310: d4a8 b23d b05a 353e 52f9 d23e aecb 40be
00000320: 8b27 6bbc d515 303c a365 233e 30c0 81bc
00000330: 63ed 9cbd 7aab 4e3e 997d a6bd b537 213d
00000340: 0856 383c 9e2b f8bd 3bc6 323e 8d0a 30be
00000350: 285c d1bd 841b 09be 5d29 46be ab86 9b3d
00000360: 5b1a 6bbc 91b4 8dbc 9365 9abe 798a 46be
00000370: f16d c63e c729 8f3d 4c35 63be 6f19 a4bd
00000380: a889 fe3d 857d 793d 9c6f f3bc 3e1e c23d
00000390: cb93 62bd 72ae b93d 6599 0e3e 8825 63be
000003a0: a82b 073e 4945 03be d8dc 4cbe 2489 843e
000003b0: bfba dcbd 4804 48be bfde 40be 8a98 df3c
000003c0: b5d5 8e3e 91a2 46be ec5b a03e d8fc 5f3c
000003d0: 58e4 0f3e 4acc f83d 62cc 5b3d 7b44 84bd
000003e0: 706e 85bd 2a87 14be 046f 593e 916d 0e3d
000003f0: 6996 0cbe 65fd 1dbe 6c42 acbd de59 a2bd

onnx::LSTM_99 f4 [1, 128, 32]
-0.065748855 0.49838227 0.10982505 0.084402695 0.22410749 -0.010189264 -0.16570546 -0.091520846
0.050961733 0.057378665 0.256155 -0.17255047 0.30566812 -0.21525224 0.30130115 -0.19772772
-0.1381748 -0.19704175 0.12870724 0.053938217 -0.06976405 0.1491358 0.07488585 -0.11960817
-0.2324497 0.02258748 0.36951575 -0.033458948 -0.09783924 -0.30101603 -0.33393988 -0.014167063
0.19821341 0.43163037 0.34021884 -0.0104343165 -0.03247472 0.22466102 -0.0064825104 -0.37563172
-0.09803236 -0.1289609 -0.2928919 -0.16199593 0.28602543 -0.007189492 -0.17574577 0.1124635
0.010244823 -0.23093757 0.11804814 -0.051095553 0.17460333 -0.31970015 0.19758163 -0.051879115
0.17684059 -0.14665572 -0.1783884 0.03204212 -0.10928289 0.13051675 -0.0377706 0.30112487
-0.09600221 -0.14990504 -0.23850857 -0.32134482 -0.11366281 0.2857939 0.0797356 0.05783406
-0.20874101 -0.35827237 0.25261307 -0.050010532 -0.29122612 -0.24270935 0.2293582 0.061942566
-0.015025603 -0.28253677 -0.22624534 0.0040225387 -0.12378579 -0.14751935 -0.15369123 -0.04350743
0.12145698 0.27249658 -0.2869989 0.104824446 -0.4677627 0.08309756 -0.37357432 -0.1191769
-0.033513214 0.19497153 -0.052853134 0.38583803 0.04552034 -0.21561468 0.25042745 0.037507426
0.06918871 -0.23504862 0.41015717 0.20759481 -0.22695255 0.21537328 -0.41622204 0.19388214
-0.25032195 0.2360409 -0.01757621 -0.08913946 0.37188867 0.06592903 -0.27052996 -0.3121346
-0.30756727 -0.31514692 -0.28417078 -0.09688556 0.06398422 -0.42997536 -0.01838105 -0.23794904
0.13019405 -0.013866262 -0.12692368 -0.23272385 0.19461133 -0.022519534 -0.07842422 0.24761482
0.24710473 -0.096947625 -0.058727972 -0.28719202 0.031192057 0.14227001 -0.14760047 -0.08602954
0.13993084 0.39461717 0.01959025 0.06880998 -0.00092372944 -0.0067725955 0.21173127 0.16963693
-0.42240125 -0.045778237 -0.22825845 0.13798122 -0.28616327 0.02065148 0.1337199 -0.26583803
-0.12901708 -0.08857097 0.3574603 -0.06180681 0.3678557 0.055422995 0.25528133 -0.1518199
0.0923394 -0.051467884 0.072665066 -0.44601908 -0.35407257 0.17038842 0.08365519 0.24478191
-0.014284086 0.009592901 0.048992045 -0.40608424 0.23531608 0.21953332 -0.32267535 0.024521336
-0.18147111 -0.03559268 0.3046984 -0.46841443 -0.1819399 -0.1065775 -0.17398795 -0.06568381
-0.2937778 -0.03517758 -0.14185476 -0.09213307 -0.31963143 -0.12212382 0.095954776 0.29151756
0.33770657 -0.078560576 0.21951182 0.2772543 -0.35653034 -0.12835863 -0.3710781 0.18619445
0.06317522 -0.39260736 -0.10239696 -0.042573422 0.29648268 -0.12073585 -0.45045057 -0.28891045
-0.044430126 -0.46923167 0.51288563 0.09817485 0.19461782 0.28759578 0.042651247 0.26818433
-0.31021035 -0.2556298 -0.07145473 -0.012358808 0.052840378 0.22032836 -0.5094139 -0.06399644
0.45148298 -0.3099433 0.14735296 0.021737117 -0.2740727 0.09746801 -0.096449114 -0.026359987
-0.13393183 -0.2626321 -0.06374689 0.13816239 0.50094634 0.2672599 -0.31122783 0.08773567
-0.02046167 -0.19385122 0.22127774 -0.14760791 -0.029305255 0.16188486 0.17973675 0.013735624
00000000: 56a7 86bd f62b ff3e f5eb e03d 52db ac3d
00000010: 6f7c 653e dff0 26bc b1ae 29be 486f bbbd
00000020: 40bd 503d e405 6b3d c026 833e 12b1 30be
00000030: 8880 9c3e 156b 5cbe 2544 9a3e 2379 4abe
00000040: b27d 0dbe 50c5 49be d5cb 033e 52ee 5c3d
00000050: 74e0 8ebd 0eb7 183e c15d 993d 21f5 f4bd
00000060: 4b07 6ebe 6109 b93c 2b31 bd3e 400c 09bd
00000070: f15f c8bd c61e 9abe 2bfa aabe f81c 68bc
00000080: 75f8 4a3e a8fe dc3e 2a31 ae3e b2f4 2abc
00000090: 3604 05bd 8a0d 663e 3d6b d4bb cd52 c0be
000000a0: 31c5 c8bd 530e 04be edf5 95be 43e2 25be
000000b0: ed71 923e d595 ebbb b3f6 33be 4353 e63d
000000c0: e7d9 273c e67a 6cbe 39c3 f13d 9249 51bd
000000d0: 37cb 323e bdaf a3be d752 4a3e 327f 54bd
000000e0: b315 353e eb2c 16be 73ab 36be 993e 033d
000000f0: b5cf dfbd 2fa6 053e 58b5 1abd 0a2d 9a3e
00000100: cf9c c4bd b580 19be 973b 74be 4f87 a4be
00000110: 0cc8 e8bd 9453 923e 6b4c a33d 68e3 6c3d
00000120: 34c0 55be 7a6f b7be 8056 813e d8d7 4cbd
00000130: 971b 95be cd88 78be e0dc 6a3e 7db7 7d3d
00000140: f22d 76bc a9a8 90be dcac 67be 80cf 833b
00000150: 6783 fdbd 500f 17be 3c61 1dbe d934 32bd
00000160: 70be f83d ac84 8b3e 85f1 92be 33ae d63d
00000170: 987e efbe 0e2f aa3d 2245 bfbe 0513 f4bd
00000180: 2745 09bd 9ea6 473e 877c 58bd 908c c53e
00000190: 8973 3a3d 18ca 5cbe 0738 803e 63a1 193d
000001a0: cfb2 8d3d 96b0 70be 1f00 d23e bc93 543e
000001b0: 4066 68be d08a 5c3e 0e1b d5be 0a89 463e
000001c0: 332a 80be b5b4 713e fcfb 8fbc c08e b6bd
000001d0: 3168 be3e cd05 873d e782 8abe 1bd0 9fbe
000001e0: 7579 9dbe f05a a1be d57e 91be f06b c6bd
000001f0: 290a 833d bb25 dcbe db93 96bc eaa8 73be
00000200: 9751 053e 512f 63bc 48f8 01be 294f 6ebe
00000210: 3148 473e e37a b8bc e19c a0bd bd8e 7d3e
00000220: 0609 7d3e 7a8c c6bd be8c 70bd d50a 93be
00000230: 7c86 ff3c 3baf 113e 9424 17be 4130 b0bd
00000240: 084a 0f3e 430b ca3e bb7b a03c 3fec 8c3d
00000250: 6f26 72ba a6ec ddbb 15d0 583e 4eb5 2d3e
00000260: fa44 d8be f681 3bbd 95bc 69be f34a 0d3e
00000270: fe83 92be 4b2d a93c dfed 083e ec1b 88be
00000280: 0e1d 04be b264 b5bd 0905 b73e 2329 7dbd
00000290: 9557 bc3e 3903 633d 3cb4 823e ad76 1bbe
000002a0: 701c bd3d fdcf 52bd 6cd1 943d 9d5c e4be
000002b0: 0049 b5be 4d7a 2e3e 6a53 ab3d 1ca8 7a3e
000002c0: cd07 6abc 8b2b 1d3c e2ab 483d 46ea cfbe
000002d0: b3f6 703e 58cd 603e b435 a5be f8e0 c83c
000002e0: 90d3 39be a1c9 11bd 6e01 9c3e 04d4 efbe
000002f0: 744e 3abe 4e45 dabd e629 32be 3c85 86bd
00000300: 0b6a 96be 5e16 10bd 6042 11be 43b0 bcbd
00000310: bba6 a3be 0e1c fabd f083 c43d ca41 953e
00000320: e0e7 ac3e 5ee4 a0bd b5c7 603e 47f4 8d3e
00000330: 258b b6be 7270 03be f3fd bdbe c2a9 3e3e
00000340: 0262 813d d503 c9be 7fb5 d1bd 7861 2ebd
00000350: 94cc 973e 5b44 f7bd 75a1 e6be 12ec 93be
00000360: 5dfc 35bd 223f f0be 794c 033f e50f c93d
00000370: e549 473e c13f 933e 13b3 2e3d 754f 893e
00000380: e4d3 9ebe e9e1 82be dc56 92bd 997c 4abc
00000390: 276f 583d c29d 613e f368 02bf 9110 83bd
000003a0: c728 e73e e3b0 9ebe b2e3 163e 0a12 b23c
000003b0: 4253 8cbe 4f9d c73d 1d87 c5bd e6f0 d7bc
000003c0: 6d25 09be b777 86be bb8d 82bd 717a 0d3e
000003d0: 053e 003f 4ad6 883e 4159 9fbe c2ae b33d
000003e0: 3b9f a7bc ef80 46be a296 623e 8726 17be
000003f0: 9311 f0bc 25c5 253e e90c 383e 620b 613c

onnx::LSTM_100 f4 [1, 256]
0.021260988 -0.023186266 0.020559343 0.08846021 0.085459046 0.12996387 0.012062484 -0.13418053
0.10758775 -0.07184383 0.048307706 0.041529723 -0.042386394 0.24751675 0.08855634 0.0065288753
0.09668161 -0.045606673 -0.0036237077 0.109042905 0.15592957 0.04397342 0.0047617853 0.070316814
0.089211844 0.12636082 0.15550108 -0.0014123508 -0.035793398 -0.10193327 0.05606352 0.12009856
0.14781399 -0.13790141 -0.017062826 -0.0608054 -0.009879113 0.06878581 -0.00011895852 -0.04264949
0.1210253 0.28776532 0.12551832 0.06693061 -0.1273037 0.18110573 0.19672859 -0.08180636
0.29270744 -0.13920741 -0.017626293 0.03810265 -0.32081038 0.060626075 0.072041154 -0.074043594
0.0048062042 0.19290735 -0.079612546 0.14421329 -0.08674203 0.006874514 0.031466164 0.010580614
1.0140483 0.98258734 0.90449065 1.1461561 1.1871574 1.1128564 1.0507014 1.0336407
0.99489987 0.922912 0.9196535 1.0873408 1.1161808 0.9012299 0.9562607 1.030409
1.0260941 0.91969377 0.8864379 1.0862352 1.0426793 1.0938857 0.9821783 0.92782235
0.9986301 1.0880151 1.061684 0.9123812 1.176781 0.8406905 1.0286235 0.9511232
0.24222817 -0.12437249 -0.039264146 0.047030926 0.028314855 -0.12011975 0.092996314 -0.020478608
0.042306572 0.061162345 -0.15385364 -0.05844363 -0.12005687 -0.05604524 0.14959656 -0.023920448
0.04680613 0.06300069 0.19033067 0.016094675 -0.050498705 0.114104435 0.09876658 -0.007897893
-0.13244064 0.07378027 0.017740345 -0.08393188 0.047396645 0.016095934 -0.15388697 -0.016293753
0.021260988 -0.023186266 0.020559343 0.08846021 0.085459046 0.12996387 0.012062484 -0.13418053
0.10758775 -0.07184383 0.048307706 0.041529723 -0.042386394 0.24751675 0.08855634 0.0065288753
0.09668161 -0.045606673 -0.0036237077 0.109042905 0.15592957 0.04397342 0.0047617853 0.070316814
0.089211844 0.12636082 0.15550108 -0.0014123508 -0.035793398 -0.10193327 0.05606352 0.12009856
0.14781399 -0.13790141 -0.017062826 -0.0608054 -0.009879113 0.06878581 -0.00011895852 -0.04264949
0.1210253 0.28776532 0.12551832 0.06693061 -0.1273037 0.18110573 0.19672859 -0.08180636
0.29270744 -0.13920741 -0.017626293 0.03810265 -0.32081038 0.060626075 0.072041154 -0.074043594
0.0048062042 0.19290735 -0.079612546 0.14421329 -0.08674203 0.006874514 0.031466164 0.010580614
1.0140483 0.98258734 0.90449065 1.1461561 1.1871574 1.1128564 1.0507014 1.0336407
0.99489987 0.922912 0.9196535 1.0873408 1.1161808 0.9012299 0.9562607 1.030409
1.0260941 0.91969377 0.8864379 1.0862352 1.0426793 1.0938857 0.9821783 0.92782235
0.9986301 1.0880151 1.061684 0.9123812 1.176781 0.8406905 1.0286235 0.9511232
0.24222817 -0.12437249 -0.039264146 0.047030926 0.028314855 -0.12011975 0.092996314 -0.020478608
0.042306572 0.061162345 -0.15385364 -0.05844363 -0.12005687 -0.05604524 0.14959656 -0.023920448
0.04680613 0.06300069 0.19033067 0.016094675 -0.050498705 0.114104435 0.09876658 -0.007897893
-0.13244064 0.07378027 0.017740345 -0.08393188 0.047396645 0.016095934 -0.15388697 -0.016293753
00000000: 862b ae3c 20f1 bdbc 116c a83c a02a b53d
00000010: 2705 af3d 4015 053e baa1 453c 9f66 09be
00000020: f756 dc3d dc22 93bd 4dde 453d 121b 2a3d
00000030: 5b9d 2dbd 0875 7d3e 075d b53d 2df0 d53b
00000040: 0201 c63d 10ce 3abd ba7b 6dbb e351 df3d
00000050: 00ac 1f3e 791d 343d c008 9c3b 4302 903d
00000060: b3b4 b63d bb64 013e ad3b 1f3e a11e b9ba
00000070: 199c 12bd 64c2 d0bd dda2 653d 3cf6 f53d
00000080: 8d5c 173e 0736 0dbe 57c7 8bbc 150f 79bd
00000090: 01dc 21bc 93df 8c3d 5e79 f9b8 3bb1 2ebd
000000a0: 1ddc f73d fa55 933e e087 003e ea12 893d
000000b0: e75b 02be c873 393e 3873 493e 188a a7bd
000000c0: c0dd 953e 638c 0ebe 0465 90bc 8611 1c3d
000000d0: 4241 a4be 0c53 783d 508a 933d 2ba4 97bd
000000e0: 5d7d 9d3b 8189 453e e70b a3bd a6ac 133e
000000f0: cea5 b1bd 9a43 e13b aae2 003d 505a 2d3c
00000100: 56cc 813f d88a 7b3f b38c 673f 3eb5 923f
00000110: c6f4 973f 1472 8e3f 627d 863f 574e 843f
00000120: c2b1 7e3f f643 6c3f 696e 6b3f fc2d 8b3f
00000130: 03df 8e3f 01b7 663f 80cd 743f 71e4 833f
00000140: 0d57 833f 0d71 6b3f 98ed 623f c109 8b3f
00000150: 8476 853f 7204 8c3f 0970 7b3f c485 6d3f
00000160: 39a6 7f3f 1444 8b3f 43e5 873f d091 693f
00000170: c3a0 963f 7e37 573f efa9 833f cf7c 733f
00000180: a90a 783e 01b7 febd 71d3 20bd 80a3 403d
00000190: 8ef4 e73c 5801 f6bd da74 be3d c1c2 a7bc
000001a0: a849 2d3d 5e85 7a3d cf8b 1dbe 9662 6fbd
000001b0: 60e0 f5bd b28f 65bd d72f 193e d1f4 c3bc
000001c0: c9b7 3f3d 8106 813d 0be6 423e fbd8 833c
000001d0: bbd7 4ebd 96af e93d 2246 ca3d 2a66 01bc
000001e0: 859e 07be 1c1a 973d 3354 913c 7ae4 abbd
000001f0: fc22 423d 9fdb 833c 8c94 1dbe 7a7a 85bc
00000200: 862b ae3c 20f1 bdbc 116c a83c a02a b53d
00000210: 2705 af3d 4015 053e baa1 453c 9f66 09be
00000220: f756 dc3d dc22 93bd 4dde 453d 121b 2a3d
00000230: 5b9d 2dbd 0875 7d3e 075d b53d 2df0 d53b
00000240: 0201 c63d 10ce 3abd ba7b 6dbb e351 df3d
00000250: 00ac 1f3e 791d 343d c008 9c3b 4302 903d
00000260: b3b4 b63d bb64 013e ad3b 1f3e a11e b9ba
00000270: 199c 12bd 64c2 d0bd dda2 653d 3cf6 f53d
00000280: 8d5c 173e 0736 0dbe 57c7 8bbc 150f 79bd
00000290: 01dc 21bc 93df 8c3d 5e79 f9b8 3bb1 2ebd
000002a0: 1ddc f73d fa55 933e e087 003e ea12 893d
000002b0: e75b 02be c873 393e 3873 493e 188a a7bd
000002c0: c0dd 953e 638c 0ebe 0465 90bc 8611 1c3d
000002d0: 4241 a4be 0c53 783d 508a 933d 2ba4 97bd
000002e0: 5d7d 9d3b 8189 453e e70b a3bd a6ac 133e
000002f0: cea5 b1bd 9a43 e13b aae2 003d 505a 2d3c
00000300: 56cc 813f d88a 7b3f b38c 673f 3eb5 923f
00000310: c6f4 973f 1472 8e3f 627d 863f 574e 843f
00000320: c2b1 7e3f f643 6c3f 696e 6b3f fc2d 8b3f
00000330: 03df 8e3f 01b7 663f 80cd 743f 71e4 833f
00000340: 0d57 833f 0d71 6b3f 98ed 623f c109 8b3f
00000350: 8476 853f 7204 8c3f 0970 7b3f c485 6d3f
00000360: 39a6 7f3f 1444 8b3f 43e5 873f d091 693f
00000370: c3a0 963f 7e37 573f efa9 833f cf7c 733f
00000380: a90a 783e 01b7 febd 71d3 20bd 80a3 403d
00000390: 8ef4 e73c 5801 f6bd da74 be3d c1c2 a7bc
000003a0: a849 2d3d 5e85 7a3d cf8b 1dbe 9662 6fbd
000003b0: 60e0 f5bd b28f 65bd d72f 193e d1f4 c3bc
000003c0: c9b7 3f3d 8106 813d 0be6 423e fbd8 833c
000003d0: bbd7 4ebd 96af e93d 2246 ca3d 2a66 01bc
000003e0: 859e 07be 1c1a 973d 3354 913c 7ae4 abbd
000003f0: fc22 423d 9fdb 833c 8c94 1dbe 7a7a 85bc
