results/FullyAbstract/bachelor/bachelor-5625.onnx (onnx, 76519 bytes, 9 tensors)

network_body._body_endoder.seq_layers.0.weight f4 [64, 7]
-0.6484317 0.100918196 -0.27993244 -0.0057447124 -0.2941621 0.5589721 0.10495287 -0.30061066
0.41991568 -0.32930806 -0.21069969 -0.24903144 0.053420108 -0.083753064 0.039573174 -0.56917614
0.021111129 0.7315176 -0.2465959 -0.58104646 -0.34821227 0.109136865 0.2070779 -0.50334597
-0.39354256 0.29744786 -0.41556445 -1.0380291 -0.09862807 0.24590142 -0.5165469 0.08884392
0.45848742 -0.14542556 0.21506186 -0.09225338 -0.9485584 0.64888847 -0.5769374 0.1901039
-0.24691147 -0.2138524 -0.27248082 0.46648237 0.07247503 -0.35229868 -0.17394109 -0.23572323
0.13707045 -0.015425009 -0.9400583 -0.0762519 0.8386372 -0.18962392 -0.33077073 0.036390033
0.30786064 -0.26914987 0.19644326 0.49987704 0.19094901 0.12532715 0.5545852 -0.34187508
0.14634942 -0.6322803 -0.47811782 -0.25460193 -0.064465284 -0.1155034 -0.20562977 -0.07726319
-0.64975333 -0.6683404 0.31925443 -0.73137033 -0.08619323 -0.31628597 -0.37278295 0.10492818
0.1440459 -0.18252128 0.3637303 0.32338497 0.50268346 0.74743533 -0.6370948 0.4624538
-0.09771661 0.25183243 0.017066313 -0.21972738 -0.47221833 -0.053610273 -0.026266139 0.37868425
-0.59803015 -0.06642202 0.43247867 0.14298622 -0.16124944 0.502383 0.7086079 0.1794828
0.7065656 -0.033109237 0.18633284 0.3022794 0.29561114 0.4483089 -0.2716572 -0.12667301
0.35638487 0.2424392 -0.23963961 -0.24546556 -0.49105018 0.43381017 0.06640932 0.6549048
0.8048662 0.022305528 0.15718032 -0.22064191 -0.10639327 -1.2374108 0.24352081 0.3234787
0.19254754 0.22514361 -0.527503 -0.687137 0.33405855 0.09382817 -0.09914665 0.30456096
-0.12707023 -0.22006747 -0.3859863 0.56097806 0.57466286 -0.14277966 0.16215752 0.20570973
-0.00097385666 -0.2860506 -0.33948314 0.30518284 -0.17767982 -0.30353874 0.03917243 -0.32991245
0.039539475 0.05563027 -0.25439027 -0.31946668 0.15052058 -0.05992337 0.39384848 0.2710346
1.042579 -0.16713774 -0.099873744 0.5306279 0.10122159 -0.5017881 0.0022606743 0.7016904
-0.31943038 -0.18719487 0.0822388 -0.46509132 0.056919225 0.27390242 0.19238833 0.22457883
0.52799374 0.27685076 -0.08160192 0.14498128 0.15541436 0.43096948 -0.17285009 0.7607352
-0.43750778 -0.033294562 0.32973516 0.50229436 -0.16520049 0.5210147 0.025469769 0.0379085
-0.11823525 -0.19294345 0.69716144 0.38685685 0.4179751 -0.5460193 0.060425974 0.2931933
-0.19192323 -0.017598147 0.6377579 -1.0002564 0.8806767 0.07062945 -0.66619045 0.078855604
-0.16608004 -0.89683115 -0.06864513 0.97871685 0.101807885 0.2908537 -0.01568925 -0.40908495
-0.111042365 -0.6296177 0.37946755 0.46376917 -0.067536615 0.8792729 -0.29339913 -0.17510818
-0.5482722 -0.21207285 0.06940842 0.19243628 -0.10823021 -0.30348217 -0.12456266 0.15973201
-0.22737792 -0.7035535 -0.04919707 -0.21005635 0.10538561 -0.34298086 -0.02930622 -0.05132153
0.40952745 -0.3250257 -0.19493388 -0.6250332 0.88944566 -0.13654834 -0.75594246 -0.24003445
-0.1644304 0.48641178 0.19474222 0.17341031 -0.1799969 -0.43952188 -0.9176296 0.14449641
00000000: 9fff 25bf 33ae ce3d 4e53 8fbe 243e bcbb
00000010: 6a9c 96be cc18 0f3f 88f1 d63d a4e9 99be
00000020: 30ff d63e 119b a8be a9c1 57be 1902 7fbe
00000030: 0bcf 5a3d ba86 abbd 7b17 223d 87b5 11bf
00000040: 3ff1 ac3c bd44 3b3f a383 7cbe 76bf 14bf
00000050: e148 b2be 2683 df3d 3b0c 543e 48db 00bf
00000060: 697e c9be 164b 983e ddc4 d4be 23de 84bf
00000070: 83fd c9bd 95cd 7b3e 6b3c 04bf cdf3 b53d
00000080: ddbe ea3e 70ea 14be 2d39 5c3e 57ef bcbd
00000090: b9d4 72bf 8e1d 263f 2bb2 13bf 99aa 423e
000000a0: 5cd6 7cbe 20fc 5abe 9b82 8bbe c7d6 ee3e
000000b0: ca6d 943d 7e60 b4be 9d1d 32be 6e61 71be
000000c0: 325c 0c3e 2db9 7cbc a9a7 70bf f529 9cbd
000000d0: edb0 563f c62c 42be c85a a9be b70d 153d
000000e0: e99f 9d3e 03ce 89be 6c28 493e e2ef ff3e
000000f0: 2388 433e c355 003e 4cf9 0d3f 400a afbe
00000100: 9fdc 153e 1fdd 21bf dccb f4be 2f5b 82be
00000110: 6006 84bd 0c8d ecbd 9c90 52be 2a3c 9ebd
00000120: 3c56 26bf 5b18 2bbf 5175 a33e 163b 3bbf
00000130: 1386 b0bd 3cf0 a1be 68dd bebe 96e4 d63d
00000140: c580 133e dce6 3abe dc3a ba3e b792 a53e
00000150: ddaf 003f ec57 3f3f a518 23bf bfc6 ec3e
00000160: a51f c8bd 2ef0 803e a7ce 8b3c 3700 61be
00000170: 9ac6 f1be 7296 5bbd 162c d7bc e7e2 c13e
00000180: 8118 19bf 4508 88bd d86d dd3e fb6a 123e
00000190: 931e 25be 2c9c 003f 5467 353f 57ca 373e
000001a0: 7ce1 343f 8d9d 07bd 09ce 3e3e 5ec4 9a3e
000001b0: 585a 973e bf88 e53e a716 8bbe 92b6 01be
000001c0: 1478 b63e fb41 783e 1664 75be 535b 7bbe
000001d0: ee6a fbbe 5e1c de3e 9c01 883d d7a7 273f
000001e0: b60b 4e3f 15ba b63c e1f3 203e f4ef 61be
000001f0: b7e4 d9bd 7a63 9ebf 855d 793e 009f a53e
00000200: 2f2b 453e 0c8c 663e 700a 07bf 36e8 2fbf
00000210: b909 ab3e fc28 c03d 660d cbbd 6aef 9b3e
00000220: b31e 02be 5e59 61be ff9f c5be 429c 0f3f
00000230: 1b1d 133f d534 12be 9f0c 263e 92a5 523e
00000240: 6a4a 7fba 3975 92be bcd0 adbe ed40 9c3e
00000250: b3f1 35be 6e69 9bbe 4573 203d 49ea a8be
00000260: 25f4 213d 91dc 633d 713f 82be 2391 a3be
00000270: 1122 1a3e 3572 75bd 82a6 c93e 0cc5 8a3e
00000280: 3b73 853f 2826 2bbe 9b8a ccbd 3bd7 073f
00000290: 444d cf3d 2f75 00bf d227 143b fba1 333f
000002a0: 618c a3be 03b0 3fbe d16c a83d 7320 eebe
000002b0: 2224 693d f03c 8c3e 7201 453e fef7 653e
000002c0: 992a 073f 62bf 8d3e e81e a7bd f975 143e
000002d0: f124 1f3e 08a8 dc3e 9dff 30be 8bbf 423f
000002e0: 0501 e0be e15f 08bd 0cd3 a83e 5d96 003f
000002f0: 512a 29be 3861 053f faa5 d03c f145 1b3d
00000300: 5325 f2bd f892 45be 2c79 323f 1a12 c63e
00000310: d500 d63e ecc7 0bbf 3a81 773d 6f1d 963e
00000320: 8687 44be fd29 90bc 1a44 233f 6708 80bf
00000330: 0774 613f 2ca6 903d 758b 2abf 0c7f a13d
00000340: e310 2abe ba96 65bf d195 8cbd 308d 7a3f
00000350: a780 d03d c7ea 943e be86 80bc 9573 d1be
00000360: 2e6a e3bd a02e 21bf 9249 c23e 2773 ed3e
00000370: a350 8abd 0718 613f 6938 96be 8f4f 33be
00000380: 915b 0cbf a029 59be 0026 8e3d 040e 453e
00000390: cda7 ddbd 0462 9bbe b51a ffbd ca90 233e
000003a0: c2d5 68be 151c 34bf de82 49bd 0319 57be
000003b0: 69d4 d73d 309b afbe 9913 f0bc 8636 52bd
000003c0: 95ad d13e c569 a6be bf9c 47be 2d02 20bf
000003d0: b6b2 633f 54d3 0bbe 7285 41bf 97cb 75be
000003e0: 7160 28be f70a f93e 816a 473e 7992 313e
000003f0: 1b51 38be 0309 e1be c6e9 6abf def6 133e

network_body._body_endoder.seq_layers.0.bias f4 [64]
0.0036676072 -0.0060031293 0.0061024018 0.0005641998 0.006588105 -0.0029845166 -0.000442585 0.0005542328
0.0028459788 -0.00014305298 -0.0067968764 -0.0014617133 0.0048867776 -0.005870854 -0.0067404313 -0.0043026903
0.003534703 -0.003866119 -0.002599137 0.00023629742 0.004927592 -0.001568537 -0.0056257388 -0.0038469343
0.0027353752 -0.0049114176 -0.00936326 -0.0065079397 0.004033153 -0.00055115303 0.0018002678 0.005994383
0.006624752 0.000737422 0.005778671 0.0015000633 0.003705918 0.0025267738 -0.00012356692 -0.0022284782
-0.0059875464 -0.0023478488 0.0013612418 0.0029236518 -0.012238649 0.00358091 -0.0028570585 0.004078132
0.001853832 7.8171775e-05 -0.0052271523 -0.0038625554 -0.0021522692 -0.0028875659 -0.0029627571 -0.0038942185
0.010299791 0.0071702036 0.0035460417 -0.0023614948 0.004286984 -0.0036105658 -0.0027217225 -0.004120402
00000000: 3d5c 703b e6b5 c4bb a8f6 c73b cfe6 133a
00000010: 08e1 d73b e197 43bb c10a e8b9 ef49 113a
00000020: 9a83 3a3b 7e00 16b9 55b8 debb f696 bfba
00000030: 4321 a03b 4b60 c0bb d6de dcbb 95fd 8cbb
00000040: 7aa6 673b b75e 7dbb 4856 2abb 9bc6 7739
00000050: a377 a13b 5e97 cdba 1e58 b8bb d91c 7cbb
00000060: fb43 333b f5ef a0bb 5c68 19bc 8e40 d5bb
00000070: 8a28 843b 417b 10ba f7f6 eb3a 876c c43b
00000080: 7314 d93b 8d4f 413a 015b bd3b c69d c43a
00000090: fdde 723b 3b98 253b be91 01b9 a90b 12bb
000000a0: 2e33 c4bb 5ede 19bb b26b b23a bd9a 3f3b
000000b0: 9d84 48bc b3ad 6a3b 7d3d 3bbb daa1 853b
000000c0: 48fc f23a 27f0 a338 8848 abbb ed22 7dbb
000000d0: 160d 0dbb 513d 3dbb d12a 42bb 2536 7fbb
000000e0: 74c0 283c 07f4 ea3b b564 683b 4fc3 1abb
000000f0: d479 8c3b 3e9f 6cbb ed5e 32bb 7004 87bb

network_body._body_endoder.seq_layers.2.weight f4 [64, 64]
0.07252838 -0.10041009 -0.21350978 -0.077182144 0.004996576 -0.31314692 -0.0010845269 0.15218167
-0.07468542 0.080533095 -0.03272101 0.024221465 0.13913907 -0.096305005 -0.14725332 0.07229582
0.04053792 0.010372969 -0.20523606 0.090372905 -0.0028862308 -0.043434747 0.0005853867 0.059951663
0.11261931 -0.16284338 0.059822667 0.13622478 0.009828891 0.08626299 -0.24032907 0.103313304
0.20676485 0.059112683 0.07571389 0.12960821 0.025582125 0.21202649 0.0017485811 -0.005434026
-0.07036627 0.06354641 0.117762804 -0.0015226719 0.110792086 0.002585486 0.06515861 -0.15845111
0.028340252 -0.14800455 0.1905624 -0.31923458 -0.0036604833 -0.09146809 0.020446118 0.21385188
-0.08508884 0.13459055 0.0050430037 -0.05142597 0.007631454 -0.26496837 -0.18041259 -0.04104643
-0.0036348193 -0.0052559255 -0.061824683 0.042694237 -0.14641972 0.29867622 -0.10743011 0.035255004
-0.21611091 0.020763865 0.12780353 -0.1404198 -0.01450789 -0.027040975 0.24059503 0.0007727252
-0.05263855 -0.0840333 0.044910572 0.11068803 0.16526791 -0.07235877 -0.021080479 -0.08302916
-0.009262939 -0.24868785 0.18172036 -0.1507463 0.009958335 0.07810576 -0.105068654 0.023547469
0.09592125 -0.018722245 0.080080986 0.14474379 -0.058712114 -0.013978426 -0.043301363 0.050345108
-0.124369875 -0.072252095 0.056808278 -0.09051733 -0.0667111 -0.14672188 -0.10376602 0.01943039
-0.103476584 -0.18813798 -0.08167873 -0.004627785 -0.061064366 0.06918102 -0.18424489 0.2829753
-0.0142045235 0.0021742464 -0.07727829 0.01808843 0.027666695 0.048095223 0.028013898 0.10681774
-0.17844704 0.015167084 -0.046489645 -0.19801526 -0.10189566 0.0039026595 0.20484637 -0.0731263
-0.01724347 0.21631703 0.034989674 0.07367248 -0.03616755 -0.024054838 -0.048714068 0.21932648
-0.21386088 -0.13075727 -0.14808309 -0.015962472 0.11296228 -0.046635572 0.041500244 0.006230787
-0.026844 -0.19713326 -0.016249122 -0.16107988 0.0023597684 -0.13304624 -0.14354536 0.26177257
-0.13484363 -0.051047385 -0.10325483 0.06583719 -0.06836495 0.035776664 0.01615425 0.02504826
0.1091652 0.08805519 -0.2268335 0.079258285 -0.15621406 -0.04529322 -0.20911273 -0.024653254
0.014702717 0.25987706 -0.074468836 0.008408386 0.18970025 -0.28101853 0.035754014 0.03377493
0.00237454 -0.029904626 -0.016247263 0.26837388 0.12146664 0.09786025 0.10963398 -0.080005884
-0.05583917 0.039355375 -0.095155485 -0.032189522 -0.14106713 0.18253285 -0.08353313 0.20866251
0.0841205 0.059054345 0.045971904 -0.0918358 -0.04556779 -0.017397102 -0.026302246 0.30903426
-0.23347308 -0.21059659 -0.08327248 -0.022870943 0.08604957 0.01907853 0.05793063 -0.11293399
-0.29514024 -0.23454963 0.02334393 0.0797934 -0.037367407 0.04885022 0.0023219537 -0.0054015038
0.09218316 0.19608928 0.23111148 0.13585962 -0.051563773 0.07241683 -0.015750252 -0.1723622
0.09970952 0.08162732 0.050773412 -0.2750216 0.14727628 0.007860505 -0.11591067 -0.22882797
-0.014111247 -0.077504314 0.10512561 -0.008453407 0.067982756 -0.02233451 -0.08906909 -0.09713274
0.19744259 -0.07485268 -0.2015796 0.10693169 -0.22994602 0.16574228 0.12095067 0.037888583
00000000: c289 943d cea3 cdbd 4fa2 5abe ac11 9ebd
00000010: 51ba a33b cb54 a0be af26 8eba 83d5 1b3e
00000020: abf4 98bd 89ee a43d 7706 06bd 186c c63c
00000030: 797a 0e3e 8f3b c5bd 93c9 16be d50f 943d
00000040: 170b 263d 63f3 293c 6729 52be 6e15 b93d
00000050: eb26 3dbb a2e8 31bd a374 193a e08f 753d
00000060: f4a4 e63d 6ac0 26be 9d08 753d 827e 0b3e
00000070: 5b09 213c a7aa b03d d318 76be ed95 d33d
00000080: 2aba 533e 2420 723d e20f 9b3d 04b8 043e
00000090: 9b91 d13c 791d 593e a530 e53a ea0f b2bb
000000a0: 311c 90bd 9f24 823d a02d f13d 6494 c7ba
000000b0: f6e6 e23d 4271 293b e171 853d 0241 22be
000000c0: d129 e83c 818e 17be ca22 433e b772 a3be
000000d0: b8e4 6fbb 9f53 bbbd 9e7e a73c fdfb 5a3e
000000e0: 0f43 aebd 1bd2 093e c83f a53b 0aa4 52bd
000000f0: 4711 fa3b efa9 87be 14be 38be 4d20 28bd
00000100: 2636 6ebb e639 acbb e13b 7dbd 27e0 2e3d
00000110: 0def 15be 17ec 983e 5104 dcbd 8d67 103d
00000120: 2e4c 5dbe fb18 aa3c eede 023e 35ca 0fbe
00000130: 80b2 6dbc 0985 ddbc 8b5e 763e b690 4a3a
00000140: 859b 57bd a719 acbd 26f4 373d 68b0 e23d
00000150: fe3b 293e d630 94bd f8b0 acbc 310b aabd
00000160: 95c3 17bc 07a8 7ebe e714 3a3e 3d5d 1abe
00000170: 4928 233c eaf5 9f3d 3c2e d7bd 9fe6 c03c
00000180: 5c72 c43d 655f 99bc 8001 a43d b737 143e
00000190: 1d7c 70bd c505 65bc c55c 31bd ac36 4e3d
000001a0: a2b5 febd e8f8 93bd ccaf 683d 2661 b9bd
000001b0: d49f 88bd 433e 16be 4783 d4bd 7b2c 9f3c
000001c0: 88eb d3bd 3ea7 40be 2e47 a7bd ada4 97bb
000001d0: a11e 7abd c7ae 8d3d b1aa 3cbe 23e2 903e
000001e0: 17ba 68bc cd7d 0e3b 1544 9ebd 302e 943c
000001f0: 44a5 e23c 7fff 443d 677d e53c 42c3 da3d
00000200: d2ba 36be 5c7f 783c ed6b 3ebd 83c4 4abe
00000210: acae d0bd c3c3 7f3b 3fc3 513e 3ec3 95bd
00000220: 2d42 8dbc 3682 5d3e 5551 0f3d 99e1 963d
00000230: 6d24 14bd a70e c5bc 6788 47bd 1f97 603e
00000240: 59fe 5abe 3ce5 05be 18a3 17be bbc3 82bc
00000250: c558 e73d f104 3fbd 29fc 293d a12b cc3b
00000260: f3e7 dbbc 4ddd 49be e11c 85bc 20f2 24be
00000270: 58a6 1a3b 463d 08be 8efd 12be 0e07 863e
00000280: 7314 0abe 1017 51bd 4577 d3bd a6d5 863d
00000290: ec02 8cbd 8d8a 123d eb55 843c 0232 cd3c
000002a0: 0192 df3d 4856 b43d 0b47 68be 2b52 a23d
000002b0: 94f6 1fbe 6285 39bd a621 56be 9ff5 c9bc
000002c0: aae3 703c 9b0e 853e 1e83 98bd 54c3 093c
000002d0: c840 423e a9e1 8fbe cd72 123d 9557 0a3d
000002e0: 2c9e 1b3b 8cfa f4bc fb18 85bc 4d68 893e
000002f0: 80c3 f83d f46a c83d c887 e03d 20da a3bd
00000300: 9db7 64bd 1a33 213d e1e0 c2bd 29d9 03bd
00000310: e773 10be e4e9 3a3e 6b13 abbd a0ab 553e
00000320: 5e47 ac3d f8e2 713d 094d 3c3d 6814 bcbd
00000330: 4aa5 3abd 5e84 8ebc cf77 d7bc bd39 9e3e
00000340: 9113 6fbe a2a6 57be c38a aabd d85b bbbc
00000350: c23a b03d 944a 9c3c ab48 6d3d f049 e7bd
00000360: 9f1c 97be c72d 70be c53b bf3c b96a a33d
00000370: 910e 19bd 2b17 483d eb2b 183b 19ff b0bb
00000380: 86ca bc3d a1cb 483e 7da8 6c3e c91e 0b3e
00000390: 8934 53bd 464f 943d ac06 81bc b77f 30be
000003a0: 8134 cc3d 392c a73d c8f7 4f3d a2cf 8cbe
000003b0: 98cf 163e 59c9 003c 9362 edbd e151 6abe
000003c0: dc32 67bc 95ba 9ebd 194c d73d 2980 0abc
000003d0: 8b3a 8b3d ddf6 b6bc db69 b6bd 88ed c6bd
000003e0: 642e 4a3e 5d4c 99bd e26a 4ebe 00ff da3d
000003f0: f876 6bbe 58b8 293e fcb4 f73d 0f31 1b3d

network_body._body_endoder.seq_layers.2.bias f4 [64]
0.0012511003 0.002540378 0.0012978631 -0.005409902 -0.0032098037 -0.002945946 -0.0017320699 -0.00094469194
-0.003562387 -0.007943224 0.0027015589 -0.005068629 0.0010261296 -0.002220197 0.0054539028 0.003451934
0.00066645624 0.0027244787 0.007679507 0.004037207 0.0044168644 0.003063523 0.0039458834 0.0028678556
0.009459644 1.4552657e-05 -0.003307677 -0.0021004276 -0.0026166982 -0.0053837663 0.0012262817 -0.0042218333
-0.00011376339 0.006900048 0.006694829 -5.967e-05 0.00031282127 -0.0017895476 0.009515522 0.0075855423
0.008150684 0.0061882855 -0.0064504603 0.0014638442 -0.0041055516 0.0017205966 -0.00053370156 -0.003323513
0.0048172767 0.0030580552 0.00060365116 -0.0061036395 -0.0014400854 -0.00033564572 0.003353615 0.0038807918
-0.004432384 0.0019078073 0.00055808754 0.008226944 -0.003373372 -0.006291602 -0.0015328928 0.002942987
00000000: f6fb a33a 787c 263b 0f1d aa3a 8c45 b1bb
00000010: 925b 52bb c610 41bb 9f06 e3ba 34a5 77ba
00000020: f076 69bb 4c24 02bc a30c 313b be16 a6bb
00000030: 327f 863a ba80 11bb a7b6 b23b d839 623b
00000040: 1fb5 2e3a 2b8d 323b 60a4 fb3b 8c4a 843b
00000050: 58bb 903b 63c5 483b 784c 813b a2f2 3b3b
00000060: 9ffc 1a3c 3027 7437 9dc5 58bb 54a7 09bb
00000070: e97c 2bbb 4e6a b0bb 30bb a03a 4e57 8abb
00000080: 4194 eeb8 cc19 e23b 4c60 db3b 2d46 7ab8
00000090: 2902 a439 418f eaba fee6 1b3c 2490 f83b
000000a0: 728a 053c 1ac7 ca3b 625e d3bb 76de bf3a
000000b0: dd87 86bb a485 e13a 1be8 0bba 4ccf 59bb
000000c0: 3fda 9d3b a769 483b 583e 1e3a 0a01 c8bb
000000d0: 3fc1 bcba 9bf9 afb9 53c8 5b3b e254 7e3b
000000e0: 883d 91bb 640f fa3a 9f4c 123a 4eca 063c
000000f0: ca13 5dbb c829 cebb 59eb c8ba 21df 403b

action_model._discrete_distribution.branches.0.weight f4 [4, 32]
0.03198756 -0.012668222 0.0014251844 -0.0053809476 -0.0071214363 -0.0038495034 0.03125159 -0.005881493
-0.025253817 -0.020709665 0.005042013 0.041274603 -0.015842838 -0.040865995 -0.023468817 0.01078854
0.0077672238 -0.021553705 -0.032285977 0.029126888 -0.019469136 -0.037706025 0.041368708 -0.01588666
-0.015989989 -0.025587928 -0.036815338 -0.020513408 0.017874226 -0.009854982 -0.0046715103 -0.003300918
0.012247058 0.001769687 -0.03726462 -0.01145345 0.05821268 0.01828306 -0.00705818 0.03044434
0.0145114055 -0.00080813415 0.011287443 -0.027863938 0.033992153 0.018636288 0.008481815 -0.005869405
-0.024612403 -0.041083835 0.027072525 0.004294587 0.0045800596 0.00844589 0.033927917 -0.018389007
-0.0063081346 0.01764802 0.0067879953 -0.020427885 -0.007419048 0.007490486 0.0034875618 -0.0026849965
0.023167128 0.030538306 -0.031129101 -0.005320266 -0.010709351 0.033128843 -0.0004301388 0.007452692
0.007897496 -0.015537534 0.047952116 -0.003728933 -0.026106074 0.021087946 -0.017756792 -0.0061723315
-0.05686996 0.006194534 -0.016225612 -0.01070806 -0.014874884 -0.013483616 -0.03637374 0.01639035
-0.015125175 -0.021816237 0.0051914398 0.027647663 -0.0065107537 0.020751491 0.0068417205 -0.010777184
-0.017971026 -0.006487614 0.00071116415 -0.0064429664 0.024514878 0.008611237 -0.025121702 0.03140419
0.014034567 0.010243363 0.026678761 -0.011372075 -0.03178563 0.021518458 0.00039927673 -0.012940396
-0.015921734 0.01892934 0.023148961 -0.024559068 0.011511623 0.018050138 -0.03327311 0.02984693
0.046528123 -0.006190402 0.008336489 0.011844848 -0.00024356726 -0.0102233635 -0.022167766 -0.009834245
00000000: 6305 033d 608e 4fbc 41cd ba3a a952 b0bb
00000010: f05a e9bb f347 7cbb ab01 003d 8ab9 c0bb
00000020: 18e1 cebc 51a7 a9bc 7837 a53b 8f0f 293d
00000030: d7c8 81bc 1a63 27bd ad41 c0bc 6bc2 303c
00000040: 3284 fe3b 6591 b0bc 4d3e 04bd 839b ee3c
00000050: bd7d 9fbc a271 1abd 3c72 293d be24 82bc
00000060: 70fd 82bc c69d d1bc aecb 16bd bc0b a8bc
00000070: f86c 923c ca76 21bc 7813 99bb 3754 58bb
00000080: e2a7 483c d8f4 e73a c9a2 18bd 40a7 3bbc
00000090: 6b70 6e3d 5bc6 953c 4e48 e7bb 6966 f93c
000000a0: 3fc1 6d3c f7d8 53ba f8ee 383c ea42 e4bc
000000b0: 5b3b 0b3d 21ab 983c 50f7 0a3c 2354 c0bb
000000c0: f39f c9bc 8647 28bd 33c7 dd3c 9bb9 8c3b
000000d0: 5314 963b a160 0a3c 00f8 0a3d 8ba4 96bc
000000e0: 78b4 cebb 9592 903c d56d de3b 6158 a7bc
000000f0: 7c1b f3bb c072 f53b 948f 643b c4f6 2fbb
00000100: fdc8 bd3c 782b fa3c 7502 ffbc a055 aebb
00000110: 4676 2fbc 1cb2 073d 4184 e1b9 b635 f43b
00000120: 8064 013c 2491 7ebc 7069 443d 1d61 74bb
00000130: 68dc d5bc a1c0 ac3c b176 91bc 4541 cabb
00000140: 7af0 68bd 84fb ca3b 93eb 84bc dc70 2fbc
00000150: c9b5 73bc 62ea 5cbc a1fc 14bd 0e45 863c
00000160: 95cf 77bc f7b7 b2bc f41c aa3b 5a7d e23c
00000170: 2958 d5bb 08ff a93c 8330 e03b c992 30bc
00000180: f937 93bc 0d96 d4bb 6b6d 3a3a 851f d3bb
00000190: 6dd3 c83c 2516 0d3c 07cc cdbc aea1 003d
000001a0: 3ef1 653c c7d3 273c 6b8d da3c f151 3abc
000001b0: a631 02bd 7a47 b03c 0456 d139 f403 54bc
000001c0: 4c6e 82bc b411 9b3c e4a2 bd3c 1930 c9bc
000001d0: 3f9b 3c3c e2dd 933c 6249 08bd 8d81 f43c
000001e0: 4694 3e3d dbd8 cabb c595 083c e510 423c
000001f0: 1766 7fb9 e57f 27bc 2d99 b5bc d01f 21bc

action_model._discrete_distribution.branches.0.bias f4 [4]
0.01675335 -0.0010850411 0.00083825184 -0.015625346
00000000: 523e 893c f037 8eba 21be 5b3a ba00 80bc

onnx::LSTM_98 f4 [1, 128, 64]
-0.09135168 -0.18242867 0.013530706 -0.16196357 -0.12423231 -0.03812813 0.11562305 -0.038590766
-0.2207827 -0.15366893 0.16245167 0.013539034 0.13333666 -0.05161101 -0.21977499 -0.092300154
-0.03766817 0.25264686 -0.06247631 -0.09434988 -0.19693868 0.064075045 0.06737885 -0.16078137
0.2284683 -0.105682075 0.084990814 0.16303349 0.17769995 -0.092608 0.13886006 -0.19458778
0.1367937 -0.15148585 -0.0776769 -0.029814176 -0.09475486 -0.034586713 -0.024482435 -0.19844602
0.09599461 0.2553877 0.20441015 0.17892905 -0.0824253 -0.19142304 -0.14161196 0.069938876
-0.07513179 0.03981236 0.021394026 -0.03848205 0.19252354 0.2272388 0.19535373 -0.117982134
0.005538863 0.07002079 -0.19328736 -0.23745736 0.14985265 0.12249582 -0.19218719 -0.034009438
0.12736851 -0.21157052 -0.003391583 -0.22711672 -0.13351707 -0.03618051 -0.030385975 -0.04595816
0.1398613 0.12971409 -0.057996415 0.12047441 0.006727028 0.0007762768 -0.022719694 -0.044514388
-0.17681296 0.18677865 -0.120865345 -0.16721106 -0.1256192 0.0056889914 -0.17749806 -0.2058466
-0.1004443 -0.07946677 -0.22055186 -0.089427315 0.1477939 0.07831576 -0.06257653 -0.18568225
0.10984963 0.1211266 -0.10201161 -0.16409752 0.13394755 0.029173963 0.153898 0.20974316
-0.22957394 -0.18959858 -0.10446435 0.095382184 -0.22244631 0.055534624 0.1982229 0.16247204
-0.063971125 0.22228344 -0.088234656 0.1892852 -0.08501219 0.23070535 0.12181989 -0.06321784
-0.0034305733 0.09204857 -0.14052005 0.032479934 0.24594161 -0.16499904 -0.20690608 0.22753881
-0.057128266 -0.074467584 -0.03169501 0.16666777 0.25125396 -0.0789672 0.13693027 0.10620467
0.14987679 -0.08390835 0.17275597 0.12615821 0.22929583 -0.026163844 -0.17249767 -0.014250197
-0.22419173 -0.11852536 -0.23254074 0.10955041 -0.14956827 0.21318065 0.11539951 0.18003477
-0.12082039 -0.11411578 0.021909585 -0.0646704 0.071861885 -0.20367743 0.08949054 -0.12838273
-0.108470194 0.23227707 -0.079805724 0.08313312 0.07827475 0.24245013 -0.17131938 0.05157881
0.10513969 -0.04456979 -0.23481382 -0.090371154 -0.18326794 0.22866161 -0.048398998 -0.01979202
0.04013465 0.20782025 -0.19517793 0.110177204 0.14944701 -0.11209738 -0.13526016 -0.13960104
0.085918024 -0.14513001 0.22603504 0.15168768 -0.14191814 0.17326874 -0.09993143 0.19057477
-0.082762435 -0.21767041 0.21371323 0.08803286 0.12587151 0.15099654 0.03645371 -0.033620328
0.023630915 0.12492805 0.19515178 -0.20595737 -0.18526618 0.03193706 0.1327834 0.0021341902
-0.13832995 -0.15114862 0.089386374 0.21365264 0.22618508 0.15908681 -0.07593652 -0.029074313
-0.061162204 -0.15220317 0.023498258 -0.045036353 -0.23486951 -0.14534985 -0.22353053 -0.08164457
-0.11244887 0.14878477 -0.1634176 -0.23585837 -0.18521236 0.13317093 -0.14606558 -0.050610863
-0.14963435 0.17277013 0.09278721 0.010681024 0.19637315 0.059987947 0.095817246 -0.13055858
-0.029875547 -0.08304864 0.024432922 -0.029278114 -0.24037935 -0.23063572 0.104591586 -0.063580796
0.03771225 -0.18740733 -0.092182085 0.05309748 0.16779989 0.1228924 -0.16496573 0.22577432
00000000: 9716 bbbd 95ce 3abe e5af 5d3c c7d9 25be
00000010: 826d febd 3e2c 1cbd c7cb ec3d 5a11 1ebd
00000020: dc14 62be 635b 1dbe bb59 263e d3d2 5d3c
00000030: 6889 083e 1166 53bd b20c 61be dd07 bdbd
00000040: f049 1abd ee5a 813e 29e7 7fbd 833a c1bd
00000050: 4baa 49be c739 833d ecfd 893d dfa3 24be
00000060: 98f3 693e d86f d8bd aa0f ae3d 40f2 263e
00000070: faf6 353e 43a9 bdbd 5531 0e3e 0542 47be
00000080: a613 0c3e 1b1f 1bbe 1115 9fbd dc3c f4bc
00000090: d60e c2bd ccaa 0dbd 638f c8bc 6f35 4bbe
000000a0: d298 c43d 2dc2 823e e550 513e 2d39 373e
000000b0: 98ce a8bd 6704 44be ba02 11be 1d3c 8f3d
000000c0: b2de 99bd 4912 233d 8642 af3c 5b9f 1dbd
000000d0: e424 453e 4ab1 683e cf0a 483e 9ea0 f1bd
000000e0: 5a7f b53b 0f67 8f3d 1fed 45be 0628 73be
000000f0: f972 193e 17df fa3d b8cc 44be 7b4d 0bbd
00000100: e46c 023e f1a5 58be 5245 5ebb 4991 68be
00000110: b3b8 08be 0432 14bd 02ec f8bc a03e 3cbd
00000120: cd37 0f3e c5d3 043e a68d 6dbd 4abb f63d
00000130: 676e dc3b 0e7f 4b3a a71e babc b854 36bd
00000140: 750e 35be e742 3f3e 4088 f7bd 6039 2bbe
00000150: 52a2 00be b86a ba3b 0dc2 35be 73c9 52be
00000160: beb5 cdbd 79bf a2bd 59d8 61be ab25 b7bd
00000170: 4957 173e 0364 a03d 2028 80bd 7d23 3ebe
00000180: d8f8 e03d 3911 f83d 77eb d0bd 2e09 28be
00000190: 8c29 093e 3cfe ee3c 7097 1d3e e9c6 563e
000001a0: 6e15 6bbe 2126 42be 68f1 d5bd bc57 c33d
000001b0: f7c8 63be 4678 633d f2fa 4a3e 125f 263e
000001c0: 4b03 83bd 459e 633e 5fb4 b4bd fbd3 413e
000001d0: df1a aebd 063e 6c3e b57c f93d 5b78 81bd
000001e0: 78d3 60bb f683 bc3d 7de4 0fbe ae09 053d
000001f0: 1ed8 7b3e 82f5 28be 30df 53be efff 683e
00000200: 54ff 69bd 7682 98bd a0d2 01bd f5aa 2a3e
00000210: 5ca4 803e 8eb9 a1bd 7337 0c3e d681 d93d
00000220: 4d79 193e 24d8 abbd f1e6 303e 9e2f 013e
00000230: 87cc 6a3e 8f55 d6bc 3ba3 30be a979 69bc
00000240: 8492 65be 6dbd f2bd 291f 6ebe f75b e03d
00000250: 6d28 19be 074c 5a3e 9456 ec3d 095b 383e
00000260: ae70 f7bd 89b5 e9bd bb7b b33c ea71 84bd
00000270: 532c 933d d190 50be d146 b73d c376 03be
00000280: 9f25 debd 0ada 6d3e 2f71 a3bd b241 aa3d
00000290: 834e a03d d944 783e 596e 2fbe 4d44 533d
000002a0: 7a53 d73d d08e 36bd 0973 70be 8314 b9bd
000002b0: 97aa 3bbe 4526 6a3e 073e 46bd e022 a2bc
000002c0: 3b64 243d d5ce 543e b9dc 47be 96a4 e13d
000002d0: a308 193e 5093 e5bd a481 0abe 93f3 0ebe
000002e0: caf5 af3d f69c 14be bb75 673e 0454 1b3e
000002f0: fd52 11be 5c6d 313e d9a8 ccbd 0826 433e
00000300: 5a7f a9bd fee4 5ebe a4d7 5a3e 924a b43d
00000310: 76e4 003e d69e 1a3e 7c50 153d 78b5 09bd
00000320: 9f95 c13c 47da ff3d ded5 473e 7de6 52be
00000330: 6bb6 3dbe 6fd0 023d 5ff8 073e c5dd 0b3b
00000340: 5ea6 0dbe b4c6 1abe 3410 b73d c2c7 5a3e
00000350: 109d 673e a7e7 223e 9b84 9bbd 412d eebc
00000360: 3885 7abd 26db 1bbe 6b7f c03c 0a78 38bd
00000370: a281 70be 97d6 14be 30e5 64be 4535 a7bd
00000380: 984b e6bd 095b 183e f156 27be db84 71be
00000390: 4fa8 3dbe f65d 083e 3792 15be 564d 4fbd
000003a0: bf39 19be a7ea 303e 3907 be3d 76ff 2e3c
000003b0: 0b16 493e ecb5 753d d53b c43d 26b1 05be
000003c0: 90bd f4bc 6815 aabd 8d27 c83c a8d8 efbc
000003d0: 0126 76be c52b 6cbe 1d34 d63d a636 82bd
000003e0: 2978 1a3d b5e7 3fbe f6c9 bcbd be7c 593d
000003f0: bcd3 2b3e 03af fb3d c7ec 28be 6231 673e

onnx::LSTM_99 f4 [1, 128, 32]
0.15064295 0.24543498 -0.1740234 0.28432828 0.22641091 -0.13689785 0.20533563 -0.10729642
0.1021975 0.2859634 -0.20144695 0.29774705 -0.06177251 0.21348177 0.017885523 0.09224585
-0.112505436 -0.20736831 -0.075858906 -0.15785219 0.2943058 0.076701544 -0.19314355 0.09889454
0.29875392 -0.19854136 -0.2716053 0.15408707 -0.2685861 0.27201012 0.17866749 -0.2930476
0.18301094 0.15824944 -0.13518676 0.27745077 0.10572251 -0.28113595 0.28923836 -0.009422733
0.10511722 -0.11561438 -0.18604487 0.18402836 0.074590676 0.03749928 -0.20350154 -0.22896521
0.2988724 -0.08359802 0.10695775 0.06371246 0.16562472 0.17110483 -0.22013898 0.15689944
0.21907559 -0.075648025 0.24465856 -0.11898647 -0.194076 -0.01657225 0.13636923 -0.05173253
0.064365074 -0.18400589 0.16841376 -0.022712398 -0.2267484 0.017671851 -0.19409814 -0.15621471
0.16530517 0.1380278 0.056354493 0.2608678 -0.11678406 0.12550591 0.26846582 -0.18880472
-0.10382652 0.096249826 0.19980912 0.05843324 -0.23651347 -0.10665685 0.015939297 0.1254847
0.1543478 0.1316901 0.12764974 0.22665831 -0.20108071 0.25934175 -0.14390153 0.042516507
-0.29573444 0.20042294 -0.20768133 0.15197262 0.15261546 0.06370023 0.2013574 -0.0029864556
-0.048394974 -0.09671503 -0.1347826 -0.28720257 -0.020321053 0.22062816 0.17998579 -0.041464128
0.017895082 0.011441079 0.1392026 0.17904463 0.21584146 0.21608694 0.28340286 -0.09563297
0.212258 0.03298945 -0.1270361 -0.0061760494 0.102378026 0.08293032 -0.016883852 -0.2663218
-0.041614786 0.28593746 0.1786375 -0.18027964 -0.24141781 0.14769101 -0.09639151 0.11319009
0.20758957 0.30908787 0.05113688 -0.17542854 0.16644742 0.21186563 -0.21201976 0.03863947
-0.06427029 -0.11436162 0.18524517 -0.24797319 0.054051615 0.15647846 -0.30738336 0.14390875
-0.10805279 -0.27189505 -0.06255679 0.2665225 -0.29012415 0.110956565 0.012704908 -0.25982302
-0.28861102 -0.036000926 0.18452369 0.07364623 -0.20146716 -0.12289677 -0.2128725 -0.30460614
0.049285542 -0.088005826 0.30328235 -0.070603505 0.2679743 0.027986469 0.010991384 0.10574708
-0.057163652 0.22043195 -0.14004616 0.190093 -0.3082532 -0.06662283 0.07240275 0.09883514
-0.29308623 0.22505566 0.15161794 0.12996231 0.092994474 0.10466463 -0.29537678 -0.24867074
-0.078352004 -0.085558936 0.14749867 0.17548911 0.17044032 0.05755114 0.076385036 -0.26920205
-0.24050592 -0.088530816 0.25915802 0.111171365 0.3078167 0.2727583 0.02686242 0.2276327
-0.051805943 0.2512204 0.21740109 -0.29206076 0.086703695 -0.02947571 -0.22084919 -0.15562712
0.1687626 0.2476423 -0.2522856 -0.15863 0.08738662 0.13969363 -0.06523656 0.113592826
-0.06729214 -0.2725449 0.015341486 -0.22826388 0.26049018 0.0898297 -0.15075757 -0.2501422
0.14822392 -0.20647769 -0.27616614 -0.23629302 -0.011110655 0.15945232 0.21861209 0.017172508
-0.21732669 -0.12504052 0.095652275 0.25258434 -0.2003755 0.08558231 0.28626242 -0.004789718
0.08924597 -0.14204673 -0.10707564 -0.20185457 -0.22674182 0.037029732 0.30477625 0.21981001
00000000: 2542 1a3e 4f53 7b3e 3133 32be 7a93 913e
00000010: 43d8 673e f32e 0cbe 8143 523e 3abe dbbd
00000020: ec4c d13d cb69 923e 1c48 4ebe 4d72 983e
00000030: 2c05 7dbd f79a 5a3e a984 923c 64eb bc3d
00000040: 4069 e6bd 5c58 54be ea5b 9bbd 01a4 21be
00000050: 40af 963e b315 9d3d 6cc7 45be 3889 ca3d
00000060: 46f6 983e 6d4e 4bbe da0f 8bbe 00c9 1d3e
00000070: 1e84 89be e944 8b3e 9cf4 363e 560a 96be
00000080: 3867 3b3e 240c 223e 666e 0abe 070e 8e3e
00000090: 0b85 d83d 0df1 8fbe 0d17 943e cf61 1abc
000000a0: b247 d73d 3bc7 ecbd 8c82 3ebe ee71 3c3e
000000b0: ffc2 983d d898 193d b562 50be db75 6abe
000000c0: ce05 993e 7035 abbd aa0c db3d ae7b 823d
000000d0: 8799 293e 1b36 2f3e 1d6c 61be 3faa 203e
000000e0: 5a55 603e 5aed 9abd c687 7a3e 2eaf f3bd
000000f0: dcbb 46be 87c2 87bc 60a4 0b3e 7de5 53bd
00000100: d6d1 833d 0a6c 3cbe a874 2c3e 5a0f babc
00000110: bc30 68be 8fc4 903c aac1 46be c0f6 1fbe
00000120: c245 293e 2957 0d3e f8d3 663d 7790 853e
00000130: 7b2c efbd 9f84 003e 5a74 893e 0656 41be
00000140: 00a3 d4bd a11e c53d c39a 4c3e b157 6f3d
00000150: 9630 72be e86e dabd 2193 823c 107f 003e
00000160: 5a0d 1e3e c5d9 063e 9db6 023e 1e19 683e
00000170: 1ae8 4dbe 71c8 843e ec5a 13be ca25 2e3d
00000180: 816a 97be ac3b 4d3e 6aaa 54be b69e 1b3e
00000190: 3a47 1c3e 4475 823d a230 4e3e 69b8 43bb
000001a0: cf39 46bd 8812 c6bd 7304 0abe 370c 93be
000001b0: 5678 a6bc 59ec 613e 324e 383e 4ad6 29bd
000001c0: b598 923c 5d73 3b3c 208b 0e3e 7a57 373e
000001d0: 8b05 5d3e e545 5d3e 2e1a 913e 38db c3bd
000001e0: 295a 593e f21f 073d c015 02be 7560 cabb
000001f0: 92ab d13d 5fd7 a93d 0150 8abc 555b 88be
00000200: 4474 2abd 6566 923e c0ec 363e 3a9b 38be
00000210: 3b36 77be 503c 173e e968 c5bd 35d0 e73d
00000220: 5c92 543e c440 9e3e e874 513d 8aa3 33be
00000230: 3171 2a3e 4ef3 583e b51b 59be 6c44 1e3d
00000240: 24a0 83bd 6d36 eabd e9b0 3d3e afec 7dbe
00000250: 3a65 5d3d e43b 203e 5a61 9dbe d15c 133e
00000260: c84a ddbd d435 8bbe c61d 80bd a375 883e
00000270: 278b 94be 323d e33d 3f28 503c 8607 85be
00000280: d3c4 93be b575 13bd c7f3 3c3e d6d3 963d
00000290: 684d 4ebe 4db1 fbbd 40fb 59be 56f5 9bbe
000002a0: a3df 493d 663c b4bd d347 9b3e 9298 90bd
000002b0: ed33 893e e143 e53c 3515 343c ed91 d83d
000002c0: 6f24 6abd eab8 613e 4368 0fbe bda7 423e
000002d0: 5dd3 9dbe 8d71 88bd e547 943d 146a ca3d
000002e0: 660f 96be fe74 663e bc41 1b3e d714 053e
000002f0: e373 be3d 695a d63d a03b 97be 8ba3 7ebe
00000300: 0477 a0bd 8639 afbd e409 173e 6bb3 333e
00000310: e887 2e3e bfba 6b3d c26f 9c3d dad4 89be
00000320: 2f47 76be a54f b5bd 5cb0 843e d0ad e33d
00000330: 279a 9d3e faa6 8b3e 940e dc3c 8c18 693e
00000340: 7832 54bd f69f 803e 649e 5e3e fd88 95be
00000350: b591 b13d 0b77 f1bc 4a26 62be b75c 1fbe
00000360: 1ad0 2c3e f195 7d3e 942b 81be e76f 22be
00000370: c2f7 b23d d90b 0f3e bf9a 85bd 5ba3 e83d
00000380: 76d0 89bd 018b 8bbe db5a 7b3c 02be 69be
00000390: f85e 853e a2f8 b73d 3160 1abe a312 80be
000003a0: 03c8 173e e36e 53be a665 8dbe ccf6 71be
000003b0: 7709 36bc 7847 233e d9db 5f3e 5cad 8c3c
000003c0: e38a 5ebe 9f0a 00be 57e5 c33d bc52 813e
000003d0: 3c2f 4dbe c745 af3d fd90 923e 11f3 9cbb
000003e0: 97c6 b63d b374 11be 794a dbbd f7b2 4ebe
000003f0: 022f 68be 7dac 173d a20b 9c3e e015 613e

onnx::LSTM_100 f4 [1, 256]
0.0076462165 0.012359786 0.0047561843 -0.0032589417 -0.008495848 0.004788308 0.00042971995 0.0060169916
0.00042983957 -0.0037341127 0.0083216075 -0.0005977196 0.012327693 0.0088854665 0.005089123 -0.007730791
0.014586634 0.007082356 -0.0052084797 0.0022670582 0.010066358 -0.0048087323 0.006990183 0.0067921425
0.010920723 -0.0016996819 -0.0042537428 -0.011585751 0.006281264 -0.012368066 -0.002804746 -0.003793372
0.01480121 0.012944234 0.0033676464 -0.0046588248 0.00012927069 0.0045324606 0.010126025 0.013540199
-0.00032639902 -0.009426409 -0.0043943105 -0.00072306755 0.014299593 0.01109156 0.003920207 -0.0009562596
0.010007506 0.011516055 -0.002437486 -0.0010675724 0.010594897 0.0065799 0.014418994 0.00020244207
0.011577488 -0.0037860381 0.0061792964 2.3193163e-05 -9.439125e-05 -0.0019832028 -0.0020049685 -0.008281848
1.0061411 1.0142527 0.9960857 0.9911055 0.99500483 1.0024511 1.0025653 1.0084307
1.0006608 1.003529 0.99387956 1.0000641 0.9991122 1.0175184 1.0032121 1.0037522
1.0121115 1.0070398 0.9995762 1.003304 1.0014737 0.99222076 1.0056262 0.99817294
1.008003 1.0018276 1.0008253 0.9979314 1.0084304 0.98723906 1.0056862 1.0008079
0.00093029893 -0.0017755495 -0.00405912 -0.00015651046 -0.007733365 -0.00094878196 -0.004283949 0.0041501173
-0.0032516213 -0.0061595323 -0.0009179395 0.0047530294 -0.0021372538 -0.0006185573 -0.0014225823 0.008534789
-0.0015405775 -0.008192267 -0.0054574036 0.004016099 0.0061609116 -0.01216827 0.0057842773 -0.0071263323
-0.0064983745 -0.0023410704 -0.0052784933 -0.003661133 -0.0015682429 -0.00038357102 -0.003786954 -0.0015891973
0.0076462165 0.012359786 0.0047561843 -0.0032589417 -0.008495848 0.004788308 0.00042971995 0.0060169916
0.00042983957 -0.0037341127 0.0083216075 -0.0005977196 0.012327693 0.0088854665 0.005089123 -0.007730791
0.014586634 0.007082356 -0.0052084797 0.0022670582 0.010066358 -0.0048087323 0.006990183 0.0067921425
0.010920723 -0.0016996819 -0.0042537428 -0.011585751 0.006281264 -0.012368066 -0.002804746 -0.003793372
0.01480121 0.012944234 0.0033676464 -0.0046588248 0.00012927069 0.0045324606 0.010126025 0.013540199
-0.00032639902 -0.009426409 -0.0043943105 -0.00072306755 0.014299593 0.01109156 0.003920207 -0.0009562596
0.010007506 0.011516055 -0.002437486 -0.0010675724 0.010594897 0.0065799 0.014418994 0.00020244207
0.011577488 -0.0037860381 0.0061792964 2.3193163e-05 -9.439125e-05 -0.0019832028 -0.0020049685 -0.008281848
1.0061411 1.0142527 0.9960857 0.9911055 0.99500483 1.0024511 1.0025653 1.0084307
1.0006608 1.003529 0.99387956 1.0000641 0.9991122 1.0175184 1.0032121 1.0037522
1.0121115 1.0070398 0.9995762 1.003304 1.0014737 0.99222076 1.0056262 0.99817294
1.008003 1.0018276 1.0008253 0.9979314 1.0084304 0.98723906 1.0056862 1.0008079
0.00093029893 -0.0017755495 -0.00405912 -0.00015651046 -0.007733365 -0.00094878196 -0.004283949 0.0041501173
-0.0032516213 -0.0061595323 -0.0009179395 0.0047530294 -0.0021372538 -0.0006185573 -0.0014225823 0.008534789
-0.0015405775 -0.008192267 -0.0054574036 0.004016099 0.0061609116 -0.01216827 0.0057842773 -0.0071263323
-0.0064983745 -0.0023410704 -0.0052784933 -0.003661133 -0.0015682429 -0.00038357102 -0.003786954 -0.0015891973
00000000: 1d8d fa3b b380 4a3c c4d9 9b3b f893 55bb
00000010: 2b32 0bbc 3de7 9c3b 094c e139 2f2a c53b
00000020: 175c e139 04b8 74bb 5a57 083c 49b0 1cba
00000030: 18fa 493c 5994 113c a8c2 a63b 9352 fdbb
00000040: c7fc 6e3c 1c13 e83b e5ab aabb ed92 143b
00000050: 5eed 243c 9292 9dbb e80d e53b 9f90 de3b
00000060: d5ec 323c dcc7 deba fb62 8bbb 29d2 3dbc
00000070: 10d3 cd3b 6ea3 4abc d4cf 37bb 399a 78bb
00000080: c680 723c 0d14 543c bbb3 5c3b 0ea9 98bb
00000090: d68c 0739 0985 943b a1e7 253c b6d7 5d3c
000000a0: 8920 abb9 3a71 1abc 26fe 8fbb 3e8c 3dba
000000b0: d748 6a3c 60b9 353c 1475 803b 7fad 7aba
000000c0: 86f6 233c d6ad 3c3c 3bbe 1fbb c9ed 8bba
000000d0: 3896 2d3c 349c d73b a53d 6c3c a146 5439
000000e0: 81af 3d3c 2e1f 78bb b27b ca3b f08e c237
000000f0: ebf3 c5b8 9ff8 01bb ca65 03bb 97b0 07bc
00000100: 3bc9 803f 08d3 813f 79ff 7e3f 17b9 7d3f
00000110: a3b8 7e3f 5150 803f 0f54 803f 4214 813f
00000120: a715 803f a373 803f e46e 7e3f 1a02 803f
00000130: d1c5 7f3f 0b3e 823f 4169 803f f47a 803f
00000140: df8c 813f aee6 803f 3ae4 7f3f 446c 803f
00000150: 4a30 803f 2e02 7e3f 5cb8 803f 4388 7f3f
00000160: 3e06 813f e33b 803f 0b1b 803f 6f78 7f3f
00000170: 3f14 813f b3bb 7c3f 53ba 803f 791a 803f
00000180: 4edf 733a 8eb9 e8ba 5e02 85bb f51c 24b9
00000190: 2b68 fdbb aeb7 78ba 5e60 8cbb b5fd 873b
000001a0: 2719 55bb e7d5 c9bb e1a1 70ba 4dbf 9b3b
000001b0: 2b11 0cbb ad26 22ba f175 baba 80d5 0b3c
000001c0: 34ed c9ba dc38 06bc 05d4 b2bb 7b99 833b
000001d0: 79e1 c93b 6c5d 47bc 098a bd3b 0284 e9bb
000001e0: 51f0 d4bb a56c 19bb 36f7 acbb 9fef 6fbb
000001f0: 808d cdba 081a c9b9 8c2e 78bb 9d4c d0ba
00000200: 1d8d fa3b b380 4a3c c4d9 9b3b f893 55bb
00000210: 2b32 0bbc 3de7 9c3b 094c e139 2f2a c53b
00000220: 175c e139 04b8 74bb 5a57 083c 49b0 1cba
00000230: 18fa 493c 5994 113c a8c2 a63b 9352 fdbb
00000240: c7fc 6e3c 1c13 e83b e5ab aabb ed92 143b
00000250: 5eed 243c 9292 9dbb e80d e53b 9f90 de3b
00000260: d5ec 323c dcc7 deba fb62 8bbb 29d2 3dbc
00000270: 10d3 cd3b 6ea3 4abc d4cf 37bb 399a 78bb
00000280: c680 723c 0d14 543c bbb3 5c3b 0ea9 98bb
00000290: d68c 0739 0985 943b a1e7 253c b6d7 5d3c
000002a0: 8920 abb9 3a71 1abc 26fe 8fbb 3e8c 3dba
000002b0: d748 6a3c 60b9 353c 1475 803b 7fad 7aba
000002c0: 86f6 233c d6ad 3c3c 3bbe 1fbb c9ed 8bba
000002d0: 3896 2d3c 349c d73b a53d 6c3c a146 5439
000002e0: 81af 3d3c 2e1f 78bb b27b ca3b f08e c237
000002f0: ebf3 c5b8 9ff8 01bb ca65 03bb 97b0 07bc
00000300: 3bc9 803f 08d3 813f 79ff 7e3f 17b9 7d3f
00000310: a3b8 7e3f 5150 803f 0f54 803f 4214 813f
00000320: a715 803f a373 803f e46e 7e3f 1a02 803f
00000330: d1c5 7f3f 0b3e 823f 4169 803f f47a 803f
00000340: df8c 813f aee6 803f 3ae4 7f3f 446c 803f
00000350: 4a30 803f 2e02 7e3f 5cb8 803f 4388 7f3f
00000360: 3e06 813f e33b 803f 0b1b 803f 6f78 7f3f
00000370: 3f14 813f b3bb 7c3f 53ba 803f 791a 803f
00000380: 4edf 733a 8eb9 e8ba 5e02 85bb f51c 24b9
00000390: 2b68 fdbb aeb7 78ba 5e60 8cbb b5fd 873b
000003a0: 2719 55bb e7d5 c9bb e1a1 70ba 4dbf 9b3b
000003b0: 2b11 0cbb ad26 22ba f175 baba 80d5 0b3c
000003c0: 34ed c9ba dc38 06bc 05d4 b2bb 7b99 833b
000003d0: 79e1 c93b 6c5d 47bc 098a bd3b 0284 e9bb
000003e0: 51f0 d4bb a56c 19bb 36f7 acbb 9fef 6fbb
000003f0: 808d cdba 081a c9b9 8c2e 78bb 9d4c d0ba
