results/FullyAbstract/bachelor/bachelor-158499.onnx (onnx, 873376 bytes, 11 tensors)

network_body._body_endoder.seq_layers.0.weight f4 [256, 7]
0	0x3eba7158	0.364146
1	0xbdbfa481	-0.093575485
2	0xbd83ca27	-0.06435042
3	0x3f2cc178	0.6748271
4	0x3d03b058	0.032150596
5	0x3f00f57f	0.503746
6	0x3ef9f883	0.48822412
7	0xbe41215d	-0.18860383
8	0x3da2a2a8	0.079411805
9	0x3dc9f379	0.09860892
10	0xbe8aca56	-0.27107495
11	0x3db64183	0.08899214
12	0x3da9b614	0.08286682
13	0x3e85e7f2	0.26153523
14	0xbe5d8a5e	-0.21634814
15	0x3ddc3ca2	0.10753752
16	0x3f9250f3	1.1430954
17	0x3f744214	0.9541333
18	0xbe2dcdbb	-0.16973011
19	0xbf244b9f	-0.6417789
20	0x3e1c0950	0.15237927
21	0x3e3dc0fa	0.18530646
22	0x3e6124ce	0.21986696
23	0xbe3a104b	-0.18170278
24	0x3debde7f	0.11517047
25	0x3e59eef7	0.21282564
26	0x3ea8d877	0.3297765
27	0xbf0cbf7b	-0.54979676
28	0x3e6275a6	0.22115192
29	0xbf2bf09d	-0.6716402
30	0x3e57fb99	0.2109207
31	0xbe46898a	-0.19388404
32	0xbe9e529d	-0.30922404
33	0x3eac376d	0.33636037
34	0x3d790b9d	0.06080209
35	0x3e34dc84	0.17662245
36	0x3ee29f20	0.44262028
37	0x3f2e6ef7	0.6813807
38	0xbcda6227	-0.02665813
39	0xbeb21d42	-0.34787947
40	0xbea94d4e	-0.3306679
41	0xbdb7afdf	-0.089690916
42	0x3f1f0d40	0.6212959
43	0x3ea9159a	0.33024293
44	0xbe70d29b	-0.2351784
45	0xbb08cde5	-0.0020874676
46	0x3ed14e3c	0.4088
47	0x3eb2d119	0.34925154
48	0x3f0c53f6	0.54815614
49	0x3ebf47d1	0.3735948
50	0x3eab565d	0.33464327
51	0xbdcb3219	-0.09921665
52	0x3ec49f53	0.38402805
53	0x3b77ec04	0.0037829885
54	0xbef75af8	-0.4831159
55	0xbeccdebb	-0.4001368
56	0xbe3fde55	-0.18737157
57	0x3e985729	0.29753998
58	0x3e50c40b	0.20387284
59	0xbf144885	-0.57923156
60	0x3e9800a6	0.29687995
61	0x3eb50771	0.3535724
62	0x3ea09a1e	0.31367582
63	0x3f2f60a1	0.6850682
64	0xbe44583c	-0.19174284
65	0xbe3e7bef	-0.18601964
66	0xbeade97b	-0.33967194
67	0x3e5d8cd1	0.21635748
68	0x3cf2e559	0.029650377
69	0xbe617c8f	-0.22020172
70	0x3f16c589	0.58895165
71	0xbe8839c7	-0.2660658
72	0xbe175d3a	-0.14781657
73	0xbdd220e0	-0.10260177
74	0xbe18ee90	-0.14934754
75	0xbe4a4669	-0.19753422
76	0xbea330e4	-0.31873238
77	0xbf48c520	-0.7842579
78	0xbe8ba0e6	-0.27271193
79	0xbf455bb2	-0.7709304
80	0xbec2a0ec	-0.380134
81	0x3ddc2ff4	0.10751334
82	0x3f16cfaa	0.5891062
83	0x3e1e97bf	0.15487574
84	0xbd8bf6fd	-0.06834219
85	0xbedf2695	-0.43584123
86	0x3e302ba1	0.17204143
87	0xbf447f2b	-0.7675654
88	0x3db8282c	0.08992037
89	0x3e32edff	0.17473601
90	0x3ec39f25	0.38207355
91	0x3e0e5785	0.13900574
92	0x3ec97842	0.39349562
93	0x3ef2b7ad	0.47405759
94	0xbf755008	-0.95825243
95	0x3f08d988	0.53456926
96	0xbe0d348a	-0.13789573
97	0xbe5628ba	-0.20913973
98	0xbe459758	-0.19296014
99	0xbde670b5	-0.11251966
100	0x3f36068b	0.71103734
101	0xbef80770	-0.48443174
102	0x3ea02da6	0.31284827
103	0xbece2e32	-0.4026962
104	0x3e0d8f36	0.13824162
105	0xbe607a5b	-0.21921675
106	0x3e21a4cc	0.15785521
107	0xbebfbe5b	-0.37449917
108	0x3d37aef9	0.0448446
109	0x3e80adcd	0.251326
110	0x3f4d1e69	0.8012453
111	0x3eb565e6	0.35429305
112	0xbe62ee90	-0.22161317
113	0xbe3f8c82	-0.18705943
114	0x3eb67322	0.35634714
115	0x3f2beb5e	0.67156017
116	0x3dc09a79	0.09404463
117	0xbe83d3c4	-0.25747502
118	0xbdc055f2	-0.09391393
119	0xbed0bf22	-0.40770823
120	0xbe844ee9	-0.25841454
121	0xbf17df67	-0.5932526
122	0xbe1c32cf	-0.15253757
123	0x3ede050a	0.4336322
124	0xbe081b81	-0.13291742
125	0xbecc148d	-0.3985943
126	0xbe26655b	-0.16249602
127	0xbd07bd6b	-0.033139627
128	0x3d9a389d	0.075303294
129	0xbe56d368	-0.20979083
130	0x3e09228c	0.13392085
131	0xbe94431a	-0.28957444
132	0x3dde4d09	0.10854537
133	0x3e01e009	0.12683119
134	0x3ebb4dbc	0.36582744
135	0xbee8357b	-0.45353302
136	0xbdc0846f	-0.0940026
137	0xbc8c95b9	-0.017161237
138	0x3db9ee0c	0.09078607
139	0xbe9cc79b	-0.30621037
140	0x3eab377d	0.33440772
141	0xbf03193d	-0.51210386
142	0xbe816f83	-0.2528039
143	0x3d00091d	0.03125869
144	0xbeb27709	-0.34856442
145	0x3e938e1f	0.28819367
146	0xbe80bb8c	-0.25143087
147	0xbf806c62	-1.0033076
148	0x3e4ec535	0.20192416
149	0x3bb7dded	0.0056111724
150	0xbea0b435	-0.31387487
151	0xbc91d9b5	-0.017804006
152	0xbcf2d1be	-0.029641028
153	0xbe94ef2b	-0.2908872
154	0x3eb3d39b	0.3512238
155	0x3ee54e8b	0.44786486
156	0xbe30e405	-0.17274483
157	0x3f1ad403	0.60479754
158	0x3f2b3aa4	0.66886353
159	0x3c5c9697	0.013463638
160	0xbeacfc76	-0.33786362
161	0xbd202816	-0.03910073
162	0xbda21ed7	-0.079160385
163	0x3e84c1da	0.25929147
164	0xbe0ab4ea	-0.13545576
165	0x3efa2a8b	0.48860583
166	0xbecfc701	-0.40581515
167	0xbe2fecd0	-0.1718018
168	0xbf7bb312	-0.98320115
169	0x3e543772	0.20724276
170	0x3bbf9ebe	0.005847781
171	0x3c61361d	0.013745812
172	0xbe983ac6	-0.2973234
173	0x3e708b04	0.2349053
174	0xbf31c9ab	-0.69448346
175	0x3f0b1483	0.54328173
176	0xbe6697cf	-0.22518848
177	0x3eb4d973	0.3532215
178	0x3eabcb4b	0.33553538
179	0xbf5d7676	-0.8650888
180	0xbe0ef45d	-0.13960405
181	0x3e7b9af2	0.24570826
182	0xbd188e78	-0.037245244
183	0xbe697075	-0.22796805
184	0xbe21456b	-0.15749137
185	0x3d2eb989	0.04265741
186	0xbef54183	-0.47901544
187	0x3e9ad5e6	0.30241317
188	0xbf0202c4	-0.5078547
189	0x3e314b66	0.17313918
190	0xbeb47e8c	-0.35252798
191	0xbe8878db	-0.26654705
192	0x3ef4ee94	0.4783827
193	0x3eb6b78e	0.35686916
194	0xbd85a427	-0.0652545
195	0x3d9d8557	0.07691448
196	0x3e86a1c9	0.26295307
197	0x3e549136	0.20758519
198	0x3e377c13	0.17918424
199	0xbf2b82fa	-0.6699673
200	0x3e870b73	0.26375923
201	0xbf77c6a4	-0.96787477
202	0x3e351e51	0.17687346
203	0x3cb49ca0	0.02204734
204	0xbecc16f2	-0.39861256
205	0x3f336293	0.7007229
206	0x3eb2f15a	0.34949762
207	0xbf431cfa	-0.7621609
208	0x3f0467e8	0.5172105
209	0xbf11d9fc	-0.5697324
210	0x3e14121d	0.14460035
211	0x3e60d77f	0.21957205
212	0x3ebfe07f	0.37475964
213	0x3eda3cbb	0.4262446
214	0x3ef17436	0.47158974
215	0xbd21676d	-0.039405275
216	0x3f1417dc	0.57848907
217	0x3e525f4f	0.2054417
218	0xbeac1efe	-0.33617395
219	0x3e9e0495	0.3086287
220	0xbecb8369	-0.39748695
221	0xbe76d39d	-0.24104162
222	0xbe8c2f3c	-0.27379787
223	0x3d2e69eb	0.04258148
224	0x3f395ee1	0.724104
225	0xbec61899	-0.38690642
226	0x3e97cc65	0.29648128
227	0xbeabad81	-0.3353081
228	0x3e3ec3b7	0.18629347
229	0xbd1de179	-0.038545106
230	0x3d6ebf89	0.05828813
231	0xbe95ddb1	-0.292707
232	0x3ea38942	0.31940657
233	0xbe15c37f	-0.14625357
234	0x3de81d07	0.113336615
235	0xbea09be9	-0.3136895
236	0x3ef37614	0.47551024
237	0xbda763cf	-0.08173334
238	0xbe360e93	-0.17778997
239	0x3ec200bb	0.37891182
240	0xbe96f4d3	-0.2948366
241	0xbe52487b	-0.20535462
242	0xbe4c231e	-0.19935271
243	0xbf1a1d25	-0.6020072
244	0x3edd54b6	0.43228692
245	0x3f4a81ab	0.7910411
246	0xbdb84f29	-0.089994736
247	0x3c7c49f0	0.015398487
248	0xbf027d02	-0.50971997
249	0x3f881311	1.0630819
250	0x3e54b693	0.20772772
251	0x3da7c9ce	0.08192788
252	0x3e694e04	0.22783667
253	0xbe64216f	-0.22278379
254	0x3bc92491	0.0061383923
255	0xbe52bbbc	-0.20579427

network_body._body_endoder.seq_layers.0.bias f4 [256]
0	0x3b34d91a	0.0027595223
1	0xba4008e6	-0.0007325545
2	0xbb437aec	-0.0029827906
3	0xbab738c1	-0.0013978706
4	0x3ab3273a	0.0013668307
5	0x3baba127	0.0052377167
6	0x3bea3225	0.007147091
7	0x3bcd53dc	0.0062661003
8	0x395b6ef6	0.00020926804
9	0x3b2be6af	0.0026230027
10	0x3b68ac25	0.0035502997
11	0xbaf4b02f	-0.001866823
12	0xbb623b71	-0.0034520293
13	0xb9e780ee	-0.00044155814
14	0xbaa8523b	-0.0012841889
15	0xbafb060c	-0.0019151582
16	0xba9b680f	-0.0011856573
17	0x3a448763	0.0007496981
18	0x3aef0a2f	0.0018237288
19	0x39b03995	0.00033612238
20	0x3a7c666a	0.0009628298
21	0xbb16e9c0	-0.002302751
22	0x3aec19f9	0.0018013112
23	0xba85cb31	-0.001020765
24	0x3bb8b9e8	0.005637396
25	0x3b9f9780	0.004870355
26	0xbb507f80	-0.0031814277
27	0x39b6a744	0.00034838368
28	0xba331cf6	-0.00068326236
29	0x3ac5d491	0.0015093257
30	0xba53ccc4	-0.00080795237
31	0x3b7862b0	0.003790062
32	0x3bd0f007	0.0063762697
33	0x3b8dc966	0.004326987
34	0x3bce109f	0.0062886025
35	0x3bcc69d1	0.0062382002
36	0x3b90857f	0.004410445
37	0xba7f49ba	-0.0009738464
38	0x38b68df9	8.704881e-05
39	0xbb5f3389	-0.0034057817
40	0xbaf34efe	-0.001856297
41	0x3ad87dbf	0.0016516967
42	0x3b0ee248	0.0021802355
43	0x3aa1630a	0.0012312841
44	0xbb1a5245	-0.0023547572
45	0x39d0e9c8	0.00039847032
46	0x3bc087ad	0.005875549
47	0xba0f2528	-0.0005460554
48	0xb9ca8940	-0.00038630702
49	0x3bffd187	0.00780696
50	0x3b22e289	0.0024854264
51	0x3a0d6368	0.0005393536
52	0xba7811c3	-0.0009463096
53	0x3b337527	0.002738306
54	0x3be75517	0.007059704
55	0x3b2f825f	0.0026780588
56	0x39a2924d	0.0003100805
57	0xb992cbb3	-0.00027999058
58	0x3ba7fbe3	0.005126463
59	0xba72bed4	-0.0009260003
60	0x39948326	0.00028326473
61	0xba1c8311	-0.0005970458
62	0xb9c1959c	-0.00036923296
63	0x3c06f4f5	0.008237113
64	0xbb007c82	-0.0019605462
65	0xb956f2d7	-0.00020499095
66	0x3b6ed5da	0.0036443383
67	0x3b4ca8b0	0.0031228475
68	0xba417212	-0.00073793635
69	0xbb281ef9	-0.0025653227
70	0x3c08263f	0.0083099
71	0xba84b25a	-0.0010123954
72	0x3b855dec	0.0040700343
73	0x3a6dd87e	0.00090730924
74	0x3c185d00	0.009299517
75	0x3afb2ce9	0.0019163165
76	0xba71ff65	-0.0009231477
77	0xbb9029cd	-0.0043995143
78	0x3b4f14ce	0.0031598094
79	0x39e66125	0.00043941397
80	0x3abb001e	0.0014267003
81	0xbb47f2c4	-0.003050969
82	0xbb3c4c35	-0.0028731946
83	0xbb72feec	-0.0037078215
84	0x3a4f4bbf	0.00079077104
85	0x3b892076	0.004184778
86	0xbb271e0d	-0.002550009
87	0x3bcead33	0.006307268
88	0x3bb3c986	0.00548667
89	0x3b989070	0.00465589
90	0x3bd6877a	0.006546912
91	0x3bb443bb	0.005501238
92	0x3b30c762	0.002697431
93	0xbac3e029	-0.0014944124
94	0x3b94758e	0.004530615
95	0x3bd05b8b	0.006358569
96	0x3a61dbfe	0.000861585
97	0x3b84233e	0.0040325215
98	0x3bac0168	0.005249191
99	0x39e89c00	0.00044366717
100	0x39886bf2	0.00026020367
101	0xbbc40bcf	-0.005982853
102	0x3bb050cf	0.005380727
103	0xba947b3c	-0.0011328231
104	0xbb367d61	-0.0027845728
105	0x3a0a5cc7	0.0005278107
106	0x3aea005a	0.0017852888
107	0xba5975be	-0.0008295438
108	0x3abf0e4f	0.0014576408
109	0xbab26edc	-0.0013613361
110	0xbba1872f	-0.004929445
111	0x39c52601	0.00037603083
112	0x3ab36565	0.0013686834
113	0xbb922e3e	-0.004461079
114	0x3b07f8d9	0.002074769
115	0xbb207ea8	-0.0024489556
116	0x3b624304	0.0034524808
117	0xb9e01aca	-0.0004274457
118	0x3b69c16e	0.0035668272
119	0x3bc23f51	0.005927958
120	0xb8771684	-5.891036e-05
121	0x3c00b3aa	0.007855335
122	0xbb419699	-0.0029539226
123	0xbb30a834	-0.0026955726
124	0x3ae19d36	0.001721299
125	0xbbdd473f	-0.006752878
126	0x3bf7308b	0.0075436286
127	0x398f39fb	0.00027318284
128	0x3b666e6b	0.003516103
129	0x3b934d1a	0.004495275
130	0x3a4a5bb6	0.00077193545
131	0xbb82638e	-0.003979153
132	0x3b62ab4c	0.0034586964
133	0xba216bf6	-0.000615775
134	0xba1575c7	-0.0005701449
135	0x3a3da805	0.00072348147
136	0x3b4f489e	0.0031628977
137	0xbbd48b3d	-0.006486325
138	0xbacc3138	-0.0015578633
139	0x3bb4c5c5	0.00551674
140	0x3ba16c92	0.0049262727
141	0x3c08c4e1	0.008347721
142	0xbae6642d	-0.0017577462
143	0x39878623	0.00025849146
144	0x3b5b99bb	0.0033508379
145	0x3bc1da24	0.005915897
146	0x3b49c764	0.0030789012
147	0x3b8740e3	0.004127608
148	0x3b8bc760	0.0042657107
149	0x3800d0ef	3.0712163e-05
150	0x3ab53f50	0.0013828073
151	0x3bdfbf71	0.0068282415
152	0xbb7b150f	-0.0038312112
153	0xb9bbf4d1	-0.00035849822
154	0x396db86c	0.00022670784
155	0x3addcff7	0.001692294
156	0xbb74a8d4	-0.0037332075
157	0x3a94cfd5	0.0011353443
158	0xb955e569	-0.00020398725
159	0x3bceabec	0.006307116
160	0x3afdcb75	0.0019363003
161	0x3ac9956d	0.0015379615
162	0x3b543f1c	0.003238625
163	0x3b5638fa	0.003268777
164	0xbba1a199	-0.004932594
165	0xbb00aca2	-0.0019634147
166	0x3ad58ac5	0.0016291967
167	0xb9a6eff3	-0.00031840763
168	0xbbdcc43f	-0.0067372615
169	0x3af0b8c7	0.0018365615
170	0x3aff878d	0.0019495353
171	0x3b87837f	0.0041355486
172	0x3b0d86e3	0.0021595291
173	0xba046b5e	-0.00050513993
174	0xbaefd198	-0.0018296717
175	0xbb96850c	-0.004593497
176	0xbb86b917	-0.00411142
177	0xbb10953d	-0.002206161
178	0xbac31948	-0.0014884854
179	0xbaae3c77	-0.0013293166
180	0xbaa4a4f9	-0.0012561373
181	0x3bf05a34	0.007334972
182	0x3ba617db	0.0050687618
183	0xb97be98f	-0.00024024233
184	0x3ac49557	0.001499812
185	0xbad48940	-0.001621522
186	0xbb6b0173	-0.0035859018
187	0x3b169985	0.0022979688
188	0x3a9d7dd6	0.0012015651
189	0xbb969438	-0.004595306
190	0x3acb2933	0.0015499949
191	0x3b2f9ad0	0.0026795156
192	0x39bcc78e	0.00036006834
193	0x3ba70d05	0.0050979876
194	0xbb0bb12e	-0.0021315324
195	0x3b275fd2	0.002553929
196	0x3c0e9ce7	0.008704401
197	0x3ac4eef7	0.001502483
198	0x3b077f2c	0.0020675166
199	0x3b0371bd	0.0020056807
200	0xbad54205	-0.0016270286
201	0x3b55ebe1	0.0032641815
202	0x3b9c4e3d	0.004770069
203	0x3b6e9bee	0.003640886
204	0xbb0e2a3c	-0.0021692654
205	0x3b9b232e	0.0047344184
206	0xbabc1550	-0.0014349613
207	0xba2ae02c	-0.00065183896
208	0x3a66a9d9	0.0008799113
209	0x3a93ab15	0.0011266196
210	0xbbbb2927	-0.005711693
211	0x3a3937f3	0.0007065527
212	0x3bb4b232	0.0055144066
213	0xbb3f275c	-0.0029167747
214	0x3b8168bd	0.0039492534
215	0xba96a810	-0.0011494178
216	0x39c6e1e9	0.0003793382
217	0xbb165cde	-0.0022943537
218	0xbb53b5cf	-0.0032304411
219	0x38b0749a	8.414053e-05
220	0xbb4f3003	-0.003161431
221	0xb97378bd	-0.00023219264
222	0x3b6e5890	0.0036368705
223	0x3ac5fca9	0.0015105206
224	0x3a8c283b	0.0010693142
225	0x3b9b1b35	0.004733468
226	0x3a80a185	0.0009813762
227	0x3b8aebe5	0.0042395466
228	0x3bab020a	0.005218749
229	0x3bdf7c75	0.0068202564
230	0xbc09010c	-0.008362066
231	0x3c17f569	0.009274819
232	0x3af92b66	0.0019010126
233	0x3b80559e	0.0039164564
234	0xba06d95e	-0.00051440846
235	0x39759922	0.00023422067
236	0xbb66eec6	-0.0035237535
237	0xbb3669a7	-0.002783397
238	0x3a38b010	0.00070452783
239	0xbae03195	-0.001710462
240	0x3c06d3fd	0.008229253
241	0x3b05e7d5	0.0020432372
242	0xbab5d267	-0.0013871909
243	0xba2162f3	-0.0006156407
244	0x3b88361a	0.00415684
245	0xbb3a234f	-0.0028402393
246	0x3a8be4cc	0.0010673045
247	0x3b74030a	0.0037233257
248	0x3b722a97	0.0036951655
249	0xbb0aac00	-0.002115965
250	0x3c15ec61	0.009150595
251	0x3b065221	0.002049573
252	0x3a8619ac	0.001023104
253	0x3ba1ba3a	0.00493553
254	0x3b5d081f	0.0033726764
255	0xbb05963f	-0.0020383743

network_body._body_endoder.seq_layers.2.weight f4 [256, 256]
0	0x3dd8ee37	0.10592311
1	0x3d4a7128	0.04942432
2	0xbc148cac	-0.009066742
3	0x3d5d6df1	0.054059926
4	0xbb15a11c	-0.0022831624
5	0x3dea59eb	0.11442932
6	0xbcac45a7	-0.021029307
7	0xbd699a8d	-0.057032157
8	0x3dac0fa8	0.08401424
9	0x3d13e1c8	0.036103994
10	0xbd533a1a	-0.05156908
11	0x3dff385b	0.12461921
12	0x3d286c02	0.04111863
13	0x3d1da968	0.038491637
14	0xbb8f3cdd	-0.004371269
15	0xbc90e14f	-0.01768556
16	0x3dc77254	0.09738603
17	0xbe1a0687	-0.15041552
18	0xbe27daeb	-0.16392104
19	0xbdd9e31f	-0.10639023
20	0x3d5bacd0	0.053631604
21	0x3da87bcb	0.08226737
22	0x3cfbf30e	0.030755546
23	0x3d6ef3cf	0.058337983
24	0x3da46172	0.08026399
25	0xbce6a0dc	-0.028152876
26	0x3da46ee1	0.08028961
27	0x3d04c737	0.03241655
28	0x3d50042e	0.050785236
29	0xbd18b110	-0.037278235
30	0x3ce96fea	0.028495748
31	0x3dc6ccb3	0.09707012
32	0xbd34dcf1	-0.04415602
33	0x3c14b437	0.00907617
34	0x3d791154	0.06080754
35	0x3d3d7030	0.04624957
36	0xbcfadc07	-0.030622495
37	0x3bdbf1b2	0.006712162
38	0xbc883d0a	-0.016630668
39	0xbb9e5a4b	-0.004832541
40	0xbcf21923	-0.029553002
41	0xbda970b0	-0.082734466
42	0xbd36efc7	-0.044662263
43	0x3c5c3f0e	0.013442768
44	0xbd88d1ab	-0.06680616
45	0x3db470f8	0.088106096
46	0x3dfdff52	0.12402214
47	0xbb2cc279	-0.0026361032
48	0xbc22a127	-0.009926117
49	0x3e1af3fd	0.15132137
50	0x3cb525e0	0.022112787
51	0x3dcd3deb	0.100215755
52	0xbd3afee6	-0.045653246
53	0x3cc8f5ff	0.024531363
54	0xbd0ebc5e	-0.03484761
55	0x3dcd9459	0.10038061
56	0x3d8dea8b	0.06929501
57	0xbdcc0259	-0.09961385
58	0xbcb817d1	-0.022472294
59	0xbd3b276e	-0.0456919
60	0xbcc2445f	-0.023714243
61	0x3ca7b6e9	0.02047296
62	0xbdc19be5	-0.09453563
63	0xbd199e1c	-0.0375043
64	0xbaf00ade	-0.0018313786
65	0x3d387240	0.045030832
66	0xbc3eee94	-0.011653561
67	0x3dabf587	0.0839644
68	0xbd52c2bf	-0.051455256
69	0x3d111e52	0.035429306
70	0xbd5e0e0e	-0.054212622
71	0xbd62f9c8	-0.05541399
72	0x3c99ea0a	0.018788356
73	0x3d495653	0.04915459
74	0x3e16690f	0.14688514
75	0xbcb06869	-0.021534162
76	0xbd1b0e0b	-0.03785519
77	0x399716d1	0.00028817964
78	0xbcec5fdf	-0.028854309
79	0x3d84e626	0.0648921
80	0xbd2a9aa7	-0.041651394
81	0xbdb2b11b	-0.087251864
82	0xbcd3cb43	-0.025853759
83	0xbc9e1a91	-0.019299777
84	0x3c3dbeda	0.011581147
85	0xbc4a58f9	-0.012350314
86	0x3d13aba2	0.036052354
87	0xbd87a75c	-0.06623718
88	0xbd26c3e6	-0.040714167
89	0x3d0df80d	0.034660388
90	0x3c1f29f4	0.009714592
91	0xbc200503	-0.00976682
92	0x3d8af70d	0.067854024
93	0x3d65c48f	0.056095656
94	0x3d4dff7e	0.050292484
95	0x3d7c2920	0.061562657
96	0x39bc8103	0.00035954276
97	0x3d5ff5e6	0.054677866
98	0x3d74cd3b	0.059766036
99	0x3d52533c	0.05134891
100	0x3dab0b98	0.08351821
101	0x3d81295d	0.063067175
102	0xbdad9ef2	-0.08477582
103	0x3db61acf	0.08891832
104	0x3d4705f8	0.048589677
105	0x3cdf5ec0	0.02726686
106	0x3d1c2b61	0.038127307
107	0x3d917798	0.07102889
108	0x3dc0d006	0.09414677
109	0xbc899723	-0.0167957
110	0xbccbd9bc	-0.024884097
111	0x3d775db7	0.060392108
112	0x3d99fe35	0.07519189
113	0x3d030484	0.03198673
114	0x3caf800d	0.021423364
115	0x3c4fbd78	0.01267945
116	0xbd6f6b9d	-0.058452237
117	0x3d8da337	0.069158964
118	0xbe0d1e35	-0.13781054
119	0xbd074895	-0.033028204
120	0xbb916ef2	-0.0044382745
121	0xbd765671	-0.06014103
122	0xbaf2ef05	-0.0018534368
123	0x3dc34b3f	0.095358364
124	0x3ddc0c6d	0.107445575
125	0x3cac5d93	0.021040713
126	0x3dec744d	0.1154562
127	0x3e03eca1	0.12883236
128	0xbcf588cb	-0.029972455
129	0x3c276924	0.010217939
130	0xb8c12c05	-9.2111564e-05
131	0x3d0d362c	0.03447549
132	0xbd10a0fa	-0.03530977
133	0x3dbe64d9	0.09296579
134	0xbd8d64e0	-0.06904006
135	0xbd2d26aa	-0.0422732
136	0xbd17f313	-0.037097048
137	0x3c6f2285	0.014595632
138	0xbcc6e54d	-0.024279261
139	0x3dcce8b9	0.10005326
140	0x3d8ddfd8	0.069274604
141	0x3db4e053	0.08831849
142	0x3bddc7fb	0.0067682243
143	0xbd047c3a	-0.032345034
144	0xbd3a5020	-0.04548657
145	0xbbb2c6fd	-0.00545585
146	0xbbd036aa	-0.0063541727
147	0xbac2839d	-0.0014840249
148	0xbc15b2e0	-0.009136885
149	0xbd0f559a	-0.034993745
150	0xbdc7a5cf	-0.09748422
151	0xbcb0ea8e	-0.02159622
152	0x3c8cdf3b	0.017196288
153	0xbc52f988	-0.012876876
154	0xbcdb532b	-0.026773056
155	0x3ab46b4c	0.0013764887
156	0x3d0dbd7d	0.03460454
157	0x3d471a0c	0.048608825
158	0x3de9f36b	0.114233814
159	0xbd5579f5	-0.05211826
160	0xbe598357	-0.21241508
161	0x3d074d38	0.033032626
162	0x3dc82433	0.097725295
163	0x3dbf5a72	0.09343423
164	0xbc427199	-0.011867904
165	0xbbe50128	-0.006988663
166	0xbd9c83a4	-0.07642296
167	0x3d837a9a	0.06419869
168	0xbcc8ccaa	-0.024511654
169	0xbbd0944f	-0.006365336
170	0xbcdad362	-0.026712123
171	0x3e0192ae	0.1265361
172	0xbd0148a8	-0.03156343
173	0x3e01a270	0.12659621
174	0xbd15ab1a	-0.03654013
175	0xbd6434c4	-0.055714384
176	0xbda23646	-0.07920508
177	0x3da39ba9	0.07988674
178	0x3d8d268d	0.068921186
179	0x3d43441d	0.04767238
180	0x3d033b9b	0.032039266
181	0xbce9b43c	-0.028528325
182	0x3d929556	0.0715739
183	0x3b847bed	0.0040430934
184	0xbd759290	-0.059954226
185	0x3bd5fae4	0.0065301526
186	0xbdee275d	-0.11628602
187	0x3c70f374	0.014706481
188	0x3da7647d	0.081734635
189	0x3d2b42ba	0.041811682
190	0xbd7450b6	-0.059647284
191	0x3c42a01d	0.011878994
192	0x3d53c377	0.05170008
193	0x3d8d054f	0.06885778
194	0xbcc0456e	-0.023470607
195	0x3d7b26ae	0.061316185
196	0x3a463246	0.0007560592
197	0xbdfb648b	-0.122750364
198	0x3d83d7db	0.064376555
199	0xbe0059dc	-0.12534279
200	0xbd67a2a8	-0.056551605
201	0x3d070b31	0.032969657
202	0x3c8d2214	0.017228164
203	0x3d2eb8d4	0.042656735
204	0xbb217b34	-0.0024640085
205	0xbca25d32	-0.01981983
206	0x3c1c7750	0.009549931
207	0xbd2aecad	-0.041729618
208	0xbd3aa044	-0.045562997
209	0xbca65532	-0.020304296
210	0x3d9e6c02	0.077354446
211	0xbd78deaf	-0.060759243
212	0x3d9be69d	0.07612345
213	0xbd4c2121	-0.04983628
214	0x3da0e644	0.0785642
215	0x3d1eaa81	0.038736824
216	0xbc177110	-0.009243265
217	0xbc624dc7	-0.013812489
218	0xbdd07385	-0.101782836
219	0x3d85ebc6	0.06539111
220	0xbce52a38	-0.027974233
221	0x3e3031f1	0.17206551
222	0xbce21d4d	-0.027601862
223	0xbdcfc6cb	-0.101453386
224	0x3dd83184	0.10556319
225	0xbd68fc45	-0.056881208
226	0x3d9b16d8	0.075727165
227	0x3b8d0945	0.0043040835
228	0xbd64dd7a	-0.05587528
229	0x3b33bb9d	0.0027425059
230	0xbd96babf	-0.07359838
231	0x3ca05fe0	0.019576967
232	0xbadbb083	-0.0016760979
233	0x3e081212	0.13288143
234	0x3d0f2559	0.034947727
235	0xbd6e59c7	-0.058191087
236	0x3cbdb893	0.0231593
237	0x3d667692	0.05626542
238	0xbd77724c	-0.060411736
239	0xbcdce241	-0.026963355
240	0x3dac5e17	0.08416384
241	0xbd1b3811	-0.037895266
242	0xbc878af7	-0.016545756
243	0xbd64669e	-0.055761926
244	0xbca0c375	-0.019624451
245	0xbd4a5005	-0.04939272
246	0xbd9c5a02	-0.07634355
247	0xbbb7e9e9	-0.005612601
248	0xbe0cea91	-0.13761355
249	0xbcd3987a	-0.025829542
250	0x3dac7862	0.08421399
251	0x3d89568b	0.0670596
252	0x3c8bb2b0	0.017052978
253	0xbce973d1	-0.028497608
254	0xbc8c19ec	-0.017102204
255	0xbe1d01cf	-0.15332721

network_body._body_endoder.seq_layers.2.bias f4 [256]
0	0x3b95f4e6	0.0045763133
1	0x3be35e48	0.0069387294
2	0x3b935956	0.0044967337
3	0xba8983db	-0.0010491566
4	0xba3e7b56	-0.00072663033
5	0x3b5c5fb3	0.0033626377
6	0x394b0591	0.00019361662
7	0x3b2501cc	0.0025178073
8	0x3b8f3bb6	0.004371132
9	0x3b12ff74	0.0022430094
10	0xbb882ee9	-0.0041559828
11	0x3a969f0b	0.001149149
12	0x3ba6e9c6	0.005093786
13	0x3b4732a6	0.003039518
14	0x3b268fdd	0.002541534
15	0xbb48849b	-0.0030596617
16	0xb963ca69	-0.0002172381
17	0x3b20bec9	0.002452778
18	0x3b579ea1	0.0032900947
19	0xb9043549	-0.00012608351
20	0xbb91f255	-0.004453937
21	0xbb8dc7a8	-0.0043267794
22	0x3b871283	0.00412208
23	0xbac9ccc7	-0.0015396111
24	0x3c222ec6	0.009898847
25	0x3ab088c6	0.0013468496
26	0xbb3dc4d6	-0.0028956435
27	0xb9e86bbb	-0.00044330754
28	0xb926fc67	-0.00015925021
29	0x3ac7503f	0.001520641
30	0x39173fc0	0.00014424231
31	0x38cbafb7	9.712524e-05
32	0x397bcede	0.0002401429
33	0xbb40a944	-0.0029397765
34	0x3b6e46a3	0.003635802
35	0xba2f1a77	-0.0006679664
36	0xba69132c	-0.00088911015
37	0x3b371f44	0.002794222
38	0x3b252670	0.0025199912
39	0x3abe9cdb	0.0014542596
40	0x3b0809a3	0.0020757697
41	0xb906ded1	-0.00012862241
42	0x3b879b83	0.0041384115
43	0x3b700fe2	0.003663056
44	0xbaba3d98	-0.001420903
45	0x397d6a98	0.0002416767
46	0x3b304172	0.0026894477
47	0x3b1caef3	0.0023907989
48	0x395023a2	0.000198497
49	0x3b2be0e8	0.0026226584
50	0x3a745aa8	0.000932137
51	0xb9e7d763	-0.0004422023
52	0x389172b2	6.9355025e-05
53	0x3b5a5c62	0.0033319225
54	0x397d0e9f	0.00024133407
55	0x3af6a795	0.0018818254
56	0x3a6601e1	0.00087740837
57	0xbb6ae4af	-0.0035841872
58	0x3b3bd671	0.0028661753
59	0xba5520ef	-0.00081302127
60	0x3bddf908	0.0067740716
61	0x3bb7f99c	0.0056144726
62	0x3aad3212	0.0013213775
63	0xbb156e51	-0.002280135
64	0x3b23dac7	0.0025002228
65	0x3a595b49	0.00082914956
66	0x3a70a179	0.0009179335
67	0xbb4d2abf	-0.0031305996
68	0x3b473a76	0.0030399836
69	0xba7ada88	-0.0009569307
70	0x3bb0b2ac	0.005392393
71	0x3af38187	0.0018578031
72	0xbb2c219f	-0.0026265157
73	0xbb4e80f7	-0.0031509975
74	0x3b496a73	0.0030733615
75	0xbad2d7dc	-0.001608606
76	0x3bbc4557	0.0057455706
77	0x371afa65	9.237415e-06
78	0x3a87ed14	0.0010370337
79	0xb85cb068	-5.261638e-05
80	0xba60800c	-0.00085640023
81	0x3acd7fbb	0.0015678325
82	0xbb3f138c	-0.0029155938
83	0x3ba16d59	0.0049263653
84	0x3a443216	0.000748427
85	0xbb8806bb	-0.004151193
86	0x3b3369a1	0.0027376192
87	0xbb2cc60a	-0.0026363158
88	0x3abaae5d	0.0014242638
89	0x3b4323eb	0.0029776047
90	0x3a136edc	0.00056241243
91	0xbac65d17	-0.0015133944
92	0x3bcc8ee8	0.0062426217
93	0xbaadf4fa	-0.0013271861
94	0x3b9d2b2c	0.0047964063
95	0x3bde420e	0.0067827767
96	0xbbb7ed7b	-0.0056130267
97	0xbb663a69	-0.003513003
98	0xbb5bf6e3	-0.0033563904
99	0x3afc939d	0.0019270066
100	0x3b58ac21	0.0033061581
101	0x3bfa34b4	0.0076356772
102	0x3b7d404c	0.003864306
103	0xbb4aba73	-0.0030933886
104	0x3b85953f	0.0040766294
105	0x3b1f7c0d	0.0024335415
106	0x3a961c41	0.0011452512
107	0x3b00ee27	0.00196732
108	0x3b9ed084	0.0048466343
109	0xba0af13f	-0.00053002307
110	0xba890c88	-0.0010456005
111	0x3b94d64a	0.004542147
112	0xbb9db072	-0.0048122937
113	0x3b69a465	0.0035650965
114	0xba4701a3	-0.00075914914
115	0xba8399b1	-0.001004031
116	0xba04dced	-0.0005068321
117	0xbb14bc08	-0.0022695083
118	0xb7a714be	-1.991761e-05
119	0xba5248ff	-0.00080217415
120	0x3b6e24b0	0.0036337785
121	0xbb2b0647	-0.002609627
122	0x3bf277e3	0.0073995455
123	0x3bea2cd4	0.007146457
124	0xb8c84976	-9.550426e-05
125	0x3b7bea03	0.0038439042
126	0xbafc47d8	-0.0019247485
127	0xbb60b13b	-0.0034285325
128	0x3bb4ec99	0.0055213687
129	0xbb6772cf	-0.0035316234
130	0xba173a27	-0.0005768858
131	0x3b9f4237	0.0048601883
132	0x3bca7d42	0.0061794827
133	0xbb41fd60	-0.0029600486
134	0x3b92e994	0.004483411
135	0x3bd10724	0.006379025
136	0x3b742e36	0.003725899
137	0x3b637d35	0.003471208
138	0x3b797b3a	0.0038067834
139	0xb7478c0c	-1.18939315e-05
140	0xbb8678dc	-0.004103763
141	0xbb1dc907	-0.002407612
142	0xbb865f75	-0.004100735
143	0xba1ac43e	-0.0005903876
144	0x3bce2bac	0.006291827
145	0x399d021f	0.00029946954
146	0xba027fed	-0.0004978169
147	0x3b9678e4	0.004592048
148	0x3bbb8277	0.0057223397
149	0xbab45f08	-0.0013761232
150	0x3ae4f7f6	0.0017468918
151	0x3b9dbb5f	0.004813596
152	0x3b671e3b	0.0035265821
153	0xbb2be62b	-0.002622972
154	0xbacdb0ca	-0.0015692946
155	0x39070c80	0.0001287926
156	0x3acf55b0	0.0015818384
157	0xbb62f69b	-0.0034631852
158	0x38e14291	0.00010741235
159	0x3bd62052	0.0065346146
160	0xba266701	-0.0006347746
161	0x3bef71ac	0.007307252
162	0xbb368619	-0.0027850925
163	0xbb95dd50	-0.0045735016
164	0x3c1db6a2	0.009626063
165	0x3980f3cc	0.00024595705
166	0xbb1310d4	-0.002244045
167	0x38994fab	7.310448e-05
168	0x3bddab39	0.006764796
169	0xbb0e5331	-0.0021717066
170	0x3ab53f11	0.0013827999
171	0xbb8e0fd2	-0.004335382
172	0x3affda6c	0.0019520051
173	0x3afa6db9	0.0019106186
174	0x39053fcc	0.00012707635
175	0xbac97d88	-0.0015372494
176	0xbb4b42c6	-0.0031015142
177	0x3b175fda	0.0023097903
178	0x3b834a0d	0.0040066303
179	0x39818c18	0.00024709175
180	0x3aa840dd	0.0012836714
181	0x3ba4e018	0.005031597
182	0xb9157e92	-0.00014256898
183	0x3b08c46d	0.0020869032
184	0x3be698a9	0.0070372415
185	0xbad08b54	-0.0015910664
186	0x3b2d89d2	0.0026479852
187	0x39e08aa6	0.0004282791
188	0x3b504585	0.0031779718
189	0xbb193882	-0.0023379629
190	0x3acfb235	0.0015845957
191	0xbae4b8e2	-0.0017450119
192	0x3ac93d1d	0.0015353296
193	0xba8c4431	-0.0010701475
194	0xbb0fc38d	-0.0021936626
195	0x3baaed94	0.00521631
196	0x3aa67ab0	0.0012701359
197	0xba80d46d	-0.0009828933
198	0x3a74a271	0.0009332067
199	0x3b38ee39	0.0028218164
200	0x3bac0f7c	0.0052508693
201	0x3b8eebb4	0.004361594
202	0x3be18412	0.006882199
203	0xbadd098e	-0.001686381
204	0x3ad900a2	0.0016555975
205	0xba15507c	-0.0005695892
206	0x3a30f0c1	0.00067497423
207	0xbb02e6e6	-0.0019974052
208	0xba760b12	-0.0009385805
209	0xba4841cd	-0.00076391996
210	0x3a1f8a43	0.0006085971
211	0x3abbb729	0.0014321554
212	0x3b8348a5	0.0040064626
213	0xbba40af8	-0.0050061904
214	0xb989511c	-0.00026191107
215	0xba243463	-0.000626391
216	0xbbabd7f8	-0.0052442513
217	0x38a94fc5	8.073406e-05
218	0x3a8c0e83	0.0010685477
219	0xba9aeadf	-0.0011819265
220	0xbb7dcd35	-0.003872705
221	0x3ba4c3b1	0.005028211
222	0x3c0707bc	0.00824159
223	0xbb296fa1	-0.002585389
224	0x3930cf9e	0.00016862011
225	0xbbad74fa	-0.0052934857
226	0x399e5fb3	0.0003020741
227	0xb94cc800	-0.00019529462
228	0x3b35cb28	0.0027739499
229	0x3b30379f	0.0026888622
230	0xba6f1676	-0.00091204734
231	0x3ac8b953	0.001531402
232	0x3b52ccdd	0.0032165565
233	0xbb119859	-0.002221605
234	0x3b648670	0.003487017
235	0x3b918559	0.004440945
236	0x3bdf5160	0.0068151206
237	0x3b91af87	0.0044459733
238	0x3b711cec	0.003679092
239	0xbaad3ca1	-0.0013216921
240	0xbafbe556	-0.0019218128
241	0x3ae3f975	0.001739307
242	0x3b522f62	0.00320717
243	0x3a0d99d3	0.0005401645
244	0xbaff59d7	-0.001948173
245	0x3c0bad1e	0.008525161
246	0xbae8acc9	-0.0017751689
247	0x39f390d3	0.00046456474
248	0x3be21ab7	0.0069001573
249	0x3b34fe2b	0.0027617316
250	0xb97fb208	-0.00024385017
251	0x3ad9cca2	0.0016616771
252	0x3c042463	0.008065316
253	0x3b60bddf	0.003429286
254	0x3a9fbfd5	0.0012187908
255	0x3aaa2f23	0.0012984019

network_body._body_endoder.seq_layers.4.weight f4 [256, 256]
0	0x3c68255a	0.014169062
1	0xbd713afc	-0.058894143
2	0x3d9a682d	0.07539401
3	0xbd229136	-0.039689265
4	0x3d8bc618	0.06824893
5	0xbd62d267	-0.055376437
6	0x3e009bdf	0.1255946
7	0xbd08ea08	-0.033426315
8	0xbd182318	-0.037142843
9	0x3d2a546d	0.04158442
10	0x3d0c29a9	0.034219418
11	0xbdcdd411	-0.10050214
12	0xbc8dec8a	-0.017324705
13	0x3d670854	0.056404427
14	0x3db7184f	0.08940183
15	0x3c8f0d11	0.017462285
16	0x3c92e5ad	0.017931784
17	0xbce1b7a2	-0.027553383
18	0x3c4deed8	0.012569152
19	0xbccb7091	-0.02483395
20	0xbd6a3ea3	-0.05718864
21	0xbd347846	-0.044060014
22	0xbc97e10c	-0.018539928
23	0x3cd0dd3a	0.025496114
24	0xbcb77ed7	-0.02239935
25	0x3d16e638	0.036840647
26	0x3db29d08	0.087213576
27	0x3d9d087f	0.07667636
28	0xbd472f68	-0.048629194
29	0xbd270f0e	-0.04078584
30	0x3d75d43b	0.060016852
31	0x3d0a04d3	0.033696007
32	0xbce0821c	-0.027405791
33	0x3dcec7ec	0.10096726
34	0x3c9c02d2	0.019044314
35	0xbd9931d8	-0.0748021
36	0x3d570b12	0.05250079
37	0x3dd7ca46	0.105366275
38	0x3da29b04	0.07939723
39	0xbd3042a4	-0.043032303
40	0x3e21b47c	0.15791506
41	0xbcfcf935	-0.03088055
42	0x3d6295e5	0.05531873
43	0x3e0b4fb2	0.1360462
44	0xbd0fb3ce	-0.035083584
45	0x3bfac9f5	0.0076534697
46	0x3d2c6646	0.042089723
47	0x3d0097c9	0.031394754
48	0xbd933307	-0.07187467
49	0x3d785d16	0.06063565
50	0xbcfa3bc4	-0.030546077
51	0x3b5e8ac9	0.0033957234
52	0xbdd15a9d	-0.10222361
53	0xbcc9e744	-0.024646409
54	0x3d34f053	0.044174504
55	0x3c86fcb6	0.016477924
56	0xbd60ac33	-0.054851722
57	0x3da9ede4	0.08297327
58	0x3d065631	0.032797042
59	0x3d9c0858	0.07618779
60	0xbdb3046a	-0.08741076
61	0x3d09c28e	0.033632807
62	0xbda6aa82	-0.081379905
63	0xbe0a6b76	-0.13517556
64	0x3dcc8b4f	0.099875085
65	0xbda509f1	-0.08058537
66	0xbb478a08	-0.0030447263
67	0xbbf2fd11	-0.007415422
68	0xbdd70b04	-0.10500148
69	0x3dc1787d	0.094468094
70	0xbd8ea224	-0.069645196
71	0x3d721aff	0.059107777
72	0xbd84e581	-0.06489087
73	0x3aadb9dd	0.0013254244
74	0x3dedc77f	0.116103165
75	0x3d766c50	0.06016189
76	0xbd62d729	-0.055380974
77	0x3be1cc8b	0.0068908385
78	0xbdac8d12	-0.084253445
79	0x3d4500b1	0.048096363
80	0x3d5dff08	0.054198295
81	0x3d875fe0	0.066100836
82	0xbb959454	-0.004564801
83	0x3c02496a	0.007952074
84	0x3bf46c75	0.007459218
85	0xbd703203	-0.058641445
86	0xbd88a6e6	-0.06672458
87	0xbcfd7908	-0.030941501
88	0x3d265cbd	0.040615786
89	0xbd8f1095	-0.06985585
90	0xbbea10a7	-0.0071430984
91	0xbdf16dbe	-0.1178851
92	0xbd53f765	-0.051749606
93	0xbdcaeb29	-0.099081345
94	0xbd8dd75d	-0.06925843
95	0xbda92d10	-0.08260548
96	0xbcd52ab9	-0.026021348
97	0xbb222d9b	-0.0024746421
98	0x3d97379b	0.07383653
99	0xbd17cdcb	-0.037061494
100	0x3c773df0	0.015090451
101	0xbe18f270	-0.14936233
102	0x3ca72362	0.020402614
103	0xbd5c00e4	-0.053711787
104	0xbd10b113	-0.03532512
105	0x3da31fcd	0.0796505
106	0x3c528144	0.012848202
107	0x3beee68d	0.0072906674
108	0xbd227878	-0.03966567
109	0x3d66c68d	0.056341697
110	0xbd4edeaf	-0.050505336
111	0xbd57c61e	-0.052679174
112	0x3d286f52	0.04112179
113	0xbcf3d6bf	-0.029765485
114	0xbcc82593	-0.02443198
115	0xbdf65750	-0.12028372
116	0xbd5d1d7e	-0.053983204
117	0xbd381bcc	-0.044948384
118	0xbd795233	-0.060869407
119	0x3cde3f1b	0.0271297
120	0x3d84d91e	0.06486724
121	0xbb8e534b	-0.0043434254
122	0x3d9e59d1	0.07731975
123	0xbd3a3986	-0.045465015
124	0x3d9217f3	0.07133474
125	0x3d175b00	0.03695202
126	0xbdbf47c2	-0.093398586
127	0x3d0fa1d7	0.035066452
128	0x3ccd4b31	0.025060268
129	0x3d3df8ea	0.04637996
130	0xbced3854	-0.028957523
131	0x3dbda70e	0.09260379
132	0x3d727c21	0.05920041
133	0x3c8cd2fd	0.01719045
134	0x3d375911	0.044762675
135	0x3d1f6ca8	0.038921982
136	0x3a8cb317	0.0010734525
137	0xbcff0a72	-0.03113291
138	0xbd5e42bd	-0.054262865
139	0xbd0e5ff0	-0.034759462
140	0xbbcdb37d	-0.0062775
141	0xbdb81d78	-0.08989996
142	0x3c48dca4	0.012259636
143	0x3b680a04	0.003540636
144	0x3dc61c85	0.096734084
145	0x3d125d8e	0.035733752
146	0x3e1c3b2b	0.15256946
147	0x3cbeba17	0.023282094
148	0x3d87adc7	0.06624942
149	0xbdc1963f	-0.09452485
150	0x3d813153	0.06308236
151	0x3bb5d15d	0.0055486397
152	0xbd1a6ac2	-0.03769947
153	0x3d7c6438	0.061619014
154	0xbb87e23c	-0.0041468423
155	0x3c9027bb	0.01759707
156	0xbd01b218	-0.031663984
157	0x3c60ee28	0.013728656
158	0xbc6f427a	-0.014603252
159	0xbd9bffff	-0.07617187
160	0xbc68d86d	-0.014211756
161	0xbd0db9b6	-0.034600936
162	0xbd00a1f9	-0.03140447
163	0x3da20ca8	0.0791257
164	0x3d584e80	0.05280924
165	0x3d5ec4c1	0.054386858
166	0x3df81445	0.12113241
167	0xbcefdadd	-0.029279167
168	0xbb805647	-0.003916535
169	0xbde7191d	-0.11284087
170	0x3cf9fe1d	0.030516678
171	0xbd087c0f	-0.033321436
172	0x3cdd854e	0.027041104
173	0x3d434efc	0.047682747
174	0x3ba9d52c	0.005182883
175	0x3d940cde	0.07229017
176	0x3dbdbde6	0.09264736
177	0xbd255a55	-0.04036935
178	0x3d0964f4	0.033543542
179	0x3c704670	0.014665231
180	0x3d0d05ef	0.034429487
181	0x3bcf3c94	0.00632436
182	0x3ce8d9bc	0.028424136
183	0x3ccffdb1	0.025389524
184	0x3cbc4417	0.022981687
185	0x3d1b5b10	0.03792864
186	0xbd41c664	-0.04730834
187	0xbc6ef335	-0.014584352
188	0x3d29ed31	0.04148597
189	0x3c7a0c92	0.015261786
190	0x3d9d17c0	0.076705456
191	0x3d74d77c	0.059775814
192	0xbccac21f	-0.024750767
193	0x3d68c945	0.05683257
194	0xbd4c598b	-0.049890082
195	0x3e23308d	0.1593649
196	0x3d75a08d	0.059967566
197	0xbc6b93e2	-0.01437852
198	0x3d2e61b1	0.042573635
199	0xbcf75673	-0.03019259
200	0xbca5093d	-0.020146007
201	0xbdb17fc9	-0.08666951
202	0x3d71ea32	0.059061237
203	0xbcb4bcb6	-0.02206264
204	0x3d9997a2	0.07499625
205	0xbd8d715a	-0.06906386
206	0x3d7529de	0.05985438
207	0x3c158702	0.009126427
208	0x3d97133b	0.07376715
209	0xbde248cb	-0.110490404
210	0xbe067bc7	-0.13133155
211	0xbd77207d	-0.060333718
212	0xbce3777a	-0.027766932
213	0xbd415421	-0.047199372
214	0xbe0b4911	-0.13602091
215	0x3cebf2f3	0.02880237
216	0xbd19367e	-0.037405483
217	0xbd2dfbff	-0.04247665
218	0xbd4a0330	-0.049319446
219	0x3dcb72a6	0.09933977
220	0xbd69e2e3	-0.05710114
221	0xbd67d062	-0.056595214
222	0xbc6f5c39	-0.01460939
223	0x3cc62bb4	0.024190761
224	0xbd0bfdcb	-0.034177583
225	0xbd8bedd8	-0.068324745
226	0xbd76943d	-0.060199965
227	0x3d323ee8	0.043517023
228	0xbd2eba55	-0.04265817
229	0x3cabdbeb	0.020978888
230	0x3d3959e9	0.04525176
231	0xbc827461	-0.015924634
232	0x3bf05899	0.0073347804
233	0x3dcb34c4	0.099221736
234	0xbd1c0f7a	-0.038100697
235	0xbe0100d1	-0.12597968
236	0xbdec5e27	-0.11541396
237	0x3dfa448a	0.12220104
238	0x3db7c35b	0.08972808
239	0xbd60e816	-0.054908834
240	0xbd431470	-0.047626913
241	0x3e224ba6	0.1584917
242	0x3da439db	0.080188476
243	0xbca9a3c1	-0.020707967
244	0x3dbbee18	0.09176272
245	0xbb154659	-0.0022777526
246	0xbd0a47d9	-0.033759926
247	0x3d5f9faf	0.054595646
248	0x3d8b550d	0.068033315
249	0x3cdf08df	0.02722591
250	0xbd94466c	-0.072399944
251	0x3d54ee4d	0.051985074
252	0x3db29c84	0.08721259
253	0x3d630195	0.05542143
254	0xbd8fba14	-0.070179135
255	0xbdac4475	-0.08411495

network_body._body_endoder.seq_layers.4.bias f4 [256]
0	0x3ac865f9	0.0015289179
1	0x3a6217ba	0.00086247514
2	0xbbbb80ab	-0.0057221255
3	0xbad2bc7f	-0.0016077905
4	0xbab3abad	-0.001370778
5	0xba7c2e28	-0.0009619915
6	0xbb382dd9	-0.00281035
7	0x3c139e34	0.0090098865
8	0x3b7be052	0.0038433266
9	0xbaea4395	-0.0017872924
10	0xbb43585e	-0.002980731
11	0xbb6ac872	-0.003582504
12	0x3b3a5d21	0.0028436857
13	0x38f5afba	0.00011715242
14	0x3aec720b	0.0018039359
15	0x3b523c45	0.003207938
16	0xbb0e9c78	-0.0021760743
17	0xbad389a1	-0.0016139039
18	0x3a96789a	0.0011480034
19	0xb99a0d16	-0.0002938292
20	0xbaa7930a	-0.001278491
21	0x3beb11b9	0.0071737436
22	0xbad71828	-0.0016410397
23	0x3b2d234c	0.0026418744
24	0xbb247ec2	-0.0025099968
25	0x3bb3b766	0.0054845093
26	0xb9cafbb3	-0.00038715973
27	0xbbd0e132	-0.0063745016
28	0x3a7fc9a3	0.0009757524
29	0x3a8d29a1	0.0010769853
30	0x3c20a160	0.0098041
31	0xba8ff373	-0.0010982588
32	0x3b1988bd	0.002342745
33	0x3b075ca8	0.0020654593
34	0xba80fc1f	-0.0009840763
35	0x3b5b30b3	0.0033445775
36	0xbb052d0c	-0.002032104
37	0xbb30813c	-0.0026932498
38	0xb9974326	-0.00028850994
39	0x3b184bdb	0.0023238573
40	0xba5015a3	-0.00079377944
41	0xbb16661e	-0.002294905
42	0x3b1ecfba	0.0024232701
43	0xbb96bc43	-0.0046000793
44	0x3b00cf41	0.0019654783
45	0x3b8b406a	0.004249622
46	0xbada9c41	-0.0016678647
47	0x3afd84b2	0.0019341914
48	0xbb75f16e	-0.0037527937
49	0x3a1935ce	0.00058445043
50	0x3b462512	0.0030234498
51	0x3b1fa864	0.0024361843
52	0x3b5c7e58	0.0033644643
53	0x3a261e54	0.00063369167
54	0x3897187a	7.2048e-05
55	0xbbb5226f	-0.0055277864
56	0xbb2b3425	-0.002612361
57	0xbaa3e9c3	-0.001250558
58	0xbae8874e	-0.0017740519
59	0x39dc00dd	0.00041962313
60	0xbb24748d	-0.0025093884
61	0xbb26bc58	-0.0025441851
62	0x38c702d9	9.48959e-05
63	0xbb3a3c66	-0.0028417348
64	0xbb969bff	-0.004596233
65	0xb9e0139d	-0.00042739222
66	0xba8db44d	-0.001081118
67	0xbaf7f34f	-0.0018917116
68	0xbbaf8d8e	-0.005357451
69	0xba283b02	-0.0006417484
70	0xbb541bf7	-0.00323653
71	0xbafd3f17	-0.001932117
72	0x3a7ac76a	0.0009566458
73	0x3b611eae	0.0034350562
74	0x3b84134c	0.0040306207
75	0xbb8bc60c	-0.0042655524
76	0xb95c504f	-0.00021010752
77	0x3b319cf6	0.0027101613
78	0xbb12a834	-0.002237809
79	0xba373596	-0.0006988881
80	0x3c0141d0	0.007889226
81	0x3b175472	0.0023091105
82	0x3b2853e6	0.0025684773
83	0xbb41eb75	-0.0029589806
84	0xba54d5f2	-0.00081190385
85	0x39d1aab0	0.00039990759
86	0x3c0baed7	0.008525572
87	0xbb05124e	-0.00203051
88	0x3bbdedc5	0.0057961666
89	0x38427f52	4.637178e-05
90	0x3ac7565d	0.0015208233
91	0x3881ff38	6.1987375e-05
92	0xba826f7e	-0.000995144
93	0xba44670c	-0.0007492162
94	0x3b29b8ca	0.0025897496
95	0x3b44b1c2	0.0030013178
96	0x3bad4136	0.0052873148
97	0x3b2dbd91	0.0026510695
98	0x3a0e1eb6	0.00054214464
99	0x3b72f8f7	0.0037074664
100	0xb95f5c52	-0.00021301329
101	0x3acb1e21	0.001549665
102	0x3a116411	0.0005546222
103	0xbb2a4340	-0.0025980026
104	0xba462ef6	-0.00075600983
105	0x3bcc7b9a	0.0062403204
106	0x3a3948b5	0.0007068024
107	0x3b926776	0.0044679
108	0x3baa157d	0.00519055
109	0xb968a01d	-0.00022184891
110	0xbaf797ee	-0.0018889883
111	0x3a6138d3	0.00085915363
112	0xbaff3322	-0.0019470195
113	0x39f6e2d8	0.00047089788
114	0xbbb41b44	-0.0054964144
115	0x3a2995f1	0.00064691814
116	0xbb5367a6	-0.0032257824
117	0x3ab6d8cf	0.0013950112
118	0xbb1b24f8	-0.0023673158
119	0xbbba06db	-0.0056770868
120	0x3b8e49f3	0.0043423115
121	0x3b88f485	0.0041795396
122	0x3bcaae41	0.0061853235
123	0xbb0cff04	-0.0021514306
124	0x3b5589b4	0.0032583298
125	0x3b962af3	0.0045827567
126	0x3abd1fd6	0.0014429044
127	0xbb460b7d	-0.003021925
128	0x39a79715	0.00031965287
129	0xbb24bf4e	-0.002513844
130	0xbae74be5	-0.001764652
131	0x3b00f7b7	0.00196789
132	0xbb18437a	-0.0023233579
133	0x3a8c5c18	0.0010708598
134	0xbaefa681	-0.0018283875
135	0x38bd4601	9.0252615e-05
136	0xba86b810	-0.0010278244
137	0xb9004e43	-0.00012236186
138	0xbb0ba1ab	-0.0021306078
139	0x381b5dc6	3.7042213e-05
140	0x3b1e1cdc	0.0024126088
141	0xbafe242b	-0.0019389441
142	0xbb9fce31	-0.004876875
143	0xbb2bafd3	-0.0026197329
144	0x3b6f1f49	0.0036487153
145	0xb9ee301e	-0.00045430748
146	0xba8ffa9c	-0.0010984722
147	0x3baa0c4d	0.0051894546
148	0xb95b559f	-0.00020917364
149	0x3bec283e	0.0072069457
150	0xba8d1644	-0.0010764082
151	0xbac2da9c	-0.0014866176
152	0xbad736b6	-0.0016419503
153	0xb94ad917	-0.00019345093
154	0x3bd04b79	0.0063566533
155	0xba560295	-0.0008163837
156	0x39b29bd9	0.0003406692
157	0xb8e9eda9	-0.000111545734
158	0xbbb47e29	-0.0055082035
159	0x3a06b87c	0.00051391847
160	0x3a1b71a2	0.00059297134
161	0xb8fd346c	-0.000120737444
162	0x3bcf31f9	0.006323096
163	0x3ac99d98	0.001538205
164	0xbb813cd1	-0.0039440175
165	0x3aa957a8	0.00129198
166	0x3b91ddc7	0.0044514867
167	0xbaf3fdfd	-0.0018615123
168	0x3b0f8eaf	0.0021905114
169	0x3ba0fd67	0.0049130204
170	0x3afb2ede	0.0019163748
171	0xba0c3468	-0.00053483853
172	0x3a3c17f6	0.00071752013
173	0x3acce16a	0.0015631143
174	0x3b9546c7	0.0045555565
175	0xbbb6dc8d	-0.005580491
176	0x3ab27fda	0.0013618425
177	0xb885b74c	-6.376076e-05
178	0xbb1a025d	-0.0023499944
179	0x3a45c899	0.0007544845
180	0x3a9183c1	0.0011101888
181	0xbb03c1be	-0.0020104493
182	0xbb512532	-0.003191304
183	0xbbb579f9	-0.005538222
184	0x3aa78bbe	0.0012782735
185	0x3b3647f5	0.0027813886
186	0xba45c7ed	-0.0007544745
187	0x3b9df3ad	0.004820308
188	0xba159054	-0.00057054055
189	0x3b11fbfa	0.0022275434
190	0x3bb94b4f	0.0056547294
191	0x39b6a6d4	0.00034838042
192	0x3ac979c0	0.0015371367
193	0x393d762d	0.00018068468
194	0xbb370c07	-0.0027930753
195	0x3bc63b80	0.0060495734
196	0xbaf57ede	-0.0018729826
197	0x3a627529	0.0008638674
198	0x39e02ae3	0.00042756562
199	0x3a966480	0.0011474043
200	0xbae56ad1	-0.0017503147
201	0x3abe4afe	0.0014518199
202	0xbb52e6f1	-0.003218111
203	0xbaebc657	-0.0017988187
204	0x3bad1d31	0.005283021
205	0xb9ce3ba2	-0.00039335812
206	0xbb95eb6a	-0.0045751827
207	0x3afd14c6	0.0019308559
208	0xba18f6c7	-0.00058351125
209	0x3a480e65	0.00076315395
210	0x3aa0d0c7	0.0012269252
211	0xbb966eed	-0.00459086
212	0xb9dd6703	-0.00042229154
213	0xbb35f73b	-0.002776577
214	0x3bb11ea6	0.005405265
215	0x37b45202	2.149586e-05
216	0xbaaaedd0	-0.0013040844
217	0x3ac64350	0.0015126262
218	0x3bc2f68d	0.0059498013
219	0xbaed9a1f	-0.0018127597
220	0xbb506b38	-0.0031802189
221	0x3b9d4e14	0.0048005674
222	0x3bcb0263	0.006195353
223	0xbba92355	-0.0051616826
224	0xba1b2c2e	-0.0005919364
225	0x3b2398da	0.0024962933
226	0xba05cda2	-0.0005104189
227	0x3a9a855e	0.0011789014
228	0xbacc3f25	-0.0015582783
229	0xbb36116f	-0.0027781387
230	0x3a57876c	0.00082217786
231	0xba6323ca	-0.0008664696
232	0xbba91d74	-0.005160982
233	0x3bc30231	0.005951189
234	0xb98f9fc6	-0.00027394126
235	0x3c066765	0.008203362
236	0x3be86407	0.0070920023
237	0xbb55e097	-0.0032635087
238	0x3bac3791	0.0052556475
239	0x3bb7903c	0.005601911
240	0x3ac0d688	0.0014712373
241	0x3b5545c9	0.0032542816
242	0x3afe55f5	0.0019404279
243	0x3b765474	0.003758696
244	0x3ba1a2c2	0.0049327323
245	0x3b8e45d6	0.004341821
246	0x3b401ec5	0.0029315215
247	0x3b1db6c1	0.0024065229
248	0x39cc6223	0.0003898303
249	0xbb7982a1	-0.0038072246
250	0xbb749f5b	-0.0037326429
251	0x3b911fbc	0.004428832
252	0xbae21d1f	-0.001725111
253	0x39d510fe	0.00040639186
254	0x3bb7fc56	0.0056147976
255	0x3a442f95	0.0007483897

action_model._discrete_distribution.branches.0.weight f4 [4, 64]
0	0x3bfde57d	0.0077483044
1	0xbc736f74	-0.014858115
2	0xbba890d4	-0.005144218
3	0x3c42e13f	0.011894523
4	0xba14c119	-0.0005674526
5	0xbcd3bc1d	-0.025846535
6	0xbc8e277a	-0.017352808
7	0xbcae9d53	-0.021315252
8	0x3c5778b6	0.013151338
9	0xbd0b7f83	-0.03405715
10	0x3c54a25e	0.0129781645
11	0xbd1915e7	-0.037374403
12	0xbc82bd01	-0.015959265
13	0x3c4b683e	0.01241499
14	0xbd04753f	-0.032338377
15	0xbbe9d647	-0.0071361396
16	0xbad0a78a	-0.0015919071
17	0x3d1546d9	0.03644452
18	0xbcbaa4a7	-0.02278359
19	0x3c2e23af	0.010628625
20	0x3bd1bb9f	0.00640054
21	0x3cbfde72	0.0234215
22	0xbcdcf540	-0.026972413
23	0x3c5a0cdc	0.01330873
24	0x3cd444a8	0.025911644
25	0x3bf4cdba	0.0074708136
26	0xbc94f8c2	-0.018185023
27	0xbcee1f43	-0.029067641
28	0xbcc3d4bd	-0.023905152
29	0x3c868967	0.01642294
30	0x3c9143f1	0.017732592
31	0x3b2b2b32	0.0026118276
32	0x3cae3da2	0.021269623
33	0x3b900634	0.0043952707
34	0xbc88c79c	-0.016696744
35	0xbb86da83	-0.004115404
36	0xbc1f7fd6	-0.009735068
37	0x3bf9d003	0.007623674
38	0xbbc35ea3	-0.0059622093
39	0x3abf6e64	0.0014605043
40	0xb99a6bfd	-0.00029453626
41	0xbca1d3ba	-0.01975428
42	0x3d0eb079	0.034836266
43	0xbcd76913	-0.02629522
44	0xbd2bfd1d	-0.041989435
45	0x3d0cee26	0.034406804
46	0xbcd00be0	-0.025396287
47	0x3cb3be58	0.021941349
48	0xbcd11067	-0.025520517
49	0x3cc9afce	0.024619963
50	0x3ca8edbd	0.020621175
51	0x3bbfa098	0.0058480017
52	0xbd2f85fa	-0.04285238
53	0xbc86c75f	-0.01645249
54	0xbc184599	-0.009293937
55	0xbc9df2ac	-0.019280754
56	0xbc63d7da	-0.0139064435
57	0x3c3d88b0	0.011568233
58	0xba9006ed	-0.0010988392
59	0xbcc8eefe	-0.024528023
60	0x3c549069	0.012973883
61	0x3d1e1582	0.03859473
62	0x3c63a5a7	0.013894475
63	0x3a2eae55	0.0006663551
64	0x3ca87d04	0.020567425
65	0xbaa96902	-0.0012924972
66	0x3c6aa150	0.014320686
67	0xbb25e0b2	-0.002531093
68	0x3d185110	0.037186682
69	0x3b2aa874	0.0026040347
70	0x3b250730	0.0025181286
71	0xbc97c428	-0.018526152
72	0x3bc929ac	0.006139001
73	0xbd131adf	-0.0359143
74	0x3c8405d2	0.016116057
75	0xbceee733	-0.029162979
76	0x3cfca018	0.030838057
77	0x3c22fc60	0.009947866
78	0xbcef9be5	-0.029249141
79	0xba9d9957	-0.0012023848
80	0xbb1ca8c9	-0.0023904315
81	0x3c885d9b	0.016646197
82	0x3c1dab8d	0.00962342
83	0xbc527ce7	-0.012847162
84	0x3cd7a860	0.026325405
85	0x3c2ce0bc	0.010551628
86	0x3b6b6769	0.0035919792
87	0xbca7d0fb	-0.020485392
88	0xbbce8549	-0.00630251
89	0x3c695639	0.0142417485
90	0xbb3fc0c3	-0.0029259182
91	0xbc6d0a24	-0.01446775
92	0xbb743aba	-0.003726645
93	0x3c0a6bf4	0.00844859
94	0x3bd7c627	0.006584901
95	0x3c6ce69c	0.014459278
96	0xbc2d67fd	-0.010583875
97	0x3c31fb94	0.010863204
98	0xbcca44b8	-0.02469097
99	0x3c1721e2	0.009224387
100	0xbc12d342	-0.008961501
101	0xbc9dec82	-0.019277815
102	0x3bde291f	0.0067798044
103	0xbcba023f	-0.02270615
104	0xbc9c50c1	-0.019081475
105	0x3c11c841	0.008897842
106	0x3cdd2ae2	0.026997987
107	0x3b1368f8	0.0022492986
108	0xbccefd71	-0.025267335
109	0xbc720e83	-0.014773968
110	0x3a5509e2	0.0008126778
111	0xbcb88ffa	-0.02252959
112	0xbd09b620	-0.033620954
113	0x3b562833	0.003267777
114	0x3c1b501f	0.009479552
115	0xbc97cf83	-0.018531566
116	0x3ba97858	0.005171817
117	0xba2e3f10	-0.000664697
118	0x3baa8eac	0.005204996
119	0xbc201484	-0.009770516
120	0xba9e106b	-0.0012059336
121	0x3cb4d838	0.022075757
122	0x3c5d8aef	0.013521894
123	0xbb984eec	-0.00464808
124	0x3c04e125	0.008110319
125	0x3cda20b6	0.026626926
126	0xbcb77ab0	-0.02239737
127	0x3ab9a3fe	0.0014163253
128	0xbc1eada2	-0.009684952
129	0xbbfabfd7	-0.0076522636
130	0xbd0a58c0	-0.033776045
131	0xbd0d4764	-0.03449191
132	0xbcc0766f	-0.023493974
133	0x3c164a35	0.009172966
134	0xbcc5629b	-0.02409487
135	0x3d1b8237	0.03796598
136	0xbb26992e	-0.0025420892
137	0x399ba056	0.00029683363
138	0x3c364e54	0.011127073
139	0x3c3b8e9f	0.011447578
140	0xbccae2b2	-0.0247663
141	0xbcd39c44	-0.02583135
142	0x3ce40854	0.027836002
143	0x3b8840d0	0.004158117
144	0x3be913c7	0.0071129533
145	0x3ce19717	0.027537866
146	0xbcd419f4	-0.025891282
147	0x3ce1e39d	0.027574355
148	0x3a9c84f9	0.0011941484
149	0xbcea52dc	-0.028603964
150	0xbc8fb839	-0.017543899
151	0x3b317c43	0.0027082122
152	0x3bf56af7	0.007489558
153	0x3abbd533	0.0014330506
154	0x3c0af1b0	0.008480474
155	0x3b809be5	0.003924834
156	0xbae8c154	-0.0017757812
157	0x3be137a5	0.0068730884
158	0x3a01fb3d	0.0004958397
159	0xbc055bdf	-0.00813958
160	0xbc296dfd	-0.010341165
161	0x3b1824f4	0.0023215385
162	0xbcaaa7b7	-0.020831926
163	0xbc2f4ae3	-0.010699007
164	0xbc2c1454	-0.0105028935
165	0x3ca2b341	0.019860866
166	0xbca883cf	-0.020570664
167	0x3d093c32	0.033504672
168	0x3baded84	0.005307855
169	0xbc9ac677	-0.018893464
170	0xbc3983d6	-0.011322936
171	0xbc58886b	-0.013216118
172	0x3c3e82bb	0.011627848
173	0x3c4217d4	0.011846501
174	0x3cab3012	0.020896945
175	0x3d2bfb6f	0.041987833
176	0x3d20394d	0.039117146
177	0xbc082c70	-0.008311376
178	0xbd0e4ab0	-0.034739196
179	0x3c9db213	0.019249951
180	0xbc217bb8	-0.009856157
181	0xbc96a7b2	-0.01839051
182	0x3cd16e29	0.025565224
183	0x3ca00068	0.019531444
184	0x3be006bb	0.00683674
185	0x3b88a3ca	0.004169916
186	0x3ce55142	0.027992848
187	0x3bb163bf	0.005413502
188	0x3aa3244b	0.0012446729
189	0xba977e79	-0.0011558078
190	0x3d0fc8bc	0.035103545
191	0x3ca7122b	0.020394405
192	0xbc80cd55	-0.01572291
193	0x3c6cd532	0.014455127
194	0xbcaccbaf	-0.021093218
195	0x3c9ecc3b	0.019384494
196	0x3c996f01	0.018729689
197	0x3cd1abd4	0.02559463
198	0x3cc71d66	0.02430601
199	0x3ae1ff22	0.0017242173
200	0xbb7b9611	-0.0038389007
201	0x3c712a35	0.014719536
202	0xbcd4799b	-0.025936892
203	0x3b682d12	0.0035427255
204	0x3c329f0d	0.0109021785
205	0xbb63d0cc	-0.0034761904
206	0x3bd81264	0.006593989
207	0x3c944e50	0.018103749
208	0xbbb56e1e	-0.0055368086
209	0xbcd7b1cf	-0.026329903
210	0x3cc15e23	0.023604458
211	0xbd1678c0	-0.03673625
212	0x3a676938	0.00088276295
213	0xbc91fe19	-0.017821359
214	0xbc856077	-0.01628135
215	0xbc7a8af7	-0.015291921
216	0xbc5d5f9a	-0.013511563
217	0xbcf84cf8	-0.030310139
218	0x3d179b12	0.03701312
219	0x3ce3dd39	0.027815448
220	0x3c8d7b01	0.017270567
221	0xbb5572a2	-0.0032569547
222	0xbcec8e5c	-0.028876476
223	0x3c8d5d68	0.017256454
224	0xbd097979	-0.03356311
225	0xbd008495	-0.03137644
226	0x3d1f89be	0.03894972
227	0xba3f191b	-0.0007289813
228	0xbc0f3b5c	-0.00874218
229	0xbc08e728	-0.008355893
230	0x3c2d8845	0.010591571
231	0xbc9c0a98	-0.01904802
232	0x3ca1c996	0.019749444
233	0x3c723d6a	0.01478515
234	0xbc4d25d6	-0.012521228
235	0x3cbd1c14	0.023084678
236	0xbbd19325	-0.006395715
237	0xbce636be	-0.028102275
238	0xbb2ee89b	-0.0026688937
239	0xbc592084	-0.013252381
240	0x3c65e3ab	0.014031331
241	0xbcb3d5c6	-0.021952521
242	0xbbccffc9	-0.006256078
243	0xbd1574cc	-0.03648834
244	0x3ca0369e	0.019557294
245	0x3aa53c71	0.0012606514
246	0x3c848fe3	0.016181892
247	0x3b18714d	0.0023260892
248	0x3c65f5b6	0.014035633
249	0xbd3fa790	-0.04679066
250	0xbd0cacd9	-0.034344528
251	0x3cf4af75	0.02986882
252	0xbd0c50de	-0.03425681
253	0xbc2407ae	-0.010011597
254	0xbc01b3fb	-0.007916446
255	0xbcbd7909	-0.023129003

action_model._discrete_distribution.branches.0.bias f4 [4]
0	0x3c3d2806	0.011545187
1	0x3c122d5e	0.008921949
2	0x3bad5686	0.0052898554
3	0xbc562e35	-0.01307254
