results/FullyAbstract/bachelor/bachelor-28499937.onnx (onnx, 76519 bytes, 9 tensors)

network_body._body_endoder.seq_layers.0.weight f4 [64, 7]
0	0x3f16e455	0.5894216
1	0xbe632ae3	-0.22184329
2	0xbf13056d	-0.57430154
3	0xbd58ccee	-0.05292981
4	0x3e32d7ad	0.17465086
5	0xbd286d1e	-0.041119687
6	0x3ea10816	0.31451482
7	0xbf3a908c	-0.7287681
8	0x3f1ddfdd	0.61669713
9	0xbdd3d3d3	-0.10343137
10	0xbebe0843	-0.37115678
11	0xbd92c0cb	-0.071656786
12	0xbe9f4abf	-0.31111714
13	0xbb89fa86	-0.004210773
14	0x3ee38cf2	0.4444347
15	0xbe5d7074	-0.21624929
16	0xbe0eb4df	-0.13936184
17	0x3cda507b	0.026649704
18	0xbf653928	-0.8954034
19	0x3ed8106e	0.42200035
20	0xbd4b5202	-0.049638756
21	0x3e3683b2	0.17823675
22	0x3f1eb615	0.61996585
23	0xbeb5da27	-0.35518
24	0xbf2523b9	-0.64507633
25	0xbdff825b	-0.12476035
26	0x3e028c8b	0.12748925
27	0xbe168b4f	-0.1470158
28	0xbea2af25	-0.3177425
29	0x3f0ef1f1	0.55837923
30	0xbef4fa37	-0.4784715
31	0xbf3eadca	-0.7448393
32	0xbd970a99	-0.07375068
33	0xbe25c4ad	-0.16188307
34	0xbe1c4747	-0.15261565
35	0x3e80b314	0.25136626
36	0x3eb3bbd7	0.35104248
37	0x3eab0147	0.33399412
38	0xbdf00d08	-0.117212355
39	0x3d020a83	0.031748306
40	0x3e1c6ef7	0.15276705
41	0x3e3863c2	0.18006805
42	0xbf0dee08	-0.5544133
43	0x3d8047fd	0.06263731
44	0x3ddbf79b	0.10740586
45	0xbebbada9	-0.3665593
46	0xbf251f1b	-0.6450059
47	0x3f2e1ed3	0.68015784
48	0x3f05c49c	0.5225313
49	0xbdf532ce	-0.11972581
50	0xbf3bf6d6	-0.73423517
51	0xbe1b66e4	-0.15175968
52	0x3e21fe04	0.15819556
53	0x3d2b85d7	0.041875686
54	0xbca0f1ce	-0.019646551
55	0xbe951d8c	-0.29124105
56	0xbe2517cb	-0.16122358
57	0xbf2f41a7	-0.6845955
58	0xbe518341	-0.20460226
59	0xbf225aae	-0.63419616
60	0x3eb1840f	0.34671065
61	0xbe2e085d	-0.16995378
62	0xbf12cf73	-0.5734779
63	0x3ed598e7	0.41718218
64	0x3e27c418	0.16383398
65	0xbdf70f97	-0.120635204
66	0xbe8cbac1	-0.27486232
67	0x3edf30de	0.4359197
68	0xbddca4cf	-0.10773622
69	0x3f071593	0.52767295
70	0x3e9320a3	0.28735837
71	0xbdb9489f	-0.090470545
72	0x3ea9d8f5	0.33173338
73	0xbf1f63e0	-0.6226177
74	0x3dab50bd	0.08365009
75	0xbe18f0ad	-0.1493556
76	0xbeb6805a	-0.356448
77	0x3e33547a	0.17512694
78	0xbeac5fc5	-0.33666816
79	0x3d38a518	0.04507932
80	0x3d762597	0.060094442
81	0x3e141fe0	0.14465284
82	0x3d4cdfe3	0.050018203
83	0xbf3d86b6	-0.7403368
84	0xbe992ac5	-0.29915443
85	0x3ea0a178	0.3137319
86	0x3f156f5d	0.5837305
87	0x3e5d55cf	0.21614765
88	0xbe44a552	-0.1920369
89	0xbe24d593	-0.16097097
90	0x3f0dea1e	0.5543536
91	0xbe8cbecd	-0.2748932
92	0x3f18b361	0.5964871
93	0x3f03eb3e	0.51530826
94	0xbbefcde5	-0.0073182457
95	0x3e2b4a68	0.16727602
96	0xbe84bcdb	-0.25925335
97	0x3eb913c8	0.36147904
98	0xbf81c670	-1.0138683
99	0x3e8ac36a	0.27102214
100	0x3d7b1fc9	0.06130961
101	0xbe37c497	-0.17946087
102	0x3eb4ef83	0.35338983
103	0x3e7d3a15	0.24729188
104	0x3d618d8e	0.055066638
105	0x3ea61f8c	0.32445943
106	0x3dd78e35	0.10525171
107	0x3e262cbf	0.16228007
108	0xbec3bfef	-0.3823237
109	0xbf278fc4	-0.65453744
110	0x3e8ce313	0.27516994
111	0x3ef919b7	0.4865243
112	0xbe9a65b3	-0.30155715
113	0xbe95c121	-0.29248908
114	0x3f4cb22b	0.7995936
115	0xbe8956ce	-0.2682404
116	0xbde50ac6	-0.111836955
117	0x3e212224	0.1573568
118	0xbe4e6f4e	-0.20159647
119	0x3e3269bf	0.17423151
120	0x3e89b4da	0.2689579
121	0x3f8a2702	1.0793154
122	0x3e210da8	0.15727866
123	0xbe9c9e95	-0.30589738
124	0x3e29a30c	0.16566104
125	0xbe84f59d	-0.25968638
126	0x3be0d3eb	0.0068612
127	0x3e740f36	0.23833928
128	0xbe1f86a3	-0.15578704
129	0xbed4bf95	-0.41552415
130	0xbd823e0f	-0.06359493
131	0x3ee1eb69	0.44124916
132	0x3eece350	0.46267176
133	0xbf694b7d	-0.9113081
134	0xbf495c12	-0.78656113
135	0xbeae3726	-0.3402645
136	0x3ebcc7f5	0.36871305
137	0x3f926359	1.1436568
138	0xbe4cb316	-0.19990191
139	0xbe3265ca	-0.17421642
140	0x3fa6516c	1.2993598
141	0x3f9f2962	1.2434504
142	0xbd8e6eb3	-0.06954708
143	0x3ee37912	0.44428307
144	0xbe848ed7	-0.25890228
145	0xbe11f8cd	-0.14255066
146	0x3e15dacb	0.14634244
147	0x3e8cab1e	0.27474302
148	0xbeb7aade	-0.3587255
149	0x3cbc3309	0.022973554
150	0x3e6e240d	0.2325594
151	0x3ddc8844	0.10768178
152	0xbd5a85cb	-0.05335025
153	0xbf123ddf	-0.5712566
154	0xbeff9df2	-0.4992519
155	0x3e3a5e46	0.18200025
156	0x3e24f46b	0.16108863
157	0xbea53119	-0.3226402
158	0x3f0bb6ab	0.54575604
159	0xbd391cc9	-0.045193467
160	0x3f09b929	0.53798157
161	0x3ea814e1	0.3282843
162	0x3f31d1e3	0.69460887
163	0xbea7f66d	-0.32805195
164	0xbf33af7f	-0.7018966
165	0xbcf0a595	-0.02937583
166	0x3c5839a5	0.013197337
167	0xbf19a211	-0.6001292
168	0x3f52310a	0.8210608
169	0x3d0b5830	0.03401965
170	0xbf001b2c	-0.5004146
171	0x3e66df43	0.22546105
172	0xbedbe53e	-0.42948335
173	0xbec8ddc2	-0.39231688
174	0x3e8a9440	0.2706623
175	0x3f6cd11b	0.9250657
176	0xbde012be	-0.10941075
177	0x3da3eab5	0.08003751
178	0x3eae9d61	0.34104446
179	0xbe92a4ef	-0.2864146
180	0x3f07a336	0.52983415
181	0xbedbd9b3	-0.4293953
182	0xbe280339	-0.1640748
183	0x3e1f5c0e	0.1556246
184	0xbe189f70	-0.1490457
185	0xbf53c662	-0.82724583
186	0xbef64c11	-0.4810491
187	0x3ddab47a	0.106789544
188	0xbf0522de	-0.5200633
189	0x3dfb918d	0.12283621
190	0x3e47e64c	0.19521445
191	0x3dd90ca2	0.10598113
192	0xbe71d33b	-0.23615734
193	0xbef5d6f6	-0.48015565
194	0x3ea79d26	0.32737082
195	0xbde8653a	-0.113474324
196	0xbe5c97a4	-0.21542221
197	0x3eb31db8	0.3498361
198	0x3f12d4cf	0.5735597
199	0xbcad7fae	-0.021179046
200	0xbedcf351	-0.43154386
201	0xbd8af708	-0.06785399
202	0xbd88086a	-0.0664223
203	0x3dfafbac	0.12255034
204	0xbe9c3367	-0.30507967
205	0xbf460dce	-0.77364814
206	0x3ebd59a8	0.36982465
207	0xbf3a270c	-0.7271583
208	0x3de67916	0.11253564
209	0xbe8e9f15	-0.27855745
210	0xbd95f627	-0.073223405
211	0xbee29fa6	-0.44262427
212	0xbf9184e7	-1.1368684
213	0x3e8654e4	0.2623664
214	0x3e772095	0.24133523
215	0xbe51cd57	-0.20488487
216	0x3e8d46c4	0.27593052
217	0x3d895205	0.06705097
218	0xbdcf2526	-0.101145074
219	0x3c962a02	0.018330578
220	0x3d13ea0c	0.036111876
221	0x3e28da0f	0.16489433
222	0x3ebf3e09	0.37352017
223	0xbe9f0e24	-0.31065476
224	0x3f54f4d7	0.83186096
225	0x3ef23606	0.47306842
226	0xbec7e06f	-0.39038417
227	0xbdaeec0e	-0.085411176
228	0x3ebef4f0	0.37296247
229	0x3e430c03	0.19047551
230	0x3c79ea6f	0.015253647
231	0x3f6e4609	0.93075615
232	0x3eb4e01e	0.35327238
233	0xbef9c333	-0.48781738
234	0xbf5a36e9	-0.85240036
235	0xbe0c79f6	-0.137184
236	0x3e37b749	0.17941011
237	0x3e7c1d35	0.24620517
238	0x3f946dc7	1.1596001
239	0x3f04f51c	0.5193651
240	0xbf3ebee3	-0.7451002
241	0xbb55ce69	-0.003262425
242	0xbdcf0b21	-0.101095445
243	0x3d4c9953	0.04995091
244	0x3e8c06ae	0.27348846
245	0xbf77422a	-0.96585333
246	0x3e529cf5	0.20567687
247	0x3e5e867b	0.21730988
248	0xb8e69e7d	-0.000109967754
249	0xbf194bea	-0.5988146
250	0x3e2a493d	0.166295
251	0xbeba8a62	-0.36433703
252	0x3dedd826	0.11613493
253	0x3f42c3e1	0.7608014
254	0x3cf1ae67	0.029502107
255	0xbe3fe9e6	-0.18741569

network_body._body_endoder.seq_layers.0.bias f4 [64]
0	0x3daa1d74	0.08306399
1	0xbe2f4cda	-0.1711916
2	0xbdb80b61	-0.08986545
3	0x3e9b3928	0.30317044
4	0xbdb3d657	-0.087811165
5	0xbdf9b579	-0.12192816
6	0x3dba788e	0.09105025
7	0x3cda40af	0.026642172
8	0xbde59a7e	-0.11211108
9	0x3e2795ca	0.16365734
10	0xbe4426e5	-0.19155462
11	0xbe8a6602	-0.2703095
12	0xbe699a84	-0.2281285
13	0x3c25e163	0.010124537
14	0xbe962956	-0.29328412
15	0xbc0f6632	-0.008752393
16	0xbd8b697a	-0.068072274
17	0xbe4c1a59	-0.19931926
18	0xbe488ddf	-0.1958537
19	0x3e3a07c9	0.18167032
20	0x3e895aca	0.2682708
21	0x3e308a3e	0.17240235
22	0xbb61fcba	-0.0034482912
23	0x3f39c743	0.72569674
24	0x3e6cffc1	0.23144437
25	0xbd49a43d	-0.049228895
26	0xbe9928e0	-0.29913998
27	0xbdc26169	-0.09491236
28	0x3d77b7bc	0.060477957
29	0x3e807f82	0.2509728
30	0x3e423828	0.18966734
31	0xbe82a314	-0.25515044
32	0x3d35dede	0.044401996
33	0xbdc5c7f4	-0.09657279
34	0x3e497e52	0.19677094
35	0xbe27aef5	-0.16375335
36	0x3dc4bff1	0.096069224
37	0xbe41b832	-0.18917921
38	0xbd57291d	-0.052529443
39	0xbc4010ac	-0.011722725
40	0xbe2acfad	-0.16680785
41	0x3ddc4875	0.107560076
42	0xbe8d5b19	-0.27608564
43	0x3e930ee9	0.28722313
44	0xbe4fabca	-0.20280376
45	0x3e75e853	0.24014406
46	0xbe5b2df3	-0.21404247
47	0xbde37628	-0.11106521
48	0x3e9c6938	0.30549026
49	0x3d4c9942	0.049950846
50	0xbe20a022	-0.15686086
51	0x3f0af6b4	0.5428269
52	0xbd971079	-0.07376189
53	0x3dc3d7b8	0.095626295
54	0x3e7fbd94	0.24974662
55	0xbe62fdc8	-0.22167122
56	0xbe151b32	-0.14561155
57	0x3c6eda58	0.014578424
58	0x3ec5ceb0	0.38634253
59	0xbe8fde75	-0.2809941
60	0xbe2f9f38	-0.17150581
61	0xbe0aab65	-0.13541944
62	0xbdb31e83	-0.08746054
63	0x3e45d029	0.19317688

network_body._body_endoder.seq_layers.2.weight f4 [64, 64]
0	0x3e1998a0	0.14999628
1	0x3e0df878	0.13864315
2	0xbce12e31	-0.027487846
3	0x3e80c9df	0.25154015
4	0x3df9e2a0	0.122014284
5	0x3d29a071	0.041412774
6	0xbdc203fe	-0.09473418
7	0xbe0a10ab	-0.13482921
8	0x3d757596	0.05992659
9	0xbe87f5ee	-0.26554817
10	0xbdd18f39	-0.10232396
11	0x3eb15108	0.34632134
12	0x3da76fa9	0.08175594
13	0xbccb91e0	-0.024849832
14	0x3d0b6d51	0.0340398
15	0xbd09d5db	-0.033651214
16	0x3dd60a1f	0.10451149
17	0xbe8fadce	-0.2806229
18	0x3e458ce5	0.19292028
19	0x3e15ea44	0.14640146
20	0xbe6a90cb	-0.22906797
21	0x3e0cc459	0.13746776
22	0x3dc13a87	0.09434991
23	0xbdf89e70	-0.121395946
24	0xbea1923f	-0.3155689
25	0x3c4bc8e7	0.012438036
26	0x3e0f2917	0.13980518
27	0x3e0fe8ee	0.140537
28	0x3d2d3971	0.04229111
29	0xbeb68b51	-0.35653165
30	0xbe218e5d	-0.15776964
31	0x3dea27f8	0.11433405
32	0xbd95c9c6	-0.07313876
33	0xbdaed9ff	-0.08537673
34	0x3d8c7b1c	0.06859419
35	0x3e01ba50	0.12668729
36	0xbd4c4168	-0.049867064
37	0xbb216691	-0.0024627785
38	0x3dbef670	0.09324348
39	0x3d066f0c	0.032820746
40	0xbba9f63f	-0.0051868255
41	0x3d9f1242	0.07767154
42	0x3da1fb79	0.07909293
43	0xbe3cb506	-0.1842843
44	0x3e6e16f4	0.23250943
45	0xbed00d75	-0.40635267
46	0xbd79c6c7	-0.060980584
47	0x3d1cebb3	0.038310718
48	0xbd4b31f2	-0.04960818
49	0x3e90cae0	0.2827978
50	0xbd342290	-0.043978274
51	0xbe6b1bc2	-0.22959808
52	0x3dd857a8	0.10563594
53	0xbc213353	-0.009838897
54	0xbdbd2ef7	-0.092374735
55	0x3e832796	0.2561614
56	0x3dd237c7	0.10264545
57	0xbd4c6673	-0.04990239
58	0xbe9acc0d	-0.30233803
59	0x3e458491	0.19288851
60	0x3d51d821	0.051231507
61	0xbdf6a30a	-0.12042816
62	0x3b8f542a	0.004374047
63	0x3dbf932c	0.09354243
64	0xbd07e809	-0.03318027
65	0xbd27cb77	-0.040965524
66	0xbd5fbfac	-0.054626152
67	0xbdb75ba0	-0.08953023
68	0x3cb934c7	0.022608174
69	0xbc8c52fb	-0.017129412
70	0xbd98f9cc	-0.0746952
71	0xbef9fa7b	-0.48823914
72	0x3af66693	0.001879888
73	0xbddcc67f	-0.107800476
74	0xbdd6548a	-0.10465343
75	0xbd847d09	-0.06469161
76	0x3d16c262	0.03680647
77	0x3e0f7951	0.14011122
78	0xbe373089	-0.17889608
79	0x3d0cea57	0.03440317
80	0xbe353579	-0.1769618
81	0xbd3fa3cb	-0.046787065
82	0xbd26cc04	-0.04072191
83	0x3dde2dd4	0.10848585
84	0xbc87b45f	-0.0165655
85	0xbe75971b	-0.23983423
86	0x3e2f4648	0.17116654
87	0x3e234f6b	0.15948264
88	0xbdd7d52e	-0.10538708
89	0xbe3383fb	-0.17530815
90	0x3e88733e	0.26650423
91	0xbe2da9d9	-0.16959323
92	0xbe43c0c2	-0.191165
93	0xbe937c33	-0.28805694
94	0xbe75221c	-0.23938793
95	0xbcfc6337	-0.030809028
96	0x3cbe111d	0.02320152
97	0x3dbd43f5	0.092414774
98	0xbe2169d1	-0.15763022
99	0xbef2a0e7	-0.47388384
100	0xbe0ccdf5	-0.13750441
101	0xbd8c1778	-0.06840414
102	0xbcad3ab3	-0.021146154
103	0xbeb5cf5a	-0.3550976
104	0x3dcbf0ca	0.09958036
105	0xbd48f642	-0.049062975
106	0xbed2f017	-0.411988
107	0xbdb44209	-0.08801658
108	0x3e14a3f6	0.14515671
109	0x3b08022c	0.0020753248
110	0x3d613ad5	0.054987747
111	0xbedecb59	-0.43514517
112	0xbcf07809	-0.029354112
113	0xbe3e864f	-0.18605922
114	0xbe26be36	-0.16283497
115	0xbe8c670c	-0.2742237
116	0x3c25fe93	0.010131496
117	0xbe0b0658	-0.13576639
118	0x3d85c6cd	0.06532059
119	0x3d40e952	0.04709751
120	0x3e7e78bf	0.24850748
121	0xbd62c72b	-0.055365723
122	0xbe6ffc27	-0.23436032
123	0xbe82865e	-0.2549314
124	0x3e97088a	0.29498702
125	0xbcf26b30	-0.029592127
126	0x3d201c92	0.039089747
127	0xbdaa521b	-0.083164416
128	0xbea6379c	-0.32464302
129	0x3d15bd68	0.036557585
130	0x3e4ad11b	0.1980633
131	0xbe99fa83	-0.30073938
132	0xbe6c8262	-0.23096612
133	0xbe70d99d	-0.23520513
134	0xbebb86a6	-0.36626166
135	0x3dcbfac7	0.09959941
136	0xbe7590fd	-0.2398109
137	0xbe8099f3	-0.25117454
138	0x3e70f57f	0.2353115
139	0x3e399e95	0.181269
140	0x3e704344	0.2346316
141	0xbe2c01ef	-0.16797613
142	0x3e21c776	0.15798745
143	0x3d262ac9	0.040568147
144	0x3e0e7053	0.13910036
145	0x3e50b127	0.20380078
146	0xbe4f299e	-0.2023072
147	0x3bc03350	0.005865492
148	0x3d881aef	0.06645762
149	0x3d80d930	0.06291425
150	0xbe0e0bb8	-0.13871658
151	0xbf3578c7	-0.70887417
152	0xbdfe078f	-0.124037854
153	0x3d5a1f77	0.053252663
154	0xbd9c2169	-0.0762356
155	0xbdd495c7	-0.1038013
156	0xbcd52d5a	-0.026022602
157	0xbd13b176	-0.03605791
158	0x3e2fefd1	0.17181326
159	0x3e5165ee	0.2044904
160	0xbe72d408	-0.23713696
161	0xbe9ef425	-0.31045642
162	0xbe369322	-0.17829564
163	0xbe84baa1	-0.25923637
164	0xbe4f8a0a	-0.20267501
165	0x3e4ab5a0	0.19795847
166	0xbd1e9934	-0.038720325
167	0x3db0eba2	0.086386934
168	0xbdcb06d5	-0.099134125
169	0xbca17948	-0.019711152
170	0x3e6c1835	0.23056109
171	0x3e7faf3e	0.24969193
172	0x3df1f6e1	0.118146665
173	0x3e9c6c68	0.30551457
174	0xbc338343	-0.010956588
175	0xbc227a59	-0.009916865
176	0xbe2b7018	-0.16741979
177	0xb9e4e5fc	-0.000436589
178	0x3d4b83b9	0.049686167
179	0x3de38177	0.11108678
180	0x3ec6e305	0.38845077
181	0x3e4b2449	0.1983806
182	0xbe211d3e	-0.15733811
183	0x3e7303f8	0.23731983
184	0x3e19fb9b	0.15037386
185	0x3cd06154	0.025437035
186	0xbdadac44	-0.08480123
187	0x3d9adc2a	0.07561524
188	0x3ec7a94a	0.38996345
189	0x3e5b9cfc	0.21446604
190	0xbdb60709	-0.088880606
191	0x3ec6c3ee	0.38821357
192	0xbe169b07	-0.14707576
193	0xbe2d1bd0	-0.16905141
194	0x3df0e4b9	0.117623754
195	0xbd3b4d37	-0.045727935
196	0xbe5ab83e	-0.21359345
197	0xbbce3379	-0.006292757
198	0xbe856ab8	-0.26057982
199	0xbed0b181	-0.40760425
200	0xbe5c0c48	-0.2148906
201	0x3de0dd41	0.10979701
202	0xbe6d12b0	-0.2315166
203	0xbc96e734	-0.018420793
204	0xbc0abc34	-0.008467723
205	0xbde5a657	-0.112133674
206	0xbe61fad7	-0.22068344
207	0xbe43b740	-0.19112873
208	0xbe20e7de	-0.1571345
209	0x3e56161d	0.20906873
210	0x3caeda35	0.021344284
211	0x3d4aafcf	0.04948407
212	0xbdb8fc99	-0.09032554
213	0xbe41d996	-0.18930659
214	0xbddf01ac	-0.10888991
215	0xbeb4f5ab	-0.3534368
216	0xbde65d8c	-0.112483114
217	0xbc71547f	-0.014729618
218	0xbd24b132	-0.04020805
219	0x3c67f531	0.014157579
220	0xbc88b354	-0.016687073
221	0xbda5595f	-0.08073687
222	0x3e030437	0.12794577
223	0x3dc92ff9	0.09823603
224	0xbe5f86f6	-0.21828827
225	0xbd8c07eb	-0.06837448
226	0xbe5ca010	-0.21545434
227	0xbd612f8e	-0.054976992
228	0xbd4406b0	-0.04785794
229	0x3ce4e764	0.027942367
230	0xbdb4d4a0	-0.088296175
231	0x3df7eadb	0.12105342
232	0x3bd860f2	0.0066033537
233	0x3bffd4b0	0.0078073367
234	0x3e31fcf8	0.17381656
235	0xbd13061f	-0.03589451
236	0x3ddc61a7	0.10760813
237	0xbe11c852	-0.14236572
238	0xbe1b5ee1	-0.15172912
239	0xbd1be47f	-0.038059708
240	0xbe51057b	-0.20412247
241	0xbd165473	-0.03670163
242	0x3e093a43	0.13401131
243	0x3ddc7783	0.107649826
244	0x3dc471f7	0.095920496
245	0x3d8a168d	0.067425825
246	0xbd986999	-0.07442016
247	0xbbd0b334	-0.006369019
248	0x3c1e9e3e	0.009681283
249	0xbd6821c4	-0.056672826
250	0x3d46a0c0	0.048493147
251	0x3d4d1e00	0.05007744
252	0xbc0c2403	-0.008553508
253	0x3e30eaea	0.17277113
254	0xbe6003dc	-0.21876472
255	0x3d74b4ee	0.05974286

network_body._body_endoder.seq_layers.2.bias f4 [64]
0	0xbe9fa37e	-0.31179422
1	0xbd547ae2	-0.051875003
2	0xbd837531	-0.06418837
3	0xbe21a8e2	-0.1578708
4	0x3dc2cde6	0.09511928
5	0xbe35f7f8	-0.17770374
6	0x3c9c8d5d	0.019110376
7	0xbcfcb43c	-0.030847661
8	0x3c190c72	0.009341346
9	0x3e25ca97	0.16190563
10	0xbe4e77b1	-0.20162846
11	0xbd882e2a	-0.0664943
12	0x3e53a7f4	0.20669538
13	0x3ea2805f	0.31738564
14	0x3dd16f31	0.10226286
15	0x3df78266	0.120854184
16	0xbdf2e645	-0.11860327
17	0xbda7324d	-0.08163891
18	0x3e88199c	0.26582038
19	0xbe87e0c4	-0.2653867
20	0xbd41b4f9	-0.04729173
21	0xbd1e0525	-0.038579125
22	0x3b5b98f8	0.0033507925
23	0x3de03358	0.10947293
24	0x3e0c409a	0.13696519
25	0xbdbd756f	-0.09250914
26	0xbe2bc6cf	-0.16775058
27	0xbd327c6a	-0.04357568
28	0xbe29dc07	-0.1658784
29	0xbc299394	-0.010350127
30	0xbe2af7ad	-0.16696043
31	0x3e4df085	0.20111282
32	0x3d86adb7	0.06576102
33	0xbec4c48d	-0.38431206
34	0xbd50aa08	-0.050943404
35	0xbe4c87f5	-0.19973738
36	0x3e4fa340	0.20277119
37	0x3ec5aa59	0.38606527
38	0x3da1ce92	0.07900728
39	0x3dca0b40	0.09865427
40	0x3e31f938	0.17380226
41	0x3eaf0b2f	0.3418822
42	0x3e0b2836	0.13589558
43	0x3dde3ab4	0.108510405
44	0xbda32019	-0.079651065
45	0x3ce73ab9	0.028226243
46	0xbc1d581d	-0.009603527
47	0xbcceed3f	-0.025259612
48	0xbda5e790	-0.08100808
49	0xbd5769e6	-0.052591227
50	0x3e628c7e	0.22123906
51	0xbe9ce595	-0.30643907
52	0x3c5a3e42	0.0133205075
53	0x3d477de3	0.04870404
54	0x3d8b169c	0.06791422
55	0xbd70be3a	-0.058775164
56	0xbe0953da	-0.13410893
57	0x3ed21099	0.41028288
58	0x3c1fbb91	0.009749309
59	0x3d1050f1	0.03523344
60	0x3e6583d7	0.22413574
61	0x3e9d0d97	0.3067443
62	0xbd885414	-0.06656662
63	0x3dd8f696	0.105939075

action_model._discrete_distribution.branches.0.weight f4 [4, 32]
0	0x3e5a6aa0	0.21329737
1	0x3eafca24	0.3433391
2	0xbf2b0cec	-0.6681659
3	0x3f2469c7	0.64223903
4	0x3f00d341	0.5032235
5	0x3dede4d3	0.116159104
6	0xbf283d96	-0.6571897
7	0xbf4b8126	-0.7949394
8	0x3d462ae7	0.04838076
9	0xbe652f55	-0.22381337
10	0x40759542	3.837235
11	0xbea32682	-0.31865317
12	0xbee73415	-0.45156923
13	0xbf0812e0	-0.531538
14	0x3ee8aec6	0.45445842
15	0xbfa28fc5	-1.2700125
16	0xc00b66dd	-2.1781533
17	0x3e98f022	0.29870707
18	0xbf8826f1	-1.0636884
19	0x3e1b41fb	0.15161888
20	0x3e0a2642	0.13491157
21	0xbe6bf34b	-0.23042028
22	0xbe819567	-0.25309297
23	0xbfe6246a	-1.7979863
24	0x3f58ac3b	0.846378
25	0xbf8836dc	-1.0641742
26	0x3ea4389c	0.3207444
27	0x3efe9e8b	0.49730334
28	0x3c25409c	0.010086205
29	0x3e9acf5d	0.3023633
30	0xbde81369	-0.11331827
31	0xbe92ede1	-0.28697112
32	0x3ed8c04e	0.42334217
33	0xbe060fb3	-0.13091926
34	0xbecba5b6	-0.39774865
35	0xbe63c640	-0.22243595
36	0x3f051bc3	0.51995486
37	0xbd89e1c0	-0.067325115
38	0x3f899dbe	1.0751264
39	0xbe6db1a0	-0.2321229
40	0xbf534c9e	-0.82538784
41	0xbf127f80	-0.572258
42	0xbfc3e1ff	-1.5303344
43	0xbf33541d	-0.7005022
44	0xbccd02d6	-0.025025766
45	0x3eb1e065	0.34741512
46	0x3db8e3ce	0.09027825
47	0x3f4de830	0.80432415
48	0x3f8c983a	1.0983956
49	0xbdd520f4	-0.10406676
50	0x3eed19f7	0.46308872
51	0xbe240ff7	-0.16021715
52	0x3f0f6397	0.5601134
53	0xbe0cd301	-0.13752367
54	0x3ee3a8e4	0.4446479
55	0x3f07d32d	0.53056604
56	0x3ed2a411	0.41140798
57	0x3f56166e	0.83627975
58	0x3c208f51	0.009799794
59	0xbd61624f	-0.055025395
60	0xbc7dccb7	-0.015490702
61	0xbec5b139	-0.38611773
62	0xbe39c814	-0.1814273
63	0xbf89cff0	-1.0766582
64	0xc005e83a	-2.092299
65	0x3bbec470	0.005821757
66	0x3ee9774c	0.4559883
67	0x3ec5204d	0.38501206
68	0xbfeeca35	-1.8655459
69	0xbe36b18c	-0.17841166
70	0xbf072bb6	-0.5280107
71	0x40042f36	2.0653815
72	0x3f5453af	0.8294019
73	0x3da44949	0.080217905
74	0xc0147b41	-2.3200228
75	0xbdeca064	-0.115540296
76	0x3f26c358	0.6514182
77	0x3e71d057	0.23614632
78	0xbf944568	-1.1583681
79	0xbf4b5dd4	-0.79440045
80	0xbf9d40ee	-1.228544
81	0xbf53197d	-0.8246077
82	0x3fe2f9c2	1.773247
83	0x3f514788	0.81749773
84	0x3f3f4711	0.74717814
85	0xbf1c0ad0	-0.60954
86	0xbf218861	-0.6309872
87	0x3f890bd4	1.0706735
88	0xbf2c2111	-0.67237955
89	0x3ddb5828	0.10710174
90	0x3d4ea468	0.05044976
91	0x3caac0bf	0.020843862
92	0x3e621c6c	0.22081155
93	0x3df1e1c3	0.11810639
94	0xbe4e1bf1	-0.20127846
95	0x4014065d	2.3128884
96	0xbdafe928	-0.08589393
97	0xbe59d97e	-0.21274373
98	0x3ec0f927	0.37690088
99	0xbe57a4bf	-0.2105894
100	0xbee88c8c	-0.4541973
101	0x3d02fbcc	0.031978413
102	0xbebb9c0f	-0.366425
103	0x3ec8b2fc	0.39199054
104	0x3ec949a3	0.39313993
105	0x3f39b306	0.72538793
106	0xbf8af7f7	-1.0856923
107	0x3e2fcd1c	0.17168087
108	0x3e89cfa0	0.26916218
109	0x3e3d6ae9	0.18497814
110	0x3d657999	0.056024168
111	0x3f6bbc8f	0.9208459
112	0x3fb69b65	1.4266173
113	0x3e2fcc39	0.17167749
114	0x3dcbbadf	0.09947752
115	0xbe8a91d1	-0.27064374
116	0xbf928460	-1.1446648
117	0x3eea9cb4	0.4582268
118	0x3e2f0cb7	0.17094694
119	0x3ededf9c	0.43529975
120	0xbf864dc4	-1.0492482
121	0x3e77eb28	0.24210799
122	0xbe789f81	-0.24279596
123	0xbf0da7fd	-0.55334455
124	0xbe91d58c	-0.28483236
125	0x3d82cab5	0.063863195
126	0x3ee387f8	0.44439673
127	0x3dd0a8f5	0.10188476

action_model._discrete_distribution.branches.0.bias f4 [4]
0	0x4081d47f	4.0571895
1	0xbff6c3aa	-1.9278462
2	0xc03c1d9a	-2.9393067
3	0xbf1a2313	-0.6020977

onnx::LSTM_98 f4 [1, 128, 64]
0	0xbe5827b7	-0.211089
1	0xbcd8c303	-0.026460176
2	0x3de73b44	0.11290601
3	0xbe025f79	-0.12731732
4	0x3e3ac80f	0.18240379
5	0x3e63fc49	0.22264208
6	0x3dbce7f0	0.09223926
7	0x3e0e5ff3	0.13903789
8	0xbddba8b3	-0.10725536
9	0xbdeeac66	-0.11653976
10	0xbd49b62d	-0.049246002
11	0x3d3274e7	0.043568518
12	0xbded44ab	-0.11585363
13	0x3e1124d7	0.1417421
14	0xbddc4b61	-0.10756565
15	0x3e10e9a2	0.14151624
16	0x3eaf59a9	0.34248093
17	0xbd84dba0	-0.06487203
18	0xbe28624e	-0.1644375
19	0x3e1b4a45	0.1516505
20	0x3f099e4c	0.53757167
21	0x3e3e6e92	0.18596867
22	0xbd05c5a2	-0.03265918
23	0x3eb2df0f	0.34935805
24	0x3d7f23de	0.062290065
25	0x3dd7fdc1	0.105464466
26	0x3d9df252	0.077122346
27	0xbdb8daa8	-0.0902608
28	0x3dcc382c	0.099716514
29	0xbe55cc05	-0.20878609
30	0x3f2be5b6	0.67147386
31	0x3f0e4229	0.555697
32	0x3e359c21	0.1773534
33	0xbe8badec	-0.2728113
34	0xbd93d8ff	-0.07219123
35	0xbb8c601a	-0.004283917
36	0xbbdd0908	-0.0067454614
37	0x3e38588e	0.18002531
38	0x3db54ab1	0.08852137
39	0x3e66369f	0.22481774
40	0x3dd3531c	0.10318586
41	0xbc164e93	-0.009174007
42	0x3e912686	0.28349704
43	0xbbb5c62b	-0.005547305
44	0x3e074265	0.13208921
45	0x3e3bd985	0.18344696
46	0x3e3b1e17	0.18273197
47	0x3e4df872	0.20114306
48	0xbc358ecc	-0.011081409
49	0x3e8c0327	0.27346155
50	0xbd3a2593	-0.04544599
51	0xbe131bec	-0.1436612
52	0x3b8aa26f	0.0042307894
53	0x3e031a46	0.12802991
54	0x3dd0b16c	0.101900905
55	0x3e5f92ac	0.21833295
56	0x3e24dc53	0.16099672
57	0xbda42184	-0.08014205
58	0xbdbf749f	-0.093484156
59	0x3dfdfe41	0.12402011
60	0x3e82217e	0.25416178
61	0x3d8a17bd	0.06742809
62	0x3e9951c4	0.29945195
63	0x3ead6a82	0.33870322
64	0x3ec26da5	0.37974277
65	0x3ea1a406	0.31570452
66	0x3e4e2df1	0.20134713
67	0x3e1e1715	0.15438493
68	0x3e216c46	0.1576396
69	0x3e08555e	0.13313815
70	0xbc928aff	-0.017888544
71	0xbe94270b	-0.28936037
72	0x3d5b8af4	0.053599313
73	0x3eee3e25	0.46531788
74	0xbdb886d0	-0.090100884
75	0x3d2d13d0	0.042255223
76	0x3e291d70	0.16515136
77	0xbdf132ea	-0.11777289
78	0x3daa306c	0.08310017
79	0xbe39b74a	-0.18136325
80	0x3ea9442d	0.33059826
81	0x3b0e4a01	0.002171159
82	0x3e1fdee8	0.15612376
83	0xbe7cc5e0	-0.24684858
84	0xbe45247f	-0.19252203
85	0x3e876169	0.26441506
86	0x3da72090	0.08160508
87	0x3ef8a171	0.4856067
88	0xbefda8c1	-0.49542812
89	0x3dc606a3	0.096692346
90	0x3dbade08	0.0912438
91	0xbb04e197	-0.0020276064
92	0x3d5ba3ed	0.05362313
93	0xbe89e902	-0.26935583
94	0xbe976985	-0.29572693
95	0xbe880bfb	-0.2657164
96	0xbd61d6e8	-0.05513659
97	0x3d162888	0.036659747
98	0x3bd9c5a3	0.0066458746
99	0x3e692cc3	0.22770981
100	0x3dac21b2	0.08404864
101	0x3e545969	0.20737232
102	0xbdd65208	-0.10464865
103	0xbe8bc830	-0.27301168
104	0xbe020825	-0.1269842
105	0xbc989249	-0.018624442
106	0x3e1598da	0.1460909
107	0x3dae0327	0.08496695
108	0xbe4ae344	-0.19813257
109	0x3d8789b3	0.06618061
110	0xbe6f9e7e	-0.23400304
111	0xbc9e65d7	-0.01933567
112	0xbea9b6ac	-0.3314718
113	0x3e7c54fd	0.24641795
114	0xbe1ac16c	-0.15112847
115	0x3e46c811	0.19412257
116	0xbe8d6e59	-0.2762325
117	0x3dbb785f	0.09153818
118	0xbe5fe44d	-0.21864434
119	0x3c8fe292	0.017564092
120	0xbd94d94a	-0.07268007
121	0x3e83be94	0.25731337
122	0xbdf78fe5	-0.120879926
123	0x3e19bacc	0.15012664
124	0x3d8dcc08	0.069236815
125	0xbc8dd297	-0.017312331
126	0xbe049205	-0.12946327
127	0xbe1422c5	-0.14466389
128	0x3cfe863c	0.031069867
129	0xbe870c27	-0.2637646
130	0x3ed50d4e	0.41611713
131	0x3ebb7d09	0.36618832
132	0x3e0f680c	0.14004534
133	0x3e636f87	0.22210513
134	0xbdb20c3f	-0.08693742
135	0x3e6a6d8e	0.22893354
136	0x3e5bf5f1	0.21480538
137	0x3d7d604e	0.06185942
138	0xbec43b76	-0.38326615
139	0x3d2732e1	0.040820006
140	0x3e04946e	0.12947246
141	0x3e2c4531	0.1682327
142	0x3ea8d158	0.32972217
143	0xbdc9ff7c	-0.09863183
144	0x3dc1f173	0.09469881
145	0x3d8612ce	0.065465555
146	0x3ea5a7e3	0.3235465
147	0x3d6893be	0.056781523
148	0x3ec9076b	0.39263472
149	0x3dddc4c6	0.10828547
150	0xbd526428	-0.051365048
151	0x3ee414d5	0.44547144
152	0xbd6ba107	-0.057526615
153	0x3ee1f29f	0.44130418
154	0x3db77875	0.08958522
155	0xbee0cf8d	-0.4390835
156	0xbe10ba10	-0.14133477
157	0x3d882845	0.06648306
158	0x3d0334ad	0.032032657
159	0x3e4cd480	0.20002937
160	0x3d84c216	0.064823315
161	0x3ef2e150	0.47437525
162	0x3ee8afbc	0.45446575
163	0x3e0d8a2f	0.13822244
164	0x3e1a906d	0.15094157
165	0xbe92e79a	-0.28692323
166	0xbe100272	-0.14063433
167	0x3e67380a	0.22579971
168	0x3e902b3b	0.28157982
169	0xbea6827b	-0.32521424
170	0x3e6ab6d2	0.22921303
171	0xbd724c4c	-0.059154794
172	0xbdb1403b	-0.08654829
173	0x3dfb613a	0.12274404
174	0x3ea7fa05	0.32807937
175	0xbc859394	-0.016305722
176	0xbdc47edd	-0.0959451
177	0x3e90454c	0.2817787
178	0xbddb5d45	-0.10711149
179	0x3ed8ce22	0.42344767
180	0xbe1cfa07	-0.15329753
181	0xba3acc59	-0.0007125787
182	0x3e920d6a	0.2852586
183	0x3e14ee60	0.14544058
184	0x3e14f419	0.14546241
185	0xbdd8e749	-0.10590989
186	0x3dff51e6	0.12466793
187	0x3d72224a	0.05911473
188	0x3dcdf7b2	0.1005701
189	0xbd5d934c	-0.05409555
190	0x3ecac5c9	0.39604023
191	0x3ec8391d	0.39106074
192	0xbbc3c8bc	-0.005974857
193	0xbe168469	-0.14698948
194	0xbe4c3f2e	-0.19945976
195	0xbd0ae62f	-0.033910926
196	0xbe3318c4	-0.17489916
197	0xbc995cbf	-0.018720983
198	0xbe3a837c	-0.1821422
199	0x3e595463	0.21223597
200	0x3e68c0bc	0.22729772
201	0x3e02c1a6	0.12769184
202	0x3ed60a2e	0.4180464
203	0xbd1a3d45	-0.037656087
204	0x3e4becf6	0.19914612
205	0xbe3534ba	-0.17695895
206	0xbeaec9e8	-0.34138417
207	0xbcb8fabb	-0.022580495
208	0xbeae423f	-0.34034917
209	0xbe77f41b	-0.24214213
210	0x3e2ae171	0.16687562
211	0x3e586228	0.21131194
212	0x3db3255a	0.087473586
213	0x3d8ad7fb	0.06779476
214	0x3e092d7d	0.13396259
215	0x3eaa11b6	0.33216637
216	0x3e9de70d	0.3084034
217	0x3d2aa1d3	0.041658234
218	0xbea91e6b	-0.3303102
219	0xbe7cfb34	-0.24705201
220	0xbaee25a0	-0.0018169172
221	0x3f1341a5	0.5752204
222	0x3c8f76ce	0.017512705
223	0x3ec46c92	0.38364083
224	0x3e120f58	0.14263666
225	0xbe223e9f	-0.158442
226	0x3edacbe1	0.42733672
227	0x3d39b9ba	0.04534314
228	0xbc93004f	-0.017944483
229	0x3d3a0e3c	0.04542373
230	0x3d8a8247	0.0676313
231	0x3dded93f	0.1088128
232	0x3e35a409	0.17738356
233	0x3e4d44c9	0.2004577
234	0xbd6a57a9	-0.057212505
235	0x3d90b604	0.07065967
236	0x3c99e26b	0.018784722
237	0xbd9624a0	-0.073312044
238	0x3df147a6	0.11781244
239	0xbcc2c79d	-0.023776824
240	0xba29a802	-0.00064718735
241	0xbcfaa4f8	-0.030596241
242	0x3e043561	0.12910987
243	0xbe8eecf3	-0.27915153
244	0xbe17e0dc	-0.14831871
245	0x3e5d7d8a	0.2162992
246	0x3e1ec436	0.15504536
247	0xbcfc290c	-0.030781291
248	0x3db69f6c	0.08917126
249	0x3ea877f6	0.32904023
250	0xbd404030	-0.046936214
251	0x3d07eeb6	0.033186637
252	0x3e3dc384	0.18531615
253	0x3da79d03	0.081842445
254	0x3d9d91a6	0.07693796
255	0xbe329102	-0.17438129

onnx::LSTM_99 f4 [1, 128, 32]
0	0x3e012670	0.12612319
1	0x3d970896	0.073746845
2	0xbe06dbdd	-0.13169809
3	0xbe6ef6a5	-0.23336275
4	0x3edb04d8	0.42777133
5	0x3ea9a638	0.33134627
6	0xbe0413d9	-0.12898196
7	0xbedc8252	-0.43068177
8	0xbe555528	-0.20833266
9	0x3eb195f3	0.34684715
10	0xbd38286a	-0.044960417
11	0x3cccff0e	0.025023963
12	0x3c7e53e6	0.015522933
13	0xbe8a21a1	-0.26978782
14	0xbd8a9a21	-0.06767679
15	0xbe801d3f	-0.25022313
16	0x3d0dd2d0	0.034624875
17	0x3e0846c5	0.13308246
18	0x3e94b90b	0.29047427
19	0xbf11d070	-0.56958675
20	0xbc77ab7d	-0.01511657
21	0xbec97711	-0.39348653
22	0xbe2101f6	-0.15723404
23	0x3b91536c	0.0044349935
24	0xbce40340	-0.027833581
25	0xbe9053ab	-0.28188834
26	0x3db3b2d6	0.087743446
27	0xbe863a2f	-0.26216266
28	0x3e0478f0	0.12936759
29	0x3eb6bfe8	0.35693288
30	0x3e3e6ec2	0.18596938
31	0xbd919976	-0.071093485
32	0x3d433d15	0.047665674
33	0x3d981842	0.07426502
34	0xbe75e917	-0.24014698
35	0xbe1803c6	-0.1484519
36	0x3ebede48	0.37278962
37	0xbd40f64d	-0.04710989
38	0x3df2ae23	0.1184962
39	0xbe740f65	-0.23833998
40	0xbd32d34c	-0.04365854
41	0x3e835095	0.25647417
42	0x3d48ea02	0.049051292
43	0x3df8d692	0.12150301
44	0xbd4d1a08	-0.050073653
45	0xbda0b047	-0.07846122
46	0x3e885b85	0.26632324
47	0x3ea69ba3	0.32540616
48	0x3de9fbb3	0.11424961
49	0x3eb079f1	0.34468034
50	0xbe92018f	-0.28516814
51	0xbe4f1fe4	-0.20227009
52	0x3e996a5a	0.29963952
53	0xbdaceff6	-0.084442064
54	0x3eb61c02	0.35568243
55	0x3dfb9e0b	0.12286004
56	0xbaa0a9ef	-0.0012257675
57	0x3d760b38	0.060069293
58	0xbe8a5284	-0.2701608
59	0xbd6de15e	-0.058076255
60	0xbe903157	-0.28162643
61	0xbe9718c2	-0.29511076
62	0x3e9fb297	0.3119094
63	0xbeebb419	-0.4603584
64	0x3ea1a7b5	0.31573263
65	0xbf10b00a	-0.56518614
66	0xbeb01277	-0.34389088
67	0x3d2ac6c3	0.04169346
68	0xbeb85793	-0.36004314
69	0xbdcabfda	-0.09899874
70	0xbd3e7d86	-0.046506427
71	0x3ec78831	0.38971093
72	0xbd93e991	-0.07222284
73	0x3d7a85f7	0.061162915
74	0xbce03be6	-0.027372312
75	0x3d2b1dfd	0.041776646
76	0xbe2fff05	-0.17187126
77	0xbe526f3e	-0.20550248
78	0x3d8ab7b4	0.0677332
79	0x3ed997e5	0.424987
80	0x3e4c625c	0.19959396
81	0xbf310f98	-0.6916442
82	0x3ed9b164	0.4251815
83	0xbdd18606	-0.10230641
84	0xbd764a61	-0.060129527
85	0xbe3f8c01	-0.18705751
86	0xbe43d0ff	-0.19122694
87	0xbc8e09e0	-0.017338693
88	0x3ecace21	0.3961039
89	0xbe8a4f91	-0.2701383
90	0xbe9184a3	-0.28421506
91	0x3ee9a8dd	0.45636645
92	0x3dd278c2	0.10276939
93	0x3d019b98	0.031642526
94	0xbec0ec53	-0.376803
95	0x3d8f44c3	0.06995537
96	0x3cd96861	0.02653903
97	0x3ebf9bf7	0.3742368
98	0xbe072794	-0.13198692
99	0x3d5cd48f	0.05391365
100	0x3e089dc2	0.1334143
101	0x3e8a5e0b	0.27024874
102	0xbda4535c	-0.08023712
103	0xbe212478	-0.15736568
104	0x3ca3a7ec	0.019977532
105	0x3e2a738c	0.1664564
106	0x3e7330af	0.2374904
107	0xbec4dc44	-0.384493
108	0x3b7b9dc9	0.0038393608
109	0xbe3105bf	-0.17287348
110	0xbe4e6515	-0.20155747
111	0xbe51d650	-0.2049191
112	0x3df107d0	0.11769068
113	0xbd8e72bc	-0.069554776
114	0x3e6e39e4	0.23264271
115	0x3daf0eed	0.08547769
116	0xbe922681	-0.28545
117	0x3e5b9168	0.21442187
118	0xbdde8d7e	-0.10866831
119	0x3c777869	0.015104392
120	0x3ed1e8eb	0.40998015
121	0x3e0a34ed	0.13496752
122	0x3dbe5ae7	0.09294682
123	0xbe14dfde	-0.14538524
124	0xbd43f600	-0.047842026
125	0xbdd8dd4b	-0.10589083
126	0x3e60b9b1	0.21945836
127	0x3e30e7ff	0.17276
128	0x3cd7e607	0.026354803
129	0x3d8f57c2	0.0699916
130	0x3d562dca	0.05228976
131	0x3e5a4d57	0.21318565
132	0xbc511d58	-0.012763344
133	0x3db13b7a	0.086539224
134	0xbd0a0704	-0.033698097
135	0xbe04a587	-0.12953769
136	0xbd7cd93e	-0.061730616
137	0x3ba6179b	0.005068732
138	0xbe053ccd	-0.13011475
139	0x3e47eb51	0.1952336
140	0x3ef25269	0.473285
141	0xbe228d6b	-0.15874259
142	0xbe677cea	-0.22606245
143	0xbe6661dc	-0.22498268
144	0x3e3aee68	0.18255007
145	0xbe0809b2	-0.13284948
146	0xbdaf1a8c	-0.08549985
147	0x3ea329d3	0.31867847
148	0xbe99aec3	-0.30016145
149	0x3ed1afc9	0.40954426
150	0x3bea3c51	0.0071483036
151	0x3d23e5b1	0.040013973
152	0xbefd205c	-0.4943875
153	0x3e33af24	0.1754728
154	0xbd82e23e	-0.063908085
155	0x3dada956	0.08479564
156	0x3e92984e	0.28631824
157	0x3edea4ff	0.43485257
158	0xbe8d1789	-0.27557018
159	0x3f08fa67	0.53507084
160	0xbe842e4e	-0.25816578
161	0xbe37af27	-0.17937909
162	0x3d2df2bd	0.04246782
163	0x39f69b25	0.00047036368
164	0xbdebfec2	-0.115232006
165	0xbdcf25a1	-0.10114599
166	0xbd7c0bad	-0.061534572
167	0xbdc92e9a	-0.09823342
168	0x3d98f32d	0.07468257
169	0xbec3840d	-0.38186684
170	0x3efe3cc8	0.49655747
171	0x3ee22570	0.44169188
172	0xbc75e3bd	-0.01500791
173	0xbe9c8eec	-0.3057779
174	0x3ec6b0c2	0.3880673
175	0x3e628fbb	0.22125141
176	0x3e970669	0.29497078
177	0xbe800907	-0.25006887
178	0xbecd930e	-0.40151256
179	0x3e1868ec	0.14883775
180	0xbe2711c5	-0.16315372
181	0xba75176c	-0.00093494984
182	0x3c94c181	0.018158676
183	0xbd21bf88	-0.0394893
184	0x3e7c88c6	0.2466155
185	0xbdd410da	-0.10354777
186	0x3dfd02b0	0.12354028
187	0xbd626094	-0.055267885
188	0xbe63d501	-0.22249223
189	0xbedfebd9	-0.43734625
190	0xbe9cba5d	-0.30610934
191	0xbb7e82ab	-0.0038835208
192	0xbe65d8f3	-0.22446041
193	0x3eaec85f	0.34137246
194	0x3eecec6f	0.46274135
195	0x3e187077	0.14886652
196	0x3c0cfab9	0.008604699
197	0x3e03e98b	0.12882058
198	0xbea807f1	-0.3281856
199	0xbebdea31	-0.37092736
200	0x3ee16867	0.44024965
201	0xbe682527	-0.22670422
202	0xbecd9ba6	-0.40157813
203	0x3e2c55a8	0.1682955
204	0xbe6ce662	-0.23134759
205	0x3de817cb	0.11332663
206	0x3ec62c27	0.3870556
207	0xbe91fbd5	-0.28512445
208	0xbeab0ac0	-0.3340664
209	0x3d9cf4f8	0.076639116
210	0xbdefe112	-0.11712851
211	0xbebb85dd	-0.36625567
212	0xbd65a0c6	-0.05606153
213	0x3dfb53d0	0.12271845
214	0xbed8000e	-0.42187542
215	0xbeb2dcc3	-0.34934053
216	0xbe535f50	-0.20641828
217	0x3e54b369	0.20771565
218	0xbec39f1e	-0.38207334
219	0x3d546893	0.051857542
220	0xbe77da41	-0.24204351
221	0xbec40b1a	-0.3828972
222	0x3decd06e	0.11563192
223	0x3ebcbc4a	0.36862403
224	0x3ebcbc7e	0.36862558
225	0x3dd87e92	0.10571016
226	0x3db1adc3	0.086757205
227	0xbdd648fe	-0.10463141
228	0x3ec86641	0.39140514
229	0xbd700ae5	-0.05860414
230	0xbda352d4	-0.079747826
231	0x3d96cef0	0.07363689
232	0xbe10d863	-0.14145045
233	0x3de62173	0.11236849
234	0xbea10cd5	-0.31455103
235	0x3e723c55	0.23655827
236	0x3e0bd426	0.13655147
237	0x3f08f211	0.53494364
238	0x3d879e50	0.066219926
239	0x3d226445	0.039646406
240	0x3e7fa296	0.24964365
241	0x3c957477	0.018244011
242	0x3dcdf849	0.10057122
243	0xbdc938e0	-0.09825301
244	0xbe290304	-0.16505057
245	0xbd727819	-0.059196565
246	0x3e8d9cef	0.27658793
247	0x3d0bd407	0.034137752
248	0xbe782710	-0.24233651
249	0xbd8d6241	-0.06903506
250	0x3e27888a	0.1636068
251	0xbe57d7fa	-0.21078482
252	0xbd6028d8	-0.05472645
253	0x3e8e5d48	0.27805543
254	0xbe87bc88	-0.26511025
255	0xbd4657e4	-0.048423663

onnx::LSTM_100 f4 [1, 256]
0	0x3e06df2e	0.13171074
1	0x3e19a621	0.1500478
2	0xbd25650a	-0.04037956
3	0x3ddfde56	0.10931079
4	0x3a8d170d	0.0010764316
5	0x3d423e98	0.047422975
6	0x3e958134	0.29200137
7	0x3e2ba4ff	0.1676216
8	0x3ec0f30c	0.3768543
9	0x3dd969a9	0.10615856
10	0x3e87afa7	0.265012
11	0x3e22ff64	0.15917736
12	0xbd94e201	-0.07269669
13	0x3d9a6d57	0.07540386
14	0x3e499442	0.19685462
15	0xbe535199	-0.20636596
16	0x3e6b2237	0.2296227
17	0x3e2fb74f	0.1715977
18	0x3d6a9294	0.057268694
19	0x3bf7fae7	0.0075677517
20	0x3d89a5ef	0.067211024
21	0xbb10bc89	-0.0022085032
22	0xbe08f5bf	-0.13374995
23	0x3d92267e	0.07136248
24	0xbe5ab445	-0.2135783
25	0x3d7370f2	0.059433885
26	0x3d6a88ab	0.057259243
27	0x3de3a3d7	0.11115234
28	0xbce9b15d	-0.028526956
29	0x3c3792c4	0.011204425
30	0x3d8c88b6	0.06862013
31	0x3da3c564	0.07996634
32	0x3e0f7dd8	0.1401285
33	0x3ea8f3d3	0.32998523
34	0x3db1d9c9	0.08684117
35	0xbc17df64	-0.009269569
36	0x3e87d28b	0.2652782
37	0x3e72149e	0.23640677
38	0x3e2c51ee	0.16828129
39	0x3e22446c	0.15846413
40	0x3e12e70e	0.14345953
41	0x3e9b1216	0.30287236
42	0xbe56782f	-0.20944284
43	0x3d0a7fe7	0.033813383
44	0x3e88b77f	0.26702496
45	0xbd05caa2	-0.03266395
46	0xbdb4b8b4	-0.08824292
47	0xbdea9270	-0.11453712
48	0x3ee1e97b	0.44123444
49	0x3ed32d72	0.4124561
50	0x3d96a14d	0.073549844
51	0x3de6d867	0.11271744
52	0xbdf39559	-0.1189372
53	0x3c985b00	0.01859808
54	0x3e187267	0.14887391
55	0xbea16e6b	-0.31529555
56	0xbe8ed9f1	-0.2790065
57	0xbd6c1ab2	-0.057642646
58	0x3e9452e1	0.28969482
59	0x3e0d360b	0.13790147
60	0x3eb65fc0	0.35619926
61	0x3e2ac009	0.16674818
62	0x3de28d87	0.110621504
63	0x3e590438	0.21193016
64	0x3f8efba4	1.1170545
65	0x3f9142e5	1.134854
66	0x3f776fdb	0.9665505
67	0x3f8525f2	1.0402205
68	0x3f861b85	1.0477148
69	0x3f3acb1c	0.7296617
70	0x3f72fb72	0.94914925
71	0x3f98e905	1.1946112
72	0x3f854c16	1.0413845
73	0x3f74bfcb	0.9560515
74	0x3f75c711	0.96006876
75	0x3f818fc3	1.0121998
76	0x3f598147	0.84962887
77	0x3f22c69b	0.635843
78	0x3f8e5904	1.1120915
79	0x3f612a74	0.87955403
80	0x3f45b9ff	0.7723693
81	0x3f47d159	0.78053814
82	0x3f887e28	1.06635
83	0x3f3f372c	0.7469356
84	0x3f71ece9	0.9450212
85	0x3f7dce7a	0.99143183
86	0x3f7a7ce1	0.978468
87	0x3f81aaf3	1.0130295
88	0x3f5db5b2	0.8660537
89	0x3f334fa2	0.70043385
90	0x3f9dec0c	1.2337661
91	0x3f81842c	1.0118461
92	0x3f657ecf	0.8964662
93	0x3f8e1966	1.1101501
94	0x3f89d83e	1.0769117
95	0x3f8a603c	1.0810618
96	0x3e023a97	0.12717663
97	0x3e94429c	0.2895707
98	0x3da048ab	0.0782636
99	0xbe07b13d	-0.13251205
100	0xbc225ba8	-0.009909548
101	0x3e2e2b0c	0.17008609
102	0x3e77ed1a	0.24211541
103	0xbd87b739	-0.06626744
104	0xbe16d414	-0.14729339
105	0x3e384d42	0.17998222
106	0xbe88318e	-0.26600307
107	0xbd7edeee	-0.06222432
108	0xbc7f738f	-0.015591516
109	0x3d02a212	0.031892844
110	0xbd8f405e	-0.06994699
111	0xbe48b16a	-0.19598928
112	0x3e714e82	0.23565105
113	0x3e069f4e	0.13146707
114	0xbdf2cc09	-0.11855323
115	0x3e6976dd	0.22799249
116	0xbce9ca49	-0.02853884
117	0x3da87abc	0.08226535
118	0xbd67b097	-0.056564894
119	0x3ea58bdf	0.32333276
120	0x3d6a8a2d	0.05726068
121	0x3e05032c	0.12989491
122	0x3d89f759	0.06736631
123	0xbc243da3	-0.010024461
124	0xbe3c75b7	-0.1840428
125	0x3e4d7ad6	0.2006639
126	0x3a260129	0.00063325703
127	0x3c3d3fe4	0.011550877
128	0x3e06df2e	0.13171074
129	0x3e19a621	0.1500478
130	0xbd25650a	-0.04037956
131	0x3ddfde56	0.10931079
132	0x3a8d170d	0.0010764316
133	0x3d423e98	0.047422975
134	0x3e958134	0.29200137
135	0x3e2ba4ff	0.1676216
136	0x3ec0f30c	0.3768543
137	0x3dd969a9	0.10615856
138	0x3e87afa7	0.265012
139	0x3e22ff64	0.15917736
140	0xbd94e201	-0.07269669
141	0x3d9a6d57	0.07540386
142	0x3e499442	0.19685462
143	0xbe535199	-0.20636596
144	0x3e6b2237	0.2296227
145	0x3e2fb74f	0.1715977
146	0x3d6a9294	0.057268694
147	0x3bf7fae7	0.0075677517
148	0x3d89a5ef	0.067211024
149	0xbb10bc89	-0.0022085032
150	0xbe08f5bf	-0.13374995
151	0x3d92267e	0.07136248
152	0xbe5ab445	-0.2135783
153	0x3d7370f2	0.059433885
154	0x3d6a88ab	0.057259243
155	0x3de3a3d7	0.11115234
156	0xbce9b15d	-0.028526956
157	0x3c3792c4	0.011204425
158	0x3d8c88b6	0.06862013
159	0x3da3c564	0.07996634
160	0x3e0f7dd8	0.1401285
161	0x3ea8f3d3	0.32998523
162	0x3db1d9c9	0.08684117
163	0xbc17df64	-0.009269569
164	0x3e87d28b	0.2652782
165	0x3e72149e	0.23640677
166	0x3e2c51ee	0.16828129
167	0x3e22446c	0.15846413
168	0x3e12e70e	0.14345953
169	0x3e9b1216	0.30287236
170	0xbe56782f	-0.20944284
171	0x3d0a7fe7	0.033813383
172	0x3e88b77f	0.26702496
173	0xbd05caa2	-0.03266395
174	0xbdb4b8b4	-0.08824292
175	0xbdea9270	-0.11453712
176	0x3ee1e97b	0.44123444
177	0x3ed32d72	0.4124561
178	0x3d96a14d	0.073549844
179	0x3de6d867	0.11271744
180	0xbdf39559	-0.1189372
181	0x3c985b00	0.01859808
182	0x3e187267	0.14887391
183	0xbea16e6b	-0.31529555
184	0xbe8ed9f1	-0.2790065
185	0xbd6c1ab2	-0.057642646
186	0x3e9452e1	0.28969482
187	0x3e0d360b	0.13790147
188	0x3eb65fc0	0.35619926
189	0x3e2ac009	0.16674818
190	0x3de28d87	0.110621504
191	0x3e590438	0.21193016
192	0x3f8efba4	1.1170545
193	0x3f9142e5	1.134854
194	0x3f776fdb	0.9665505
195	0x3f8525f2	1.0402205
196	0x3f861b85	1.0477148
197	0x3f3acb1c	0.7296617
198	0x3f72fb72	0.94914925
199	0x3f98e905	1.1946112
200	0x3f854c16	1.0413845
201	0x3f74bfcb	0.9560515
202	0x3f75c711	0.96006876
203	0x3f818fc3	1.0121998
204	0x3f598147	0.84962887
205	0x3f22c69b	0.635843
206	0x3f8e5904	1.1120915
207	0x3f612a74	0.87955403
208	0x3f45b9ff	0.7723693
209	0x3f47d159	0.78053814
210	0x3f887e28	1.06635
211	0x3f3f372c	0.7469356
212	0x3f71ece9	0.9450212
213	0x3f7dce7a	0.99143183
214	0x3f7a7ce1	0.978468
215	0x3f81aaf3	1.0130295
216	0x3f5db5b2	0.8660537
217	0x3f334fa2	0.70043385
218	0x3f9dec0c	1.2337661
219	0x3f81842c	1.0118461
220	0x3f657ecf	0.8964662
221	0x3f8e1966	1.1101501
222	0x3f89d83e	1.0769117
223	0x3f8a603c	1.0810618
224	0x3e023a97	0.12717663
225	0x3e94429c	0.2895707
226	0x3da048ab	0.0782636
227	0xbe07b13d	-0.13251205
228	0xbc225ba8	-0.009909548
229	0x3e2e2b0c	0.17008609
230	0x3e77ed1a	0.24211541
231	0xbd87b739	-0.06626744
232	0xbe16d414	-0.14729339
233	0x3e384d42	0.17998222
234	0xbe88318e	-0.26600307
235	0xbd7edeee	-0.06222432
236	0xbc7f738f	-0.015591516
237	0x3d02a212	0.031892844
238	0xbd8f405e	-0.06994699
239	0xbe48b16a	-0.19598928
240	0x3e714e82	0.23565105
241	0x3e069f4e	0.13146707
242	0xbdf2cc09	-0.11855323
243	0x3e6976dd	0.22799249
244	0xbce9ca49	-0.02853884
245	0x3da87abc	0.08226535
246	0xbd67b097	-0.056564894
247	0x3ea58bdf	0.32333276
248	0x3d6a8a2d	0.05726068
249	0x3e05032c	0.12989491
250	0x3d89f759	0.06736631
251	0xbc243da3	-0.010024461
252	0xbe3c75b7	-0.1840428
253	0x3e4d7ad6	0.2006639
254	0x3a260129	0.00063325703
255	0x3c3d3fe4	0.011550877
