results/FullyAbstract/bachelor/bachelor-37326.onnx (onnx, 76519 bytes, 9 tensors)

network_body._body_endoder.seq_layers.0.weight f4 [64, 7]
0	0x3e85cc16	0.26132268
1	0xbed81425	-0.4220287
2	0xbeeaad91	-0.45835546
3	0xbe2224c2	-0.15834334
4	0x3edf082b	0.4356092
5	0xbeccfe0f	-0.4003758
6	0xbf005055	-0.50122577
7	0xbe5fbee1	-0.21850158
8	0xbe6b405a	-0.22973767
9	0xbf1ff75a	-0.62486804
10	0xbea1ee76	-0.31627244
11	0xbe1a8a55	-0.15091832
12	0x3f08d1ac	0.53444934
13	0xbf035bbc	-0.5131185
14	0xbd3aab28	-0.045573384
15	0xbed678f1	-0.41889146
16	0x3e33a255	0.17542394
17	0x3f72bf24	0.9482291
18	0xbe1f57f6	-0.15560898
19	0x3ed3de83	0.413807
20	0x3f4cc149	0.7998243
21	0xbda99999	-0.082812496
22	0x3d833875	0.06407253
23	0x3ec4698e	0.38361782
24	0x3f218432	0.6309234
25	0x3eebe3e5	0.46072307
26	0xbec7d4c5	-0.39029518
27	0x3e0fd577	0.14046274
28	0xbbad4bf1	-0.005288594
29	0x3f34ee95	0.7067655
30	0xbf467c38	-0.7753329
31	0x3ef7a908	0.48371148
32	0x3ebad48c	0.36490285
33	0x3e1df7bf	0.15426539
34	0x3f155e96	0.5834745
35	0x3e64a39a	0.22328034
36	0xbea306da	-0.31841165
37	0xbd45e09f	-0.04830992
38	0xbe52c448	-0.20582688
39	0x3f2d1476	0.67609346
40	0xbe346601	-0.17617036
41	0xbec2e9b5	-0.3806893
42	0xbb9db28a	-0.0048125433
43	0x3dc093ae	0.09403168
44	0x3d1f2640	0.038854837
45	0xbf19c8b6	-0.60071886
46	0xbec3b6b7	-0.38225338
47	0xbee7ec84	-0.45297635
48	0x3eec5db2	0.46165234
49	0x3ec1dc89	0.37863567
50	0xbeb6a27d	-0.35670844
51	0xbeaadc87	-0.33371374
52	0xbe495b6c	-0.19663781
53	0x3e4e6b5b	0.2015814
54	0xbedae1a8	-0.42750287
55	0x3d7a013a	0.061036326
56	0xbe0653e6	-0.13117942
57	0x3e5166b3	0.20449333
58	0x3ebefd31	0.37302545
59	0x3f26ce45	0.6515849
60	0x3e87f010	0.2655034
61	0x3e16dec2	0.14733413
62	0x3f2b1a34	0.6683686
63	0xbe8cb8d4	-0.27484763
64	0x3e62eaee	0.22159931
65	0x3ea3f733	0.32024536
66	0xbec5d0aa	-0.3863576
67	0xbeaf0558	-0.34183764
68	0x3e7205b4	0.23634988
69	0xbdad5fb3	-0.08465519
70	0xbe196c55	-0.14982732
71	0xbf63ed58	-0.8903403
72	0x3e921dcb	0.28538355
73	0x3e0cb418	0.13740575
74	0x3e145eb0	0.14489245
75	0xbea1d6db	-0.31609234
76	0x3e87845e	0.26468176
77	0xbe03431e	-0.12818572
78	0xbe7e17b2	-0.24813727
79	0x3f07b8ce	0.53016365
80	0x3e81c952	0.25348908
81	0x3d05a42b	0.032627266
82	0x3ecf4043	0.40478715
83	0xbea5cca9	-0.32382706
84	0xbd590fb5	-0.052993495
85	0xbea40865	-0.32037655
86	0xbe981f14	-0.2971121
87	0x3e8dfca8	0.27731824
88	0xbdc1caaf	-0.09462487
89	0xbf15ba14	-0.5848706
90	0xbd2a78fc	-0.041619286
91	0x3d357e94	0.044310167
92	0x3e336f7e	0.17523
93	0xbee121f7	-0.43971226
94	0x3f019b71	0.5062781
95	0x3f021276	0.5080942
96	0x3ba1c01a	0.0049362304
97	0xbe7035df	-0.2345805
98	0xbf2249de	-0.6339396
99	0xbdffd3d0	-0.12491572
100	0x3e71bd45	0.23607357
101	0xbdcadbf0	-0.09905231
102	0xbdd3e161	-0.10345722
103	0x3f219ae8	0.63126993
104	0xbe25fd03	-0.16209798
105	0xbde78bf2	-0.11305989
106	0x3ed88ef2	0.4229656
107	0xbdbd5453	-0.09244599
108	0x3ccce255	0.025010267
109	0xbf18be90	-0.59665775
110	0xbda7ed21	-0.081995256
111	0xbe900207	-0.28126547
112	0x3f36b318	0.71367025
113	0x3e3eb1f6	0.18622574
114	0xbe3dfa08	-0.1855241
115	0x3e232672	0.15932634
116	0xbdcdae0a	-0.10042961
117	0xbde469bd	-0.111529805
118	0x3d609ff6	0.05484005
119	0x3f0720fa	0.52784693
120	0x3ecab0e2	0.39588076
121	0xbc50e1ec	-0.0127491765
122	0x3f0264a9	0.50934845
123	0xbd634c5d	-0.055492748
124	0x3f010820	0.5040302
125	0x3e6ed197	0.2332214
126	0x3dadbd20	0.08483338
127	0xbf165cba	-0.5873524
128	0xbe32aa48	-0.1744777
129	0x3e8ef1e7	0.27918932
130	0xbd066a16	-0.032816015
131	0x3ef70d80	0.48252487
132	0xbe51d314	-0.20490676
133	0xbd395dbe	-0.045255415
134	0x3edd0a81	0.43172076
135	0x3df4858e	0.11939536
136	0x3e298df8	0.16558063
137	0xbe8790a4	-0.2647754
138	0x3f1fb625	0.62387305
139	0xbf4b3ccf	-0.7938966
140	0x3eda2313	0.42604885
141	0x3de7d64c	0.11320171
142	0x3f4e8254	0.80667615
143	0x3ebc4a03	0.36775216
144	0x3ecdaaba	0.40169317
145	0xbeea67d9	-0.45782354
146	0x3db2a0e3	0.08722093
147	0x3e29c8d1	0.16580512
148	0x3f80eef5	1.0072924
149	0xbf633a3c	-0.88760734
150	0x3ebb25ea	0.36552364
151	0x3ec382e4	0.381858
152	0x3f168026	0.5878929
153	0xbe9ce86a	-0.30646068
154	0xbc356fbb	-0.011074002
155	0x3e331ab1	0.1749065
156	0x3de8a42a	0.11359437
157	0x3f41ada6	0.7565559
158	0x3f2be108	0.67140245
159	0x3d3e42d6	0.04645046
160	0xbf09b54a	-0.5379225
161	0xbf52633f	-0.8218269
162	0xbe7e76ef	-0.24850057
163	0xbe53f161	-0.20697547
164	0x3e080465	0.13282926
165	0xbe45df6e	-0.19323513
166	0x3eceec21	0.40414527
167	0xbd9ec719	-0.077528186
168	0xbf12538c	-0.5715873
169	0x3f21f496	0.63263834
170	0xbf0949d2	-0.53628266
171	0x3da8249f	0.0821011
172	0xbceb1af4	-0.028699376
173	0xbdc53f4d	-0.09631214
174	0xbf45cadf	-0.7726268
175	0x3e325882	0.17416576
176	0x3e320bb2	0.17387274
177	0xbe339ffd	-0.175415
178	0x3ed7a6dd	0.42119494
179	0x3e7f448f	0.24928497
180	0xbd9b66a2	-0.07587935
181	0x3d243d63	0.040097605
182	0x3cb2442c	0.021761023
183	0x3ee39776	0.44451493
184	0xbeca0be3	-0.39462194
185	0x3ec9e444	0.39431965
186	0x3f10089a	0.56263125
187	0x3ef5e17e	0.480236
188	0xbe8a0050	-0.26953363
189	0xbeba8e5e	-0.36436743
190	0x3f1045d7	0.5635657
191	0xbe930b26	-0.28719443
192	0xbe75a5d3	-0.23989038
193	0x3d3b9d25	0.04580416
194	0xbe901324	-0.28139603
195	0xbe300827	-0.1719061
196	0xbeaba217	-0.33522102
197	0xbf905f45	-1.1279074
198	0xbd201cd4	-0.039089993
199	0xbd3b12eb	-0.04567234
200	0x3e69378f	0.227751
201	0x3e3511c9	0.17682566
202	0x3f32c36c	0.6982944
203	0xbc12f26e	-0.008968933
204	0xbbe0404c	-0.0068436023
205	0xbf0142e1	-0.50492674
206	0x3edc0439	0.42971972
207	0xbe929616	-0.2863013
208	0xbf1f2878	-0.62171125
209	0xbc965d57	-0.018355055
210	0xbf3af3f4	-0.7302849
211	0xbeca7627	-0.39543268
212	0x3dcbac4d	0.09944973
213	0x3e0cd91a	0.13754693
214	0xbf5f2873	-0.87171096
215	0xbd131b90	-0.035914958
216	0x3dcbe4f2	0.09955777
217	0x3e9f6bb6	0.31136864
218	0x3e31fc47	0.17381392
219	0xbe1e13bd	-0.15437217
220	0xbe9363d9	-0.28787115
221	0x3ed3f710	0.4139943
222	0x3e493f49	0.19653048
223	0x3ec89324	0.3917476
224	0x3e124e6e	0.14287731
225	0x3f13ba71	0.5770636
226	0xbf77d6cd	-0.96812135
227	0x3eb25947	0.34833738
228	0x3d6973da	0.05699525
229	0x3f4fcc28	0.8117089
230	0xbeb921ad	-0.36158505
231	0xbe8c580e	-0.2741093
232	0xbe66ae46	-0.22527418
233	0xbe811382	-0.25210196
234	0x3f64f5e4	0.894377
235	0x3eebb683	0.46037683
236	0xbeef5ea5	-0.46751896
237	0x3db0188a	0.085984305
238	0x3e01966f	0.12655042
239	0xbe988aea	-0.29793483
240	0x3e862f27	0.2620785
241	0xbd10a27a	-0.0353112
242	0x3ebfe6f9	0.37480906
243	0x3eb9e217	0.36305305
244	0xbd90173e	-0.07035683
245	0xbe6c7731	-0.23092343
246	0x3e517b46	0.20457181
247	0xbcae9010	-0.021308929
248	0x3eaa6b14	0.3328482
249	0x3cb648e0	0.022251546
250	0xbcc17aac	-0.023618065
251	0xbd8c4383	-0.06848814
252	0xbda3f3c5	-0.0800548
253	0x3ef03e74	0.46922648
254	0x3d55788e	0.052116923
255	0x3f4bb135	0.7956727

network_body._body_endoder.seq_layers.0.bias f4 [64]
0	0x3c122560	0.008920044
1	0x3c790cba	0.015200788
2	0xbce77e51	-0.028258475
3	0xbc06ae9e	-0.008220343
4	0x3bf0b0e5	0.007345306
5	0x3b1ffb40	0.0024411231
6	0xbb007a0c	-0.0019603996
7	0x3a7f2779	0.000973336
8	0x3c639f6a	0.013892988
9	0x3c0f2002	0.008735659
10	0xbc1ab1fc	-0.009441849
11	0xbcb6cc47	-0.022314204
12	0xbc8cc5a1	-0.01718408
13	0x3b83c181	0.00402087
14	0x3a707204	0.0009172263
15	0xbba7aacd	-0.0051167966
16	0x3bf1dd37	0.007381107
17	0x3beb65bf	0.00718376
18	0xbcac635c	-0.021043472
19	0x3ba3cfe8	0.0049991496
20	0x3c8a712c	0.016899668
21	0x3b3386c6	0.0027393564
22	0x3b8c98bb	0.004290668
23	0xba058c92	-0.0005094494
24	0x3c94ecb3	0.018179273
25	0x3b865c9d	0.004100396
26	0xbc23ce6b	-0.009997944
27	0x3a48c30e	0.000765846
28	0x3c23fe03	0.010009292
29	0x3c3a471d	0.011369494
30	0x3c279b3d	0.010229883
31	0xbc471859	-0.012151801
32	0x3cb61762	0.022227947
33	0xbc1d9ee2	-0.0096204
34	0xbbdb4827	-0.006691951
35	0x3ce590d7	0.028023167
36	0x3c1cc001	0.009567262
37	0xbc7279dc	-0.014799561
38	0xbc450bfb	-0.012026782
39	0xbc4d83c1	-0.01254362
40	0xbc66d591	-0.014089004
41	0x3c757343	0.014981094
42	0xbcb93e23	-0.022612637
43	0x3c3424fd	0.010995147
44	0xbba80797	-0.005127858
45	0xbb59af94	-0.0033216225
46	0x3afe0949	0.0019381429
47	0xbb908655	-0.004410545
48	0xbc179723	-0.009252342
49	0x3c381c4c	0.011237215
50	0xbb9e26dd	-0.00482641
51	0x3ad0598f	0.0015895831
52	0x3c9ce9ca	0.019154448
53	0xb97d1e5a	-0.00024139267
54	0x3b11d13b	0.0022249955
55	0x3c1841bf	0.009293019
56	0xbbe3a23d	-0.0069468305
57	0x3ca39e0b	0.019972822
58	0x3cc09a39	0.02351104
59	0x3bdfd687	0.0068309936
60	0x3c97e877	0.018543465
61	0x3be06a7b	0.006848631
62	0x3c457123	0.0120509
63	0x38ca0bfe	9.634344e-05

network_body._body_endoder.seq_layers.2.weight f4 [64, 64]
0	0x3dec7247	0.11545234
1	0x3d0c2123	0.03421129
2	0xbe37ad5b	-0.17937224
3	0x3dc45a25	0.09587506
4	0x3c63b991	0.013899223
5	0x3e248046	0.16064557
6	0x3e268052	0.16259888
7	0x3cc36caf	0.023855535
8	0x3dee35a8	0.11631328
9	0x3de3b690	0.111188054
10	0x3dac4a1a	0.08412571
11	0xbbcfa09f	-0.006336286
12	0xbd941365	-0.07230262
13	0x3d875271	0.06607521
14	0x3e34f12b	0.17670123
15	0x3d3ffcc0	0.0468719
16	0xbd153542	-0.036427744
17	0x3bc657ba	0.0060529383
18	0x3ce61865	0.028087804
19	0x3e1e94b0	0.15486407
20	0x3e303bc6	0.17210302
21	0x3d4aa084	0.049469486
22	0xbd97c9d0	-0.074115396
23	0x3c97aa41	0.0185138
24	0x3e08b6be	0.1335096
25	0xb9cafd32	-0.00038717088
26	0xbc69e95a	-0.014276827
27	0x3c7530c6	0.014965242
28	0x3dad73d9	0.08469362
29	0xbc86ee6b	-0.016471108
30	0x3c8203f1	0.01587102
31	0xbcbcc6d7	-0.023044033
32	0x3e32c699	0.17458571
33	0xbc0ebe86	-0.0087124165
34	0x3da1862b	0.07886919
35	0x3e896cfb	0.26840958
36	0xbcd0886b	-0.025455674
37	0x3e1c19d2	0.15244225
38	0xbd2520f4	-0.04031463
39	0x3d2a54b5	0.04158469
40	0xbd46d21f	-0.04854023
41	0x3e27cc4c	0.16386527
42	0x3e7c2333	0.24622802
43	0xbc4f9212	-0.012669103
44	0xbd2c0fb5	-0.042007167
45	0xbd9fe053	-0.07806458
46	0x3e1399a1	0.14414074
47	0xbd62be8f	-0.055357512
48	0x3d0bf3d4	0.03416808
49	0x3daba72c	0.08381495
50	0x3d8dad57	0.069178276
51	0xbc48e8b3	-0.012262511
52	0xbd4f8b5c	-0.050670013
53	0xbe69da55	-0.22837193
54	0xbc18d1e6	-0.009327387
55	0x3d43ea2e	0.047830753
56	0xbc4c913b	-0.0124857975
57	0x3e274abc	0.16337103
58	0x3e42850b	0.18996064
59	0xbd48a787	-0.04898789
60	0xbd9eed55	-0.07760111
61	0x3e341c1c	0.17588848
62	0x3d6082ae	0.054812126
63	0x3e8966e4	0.26836312
64	0xbdf6261c	-0.120189875
65	0xbe02f277	-0.12787805
66	0xbe0b247f	-0.13588141
67	0x3cf0781d	0.02935415
68	0x3e141f99	0.14465179
69	0x3e1b8fb1	0.15191533
70	0x3d6a040f	0.057132777
71	0x3cae797a	0.021298159
72	0xbe193085	-0.14959915
73	0x3d93b76f	0.072127216
74	0x3c480bdc	0.012209859
75	0x3e0c68f0	0.13711905
76	0xbd8c93cf	-0.0686413
77	0x3e0dec0d	0.13859577
78	0xbd01d8fb	-0.03170107
79	0xbd79b9c4	-0.060968176
80	0x3dda579d	0.10661242
81	0x3b98d970	0.0046645924
82	0xbde757b9	-0.11296029
83	0x3d97e40e	0.07416545
84	0x3ca746c0	0.020419478
85	0xbd0083ba	-0.031375624
86	0x3d5b5249	0.05354527
87	0xbd9aab3c	-0.075521916
88	0x3e472ffc	0.19451898
89	0x3cafbaf3	0.021451449
90	0x3de5c458	0.1121909
91	0x3d089d49	0.033353124
92	0xbcfe82ca	-0.031068224
93	0x3e58bfa6	0.21166858
94	0x3dd22bf7	0.10262292
95	0xbde52804	-0.11189273
96	0x3dffb9c9	0.124866076
97	0xbe8c57d8	-0.2741077
98	0xbd4366ce	-0.047705464
99	0xbdb72e43	-0.089443706
100	0x3e8c53b5	0.27407613
101	0xbdf70a93	-0.12062564
102	0xbe1aacb9	-0.15104951
103	0x3d828779	0.063734956
104	0x3e12e360	0.14344549
105	0x3da06567	0.07831841
106	0x3c92be84	0.01791311
107	0x3d7fb294	0.062426165
108	0xbd5f6da6	-0.05454793
109	0xbd828588	-0.06373125
110	0xbe176af0	-0.14786887
111	0xbe693a11	-0.22776057
112	0xbe188fb2	-0.14898565
113	0x3c4022d9	0.011727058
114	0x3ddfaa77	0.109211855
115	0xbc28a8ab	-0.01029412
116	0x3d32a48e	0.043613963
117	0x3e226f82	0.1586285
118	0x3bb9a227	0.005665082
119	0x3d051977	0.03249499
120	0xbcbba48b	-0.022905609
121	0xbd97788e	-0.07396041
122	0xbd7674bd	-0.060169924
123	0xbe63acac	-0.22233838
124	0xbc0084fd	-0.007844207
125	0xbe2de8c4	-0.16983324
126	0x3e4cffc2	0.20019439
127	0xbc1f68b0	-0.009729549
128	0x3e039fea	0.12853971
129	0xbde28f44	-0.11062482
130	0x3dfc19a0	0.12309575
131	0x3d458d6f	0.048230585
132	0x3c8414ad	0.01612314
133	0x3b024e73	0.0019883185
134	0x3e0c50c0	0.13702679
135	0xbd1fad59	-0.038983677
136	0xbde03909	-0.109483786
137	0x3e3fb043	0.18719582
138	0xbe956a3d	-0.29182616
139	0xbd4da063	-0.050201785
140	0xbd4e0194	-0.050294474
141	0xbdb82c39	-0.0899281
142	0xbdef7735	-0.11692659
143	0xbd7eb543	-0.062184583
144	0xbe087514	-0.13325912
145	0x3e313755	0.17306264
146	0xbdada849	-0.084793635
147	0xbcd0f953	-0.025509512
148	0xbe820fb6	-0.25402611
149	0xbc0c876e	-0.008577211
150	0x3d636efa	0.055525757
151	0xbe0de436	-0.13856587
152	0x3d5133bb	0.051074725
153	0x3c45d73b	0.012075241
154	0xbe59f55e	-0.21285006
155	0xbe057680	-0.13033485
156	0xbe025076	-0.12726006
157	0xbba2d6e8	-0.0049694665
158	0x3d9383b7	0.07202857
159	0x3e31fdad	0.17381926
160	0x3d0b277c	0.033973202
161	0x3df84cdf	0.12124037
162	0x3e16045e	0.14650103
163	0xbe870b9b	-0.26376042
164	0xbe2b49ed	-0.16727419
165	0x3d9c5213	0.07632842
166	0xbd8cd5f0	-0.06876743
167	0x3d8ad622	0.06779124
168	0xbaf50f95	-0.001869666
169	0x3dacb00b	0.08432015
170	0xbd68f7a0	-0.05687678
171	0xbd8a94b5	-0.06766645
172	0xbdbdd5bf	-0.092692845
173	0x3e5fd3d0	0.21858144
174	0x3e393115	0.1808513
175	0xbd96401d	-0.073364474
176	0xbe1bc743	-0.15212731
177	0x3d42a7d2	0.047523327
178	0xbe17e3e6	-0.1483303
179	0xbe4a2a84	-0.19742781
180	0x3d902a70	0.07039344
181	0xbba920b3	-0.0051613688
182	0xbddb7412	-0.10715498
183	0x3e4ca688	0.19985402
184	0x3e435242	0.19074348
185	0xbdeaf638	-0.11472744
186	0x3d1f4b14	0.03888996
187	0x3e08412d	0.13306113
188	0x3d168278	0.03674552
189	0xbd09648b	-0.03354315
190	0xbde5db79	-0.11223502
191	0x3e7bf64f	0.24605678
192	0x3ddb822a	0.10718186
193	0x3dfa436d	0.12219892
194	0x3ded9942	0.11601497
195	0x3e1d6c6c	0.15373391
196	0x3ccd6afa	0.025075424
197	0xbdc2c8d3	-0.095109604
198	0xbce0fd04	-0.027464397
199	0xbd41d08e	-0.047318034
200	0xbe1bd507	-0.15217982
201	0xbe41ba8c	-0.18918818
202	0x3d89611c	0.06707975
203	0xbe02c7e0	-0.12771559
204	0x3da1fac6	0.07909159
205	0xbe561e22	-0.20909932
206	0x3e438b47	0.19096099
207	0x3e0fe208	0.14051068
208	0xbc9aa77d	-0.018878693
209	0x3ca7ea24	0.02049739
210	0xbe74b3ee	-0.23896763
211	0xbdff1c01	-0.12456513
212	0xbd1d6d86	-0.038434528
213	0xbc9e0664	-0.019290157
214	0xbe4adb55	-0.19810231
215	0x3dd2fdcf	0.103023164
216	0x3da01489	0.07816417
217	0x3df615f9	0.1201591
218	0xbcda38af	-0.026638357
219	0xbd886d85	-0.06661514
220	0x3d78ffbe	0.06079077
221	0x3d9b72e5	0.07590274
222	0x3e3cf1da	0.18451634
223	0x3d11856d	0.035527635
224	0x3e29a309	0.16566099
225	0x3de59b08	0.112112105
226	0xbde0b129	-0.109712906
227	0xbd51c0a7	-0.05120912
228	0xbba63c99	-0.005073142
229	0xbd293591	-0.04131085
230	0x3c56fef7	0.013122312
231	0x3e1704a5	0.14747865
232	0x3dbcee87	0.09225183
233	0xbdd81960	-0.10551715
234	0xbd245726	-0.040122174
235	0x3d1099a0	0.03530276
236	0x3e84f8ce	0.25971073
237	0x3d659cd8	0.05605778
238	0x3d32406e	0.043518476
239	0xbe53263a	-0.20620051
240	0x3eb4001d	0.35156336
241	0x3da5acf7	0.08089631
242	0xbe9b69e7	-0.30354235
243	0xbde1eca5	-0.110314645
244	0xbe59d059	-0.21270885
245	0x3e13bf71	0.14428498
246	0xbdbaef91	-0.09127725
247	0xbe43de2a	-0.19127718
248	0x3df32cab	0.11873754
249	0x3bd4a470	0.006489329
250	0x3d6ffaa4	0.05858864
251	0x3aec9c1f	0.0018051899
252	0xbcfecf97	-0.031104846
253	0x3d1da23b	0.038484793
254	0xbd11a566	-0.035558127
255	0x3e820eaa	0.25401813

network_body._body_endoder.seq_layers.2.bias f4 [64]
0	0x3c96032a	0.018312056
1	0x3c4772e2	0.012173386
2	0xbcab700c	-0.020927452
3	0xbb9d0346	-0.00479165
4	0xbb4f664d	-0.003164667
5	0xbc29530c	-0.010334741
6	0x3a64d568	0.000872931
7	0xbba5edae	-0.005063734
8	0x3cb20a18	0.021733329
9	0x3cfa3aa0	0.030545533
10	0x3c00423f	0.007828294
11	0x3b8d2038	0.0043068193
12	0xbbadae50	-0.0053003207
13	0xbb1d4309	-0.0023996255
14	0x3b82a9af	0.003987513
15	0x399f2ef1	0.00030361817
16	0xbc941ff2	-0.018081639
17	0xbb37337d	-0.0027954273
18	0xbc4f43a5	-0.012650405
19	0xbc131111	-0.008976237
20	0xbc81a53b	-0.015825858
21	0xbb04d0c6	-0.002026604
22	0xbc3ab381	-0.011395336
23	0x3c5e120f	0.01355411
24	0xbb4e6c92	-0.0031497818
25	0x3c12812d	0.008941931
26	0x3c7f8c4d	0.015597415
27	0x3b713ca8	0.0036809836
28	0x3c75b720	0.014997274
29	0xbc568819	-0.013093972
30	0x3c80215d	0.015640909
31	0xbc29a3a8	-0.01035396
32	0x3c139575	0.009007801
33	0x3c2d52dd	0.010578838
34	0x3c4afc00	0.012389183
35	0x3c854a5a	0.016270805
36	0xbc85ff22	-0.016357008
37	0xbb2abcf0	-0.0026052557
38	0x3cb6bfa0	0.02230817
39	0xbbc7c3f4	-0.0060963575
40	0x3c6aed78	0.0143388435
41	0x3ca80a9a	0.020512868
42	0x3c585a44	0.013205115
43	0x3b0e6056	0.00217249
44	0x3cac9755	0.021068254
45	0xbbc549f7	-0.00602078
46	0x3bb32fe9	0.005468358
47	0x3ad49ddb	0.0016221361
48	0x3bfb8823	0.007676141
49	0xbc1d8547	-0.009614295
50	0x3b7dc0bb	0.0038719613
51	0x3bf97a77	0.007613476
52	0x3cd68868	0.02618809
53	0x3a4cee25	0.0007817469
54	0x3c7d09a2	0.015444191
55	0x3d064f81	0.032790665
56	0x3cf1846c	0.029482089
57	0x3bd2b73f	0.006430536
58	0xbc547499	-0.012967252
59	0x3b47c414	0.0030481862
60	0x3c2b7522	0.010464938
61	0x3c19e41c	0.009392764
62	0x3b9cda4e	0.004786766
63	0x3bb3c13b	0.0054856814

action_model._discrete_distribution.branches.0.weight f4 [4, 32]
0	0xbd0dcac5	-0.034617204
1	0xbd4a8585	-0.04944374
2	0xbd181ab5	-0.037134845
3	0x3d53fd55	0.051755268
4	0xbc561320	-0.013066083
5	0xbcc20868	-0.023685649
6	0xbc89ed78	-0.016836867
7	0x3c7b5eb7	0.015342406
8	0x3d7cfc84	0.061764255
9	0xbd8f6481	-0.070015915
10	0xbcbfaca0	-0.023397744
11	0xbce559e7	-0.02799697
12	0x3b3a0251	0.0028382728
13	0x3d1ed8e9	0.03878108
14	0xbd2ba618	-0.041906446
15	0xbc7ce2ba	-0.015434915
16	0xbaf4d239	-0.0018678374
17	0xbd5b64ff	-0.053563114
18	0x3ca1b087	0.019737495
19	0xbd03171b	-0.032004457
20	0x3ccd1586	0.025034677
21	0x3d82c959	0.0638606
22	0xbd978441	-0.07398272
23	0x3cb66549	0.022265093
24	0xbce60570	-0.028078765
25	0xbcc05bdd	-0.023481304
26	0xbd503cc1	-0.05083919
27	0x3c31bb02	0.010847809
28	0x3d21bfe1	0.03948963
29	0xbcae19f6	-0.021252614
30	0xbcea6128	-0.02861078
31	0xbca2dd46	-0.019880902
32	0x3d0e4c8b	0.034740966
33	0x3c82e843	0.015979892
34	0xbc9b6d12	-0.018972907
35	0xbd1797c2	-0.037009962
36	0xbcfc3a20	-0.030789435
37	0x3cb43fb2	0.022003029
38	0xbd0b4cc8	-0.03400877
39	0x3ab5acdf	0.0013860724
40	0x3c95d6e3	0.018290943
41	0xbc057afe	-0.008146999
42	0xbc9515ae	-0.018198814
43	0xbc614ef0	-0.01375173
44	0xbc712fca	-0.014720866
45	0x3d0c376a	0.034232534
46	0x3c8af869	0.016964154
47	0x3cc0f46b	0.023554048
48	0xbd7a4285	-0.061098594
49	0xbbd0c1f6	-0.006370778
50	0x3cf4d269	0.029885488
51	0x3d80c4e4	0.06287554
52	0xbd015172	-0.031571813
53	0x3cbfa773	0.023395276
54	0xbc13e328	-0.009026326
55	0x3c01e596	0.007928273
56	0xbd9c4975	-0.07631198
57	0x3b14ff84	0.0022735307
58	0xbc836360	-0.016038597
59	0xbda60936	-0.081072256
60	0xbd2def63	-0.042464625
61	0xbc8dc114	-0.01730398
62	0x3c97a748	0.018512383
63	0xbb43afe4	-0.0029859478
64	0x3bd07843	0.0063619926
65	0x3b9629a1	0.0045825993
66	0x3c8e660f	0.01738265
67	0xbb376967	-0.0027986409
68	0x3c680b23	0.014162811
69	0xbc710c46	-0.014712399
70	0x3c7dd296	0.015492102
71	0xbcdca208	-0.026932731
72	0xbd8dd60f	-0.06925594
73	0x3c6bbe16	0.014388582
74	0x3bf90c00	0.0076003075
75	0xbb558dd1	-0.003258575
76	0xbd157bc6	-0.036494993
77	0xbd910e24	-0.07082775
78	0x3c9d3293	0.019189155
79	0xbd44e856	-0.048073135
80	0x3c000e73	0.007815945
81	0x3babf8cf	0.005248166
82	0x3c51a0a3	0.012794646
83	0x3cecb8eb	0.02889677
84	0x3cba3017	0.02272801
85	0xbce565ea	-0.028002698
86	0xbc97e5dc	-0.018542223
87	0xbb5cae91	-0.0033673386
88	0x3cda5492	0.026651654
89	0xbc0615b6	-0.008183887
90	0x3c7759fd	0.0150971385
91	0xbcad320a	-0.021142025
92	0x3c03fa6c	0.008055311
93	0xbcb9704a	-0.022636551
94	0x3c8dd25e	0.017312225
95	0x3d59c155	0.05316289
96	0xb8a0f450	-7.674901e-05
97	0x3d075604	0.033041015
98	0x3d1f87e8	0.03894797
99	0x3ce6b16b	0.028160771
100	0x3db3fd24	0.08788517
101	0x3d428c42	0.04749704
102	0xbc89c483	-0.016817337
103	0xbca1f0a0	-0.01976806
104	0xbd04d10b	-0.03242592
105	0x3d5a3113	0.053269457
106	0xbb57dad7	-0.0032936835
107	0x3d64eba6	0.055888794
108	0x3c5d7373	0.013516295
109	0xbcdc6b75	-0.026906708
110	0x3cfdac48	0.03096594
111	0xbbf772f0	-0.0075515434
112	0xbceab293	-0.028649604
113	0x3d45efc7	0.048324373
114	0x3c07fc17	0.008299849
115	0x3c2bfdbd	0.010497508
116	0xbcba2884	-0.022724397
117	0xbd129075	-0.035782296
118	0x3c7dcece	0.015491201
119	0xbdac03d1	-0.083991654
120	0x3d45e877	0.0483174
121	0x3c1ea14d	0.009682012
122	0x3b92fbe6	0.004485595
123	0x3d2280f6	0.039673768
124	0x3be916ff	0.007113337
125	0x3d7c440b	0.06158833
126	0x3d1b2f0c	0.037886664
127	0xbcba32ef	-0.022729365

action_model._discrete_distribution.branches.0.bias f4 [4]
0	0x3cfa0887	0.030521644
1	0x391b0c00	0.00014786422
2	0xbcc8627c	-0.024461024
3	0xbcbbbb63	-0.022916501

onnx::LSTM_98 f4 [1, 128, 64]
0	0x3b27ed8c	0.0025623767
1	0xbdc76558	-0.09736127
2	0xbd9b479e	-0.07582019
3	0xbd6f1792	-0.058372088
4	0xbe615e24	-0.22008568
5	0x3e6f4676	0.23366722
6	0x3dd6274b	0.10456713
7	0x3e1261dc	0.14295143
8	0x3e50fbd5	0.20408566
9	0x3e364e4f	0.1780331
10	0x3e19f066	0.15033111
11	0x3dbecea2	0.09316756
12	0xbd9c8df8	-0.07644266
13	0xbc9ab7a1	-0.01888639
14	0xbe2bf075	-0.16790946
15	0x3de040ba	0.109498456
16	0xbe0d8dfc	-0.13823694
17	0x3e80f445	0.25186363
18	0x3e0acf97	0.13555752
19	0x3d2da0d2	0.0423897
20	0xbe1cb2f9	-0.15302648
21	0x3e015c0f	0.12632774
22	0xbe710bcd	-0.23539658
23	0xbd5cede8	-0.053937823
24	0xbe20cb24	-0.15702492
25	0xbe2154f1	-0.15755059
26	0x3d33f2d1	0.04393274
27	0x3d962591	0.07331384
28	0x3e4d37e4	0.20040852
29	0xbd6605d3	-0.0561579
30	0x3e4ff229	0.2030722
31	0x3e269326	0.1626707
32	0x3cf1e663	0.029528802
33	0xbddd171b	-0.10795423
34	0x3d0018bd	0.031273592
35	0x3e17ff73	0.1484354
36	0x3cc9d15a	0.02463596
37	0x3e4154fb	0.18880074
38	0xbe35ea2d	-0.17765112
39	0xbe5752e3	-0.21027713
40	0xbd81539e	-0.06314777
41	0xbdd4fbd7	-0.10399597
42	0xbe5a2f94	-0.21307212
43	0x3e208279	0.15674771
44	0x3dd06085	0.1017466
45	0x3e0b266b	0.13588874
46	0x3e2eea8a	0.17081657
47	0x3df3657b	0.1188459
48	0x3d6da9e0	0.058023334
49	0xbdbf0e84	-0.093289405
50	0x3e382eae	0.17986557
51	0x3dd5ee57	0.1044585
52	0xbe51a059	-0.20471324
53	0x3da53ff1	0.080688365
54	0x3cbbb973	0.022915578
55	0x3e15805b	0.14599745
56	0x3e7bda48	0.24594986
57	0xbe6210e2	-0.22076753
58	0x3cd5e38f	0.026109485
59	0x3e0010b0	0.12506366
60	0x3e510648	0.20412552
61	0x3dad6345	0.084662
62	0x3e1bb9fd	0.15207668
63	0x3de1e3c4	0.11029771
64	0xbd01bc64	-0.031673804
65	0x3de1e6c3	0.110303424
66	0x3e0706dc	0.1318621
67	0xbda7197e	-0.08159159
68	0xbdaf6bc8	-0.085654795
69	0x3dced0de	0.10098432
70	0x3dcb601e	0.09930442
71	0x3d968abd	0.07350681
72	0x3e40d48c	0.1883108
73	0xbe41dae7	-0.18931161
74	0x3da728b0	0.081620574
75	0x3e37f5fe	0.17964932
76	0x3dc8da82	0.09807302
77	0xbe584d00	-0.21123123
78	0x3ddccbe9	0.1078108
79	0x3e45f575	0.19331916
80	0x3e2e37c7	0.17013465
81	0x3d311aa6	0.043238305
82	0xbe741987	-0.23837863
83	0x3e5fe7be	0.21865746
84	0xbd93491a	-0.071916774
85	0xbe08adc5	-0.13347538
86	0x3d960c98	0.07326621
87	0x3e17598f	0.14780258
88	0xbd7e4810	-0.062080443
89	0x3e1a79cc	0.15085524
90	0x3d66b3d5	0.056323845
91	0x3e3255bf	0.17415522
92	0xbe5fbdb5	-0.21849711
93	0xbdb01c60	-0.08599162
94	0x3e6422d1	0.22278906
95	0x3e6572a7	0.22407018
96	0xbd2bfdda	-0.04199014
97	0xbe39e5e5	-0.18154104
98	0x3e754415	0.23951752
99	0x3ddaf0c6	0.10690455
100	0xbe055378	-0.13020122
101	0x3e61b56a	0.2204186
102	0xbe165eb8	-0.1468457
103	0xbd95c1b8	-0.073123395
104	0x3d1f5d5b	0.03890739
105	0x3db7100f	0.0893861
106	0x3cdc1587	0.026865734
107	0x3d5f4ff8	0.054519624
108	0x3d9277c2	0.07151748
109	0xb9ed7293	-0.00045289527
110	0x3e1b6c14	0.15177947
111	0x3d7b4de7	0.06135359
112	0xbe34c320	-0.1765256
113	0xbccb7f78	-0.024841055
114	0xbe332369	-0.17493977
115	0xbd8d1c45	-0.068901576
116	0x3e4d7cf9	0.20067205
117	0x3e2377d7	0.15963684
118	0x3d5bf5fc	0.053701386
119	0xbe48c488	-0.1960622
120	0x3dd62d49	0.10457856
121	0x3db0aa6c	0.086262554
122	0x3d883573	0.0665082
123	0xbbc1ab0c	-0.005910283
124	0xbcdfa649	-0.02730097
125	0x3e4a345c	0.19746536
126	0xbe16b7eb	-0.14718597
127	0xbe0229b9	-0.12711228
128	0xbd8ad911	-0.067796834
129	0x3e49407c	0.19653505
130	0xbceb1bdf	-0.028699813
131	0x3e78b9f4	0.24289685
132	0xbe16f687	-0.1474248
133	0x3dacac25	0.084312715
134	0x3e82e1b9	0.25562838
135	0x3e016d6c	0.12639397
136	0xbd35fc4e	-0.04443007
137	0x3e130ac1	0.14359571
138	0x3e2b5ab7	0.16733824
139	0x3c5281ef	0.012848361
140	0xbdf2a8f7	-0.11848634
141	0xbe06b6cd	-0.1315567
142	0xbd58c982	-0.052926548
143	0x3da0b370	0.07846725
144	0x3e3ddf23	0.18542151
145	0x3e5e43c0	0.21705532
146	0x3e4e171d	0.20126005
147	0x3e0f88ac	0.1401698
148	0xbd5d76a1	-0.05406821
149	0x3dc75246	0.09732489
150	0x3dd25950	0.10270941
151	0xbe228637	-0.15871511
152	0xbdd88ad9	-0.10573358
153	0xbd9ce252	-0.07660355
154	0xbe6fa4c6	-0.234027
155	0xbe462aa4	-0.19352204
156	0x3d69c08c	0.057068393
157	0x3e5e87fb	0.2173156
158	0x3e158da3	0.14604811
159	0xbce6081d	-0.02808004
160	0xbe1bb2ee	-0.15204975
161	0xbd31339f	-0.04326212
162	0x3db9741a	0.09055348
163	0x3b88cd4a	0.004174863
164	0xbe4f7bac	-0.20262021
165	0xbcc2e786	-0.02379204
166	0x3d3195e3	0.043355834
167	0x3d339966	0.043847464
168	0x3e156f48	0.14593232
169	0x3e77faba	0.24216738
170	0x3e4162c1	0.18885328
171	0xbce3da90	-0.02781418
172	0x3e03d1df	0.12873028
173	0x3e07a5bd	0.13246818
174	0xbbb8d95d	-0.005641146
175	0x3d2405cb	0.040044587
176	0xbddf4b1f	-0.10903
177	0xbe127504	-0.1430245
178	0xbd9a86c9	-0.075452395
179	0x3dba4ba7	0.09096461
180	0x3e8b434d	0.27199784
181	0xbe1ce847	-0.15322982
182	0xbe295da9	-0.16539635
183	0xbe1b2638	-0.15151298
184	0x3e635102	0.22198871
185	0x3e3ecbec	0.18632478
186	0x3e4b378a	0.19845405
187	0x3d6ae5a9	0.057347927
188	0x3d0d98df	0.034569617
189	0x3e070e03	0.13188939
190	0x3e4966df	0.19668148
191	0xbded7794	-0.11595073
192	0xbe14a3f2	-0.14515665
193	0x3e66fa9a	0.22556534
194	0xbe511036	-0.2041634
195	0xbe38f796	-0.18063197
196	0xbd6ced73	-0.057843637
197	0xbdfe084e	-0.12403928
198	0x3e72bcc9	0.23704828
199	0xbe125b64	-0.14292675
200	0xbe6d2e89	-0.23162283
201	0xbe869c33	-0.26291046
202	0x3c9c290b	0.01906254
203	0xbe2127b7	-0.15737806
204	0xbe77ba98	-0.24192274
205	0x3e8a43be	0.27004808
206	0xbd530dc0	-0.051526785
207	0xbc1ae2ac	-0.009453457
208	0x3e29707b	0.16546814
209	0x3d177885	0.03698017
210	0x3b45b003	0.0030164726
211	0xbe4c285f	-0.19937275
212	0x3e72e1d4	0.23718959
213	0xbdb82ebb	-0.08993288
214	0x3e282ee0	0.16424131
215	0x3e3dda18	0.18540227
216	0x3e569b19	0.20957603
217	0x3e0874b7	0.13325773
218	0xbe40d91b	-0.18832819
219	0x3e4f617f	0.20252036
220	0xbd1e1c46	-0.038601182
221	0x3e0a5437	0.13508688
222	0x3e87edb5	0.26548544
223	0xbdca5dd0	-0.098811746
224	0x3e7c9fe7	0.24670373
225	0xbcd79cc4	-0.026319869
226	0xbd3ffc8d	-0.04687171
227	0xbc677e2a	-0.014129201
228	0xbe4afcf9	-0.19823064
229	0x3e3247e6	0.1741024
230	0x3e46e23d	0.1942224
231	0x3c188aaa	0.009310404
232	0xbe61caf2	-0.22050074
233	0xbe77da5b	-0.2420439
234	0xbe46228a	-0.19349113
235	0xbe67d8ef	-0.22641347
236	0x3d5e1f74	0.054229215
237	0xbae19f1c	-0.0017213556
238	0x3dbb2c61	0.09139324
239	0xbd87d77f	-0.066328995
240	0xbdb99b20	-0.09062791
241	0x3e593f6f	0.21215604
242	0xbe1d6d35	-0.1537369
243	0xbd5a2651	-0.053259198
244	0xbdce3f67	-0.10070687
245	0xbe07e277	-0.13269983
246	0x3db97783	0.09055998
247	0xbe823c1a	-0.2543648
248	0x3dc37371	0.09543503
249	0xbda5e1bc	-0.08099696
250	0x3e68711b	0.22699396
251	0xbdb35fd2	-0.08758511
252	0xbda990d9	-0.082795806
253	0xbe3dfb03	-0.18552785
254	0xbdab6c16	-0.08370225
255	0x3e0844b5	0.1330746

onnx::LSTM_99 f4 [1, 128, 32]
0	0x3df5d0b7	0.120027
1	0xbe835209	-0.25648525
2	0x3e67ea75	0.22648032
3	0xbe62e172	-0.22156313
4	0x3da18bf6	0.078880236
5	0xbdbb084b	-0.09132441
6	0xbe795ab5	-0.24351008
7	0xbe2781db	-0.1635813
8	0xbe8356a2	-0.25652033
9	0x3e50ae7b	0.20379059
10	0xbe8d44f3	-0.27591667
11	0x3e430499	0.19044723
12	0x3e0db7b7	0.13839613
13	0x3e34a01e	0.17639205
14	0x3e322b19	0.17399253
15	0x3d4fff98	0.050780863
16	0x3e90bd16	0.2826926
17	0x3e26322d	0.16230078
18	0xbe0fd4ec	-0.14046067
19	0x3e593ddc	0.21215004
20	0x3db9ce5a	0.090725616
21	0xbd801d0b	-0.062555395
22	0x3e3027b3	0.17202644
23	0xbd5e85d0	-0.054326832
24	0xbe52e820	-0.20596361
25	0x3d507674	0.050894216
26	0xbe563625	-0.20919092
27	0x3d83f4b1	0.064431556
28	0xbd22bd64	-0.0397314
29	0x3e319664	0.17342526
30	0x3cd925b3	0.026507234
31	0x3e37f4b9	0.17964448
32	0x3cdcc2da	0.026948381
33	0xbe26b34b	-0.16279332
34	0xbe65a30e	-0.22425482
35	0x3e61c632	0.22048262
36	0xbc5fd45c	-0.01366147
37	0xbde8d558	-0.11368817
38	0xbd8c3100	-0.068452835
39	0xbe8d38bd	-0.2758235
40	0xbe07cc80	-0.13261604
41	0xbe8ac904	-0.27106488
42	0xbe90f6f2	-0.28313404
43	0x3e1be073	0.1522234
44	0x3dc5afd2	0.09652676
45	0x3d93dc68	0.072197735
46	0xbe30150c	-0.17195529
47	0x3e48a7a8	0.19595206
48	0xbd13354d	-0.035939503
49	0xbdd049d6	-0.10170333
50	0xbddb7ea4	-0.10717514
51	0x3e4c9a81	0.19980814
52	0x3e04f563	0.12984233
53	0x3d1bf732	0.03807754
54	0x3e22e8ab	0.15909068
55	0xbe5a4d68	-0.2131859
56	0xbe67f7e6	-0.2265316
57	0x3e8ae8cf	0.27130744
58	0x3e11d163	0.14240031
59	0x3e9dd741	0.30828288
60	0x3e156f23	0.14593177
61	0x3e248c9c	0.16069263
62	0x3df046ca	0.11732252
63	0xbd749375	-0.05971094
64	0x3d9a61ac	0.07538161
65	0xbdc80c5f	-0.097679846
66	0xbd8c7f0b	-0.06860169
67	0x3e506767	0.20351945
68	0x3e04176c	0.1289956
69	0x3c285b85	0.010275726
70	0xbd80685d	-0.06269906
71	0xbe112b59	-0.14176692
72	0xbd547a7c	-0.051874623
73	0xbd48048b	-0.048832458
74	0xbcf2d124	-0.029640742
75	0x3e5390d6	0.2066072
76	0x3cd63840	0.026149869
77	0xbe7b79f6	-0.24558243
78	0x3e1ad9cc	0.15122145
79	0xbe2d2a83	-0.16910748
80	0xbe5ec557	-0.21754967
81	0x3d744b2e	0.05964201
82	0x3df53716	0.119733974
83	0x3db63b07	0.08897977
84	0x3d801e16	0.062557384
85	0x3e724f2e	0.23663017
86	0x3dcf2837	0.10115092
87	0x3e861057	0.2618434
88	0x3e9399fb	0.28828415
89	0xbe32828b	-0.1743261
90	0x3e1b7d40	0.15184498
91	0x3ea24b4a	0.31698066
92	0xbdf0d94c	-0.11760196
93	0x3e344407	0.17604075
94	0xbeaa11e6	-0.3321678
95	0x3c5782c0	0.013153732
96	0x3e1dd91e	0.15414855
97	0x3d434cf6	0.047680818
98	0x3e64c44a	0.22340503
99	0xbe63eb88	-0.22257817
100	0x3e72d5aa	0.23714319
101	0xbe405bbe	-0.18784997
102	0xbb71ee68	-0.0036915783
103	0xbd93e670	-0.07221687
104	0xbe8d73e6	-0.27627486
105	0x3d4d71f1	0.05015749
106	0x3e9590fb	0.29212174
107	0xbdfb0c4c	-0.12258205
108	0xbd9f830b	-0.07788666
109	0xbb22fe50	-0.002487082
110	0x3b88cac3	0.0041745617
111	0xbe6026bf	-0.2188978
112	0xbe54ccf1	-0.20781304
113	0x3e936d5d	0.28794375
114	0xbe2b5b8c	-0.16734141
115	0x3dd0c0d1	0.10193027
116	0xbd224e44	-0.03962542
117	0xbe30c81e	-0.17263839
118	0x3e234bab	0.15946834
119	0xbe07be79	-0.13256253
120	0xbd824b02	-0.06361963
121	0x3e7537d2	0.23947075
122	0x3e5467f7	0.20742784
123	0x3d267c36	0.0406458
124	0x3d177707	0.036978748
125	0xbe5cdd5d	-0.21568818
126	0x3d4c93b3	0.049945544
127	0x3e5c79bc	0.21530813
128	0xbe9a4288	-0.30128884
129	0xbc5c1923	-0.013433727
130	0xbdbcd569	-0.09220392
131	0x3de89e43	0.11358311
132	0xbe790acf	-0.2432053
133	0xbea0496b	-0.31306013
134	0xbe9ce964	-0.30646813
135	0xbe2bbdd3	-0.16771631
136	0x3e945605	0.28971878
137	0xbea2a79b	-0.31768498
138	0x3bf6f5fd	0.0075366483
139	0xbe8f1cb2	-0.2795158
140	0xbe59a7ae	-0.21255371
141	0x3e312bc1	0.17301847
142	0xbd1e2b9a	-0.0386158
143	0x3e427d5c	0.18993133
144	0x3dece898	0.11567801
145	0xbe82d176	-0.2555043
146	0xbe561c56	-0.20909247
147	0x3dcd5698	0.10026282
148	0xbe31177e	-0.17294118
149	0xbc04d184	-0.008106593
150	0xbdac614b	-0.08416995
151	0x3e97f246	0.29677027
152	0xbda72f39	-0.08163304
153	0xbe5553a8	-0.20832694
154	0x3e5f12f3	0.21784572
155	0x3e66529d	0.22492452
156	0x3e887505	0.2665178
157	0xbe350977	-0.17679392
158	0xbe17b455	-0.14814885
159	0x3e57d6ea	0.21078077
160	0x3e85433f	0.26027867
161	0xbe67b5f3	-0.22628002
162	0xbe39af19	-0.181332
163	0xbe842b70	-0.2581439
164	0xbd646d55	-0.05576833
165	0x3e9a75a7	0.30167887
166	0x3d86b97b	0.06578346
167	0xbe0cfe21	-0.13768817
168	0x3e802b6b	0.25033125
169	0xbe8d06fa	-0.27544385
170	0x3e066d7f	0.13127707
171	0x3c970726	0.018436026
172	0x3c4ba326	0.012429034
173	0xbd624240	-0.055238962
174	0xbe3fff5e	-0.18749759
175	0xbd0ca05f	-0.03433263
176	0xbe0e62ac	-0.13904828
177	0x3db98e90	0.09060395
178	0x3cb9ab33	0.022664642
179	0x3d5f13c8	0.054462224
180	0xbe3917bb	-0.18075459
181	0x3e98acd2	0.2981935
182	0x3ea26b76	0.3172261
183	0x3e525196	0.20538935
184	0x3e750148	0.2392627
185	0xbe1f9d15	-0.15587266
186	0x3ddc447c	0.1075525
187	0xbdd799d8	-0.1052739
188	0xbe87a658	-0.26494098
189	0xbdcf3c10	-0.10118878
190	0x3e595164	0.21222454
191	0x3df59472	0.11991204
192	0x3d4d228a	0.050081767
193	0xbe3e57b5	-0.18588145
194	0x3e2df005	0.16986091
195	0xbe769d0d	-0.24083348
196	0x3e2584c1	0.16163923
197	0x3e4bc9c2	0.19901183
198	0xbe80feb5	-0.25194326
199	0x3e4877c6	0.1957694
200	0xbe27dbe9	-0.16392483
201	0xbe31c2e1	-0.17359497
202	0x3e2ef10d	0.17084141
203	0xbe015c44	-0.12632853
204	0x3dbd1ae9	0.09233648
205	0xbe75035f	-0.23927067
206	0xbe75c244	-0.23999888
207	0x3e21a72f	0.15786432
208	0x3e72625e	0.23670337
209	0xbdae184d	-0.08500729
210	0xbe8bf196	-0.27332753
211	0x3c85d525	0.016336987
212	0x3d601da8	0.054715782
213	0xbdc7b0f4	-0.09750548
214	0xbe986ccf	-0.29770514
215	0xbd245ce9	-0.04012767
216	0xbe4f6c61	-0.20256187
217	0x3e1ca810	0.15298486
218	0xbdac1bff	-0.08403777
219	0xbd421623	-0.047384392
220	0xbb2d8fc2	-0.0026483391
221	0xbe59ba8d	-0.2126257
222	0x3ea7faf5	0.32808653
223	0x3e2f7964	0.1713615
224	0xbd725d6e	-0.059171133
225	0xbe04373d	-0.12911697
226	0xbd2e9e8e	-0.04263168
227	0xbe7db5c6	-0.24776372
228	0xbe460d51	-0.19341017
229	0x3e8fd5cc	0.28092802
230	0xbe942d28	-0.289407
231	0x3d7dbbe1	0.061946753
232	0x3e8bc2d0	0.27297068
233	0xbdf49314	-0.119421154
234	0x3e806175	0.25074354
235	0x3e034c55	0.12822087
236	0x3e94f85d	0.29095736
237	0xbe624b18	-0.22098958
238	0xbe640040	-0.2226572
239	0x3e711211	0.23542048
240	0x3e6e26df	0.23257016
241	0x3d9d3561	0.07676197
242	0x3e293505	0.16524132
243	0xbd80ae5b	-0.06283256
244	0x3e0a52f9	0.13508214
245	0xbe3720a9	-0.17883553
246	0xbe588bcd	-0.2114708
247	0x3c151a38	0.009100489
248	0xbe89f9a2	-0.26948267
249	0xbe2d182c	-0.16903752
250	0x3c177f40	0.009246647
251	0x3e43d6e9	0.1912495
252	0xbe2e91c3	-0.17047791
253	0x3dffe29b	0.124943934
254	0x3c61eacc	0.01378889
255	0xbce5cc99	-0.028051661

onnx::LSTM_100 f4 [1, 256]
0	0x3cac7cca	0.021055598
1	0x3cd35de2	0.025801603
2	0x3cba3582	0.022730593
3	0x3c25ba79	0.010115259
4	0x3cc5fb45	0.024167666
5	0xbc1cee62	-0.009578319
6	0x3b0870bd	0.002081915
7	0x3c95a112	0.01826528
8	0x3cbe2b33	0.023213958
9	0x3cb2c971	0.02182457
10	0x3ca48bcd	0.020086193
11	0xbc952fa7	-0.018211199
12	0x3d02ea1d	0.03196155
13	0x3c7de6d9	0.015496933
14	0x3cc78c22	0.024358813
15	0xba32f81e	-0.00068271335
16	0xbc6c6fb1	-0.014430926
17	0x3ce8176f	0.028331487
18	0xbc906625	-0.017626831
19	0x3953a184	0.00020182697
20	0xbb809889	-0.0039244336
21	0x3cc3739c	0.023858838
22	0x3c63be40	0.01390034
23	0x3cc43c26	0.023954462
24	0x3cbbbafd	0.022916311
25	0xba83227b	-0.0010004783
26	0x3c97d465	0.018533895
27	0x3d1d709e	0.03843748
28	0x3c39fd19	0.011351847
29	0x3ad59d40	0.0016297475
30	0x3c5cf004	0.013484959
31	0x3d14adfc	0.036298737
32	0x392252c6	0.0001548036
33	0x3cfa5eab	0.03056272
34	0x3d0278a8	0.031853348
35	0x3d08a630	0.033361614
36	0x3cac076e	0.020999637
37	0x3d01d2eb	0.031695288
38	0xbc28a2af	-0.010292693
39	0x3bdf2aff	0.0068105455
40	0x3cd37c25	0.025816033
41	0x3cf08c32	0.029363725
42	0x3c9af2fb	0.01891469
43	0xbc57da86	-0.013174659
44	0x3d06c339	0.032901023
45	0x3cd240e0	0.0256657
46	0x3c7f1137	0.015568069
47	0xbb837cdd	-0.0040126876
48	0xbcdb4866	-0.02676792
49	0x3d1304bc	0.035893187
50	0xbc3e6285	-0.011620169
51	0x3b969b54	0.0045961533
52	0x3ba2a826	0.0049638925
53	0x3cc872f3	0.024468875
54	0x3ca5caf8	0.020238385
55	0x3c071f07	0.008247144
56	0x3cab477f	0.020908115
57	0xbbdc4fd6	-0.0067233844
58	0x3c97f453	0.01854912
59	0x3d311288	0.043230563
60	0x3c1ac680	0.00944674
61	0xbcc11f24	-0.02357442
62	0x3c646a8e	0.01394142
63	0x3d3f2c20	0.04667294
64	0x3f7def3e	0.9919318
65	0x3f812662	1.0089839
66	0x3f84e708	1.0383005
67	0x3f82aadd	1.0208393
68	0x3f82373f	1.017311
69	0x3f81003e	1.0078199
70	0x3f7c2aa8	0.9850259
71	0x3f81b855	1.0134379
72	0x3f7cd170	0.98757076
73	0x3f805781	1.0026704
74	0x3f7e195d	0.9925745
75	0x3f7d1d3d	0.9887274
76	0x3f8285bd	1.0197064
77	0x3f828da0	1.019947
78	0x3f820886	1.0158851
79	0x3f7ac4fd	0.9795683
80	0x3f7d6cb1	0.98993975
81	0x3f81839e	1.0118291
82	0x3f79fb42	0.97649014
83	0x3f83a6fc	1.0285335
84	0x3f7e2136	0.99269426
85	0x3f80c04f	1.0058688
86	0x3f81ba4a	1.0134976
87	0x3f830343	1.023537
88	0x3f8214ae	1.0162561
89	0x3f81186b	1.0085577
90	0x3f80ed53	1.0072426
91	0x3f81d8fc	1.0144343
92	0x3f7e5355	0.99345905
93	0x3f80a914	1.0051599
94	0x3f7f956b	0.9983737
95	0x3f82372f	1.0173091
96	0xbba64bb3	-0.005074942
97	0xbc8ba524	-0.017046519
98	0x3b71db2f	0.0036904325
99	0x3c6c28ba	0.014414007
100	0xbc6ad7af	-0.01433365
101	0x3b4d298f	0.0031305288
102	0x3bedb887	0.0072546634
103	0x3bace432	0.0052762264
104	0x3bede9d6	0.0072605414
105	0xbc65c33c	-0.014023598
106	0xbc789684	-0.0151726045
107	0x3c265c94	0.010153908
108	0x3ac81c49	0.0015267219
109	0xbc117070	-0.008876905
110	0xbcc45e54	-0.02397076
111	0x3b863c9a	0.0040965797
112	0xbbd905d2	-0.0066230083
113	0xbba23c13	-0.004951009
114	0xbca13734	-0.019679643
115	0x3bb743de	0.005592807
116	0x3ce03817	0.027370496
117	0x3c16e683	0.009210232
118	0x3c3f6709	0.01168228
119	0xbcb75c32	-0.02238283
120	0x3af23894	0.0018479996
121	0xba958433	-0.0011407196
122	0x3c8d9e11	0.017287286
123	0xbc3bc456	-0.011460384
124	0xba5c6518	-0.0008407398
125	0x3b80777c	0.0039204936
126	0xbbdae319	-0.006679904
127	0xbc8482fb	-0.016175738
128	0x3cac7cca	0.021055598
129	0x3cd35de2	0.025801603
130	0x3cba3582	0.022730593
131	0x3c25ba79	0.010115259
132	0x3cc5fb45	0.024167666
133	0xbc1cee62	-0.009578319
134	0x3b0870bd	0.002081915
135	0x3c95a112	0.01826528
136	0x3cbe2b33	0.023213958
137	0x3cb2c971	0.02182457
138	0x3ca48bcd	0.020086193
139	0xbc952fa7	-0.018211199
140	0x3d02ea1d	0.03196155
141	0x3c7de6d9	0.015496933
142	0x3cc78c22	0.024358813
143	0xba32f81e	-0.00068271335
144	0xbc6c6fb1	-0.014430926
145	0x3ce8176f	0.028331487
146	0xbc906625	-0.017626831
147	0x3953a184	0.00020182697
148	0xbb809889	-0.0039244336
149	0x3cc3739c	0.023858838
150	0x3c63be40	0.01390034
151	0x3cc43c26	0.023954462
152	0x3cbbbafd	0.022916311
153	0xba83227b	-0.0010004783
154	0x3c97d465	0.018533895
155	0x3d1d709e	0.03843748
156	0x3c39fd19	0.011351847
157	0x3ad59d40	0.0016297475
158	0x3c5cf004	0.013484959
159	0x3d14adfc	0.036298737
160	0x392252c6	0.0001548036
161	0x3cfa5eab	0.03056272
162	0x3d0278a8	0.031853348
163	0x3d08a630	0.033361614
164	0x3cac076e	0.020999637
165	0x3d01d2eb	0.031695288
166	0xbc28a2af	-0.010292693
167	0x3bdf2aff	0.0068105455
168	0x3cd37c25	0.025816033
169	0x3cf08c32	0.029363725
170	0x3c9af2fb	0.01891469
171	0xbc57da86	-0.013174659
172	0x3d06c339	0.032901023
173	0x3cd240e0	0.0256657
174	0x3c7f1137	0.015568069
175	0xbb837cdd	-0.0040126876
176	0xbcdb4866	-0.02676792
177	0x3d1304bc	0.035893187
178	0xbc3e6285	-0.011620169
179	0x3b969b54	0.0045961533
180	0x3ba2a826	0.0049638925
181	0x3cc872f3	0.024468875
182	0x3ca5caf8	0.020238385
183	0x3c071f07	0.008247144
184	0x3cab477f	0.020908115
185	0xbbdc4fd6	-0.0067233844
186	0x3c97f453	0.01854912
187	0x3d311288	0.043230563
188	0x3c1ac680	0.00944674
189	0xbcc11f24	-0.02357442
190	0x3c646a8e	0.01394142
191	0x3d3f2c20	0.04667294
192	0x3f7def3e	0.9919318
193	0x3f812662	1.0089839
194	0x3f84e708	1.0383005
195	0x3f82aadd	1.0208393
196	0x3f82373f	1.017311
197	0x3f81003e	1.0078199
198	0x3f7c2aa8	0.9850259
199	0x3f81b855	1.0134379
200	0x3f7cd170	0.98757076
201	0x3f805781	1.0026704
202	0x3f7e195d	0.9925745
203	0x3f7d1d3d	0.9887274
204	0x3f8285bd	1.0197064
205	0x3f828da0	1.019947
206	0x3f820886	1.0158851
207	0x3f7ac4fd	0.9795683
208	0x3f7d6cb1	0.98993975
209	0x3f81839e	1.0118291
210	0x3f79fb42	0.97649014
211	0x3f83a6fc	1.0285335
212	0x3f7e2136	0.99269426
213	0x3f80c04f	1.0058688
214	0x3f81ba4a	1.0134976
215	0x3f830343	1.023537
216	0x3f8214ae	1.0162561
217	0x3f81186b	1.0085577
218	0x3f80ed53	1.0072426
219	0x3f81d8fc	1.0144343
220	0x3f7e5355	0.99345905
221	0x3f80a914	1.0051599
222	0x3f7f956b	0.9983737
223	0x3f82372f	1.0173091
224	0xbba64bb3	-0.005074942
225	0xbc8ba524	-0.017046519
226	0x3b71db2f	0.0036904325
227	0x3c6c28ba	0.014414007
228	0xbc6ad7af	-0.01433365
229	0x3b4d298f	0.0031305288
230	0x3bedb887	0.0072546634
231	0x3bace432	0.0052762264
232	0x3bede9d6	0.0072605414
233	0xbc65c33c	-0.014023598
234	0xbc789684	-0.0151726045
235	0x3c265c94	0.010153908
236	0x3ac81c49	0.0015267219
237	0xbc117070	-0.008876905
238	0xbcc45e54	-0.02397076
239	0x3b863c9a	0.0040965797
240	0xbbd905d2	-0.0066230083
241	0xbba23c13	-0.004951009
242	0xbca13734	-0.019679643
243	0x3bb743de	0.005592807
244	0x3ce03817	0.027370496
245	0x3c16e683	0.009210232
246	0x3c3f6709	0.01168228
247	0xbcb75c32	-0.02238283
248	0x3af23894	0.0018479996
249	0xba958433	-0.0011407196
250	0x3c8d9e11	0.017287286
251	0xbc3bc456	-0.011460384
252	0xba5c6518	-0.0008407398
253	0x3b80777c	0.0039204936
254	0xbbdae319	-0.006679904
255	0xbc8482fb	-0.016175738
