results/FullyAbstract/bachelor/bachelor-4393579.onnx (onnx, 873376 bytes, 11 tensors)

network_body._body_endoder.seq_layers.0.weight f4 [256, 7]
0	0xbe58246e	-0.21107647
1	0x3eaec1b9	0.34132174
2	0xbf7aad1b	-0.9792039
3	0x3d85d8cd	0.06535492
4	0xbf0d7e50	-0.5527086
5	0x3ea39b3f	0.3195438
6	0xbecaf9ba	-0.3964365
7	0xbe99e03d	-0.30053893
8	0x3f6b3adb	0.9188668
9	0x3ec637ec	0.3871454
10	0x3d8e6793	0.06953349
11	0xbdb64e9f	-0.089017145
12	0xbedf76bf	-0.43645284
13	0xbe8f1ffd	-0.27954093
14	0x3e107c27	0.1410986
15	0x3e126d30	0.14299464
16	0xbedbe910	-0.4295125
17	0x3e36a09d	0.17834707
18	0xbe64d575	-0.22347052
19	0xbe4b078f	-0.19827102
20	0x3e396d72	0.18108156
21	0xbf138973	-0.57631606
22	0xbe071957	-0.1319326
23	0x3ee7f559	0.45304373
24	0xbe9f29a5	-0.3108646
25	0xbe118b95	-0.14213403
26	0x3ea181e2	0.31544405
27	0xbe84cc5b	-0.2593716
28	0x3e4f2378	0.20228374
29	0xbe9eeec0	-0.31041527
30	0x3e8f395d	0.27973452
31	0x3e9259c1	0.28584102
32	0xbeb5ee76	-0.35533494
33	0xbeb9b255	-0.3626887
34	0xbda58a53	-0.08083024
35	0xbf21be99	-0.63181454
36	0xbe79871d	-0.24367948
37	0x3f3fa056	0.7485403
38	0x3f3b1e51	0.73093134
39	0xbe6f02b4	-0.23340875
40	0xbf6bf9f4	-0.92178273
41	0xbe9875e4	-0.29777443
42	0xba9ed4df	-0.0012117884
43	0x3cefdfd5	0.029281536
44	0xbf727391	-0.9470759
45	0xbf128218	-0.5722976
46	0xbe4fcbfe	-0.2029266
47	0x3ed78c31	0.42099145
48	0xbed4e327	-0.41579553
49	0x3d9353c8	0.071937144
50	0xbde991fe	-0.11404799
51	0xbd876394	-0.0661079
52	0x3e1d331a	0.15351525
53	0x3de02270	0.109440684
54	0xbe0e22be	-0.1388044
55	0x3e21e110	0.15808511
56	0xbee32b48	-0.44368958
57	0xbea34c6a	-0.31894237
58	0x3ea8a3e5	0.32937542
59	0xbe265eed	-0.16247149
60	0xbf2ab1f2	-0.66677773
61	0xbf1765b6	-0.59139574
62	0x3ec00de8	0.3751061
63	0x3ecf1733	0.40447387
64	0x3e0b0345	0.13575466
65	0xbf0f157d	-0.55892164
66	0xbe9218d4	-0.28534567
67	0xbe507c4d	-0.20359917
68	0xbe28dc72	-0.16490343
69	0xbeac5799	-0.33660582
70	0x3db0f135	0.086397566
71	0x3dbd6122	0.09247042
72	0x3f38cb0c	0.72184825
73	0xbe7125bb	-0.2354955
74	0x3eb8347d	0.35977545
75	0xbb8f8b02	-0.0043805847
76	0xbe65a14a	-0.22424808
77	0xbea804c5	-0.3281614
78	0xbf5df4a2	-0.86701405
79	0xbe40506b	-0.18780677
80	0xbefff57a	-0.4999197
81	0xbed08c18	-0.40731883
82	0x3f5ab32f	0.8542966
83	0x3e8a5b2b	0.2702268
84	0xbf314e79	-0.69260365
85	0x3ea48720	0.32134342
86	0xbd874196	-0.066043064
87	0x3f14f0ac	0.58179736
88	0x3e79987b	0.24374573
89	0x3f2793fb	0.65460175
90	0xbefc8790	-0.49322176
91	0x3ef782cd	0.4834198
92	0x3df8f462	0.12155987
93	0xbd133a13	-0.035944056
94	0x3f32b95f	0.69814104
95	0x3f87b08c	1.0600753
96	0x3e7e6625	0.24843653
97	0x3ebce1d1	0.36891034
98	0xbdbafb63	-0.091299795
99	0x3e70274b	0.23452489
100	0xbeaa43ad	-0.33254758
101	0x3c94c4ba	0.018160213
102	0xbe9c0e2b	-0.3047956
103	0xbe7faef3	-0.24969082
104	0x3cb64dea	0.02225395
105	0x3db0fe26	0.08642225
106	0xbe9f373f	-0.31096837
107	0xbe8bf487	-0.27334997
108	0x3f17381b	0.59069985
109	0xbe5cb094	-0.21551734
110	0x3ed75c40	0.4206257
111	0x3ec7bed0	0.39012766
112	0xbe7ae9de	-0.24503276
113	0xbe3ef4f4	-0.1864813
114	0xbe6b6bf9	-0.22990407
115	0x3e310586	0.17287263
116	0xbe7bdac7	-0.24595176
117	0xbd5dc2a0	-0.054140687
118	0x3efc866f	0.49321315
119	0xbf5e0d85	-0.8673938
120	0xbe946a62	-0.28987414
121	0x3f11c0f0	0.56935024
122	0xbe9a739c	-0.30166328
123	0xbde597a5	-0.112105645
124	0xbe0d7d31	-0.13817288
125	0x3e6aacda	0.229175
126	0x3f42fdca	0.761685
127	0xbf0c9bae	-0.5492505
128	0xbe3da182	-0.18518642
129	0x3e1b5f7e	0.15173146
130	0xbe6c7146	-0.23090085
131	0xbebfb837	-0.37445232
132	0x3d73f400	0.05955887
133	0xbbd4675d	-0.0064820484
134	0x3ef3b1cd	0.4759659
135	0xbe8f06ab	-0.27934775
136	0xbdf4a4ad	-0.11945472
137	0x3eeadbe2	0.45870882
138	0xbf003f73	-0.50096816
139	0xbf21b853	-0.6317188
140	0x3eb8c4e0	0.36087704
141	0xbe1badeb	-0.15203063
142	0xbeaacdde	-0.3336019
143	0xbea081ac	-0.31348932
144	0xbf85984f	-1.0437106
145	0xbf0fc379	-0.5615764
146	0xbefd270c	-0.49443853
147	0xbed0f0da	-0.40808755
148	0xbe61023d	-0.2197351
149	0x3d2bd788	0.041953593
150	0xbe17ffcf	-0.14843677
151	0x3ee0cae2	0.43904787
152	0x3eca3244	0.39491475
153	0x3e7195ad	0.23592253
154	0xbe57b982	-0.2106686
155	0x3e8f06ef	0.27934977
156	0xbe172f72	-0.14764193
157	0xbeb6dfd1	-0.35717633
158	0x3e3aef69	0.1825539
159	0xbe92c85a	-0.2866848
160	0x3d189db9	0.03725979
161	0x3e01f716	0.12691912
162	0xbed45ab0	-0.4147544
163	0xbec7ef55	-0.39049783
164	0x3e904667	0.28178713
165	0xbc7802c8	-0.015137382
166	0x3ed7afb7	0.42126247
167	0x3d4535fc	0.048147187
168	0xbe03b45b	-0.12861769
169	0xbd2c07eb	-0.04199974
170	0x3e3fa4bf	0.1871519
171	0xbd333fc7	-0.043761995
172	0xbf25f8ac	-0.6483257
173	0xbec78e39	-0.38975695
174	0x3e2f989b	0.17148058
175	0x3f588c1b	0.84588784
176	0x3e937b94	0.2880522
177	0xbf183a1b	-0.5946366
178	0xbd81b704	-0.063337356
179	0xbe811c28	-0.25216794
180	0x3eaa0ab8	0.33211303
181	0x3e907e3d	0.28221312
182	0xbe9fa14e	-0.31177753
183	0x3e296b43	0.16544823
184	0x3ee02d04	0.43784344
185	0x3f0f19e6	0.5589889
186	0x3ccc0894	0.024906434
187	0x3e699b59	0.22813167
188	0x3dabb0f7	0.08383363
189	0x3ed76819	0.42071608
190	0x3e6500d8	0.22363603
191	0xbeaace89	-0.333607
192	0xbd8f2634	-0.069897085
193	0x3b74c70e	0.003735009
194	0x3f3b1221	0.7307454
195	0x3efbdd15	0.4919211
196	0xbe094dd7	-0.134086
197	0xbe172542	-0.14760306
198	0xbe692feb	-0.22772186
199	0x3e14bdbb	0.14525501
200	0xbe793712	-0.24337414
201	0xbebf6b01	-0.37386325
202	0x3ea3c757	0.31988022
203	0xbe12f047	-0.14349471
204	0x3f0a55be	0.5403708
205	0x3d66c31c	0.056338415
206	0xbe3c52c5	-0.18390949
207	0x3d202658	0.039099067
208	0xbe8bc741	-0.27300456
209	0xbdb199a6	-0.08671884
210	0xbe6c629a	-0.23084489
211	0x3e8ed5fe	0.27897638
212	0xbd7b24bd	-0.061314333
213	0x3f0f5bcc	0.55999446
214	0xbf7224cd	-0.94587404
215	0x3e55f973	0.20895939
216	0xbd1ce5b1	-0.03830499
217	0xbcb6fb36	-0.022336584
218	0xbdda5baf	-0.106620185
219	0xbe86e3ab	-0.26345572
220	0xbdd2c7a8	-0.10291988
221	0xbf03ad8b	-0.5143668
222	0x3f436528	0.7632623
223	0xbed1b251	-0.40956357
224	0xbed57c50	-0.41696405
225	0x3d197b21	0.03747094
226	0xbd9033bc	-0.070411175
227	0x3e922c5d	0.28549471
228	0xbdd7b4a9	-0.10532505
229	0xbe883017	-0.2659919
230	0x3e28760a	0.16451278
231	0xbe1123fa	-0.1417388
232	0xbf4547fb	-0.7706296
233	0x3c64853d	0.013947782
234	0x3e8785f5	0.2646939
235	0xbf3160ab	-0.6928813
236	0xbee3add8	-0.4446857
237	0xbf03f219	-0.51541287
238	0xbecc8fe4	-0.3995353
239	0x3e3f6831	0.1869209
240	0x3e08f3f2	0.13374308
241	0x3edfa3de	0.43679708
242	0x3f09a620	0.5376911
243	0x3e7c37d0	0.24630666
244	0x3f17cce0	0.5929699
245	0x3e8ff9e6	0.28120345
246	0x3f46732a	0.77519476
247	0xbdf6f64e	-0.12058698
248	0xbe3a3992	-0.18186024
249	0xbe7eb393	-0.2487319
250	0xbe8108f9	-0.25202158
251	0x3f26e28d	0.6518944
252	0x3e900a69	0.28132942
253	0xbe94413e	-0.28956026
254	0x3edc1e12	0.42991692
255	0x3e1af2ec	0.1513173

network_body._body_endoder.seq_layers.0.bias f4 [256]
0	0x3ab05842	0.0013454037
1	0xba819172	-0.0009885265
2	0xbb8c0fd9	-0.00427435
3	0x3c2c4c27	0.010516203
4	0x3c70ca08	0.0146966055
5	0x3972202c	0.00023090903
6	0xbbf277a6	-0.007399517
7	0x3a93f28a	0.0011287492
8	0xb8b470ea	-8.604101e-05
9	0x3b86c0de	0.004112347
10	0xbb57d819	-0.00329352
11	0xbbf4b382	-0.007467688
12	0x3b2230a4	0.002474823
13	0x3bc7da9f	0.0060990597
14	0x3ab8cae0	0.0014098547
15	0x3ae65c16	0.0017575051
16	0xbb64e650	-0.0034927316
17	0x3c4ecb04	0.012621645
18	0x3c7f7da9	0.015593925
19	0x3bf35323	0.007425682
20	0x3b10f0ed	0.002211626
21	0xba446522	-0.00074918766
22	0xbc3c11d1	-0.011478857
23	0x3bb7a73e	0.0056046536
24	0xbbec474d	-0.007210648
25	0x3c7ad881	0.015310408
26	0xbb1f696e	-0.0024324316
27	0x3c4239e3	0.011854622
28	0xbb3c306d	-0.0028715387
29	0x3b8f66be	0.0043762615
30	0x3b468e38	0.0030297171
31	0x3b94f15a	0.004545373
32	0x3b165f85	0.0022945118
33	0xbada7270	-0.0016666185
34	0xbb9f5418	-0.0048623197
35	0x3c07fdec	0.008300286
36	0x3a8a74e2	0.0010563398
37	0x3b99fa7b	0.004699049
38	0x3c594df1	0.013263212
39	0xba4ab813	-0.00077331177
40	0xbbb58e98	-0.00554068
41	0x3baef271	0.00533896
42	0x3bafe35e	0.0053676805
43	0x3b445950	0.002996046
44	0x3c184230	0.009293124
45	0xbab8d3fb	-0.0014101261
46	0x3c59a0fe	0.013283012
47	0xbb642c2b	-0.0034816365
48	0xbb04f0a7	-0.0020285042
49	0xbb3eda26	-0.0029121726
50	0x3c227746	0.009916132
51	0x3bf07a98	0.007338833
52	0x3b9f8672	0.004868322
53	0x3c77f588	0.015134223
54	0xbb280af4	-0.0025641294
55	0x3b67f04b	0.0035391029
56	0xbba1df7a	-0.0049399706
57	0x3b3fd9ad	0.0029274032
58	0xbb9b565d	-0.00474052
59	0xbc36e8d8	-0.011163913
60	0xbb0fa6e0	-0.0021919534
61	0x3ba060ff	0.0048943753
62	0xbbe2907a	-0.0069141956
63	0xbb9deab1	-0.004819237
64	0x3c447061	0.011989684
65	0xbbb31d16	-0.005466114
66	0x3adccca0	0.0016845651
67	0xba9efd43	-0.0012129921
68	0x3c69d5bb	0.014272149
69	0xba09134c	-0.0005229011
70	0xb856f3b8	-5.1248557e-05
71	0xbc22eca0	-0.009944111
72	0x3c27bdf9	0.010238164
73	0xbafd764b	-0.0019337622
74	0x3a6d85bf	0.0009060762
75	0x3be868df	0.0070925797
76	0x3c041797	0.008062265
77	0x3b5c8a11	0.003365163
78	0xba0fe3bd	-0.0005488953
79	0x3c06867f	0.008210777
80	0x3b302456	0.0026877127
81	0xbb132d6b	-0.002245749
82	0x3bba9e59	0.005695146
83	0x3bac28f2	0.0052539045
84	0x39bc4724	0.00035911158
85	0x3b75367a	0.0037416504
86	0x3b8f2a18	0.0043690316
87	0xbb7106c5	-0.0036777717
88	0xbb8fca6f	-0.0043881456
89	0x3be1bf91	0.0068892916
90	0x3ba8d5db	0.0051524467
91	0xba919361	-0.0011106544
92	0x38b50ed6	8.633516e-05
93	0xbb10f338	-0.0022117626
94	0x3be886d2	0.00709615
95	0x3bb508b7	0.0055247205
96	0x3c26a4ad	0.010171098
97	0x3b32763d	0.002723112
98	0x3b1e2053	0.0024128153
99	0x3b8661dc	0.004101021
100	0xbbe25131	-0.0069066514
101	0x3af7ff8e	0.0018920766
102	0x3be06833	0.006848359
103	0x3bf540ad	0.0074845166
104	0x3bddd91a	0.0067702653
105	0x3c00704f	0.007839276
106	0x3c913e19	0.017729806
107	0x3be638e8	0.0070258267
108	0x3b884380	0.0041584373
109	0xbad1e911	-0.0016014894
110	0x3c2aa640	0.010415614
111	0xbbcfddb1	-0.0063435663
112	0xbac8540c	-0.0015283837
113	0x3c3ef587	0.011655218
114	0xb982db64	-0.0002495899
115	0xb9a9c1c6	-0.00032378564
116	0x3b870d8b	0.0041214875
117	0x3bdfb3fd	0.006826876
118	0x3b5b4e71	0.0033463503
119	0xba695a4f	-0.00089017017
120	0x3c201f4f	0.00977309
121	0x3c7bab2f	0.015360638
122	0x3a0c6277	0.00053552486
123	0xbc0541a6	-0.008133328
124	0xbbb4db1c	-0.005519284
125	0x39b69c9a	0.00034830422
126	0xb9a80303	-0.000320457
127	0x3c4d91c8	0.012546964
128	0x3b6cbbd0	0.0036122687
129	0x3b53dd16	0.0032327822
130	0xbb21d8f0	-0.0024695955
131	0xbc5b9e12	-0.013404386
132	0x3bab9643	0.0052364185
133	0x3b59049b	0.0033114317
134	0x3b00e1cf	0.0019665842
135	0x3c8cc642	0.01718438
136	0x3bae2fa9	0.00531574
137	0xbc1b76ad	-0.009488744
138	0x3bc8d6b6	0.006129111
139	0xbb955742	-0.004557521
140	0x3b53d815	0.003232484
141	0x3c1ff0eb	0.009762029
142	0xbabfbb54	-0.0014627972
143	0xbab2138b	-0.0013586147
144	0x3c1f7e7d	0.009734747
145	0xbb130c6d	-0.0022437826
146	0x3b78aa0a	0.0037943148
147	0x3b2253b6	0.0024769134
148	0x3c51ceab	0.012805621
149	0x3c202ef9	0.009776824
150	0x3b82346f	0.0039735357
151	0x3c0eff36	0.008727839
152	0x3b0ae9c7	0.002119647
153	0x3c596bf7	0.01327037
154	0xbac83cd7	-0.0015276921
155	0x3bf1956a	0.007372548
156	0xbcbe8f3e	-0.023261663
157	0xbbee9fcd	-0.0072822333
158	0x3bd2cb1b	0.0064329035
159	0x3a0e1dcb	0.00054213096
160	0x3c5684b2	0.01309316
161	0x3983bd19	0.00025127156
162	0x3b91ed03	0.004453303
163	0xbbb975cd	-0.005659795
164	0x3c105471	0.008809195
165	0xbc85ec31	-0.016347976
166	0xbb3a0153	-0.0028382137
167	0x3b89e4dd	0.004208191
168	0x3bc9e998	0.0061618797
169	0x3ad71ea7	0.0016412333
170	0xbb9f4259	-0.004860204
171	0x3c3d744f	0.011563375
172	0x38b0d311	8.431648e-05
173	0x3b05d568	0.002042139
174	0x3b25f139	0.0025320782
175	0xbb2895df	-0.0025724096
176	0x3b94582d	0.004527113
177	0x3abef840	0.0014569834
178	0x3c155d54	0.009116489
179	0xbb4ba2b0	-0.003107231
180	0x3ba7a12e	0.0051156497
181	0xbc223c02	-0.009902002
182	0xbb82ca16	-0.0039913757
183	0x3c4419a9	0.0119690085
184	0x3c7a8261	0.015289874
185	0x3bae022e	0.0053103184
186	0x3c0aa120	0.008461267
187	0xbb4f6567	-0.0031646134
188	0x3bd4f73a	0.0064991983
189	0x3b3108d5	0.002701332
190	0x3c00ea21	0.007868321
191	0x3c573ca4	0.013137016
192	0x3ba9adb2	0.005178177
193	0xbb0fee1f	-0.0021962
194	0xbac2565e	-0.0014826765
195	0x3b0b74d9	0.0021279363
196	0x3bb84c80	0.005624354
197	0x3be1e1e4	0.0068933833
198	0x39edba06	0.0004534276
199	0xba047aed	-0.0005053718
200	0x39c66c63	0.00037846257
201	0x3c037538	0.008023553
202	0x3b93a71d	0.0045060054
203	0x3bfb9216	0.007677327
204	0x3c440434	0.011963893
205	0xbc21e0a6	-0.0098802205
206	0x3c4de56f	0.012566908
207	0xbb314a6f	-0.0027052423
208	0xbac16bdb	-0.0014756875
209	0x3b6d89c3	0.0036245442
210	0x3c1adc3f	0.009451925
211	0x3b0c5019	0.0021410047
212	0xbb7aae6f	-0.0038250943
213	0x3bc7a572	0.0060927207
214	0xbc00d185	-0.007862453
215	0xbc7e11cb	-0.015507172
216	0x3c84ff8e	0.01623514
217	0x3c217622	0.009854825
218	0x3c4adf93	0.012382406
219	0xbb88f690	-0.004179783
220	0x3bf6eb27	0.0075353566
221	0x3bc8e213	0.006130466
222	0x3c583ee2	0.013198586
223	0xbbe60a08	-0.007020239
224	0xbb45e270	-0.0030194782
225	0x3c178736	0.009248545
226	0x3c29b98f	0.010359182
227	0x3b3f45f7	0.002918599
228	0x3b9ddc52	0.004817524
229	0x3acae8f7	0.0015480806
230	0x3a23fc62	0.00062555645
231	0xbc1e5118	-0.009662889
232	0xba85f3bf	-0.0010219737
233	0xbbe47391	-0.0069717844
234	0xb940e84a	-0.00018397081
235	0xbc2cb0ac	-0.010540169
236	0x3c63fb9d	0.01391497
237	0x3c0d4b17	0.00862386
238	0x3b33c5af	0.002743106
239	0xbbe91fac	-0.0071143713
240	0xba55e940	-0.0008160062
241	0xbb19725e	-0.0023414115
242	0xbbb78fa1	-0.0056018387
243	0x3b9d1b39	0.004794505
244	0xbaf3213f	-0.0018549337
245	0x3895e8a6	7.148208e-05
246	0x3c690599	0.014222526
247	0x3acba953	0.0015538133
248	0x3aae64a9	0.0013305146
249	0xbb5941cf	-0.0033150797
250	0x3bb8693e	0.00562778
251	0xba3e9c5b	-0.00072712236
252	0xbbbf516a	-0.0058385627
253	0x3c451964	0.012029979
254	0x3be2bcba	0.0069194706
255	0xbb08f0b0	-0.0020895414

network_body._body_endoder.seq_layers.2.weight f4 [256, 256]
0	0xbd7eb374	-0.06218286
1	0xbddd1af2	-0.10796155
2	0xbd87b20f	-0.06625759
3	0xbd403ef0	-0.046935022
4	0xbce30a23	-0.027714795
5	0x3b9e6f04	0.0048350114
6	0x3d9faa4d	0.07796154
7	0x3cd139fb	0.025540343
8	0xbd9127d5	-0.070876755
9	0x3dacbb94	0.08434215
10	0x3c92660f	0.017870931
11	0x3bb5273c	0.0055283587
12	0x3dc9dd13	0.0985662
13	0xbdca3506	-0.09873395
14	0x3c914ff7	0.017738326
15	0x3cb1810a	0.021667976
16	0x3d4eb5a2	0.050466187
17	0xbd5e8864	-0.05432929
18	0x3847159a	4.7465415e-05
19	0x3dcba6a6	0.09943895
20	0xbe0724b9	-0.13197602
21	0x3d3d940e	0.046283774
22	0x3d3254ba	0.043537833
23	0x3da13ad4	0.07872549
24	0xbc52f84e	-0.012876583
25	0x3baae625	0.0052154236
26	0x3d14c963	0.03632487
27	0xbd8f53ef	-0.06998431
28	0xbd97bbe3	-0.074088834
29	0x3dbc6c5e	0.09200357
30	0xbe5178b6	-0.20456204
31	0xbce96c67	-0.028494073
32	0xbd92bbbf	-0.07164716
33	0x3c9b9801	0.01899338
34	0xbd00246a	-0.031284727
35	0xbdd6ca4a	-0.10487802
36	0xbd76cb55	-0.060252506
37	0xbd9029f0	-0.07039249
38	0x3d364569	0.04449979
39	0xbb114fd6	-0.002217283
40	0xbc10943b	-0.008824403
41	0x3d48fe6a	0.049070753
42	0x3a94111f	0.0011296606
43	0xbda4db92	-0.08049692
44	0xbbde4259	-0.0067828116
45	0x3d48d8b2	0.04903478
46	0xbbf17fe6	-0.007369983
47	0x3d214e69	0.03938142
48	0x3c8bcc11	0.01706508
49	0xbda3dc79	-0.08001036
50	0x3d0c928e	0.034319453
51	0x3d21e022	0.03952039
52	0xbca04e61	-0.019568624
53	0x3caf1688	0.021373048
54	0x3d9ce1f8	0.076602876
55	0xbd8bc033	-0.068237685
56	0xbc97ff26	-0.018554281
57	0xbc4b9547	-0.012425727
58	0xbd1f2056	-0.038849197
59	0xbc7d11a2	-0.0154460985
60	0xbc1ecc2c	-0.009692233
61	0xbded14d6	-0.1157624
62	0xbd8be04d	-0.06829891
63	0xbe0236eb	-0.12716262
64	0xbd0186c9	-0.03162268
65	0xbdb697da	-0.08915682
66	0xbcd183a9	-0.025575476
67	0xbd2e3d7b	-0.0425391
68	0xbdc71ba6	-0.097220704
69	0x3d86930e	0.06571017
70	0xbdb32fa6	-0.087493226
71	0x3bfa4d26	0.0076385913
72	0x3e0f7cae	0.14012405
73	0x3d81f2d9	0.06345148
74	0xbd1b194d	-0.037865926
75	0xbd0cfbb4	-0.03441973
76	0xbd2ced29	-0.04221836
77	0x3d5d020e	0.053957038
78	0x3cf25087	0.029579414
79	0xbba138fa	-0.004920122
80	0x3d2ae5dd	0.04172312
81	0xbd6e162f	-0.058126625
82	0xbc7b3e0c	-0.015334617
83	0xbc96421d	-0.018342072
84	0xbd90691d	-0.07051299
85	0xbd11f0a0	-0.03562987
86	0xbd9d5a13	-0.07683196
87	0x3e0cd735	0.1375397
88	0x3db4d3ee	0.08829485
89	0x3cba7124	0.022759028
90	0x3ca5b857	0.020229502
91	0x3c94957e	0.01813769
92	0xba18efe6	-0.00058340875
93	0x3c87bb97	0.016568942
94	0x3d417aa9	0.04723612
95	0xbdcc97c0	-0.099898815
96	0x3cfa97a2	0.030589882
97	0x3de5429c	0.11194345
98	0xbca4bced	-0.020109618
99	0xbbc23608	-0.005926851
100	0x3d3eaac7	0.046549585
101	0xbdb22ced	-0.08699975
102	0x3dc3cb09	0.0956021
103	0xbd91d8b3	-0.0712141
104	0xbda21616	-0.07914369
105	0x3d85b7bf	0.065291874
106	0xbdb8b171	-0.09018219
107	0x3c8501f3	0.016236281
108	0x3d2e48b7	0.042549815
109	0xbdac808f	-0.08422958
110	0x3d9b50fa	0.075838044
111	0xbdaccc17	-0.084373645
112	0xbae9f47d	-0.0017849352
113	0xbd4138b0	-0.047173202
114	0x3b7cc1e8	0.0038567726
115	0xbd4d29df	-0.05008876
116	0xbcd477af	-0.025935976
117	0x3c8cbc1e	0.017179545
118	0x3d7129f9	0.05887792
119	0x3d1e2214	0.03860672
120	0xbb75c114	-0.0037499117
121	0x3de5ff9a	0.11230393
122	0xbcaea1a1	-0.021317305
123	0x3c1a757b	0.009427424
124	0x3c88611e	0.016647872
125	0x3c86f8e0	0.016476095
126	0xbdb1ec10	-0.086876035
127	0x3d5211b5	0.051286418
128	0xbdd132f0	-0.10214794
129	0xbc4f6482	-0.01265824
130	0x3d8a1cc8	0.06743771
131	0xbd9bc24b	-0.07605418
132	0xbd09ff2b	-0.033690613
133	0xbd892832	-0.0669712
134	0x3d9de764	0.0771015
135	0x3d10ea1b	0.03537951
136	0x3d3a8f07	0.045546558
137	0xbc8e4e45	-0.017371306
138	0x3d94a1f4	0.072574526
139	0xbdbd670d	-0.09248171
140	0x3e2399bc	0.15976614
141	0x3bca7ad0	0.006179191
142	0x3e029363	0.12751536
143	0xbe53d74e	-0.20687601
144	0x3d645645	0.055746336
145	0x3d691c54	0.05691178
146	0x3da7dfa2	0.081969514
147	0x3d5a857e	0.053349964
148	0xbd2cfecf	-0.042235192
149	0xbb12fe43	-0.0022429384
150	0x3d75f29d	0.060045827
151	0xbd35390e	-0.044243865
152	0x3d30d672	0.04317326
153	0x3d967a59	0.07347555
154	0xbcc74578	-0.024325117
155	0x3d409152	0.04701359
156	0x3d887efb	0.066648446
157	0xbd0b64d3	-0.0340317
158	0xbdab7114	-0.08371177
159	0xbd2e224a	-0.04251317
160	0x3d451bee	0.04812234
161	0x3bbbb9c2	0.005728931
162	0x3ddd5608	0.10807425
163	0x3d32c258	0.043642372
164	0x3ccd2630	0.025042623
165	0xbda98fc2	-0.08279373
166	0xbb95ec57	-0.004575293
167	0xbc27a995	-0.010233303
168	0xbd41bc08	-0.04729846
169	0x3d75f197	0.06004485
170	0xbc92b46b	-0.017908296
171	0xbd8368e8	-0.06416494
172	0xb9e0da80	-0.00042887405
173	0x3c673ecb	0.014114092
174	0x3c8eb7e0	0.017421663
175	0x3c202f24	0.009776864
176	0x3d8b9aa0	0.06816602
177	0xbca4f104	-0.020134456
178	0x3d4480e9	0.0479745
179	0x3c9bf345	0.019036898
180	0x3de6ae56	0.11263721
181	0x3da9ecf9	0.08297152
182	0xbd6b195b	-0.057397228
183	0xbafa70bf	-0.0019107087
184	0x3d2d43c9	0.042300973
185	0xbd7dfa74	-0.06200643
186	0xbd25f618	-0.040517896
187	0x3df0aa82	0.11751272
188	0x3c7de504	0.015496496
189	0xbda356df	-0.07975554
190	0x3d7d888a	0.061897792
191	0x3cd5300b	0.026023885
192	0xbc88025a	-0.016602684
193	0x3d730cca	0.05933837
194	0xbcc926b4	-0.024554588
195	0xbd298160	-0.041383147
196	0xbb9cee87	-0.004789177
197	0x3db20a43	0.086933635
198	0xbd527973	-0.051385354
199	0x3d5b921c	0.053606138
200	0xbd7e4bb2	-0.062083907
201	0xbcd4ae4b	-0.025962016
202	0xbcfa5c0d	-0.030561471
203	0xbc08a0e7	-0.008339143
204	0xbc8ac182	-0.016937975
205	0xbd5d9cf5	-0.054104764
206	0x3c8d60b4	0.017258026
207	0xbd762447	-0.06009319
208	0x3cb9ef97	0.022697253
209	0x3d5bc671	0.053656045
210	0x3cc0bffa	0.023529042
211	0x3d441d1b	0.04787932
212	0xbe0e34f9	-0.13887395
213	0x3b9b9b74	0.004748756
214	0xbcc0d906	-0.023540985
215	0x3ce5696b	0.028004369
216	0x3cd0eaa0	0.025502503
217	0xbd3ff3bf	-0.046863314
218	0xbbbd56b5	-0.0057781585
219	0xbddb31f4	-0.10702887
220	0x3d535ce7	0.05160227
221	0xbc4eb82c	-0.012617152
222	0x3e4c0cf1	0.19926812
223	0xbcc76851	-0.024341734
224	0xbce61901	-0.028088095
225	0x3c40eb74	0.011774886
226	0xbdbba0b4	-0.09161511
227	0xbe1e9b50	-0.15488935
228	0xbe3ea8e5	-0.18619116
229	0x3d3b7a3f	0.04577088
230	0x3cd444f1	0.02591178
231	0xbd407243	-0.04698397
232	0xbdadf5cc	-0.08494148
233	0x3d0fd7a7	0.03511777
234	0x3d2f9fbb	0.04287694
235	0xbd307c9f	-0.043087598
236	0xbddecac3	-0.108785175
237	0xbcb787d9	-0.022403644
238	0xbdd1efc0	-0.10250807
239	0xbd4ff130	-0.050767124
240	0xb93574e7	-0.00017305055
241	0x3dd17ed3	0.10229268
242	0x3b04c8cb	0.0020261283
243	0x3cd0e75d	0.025500948
244	0x3c6e332e	0.014538569
245	0xbda1009b	-0.078614436
246	0xbdd8274c	-0.1055437
247	0x3c5d5042	0.0135079045
248	0x3d677f21	0.056517724
249	0x3e13b64f	0.14425014
250	0xbd746fa6	-0.05967679
251	0x3d1b6eba	0.037947394
252	0x3ccdeaf7	0.025136454
253	0xbc87f418	-0.016595885
254	0x3dd3edb7	0.10348075
255	0x3d55b08a	0.052170314

network_body._body_endoder.seq_layers.2.bias f4 [256]
0	0x3bcdb2ff	0.0062774415
1	0x3b3664aa	0.0027830997
2	0x3a9a0b2d	0.0011752598
3	0xba43dd44	-0.0007471631
4	0xbaefc421	-0.0018292704
5	0x3bcb855d	0.0062109665
6	0x3ba5f6cf	0.0050648223
7	0x3b874ea4	0.0041292477
8	0x3c056016	0.008140584
9	0x3b2c33a5	0.00262759
10	0xbaee595f	-0.0018184594
11	0x3bbdf7a7	0.0057973447
12	0x3b880eb1	0.004152142
13	0x3c07e564	0.008294437
14	0xbab70e0c	-0.0013965978
15	0x39936304	0.00028111797
16	0x3b68d21f	0.0035525633
17	0x3c569fc2	0.013099613
18	0x3abe3e96	0.0014514502
19	0x3b9f0816	0.004853259
20	0x3be3e4d9	0.006954771
21	0x3b70b6d9	0.003673008
22	0xbaff2624	-0.0019466323
23	0x3c997e6e	0.018737044
24	0x3b677fed	0.0035324052
25	0x3bee23f6	0.0072674705
26	0x3a05a3b9	0.0005097944
27	0xba47c1aa	-0.0007620106
28	0x3c1bdc4b	0.009512971
29	0xbbc94848	-0.00614265
30	0x393348ca	0.00017097886
31	0x3c4abb9b	0.01237383
32	0x3bae5af9	0.0053209034
33	0xba35e0a0	-0.0006938074
34	0xb9a886b7	-0.00032143827
35	0x3c279fcf	0.010230972
36	0x3be20ef7	0.0068987566
37	0x3c4e6e08	0.012599476
38	0x3bc96734	0.006146336
39	0x3b8019a6	0.0039093075
40	0xbb98dd7b	-0.0046650744
41	0xbab054d8	-0.001345302
42	0x3a67393c	0.0008820479
43	0xbb696895	-0.0035615314
44	0x3bf4ddec	0.007472744
45	0x3b8e8d64	0.004350351
46	0xba1b6625	-0.00059280015
47	0x3b0bea36	0.0021349317
48	0x3c2164e0	0.009850711
49	0x3ab26499	0.0013610303
50	0xbc1bed4e	-0.009517027
51	0x3b3505ec	0.0027621938
52	0x3c72380a	0.014783869
53	0xbbbd0286	-0.005768123
54	0x3a6e90cd	0.00091005565
55	0xbab0f60b	-0.0013501061
56	0x3aa0c2e0	0.0012265109
57	0xba7e670e	-0.00097046874
58	0xbb28c686	-0.0025753095
59	0x3c15dd30	0.0091469735
60	0xbbc4037d	-0.005981861
61	0x3c1476a1	0.009061486
62	0x3c001d29	0.007819452
63	0xbc192f85	-0.009349708
64	0x3ba158b8	0.004923906
65	0xb8cd8df3	-9.801602e-05
66	0x3aae2cb3	0.0013288468
67	0xbb32b311	-0.0027267376
68	0xbb9d2f28	-0.004796881
69	0x3aaf6b92	0.0013383499
70	0x3c1a1eec	0.009406786
71	0x3b4ddcff	0.0031412242
72	0xbbd63648	-0.0065372325
73	0x3be43e75	0.0069654533
74	0x3b648b4b	0.0034873064
75	0xbc6e7ee6	-0.014556622
76	0x3b74d447	0.0037357972
77	0x3b80bdc8	0.0039288737
78	0x3c13cc09	0.009020814
79	0x3b7f9d82	0.0039003794
80	0xbbfc787c	-0.0077047925
81	0x3c0d9bdd	0.008643118
82	0x3b0b3ba7	0.0021245272
83	0xbb934d9a	-0.004495335
84	0x3a6240df	0.00086308824
85	0xbbbb4d54	-0.0057160053
86	0xbb7b044a	-0.0038302117
87	0x3bbc084e	0.0057382947
88	0x3a97252d	0.0011531465
89	0xbaf674fb	-0.0018803173
90	0x3bd66fc8	0.006544087
91	0x3bcd1813	0.0062589734
92	0x3c923064	0.01784534
93	0x3bfdc590	0.0077444986
94	0x3ba6de4a	0.005092417
95	0x3a9432b3	0.0011306613
96	0xb9e6ee6f	-0.00044046665
97	0x3b55a185	0.0032597494
98	0xbbfe1b4b	-0.0077547184
99	0x39cf027b	0.00039483965
100	0x3b1712e3	0.002305203
101	0x3c61d974	0.013784755
102	0x39ab638b	0.00032689827
103	0xbc082538	-0.008309655
104	0x3bb9d272	0.005670839
105	0xbbbdeb21	-0.005795852
106	0x3b982262	0.0046427706
107	0x3b71e95c	0.0036912775
108	0xbba2e44d	-0.004971063
109	0xbb9bcde3	-0.004754768
110	0xba37d439	-0.00070125196
111	0x3b84e8af	0.0040560584
112	0xbb9933d2	-0.004675367
113	0x3b4c3273	0.0031158
114	0x3c22c4f2	0.009934651
115	0x3bb3fc53	0.005492726
116	0xbbaa18d2	-0.005190947
117	0x3c137411	0.00899984
118	0x3bedd20a	0.0072577046
119	0xba92e3ef	-0.0011206846
120	0x3bcbded7	0.006221633
121	0x3b8c53db	0.0042824573
122	0xbc558ce2	-0.013034077
123	0x3badc37d	0.005302845
124	0xbb6a0df4	-0.0035713883
125	0x3c283682	0.010266902
126	0xbbbc89de	-0.0057537397
127	0xbb38d802	-0.0028204923
128	0x3c93dde1	0.018050136
129	0x3b295c2a	0.0025842288
130	0x3a96f37b	0.0011516655
131	0x3bcd31d9	0.006262046
132	0xbbd7111b	-0.0065633184
133	0xbbbf6ded	-0.0058419616
134	0x3aea568d	0.0017878577
135	0xbba78053	-0.005111733
136	0x3b5723c3	0.0032827712
137	0x3b7746aa	0.0037731328
138	0x3bd8b5b2	0.0066134566
139	0x3b4b2545	0.0030997556
140	0x3b77b0f7	0.0037794688
141	0xbb75699e	-0.0037446986
142	0x3acd3d43	0.0015658516
143	0xbb3ffa89	-0.0029293618
144	0xbbb16014	-0.0054130647
145	0x3ba114fc	0.0049158316
146	0xbb6e2286	-0.0036336496
147	0xbbd1dcbf	-0.006404489
148	0xba862028	-0.0010232972
149	0x3b826856	0.003979723
150	0xbb14327a	-0.0022613094
151	0x3b61371f	0.003436513
152	0x3b9e0040	0.004821807
153	0x3b7e8985	0.0038839292
154	0x3bbbe5b1	0.0057341685
155	0x3ca7dc62	0.020490829
156	0x3a75a1fd	0.00093701464
157	0xbb6375c0	-0.0034707636
158	0xbb6441f1	-0.0034829343
159	0x3c24eaf4	0.010065783
160	0x3a972dab	0.0011533996
161	0xbbc0b61b	-0.0058810837
162	0x3bcae0dc	0.006191356
163	0x3995ad5f	0.00028548666
164	0x3b82305d	0.0039730505
165	0x3b9f17b9	0.004855123
166	0x3bd3b998	0.0064613335
167	0x3c02b580	0.007977843
168	0xbb7576f7	-0.0037454942
169	0x3b9652bf	0.004587501
170	0x3bf691e1	0.0075247143
171	0x3bc351f3	0.005960697
172	0x3b683a0d	0.0035434992
173	0xbb57588d	-0.0032859177
174	0xba36675a	-0.00069581496
175	0x3b4e76d8	0.0031503942
176	0x3c1f212e	0.0097125005
177	0x3bc0afdc	0.005880339
178	0xbc17de6b	-0.009269337
179	0x3be360f0	0.006939046
180	0xbc55050e	-0.013001693
181	0xb946d41d	-0.0001896177
182	0x3bf5a5a4	0.0074965525
183	0x3ba6c6ac	0.0050896015
184	0xbc250c90	-0.010073796
185	0x3b394d35	0.0028274779
186	0x3b901ceb	0.0043979785
187	0xbbc2154f	-0.0059229503
188	0x3c0a91fa	0.008457655
189	0xbb21c063	-0.0024681322
190	0x3c12dd37	0.008963875
191	0x3adcebc1	0.0016854928
192	0xbb2f8af5	-0.0026785706
193	0x3c3c494c	0.011492085
194	0x3be668d7	0.007031541
195	0xba6d0357	-0.000904133
196	0x3c6d7ef2	0.014495598
197	0x3c1b24cc	0.009469222
198	0x3b6af21c	0.0035849875
199	0x3bd75e4b	0.00657252
200	0x3a872f67	0.001031381
201	0xbb35026b	-0.002761985
202	0xbbabe28a	-0.0052455114
203	0x3c160afc	0.009157892
204	0x3c8cc913	0.017185723
205	0xbb644085	-0.0034828496
206	0x3a5a7849	0.0008333964
207	0x3c3d9933	0.01157217
208	0xbbc4f50b	-0.0060106567
209	0x3c0ff80a	0.008787164
210	0x3ba9ba50	0.005179681
211	0xbb40f7a9	-0.0029444492
212	0xb70522e2	-7.9355395e-06
213	0x39cb4e03	0.000387773
214	0x3b3d2147	0.0028858946
215	0x3c5115e6	0.012761569
216	0xbb864f6c	-0.0040988233
217	0x3bdc8c4f	0.0067305933
218	0xbabee314	-0.0014563524
219	0xbb7be6b8	-0.003843708
220	0x3c1b36e8	0.00947354
221	0x3c0f551e	0.008748321
222	0xbaa24804	-0.0012381081
223	0xbc1c6c8b	-0.009547363
224	0x3c01dc64	0.00792608
225	0x3b6da9dc	0.0036264574
226	0xb9b449ce	-0.00034387264
227	0x3b4d815c	0.0031357622
228	0xbac7aad8	-0.001523341
229	0xbaf415e2	-0.0018622244
230	0xbc0ec911	-0.00871493
231	0x3c281aa9	0.0102602625
232	0xbb2b4e83	-0.0026139326
233	0x3b27b02f	0.0025587191
234	0x3bd041da	0.0063555064
235	0x393cb5a2	0.0001799674
236	0xbb27abc1	-0.002558455
237	0x3af6936c	0.0018812246
238	0xbb9d3ca4	-0.0047984887
239	0x3c2d20be	0.010566888
240	0x3aafe5b4	0.0013419897
241	0x3c26d178	0.010181777
242	0x3c062879	0.00818836
243	0x3a92edda	0.0011209801
244	0xbb30219e	-0.0026875506
245	0x3bbe1ee3	0.005802022
246	0xb6d6287d	-6.3824104e-06
247	0xbb2ecb4e	-0.0026671472
248	0xb9524eae	-0.00020056471
249	0x3bd8eb34	0.0066198353
250	0xbba5772a	-0.005049606
251	0xbbe0b566	-0.006857562
252	0x3bb28ada	0.0054486813
253	0x3bd0a40a	0.006367211
254	0x3b8ac7d5	0.0042352476
255	0x3bc091fa	0.0058767768

network_body._body_endoder.seq_layers.4.weight f4 [256, 256]
0	0x3d58b9b9	0.052911494
1	0x3d005e03	0.031339657
2	0x3bb6ba63	0.0055764182
3	0x3da5940b	0.080848776
4	0xbbcfe3db	-0.006344301
5	0xbdaad057	-0.08340519
6	0x3c35a4e4	0.011086676
7	0xbc9c26ad	-0.01906141
8	0xbc16829d	-0.009186414
9	0xbb88a35b	-0.004169864
10	0x3d506ed6	0.05088695
11	0x3cfbb21d	0.03072458
12	0xbdffe004	-0.124938995
13	0xbda3b17b	-0.07992836
14	0xbc2b12e7	-0.010441518
15	0x3dbfe4eb	0.093698345
16	0x3da738a1	0.08165098
17	0xbdbf075b	-0.09327575
18	0x3db327d7	0.08747833
19	0x3d86f533	0.06589737
20	0x3c1a1cfb	0.009406324
21	0xbca7a151	-0.020462664
22	0x3ca33e4b	0.019927165
23	0xbc40dbc3	-0.011771145
24	0xbc35aa8b	-0.011088024
25	0x39fc8b02	0.00048168754
26	0xbd4af8c5	-0.04955365
27	0x3c427bc0	0.011870325
28	0xbd8abf45	-0.06774763
29	0x3c3c95b8	0.011510305
30	0xbd68280f	-0.056678828
31	0x3d5a7cea	0.053341784
32	0xbd12ba56	-0.035822235
33	0xbe0763a3	-0.13221602
34	0x3cb15b77	0.02165006
35	0x3e8e05e6	0.27738875
36	0xbd80af40	-0.06283426
37	0xbd9fbd37	-0.07799762
38	0xbd4e75ed	-0.05040543
39	0x3dd6addc	0.1048238
40	0x3de8c659	0.11365957
41	0xbd75a68e	-0.059973292
42	0xbdd0b6ee	-0.10191141
43	0xbd0b1125	-0.033951897
44	0x3d918143	0.07104733
45	0xbc374183	-0.011185053
46	0xbcf9f3d2	-0.03051177
47	0x3b7ad642	0.003827468
48	0x3d376c99	0.0447813
49	0x3d0ada13	0.033899378
50	0x3d25137a	0.040301777
51	0xbd9a3e4e	-0.07531415
52	0x3d36fa95	0.044672567
53	0x3cae17ca	0.021251578
54	0x3e396174	0.18103582
55	0xbd8edd22	-0.069757715
56	0x3d8329f0	0.06404483
57	0xbd154b00	-0.03644848
58	0x3d856958	0.06514233
59	0xbd056247	-0.032564428
60	0xbd35f4c9	-0.0444229
61	0xbc131f90	-0.008979693
62	0x3dbdf708	0.09275633
63	0xbc2658e6	-0.010153031
64	0xbc8922bc	-0.016740195
65	0x3d77720b	0.060411494
66	0xbd8829ef	-0.06648623
67	0x3d0366dc	0.032080516
68	0x3c893b59	0.016751932
69	0x3d513111	0.051072184
70	0x3dc4b1eb	0.09604248
71	0xbd1276cc	-0.035757825
72	0x3dae06c8	0.08497387
73	0x3d7ece9f	0.062208768
74	0x3d9047ab	0.070449196
75	0x3d34f1eb	0.044176023
76	0xbd5d0887	-0.05396321
77	0x3dc280bc	0.094972104
78	0xbd0266db	-0.031836372
79	0xbcfea816	-0.031086009
80	0xbd9431d3	-0.07236066
81	0xbd76966d	-0.06020205
82	0xbb9cda51	-0.0047867675
83	0xbd9641dc	-0.073367804
84	0xbb368314	-0.0027849125
85	0xbda9b398	-0.08286208
86	0xbd64f71e	-0.05589973
87	0xbccfa6cb	-0.025348088
88	0x3cc22554	0.02369944
89	0x3c5c0eaf	0.013431235
90	0x3da28936	0.07936327
91	0x3d0cae58	0.034345955
92	0x3d2ec1b3	0.042665195
93	0xbc04164e	-0.0080619585
94	0xbd230978	-0.039803952
95	0xbd3991e6	-0.045305155
96	0xbcd088f2	-0.025455926
97	0xbe2f6731	-0.17129208
98	0x3d8a391d	0.06749175
99	0xbd5aead0	-0.05344659
100	0x3dab247b	0.083565675
101	0xbd891c8b	-0.06694897
102	0xbb07bd0a	-0.0020712041
103	0xbc406d31	-0.011744783
104	0xbb986766	-0.004650998
105	0x3d6f4f33	0.05842514
106	0x3ca4a287	0.02009703
107	0xbcc61326	-0.024179053
108	0x3bac287c	0.0052538496
109	0xbd317da9	-0.04333273
110	0x3cf3271f	0.02968174
111	0x3e2017a6	0.15634021
112	0xbcb192c2	-0.021676425
113	0x3da7fb0c	0.0820218
114	0xbdfcdc01	-0.1234665
115	0xbe71a49d	-0.23597951
116	0xbcc7663f	-0.024340747
117	0xbd38e40d	-0.04513936
118	0x3caa4dee	0.020789113
119	0xbc6ef203	-0.014584067
120	0x3d82a7f4	0.06379691
121	0x3d89b559	0.067240424
122	0x3d84e364	0.06488684
123	0xbac67cee	-0.0015143433
124	0xbd627cea	-0.05529491
125	0xbd1a3f3b	-0.037657958
126	0xbcc19537	-0.023630721
127	0x3d5b7793	0.05358083
128	0x3d8f68fe	0.070024475
129	0x3ca457ac	0.020061336
130	0xbdd6d1f3	-0.104892634
131	0x3de5d78e	0.112227544
132	0x3dba76ce	0.091046914
133	0x3cc201e0	0.023682535
134	0xbd64e7e5	-0.055885214
135	0xbbac39d7	-0.0052559185
136	0xbbb75aae	-0.0055955267
137	0xbc99b9b7	-0.018765314
138	0xbd04caef	-0.032420095
139	0xbd28698d	-0.041116286
140	0xbd3c6499	-0.045994375
141	0xbd93aebc	-0.07211062
142	0x3d9cf3f4	0.07663718
143	0xbddece60	-0.10879207
144	0xbdde9996	-0.10869138
145	0xbdae9320	-0.085241556
146	0x3d879426	0.06620054
147	0xbc673048	-0.014110632
148	0xbe2ca44e	-0.16859552
149	0x3d0b942c	0.034076855
150	0xbd23fbc4	-0.040035024
151	0x3cd3070b	0.025760194
152	0x3cb65af7	0.022260172
153	0xbe1817d0	-0.14852834
154	0xbd48ada4	-0.04899372
155	0x3d7b7c51	0.061397854
156	0x3e0eb409	0.13935865
157	0xbdb7255a	-0.08942671
158	0xbe0138cc	-0.12619323
159	0xbdc96804	-0.098342925
160	0xbde929a8	-0.113848984
161	0x3cc47aa2	0.023984257
162	0x3cd912c7	0.026498212
163	0xbca2b628	-0.01986225
164	0x3d8c9083	0.06863501
165	0x3d1e4819	0.038642976
166	0xbd103caa	-0.035214104
167	0xbd5d3a47	-0.054010656
168	0x3d4a3333	0.049365234
169	0x3d8e4c91	0.06948198
170	0x3de0905e	0.10965036
171	0xbca3daf7	-0.020001872
172	0xbcdf91d0	-0.027291209
173	0x3d1c7168	0.03819409
174	0x3da0cb3a	0.078512624
175	0xbcc8e6d2	-0.024524126
176	0x3cc8a3aa	0.024492104
177	0x3db043b4	0.08606663
178	0xbd94d5b9	-0.07267327
179	0x3da0e563	0.07856252
180	0x3bee0fa5	0.0072650486
181	0x3bc34421	0.0059590493
182	0x3deda679	0.11604018
183	0x3da7aee6	0.08187656
184	0x3ceda96a	0.029011447
185	0x3c26ec2e	0.010188146
186	0xbd82c3a0	-0.06384969
187	0x3dacadb3	0.08431568
188	0xbd8e3485	-0.06943611
189	0xbd0bbbf9	-0.03411481
190	0xbd84b9fd	-0.06480787
191	0x3da0c28a	0.078496054
192	0xbd1dee94	-0.038557604
193	0x3dd0e61f	0.10200142
194	0xbc6a8103	-0.014312985
195	0x3c03c81a	0.008043313
196	0x3d83f6f6	0.064435884
197	0xbdcafad5	-0.09911124
198	0x3d2b7867	0.04186287
199	0x3d2f4079	0.042786095
200	0xbb65ac5f	-0.0035045368
201	0x3db98194	0.09057918
202	0x3cd5b321	0.026086392
203	0x3d8bb02b	0.06820711
204	0xbd99ecb7	-0.07515853
205	0xbd98ee73	-0.074673556
206	0x3d77bc01	0.06048203
207	0xbcf8309c	-0.030296616
208	0xbbeab406	-0.0071625737
209	0xbe02530c	-0.12726992
210	0xb9786b60	-0.00023691123
211	0x3c3c9e49	0.0115123475
212	0xbd8c2800	-0.06843567
213	0xbc4f874a	-0.012666533
214	0xb9f59c12	-0.00046846323
215	0xbd974dfa	-0.0738792
216	0xbd14983c	-0.036277995
217	0xbd7d7b36	-0.06188508
218	0x3d0de8d2	0.034645863
219	0x3c231cbe	0.009955583
220	0x3d9ff3e1	0.07810188
221	0xbdcea61f	-0.10090279
222	0x3dd54114	0.10412803
223	0xbc9a03e0	-0.018800676
224	0x3d2ae5d8	0.041723102
225	0xbcbfea4c	-0.023427151
226	0xbcf2cf7f	-0.029639957
227	0xbd179072	-0.03700299
228	0xbdd9447b	-0.10608765
229	0x3bbb8380	0.005722463
230	0x3d4750c2	0.048661
231	0x3dd1f85a	0.102524474
232	0x3d79a1df	0.060945388
233	0x3ccaaab9	0.02473961
234	0xbdbf416f	-0.09338652
235	0xbc1a8a21	-0.009432347
236	0x3ca0c943	0.019627219
237	0xbc444ff3	-0.011981952
238	0x3d1b48e7	0.037911322
239	0xbd680be0	-0.05665195
240	0xbbacf8ea	-0.0052786963
241	0xbd4774ff	-0.04869556
242	0x3c186c47	0.009303159
243	0xbd5bb635	-0.053640563
244	0x3dbb168e	0.09135161
245	0xbe513c3f	-0.20433138
246	0xbd32dbcc	-0.043666646
247	0xbd33092f	-0.04370993
248	0x3c0f6205	0.008751397
249	0xbd78f007	-0.060775783
250	0xbdb6d662	-0.08927609
251	0xbd8ff15c	-0.070284575
252	0x3d38a443	0.045078527
253	0x3d4cd1a3	0.050004613
254	0xbca97fcd	-0.020690823
255	0x3dba7c71	0.091057666

network_body._body_endoder.seq_layers.4.bias f4 [256]
0	0xbb77837a	-0.0037767575
1	0x3b8b58ec	0.0042525437
2	0x3b59dce7	0.003324324
3	0x39462a24	0.0001889845
4	0xbbc45cfe	-0.005992531
5	0x3b4e4d1c	0.0031479066
6	0xbc3224bd	-0.010873017
7	0x3b9d80c2	0.004806609
8	0xbb8f932f	-0.0043815593
9	0xbb44af13	-0.003001158
10	0xbbe11baa	-0.006869753
11	0xb98eeaaf	-0.00027259203
12	0x3c3a5a61	0.011374087
13	0x3c1da9ee	0.009623034
14	0xbb821efa	-0.003970978
15	0xba13befd	-0.00056360645
16	0x3b8eaf9a	0.0043544294
17	0x3b9948d7	0.0046778726
18	0xbc22d2ec	-0.009937983
19	0xbbc347b7	-0.005959477
20	0xbb333542	-0.0027344977
21	0xba0f04bf	-0.00054557243
22	0x3a56afa4	0.00081896246
23	0xbaa6d4e4	-0.0012728241
24	0xbb9f5d57	-0.004863422
25	0xbad486f3	-0.0016214534
26	0x3bf6e0fe	0.0075341454
27	0x3abe08d5	0.0014498482
28	0x3c11ff6d	0.008910996
29	0xbb1bc510	-0.0023768581
30	0x3c6b18f1	0.014349208
31	0x3c3b133a	0.011418158
32	0xb91e457e	-0.00015093942
33	0xbbae3495	-0.005316327
34	0x3a1ba521	0.0005937387
35	0xba95949e	-0.0011412089
36	0x3c5fa02a	0.013649026
37	0xba31b5d8	-0.0006779111
38	0xbaf34778	-0.0018560728
39	0x3c1cdd33	0.009574222
40	0xbbcf1db8	-0.0063206814
41	0x3a062e03	0.00051185506
42	0x3baa7655	0.0052020946
43	0x3bf9dd07	0.0076252255
44	0x3a00d276	0.00049141736
45	0xbbd3c931	-0.006463193
46	0x3c229586	0.0099233445
47	0x3ba16f22	0.004926578
48	0x3c6e45a5	0.014542972
49	0xbb587eaf	-0.0033034494
50	0x3b610189	0.003433319
51	0x3b57c4d8	0.0032923725
52	0x39637fe8	0.00021696056
53	0xbb746376	-0.0037290729
54	0x3c5f4dca	0.013629386
55	0x3bed1989	0.00723571
56	0xbc08c365	-0.008347367
57	0x3c492773	0.012277472
58	0xbada349c	-0.0016647759
59	0x3b8007a4	0.003907161
60	0x3c917494	0.017755784
61	0xbbcd277e	-0.0062608114
62	0x3a994969	0.0011694852
63	0x3c1b4716	0.009477397
64	0xbc0cdf79	-0.008598202
65	0xbc0210cf	-0.007938578
66	0x3bea598c	0.007151788
67	0x3bb6e417	0.0055813896
68	0x3c1381ec	0.009003144
69	0x3a73deec	0.00093029323
70	0xbbd3fb7b	-0.006469188
71	0x3aef5b83	0.0018261526
72	0x3b79c6b1	0.0038112814
73	0xbb36b559	-0.0027879088
74	0xbb783112	-0.0037871045
75	0xbb76ff3c	-0.0037688753
76	0xbb4c8681	-0.00312081
77	0x3bcd5422	0.006266133
78	0xbbf6eaaf	-0.0075353007
79	0xbb80aad6	-0.003926615
80	0x3c2e93ee	0.010655386
81	0xba3c713d	-0.00071885047
82	0x3b8d98ef	0.0043212096
83	0xbbd25216	-0.006418477
84	0xbbcc2a40	-0.0062306225
85	0xbb26ea67	-0.0025469305
86	0x3c1bca96	0.0095087495
87	0x3c872bdf	0.016500412
88	0xbba0e84e	-0.0049105054
89	0x3c449263	0.011997792
90	0x3c0bcdb9	0.008532935
91	0x3b99882b	0.004685422
92	0x3b35aaa0	0.0027720109
93	0xbb6eb0a9	-0.0036421216
94	0x3c0b6add	0.008509365
95	0x3c0dda84	0.008658055
96	0xbbd46bbb	-0.006482569
97	0xbba0eacf	-0.004910804
98	0x3b4ed602	0.0031560664
99	0x3b33823a	0.0027390854
100	0xbb2bed91	-0.002623413
101	0xbb4d1fd0	-0.003129948
102	0xba51f956	-0.0008009871
103	0x3c876ecd	0.016532326
104	0xb96c2648	-0.00022520975
105	0xbba8565a	-0.005137247
106	0xbb650feb	-0.0034952115
107	0xbc4192e2	-0.011814805
108	0xba8015bc	-0.0009772102
109	0x3bd460d5	0.00648127
110	0xb93019eb	-0.00016794323
111	0xbbd98f33	-0.006639385
112	0x3c243f7a	0.0100249
113	0x3b2e8d9e	0.0026634703
114	0x3a35a963	0.00069298426
115	0x3c610a97	0.013735435
116	0xba309dbd	-0.0006737372
117	0xbc362c58	-0.011118971
118	0x3c00f10b	0.007869969
119	0x3c251489	0.010075697
120	0xbbd07929	-0.0063620997
121	0xbb96843b	-0.0045934
122	0xba87a7e1	-0.0010349714
123	0xbc084ada	-0.008318627
124	0x3ba35962	0.0049850205
125	0x3bca7e63	0.0061796173
126	0x3c66976b	0.014074187
127	0x3c2e2973	0.010629999
128	0xb99e54aa	-0.00030199188
129	0x3c821340	0.01587832
130	0x3ac2dde1	0.001486715
131	0xbbe18558	-0.006882351
132	0xbbb3fdaf	-0.005492888
133	0x3a30ca28	0.0006743991
134	0x3c028124	0.00796536
135	0x3c3d5603	0.011556151
136	0xbb9d0fd1	-0.004793145
137	0xbb940c12	-0.0045180405
138	0x3c02df09	0.007987746
139	0x3c2ae180	0.01042974
140	0x3c028095	0.007965227
141	0x38d86654	0.00010318743
142	0xbad19b55	-0.0015991727
143	0xbb88a4ea	-0.00417005
144	0x3ac8669e	0.0015289371
145	0xbc2a9c9b	-0.010413314
146	0xbbfd75cc	-0.0077349897
147	0xbb57b938	-0.0032916795
148	0x3c367ecb	0.011138628
149	0x3a6aac89	0.00089521013
150	0xbb2e8dd8	-0.0026634838
151	0xbbe0ef2e	-0.00686445
152	0xbb02b06a	-0.0019941577
153	0xba2c95cb	-0.00065836
154	0x3bb719c0	0.0055877864
155	0xbb417f22	-0.002952524
156	0xbb1f8736	-0.0024342067
157	0x3b4b31cd	0.0031005025
158	0xba0ffdda	-0.0005492844
159	0xbbc39b7c	-0.005969463
160	0xbb8461b8	-0.0040399693
161	0x3bac5f96	0.005260418
162	0x394e26cb	0.00019660142
163	0x38b0db31	8.4331616e-05
164	0x3c43fddb	0.011962379
165	0x3b9da56b	0.004810979
166	0x3c39a7e1	0.011331529
167	0xbb9c2b56	-0.0047659082
168	0xbb7bf44a	-0.0038445168
169	0x3c3e69ba	0.011621887
170	0xbbb7a077	-0.0056038457
171	0x3c0b97c8	0.008520074
172	0x3ba40dcc	0.0050065275
173	0xbb1e26c4	-0.0024131993
174	0x3c50f76c	0.0127543025
175	0xbbc259a4	-0.005931096
176	0x3ad5dd46	0.0016316555
177	0x3b120d91	0.0022285918
178	0x3b749267	0.0037318708
179	0x3c22398e	0.009901417
180	0x3b8895ac	0.004168233
181	0x3be92c67	0.007115889
182	0x3b0cce2f	0.00214852
183	0x3be210e9	0.0068989885
184	0xbb3d30a7	-0.002886811
185	0xbc0c612c	-0.008568089
186	0x3b744e75	0.003727821
187	0x3b06008c	0.0020447103
188	0x3c0d5e30	0.008628413
189	0x3b2b748d	0.0026162
190	0x3c8a0d58	0.016852066
191	0x3988afbf	0.00026070882
192	0x3c6e88ad	0.014558953
193	0x3b9e690c	0.0048343
194	0x39fa09fa	0.0004769115
195	0xbbbd41a8	-0.005775649
196	0xbc036ddb	-0.008021797
197	0x3bf3e681	0.0074432497
198	0x3bed4db3	0.0072419285
199	0x3a9a8eb1	0.0011791793
200	0xbbd60d87	-0.0065323743
201	0x3b92ecbc	0.0044837873
202	0x3c222d3e	0.009898482
203	0x3bda44a1	0.0066610132
204	0xbbef13d2	-0.007296064
205	0xb9b02559	-0.00033597162
206	0xbc323567	-0.01087699
207	0xbb2e16ae	-0.002656381
208	0x3a8ec65e	0.0010892858
209	0x3c1ba653	0.009500104
210	0x3aa64b2e	0.00126872
211	0x3a86f0e3	0.0010295179
212	0x3cadfef3	0.021239733
213	0xb9fc86a2	-0.00048165495
214	0x3be7d48e	0.007074899
215	0x39c5e208	0.00037743174
216	0xba09943a	-0.0005248223
217	0xbb6ee976	-0.0036455072
218	0x3a96259f	0.0011455304
219	0x3aa3e5a3	0.001250435
220	0xbc3479f0	-0.0110154
221	0xbb46fd52	-0.0030363393
222	0x3b7f194d	0.0038924993
223	0xbb8e7286	-0.0043471484
224	0x3c0a1b12	0.008429306
225	0x3bd99e35	0.006641174
226	0xbb998507	-0.0046850475
227	0x3b34b8d6	0.002757599
228	0xbacf2f08	-0.0015806863
229	0xb9538a8c	-0.00020174141
230	0x3bc61d25	0.006045955
231	0x3a0878da	0.00052059966
232	0xbbaa0716	-0.005188833
233	0x3983d75b	0.0002514672
234	0x3bd4eeca	0.0064981924
235	0xbb60fd84	-0.0034330795
236	0xba5a27db	-0.0008321979
237	0x3c0a9ceb	0.008460264
238	0xba2bdcbb	-0.0006556024
239	0x3be1bd52	0.006889024
240	0x3a7bb33c	0.0009601598
241	0xbc62be5d	-0.013839331
242	0x3a66a945	0.0008799027
243	0x3c514927	0.0127737885
244	0x3c57ee08	0.01317931
245	0x3c830ad8	0.015996382
246	0x3b6ccbec	0.003613229
247	0xbbc49ce8	-0.00600015
248	0xbb8c7832	-0.0042867893
249	0xba1c2e7b	-0.0005957854
250	0x3babb4c7	0.005240056
251	0x3c0c3cae	0.008559389
252	0x3aaa9ce2	0.0013016725
253	0xbc16d357	-0.009205661
254	0x3bf904d1	0.007599451
255	0x3bc48e3a	0.0059984

action_model._discrete_distribution.branches.0.weight f4 [4, 64]
0	0x3d97cbb4	0.074119
1	0x3d675bcf	0.05648404
2	0xbd3ef8ee	-0.046624117
3	0x3b6e9b9b	0.0036408666
4	0xbd30ee7d	-0.04319619
5	0xbcdd5e53	-0.027022516
6	0x3d5eeef2	0.054427095
7	0x3d71176b	0.058860224
8	0x3d7c2662	0.061560042
9	0xbd345660	-0.044027686
10	0xbd413596	-0.047170244
11	0x3d93004b	0.0717779
12	0xbd8da78f	-0.06916725
13	0xbd73d89a	-0.05953274
14	0xbd6e1495	-0.058125097
15	0x3cfdfc3c	0.031004064
16	0xbd28f414	-0.041248396
17	0x3d8abc2b	0.067741714
18	0xbd8c041f	-0.068367235
19	0xbdaa0021	-0.08300806
20	0xbdac4a8d	-0.08412657
21	0xbd2112e9	-0.039324675
22	0x3d755e9e	0.059904687
23	0x3d4a86ce	0.049444966
24	0xbd841ece	-0.06451188
25	0xbc96cdc6	-0.018408667
26	0x3d338aa1	0.04383338
27	0x3d5e578b	0.054282706
28	0x3d8cd80b	0.068771444
29	0xbd2608af	-0.040535625
30	0x3d8b5480	0.068032265
31	0xbd4b77ef	-0.049674924
32	0x3d895991	0.067065366
33	0xbd827e57	-0.06371754
34	0xbd8f48ad	-0.06996284
35	0xbd38f929	-0.045159493
36	0xbcbf6574	-0.023363806
37	0x3db0897b	0.08619972
38	0xbd9074a8	-0.070535004
39	0x3d9010ea	0.07034476
40	0x3dabb005	0.083831824
41	0xbd5664da	-0.052342273
42	0x3db08af2	0.08620252
43	0x3d5abd3e	0.05340313
44	0x3d857691	0.06516755
45	0x3d78d78a	0.06075243
46	0x3d866091	0.06561387
47	0xbd62a21f	-0.055330392
48	0x3d7ad9f7	0.061243024
49	0x3d7d6984	0.061868206
50	0x3caffe96	0.0214837
51	0x3d8e3ccd	0.069451906
52	0x3ca14ac1	0.019688966
53	0x3d70d5eb	0.058797758
54	0x3d5751df	0.052568313
55	0x3d785819	0.06063089
56	0x3d7aa557	0.061192837
57	0x3d3e42e9	0.04645053
58	0x3cd5503e	0.026039239
59	0x3d6230d1	0.055222336
60	0x3d9f4a16	0.07777803
61	0xbd5e1c6e	-0.05422633
62	0x3d6ec130	0.058289707
63	0xbd7d9b88	-0.061915904
64	0xbc85ea00	-0.016346931
65	0x3cf3a11a	0.029739905
66	0x3d945fd6	0.07244842
67	0x3de42f94	0.11141887
68	0xbd07e806	-0.03318026
69	0xbda809b4	-0.08204976
70	0xbd31b71f	-0.04338753
71	0xbb867b51	-0.004104056
72	0x3d3bfde2	0.04589642
73	0xbcdf1985	-0.027233848
74	0xbc95870e	-0.018252876
75	0x3d253966	0.040337943
76	0xbd986d9c	-0.07442781
77	0xbc2fa395	-0.010720153
78	0xbd42bd37	-0.04754373
79	0x3d92c4c4	0.07166436
80	0xbd86eab2	-0.06587733
81	0x3d8c2ba5	0.06844262
82	0xbd037041	-0.032089476
83	0xbd4487bb	-0.047981005
84	0xbd2289a6	-0.039682053
85	0xbcda762c	-0.026667677
86	0x3da12413	0.07868209
87	0xbc37de4c	-0.011222433
88	0xbc90427e	-0.017609831
89	0x3d0b55e3	0.034017455
90	0x3d5b4217	0.053529825
91	0x3d031a1c	0.03200732
92	0x3d789432	0.060688205
93	0xbd30239f	-0.04300272
94	0x37df8acd	2.6648306e-05
95	0xbda29c99	-0.07940025
96	0xbd8d81d0	-0.069095254
97	0xbd493752	-0.049125023
98	0xbcfd995f	-0.030956922
99	0xbd34b670	-0.0441193
100	0xbdc85ad7	-0.09782951
101	0x3d346b77	0.0440478
102	0xbbe19b17	-0.006884943
103	0xbd23ee14	-0.04002197
104	0x3cac4325	0.02102811
105	0xbd52d51f	-0.05147278
106	0xbdabce7f	-0.083889954
107	0x3d99ed44	0.07515958
108	0x3d524e35	0.051344115
109	0x3d0963e4	0.03354253
110	0xbcd11c1b	-0.025526097
111	0xbd363aab	-0.044489544
112	0x3d109255	0.035295803
113	0x3d23814f	0.03991824
114	0x3d32927c	0.04359673
115	0x3d8ae572	0.067820445
116	0xbdc38e64	-0.09548643
117	0x3d05c4d7	0.032658424
118	0x3cb475e8	0.022028878
119	0x3ce3d2cc	0.027810477
120	0x3cdbe0aa	0.026840527
121	0x3d72ac3b	0.059246283
122	0x3d7fc8ed	0.062447477
123	0x3d7c69ef	0.061624464
124	0x3d62134c	0.055194184
125	0xbd8a9d69	-0.06768305
126	0x3d938081	0.072022445
127	0xbcdc6410	-0.026903182
128	0x3d4b9dad	0.04971092
129	0x3d7a556d	0.061116625
130	0xbdd71406	-0.10501866
131	0xbdb57cde	-0.08861707
132	0xbd9f436d	-0.07776532
133	0x3dd031d1	0.10165752
134	0x3dafa565	0.085764684
135	0x3d6409a3	0.055673253
136	0x3c827d83	0.01592899
137	0xbd4af54a	-0.049550332
138	0xbd7d010a	-0.06176857
139	0x3cccab21	0.024983944
140	0x3da6156d	0.081095554
141	0xbd953035	-0.072845854
142	0xbb9a578f	-0.004710145
143	0xbca4c3e9	-0.020112948
144	0x3d3f7889	0.04674581
145	0x3cc6b2f2	0.02425525
146	0xbd45aa6e	-0.048258238
147	0x3c982e16	0.018576663
148	0xbc046a08	-0.00808192
149	0xbd0aef3a	-0.03391955
150	0x3bce0ae7	0.0062879208
151	0x3d8c5193	0.068514965
152	0xbd815872	-0.06315698
153	0xbd9bef2b	-0.07613977
154	0xbd1263a8	-0.03573957
155	0x3d2a7cfd	0.041623104
156	0xbca869f7	-0.02055834
157	0xbd14f7d8	-0.036369175
158	0x3d818d3b	0.06325766
159	0x3c0bd045	0.008533542
160	0x3dbcff4b	0.09228381
161	0xbd30112a	-0.04298512
162	0xbd9545a2	-0.07288672
163	0xbc7be671	-0.015374766
164	0x3d9dfacb	0.077138506
165	0x3d4635b7	0.04839107
166	0xbd9b9209	-0.07596213
167	0x3d837b2c	0.064199775
168	0x3d22e8e2	0.039772876
169	0xbca4e98b	-0.020130893
170	0x3d8ca8ab	0.06868108
171	0xbd6f0491	-0.058353964
172	0x3d57e022	0.052703984
173	0x3d6dcd11	0.058056895
174	0x3da02426	0.07819395
175	0xbd2dced0	-0.04243356
176	0x3d173b34	0.036921695
177	0x3d578d56	0.052625023
178	0x3d417dd4	0.04723914
179	0xbc132474	-0.008980859
180	0x3db2a66c	0.08723149
181	0x3d3d68ef	0.04624265
182	0x3ca93647	0.020655764
183	0x3d366dec	0.044538423
184	0x3d8698bf	0.06572103
185	0xbd11aea2	-0.035566933
186	0x3bfe9cb0	0.0077701434
187	0x3d0e088c	0.03467612
188	0xbd94361a	-0.072368816
189	0xbc592cd7	-0.01325532
190	0xbc7499ab	-0.014929215
191	0xbd5a7f25	-0.05334391
192	0xbdf7eee3	-0.12106111
193	0xbdf98c74	-0.121849924
194	0x3dc38978	0.095477045
195	0x3c94cae7	0.018163158
196	0x3e07308d	0.13202114
197	0x3c11a5c2	0.008889617
198	0xbdbcbdba	-0.09215875
199	0xbdfc7f6c	-0.12328991
200	0xbe0ec4e9	-0.13942303
201	0x3df4692a	0.11934121
202	0x3dfa2fe5	0.122161664
203	0xbdcf462e	-0.101208076
204	0x3d8b02fc	0.067876786
205	0x3de0006c	0.109375805
206	0x3dea7983	0.11448958
207	0xbdf09b9a	-0.11748429
208	0x3de0ce9f	0.1097691
209	0xbdfb406e	-0.12268148
210	0x3df0e8b7	0.11763137
211	0x3deaec5b	0.114708625
212	0x3dec4f6c	0.11538586
213	0x3df744a5	0.1207364
214	0xbdf4d4e1	-0.11954666
215	0xbdd7fb02	-0.10545923
216	0x3e02d504	0.12776572
217	0x3de9a0c5	0.114076175
218	0xbda3f72a	-0.08006127
219	0xbde12bfe	-0.10994719
220	0xbddb8fbc	-0.107207745
221	0x3dffe712	0.12495245
222	0xbdf1b377	-0.11801808
223	0x3dfa00ad	0.1220716
224	0xbdb7282e	-0.089432105
225	0x3dd35603	0.1031914
226	0x3dd02ed1	0.101651795
227	0x3e0129c6	0.12613592
228	0x3d997d32	0.07494582
229	0xbe03ca32	-0.128701
230	0x3de8526f	0.11343848
231	0xbdcbaec1	-0.09945441
232	0xbdc9734d	-0.09836445
233	0x3ded5a31	0.11589468
234	0xbdd98810	-0.10621655
235	0xbdad0a68	-0.084492505
236	0xbdd66b80	-0.10469723
237	0xbdfe5a69	-0.12419588
238	0xbdf977fe	-0.1218109
239	0x3df1da6b	0.11809238
240	0xbdd54e7d	-0.10415361
241	0xbdd78e9a	-0.10525246
242	0xbdfff85e	-0.12498544
243	0xbde9e775	-0.114211
244	0x3ce97ddf	0.028502403
245	0xbe0141dc	-0.1262278
246	0xbe019bc3	-0.12657075
247	0xbdddd125	-0.10830907
248	0xbde2aa0d	-0.11067591
249	0xbdaf0a4a	-0.08546884
250	0xbdda2502	-0.1065159
251	0xbdd767cd	-0.10517845
252	0xbdb22c28	-0.086998284
253	0x3dde08aa	0.10841496
254	0xbdfafb2a	-0.12254937
255	0x3e0030f1	0.1251867

action_model._discrete_distribution.branches.0.bias f4 [4]
0	0x3d41c01f	0.04730236
1	0x3cf51bb4	0.029920436
2	0x3d208a7b	0.039194565
3	0xbdc78310	-0.09741795
