results/FullyAbstract/bachelor/bachelor-113452.onnx (onnx, 76519 bytes, 9 tensors)

network_body._body_endoder.seq_layers.0.weight f4 [64, 7]
0.46936452 -0.1292918 -0.7029783 -0.2043985 0.45139357 0.59175557 -0.5663167 0.2750226
0.082408085 0.21779628 0.10499969 0.10418195 0.10343391 -0.0431643 -0.59278464 -0.06787738
0.30395624 -0.06406966 -1.1744206 -0.23564453 -0.5099029 -0.89147776 -0.2644017 0.4871625
0.13037542 0.18471055 -0.12989548 -0.69782954 -0.22632158 -0.038844217 0.39448136 -0.0058265445
0.2791093 0.036760468 -0.16527814 0.23090947 -0.35399696 0.2474058 -0.4259238 -0.2721139
0.2980911 0.13334279 0.120320596 -0.26526657 -0.21172433 -0.04565626 0.31226203 0.13967466
0.3996099 -0.06168376 0.30698088 -0.42282566 0.62730217 -0.43790847 0.11354345 0.09067765
-0.8309466 -0.31700018 -0.5050984 0.016143037 0.03321239 -0.44066536 -0.72892857 -0.4729606
-0.42824605 0.38887 -0.3064413 0.33596233 0.16499355 -0.0037510688 0.028554427 -0.3323432
0.35834748 -0.0049784007 0.27458835 -0.1292615 -0.4092387 -0.86569285 -0.55641603 0.3482634
0.34542635 -0.011272543 -0.047092184 0.032254484 -0.4014256 0.3439662 -0.5486094 0.095582835
-0.05802921 -0.0012121291 -0.15535498 -0.56670636 -0.88031226 0.66089946 0.21048684 -0.39054117
0.637763 -0.26295176 0.29913196 -0.18135177 -0.49821615 -0.60531884 -0.37864575 -0.30842787
0.27574605 -0.073812544 0.09808444 0.3674131 0.16460636 -0.19833662 -0.14322075 0.3999594
0.44943193 -0.14044853 -0.087388754 0.26623067 0.33442175 -0.36211026 -0.4982454 0.6476684
-0.30479398 -0.59212583 -0.13014396 -0.09717403 0.12858334 0.15700822 -0.22239855 -0.42363212
0.13396029 0.22260322 -0.4970934 -0.7779888 -0.20997286 -0.0464879 -0.61942977 -0.46550873
0.108757265 0.1582984 0.044177406 1.5031565 0.45203257 -0.12536459 -0.18223052 -0.018433604
0.3165551 0.2766874 -0.27340576 -0.3992387 -0.63577116 0.32414696 0.43512443 -0.2842069
-0.48867854 -0.3812465 0.5712345 0.67359364 0.57530016 0.2511883 -0.44782248 -0.13083082
-0.6292274 -0.12191047 0.68488216 0.052446727 -1.0647603 -0.12975027 0.3740041 0.15557672
0.38850802 -0.106065005 -0.087982826 -0.19053571 -0.3344107 0.3062382 0.26185414 -0.11847112
-0.23078148 -0.25939044 -0.06835074 0.4301911 0.16642074 -0.47068763 0.5644569 -0.6656156
0.09227791 -0.33818367 0.3072001 -0.48794386 0.4980309 0.0037606524 0.3847688 0.54164183
-0.15016885 0.12746756 -0.067783244 -0.46234778 0.5864317 -0.0033106173 0.0022296954 -0.06602693
0.18082337 0.07056787 -0.0852559 -0.3565231 0.05266292 0.009987886 -0.2039485 -0.10537743
-0.119904056 0.92233837 -0.0012496113 -0.10784987 0.5405605 -0.1813014 -0.72975236 -0.20859714
-0.0061476273 -0.30861956 0.5675562 -0.2793219 0.39631876 -0.3382481 -0.39257315 0.25666806
-0.056553125 0.12628005 -0.72769624 -0.32555377 -0.2195624 -0.8130356 -0.028618956 -0.1178641
-0.12929226 0.28315824 -0.43505707 -0.25090447 -0.17571543 0.82075274 -0.13099009 -0.4374721
0.14798257 0.13721621 0.35156628 -0.34204227 -0.09384779 0.1220711 0.31587538 -0.14162008
-0.07801222 0.37645206 -0.5752697 -0.07071595 0.119094506 -0.56975055 -0.4829933 -0.15498824
00000000: 8c50 f03e 1265 04be 63f6 33bf d74d 51be
00000010: 0f1d e73e 4b7d 173f 22fa 10bf c3cf 8c3e
00000020: 92c5 a83d fd05 5f3e 140a d73d 595d d53d
00000030: 28d5 d33d 0dcd 30bd bcc0 17bf 4c03 8bbd
00000040: 27a0 9b3e f436 83bd 6a53 96bf cd4c 71be
00000050: ff88 02bf e337 64bf a95f 87be 5d6d f93e
00000060: 2281 053e c324 3d3e 5203 05be f5a4 32bf
00000070: d8c0 67be 1d1b 1fbd 76f9 c93e 99ec bebb
00000080: 6ae7 8e3e 2592 163d ac3e 29be 8873 6c3e
00000090: 173f b5be f257 7d3e af12 dabe 8352 8bbe
000000a0: 669f 983e 038b 083e a56a f63d 05d1 87be
000000b0: 43ce 58be 0f02 3bbd cfe0 9f3e e006 0f3e
000000c0: ab99 cc3e 1ca8 7cbd 992c 9d3e 9b7c d8be
000000d0: e096 203f 8a35 e0be 7889 e83d 34b5 b93d
000000e0: ebb8 54bf d94d a2be 214e 01bf 673e 843c
000000f0: b709 083d e49e e1be 109b 3abf e427 f2be
00000100: 1143 dbbe f819 c73e e0e5 9cbe 4103 ac3e
00000110: 12f4 283e 7ed4 75bb f9ea e93c e328 aabe
00000120: 5279 b73e da21 a3bb d896 8c3e 205d 04be
00000130: bc87 d1be 0c9e 5dbf 4871 0ebf 954f b23e
00000140: b9db b03e 79b0 38bc bce3 40bd 471d 043d
00000150: a887 cdbe 561c b03e aa71 0cbf efc0 c33d
00000160: 09b0 6dbd 4ee0 9eba 6015 1fbe ab13 11bf
00000170: 255c 61bf b530 293f dd89 573e 03f5 c7be
00000180: 7044 233f 9da1 86be d327 993e 47b4 39be
00000190: 3016 ffbe 2df6 1abf dbdd c1be 42ea 9dbe
000001a0: 962e 8d3e 082b 97bd 7fe0 c83d 921d bc3e
000001b0: 928e 283e c118 4bbe 76a8 12be 7ac7 cc3e
000001c0: f11b e63e bdd1 0fbe e0f8 b2bd 634f 883e
000001d0: 5439 ab3e 8466 b9be 051a ffbe 99cd 253f
000001e0: f50d 9cbe 8f95 17bf 7544 05be 2e03 c7bd
000001f0: 5aab 033e c3c6 203e 72bc 63be 4fe6 d8be
00000200: e32c 093e 19f2 633e 0783 febe 462a 47bf
00000210: 2003 57be 196a 3ebd f392 1ebf 2957 eebe
00000220: 21bc de3d fa18 223e 5ef3 343d 6f67 c03f
00000230: d070 e73e 935f 00be a39a 3abe 1202 97bc
00000240: 8313 a23e f9a9 8d3e d7fb 8bbe 0469 ccbe
00000250: e6c1 22bf 97f6 a53e a1c8 de3e 9183 91be
00000260: 1334 fabe be32 c3be 6d3c 123f a270 2c3f
00000270: df46 133f c19b 803e fd48 e5be 84f8 05be
00000280: 0c15 21bf 32ac f9bd 7054 2f3f 61d2 563d
00000290: 114a 88bf 41dd 04be 777d bf3e 814f 1f3e
000002a0: 86ea c63e 9c38 d9bd 5730 b4bd cb1b 43be
000002b0: e137 abbe 41cb 9c3e bf11 863e fda0 f2bd
000002c0: fb51 6cbe d3ce 84be 79fb 8bbd 0242 dc3e
000002d0: 336a 2a3e f8fd f0be 3f80 103f c965 2abf
000002e0: 33fc bc3d 6926 adbe 5549 9d3e c7d3 f9be
000002f0: e8fd fe3e 4775 763b 6b00 c53e 0aa9 0a3f
00000300: ddc5 19be db86 023e f1d1 8abd d9b8 ecbe
00000310: 6320 163f f1f6 58bb 1520 123b 2139 87bd
00000320: c329 393e e385 903d a59a aebd 328a b6be
00000330: 13b5 573d 3ba4 233c e0d7 50be 1fd0 d7bd
00000340: 4290 f5bd 5e1e 6c3f ffc9 a3ba 65e0 dcbd
00000350: 2c62 0a3f 13a7 39be 0dd1 3abf 7d9a 55be
00000360: 0972 c9bb 6203 9ebe 5d4b 113f 4803 8fbe
00000370: 4bea ca3e db2e adbe 59ff c8be ff69 833e
00000380: 40a4 67bd 8f4f 013e 4d4a 3abf fcae a6be
00000390: f7d4 60be 1a23 50bf 4d72 eabc bc62 f1bd
000003a0: 3165 04be 1efa 903e cdbf debe 8d76 80be
000003b0: bfee 33be da1c 523f 4422 06be 58fc dfbe
000003c0: be88 173e 6882 0c3e 7f00 b43e 2a20 afbe
000003d0: 4533 c0bd 6a00 fa3d 6bba a13e db04 11be
000003e0: dfc4 9fbd 53be c03e e044 13bf 86d3 90bd
000003f0: d2e7 f33d 2cdb 11bf e64a f7be 3db5 1ebe

network_body._body_endoder.seq_layers.0.bias f4 [64]
0.016305463 -0.02558354 0.005128539 0.040239334 0.00045705136 0.042189226 -0.017895538 -0.022883236
0.02223229 -0.004884396 0.023062008 0.027544616 -0.012500147 -0.009055126 0.029073173 -0.030221213
0.02909623 0.017172538 -0.014613524 0.0040685553 0.017859548 -0.057139613 0.017722996 0.039637465
-0.005250171 -0.0066176453 -0.059770074 0.04180189 0.010177442 0.019189462 0.0039608227 -0.002770806
-0.0052786185 -0.008895905 0.01704128 -0.056319196 -0.0005335231 -0.0054647294 4.482758e-05 0.027943417
-0.0029281825 0.0069605205 0.028622782 -0.023116115 -0.026065577 0.019726336 0.012094219 0.015723046
0.02196591 -0.022482004 0.010187727 0.03814756 -0.04053008 0.042554986 0.008464231 -0.038293544
-0.006069884 0.012345585 -0.0060862573 0.020977616 -0.053415086 0.010961134 -0.020889223 0.014384028
00000000: 0993 853c 9294 d1bc 4e0d a83b 00d2 243d
00000010: 65a0 ef39 9cce 2c3d aa99 92bc a075 bbbc
00000020: 7e20 b63c 490d a0bb 89ec bc3c 3fa5 e13c
00000030: 6bcd 4cbc f45b 14bc dd2a ee3c 7a92 f7bc
00000040: 385b ee3c 6cad 8c3c 906d 6fbc 8451 853b
00000050: 304e 923c 3a0b 6abd d12f 913c e55a 223d
00000060: a009 acbb d5d8 d8bb 77d1 74bd 7538 2b3d
00000070: 49bf 263c 3833 9d3c cac9 813b 6996 35bb
00000080: 43f8 acbb 21c0 11bc 289a 8b3c f5ae 66bd
00000090: 21dc 0bba 7911 b3bb 3f05 3c38 98e9 e43c
000000a0: c0e6 3fbb 1415 e43b 537a ea3c 025e bdbc
000000b0: 7a87 d5bc 2099 a13c d526 463c 9ecd 803c
000000c0: daf1 b33c 2e2c b8bc 6dea 263c 9e40 1c3d
000000d0: df02 26bd 234e 2e3d 8fad 0a3c b1d9 1cbd
000000e0: e1e5 c6bb 2345 4a3c 3a6f c7bb 40d9 ab3c
000000f0: c7c9 5abd 5496 333c e01f abbc fcaa 6b3c

network_body._body_endoder.seq_layers.2.weight f4 [64, 64]
-0.04016712 -0.16094686 -0.10233398 0.06174338 -0.10348086 -0.15722348 -0.12449933 -0.04969229
-0.074756294 0.0804277 -0.023550274 0.019098522 -0.0018910626 0.19250774 -0.15149556 -0.048988122
0.2062536 0.15891732 0.18629934 0.079791814 0.113299206 0.0012497647 0.082257144 -0.0039155064
0.084096864 -0.063886695 -0.14471093 0.09884535 -0.07954288 0.058088154 0.10797533 0.12017838
0.035375338 0.040958025 -0.07778271 -0.02678929 0.072107375 0.14686151 0.07620622 -0.15287359
-0.045404952 -0.034861904 0.04576875 0.06003218 0.07127916 0.08094176 -0.05841357 -0.05941216
-0.1685064 0.09501353 0.19697347 0.38195416 0.054038443 0.13985747 0.115660645 -0.09287398
0.11334937 -0.023360213 0.097606726 -0.09123969 0.056285024 -0.11747134 0.07751221 0.118051656
0.012728347 -0.08121694 -0.08176808 -0.13784406 -0.30764326 0.090157434 -0.007179097 -0.010625702
-0.06627581 -0.018639497 -0.08459275 0.121366434 -0.06941539 0.07406597 -0.026865596 -0.024312288
0.051917512 0.0725023 0.017836597 0.10790098 0.061387945 -0.11954704 0.06094841 -0.25962925
-0.14470229 -0.05443785 0.052833296 0.06682483 0.27937737 0.116820745 0.075177796 0.02379861
0.15649816 -0.07361628 -0.06731732 -0.042981856 0.13262708 0.08768338 0.0033104657 0.47273153
-0.022412103 -0.02985979 -0.09197868 -0.110508196 0.021043189 -0.06207074 0.0874944 0.047504418
0.05659919 -0.026911652 0.19744809 0.04059089 0.10255732 0.026877582 0.15504144 -0.043928806
-0.064432845 -0.040098876 -0.08874594 0.14779708 0.049402088 -0.06291886 0.08391961 -0.29892212
0.15995762 -0.07216568 -0.0733799 -0.18551208 0.030726617 -0.037194673 0.019154787 0.05200775
0.09297227 -0.13553572 0.09923427 0.036400247 -0.05066428 0.10177969 -0.17198224 -0.006889251
0.11039262 -0.04019345 0.18893452 -0.20195487 -0.26496664 0.077565104 0.057436444 -0.26057982
-0.086911514 0.049153663 -0.032337833 -0.06936577 0.15662785 0.22167665 0.015586187 0.13852967
-0.30718774 -0.08437976 0.17238483 0.04442047 -0.03515767 0.20743608 0.04616934 -0.087531164
0.10897884 -0.087712795 0.02934825 -0.107031286 0.0513933 -0.06701346 -0.13151503 0.07886503
0.036580026 0.03482679 -0.1819941 -0.107154794 0.15052015 0.16117403 0.1033165 -0.117929414
0.115801014 0.10064401 0.1500835 0.13242392 -0.057295647 -0.01948937 0.0814778 -0.037399802
-0.032499585 0.0033929106 0.098891415 0.010762058 -0.03542241 -0.21603039 0.23168708 -0.02697818
0.06893212 -0.1083689 -0.17921297 0.06244339 -0.117915384 0.18066406 -0.15194823 0.06791912
-0.01214136 0.061837874 -0.22254601 0.002316639 -0.09542774 -0.05954871 -0.03518799 0.035064988
-0.24665049 -0.17059962 0.13010412 -0.18906155 -0.14258865 0.002474013 -0.05168315 -0.12768768
0.07211817 0.19570109 -0.12879448 0.14281684 -0.0063206 0.15526015 -0.15447886 0.085374504
0.35379636 -0.11297167 0.09183177 0.0424021 0.1116859 0.050603848 -0.111648895 0.038165934
-0.062400367 0.03529005 0.1295169 0.13384932 -0.13381103 -0.1527446 0.06933256 -0.0436371
-0.09254251 -0.17717656 0.14213611 0.39158258 0.013725898 -0.050163455 -0.17032593 0.20205554
00000000: 4786 24bd 41cf 24be 7a94 d1bd a0e6 7c3d
00000010: c6ed d3bd 31ff 20be 81f9 febd 258a 4bbd
00000020: d419 99bd 47b7 a43d 81ec c0bc 8174 9c3c
00000030: 88dd f7ba c020 453e a721 1bbe c5a7 48bd
00000040: 2534 533e 39bb 223e 41c5 3e3e e469 a33d
00000050: 6a09 e83d 25cf a33a 6f76 a83d a64d 80bb
00000060: fa3a ac3d 07d7 82bd 1a2f 14be 6e6f ca3d
00000070: 61e7 a2bd d8ed 6d3d 2b22 dd3d 1520 f63d
00000080: bbe5 103d 9ac3 273d 8b4c 9fbd 3775 dbbc
00000090: 08ad 933d dd62 163e 0212 9c3d e58a 1cbe
000000a0: 8bfa 39bd 5bcb 0ebd 0378 3b3d 4ee4 753d
000000b0: cffa 913d cbc4 a53d 1143 6fbd 2a5a 73bd
000000c0: f18c 2cbe 7496 c23d 6ab3 493e 7f8f c33e
000000d0: 6a57 5d3d cc36 0f3e 7ddf ec3d b734 bebd
000000e0: b723 e83d eb5d bfbc 09e6 c73d e0db babd
000000f0: 208b 663d d094 f0bd b9be 9e3d 11c5 f13d
00000100: 8f8a 503c 1155 a6bd 0676 a7bd fe26 0dbe
00000110: 6b83 9dbe 76a4 b83d a13e ebbb 6d17 2ebc
00000120: 9dbb 87bd dcb1 98bc f73e adbd f78e f83d
00000130: a829 8ebd e6af 973d 3d15 dcbc 902a c7bc
00000140: 75a7 543d 167c 943d 0e1e 923c 30fb dc3d
00000150: ed71 7b3d 14d5 f4bd 0aa5 793d 20ee 84be
00000160: d62c 14be 39fa 5ebd ba67 583d 75db 883d
00000170: 8d0a 8f3e b73f ef3d d1f6 993d 4df5 c23c
00000180: 0e41 203e 22c4 96bd aadd 89bd be0d 30bd
00000190: 65cf 073e 5893 b33d 66f4 583b de09 f23e
000001a0: 9699 b7bc 859c f4bc 515f bcbd 1f52 e2bd
000001b0: c462 ac3c e33d 7ebd 4430 b33d fe93 423d
000001c0: 8dd4 673d d375 dcbc d52f 4a3e a242 263d
000001d0: 9209 d23d 602e dc3c 2fc3 1e3e b1ee 33bd
000001e0: 5ef5 83bd b83e 24bd 6ec0 b5bd 1e58 173e
000001f0: d859 4a3d 9adb 80bd 0bde ab3d 520c 99be
00000200: eecb 233e 9acb 93bd 3348 96bd e1f6 3dbe
00000210: 63b6 fb3c 7159 18bd 80ea 9c3c 1406 553d
00000220: 3f68 be3d e0c9 0abe 563b cb3d 6d18 153d
00000230: 5985 4fbd df71 d03d 1d1c 30be 3abf e1bb
00000240: 8715 e23d e3a1 24bd 0d78 413e 42cd 4ebe
00000250: b5a9 87be 74da 9e3d 7a42 6b3d b86a 85be
00000260: aafe b1bd 5a55 493d ad74 04bd a40f 8ebd
00000270: 0d63 203e 34ff 623e 355d 7f3c b9da 0d3e
00000280: b647 9dbe 4ccf acbd a685 303e 3df2 353d
00000290: 7d01 10bd 206a 543e 101c 3d3d 8a43 b3bd
000002a0: 4c30 df3d c4a2 b3bd be6b f03c 3833 dbbd
000002b0: c881 523d 5a3e 89bd e0ab 06be fd83 a13d
000002c0: f0d4 153d 89a6 0e3d a95c 3abe f973 dbbd
000002d0: f421 1a3e ce0a 253e 9a97 d33d fa84 f1bd
000002e0: 1529 ed3d 721e ce3d 7daf 193e 239a 073e
000002f0: d7ae 6abd 2ca8 9fbc d5dd a63d 8930 19bd
00000300: 491e 05bd 985b 5e3b 9587 ca3d 5853 303c
00000310: 1717 11bd 1237 5dbe 613f 6d3e 5801 ddbc
00000320: 492c 8d3d 84f0 ddbd 9b83 37be a4c4 7f3d
00000330: 9f7d f1bd 0000 393e 5198 1bbe 2e19 8b3d
00000340: 8eec 46bc b649 7d3d 1ae3 63be c1d2 173b
00000350: 9e6f c3bd 59e9 73bd 4821 10bd 4ea0 0f3d
00000360: f291 7cbe abb1 2ebe 043a 053e 5a99 41be
00000370: c202 12be 0d23 223b b6b1 53bd 8fc0 02be
00000380: b1b2 933d de65 483e b3e2 03be 943e 123e
00000390: 091d cfbb 84fc 1e3e b52f 1ebe d4d8 ae3d
000003a0: cc24 b53e b15d e7bd 4c12 bc3d d3ad 2d3d
000003b0: 94bb e43d fb45 4f3d 2da8 e4bd e253 1c3d
000003c0: 8797 7fbd 4d8c 103d 14a0 043e cc0f 093e
000003d0: c205 09be 1569 1cbe 3bfe 8d3d d1bc 32bd
000003e0: ed86 bdbd c66d 35be 218c 113e 837d c83e
000003f0: 97e2 603c 3278 4dbd ec69 2ebe a6e7 4e3e

network_body._body_endoder.seq_layers.2.bias f4 [64]
0.011808504 -0.0069141174 -0.008898408 0.01800034 0.0070262225 0.0026125647 0.025243625 0.0069598085
-0.0071622604 0.04325306 -0.000100784004 0.014582862 0.024191612 0.011799602 0.016893346 -0.007206115
-0.0070691775 -0.035485797 0.022060143 -0.0087329615 0.045844156 -0.005297755 0.05401561 -0.0088898195
0.030616699 -0.03516231 0.018810397 -0.04099571 -0.010751469 0.0015710228 -0.01987225 0.01811176
-0.03201382 -0.008876223 0.004714062 0.02010987 -0.009967115 -0.0029247294 0.020105392 0.019040313
0.0015919551 0.036632307 0.009382345 -0.0101015605 -0.026630307 0.02918352 0.04627755 0.008754998
-0.01304144 -0.012988737 0.00956344 0.017254114 0.01899659 0.01079191 0.0061748587 -0.009778467
-0.0017943644 -0.0062804804 0.031828098 -0.009215714 0.022319552 0.019870002 0.036363997 -0.001644665
00000000: 7578 413c d28f e2bb a1ca 11bc 7375 933c
00000010: 3a3c e63b 9037 2b3b b8cb ce3c 1b0f e43b
00000020: 65b1 eabb 1f2a 313d 005c d3b8 f5ec 6e3c
00000030: 7d2d c63c 1e53 413c ea63 8a3c 4621 ecbb
00000040: 8fa4 e7bb 8e59 11bd 79b7 b43c b214 0fbc
00000050: 15c7 3b3d ca98 adbb 793f 5d3d 9ba6 11bc
00000060: dfcf fa3c 5b06 10bd 4318 9a3c 1eeb 27bd
00000070: ee26 30bc c7ea cd3a 21cb a2bc 1d5f 943c
00000080: ec20 03bd 946d 11bc 6b78 9a3b 74bd a43c
00000090: 1c4d 23bc d1ac 3fbb 10b4 a43c 6efa 9b3c
000000a0: 26a9 d03a c20b 163d 68b8 193c 0481 25bc
000000b0: cd27 dabc 4712 ef3c 878d 3d3d 2071 0f3c
000000c0: c4ab 55bc b6ce 54bc faaf 1c3c 8058 8d3c
000000d0: bd9e 9b3c 8dd0 303c 7856 ca3b dd35 20bc
000000e0: e130 ebba 7dcc cdbb 2e5e 023d 82fd 16bc
000000f0: 7ed7 b63c 6ac6 a23c 6af2 143d cd91 d7ba

action_model._discrete_distribution.branches.0.weight f4 [4, 32]
-0.10012305 -0.027477207 0.008913362 0.12830272 -0.05267188 0.07085961 -0.0200953 0.108893625
0.014834294 -0.053457797 -0.06373616 -0.033395674 0.11409509 -0.014789523 0.07472981 -0.05906088
0.0077301483 -0.0953017 -0.05240797 -0.07408119 0.1114583 -0.089615636 -0.044983543 0.064074814
-0.08816584 -0.0030907744 0.11496009 -0.09236358 -0.09213001 -0.046971094 0.016416945 0.051106654
0.047677305 0.016175129 0.0014983123 0.048357766 -0.1332761 -0.045728613 0.14005122 0.020134354
0.029803399 -0.04751895 -0.015087414 0.015317678 -0.08196778 0.009924005 0.0892541 0.062732965
0.027499348 -0.04778161 -0.01950558 -0.00839123 0.060636435 -0.0034539301 0.114461705 0.010708883
0.053226493 0.10463833 0.10659175 0.0061286623 -0.01737499 -0.100313954 -0.07600099 -0.09025633
-0.09082991 0.018252747 0.097208805 -0.034994137 0.07735874 0.07590191 -0.06317503 -0.0105169015
0.015272951 -0.045451935 -0.07479548 -0.075327545 0.04232289 -0.07644207 -0.123190306 -0.07089594
0.039705694 0.057974614 0.0382111 0.08583168 -0.10508291 -0.084969506 -0.07014086 0.055436514
-0.053310763 -0.19127102 -0.024700394 0.0013460947 0.11991248 0.08997934 -0.06377669 -0.009851047
0.11761402 -0.06252311 -0.008482351 -0.105611295 0.1169461 -0.13275847 0.005368204 -0.09475797
0.0027048956 0.10121223 0.103801526 0.13548376 -0.09489328 0.008186395 -0.06706658 0.10678298
-0.089440145 0.054908883 0.044061366 -0.067933634 -0.07035072 0.12527859 -0.033829708 -0.09523602
0.10676607 0.061342295 -0.180852 0.0637512 0.02606491 0.06259702 0.090881556 0.00748935
00000000: 500d cdbd e117 e1bc 5a09 123c ca61 033e
00000010: 78be 57bd d81e 913d e69e a4bc 9f03 df3d
00000020: 8a0b 733c 90f6 5abd 1b88 82bd e7c9 08bd
00000030: b0aa e93d c14f 72bc f10b 993d d2e9 71bd
00000040: 2f4d fd3b 8a2d c3bd bda9 56bd e1b7 97bd
00000050: 4044 e43d 6788 b7bd aa40 38bd a839 833d
00000060: 4b90 b4bd 978e 4abb 3270 eb3d 1e29 bdbd
00000070: a9ae bcbd c364 40bd d47c 863c 3655 513d
00000080: 4749 433d b481 843c 0563 c43a cb12 463d
00000090: 8879 08be ed4d 3bbd 9669 0f3e cdf0 a43c
000000a0: 4226 f43c 3ba3 42bd 3331 77bc 00f7 7a3c
000000b0: b9de a7bd 4b98 223c dbca b63d 247a 803d
000000c0: 5046 e13c a6b6 43bd 2bca 9fbc 5f7b 09bc
000000d0: e95d 783d 555b 62bb e66a ea3d 5074 2f3c
000000e0: 0604 5a3d 9f4c d63d c74c da3d f2d2 c83b
000000f0: ff55 8ebc 6771 cdbd 68a6 9bbd 50d8 b8bd
00000100: 0805 babd c986 953c 6915 c73d 0356 0fbd
00000110: 426e 9e3d 7672 9b3d e961 81bd 154f 2cbc
00000120: 663b 7a3c cf2b 3abd 5f2e 99bd 5445 9abd
00000130: c45a 2d3d a98d 9cbd 334b fcbd e431 91bd
00000140: 70a2 223d ca76 6d3d 3e83 1c3d 85c8 af3d
00000150: b535 d7bd 7e04 aebd 03a6 8fbd 6611 633d
00000160: 635c 5abd 8ddc 43be 7b58 cabc 716f b03a
00000170: ad94 f53d 1747 b83d 5a9d 82bd 4966 21bc
00000180: 9fdf f03d 1e0c 80bd 8ff9 0abc bc4a d8bd
00000190: 7081 ef3d d6f1 07be c2e7 af3b 7710 c2bd
000001a0: 9e44 313b 5c48 cf3d e595 d43d 41bc 0a3e
000001b0: 6857 c2bd 3b20 063c 345a 89bd 09b1 da3d
000001c0: 652c b7bd 23e8 603d b179 343d ca20 8bbd
000001d0: 0a14 90bd 0849 003e 0591 0abd 1a0b c3bd
000001e0: 2ba8 da3d 0f42 7b3d 4431 39be fd8f 823d
000001f0: 1486 d53c de32 803d 1c20 ba3d 3969 f53b

action_model._discrete_distribution.branches.0.bias f4 [4]
0.0041746325 0.03804264 0.0154062025 -0.062355455
00000000: 5bcb 883b 99d2 1b3d 4c6a 7c3c 6f68 7fbd

onnx::LSTM_98 f4 [1, 128, 64]
-0.17070517 0.19602455 0.027694203 0.24843131 -0.051647455 -0.1161596 -0.064458944 -0.1038141
0.115812115 -0.20163892 0.14668539 -0.16507612 -0.015866693 0.013520779 0.078251645 -0.14602938
0.04327308 -0.23555923 -0.0533028 0.046352662 0.17363937 0.10395857 0.040218342 -0.29204848
-0.025342852 -0.026452087 -0.11903325 0.2761177 -0.06848458 0.26700008 0.20058507 -0.26898324
-0.015239249 -0.06198829 0.23097143 0.0026452637 0.039848104 0.06091065 0.147181 -0.13976903
-0.038659222 0.023930024 0.111122206 -0.091028094 0.07760738 0.04772397 0.26612046 -0.14744046
0.13602522 0.22913125 -0.0034916692 0.08530254 -0.1765938 0.12244501 -0.11869613 -0.2640747
-0.07853397 0.2573713 0.13710794 -0.2117781 -0.17730397 -0.012868789 -0.19177674 0.077292554
0.14393283 0.20514376 -0.07219127 -0.1300131 -0.10619107 0.24366906 0.06514562 0.2626556
-0.23501885 -0.14450139 -0.1320882 0.03689086 0.014318323 -0.22076264 0.19888979 0.10712344
0.015759898 -0.17909335 -0.033529516 0.00385456 -0.12182631 -0.059282035 0.1553246 0.1227111
0.049694873 -0.06565827 -0.025635896 -0.075738735 -0.12896001 -0.042890362 0.050481074 -0.18513842
0.054189865 -0.03747324 0.1324069 -0.0036080794 -0.24946348 0.24507314 0.006903054 0.16961509
0.08370087 0.18015248 0.08683417 0.22902283 -0.021545231 0.008689168 0.09980963 -0.051867697
0.14864293 0.15728332 0.20538005 0.12528163 -0.13230862 0.12227802 0.059173986 0.10051418
0.09347692 0.011403533 0.14245231 0.021486355 0.25972977 0.24150208 -0.062835865 0.1359883
0.14734955 -0.16251272 0.11536511 -0.038401842 -0.005291835 -0.113806605 0.17719759 -0.021004116
0.09487334 -0.22233902 -0.15800038 -0.068814725 -0.19094072 0.14079642 -0.054303814 0.13652849
-0.26707968 -0.10790619 -0.13861202 0.0807576 -0.06614632 -0.118452914 0.03755424 -0.10787653
-0.4067397 -0.17071913 -0.16067086 0.16737744 -0.25661182 -0.06792751 -0.014231135 -0.12247249
0.1415245 -0.19008733 -0.15537079 -0.016310258 0.15012589 -0.17212898 0.2043098 0.14875394
0.16508053 0.21408017 -0.20679581 -0.06794528 -0.08891305 0.084599085 -0.1318243 -0.22436924
-0.001879823 0.046591908 -0.12507449 0.08738471 -0.24312827 0.11438873 0.09029541 0.21688522
-0.0035431946 -0.16094579 0.23146582 0.0856537 -0.19191717 -0.18576713 -0.055717234 0.067059934
-0.20130892 0.1817972 -0.0800857 0.10108894 -0.090480015 0.11739744 -0.04709332 -0.15700513
0.20679589 0.30381042 0.24738593 0.15726525 0.20973268 0.029759523 0.054258045 0.23790461
0.119781926 -0.20089045 -0.03000576 -0.18099183 0.15459521 -0.21906498 0.0597264 0.0889
0.18752742 -0.058044616 0.076906234 -0.044684507 0.19332047 0.053770807 0.110783264 0.20393103
0.17684315 -0.024388764 -0.0162233 0.24920726 0.052992184 0.06881397 -0.17634298 0.14672765
0.17604633 0.12819445 -0.12621814 0.10157556 0.02069147 -0.019875454 0.13226248 -0.20413041
0.2346722 0.18556783 0.08452435 -0.06953121 0.10067204 0.12253802 0.112364985 -0.11403791
0.12547493 0.080526575 0.22758456 0.2913983 0.05529207 0.16135325 -0.06778406 0.12974396
00000000: 56cd 2ebe a9ba 483e f4de e23c c764 7e3e
00000010: 488c 53bd 16e5 edbd 0d03 84bd 7d9c d4bd
00000020: e72e ed3d 6f7a 4ebe b234 163e b709 29be
00000030: defa 81bc 4286 5d3c 6642 a03d ba88 15be
00000040: 1d3f 313d 7036 71be 0954 5abd 4adc 3d3d
00000050: 85ce 313e 3be8 d43d fdbb 243d 6187 95be
00000060: d09b cfbc 0cb2 d8bc b4c7 f3bd 4d5f 8d3e
00000070: a541 8cbd 3cb4 883e 2c66 4d3e 2cb8 89be
00000080: 0bae 79bc 6fe7 7dbd c683 6c3e 295c 2d3b
00000090: c437 233d 727d 793d 9eb6 163e 9d1f 0fbe
000000a0: 2259 1ebd e608 c43c 0a94 e33d f06c babd
000000b0: 9ef0 9e3d 367a 433d f140 883e a2fa 16be
000000c0: 324a 0b3e 62a1 6a3e 7dd4 64bb 19b3 ae3d
000000d0: 01d5 34be 73c4 fa3d f516 f3bd cd34 87be
000000e0: 6bd6 a0bd 2cc6 833e 0666 0c3e 5cdc 58be
000000f0: 2c8f 35be 9dd7 52bc 1f61 44be 8f4b 9e3d
00000100: 2163 133e 3511 523e 04d9 93bd 2722 05be
00000110: b47a d9bd 6284 793e 116b 853d cb7a 863e
00000120: c8a8 70be 2cf8 13be 2142 07be df1a 173d
00000130: 6697 6a3c 9a0f 62be c4a9 4b3e 8963 db3d
00000140: e71a 813c 3f64 37be 3f56 09bd c99c 7c3b
00000150: 1380 f9bd b8d1 72bd 690d 1f3e f54f fb3d
00000160: da8c 4b3d d877 86bd 5f02 d2bc e91c 9bbd
00000170: 180e 04be cead 2fbd 3ec5 4e3d ed94 3dbe
00000180: 31f6 5d3d 8a7d 19bd ad95 073e 8775 6cbb
00000190: 5b73 7fbe 74f4 7a3e 0433 e23b 94af 2d3e
000001a0: 5d6b ab3d e479 383e 1dd6 b13d f684 6a3e
000001b0: a07f b0bc 035d 0e3c fe68 cc3d 3973 54bd
000001c0: da35 183e e10e 213e 264f 523e d449 003e
000001d0: e97b 07be e66c fa3d 6c60 723d 61da cd3d
000001e0: d470 bf3d e2d5 3a3c 05df 113e 2704 b03c
000001f0: 4dfb 843e 524c 773e 17b0 80bd 8440 0b3e
00000200: cde2 163e bc69 26be 8b44 ec3d 404b 1dbd
00000210: 2167 adbb 7013 e9bd 4973 353e d310 acbc
00000220: f44c c23d d7ac 63be daca 21be bcee 8cbd
00000230: f785 43be f02c 103e ad6d 5ebd 20ce 0b3e
00000240: abbe 88be ecfd dcbd 4ff0 0dbe 3e64 a53d
00000250: b977 87bd 7197 f2bd 7ad2 193d 5fee dcbd
00000260: 3040 d0be ffd0 2ebe e786 24be fe64 2b3e
00000270: a062 83be 941d 8bbd b529 69bc dbd2 fabd
00000280: cceb 103e 41a6 42be 8519 1fbe 179d 85bc
00000290: 9aba 193e 9442 30be 9736 513e f452 183e
000002a0: df0a 293e d537 5b3e 48c2 53be e526 8bbd
000002b0: 0c18 b6bd 4942 ad3d f3fc 06be 0dc1 65be
000002c0: 6564 f6ba 28d7 3e3d 8713 00be c1f6 b23d
000002d0: 9ef6 78be a344 ea3d cdec b83d 2917 5e3e
000002e0: f134 68bb f9ce 24be 6005 6d3e 356b af3d
000002f0: ef85 44be bd39 3ebe c137 64bd b856 893d
00000300: ed23 4ebe 0c29 3a3e f903 a4bd b807 cf3d
00000310: 964d b9bd 126e f03d ede4 40bd f4c5 20be
00000320: 4dc2 533e 0a8d 9b3e bd52 7d3e 240a 213e
00000330: 2ac4 563e 3eca f33c af3d 5e3d 449d 733e
00000340: 3a50 f53d 3ab6 4dbe a4ce f5bc ec55 39be
00000350: 354e 1e3e 9252 60be aba3 743d 3411 b63d
00000360: 3007 403e 31c0 6dbd 0481 9d3d 1a07 37bd
00000370: cdf5 453e c73e 5c3d 56e2 e23d 4cd3 503e
00000380: 5f16 353e f2ca c7bc bae6 84bc 3030 7f3e
00000390: 550e 593d 57ee 8c3d 4193 34be c63f 163e
000003a0: 7d45 343e 6845 033e 543f 01be d906 d03d
000003b0: 2881 a93c d9d1 a2bc d16f 073e 9007 51be
000003c0: e94d 703e 7e05 3e3e 1a1b ad3d 6166 8ebd
000003d0: 242d ce3d 37f5 fa3d 9d1f e63d b58c e9bd
000003e0: 807c 003e 1eeb a43d ed0b 693e 2832 953e
000003f0: f079 623d c939 253e 5fd2 8abd 9adb 043e

onnx::LSTM_99 f4 [1, 128, 32]
-0.10817916 -0.2469063 0.2241059 -0.016868206 0.26691064 -0.05356631 -0.14032917 -0.22788684
0.26338434 -0.08227738 -0.329724 -0.31659624 0.0341902 0.23056279 -0.08695848 -0.05643925
-0.09939986 0.117343836 -0.2594418 0.2910443 -0.29983577 -0.30645856 0.010678566 -0.15051906
-0.17116906 -0.27591312 0.19429314 0.029925678 -0.04104637 -0.2108801 -0.30751142 -0.2539736
-0.17559054 0.045691278 -0.18323797 -0.02682662 -0.21562886 0.24656287 -0.24936755 -0.21813017
0.26050887 -0.2681114 -0.02790277 0.13265865 0.13545826 0.16532853 0.13271539 -0.24282318
0.27491504 0.21321405 -0.14120631 0.053438373 -0.1649149 0.045823805 -0.14579023 -0.20828891
-0.055706125 0.25560153 0.03731519 -0.27969882 -0.16606806 -0.050488252 0.019118337 -0.0840372
-0.029529661 0.021368966 0.10779122 -0.3094076 0.0057720104 -0.11317277 0.039898742 -0.19273224
-0.04448537 -0.18222454 -0.14990924 -0.21971639 0.15981628 -0.19252491 -0.031735033 -0.1294136
0.190358 -0.06924288 -0.20680952 0.25205418 -0.1122941 0.14360112 -0.22188772 0.15670182
0.15816504 -0.21128929 -0.0873107 0.13040668 0.14727262 0.12306816 0.23608664 0.040395383
-0.25543672 0.18438175 -0.2409443 0.26951924 -0.1551864 0.17068076 0.2763022 -0.14696305
0.23048353 -0.29652792 0.036892872 0.11001655 -0.10058484 -0.18276365 0.117867455 -0.08670459
-0.21793182 0.29978696 0.18598618 -0.16606033 0.074459516 0.21416883 0.1094154 -0.06980152
0.15618391 0.027960457 -0.102718756 -0.03073947 0.29656976 -0.09949381 -0.086014114 -0.0043222914
-0.16905986 0.108636886 -0.14630628 -0.10959885 -0.02311772 0.2612967 0.14409196 0.11329962
0.30867684 -0.095890835 0.26875424 -0.26161867 0.0998026 0.13358276 0.33013317 -0.18441243
-0.0651854 0.039063845 0.18194446 -0.07361977 -0.18845555 -0.043924496 -0.25382268 0.1531377
0.1593304 0.15282485 0.2220188 -0.29396024 0.107006006 -0.09850029 -0.25087962 0.04052987
0.18107505 0.12852962 -0.21510847 0.23136583 -0.25383297 -0.15576641 -0.098025486 0.23508193
0.037115544 -0.27294624 0.10631903 -0.26572627 -0.30460086 -0.24538372 0.2069927 0.27133492
-0.042624142 -0.0106320195 -0.010259481 0.0066107223 0.28965393 -0.28310585 0.22323196 0.29157883
-0.2755509 -0.2868575 -0.12997192 -0.21188031 -0.24908282 -0.17670305 -0.14355119 -0.19782373
0.13548428 0.006688838 0.17570266 0.22954623 -0.044968016 -0.11821035 -0.1840209 -0.23840809
0.33500087 -0.14433803 -0.007021562 -0.03770207 0.09868911 0.052558064 -0.3146434 -0.21988598
-0.2732522 -0.038276266 0.16354266 -0.10690562 0.25722638 0.19048417 0.13635714 0.078380406
-0.12934515 -0.08594715 0.09323366 -0.074456155 -0.038908564 -0.07669172 0.22065423 -0.13696153
-0.020643935 0.2978327 -0.24755375 0.09712687 0.2495469 0.23382847 0.23253049 0.16523372
0.11557905 -0.2859878 -0.26936358 -0.048200727 -0.13220643 0.26012 -0.024213893 0.23439568
-0.16114247 0.24737976 0.12690589 -0.11208336 -0.21855184 0.103063434 0.3109579 -0.12536989
-0.16539864 0.068410315 -0.007560534 -0.2204735 0.053491622 -0.2375321 0.23369482 0.26839164
00000000: 098d ddbd 01d5 7cbe 047c 653e 312f 8abc
00000010: 83a8 883e 5968 5bbd 73b2 0fbe 2b5b 69be
00000020: 50da 863e 0b81 a8bd 96d1 a8be e718 a2be
00000030: 060b 0c3d a718 6c3e 4a17 b2bd d82c 67bd
00000040: 2792 cbbd f751 f03d 8ed5 84be c203 953e
00000050: 1384 99be 23e8 9cbe 27f5 2e3c ab21 1abe
00000060: f146 2fbe 7c44 8dbe c8f4 463e b226 f53c
00000070: 3d20 28bd f4f0 57be 2372 9dbe d408 82be
00000080: 02ce 33be c726 3b3d bca2 3bbe 80c3 dbbc
00000090: d0cd 5cbe fa7a 7c3e 355a 7fbe 845d 5fbe
000000a0: 6b61 853e e645 89be 5a94 e4bc abd7 073e
000000b0: 92b5 0a3e e24b 293e 8be6 073e a4a6 78be
000000c0: aac1 8c3e c954 5a3e 6398 10be 32e2 5a3d
000000d0: 74df 28be beb1 3b3d 094a 15be b049 55be
000000e0: 1b2c 64bd 34de 823e d0d7 183d af34 8fbe
000000f0: bf0d 2abe c5cc 4ebd 0f9e 9c3c b21b acbd
00000100: 30e8 f1bc f80d af3c a5c1 dc3d ac6a 9ebe
00000110: 2223 bd3b 20c7 e7bd dd6c 233d 9a5b 45be
00000120: 4b36 36bd 1299 3abe cf81 19be 55fd 60be
00000130: e1a6 233e 4025 45be 98fc 01bd 0085 04be
00000140: 35ed 423e 36cf 8dbd e0c5 53be 3f0d 813e
00000150: 73fa e5bd 2c0c 133e 8936 63be 7176 203e
00000160: 04f6 213e 385c 58be f4cf b2bd 5489 053e
00000170: a2ce 163e 290b fc3d b2c0 713e a175 253d
00000180: 9ac8 82be 92ce 3c3e 1aba 76be 6dfe 893e
00000190: 2fe9 1ebe f0c6 2e3e 7b77 8d3e 7b7d 16be
000001a0: e003 6c3e 82d2 97be fb1c 173d 5b50 e13d
000001b0: 6dff cdbd 6526 3bbe 7e64 f13d 2d92 b1bd
000001c0: 8529 5fbe ad7d 993e 2973 3e3e b80b 2abe
000001d0: 3b7e 983d 134f 5b3e 2e15 e03d 19f4 8ebd
000001e0: adee 1f3e 540d e53c 365e d2bd 57d1 fbbc
000001f0: fed7 973e 69c3 cbbd 2b28 b0bd 02a2 8dbb
00000200: 071e 2dbe 047d de3d 50d1 15be 5d75 e0bd
00000210: 5f61 bdbc aec8 853e d88c 133e a209 e83d
00000220: e40a 9e3e 6a62 c4bd 289a 893e e2f2 85be
00000230: 4e65 cc3d ebc9 083e 3707 a93e 9dd6 3cbe
00000240: ec7f 85bd 6901 203d a64f 3a3e f6c5 96bd
00000250: 7efa 40be 2cea 33bd 0cf5 81be 21d0 1c3e
00000260: 8227 233e 1e7e 1c3e e558 633e f581 96be
00000270: f725 db3d 85ba c9bd 4b73 80be a602 263d
00000280: bd6b 393e 459d 033e 6545 5cbe 2aeb 6c3e
00000290: 65f6 81be 3b81 1fbe 96c1 c8bd 51b9 703e
000002a0: 7806 183d 9cbf 8bbe cbbd d93d 460d 88be
000002b0: a5f4 9bbe df45 7bbe e5f5 533e 69ec 8a3e
000002c0: a796 2ebd ec31 2ebc 6217 28bc c29e d83b
000002d0: 854d 943e 40f3 90be eb96 643e d249 953e
000002e0: 0215 8dbe fcde 92be 5c17 05be 27f7 58be
000002f0: 910f 7fbe a5f1 34be 15ff 12be 4e92 4abe
00000300: 64bc 0a3e 0a2e db3b 66eb 333e 2b0e 6b3e
00000310: 6230 38bd 4518 f2bd fa6f 3cbe 4021 74be
00000320: 3c85 ab3e 59cd 13be 2215 e6bb 7c6d 1abd
00000330: 841d ca3d 2047 573d f118 a1be ca29 61be
00000340: b6e7 8bbe 93c7 1cbd ba77 273e 55f1 dabd
00000350: 2db3 833e 480e 433e 35a1 0b3e e885 a03d
00000360: 0e73 04be 0f05 b0bd 4af1 be3d 787c 98bd
00000370: 965e 1fbd 8c10 9dbd 2ff3 613e a53f 0cbe
00000380: 781d a9bc 877d 983e bb7e 7dbe 74ea c63d
00000390: 3989 7f3e bb70 6f3e 791c 6e3e 0733 293e
000003a0: b5b4 ec3d fe6c 92be 06ea 89be 206e 45bd
000003b0: 1f61 07be 732e 853e 375c c6bc 6c05 703e
000003c0: 8802 25be 1f51 7d3e 9ef3 013e f68b e5bd
000003d0: 0ecc 5fbe ec12 d33d e035 9f3e f760 00be
000003e0: 435e 29be b51a 8c3d 5bbe f7bb cec3 61be
000003f0: 081a 5b3d 9d3b 73be b24d 6f3e a16a 893e

onnx::LSTM_100 f4 [1, 256]
0.05180074 0.012259513 -0.018902346 0.030027451 0.05981361 0.04577773 0.043369185 0.041215844
0.011185628 0.019948205 0.038875204 0.023575107 0.07269627 0.011409541 0.047128327 0.022847569
0.021192929 0.019336207 0.023998875 0.024204977 0.06422027 0.041728202 0.022862328 0.022272948
0.045197405 0.07002768 0.050899025 0.037199937 0.014791554 0.015640149 0.047665067 0.022310674
0.062811375 -0.007920777 0.069717795 0.0629789 0.05607755 0.017214093 0.05757612 0.047517404
0.030423544 -0.026899219 0.014820418 0.028510394 0.122819595 0.044516306 0.020726787 0.048513357
0.009123284 -0.013131083 0.06888092 0.043029387 0.06533465 0.00260028 0.032989427 0.07618791
0.05978409 0.0990711 0.07711877 0.0033539757 0.040071566 0.032481767 0.04986452 0.04141128
1.03811 1.0309764 0.9516603 1.0282918 1.0496925 1.038262 1.0145807 1.0464183
0.975717 1.0134314 0.9886447 1.0466368 1.0229841 1.0156987 1.03471 0.98547816
1.0266352 1.0047511 0.99516624 1.0473762 0.9986533 0.9897362 0.9912094 1.0144829
1.0283158 1.0081822 1.0019534 1.0203063 1.0724349 1.0118015 0.9865581 1.0402751
-0.030037131 0.018664546 -0.013167223 0.0004913917 0.021417284 -0.0070759305 0.019343581 -0.02674694
0.0132980645 -0.015302622 0.00556678 -0.0280226 -0.0057471218 0.0022292167 0.025805173 -0.015239342
0.0041071014 0.0045905923 0.024956256 0.0553545 -0.026803527 0.010586817 0.017669272 0.011429381
0.009336005 0.0026240214 -0.003908846 -0.014526926 -0.024218308 0.01802686 -0.003067453 -0.003922175
0.05180074 0.012259513 -0.018902346 0.030027451 0.05981361 0.04577773 0.043369185 0.041215844
0.011185628 0.019948205 0.038875204 0.023575107 0.07269627 0.011409541 0.047128327 0.022847569
0.021192929 0.019336207 0.023998875 0.024204977 0.06422027 0.041728202 0.022862328 0.022272948
0.045197405 0.07002768 0.050899025 0.037199937 0.014791554 0.015640149 0.047665067 0.022310674
0.062811375 -0.007920777 0.069717795 0.0629789 0.05607755 0.017214093 0.05757612 0.047517404
0.030423544 -0.026899219 0.014820418 0.028510394 0.122819595 0.044516306 0.020726787 0.048513357
0.009123284 -0.013131083 0.06888092 0.043029387 0.06533465 0.00260028 0.032989427 0.07618791
0.05978409 0.0990711 0.07711877 0.0033539757 0.040071566 0.032481767 0.04986452 0.04141128
1.03811 1.0309764 0.9516603 1.0282918 1.0496925 1.038262 1.0145807 1.0464183
0.975717 1.0134314 0.9886447 1.0466368 1.0229841 1.0156987 1.03471 0.98547816
1.0266352 1.0047511 0.99516624 1.0473762 0.9986533 0.9897362 0.9912094 1.0144829
1.0283158 1.0081822 1.0019534 1.0203063 1.0724349 1.0118015 0.9865581 1.0402751
-0.030037131 0.018664546 -0.013167223 0.0004913917 0.021417284 -0.0070759305 0.019343581 -0.02674694
0.0132980645 -0.015302622 0.00556678 -0.0280226 -0.0057471218 0.0022292167 0.025805173 -0.015239342
0.0041071014 0.0045905923 0.024956256 0.0553545 -0.026803527 0.010586817 0.017669272 0.011429381
0.009336005 0.0026240214 -0.003908846 -0.014526926 -0.024218308 0.01802686 -0.003067453 -0.003922175
00000000: 032d 543d 20dc 483c 18d9 9abc 21fc f53c
00000010: 1eff 743d 6e81 3b3d e3a3 313d f2d1 283d
00000020: ed43 373c 6b6a a33c 9b3b 1f3d 9520 c13c
00000030: c8e1 943d 15ef 3a3c a209 413d d32a bb3c
00000040: cb9c ad3c f766 9e3c 4a99 c43c 8449 c63c
00000050: eb85 833d 31eb 2a3d c749 bb3c c275 b63c
00000060: ea20 393d ac6a 8f3d 7f7b 503d f65e 183d
00000070: 4658 723c c51f 803c 723c 433d e0c4 b63c
00000080: 40a3 803d 26c6 01bc 34c8 8e3d 15fb 803d
00000090: 93b1 653d 9204 8d3c f0d4 6b3d 9ca1 423d
000000a0: cc3a f93c c05b dcbc 57d1 723c a18e e93c
000000b0: d788 fb3d bb56 363d 39cb a93c f1b5 463d
000000c0: d479 153c c123 57bc 7111 8d3d 953f 303d
000000d0: 2cce 853d 7669 2a3b ec1f 073d 6808 9c3d
000000e0: 29e0 743d cae5 ca3d 72f0 9d3d 60ce 5b3b
000000f0: 1522 243d 9a0b 053d bd3e 4c3d e09e 293d
00000100: cae0 843f 09f7 833f 02a0 733f 119f 833f
00000110: 535c 863f c5e5 843f c8dd 813f 09f1 853f
00000120: 97c8 793f 1fb8 813f d217 7d3f 32f8 853f
00000130: 25f1 823f 6a02 823f 6171 843f 4c48 7c3f
00000140: c868 833f af9b 803f 37c3 7e3f 6c10 863f
00000150: bea7 7f3f 5a5f 7d3f e6bf 7d3f 93da 813f
00000160: da9f 833f 1d0c 813f 0240 803f 6699 823f
00000170: 8c45 893f b682 813f 128f 7c3f bc27 853f
00000180: 6e10 f6bc 64e6 983c 56bb 57bc bdd0 003a
00000190: 4d73 af3c 35dd e7bb 6e76 9e3c 661c dbbc
000001a0: 20e0 593c d9b7 7abc 8969 b63b a78f e5bc
000001b0: 5a52 bcbb 0d18 123b 5f65 d33c 6fae 79bc
000001c0: dd94 863b ae6c 963b 1071 cc3c 66bb 623d
000001d0: 1293 dbbc 5474 2d3c 26bf 903c 4c42 3b3c
000001e0: 0bf6 183c c6f7 2b3b c715 80bb 5802 6ebc
000001f0: 7965 c6bc 11ad 933c 5207 49bb 9785 80bb
00000200: 032d 543d 20dc 483c 18d9 9abc 21fc f53c
00000210: 1eff 743d 6e81 3b3d e3a3 313d f2d1 283d
00000220: ed43 373c 6b6a a33c 9b3b 1f3d 9520 c13c
00000230: c8e1 943d 15ef 3a3c a209 413d d32a bb3c
00000240: cb9c ad3c f766 9e3c 4a99 c43c 8449 c63c
00000250: eb85 833d 31eb 2a3d c749 bb3c c275 b63c
00000260: ea20 393d ac6a 8f3d 7f7b 503d f65e 183d
00000270: 4658 723c c51f 803c 723c 433d e0c4 b63c
00000280: 40a3 803d 26c6 01bc 34c8 8e3d 15fb 803d
00000290: 93b1 653d 9204 8d3c f0d4 6b3d 9ca1 423d
000002a0: cc3a f93c c05b dcbc 57d1 723c a18e e93c
000002b0: d788 fb3d bb56 363d 39cb a93c f1b5 463d
000002c0: d479 153c c123 57bc 7111 8d3d 953f 303d
000002d0: 2cce 853d 7669 2a3b ec1f 073d 6808 9c3d
000002e0: 29e0 743d cae5 ca3d 72f0 9d3d 60ce 5b3b
000002f0: 1522 243d 9a0b 053d bd3e 4c3d e09e 293d
00000300: cae0 843f 09f7 833f 02a0 733f 119f 833f
00000310: 535c 863f c5e5 843f c8dd 813f 09f1 853f
00000320: 97c8 793f 1fb8 813f d217 7d3f 32f8 853f
00000330: 25f1 823f 6a02 823f 6171 843f 4c48 7c3f
00000340: c868 833f af9b 803f 37c3 7e3f 6c10 863f
00000350: bea7 7f3f 5a5f 7d3f e6bf 7d3f 93da 813f
00000360: da9f 833f 1d0c 813f 0240 803f 6699 823f
00000370: 8c45 893f b682 813f 128f 7c3f bc27 853f
00000380: 6e10 f6bc 64e6 983c 56bb 57bc bdd0 003a
00000390: 4d73 af3c 35dd e7bb 6e76 9e3c 661c dbbc
000003a0: 20e0 593c d9b7 7abc 8969 b63b a78f e5bc
000003b0: 5a52 bcbb 0d18 123b 5f65 d33c 6fae 79bc
000003c0: dd94 863b ae6c 963b 1071 cc3c 66bb 623d
000003d0: 1293 dbbc 5474 2d3c 26bf 903c 4c42 3b3c
000003e0: 0bf6 183c c6f7 2b3b c715 80bb 5802 6ebc
000003f0: 7965 c6bc 11ad 933c 5207 49bb 9785 80bb
