results/FullyAbstract/bachelor/bachelor-27999991.onnx (onnx, 76519 bytes, 9 tensors)

network_body._body_endoder.seq_layers.0.weight f4 [64, 7]
00000000: dcf7 193f d953 5fbe 1313 0fbf d5ee 1bbd
00000010: 9df5 2e3e 2683 2abd 1608 a13e cd34 39bf
00000020: 9fc7 203f 3bf6 d4bd 8fc6 babe ae51 a6bd
00000030: c0e6 98be 86fa 89bb 53f9 da3e 8116 67be
00000040: 0722 16be 8f26 a63c 3075 66bf f7ba dd3e
00000050: 0252 4bbd 9cf3 303e 93d7 1d3f 3706 b4be
00000060: 5d9e 23bf e65e febd 0019 0a3e 4f8b 16be
00000070: 8fe7 a4be 20cd 123f 6ab2 f4be 34af 3bbf
00000080: 4bf1 a0bd 4fc2 19be 4747 1cbe e52c 7b3e
00000090: ffaf b53e bbdc ab3e 6396 ebbd 9589 4b3d
000000a0: c417 303e 71d1 343e 7989 0ebf 8b11 883d
000000b0: 6082 bc3d 8b7f c4be 4a81 22bf 2fa6 323f
000000c0: 9cc4 053f 576e 03be cac4 3ebf 9f10 22be
000000d0: 17f6 133e 2a09 423d 9978 09bd 605f 93be
000000e0: 3610 33be 938d 2dbf 30aa 60be deee 20bf
000000f0: 3a7c aa3e 7313 1ebe 73cf 12bf 643e d13e
00000100: 9465 2e3e a9d8 00be 5f53 7ebe 8728 d53e
00000110: 7ff6 e9bd 9315 073f 4526 983e 3c0f 88bd
00000120: 7662 ab3e 7230 1bbf e8fa 953d edb9 1fbe
00000130: 5a80 b6be 038b 293e e17b b1be e919 4e3d
00000140: 7694 6d3d 6bff 203e 0232 303d 2167 3cbf
00000150: 5c2c 92be f591 a93e fb77 153f 39d6 633e
00000160: 4187 45be 5b44 2abe a942 0d3f ce04 87be
00000170: a775 1d3f d736 033f a1fb 48bb fc46 2b3e
00000180: 8b33 82be 80bd b63e d883 81bf 3b02 883e
00000190: bd30 723d 682e 46be a495 bf3e a438 7e3e
000001a0: 8e8d 613d fe72 ac3e d050 d63d 8a88 2f3e
000001b0: b2ef c3be b785 28bf 83ee 8d3e b719 f93e
000001c0: 8dd2 9dbe f7c5 98be 0f7f 4a3f bc06 8fbe
000001d0: 80df c6bd 6fe7 283e b8a4 52be b400 333e
000001e0: 7a50 8e3e 6cfb 893f bb0f 223e e84d 96be
000001f0: 7184 2f3e 1510 87be 6f03 2c3d 1e98 763e
00000200: 95c6 0dbe 4571 d7be 4006 5fbd ad25 e33e
00000210: 50e3 ec3e 97b3 6abf 8f9d 49bf c001 b0be
00000220: c517 bc3e 657d 933f 7542 58be 219b 30be
00000230: 6641 a53f 497e 9c3f c263 84bd 1571 e13e
00000240: de13 80be 2edd 19be 054e 1a3e 2472 863e
00000250: a024 b9be 3585 a73c 4da5 6c3e 3325 d93d
00000260: 3a36 73bd 1776 11bf e2b6 01bf 5720 3f3e
00000270: 6750 223e 6dd4 a0be a1d5 0b3f 0a96 51bd
00000280: 29b9 093f f0d6 a83e b451 313f 5cf4 a6be
00000290: ebe7 33bf d73a 08bd 84ac 9c3c 11a2 19bf
000002a0: 97df 533f 82f5 0d3d 037d fabe f64e 653e
000002b0: a420 dcbe 4a93 ccbe 4094 8a3e 019e 6b3f
000002c0: b807 e9bd 5306 a33d 6960 b03e ba23 90be
000002d0: 0c12 083f 35dd d9be 6747 1bbe ca46 1c3e
000002e0: 1314 15be 925f 56bf c625 f6be 53a4 e13d
000002f0: de22 05bf 1639 fa3d 5010 463e 0ab0 d33d
00000300: 170b 79be f4d5 f9be 87ae a53e 3a65 e8bd
00000310: 66a3 59be c883 bd3e c619 113f 5c78 94bc
00000320: afe4 dbbe 76e7 83bd bb6f 90bd 4956 f23d
00000330: b771 a1be ab9e 45bf 61a0 bb3e 089d 3cbf
00000340: 48e5 ed3d 159f 8ebe 4334 bcbd d5de e6be
00000350: 11b3 91bf 22d1 843e 50c5 6e3e e2f3 4fbe
00000360: c446 8d3e c30b a73d 43d2 b6bd b96c e73c
00000370: ccd6 1d3d 73a0 283e 2421 bb3e 25ab 9dbe
00000380: 5d59 523f 6508 eb3e c925 c3be 9737 96bd
00000390: 066d be3e b01b 4c3e 6fea 793c fd00 703f
000003a0: af9a b43e 3b37 f6be 8d9a 59bf 4db7 0dbe
000003b0: 76aa 2c3e 351d 7c3e d203 943f 33ea fd3e
000003c0: d6aa 3dbf aa2b 0c3b 4209 cebd 6567 323d
000003d0: ae06 8c3e f060 75bf d34f 613e 665a 523e
000003e0: bedf 8cbb b485 1cbf 25ae 263e 675b bcbe
000003f0: 3ef4 ed3d 6aac 443f 6652 003d 162e 3abe
0.6014383 -0.21809329 -0.5588848 -0.038069565 0.17085882 -0.04162898 0.31451482 -0.7234619
0.628046 -0.10398527 -0.36479613 -0.08121048 -0.29863548 -0.004210773 0.42768344 -0.22567178
-0.14661418 0.020282058 -0.90022564 0.43306705 -0.049638756 0.1728043 0.61657065 -0.35160992
-0.6391352 -0.12420444 0.13486099 -0.1470158 -0.32207915 0.57344246 -0.4779237 -0.73314214
-0.07858523 -0.15015529 -0.15261565 0.24528845 0.35485837 0.3356684 -0.11503293 0.049691755
0.17196566 0.1765802 -0.55678517 0.06643971 0.092045546 -0.38378558 -0.6347853 0.69784826
0.5225313 -0.1283506 -0.74519026 -0.15826653 0.14449345 0.04737202 -0.033562277 -0.28783703
-0.17486653 -0.6779415 -0.21939921 -0.6286448 0.33297902 -0.15437107 -0.5734779 0.40867913
0.17030936 -0.1258265 -0.24836491 0.41632482 -0.114239685 0.52767295 0.29716697 -0.06643531
0.33473557 -0.60620797 0.07323247 -0.15598269 -0.356448 0.16556935 -0.34664825 0.05031768
0.05800291 0.15722434 0.04301644 -0.7359486 -0.2854947 0.3311917 0.583862 0.22249688
-0.19289877 -0.16627638 0.5517984 -0.26370853 0.6150765 0.51255554 -0.003066756 0.16726297
-0.2542995 0.35691452 -1.011836 0.26564202 0.05912851 -0.1935364 0.37418854 0.24826294
0.055066638 0.33681482 0.104646325 0.1714193 -0.3826881 -0.6582903 0.27721033 0.4865243
-0.308247 -0.29838535 0.79100126 -0.27934825 -0.09710598 0.16494535 -0.20570648 0.17480737
0.27795774 1.0779853 0.15826313 -0.29356313 0.17140366 -0.26379457 0.041995462 0.24081466
-0.13845284 -0.42078605 -0.05444932 0.44364682 0.46267176 -0.9168028 -0.7875604 -0.34376335
0.36736885 1.1522642 -0.21119101 -0.17246677 1.2910583 1.2226039 -0.0646434 0.44031587
-0.25015157 -0.1502578 0.15068825 0.26258957 -0.36160755 0.02044926 0.23109932 0.10602798
-0.059377886 -0.56820816 -0.5066968 0.1866468 0.15850984 -0.31412068 0.54622847 -0.05116848
0.53798157 0.32976484 0.69265294 -0.32608306 -0.70275754 -0.03325924 0.01912523 -0.6001292
0.82763046 0.034657963 -0.489235 0.22393402 -0.42993653 -0.39956123 0.2706623 0.9203797
-0.11378425 0.079601906 0.34448555 -0.28152257 0.5315254 -0.4255158 -0.15163957 0.15261379
-0.14558439 -0.8373958 -0.48075694 0.110176705 -0.5200633 0.122179195 0.1934216 0.10336311
-0.24320637 -0.48796046 0.32359716 -0.113474324 -0.21253738 0.37014604 0.5667995 -0.018123798
-0.4294791 -0.06440632 -0.07052561 0.11832864 -0.3153207 -0.77195233 0.36645797 -0.7367711
0.116159976 -0.27855745 -0.09189656 -0.45091882 -1.1382772 0.25940806 0.23317456 -0.20307878
0.27593052 0.0815654 -0.08926823 0.028250085 0.038534924 0.16467457 0.36548722 -0.30794635
0.8216761 0.45904842 -0.38114765 -0.07334822 0.37192553 0.19932437 0.015253647 0.9375151
0.35274264 -0.48089013 -0.8500145 -0.13839455 0.168619 0.24620517 1.1563666 0.49592742
-0.740888 0.002138833 -0.100603595 0.043555636 0.27348846 -0.9585104 0.22003107 0.20542297
-0.004299133 -0.61141515 0.16277368 -0.36788484 0.11618851 0.76825583 0.03132858 -0.18181643

network_body._body_endoder.seq_layers.0.bias f4 [64]
00000000: 7f27 823d 6254 24be 99d7 b0bd 2ec3 953e
00000010: 0f4f acbd 40e8 eabd dcd6 c93d 3bb3 0a3d
00000020: ee7e fbbd 1186 0b3e b96a 4dbe 492c 84be
00000030: bbd1 5fbe 73e8 873c b0bc 8ebe 2f48 bdbb
00000040: ffea 85bd cfd8 4fbe eee2 4cbe 9002 433e
00000050: f0e0 823e 6556 293e 5b52 1ebc fe71 363f
00000060: 8142 773e 8e45 5abd b5fb 92be 675b c5bd
00000070: 5bd5 833d ecde 823e c6a8 3e3e c6fa 83be
00000080: 6890 2d3d e836 c4bd b6c3 3b3e 7562 19be
00000090: 41bc d03d 4aa3 52be 6066 37bd 5c47 fdbc
000000a0: 4527 2cbe 552d c43d cec3 8cbe d7ba 933e
000000b0: f31d 56be d309 7e3e 5969 55be b52b e4bd
000000c0: f56c 983e 09ea 483d 84da 14be 20ad 0a3f
000000d0: a04a 97bd f0eb c13d fa90 823e 6ec9 69be
000000e0: 3658 13be 35e9 b03c b535 c23e 55ed 8abe
000000f0: 1631 2ebe ac31 06be 929c 99bd 4d92 413e
0.063551895 -0.16047814 -0.08634872 0.29250473 -0.08413517 -0.114700794 0.09855434 0.033862334
-0.12280069 0.13625361 -0.20060243 -0.25815037 -0.2185735 0.016590333 -0.27878332 -0.005776427
-0.065389626 -0.2029755 -0.20008442 0.19043946 0.2556224 0.16536863 -0.00966319 0.7126769
0.24146463 -0.05328899 -0.28707662 -0.09636574 0.06437179 0.255607 0.1861907 -0.25777262
0.042374045 -0.09580785 0.18336377 -0.14978965 0.101921566 -0.20570102 -0.044775367 -0.030917816
-0.16811855 0.09578959 -0.27493137 0.28853485 -0.20909862 0.24808435 -0.20840968 -0.11141149
0.29770628 0.04905132 -0.14536482 0.5417042 -0.073872805 0.0946883 0.25501233 -0.22830746
-0.14389119 0.021595577 0.379316 -0.27134195 -0.17010912 -0.13104886 -0.075005665 0.18903466

network_body._body_endoder.seq_layers.2.weight f4 [64, 64]
00000000: fc68 0f3e ec5c 0f3e 84fd 60bc 94ed 833e
00000010: be97 fa3d 7c14 353d fce1 a9bd 4a06 09be
00000020: 989a 7e3d ceba 8abe 60d7 c2bd cd84 af3e
00000030: ed95 a73d 4bda b0bc 54d3 0c3d 7b8d 93bc
00000040: 5d1d e73d bee3 90be 2562 4f3e e90d 123e
00000050: b191 68be ae84 053e c856 c23d 4922 f0bd
00000060: 53eb a0be c77a 223c 3407 1a3e 25f2 213e
00000070: d251 473d 6835 b3be 4a52 2abe daf0 cd3d
00000080: f93b a1bd bb5d a4bd 436f 983d 530d 0c3e
00000090: 8eb8 17bd 2a86 213b 1949 c73d 6535 c13c
000000a0: 7551 64bc e5d4 9d3d 6438 a93d a9ef 40be
000000b0: 9719 623e bb96 d3be c5ef 3cbd 07f9 eb3c
000000c0: b3b5 38bd b51d 8f3e 0a01 02bd 8ab4 77be
000000d0: 7f21 ca3d 7478 59bc b64c a4bd a6f9 803e
000000e0: bb00 c33d 0ac0 43bd 12f3 9bbe 3996 503e
000000f0: c249 4e3d b770 fcbd 6a01 8e3c c0ee b63d
00000100: c509 d8bc 0d8b 3ebc a3cc 08bd 83fb 7dbd
00000110: 54ff 593d dc51 92ba ae8d 63bd 3062 f3be
00000120: 64cd d23c be78 b0bd c8f6 98bd fca3 a9bd
00000130: f57f 403d 6171 1f3e 8fe0 31be 2947 6b3d
00000140: 0115 22be e4e7 d4bc d12e c0bc 1d81 f33d
00000150: 04d2 0b3b 7e4b 82be 813c 3f3e 0308 403e
00000160: 5cd2 c0bd 2bb6 2dbe 4c6a 973e f767 17be
00000170: 7235 31be f8d3 89be 4eef 60be a11a 3fbd
00000180: 7a27 193d 37d8 f33d bde8 0bbe d851 f7be
00000190: c4dd edbd 0907 3fbd 3c3a 7eba fd09 b2be
000001a0: 4b84 b23d 8bb3 29bd 1985 e1be 4c54 a2bd
000001b0: 938d 063e 7f14 e73b 728c a43d 7d04 dbbe
000001c0: cf98 243b c983 3fbe 9e1b 20be 940a 8ebe
000001d0: ffbc db3b 659a 06be 5c8b b33d 3bde 623d
000001e0: 0217 7a3e 5f31 17bd 1e3d 74be 8956 71be
000001f0: a6d8 933e a78a 05bc dbc8 8b3d 7724 92bd
00000200: 7803 acbe ee8a e93c 355e 463e 9257 97be
00000210: df35 78be 2ce9 72be cd18 b9be 4bb5 d73d
00000220: dbd2 76be d126 84be c866 6b3e fc50 313e
00000230: f2ba 723e 061f 29be 7a55 253e 3972 0b3d
00000240: f98d 0c3e 18ea 4f3e 1b42 52be 8646 e33b
00000250: c77f 8f3d c833 7a3d ee21 10be 0f33 33bf
00000260: d0bd f7bd 2090 4c3d eff7 99bd 0bd0 d4bd
00000270: 3727 debc 1d90 1cbd 0ecd 2b3e da21 503e
00000280: b807 71be b8b4 a5be 25ad 2fbe 7413 83be
00000290: 0d81 47be dc66 473e 0da7 44bd dee2 9d3d
000002a0: 2a94 c8bd 184c 8dbc 647b 6f3e 4517 7e3e
000002b0: 41ea ed3d fee2 a03e 94ca a2bc 1a13 b2bc
000002c0: 4ec2 30be cbe5 403b 8434 563d 5588 df3d
000002d0: c6f4 c73e 1c53 4b3e 1c19 1bbe 937f 723e
000002e0: a6ca 153e 2425 cf3c cddd acbd b8ca ac3d
000002f0: e03a c73e 1ec9 513e f23b bbbd b681 c73e
00000300: 28ed 20be ec32 31be 2b99 083e 4c12 27bd
00000310: 5e11 59be e589 07bc f8c8 75be 0312 d2be
00000320: 5f81 66be 1b05 b53d 7450 7bbe 6339 bebc
00000330: 8dce 4dbc a46b edbd 098d 5abe 3bab 31be
00000340: b73c 26be 8c83 523e 003c 013d 1f8f 463d
00000350: c40e bbbd 3e7b 46be 62f5 e0bd f31e babe
00000360: 6566 eebd ef4f 87bc c248 e2bc b90f 163d
00000370: 27a8 abbc 50fb 92bd 00b9 ff3d 7492 c53d
00000380: aaf8 67be 7b1a 98bd 93b0 5ebe d9a8 76bd
00000390: c489 21bd d9e5 a63c fa52 d6bd d6c6 e63d
000003a0: b40b 133b 8040 ab3b f00d 2e3e 5f88 27bd
000003b0: 38a2 d73d 6ab4 09be 2ef0 1ebe 17a3 2bbd
000003c0: 1e7e 54be 26ad 22bd 45a9 1d3e 4e7d d43d
000003d0: ebfb bd3d 7072 803d 1024 83bd ff92 23bc
000003e0: da71 b43b cb29 74bd 98a2 0f3d 28fb 483d
000003f0: 0416 65bc 6a36 203e fbd7 6abe fa73 633d
0.14004892 0.1400029 -0.013732318 0.25767195 0.12235974 0.04420899 -0.08295056 -0.13381305
0.06215915 -0.27095646 -0.09513736 0.34281006 0.08182893 -0.021588465 0.034381226 -0.0180118
0.112848975 -0.28298753 0.20252283 0.14263119 -0.22711827 0.13038895 0.094892085 -0.117252894
-0.31429538 0.009916968 0.1504181 0.15815027 0.048662014 -0.35001683 -0.16632953 0.100557044
-0.07872767 -0.0802569 0.074430965 0.13676958 -0.03704124 0.0024646618 0.09730739 0.02358503
-0.0139354365 0.07706622 0.08262709 -0.18841423 0.22080074 -0.41325936 -0.0461271 0.028805269
-0.045095157 0.27952352 -0.031739272 -0.24189964 0.0986967 -0.013273347 -0.08022444 0.25190467
0.09521624 -0.047790565 -0.30458885 0.20369805 0.05036331 -0.12326186 0.017334659 0.08932257
-0.026371846 -0.011629832 -0.03339828 -0.06200744 0.053222016 -0.0011163312 -0.05555504 -0.4753585
0.025732704 -0.0861678 -0.07468945 -0.08283231 0.04699703 0.15570594 -0.17370819 0.05744091
-0.15828325 -0.02598948 -0.023459824 0.11889861 0.0021334896 -0.2544822 0.18675424 0.18753056
-0.09415123 -0.16964023 0.29573286 -0.14785753 -0.17305544 -0.26919532 -0.21966287 -0.046656255
0.037391163 0.11906474 -0.13663001 -0.4830463 -0.11614564 -0.04663757 -0.00096980087 -0.34773245
0.08716639 -0.04143099 -0.44046858 -0.079262346 0.13139944 0.007052004 0.080346 -0.42776862
0.0025115495 -0.18702616 -0.15635535 -0.27742445 0.0067058797 -0.13144834 0.08766815 0.055387717
0.2442284 -0.03691232 -0.2385144 -0.23568167 0.28876227 -0.008150733 0.068254195 -0.07135861
-0.33596396 0.02850863 0.19371875 -0.29558998 -0.242393 -0.2372176 -0.36151734 0.10532626
-0.24103872 -0.25810865 0.22988427 0.1731605 0.23704126 -0.16515741 0.16145888 0.034044478
0.13726033 0.20304143 -0.2053303 0.0069358973 0.070067935 0.06108454 -0.14075443 -0.69999784
-0.12096751 0.049942136 -0.07517993 -0.103912435 -0.027118308 -0.038223375 0.16777441 0.20325413
-0.235381 -0.3236444 -0.17155893 -0.2560078 -0.19482823 0.19472831 -0.048010875 0.07709287
-0.09793885 -0.017248198 0.23386914 0.24813564 0.11616946 0.3142318 -0.019871987 -0.021737624
-0.17261621 0.0029433842 0.052296177 0.10914675 0.39053935 0.19855922 -0.15146297 0.23681478
0.14628085 0.025286265 -0.08440743 0.08437103 0.38912106 0.20486876 -0.09142293 0.3896615
-0.15715468 -0.17304581 0.13339679 -0.040788934 -0.21198031 -0.008272623 -0.24002445 -0.41029367
-0.22510289 0.088388644 -0.24542409 -0.023220723 -0.012561453 -0.115927964 -0.21342863 -0.17350475
-0.16234098 0.20557994 0.03155136 0.048476335 -0.09133676 -0.1938295 -0.10984303 -0.36351737
-0.11640624 -0.016517607 -0.027622584 0.036636088 -0.020954205 -0.0717684 0.12486458 0.09647074
-0.22653452 -0.07426926 -0.21747045 -0.06021962 -0.039438024 0.020373272 -0.10465045 0.11268394
0.0022437396 0.005226195 0.16997504 -0.040901538 0.10528988 -0.13447729 -0.15521309 -0.04190358
-0.20751235 -0.03971591 0.15396602 0.103754625 0.09276565 0.06271827 -0.06403363 -0.009983777
0.005506736 -0.05961017 0.03506717 0.049067646 -0.0139823 0.15645757 -0.22933953 0.055530526

network_body._body_endoder.seq_layers.2.bias f4 [64]
00000000: 4002 9dbe a720 dabc 36c6 6dbd 379e 20be
00000010: 5dc4 aa3d cc0c 29be 0282 573c 3e42 18bd
00000020: 41dc a23c 7ed2 2a3e 9eb2 46be 2ff5 86bd
00000030: 5e63 503e 48ef 9e3e 5309 d33d 59ee ea3d
00000040: 34f3 07be 0b87 96bd e462 8c3e 7ece 91be
00000050: b223 63bd 5a53 18bd 43c5 53bc 88b0 f43d
00000060: c7e5 123e 2780 bfbd 4dfa 22be ce63 d9bc
00000070: 5b0e 28be 1a26 f8ba 4de7 28be eb73 443e
00000080: 5d3f 883d a5a6 bfbe 1729 5fbd e4cc 3bbe
00000090: 5732 543e eae6 c63e 77f1 b03d 552d a03d
000000a0: 0d9f 2b3e ba5e a93e aeb9 153e c48a db3d
000000b0: 9daf b2bd 8c34 c53c ba43 7bbc 7fff 98bc
000000c0: 05a7 a4bd 42a4 75bd 66e2 593e 8f6d 9fbe
000000d0: 58ed cb3c 0d97 603d d1a6 8c3d 80be 4cbd
000000e0: 6660 1fbe ac27 d63e 9901 c43a 0857 8c3c
000000f0: ab2d 5d3e 6a12 9f3e 747c 88bd 2f9f d33d
-0.3066578 -0.026626898 -0.058050357 -0.15685354 0.083382346 -0.16508788 0.013153555 -0.03717255
0.019880416 0.16681859 -0.19404075 -0.06589734 0.20350406 0.31041932 0.10304513 0.114712425
-0.13276368 -0.07349976 0.27419198 -0.28477854 -0.055453964 -0.037188865 -0.012925449 0.11947733
0.14345466 -0.09350615 -0.15915795 -0.026536848 -0.16411726 -0.0018932254 -0.16494484 0.19184844
0.066527106 -0.37431827 -0.054482546 -0.18339878 0.20722328 0.38848048 0.08639806 0.078211464
0.16759892 0.33080083 0.14621612 0.10719827 -0.08724902 0.024072908 -0.0153359715 -0.018676518
-0.08039669 -0.0599711 0.2127777 -0.31138274 0.024893448 0.054831553 0.06867755 -0.049986362
-0.15564117 0.41827142 0.001495409 0.017131343 0.21599452 0.31068736 -0.066643625 0.10333096

action_model._discrete_distribution.branches.0.weight f4 [4, 32]
00000000: 0d20 4f3e c449 ad3e 1b52 1ebf 804e 1a3f
00000010: 8244 ee3e c758 ed3d 2c67 2abf 6012 47bf
00000020: 04f4 833d f3d9 5bbe b606 7040 faa3 87be
00000030: bf69 f9be 6fec 06bf ed24 fd3e bfbb a7bf
00000040: 9578 0ac0 35ba a23e 99f1 86bf 9e40 223e
00000050: 0824 023e f593 87be b5c9 8bbe f27c ebbf
00000060: 3382 613f 8e44 87bf da80 ac3e 7f1e 033f
00000070: 598d 4cbd 8b58 8e3e e6a0 aabd f6f7 aabe
00000080: 1bbe e23e 5732 e9bd be2d dbbe c814 4abe
00000090: 4e87 0f3f f90f 80bd b9e5 8b3f 56ef 82be
000000a0: f112 59bf 6def 11bf 8b79 b9bf 95ea 3dbf
000000b0: 1480 78bc 2f38 b23e 04c5 943d 27f3 4b3f
000000c0: f5ba 8b3f 84b4 e3bd df4e f33e c726 2fbe
000000d0: d073 0c3f 41ca debd 23a1 e63e 7b6a 0c3f
000000e0: 95a9 be3e 0eb2 513f 56b3 a9ba 9ae6 a8bd
000000f0: e102 543d 559b b8be a9be 48be 81e6 83bf
00000100: c561 05c0 ff90 683b 4a01 e53e fde0 c63e
00000110: 9085 eebf 648c 3dbe a80c 08bf 1f08 0440
00000120: 3601 543f 5ab0 9b3d fe51 14c0 bd40 fdbd
00000130: f70f 263f cb5d 743e 4516 94bf b2ae 41bf
00000140: b461 9abf c8da 4dbf 6c93 e03f 671c 513f
00000150: 0f8b 3e3f cc5f 17bf 5d20 1fbf 59e4 883f
00000160: 9234 29bf a2d1 d03d d6bb 5b3d 41a0 ee3c
00000170: c114 573e 7ce3 ed3d abc9 55be c9e0 1340
00000180: 9f85 c2bd 69f9 65be 29e6 b83e 57f5 45be
00000190: 11c6 ebbe 9d2d f43c 84b0 c0be 82a5 cc3e
000001a0: 408d cc3e 4de2 363f 72d4 8cbf 58bc 1c3e
000001b0: b694 9a3e acda 3b3e 3339 003d 6adc 653f
000001c0: 0a36 b53f 3e80 1f3e 1b64 c53d e4b4 87be
000001d0: 0b2a 90bf ec4c e63e aafe 283e 8a7a ed3e
000001e0: 2134 84bf affe 813e efc5 7ebe 5bc5 0abf
000001f0: 03e4 98be a6e1 7d3d 2f66 db3e e5de d73d
0.2022707 0.3384534 -0.61844033 0.6027603 0.46536642 0.115891986 -0.6656368 -0.77762413
0.06443027 -0.2146986 3.7504096 -0.26492292 -0.4871349 -0.5270452 0.49442235 -1.310417
-2.1636097 0.3178269 -1.054248 0.15844962 0.12709057 -0.2648007 -0.27302328 -1.8397505
0.88089293 -1.0567796 0.33692056 0.5121841 -0.049939487 0.27801928 -0.0833147 -0.33392304
0.44285664 -0.11386555 -0.42808336 -0.1973449 0.56065834 -0.062530465 1.0929481 -0.25573224
-0.8479453 -0.5700596 -1.4490217 -0.7418607 -0.015167255 0.3480849 0.0726414 0.79667896
1.091643 -0.11118415 0.4752111 -0.17104636 0.54864216 -0.108784206 0.45044813 0.54849976
0.37238756 0.81912315 -0.0012947123 -0.08247109 0.051760558 -0.3605601 -0.19603981 -1.0304719
-2.0840924 0.0035486815 0.44727546 0.38843527 -1.863451 -0.18510586 -0.5314431 2.0629957
0.8281435 0.07601996 -2.3175044 -0.123658635 0.6486811 0.23863904 -1.1569296 -0.7565719
-1.2061067 -0.8041196 1.754499 0.81683964 0.74430937 -0.5913055 -0.6215876 1.0694686
-0.6609584 0.10196234 0.05364593 0.02912915 0.2100401 0.11615655 -0.20877711 2.3105948
-0.094981425 -0.22458424 0.36113098 -0.19331871 -0.4604955 0.029806906 -0.3763467 0.39970022
0.39951515 0.7143906 -1.1002333 0.15306222 0.30191582 0.18345135 0.03130455 0.8978945
1.4157116 0.15576264 0.09638234 -0.26505196 -1.126283 0.44980562 0.16503397 0.46382552
-1.0328408 0.2538962 -0.24880193 -0.5420739 -0.2986146 0.061982773 0.42851397 0.10540561

action_model._discrete_distribution.branches.0.bias f4 [4]
00000000: e98c 8140 1d8b f4bf 2468 3cc0 5854 1cbf
4.048451 -1.9104954 -2.9438562 -0.610662

onnx::LSTM_98 f4 [1, 128, 64]
00000000: fcc8 64be cea3 45bc 1682 d03d eac5 eabd
00000010: 7a99 2e3e e1a3 573e 1c4d c03d 7f33 143e
00000020: aa1b cfbd 9e01 06be b734 52bd 08df 263d
00000030: be30 f9bd 6642 f63d 5af0 e8bd 5f22 0f3e
00000040: 272a a33e 0f7c aabd 7724 2dbe ecd1 253e
00000050: 29ee 0a3f 3310 2c3e 0d34 16bd 984f b03e
00000060: 2340 5b3d 39df bc3d 176d ae3d 6bcb e2bd
00000070: 53eb f63d d1bc 60be 0baf 2d3f 9403 0a3f
00000080: 5b42 353e 7cc2 92be 839e 98bd 1a9e dd3b
00000090: 1701 bfbc a6b5 203e f0b3 ae3d c44e 683e
000000a0: 398c c33d 0920 bbbc a99e 883e ef24 bebc
000000b0: 6010 f93d 9de2 353e ba17 383e 82c5 443e
000000c0: d64e 9fba de4e 833e 97d0 78bd ef61 08be
000000d0: a1c4 713b 6b05 023e 9731 c33d 730b 653e
000000e0: 0c7d 093e 9fa2 c1bd 10a4 dfbd d5ff 163e
000000f0: bfce 853e da9d 5f3d 58a6 9e3e 1265 ac3e
00000100: 43a5 c53e c898 9f3e 4918 4d3e 29d0 1c3e
00000110: e028 1b3e 6a2b 0e3e 4459 83bc 963f 91be
00000120: c92b 2a3d 20ad ec3e 7bc9 b7bd eab0 113d
00000130: 49b1 313e d5bc f9bd 2242 b63d 1aa9 34be
00000140: bd91 a83e 1e02 033c b118 2b3e 771a 76be
00000150: 62f9 45be 4264 8c3e b21a 9a3d 1f97 f83e
00000160: 8adf fabe 9e47 bd3d 93ea 9e3d 4534 b6bc
00000170: 7f0f 433d 40e1 89be 6fc6 96be d6d5 86be
00000180: ac03 43bd 2d06 2b3d 02f4 0a3c a696 643e
00000190: 238d b93d 3755 533e d96e c9bd 011d 8abe
000001a0: d366 01be 8c07 8fbc 2132 193e b7a3 ca3d
000001b0: e953 46be 84c8 943d 62f4 76be 4810 0abd
000001c0: dcc7 abbe 85aa 753e 49d6 1bbe ff61 493e
000001d0: b1aa 8cbe 9159 d03d 9f72 61be 203d cc3b
000001e0: 9858 87bd 07c7 833e 756d e2bd 5308 0a3e
000001f0: 4030 833d 4ec6 a7bc 6423 01be feb4 0ebe
00000200: af56 9e3c cfc6 86be ba9b d13e 7b6e b93e
00000210: 96b1 113e 4603 5e3e 8f27 9abd 10d5 623e
00000220: e15c 533e 70fd 993d 233c cabe 006c 0c3d
00000230: ef19 143e c9e5 223e 87b0 ae3e 04df b9bd
00000240: f40b c43d 005d 8d3d 9faa ad3e f9ad 2b3d
00000250: 0130 c83e 1f9c ee3d 7af3 74bd 0ccc e43e
00000260: 8cef 8abd f2ab db3e abe6 b73d d2d0 e0be
00000270: 9705 0fbe 05ac 873d ee10 8a3c 6ce3 563e
00000280: 36ed 8e3d d904 f33e 06e1 e93e e755 0c3e
00000290: 5d67 1d3e 7818 8dbe e657 0ebe 8a19 743e
000002a0: bd1b 943e fc22 a2be ce5e 6b3e cd06 87bd
000002b0: 4d7b a9bd 321a 043e 1eb6 9f3e d251 88bc
000002c0: 7444 cbbd 808f 933e 2c9d d2bd d327 d23e
000002d0: 4de9 21be 4510 563c fa31 9a3e 0611 193e
000002e0: 7cfe 083e fd88 c2bd 1e48 023e 6724 4e3d
000002f0: f930 d93d 3a91 44bd d1d4 c83e 5af1 c13e
00000300: 11c8 32bc dbf2 1abe b80f 4fbe a793 f5bc
00000310: 4c40 37be 9ac3 c3bc 54e6 38be f1ef 553e
00000320: ab64 623e ce79 fd3d 0182 d03e 39d6 01bd
00000330: 6ea0 473e 09d7 31be 9bc7 afbe 57b8 03bd
00000340: 43fd b2be 1320 80be 45fb 213e e525 603e
00000350: c57b b03d 3a37 7e3d e161 0b3e 13fe aa3e
00000360: 314f 993e 2497 1d3d cf37 afbe 6bac 81be
00000370: 6620 723b d647 183f 0054 e13c 4eac c03e
00000380: e891 163e 045c 28be ae78 e53e a5c8 413d
00000390: 6339 b5bc df59 293d e3ff 653d 2fad c53d
000003a0: 29aa 313e 0025 453e e480 82bd 6fa9 8f3d
000003b0: fc06 873c ab26 a8bd a0a8 e63d b3f4 27bc
000003c0: f523 5bbc ddbc 2dbd 763b f53d 385d 8fbe
000003d0: 2be2 07be bfd2 5e3e e984 163e 96a7 30bd
000003e0: 56bd ad3d 5a43 a53e f8d1 54bd 8e79 113d
000003f0: db19 433e 8876 a23d f4a2 9a3d 25af 32be
-0.22342294 -0.01206298 0.10181062 -0.1146353 0.17050734 0.21058609 0.093897074 0.14472769
-0.101126984 -0.13086554 -0.051319804 0.040740043 -0.121675 0.12024383 -0.113739684 0.13977955
0.31868097 -0.083244435 -0.16908441 0.1619336 0.54269654 0.16803055 -0.036670733 0.34435725
0.053527962 0.09222264 0.08516901 -0.11073955 0.12056603 -0.21947028 0.6784522 0.5391171
0.17701094 -0.28664005 -0.07452109 0.006763232 -0.02331595 0.15694293 0.08530414 0.22686297
0.0954823 -0.022842424 0.26683548 -0.02321097 0.121613264 0.17762227 0.17977801 0.19215968
-0.0012154232 0.25646108 -0.0607458 -0.13318609 0.0036890882 0.1269738 0.09530943 0.22367649
0.13426608 -0.09454846 -0.10919964 0.1474603 0.26134297 0.0545939 0.30986285 0.3367086
0.38602647 0.3117125 0.20028795 0.15313782 0.15152311 0.13883749 -0.016033776 -0.28368825
0.041545663 0.46225834 -0.08973976 0.03556911 0.17352785 -0.1219422 0.088993326 -0.17642632
0.3292369 0.00799611 0.16708638 -0.24033533 -0.19333413 0.2742024 0.07524623 0.48552796
-0.48998672 0.092421755 0.07759585 -0.02224172 0.0476222 -0.26929665 -0.29448268 -0.2633502
-0.047610924 0.041753937 0.008481028 0.22323093 0.09060123 0.20637976 -0.09835596 -0.26975253
-0.1263688 -0.017459653 0.14960529 0.098945074 -0.19367947 0.07264808 -0.24116662 -0.033706933
-0.33550918 0.2399083 -0.15218462 0.19666289 -0.27473977 0.101733334 -0.2201638 0.0062328726
-0.06608695 0.25737783 -0.110560335 0.13479738 0.06405687 -0.020480301 -0.12611157 -0.1393623
0.019328443 -0.26323554 0.40939122 0.36217102 0.142279 0.21680936 -0.075270765 0.2215159
0.20640899 0.075190425 -0.39499006 0.034282684 0.14463018 0.15907969 0.34119055 -0.0907574
0.095725924 0.06902504 0.33919236 0.04191396 0.39099124 0.116508715 -0.05980251 0.44686925
-0.06783971 0.4290462 0.08979543 -0.43909317 -0.13966976 0.06624607 0.016853776 0.20985192
0.06978838 0.47464636 0.45679492 0.13704644 0.15371461 -0.2755773 -0.13900718 0.23837867
0.28927413 -0.31667316 0.22985384 -0.06593094 -0.08275471 0.12900618 0.31193632 -0.016640577
-0.09925166 0.2882042 -0.102838844 0.41046008 -0.15811653 0.013065402 0.30116254 0.149479
0.13378328 -0.09498785 0.12722823 0.050327685 0.10605044 -0.04799006 0.39224866 0.3787945
-0.010911957 -0.15131705 -0.2022084 -0.029977633 -0.17895621 -0.023896981 -0.18056613 0.20892312
0.22108714 0.12376748 0.40724185 -0.03169844 0.19494793 -0.17367186 -0.34331974 -0.032158222
-0.34958848 -0.2502447 0.15818508 0.21889456 0.08617357 0.062064387 0.13611557 0.33396968
0.2994323 0.038474217 -0.34222266 -0.25326857 0.003694558 0.5948461 0.027505875 0.37631458
0.14704096 -0.16441351 0.44818634 0.04731049 -0.02212209 0.041345473 0.056152236 0.09652173
0.17350067 0.19252396 -0.0637224 0.07014739 0.016482823 -0.082105 0.112626314 -0.010251212
-0.013375272 -0.042416442 0.11974232 -0.28000808 -0.1326987 0.21760081 0.14699139 -0.043128572
0.084833786 0.32277948 -0.051958054 0.035516314 0.19052832 0.07932764 0.07550612 -0.17449625

onnx::LSTM_99 f4 [1, 128, 32]
00000000: f42c 003e 7905 873d 6e98 fbbd cfe9 66be
00000010: a9ce d93e 32b3 a93e 5324 0cbe 893e dabe
00000020: 0036 4dbe c26b af3e 674d 13bd 1557 0f3d
00000030: 746b 7b3b de39 8abe b1d7 74bd b7a2 76be
00000040: 06e7 123d 207d 143e 00b5 943e 2ecc 12bf
00000050: 1258 81bc e280 c5be 6948 17be f37b 48bb
00000060: fb20 f3bc 884b 90be b0cd b03d 57c0 86be
00000070: 21db fb3d e68d b23e 980f 473e 7965 a7bd
00000080: f5b1 283d d9a1 a43d bae8 7fbe a89f 1abe
00000090: f47a b93e 0a08 3fbd 7138 f63d 6fde 77be
000000a0: 2c4f 27bd aa19 833e 3e1b 413d 97df e83d
000000b0: b4da 82bd ef8f b0bd 738d 7f3e 56a1 a53e
000000c0: 0507 d83d ab95 af3e 54b0 87be 633e 4ebe
000000d0: cb72 9c3e b4b2 cbbd 27a6 b43e 045a 0a3e
000000e0: 142c c13b a1f4 803d dd4c 90be d468 73bd
000000f0: 4dec 8abe 974f 98be 1df6 9b3e b010 e8be
00000100: 2204 a83e 2275 0dbf e2df aabe 3ddd cd3c
00000110: 08ed b1be e25f bebd 682a 0dbd e0a7 c23e
00000120: 44f4 abbd 59ac 953d e5ec 32bd 3fb2 4d3d
00000130: 8c98 24be 83f1 55be 510a 983d fc08 d83e
00000140: 7b3f 593e f91e 2ebf 3fbd da3e 2d41 bcbd
00000150: d81c 97bd 4a1c 41be 37ea 51be a8eb 44bb
00000160: 455e c93e 162b 86be 39ac 8bbe 0c77 e33e
00000170: 85cb ec3d 588a 163d 2555 c3be f3ae a33d
00000180: 0d8f eb3c f28e c03e d080 03be 7a11 3f3d
00000190: 26ce 063e 5dca 853e 57aa 9fbd 27a0 22be
000001a0: 737a 8f3c 10b8 2c3e 120a 7a3e b32c c5be
000001b0: c0dd aebb cf51 2ebe 6808 4fbe eee6 51be
000001c0: a370 f13d fa99 80bd 1bd2 6f3e 3127 b83d
000001d0: d526 8fbe ef48 653e f229 d0bd c8ed 8f3c
000001e0: 5e5d d23e f9f6 053e 35d6 c53d 8bc8 14be
000001f0: 2bb0 35bd 78ac d3bd 1e16 5f3e 5516 303e
00000200: 86ca a83c df19 833d 76a8 663d e0e0 5f3e
00000210: 2d08 a1bc 9784 a03d a956 26bd 3d3e eebd
00000220: fafc 5dbd e6d4 b939 c42a 02be 59c6 5c3e
00000230: be3e f23e f201 20be 8476 6fbe e696 68be
00000240: e6d9 343e 6ec2 0dbe c30c b4bd 8672 a13e
00000250: 5301 97be 4e3b ce3e 5070 233c ed58 643c
00000260: fb8c 04bf 16c0 373e 0a51 9abd 1e1d b63d
00000270: c969 903e 93cc de3e cfce 8ebe 8bd4 053f
00000280: 4750 88be 15ee 39be ec4d 1d3d 3df1 fc3a
00000290: 3b91 f7bd 4e06 e6bd 4b72 8dbd 52f3 cabd
000002a0: a349 ad3d 0647 c8be 1078 033f eb3d e13e
000002b0: b294 ecbc d309 98be 88cb c63e ed8f 783e
000002c0: 47de 923e b15f 7dbe 93da c3be 77a8 043e
000002d0: 447f 1abe 22d8 b03b fb0c ff3c 8f6c e6bc
000002e0: b05d 7c3e c3a5 f6bd 2e53 e83d ffa8 34bd
000002f0: e5fa 68be 6e21 e1be 5ac6 9dbe b1d8 99bc
00000300: d518 66be d806 ab3e 0451 e83e c25b 103e
00000310: 54ef 233c 15c0 033e 75eb aabe a865 bebe
00000320: abcf e43e a335 70be 5d45 c9be 1375 343e
00000330: 5c2c 75be 0df3 e73d 63ed ca3e afb0 8dbe
00000340: 7238 abbe 247a ad3d 0eeb eebd b09f bfbe
00000350: 0298 58bd f8e7 053e 44cf d3be 12fe b6be
00000360: 5462 53be 9664 543e 89e7 c1be b539 3e3d
00000370: ce0a 80be 662c c8be df37 fc3d 9898 b83e
00000380: eeaf b73e c206 c23d c213 bf3d a496 c4bd
00000390: 31b8 c03e 82f4 82bd 76c1 b2bd cb97 9d3d
000003a0: 73d7 06be 0efb d13d 292e a1be f6ab 753e
000003b0: 93a1 053e 3c35 033f dc48 5a3d 4f23 353d
000003c0: b976 753e cbfa 133c b571 e93d e144 efbd
000003d0: 945e 2abe 5205 6dbd 16db 8d3e 2585 de3c
000003e0: 99cc 7abe 0b22 a7bd 940d 1c3e fac8 4dbe
000003f0: 8030 81bd 8842 903e 6519 8cbe 69de 87bd
0.12517148 0.06592841 -0.12284933 -0.22550128 0.42540482 0.33144528 -0.13685732 -0.42625836
-0.2004013 0.342619 -0.03596249 0.034995157 0.0038363608 -0.26997274 -0.05977601 -0.24085508
0.035864852 0.14500856 0.29044342 -0.57342803 -0.015789066 -0.38574892 -0.14773716 -0.0030591458
-0.029678812 -0.28182626 0.08632982 -0.2631862 0.12297655 0.34873885 0.19439542 -0.08173651
0.041185338 0.080386825 -0.24991122 -0.15099967 0.36226618 -0.046638526 0.12022484 -0.24205945
-0.04084699 0.25605518 0.04714512 0.113707714 -0.063893706 -0.08621203 0.24956302 0.32349652
0.10548214 0.34293875 -0.26501715 -0.20140986 0.3055633 -0.09946194 0.35283014 0.135109
0.005895147 0.06296659 -0.28183642 -0.059426144 -0.27133408 -0.29748222 0.30461207 -0.45325232
0.32815653 -0.55256855 -0.33373934 0.025129909 -0.34751153 -0.09295632 -0.03446427 0.38018703
-0.08396199 0.07308263 -0.04368295 0.050218817 -0.16073817 -0.2089291 0.07423843 0.42194355
0.21215622 -0.6801601 0.42722508 -0.09192119 -0.073785484 -0.18858448 -0.20499502 -0.0030047689
0.39329734 -0.26204747 -0.27279833 0.44426763 0.11562256 0.03675303 -0.38150898 0.07992353
0.028754735 0.3760906 -0.12842107 0.046647526 0.13164577 0.26130953 -0.077961616 -0.15881406
0.017514443 0.1686709 0.24417904 -0.38510665 -0.0053364933 -0.17023395 -0.2021805 -0.20498249
0.11789062 -0.06279369 0.23419993 0.0899185 -0.27959314 0.22391103 -0.101642504 0.017569438
0.4108686 0.13082494 0.096599974 -0.14529626 -0.04435746 -0.1033563 0.21785781 0.17196019
0.020604383 0.06401419 0.056313 0.21863127 -0.019657219 0.078377895 -0.04060999 -0.11632965
-0.054196335 0.0003544457 -0.12711626 0.21560039 0.47313493 -0.15625742 -0.23385054 -0.22713813
0.17661247 -0.138437 -0.087914966 0.31532687 -0.29493198 0.4027962 0.009975508 0.013937217
-0.5177762 0.17944369 -0.07534988 0.088922724 0.28205708 0.43515453 -0.27892157 0.5227744
-0.26623747 -0.18157227 0.03840439 0.0019297969 -0.120882474 -0.11231671 -0.06906565 -0.09909691
0.08461311 -0.39116687 0.51355076 0.43992552 -0.028879497 -0.29694995 0.38827157 0.24273653
0.2868521 -0.24743535 -0.38252696 0.12954889 -0.1508761 0.005396859 0.03113412 -0.028127937
0.24645114 -0.12043335 0.1134399 -0.04410648 -0.22751959 -0.43970817 -0.30815393 -0.018780084
-0.2247041 0.3340366 0.4537431 0.14097503 0.010005791 0.12866242 -0.33382764 -0.37186933
0.44689688 -0.23457961 -0.39310732 0.17622785 -0.23942703 0.11325655 0.39634237 -0.2767386
-0.33441502 0.08470562 -0.11665927 -0.3742652 -0.05287934 0.1307677 -0.4136907 -0.35740715
-0.20642978 0.20741495 -0.3787196 0.046441752 -0.25008243 -0.39096373 0.12315344 0.3605392
0.3587641 0.09473945 0.093299404 -0.09599045 0.37640527 -0.063942924 -0.08728306 0.07694968
-0.13168125 0.10252963 -0.3148053 0.23991379 0.13049917 0.51253104 0.05329214 0.044223126
0.2397107 0.009031962 0.11398641 -0.116830595 -0.16637641 -0.057866402 0.27706212 0.027163098
-0.2449211 -0.0816079 0.15239555 -0.20096198 -0.06308079 0.2817576 -0.27363124 -0.06634218

onnx::LSTM_100 f4 [1, 256]
00000000: 1355 ed3d 3503 1a3e 29ba f0bc 1b74 d73d
00000010: c5d7 b5bb 8790 193d 0448 913e fcfc 203e
00000020: c1fe c03e 55a9 f33d 357a 863e 0187 203e
00000030: 595e aabd 50de 913d a94c 4f3e 31a7 60be
00000040: e6ff 683e c0af 303e 6600 5f3d 0425 483c
00000050: 1eb7 7e3d 4722 79bc 10cd f7bd 90cf 653d
00000060: 7432 66be bf46 5a3d 74fb 523d 1009 dd3d
00000070: 64dd 03bd ef1e 513c 331b 6b3d 96f8 af3d
00000080: 3062 103e 3f44 ab3e 1125 b23d a83c 4dbc
00000090: 1ffe 833e 7943 4c3e 6b60 1f3e 4fa3 283e
000000a0: f749 f13d ff48 9c3e 59f9 5abe a4e3 163d
000000b0: a284 873e 1b03 81bd 6092 c2bd 8f82 e3bd
000000c0: 4912 dc3e bc71 d23e 2b7d 8d3d 1226 fb3d
000000d0: 169d 08be d137 c63c 6f7b 223e 4a55 a0be
000000e0: f2a7 90be 9b6f 8cbd 99e8 a13e a2f0 063e
000000f0: 72cc b33e 5102 143e 110b e33d cd46 5d3e
00000100: 8fdc 8e3f 0c37 913f a4a2 763f 6de3 843f
00000110: f405 853f f78e 3a3f 43fa 713f 4947 993f
00000120: b2b2 833f 458c 793f ae48 753f 4c25 823f
00000130: df0e 5f3f d26c 253f ca92 8e3f dfd9 5e3f
00000140: a608 433f dcb5 493f 4c92 883f 7bb1 393f
00000150: a0c3 753f 7eca 7f3f 53dd 7e3f cc1e 803f
00000160: 9c2a 5e3f 0ab7 333f 394f 9e3f 2cef 813f
00000170: 18bb 673f 25a4 8d3f 18dd 883f 0b67 883f
00000180: edc3 f63d 02c8 943e 283c af3d 6a1b edbd
00000190: 48ec b1bc 1816 4e3e 3842 7d3e 1b50 89bd
000001a0: 4591 1dbe bd14 2d3e faa3 86be 3f77 80bd
000001b0: ee8b b4bc e1ce 723c f5a4 a2bd a3ce 52be
000001c0: 5536 703e d061 063e ed4e d4bd 5f33 6c3e
000001d0: 5ccb acbc 03d0 c63d b477 33bd 0259 a53e
000001e0: 5d7d 643d 97fe 0e3e 350d 653d 67f3 a4bb
000001f0: 3f1c 47be 8bc7 483e 28a9 1cbb 1461 7b3c
00000200: 1355 ed3d 3503 1a3e 29ba f0bc 1b74 d73d
00000210: c5d7 b5bb 8790 193d 0448 913e fcfc 203e
00000220: c1fe c03e 55a9 f33d 357a 863e 0187 203e
00000230: 595e aabd 50de 913d a94c 4f3e 31a7 60be
00000240: e6ff 683e c0af 303e 6600 5f3d 0425 483c
00000250: 1eb7 7e3d 4722 79bc 10cd f7bd 90cf 653d
00000260: 7432 66be bf46 5a3d 74fb 523d 1009 dd3d
00000270: 64dd 03bd ef1e 513c 331b 6b3d 96f8 af3d
00000280: 3062 103e 3f44 ab3e 1125 b23d a83c 4dbc
00000290: 1ffe 833e 7943 4c3e 6b60 1f3e 4fa3 283e
000002a0: f749 f13d ff48 9c3e 59f9 5abe a4e3 163d
000002b0: a284 873e 1b03 81bd 6092 c2bd 8f82 e3bd
000002c0: 4912 dc3e bc71 d23e 2b7d 8d3d 1226 fb3d
000002d0: 169d 08be d137 c63c 6f7b 223e 4a55 a0be
000002e0: f2a7 90be 9b6f 8cbd 99e8 a13e a2f0 063e
000002f0: 72cc b33e 5102 143e 110b e33d cd46 5d3e
00000300: 8fdc 8e3f 0c37 913f a4a2 763f 6de3 843f
00000310: f405 853f f78e 3a3f 43fa 713f 4947 993f
00000320: b2b2 833f 458c 793f ae48 753f 4c25 823f
00000330: df0e 5f3f d26c 253f ca92 8e3f dfd9 5e3f
00000340: a608 433f dcb5 493f 4c92 883f 7bb1 393f
00000350: a0c3 753f 7eca 7f3f 53dd 7e3f cc1e 803f
00000360: 9c2a 5e3f 0ab7 333f 394f 9e3f 2cef 813f
00000370: 18bb 673f 25a4 8d3f 18dd 883f 0b67 883f
00000380: edc3 f63d 02c8 943e 283c af3d 6a1b edbd
00000390: 48ec b1bc 1816 4e3e 3842 7d3e 1b50 89bd
000003a0: 4591 1dbe bd14 2d3e faa3 86be 3f77 80bd
000003b0: ee8b b4bc e1ce 723c f5a4 a2bd a3ce 52be
000003c0: 5536 703e d061 063e ed4e d4bd 5f33 6c3e
000003d0: 5ccb acbc 03d0 c63d b477 33bd 0259 a53e
000003e0: 5d7d 643d 97fe 0e3e 350d 653d 67f3 a4bb
000003f0: 3f1c 47be 8bc7 483e 28a9 1cbb 1461 7b3c
0.11588492 0.15040286 -0.029385643 0.10520192 -0.0055494034 0.037491348 0.28375256 0.15721506
0.37694362 0.11897532 0.26265112 0.156765 -0.08318777 0.07122481 0.20244087 -0.21938778
0.22753868 0.17254543 0.05444374 0.012215856 0.062186353 -0.015205926 -0.120996594 0.05610615
-0.22480184 0.053290125 0.051509336 0.10792744 -0.032193556 0.012763723 0.057398986 0.08592336
0.14099956 0.33450505 0.08698476 -0.012526669 0.25779817 0.19947614 0.15564124 0.16468547
0.11781686 0.30524442 -0.21384181 0.03683819 0.26468378 -0.062994204 -0.09500575 -0.111088865
0.429827 0.41102397 0.069086395 0.12263121 -0.13341174 0.024196537 0.15867399 -0.3131507
-0.28253132 -0.068572246 0.3162277 0.13177732 0.35116917 0.14454009 0.11086095 0.2160904
1.1161059 1.1344924 0.9634192 1.0381905 1.0392442 0.728744 0.94522494 1.197488
1.0288908 0.9747966 0.95814025 1.0167632 0.87132066 0.6461917 1.1138546 0.87051195
0.7618507 0.7879312 1.0669646 0.7253644 0.96001625 0.99918354 0.99556464 1.0009398
0.86783767 0.7020117 1.2367927 1.0151114 0.9051986 1.1065718 1.0692472 1.0656446
0.120490886 0.29058844 0.08556396 -0.115774944 -0.021719113 0.20125616 0.24732292 -0.06704732
-0.15387447 0.16902442 -0.2629698 -0.062727444 -0.02203938 0.014819832 -0.07941619 -0.20586638
0.23458226 0.1312325 -0.103666164 0.23066472 -0.021093063 0.09707644 -0.04381533 0.3229447
0.05578362 0.13964306 0.0559208 -0.0050338986 -0.19444369 0.1960737 -0.0023904536 0.015342969
0.11588492 0.15040286 -0.029385643 0.10520192 -0.0055494034 0.037491348 0.28375256 0.15721506
0.37694362 0.11897532 0.26265112 0.156765 -0.08318777 0.07122481 0.20244087 -0.21938778
0.22753868 0.17254543 0.05444374 0.012215856 0.062186353 -0.015205926 -0.120996594 0.05610615
-0.22480184 0.053290125 0.051509336 0.10792744 -0.032193556 0.012763723 0.057398986 0.08592336
0.14099956 0.33450505 0.08698476 -0.012526669 0.25779817 0.19947614 0.15564124 0.16468547
0.11781686 0.30524442 -0.21384181 0.03683819 0.26468378 -0.062994204 -0.09500575 -0.111088865
0.429827 0.41102397 0.069086395 0.12263121 -0.13341174 0.024196537 0.15867399 -0.3131507
-0.28253132 -0.068572246 0.3162277 0.13177732 0.35116917 0.14454009 0.11086095 0.2160904
1.1161059 1.1344924 0.9634192 1.0381905 1.0392442 0.728744 0.94522494 1.197488
1.0288908 0.9747966 0.95814025 1.0167632 0.87132066 0.6461917 1.1138546 0.87051195
0.7618507 0.7879312 1.0669646 0.7253644 0.96001625 0.99918354 0.99556464 1.0009398
0.86783767 0.7020117 1.2367927 1.0151114 0.9051986 1.1065718 1.0692472 1.0656446
0.120490886 0.29058844 0.08556396 -0.115774944 -0.021719113 0.20125616 0.24732292 -0.06704732
-0.15387447 0.16902442 -0.2629698 -0.062727444 -0.02203938 0.014819832 -0.07941619 -0.20586638
0.23458226 0.1312325 -0.103666164 0.23066472 -0.021093063 0.09707644 -0.04381533 0.3229447
0.05578362 0.13964306 0.0559208 -0.0050338986 -0.19444369 0.1960737 -0.0023904536 0.015342969
