results/FullyAbstract/bachelor/bachelor-499930.onnx (onnx, 76519 bytes, 9 tensors)

network_body._body_endoder.seq_layers.0.weight f4 [64, 7]
00000000: cc0c 3fbe 2e1e acbe d032 47be 6a39 a63c
00000010: 3eb4 293f b91c 3a3e 27d7 e33d a477 15be
00000020: e66b 16be a914 1a3f a237 50bf 6e7e bc3e
00000030: 6081 363d 4184 a53e 84b0 aebe d0b1 a53e
00000040: 6dd8 783e 818f 46bd 40ed 55be 68f3 9cbe
00000050: b856 d2be cbf9 a3be ff57 9939 40c3 02bf
00000060: d478 debe 28f4 11bf 55d2 483e 37fd f2be
00000070: 1ba1 94be eee1 06bf 49c7 79bd db53 703e
00000080: 55cf 4abd 27dd 01bd 81ee be3d 5c9e 10bf
00000090: cae7 3cbf 7f7d 17bf 4250 063f b947 543e
000000a0: 7b14 a1be 823c f33c 066d 6abf 8158 1e3f
000000b0: 4918 a73e e753 db3c 86dc 10be d517 0a3f
000000c0: 7b36 653c b1f4 f5bb 8ec3 0d3f de7f f5be
000000d0: 61d8 103f ecb9 b2bd 72ad 0e3c 971c 263e
000000e0: 947a 17bf 6f88 823b 68ea cfbe 549b 13be
000000f0: c68d 0dbe 5a98 e6bd a9f5 003f 063a 47be
00000100: e98d 10be a80e 603f 3efa 5fbe f9da bd3c
00000110: a0c1 e8be 2818 8b3e 5971 7ebf e151 87bf
00000120: 0ed0 81be 142c bc3e c181 ddbe 66b4 79be
00000130: 41b2 783d 0298 343d 4ae1 e7bd cc82 ff3e
00000140: 1f32 b6be e0a9 d0be 5a10 133f 57fc c1bd
00000150: 0e83 5bbe 130f debe d07f ac3e d780 093f
00000160: a0da 3c3e 2bb8 47bf 1810 cd3c eb0e 873a
00000170: a648 d43d e010 543e ad04 f23e 050d 58bf
00000180: ca27 483e 68f8 223f 3315 2a3e ae85 2c3e
00000190: dd69 943e 10f5 1cbf 90b1 8a3d f78c 8e3e
000001a0: a626 cd3e 9bc8 92be 5d2f 3fbd 018a cdbe
000001b0: 4981 89be 4bfd 88be cf99 753e 2dfe 82bc
000001c0: ee74 473e fd2a a53e e558 ebbc 74f8 51bf
000001d0: df3c da3e 18f9 4dbd 55b7 dd3e 0f7f 0dbf
000001e0: 6e10 3bbe fb76 e6be d8ec d53e 900e 83be
000001f0: 80dd 503f 7c53 003e 51e1 8abe c410 4c3d
00000200: 7d75 31be 8e04 d13e 0377 7c3f d987 033d
00000210: de4c 783e 0ca3 af3c a2fc 353e 89f4 453e
00000220: bed9 173e 8c91 7fbe b505 3dbe 8c75 a03e
00000230: ef5c 7dbf 4312 2f3e 53e6 9cbe c06d d1bd
00000240: b6cf 8fbe a2be 243f 61cf 663e 09f7 eb3d
00000250: 1986 d9be 89d5 1bbf 4097 dd3e 07ad 4c3e
00000260: 2cff a53e 9119 8a3e 20a4 f8bd c6ea f73d
00000270: 4805 9d3e 4486 55be fb30 babe 1b39 2c3e
00000280: ccd3 123f 8ddb fcbe 4f4c 643e d298 233e
00000290: b642 83be dec9 f9be e2ae dfbd a90f 033b
000002a0: 95a5 67bf 4a7e a8be 3ee8 d93e 84e5 0c3f
000002b0: 21ae e43e c98e 38be 8715 4cbf 198e d5be
000002c0: 5ee4 a9bc 87c4 b93e 65d8 10bf 3cf7 82be
000002d0: f690 06bf 2566 bfbc 7cc0 123e 87c8 27bf
000002e0: 94f3 303e 2cb2 503f a049 283f 4f66 65be
000002f0: 731e 393e 3c40 edbe 8397 ec3e 3729 9b3d
00000300: 2fc5 963d bf32 983e a668 71be 1afd 243e
00000310: 6b13 183f d54b 663e b71d e9be 9573 fe3d
00000320: 91a4 afbe 7c41 a03e 691c ba3d c806 10bf
00000330: a2d6 2b3f 4f2a 17be e5a2 213f 3db5 90be
00000340: 3713 f43d f290 09be 8547 c13e 5c60 84be
00000350: 67cf e1be 4e11 8ebe e51f cb3e 2b9d 32bf
00000360: 630c db3e 57c9 043f 18ff f43c 49a9 9f3f
00000370: f62d ca3e ebd6 79be eebe 793e 9cb6 e53e
00000380: 31ee 5c3f eddc 62be 3161 613f 833d d53d
00000390: ea19 90bd 78c5 01bf 1f38 14bf 2b19 2b3e
000003a0: b2bb edbe c507 febe 05ac ffbd b26e efbe
000003b0: 57da b9be fd8b cf3d 2148 ee3d 5b5f 75bc
000003c0: 3fb4 27be b2b2 3cbe 60bc a5bd 8203 cd3e
000003d0: 58cc 5dbc d9a4 f73e 7938 343e fbf1 a83e
000003e0: cdd2 0bbf f8a6 543f dbfc 593e 1a70 52be
000003f0: f15f 54bd 6811 3d3e d69c 3ebf 349e 893e
-0.18657225 -0.33616775 -0.19452977 0.020291049 0.6629065 0.1817502 0.111250214 -0.1459642
-0.14689597 0.60187775 -0.8133489 0.36815208 0.044556975 0.32327464 -0.34119046 0.32362223
0.2430131 -0.0484767 -0.20891285 -0.30654454 -0.41081786 -0.32026514 0.00029247996 -0.5107918
-0.4345156 -0.5701318 0.19611485 -0.47458813 -0.29029164 -0.5268849 -0.06098107 0.23469488
-0.049514133 -0.031705048 0.09322835 -0.5649164 -0.7379118 -0.59175867 0.52466214 0.20730485
-0.31460938 0.029691938 -0.91572607 0.61853796 0.32635716 0.026773406 -0.14146623 0.53942615
0.01399004 -0.007505976 0.5537652 -0.47949117 0.5658017 -0.08726868 0.008708345 0.16221844
-0.59171414 0.0039835493 -0.40608525 -0.14414722 -0.13823614 -0.112595275 0.5037485 -0.19455728
-0.14116634 0.87522364 -0.21872804 0.023175703 -0.45460224 0.27166867 -0.99391705 -1.0571862
-0.25354046 0.3675238 -0.43263057 -0.24385223 0.06071687 0.04409028 -0.11322267 0.49904478
-0.35585114 -0.40754604 0.57446826 -0.09471958 -0.21436712 -0.43370876 0.33691263 0.5371222
0.18442774 -0.78015393 0.025032088 0.0010304129 0.10365419 0.20709562 0.47269192 -0.84394866
0.19546428 0.6366029 0.1660965 0.1684787 0.28987017 -0.61311436 0.067721486 0.27841923
0.4006855 -0.28668675 -0.04667603 -0.4014435 -0.2685645 -0.26755747 0.23984455 -0.015990341
0.19478199 0.3225936 -0.028728912 -0.82019734 0.42624566 -0.050286382 0.43303934 -0.55272
-0.18267986 -0.4501265 0.4178226 -0.25597048 0.8158798 0.12531847 -0.27125028 0.049820676
-0.17329974 0.40823787 0.986191 0.032111976 0.24248073 0.021440051 0.17772153 0.19331564
0.14829156 -0.24957865 -0.18459208 0.3133968 -0.9896993 0.1709681 -0.30644473 -0.10226011
-0.28088158 0.6435338 0.22540046 0.115217276 -0.4248512 -0.60872704 0.43279457 0.1998788
0.32421243 0.2697263 -0.12140679 0.12105326 0.30668092 -0.20852 -0.36365494 0.16818659
0.57354426 -0.49386254 0.22294734 0.15976265 -0.25636834 -0.48786825 -0.10922028 0.0019998348
-0.90487033 -0.3290885 0.4256 0.55037713 0.446641 -0.18023218 -0.7972035 -0.41709974
-0.020738777 0.3628275 -0.5658019 -0.2557925 -0.5256494 -0.023364136 0.1433124 -0.65540355
0.17280418 0.8152187 0.6573734 -0.22402309 0.18078022 -0.4633807 0.46209344 0.075762205
0.073618285 0.29726216 -0.23575076 0.16112176 0.5940463 0.22489865 -0.45530483 0.12424389
-0.34305242 0.3129996 0.0908745 -0.5626035 0.6712438 -0.14762233 0.6313918 -0.28263274
0.119177274 -0.13434198 0.37749878 -0.25854766 -0.44103548 -0.27747577 0.3967277 -0.6977107
0.42782888 0.5186972 0.029906794 1.2473537 0.3948819 -0.24398391 0.2438924 0.44865882
0.8630095 -0.22154589 0.8803893 0.10412123 -0.07036193 -0.5069194 -0.57898134 0.1670882
-0.46432263 -0.49615303 -0.12483982 -0.4676414 -0.36299393 0.101341225 0.11634851 -0.014976348
-0.16377352 -0.18427542 -0.0809257 0.4004174 -0.013537489 0.48367956 0.17599668 0.32997116
-0.5461853 0.83067274 0.21287863 -0.20550576 -0.05184931 0.18463671 -0.7445806 0.26878512

network_body._body_endoder.seq_layers.0.bias f4 [64]
00000000: 208d a6bc 6999 513b 513e db3b 2fdb 083d
00000010: 79eb ac3c 3064 91bc 4473 1f3c e9e2 84bc
00000020: 8ed2 193d 9748 84bc 7043 5ebc 9e1c a63a
00000030: a508 49bc 8d44 0c3d 02b4 d6bc e657 3c3d
00000040: c223 0cbc 8976 1cbb 3297 393c 5a5f 7dbb
00000050: 7c51 203c 3057 263d 9288 1a3c 964f ef3b
00000060: fa3f 25bb f568 ae3c b1c5 8bbc 8e22 9eba
00000070: f667 a73c aa39 aabc ef39 9e3c 4ed1 24bd
00000080: e034 853a dfeb 3b3c 4464 aa3c 7a25 fe3c
00000090: 7613 a9bb 42e4 0b3d d924 12bc 1b05 b43c
000000a0: 6e58 163b 6cc0 3bbc 9968 9a3c 8b5c 0b3c
000000b0: 3e0b 7fbc ff4f be3c ff68 6639 61e5 6f3d
000000c0: 1d05 edbc 0014 673c 0f2f bfbc 2367 083c
000000d0: 1711 b13c 42cf d53c 40f0 1e3d 8401 2d3d
000000e0: 2e9b 963c a387 623a 8e86 f83c 4f16 f03c
000000f0: 846b 053c 2031 213d a75d 993c 531f 73bc
-0.020330966 0.0031982309 0.0066907783 0.033412155 0.021108376 -0.017747968 0.009732071 -0.01622148
0.037554316 -0.016147895 -0.013565883 0.0012673324 -0.012270127 0.034245063 -0.026208881 0.045982264
-0.008553447 -0.0023874363 0.011327552 -0.003866157 0.009785052 0.040610492 0.009431975 0.0073031886
-0.0025215135 0.021290282 -0.01706204 -0.0012064741 0.020435315 -0.02077945 0.019314734 -0.04023867
0.0010162853 0.01146981 0.020799764 0.03102373 -0.0051597906 0.03415323 -0.008919918 0.02197509
0.0022940892 -0.011459451 0.018848704 0.008505951 -0.015566645 0.023231504 0.00021973623 0.058568362
-0.028933102 0.014103889 -0.023337869 0.008325371 0.021614594 0.026099805 0.03880334 0.042237774
0.018384542 0.0008641427 0.030337598 0.029307513 0.0081433095 0.03935349 0.018721415 -0.014839011

network_body._body_endoder.seq_layers.2.weight f4 [64, 64]
00000000: 742f 0c3e 7b65 8b3c 940e 563e 5a53 0b3e
00000010: 5cdc 023e affb 73bd dfd1 aebd f497 13bd
00000020: 5295 6cbd 5f8b 1fbe c4af 843d 708a 2abe
00000030: fce1 f43d 5b22 a73d 96c4 933d e5da 6a3d
00000040: 43e9 eabb b170 5fbe 5378 96bc 2a39 123d
00000050: 9397 eb3d d434 1d3d a62a 5abe 3928 3dbd
00000060: a0aa 32bd 8d8e 103e fc95 8f3d 78c9 1fbc
00000070: 4167 533e 5a54 c6bc 3cd3 49be 580a 203d
00000080: c050 4bbe 368c b93c bb18 2fbe c4f7 d93d
00000090: e109 6c3d 402a 50be 6be9 6fbd 2276 c93b
000000a0: b303 073e 51e5 20be 7953 03be 97fe 933e
000000b0: 5a39 c93d 64ac e33c fbc9 cabd 9a63 08be
000000c0: beaf 093e 0ab3 a8bc f8cf afba e5a3 0f3e
000000d0: 13ea d73d ab43 143e b3b3 59be 8be9 3bbe
000000e0: 7564 b2bd 9805 233e 4c78 bf3d 6dca 50be
000000f0: 4ca9 92be 66b8 f33b acc9 9d3d 11ad 723e
00000100: f7c3 8ebc dd4e c13d 7b96 3e3e d21d febd
00000110: d4a1 79bc eeef e2bb 97c8 3ebd 6008 803e
00000120: aeaa 263d 27f5 033e 48d8 e4bc 1556 fabd
00000130: 30d6 85bd 2291 8ebd d3f9 7e3d 77b6 97bd
00000140: e54b 2e3d 30ed 33be 559a b13d 9e00 903b
00000150: e858 683e 866a 263d a62a a13d 4697 aa3d
00000160: 6084 6f3d 2c1f ad3d 300e 0b3e aae2 363e
00000170: 18a7 2e3e 934c 873b 4eab 6abe 5f9c 843d
00000180: 67d9 4b3e 9895 6f3b 41b5 a2bb c95e 1dbe
00000190: b9fa 41be 0c1d 8cbc eb38 2c3e c00c 8d3d
000001a0: ec76 c73c 17ae dc3d 5a5e 66bd 3836 0a3e
000001b0: f4ba c23d 936a 33be 0d58 d23d 98eb d03d
000001c0: d5af 23be a64f 26bd 3257 173d d1bd 47bd
000001d0: b5ce 08bd 00b5 43be b2f1 4a3d 703c a03d
000001e0: 488b 96bd fb11 4dbd a4a8 c63d 1804 8b3d
000001f0: ba95 903d 67e3 b7bd db59 113e f0a0 a73c
00000200: bdfd 253d 8445 6a3e 3053 71bc a104 bebb
00000210: 4b08 9ebd f672 01be 49f3 243e 0f13 463e
00000220: 2e46 cc3d ee62 173d c52b 51bc 1b3b 09be
00000230: 7ad2 203a 59d8 31be 4160 513d 8127 2fbe
00000240: d2a5 983d 6912 01be 2857 05be e3ec e5bb
00000250: b135 58bd 9619 d5bc 9597 debc f3c7 e7bb
00000260: 15bf ef3c b667 0cbe 62b7 f8bc b381 973b
00000270: 6511 2e3c 7a4b 073d bd75 0a3e ed30 88bd
00000280: e4e0 983c 7339 213e e20f 903e 2151 44be
00000290: 7cc5 e9bd 7a41 a3bd 4efe 83bd 096a bbbd
000002a0: aafc 8f3e e093 863e 0719 94bc fe87 c6bd
000002b0: fcd8 fb3b 5ff2 a1bd 49c8 11be 4e27 e9bd
000002c0: 6452 b4bd c731 ddbd 3000 1e3d 6a7c 92bc
000002d0: 8296 a43d 4f10 1dbc 99f6 94bd 422c e83d
000002e0: 5c4c d0bd fd62 22bd 6905 9f3b 796c ab3d
000002f0: c391 113e 1a77 60bd 3c91 0dbe 1642 8cbd
00000300: 2de3 a5bc fd62 d03d 0734 903b 0bae d23d
00000310: c194 81bc e15b aabd f864 6ebe 9c13 73be
00000320: 7d43 863e a778 a5bd 19f8 4a3e 8127 783d
00000330: b1b0 3ebe 43d8 2bbd ac5d a93b 2b31 cbbd
00000340: 2e3a 0a3c 623f c73c fc1a 24bd e2f0 04be
00000350: d2c8 24be cedd ab3d 9313 c3bb 3031 7abe
00000360: 1a28 e8bd ebb0 83bd 4f46 5a3a 0117 b6ba
00000370: 8909 24bd 172b 4cbd 1f53 0d3e 6893 88bd
00000380: 29e5 49bd 3298 1ebe 9449 303d 13a6 5b3b
00000390: e164 303d edb1 b23c 2d83 623c e477 82be
000003a0: 4513 9b3e 63ba 4bbd 53cd ed3d eb33 173e
000003b0: 594a 673d 47c4 433e fbf8 303d 8ebd 31be
000003c0: a54b 08be 3f4c 003d 16f5 df3c e99a 89ba
000003d0: 2a30 8abd 3318 903e 5714 27be d57c 633d
000003e0: ac0e 983d 63cb d83b 55dd 2f3d 6941 e33c
000003f0: ef23 a03d 492b 8f3d c149 bcbd 404e 243d
0.13689977 0.017016163 0.20903999 0.13606015 0.12779373 -0.059566196 -0.085361235 -0.036033586
-0.05775959 -0.1558051 0.06478837 -0.16654372 0.119571656 0.0816085 0.0721523 0.05733766
-0.0071689202 -0.21820332 -0.018367922 0.035699047 0.1150352 0.03838046 -0.21305332 -0.046180937
-0.043619752 0.14116879 0.07011029 -0.009752624 0.20644857 -0.024210144 -0.19709486 0.039072365
-0.19855022 0.022649866 -0.17099278 0.10642961 0.05762661 -0.20328617 -0.058572214 0.0061481157
0.13185005 -0.15712477 -0.12824811 0.28905174 0.09825392 0.027792163 -0.09901806 -0.13319245
0.13445947 -0.020593185 -0.001341342 0.14027365 0.10542693 0.14478938 -0.21259956 -0.18350808
-0.08710567 0.15920103 0.09349117 -0.2038972 -0.28644788 0.0074377535 0.077044815 0.23698832
-0.017427428 0.0943887 0.18612091 -0.124080315 -0.015236337 -0.0069255745 -0.046578016 0.2500639
0.040690117 0.12886487 -0.027935162 -0.1222345 -0.06534994 -0.06961276 0.06224997 -0.07407849
0.042552847 -0.17570949 0.086720146 0.004394605 0.22690165 0.040628932 0.07869463 0.08329634
0.058475852 0.08453211 0.13579631 0.17859903 0.17055929 0.0041290014 -0.2291691 0.06475138
0.19907151 0.003655767 -0.004965455 -0.15368189 -0.189433 -0.017103694 0.16818587 0.068871975
0.024348699 0.107753925 -0.056242324 0.13497245 0.09508315 -0.17521124 0.102707006 0.10201186
-0.15985043 -0.040603302 0.03694839 -0.048765007 -0.033400256 -0.19112015 0.049546905 0.078240275
-0.073507845 -0.050065976 0.097001344 0.0678789 0.07059808 -0.089789204 0.14194433 0.020462483
0.040525187 0.2287808 -0.014729306 -0.0057988917 -0.077164255 -0.1264151 0.16108431 0.19343208
0.09974323 0.03695958 -0.012766783 -0.13401453 0.0006134879 -0.17367686 0.051117186 -0.17104913
0.07453503 -0.12604679 -0.13021529 -0.0070167645 -0.05278558 -0.026013177 -0.02717189 -0.0070733964
0.02926592 -0.13711438 -0.030360881 0.0046236156 0.010624264 0.033030964 0.13521476 -0.06649957
0.018661924 0.15744571 0.28137118 -0.19171573 -0.1141462 -0.07971473 -0.06444989 -0.09151084
0.28122455 0.26284695 -0.01807834 -0.09693907 0.0076857787 -0.07907557 -0.14236559 -0.1138445
-0.08804777 -0.1080051 0.038574398 -0.01788159 0.080365196 -0.009586408 -0.07273597 0.113365665
-0.101708144 -0.039645184 0.00485294 0.08370299 0.1421576 -0.054801084 -0.13824934 -0.068485424
-0.020249927 0.101751305 0.0044007334 0.10287102 -0.015818002 -0.08318306 -0.23280704 -0.23737949
0.26223364 -0.08079653 0.19821204 0.06058455 -0.1862209 -0.04195429 0.0051686373 -0.099214874
0.008436723 0.024322215 -0.040064797 -0.12982515 -0.16092232 0.08391915 -0.005953261 -0.24432826
-0.11335774 -0.06430229 0.0008326517 -0.0013892354 -0.040048156 -0.04984578 0.1380124 -0.066687405
-0.04929081 -0.15487745 0.04303892 0.0033515736 0.043064956 0.021813357 0.01382522 -0.25482094
0.3028814 -0.0497383 0.11611428 0.14765899 0.056467388 0.19117843 0.043206196 -0.17357466
-0.13310106 0.031322714 0.027338546 -0.0010498437 -0.06747468 0.28143463 -0.16316353 0.05553897
0.074246734 0.0066160425 0.042935688 0.02774115 0.07819354 0.06990678 -0.09193755 0.040113688

network_body._body_endoder.seq_layers.2.bias f4 [64]
00000000: a2bd 84bc 53d8 26bd 7066 77ba 33af 9dbb
00000010: 10a9 9c3c 4445 35bd 5c17 60bb 08ac 8abc
00000020: b7bd b43b cb29 9f3c 06f3 d0bc b19f 8e3c
00000030: 2c67 bb3a 6670 65bb 5c54 0f3d 090b a5bc
00000040: 7970 7c3c 9adf b53c 3073 d13a 6135 e63b
00000050: b15c 93bc 6d0b 383c 81b1 fa3c ef9b 65b7
00000060: 9e6e 233d ef95 be3c e5c0 1a3d 864b 143d
00000070: e7b0 39bc ad6e 563d b907 4f3d 3662 073c
00000080: dc6a e13c 6583 ea3a 42b8 0e3d fd0c adbc
00000090: 9a20 9abc 6efa d53c ebb8 cd38 fabe f73b
000000a0: cfec 063d 143d 5cbb 1788 133d 4006 3d3d
000000b0: 40fb 07bd 9138 5c3d 7a20 1c3c 9218 95bb
000000c0: 7557 6c3d fe2d 103d 2370 423d 0835 93bc
000000d0: ae4f 093a 11dd f63c 7989 d6bc 3ade 31bc
000000e0: 4dc4 1d3c f5e3 46bc eb1c dc3c 8b99 203d
000000f0: 5060 3d3c b222 c33a aabb afba 90f5 08bd
-0.016203705 -0.040733647 -0.00094375666 -0.004812145 0.019123584 -0.04425551 -0.003419361 -0.016927734
0.00551578 0.019429108 -0.025506508 0.017410131 0.0014297715 -0.0035009622 0.03499256 -0.020146864
0.015407675 0.022201348 0.0015979763 0.007025406 -0.017988535 0.011233193 0.030602219 -1.368577e-05
0.039900415 0.023264853 0.037781615 0.036204837 -0.011333681 0.052351642 0.050544474 0.008263161
0.027516775 0.0017891942 0.03484369 -0.021124357 -0.018814374 0.02612039 9.8096054e-05 0.007560608
0.032940682 -0.0033605741 0.036018457 0.04614854 -0.033198595 0.053764883 0.009529227 -0.004550048
0.057700593 0.03520011 0.047470223 -0.017969623 0.00052380085 0.03013471 -0.026188599 -0.010856206
0.009629321 -0.01213931 0.026869258 0.03920893 0.011558607 0.0014887659 -0.0013407369 -0.03343731

action_model._discrete_distribution.branches.0.weight f4 [4, 32]
00000000: 77c1 e33d 4446 f2bd ae2e 573e 3db0 ddbd
00000010: 0110 0abe 31ac 503c 99d2 f2bd c734 22be
00000020: b5cb f3bd c98e babd 67dd 0d3e 2345 1abe
00000030: 2999 f0bd 3757 27be 7634 99bd a635 37be
00000040: 6ef3 013e 8e42 b5bd 468d e2bd 7885 73be
00000050: da43 0a3e 659d cd3d c2d0 eabd 6608 213e
00000060: 7181 fdbd 2037 f93d a236 09be 68b0 113e
00000070: 14cc c13c 1a4b 143e b230 17be cc41 9f3d
00000080: 557b 15bd 3728 823d e2c9 d1bd 5807 983d
00000090: 383a 3a3d a55e 40be e996 e63b fabe 303c
000000a0: 5808 db3c df6d 9e3d 6498 9fbd 013d a83c
000000b0: 7371 353d 4e14 f83d d857 b03c 47ef e5bc
000000c0: a6a8 0cbd d2db 083e 9b4d a83d 9cec 973d
000000d0: c6d8 87bd 054d e2ba ae8d a73b e6f3 5cbd
000000e0: 2dea ad3d c9f2 32bd 5fc7 193d 05bb 6dbd
000000f0: d18c 583d f36b 37bd 8ddb 4e3d 5026 efbd
00000100: e92b 90bd 74b0 903d afcd 45bd 3301 b03d
00000110: 4235 5a3d 2b9c e13d e2c4 923d 9c35 a83d
00000120: a94a 8c3d 7a93 913d 609a 1bbc 4572 9a3d
00000130: bb61 c23c 5726 1e3d 5b79 5a3c 2583 5b3e
00000140: 7d63 4bbd 3093 ab3c 7fff b63d 26ea 053d
00000150: f99e abbd cdb8 9fbd e173 7c3d 75f3 4fbd
00000160: 4d42 c83d bf43 6cbd 7719 073d bd93 70bd
00000170: 7bb0 48bd a875 85bd 0c3b e03c 5dd6 073e
00000180: 175a 20be c361 103e bb0b 95be bb60 c33d
00000190: 2f25 003e f568 d73d 8d57 413e e3e8 403e
000001a0: d456 2a3e e1a2 073d 63ea 12be 16d6 443e
000001b0: a85e 173e 8ad5 473e b307 293e b425 453e
000001c0: 39dc 31be 14de 033e e7a9 3f3e bc40 ac3e
000001d0: 0ed0 bebd ae47 0cbe 73e4 213e 451a 3bbe
000001e0: 1280 143e 5586 37be 5967 0e3e e691 21be
000001f0: 2736 dfba c7b0 4bbe 5d76 cd3d 14a0 d9bd
0.11120885 -0.11829808 0.210139 -0.108246304 -0.13482668 0.012736366 -0.118565746 -0.15840445
-0.119040884 -0.09109265 0.1385399 -0.15065436 -0.11747963 -0.16341864 -0.07480709 -0.17891559
0.12690517 -0.08850585 -0.11062102 -0.23781383 0.13502446 0.10039786 -0.11465599 0.1572586
-0.123782046 0.121687174 -0.13399747 0.1422745 0.023656882 0.14481774 -0.1476467 0.07776222
-0.03649457 0.063553266 -0.10243584 0.07423276 0.045465678 -0.18786104 0.007037033 0.01078772
0.026737377 0.077358 -0.07792738 0.020536901 0.044297647 0.12113248 0.021526262 -0.028068198
-0.034340523 0.13365105 0.08217927 0.074181765 -0.06633143 -0.0017265385 0.005113325 -0.053943537
0.08491931 -0.04368857 0.03754365 -0.058039684 0.052868668 -0.044780683 0.05050235 -0.116772294
-0.07039625 0.07064906 -0.04829186 0.08593979 0.053273447 0.11016115 0.07166459 0.0821335
0.06850178 0.07108207 -0.009497255 0.075413264 0.023728242 0.038610782 0.013334597 0.21436746
-0.049655426 0.020944208 0.08935451 0.032694004 -0.08379931 -0.0779892 0.06163395 -0.050769288
0.09778271 -0.057681795 0.03298327 -0.058734644 -0.04899643 -0.06516582 0.027371906 0.13265367
-0.15659367 0.14099793 -0.29110512 0.09539934 0.12514184 0.10518066 0.18881054 0.18838839
0.16634685 0.033114318 -0.14347224 0.19222292 0.14782202 0.19515052 0.16506843 0.19252664
-0.17369165 0.12877685 0.18717156 0.33643138 -0.09317027 -0.13699219 0.15809803 -0.1827174
0.1450198 -0.17922337 0.13906612 -0.15778312 -0.0017029688 -0.19891654 0.10032342 -0.106262356

action_model._discrete_distribution.branches.0.bias f4 [4]
00000000: 8e14 bb3d 7080 f9bc cb7a 5cbd 5f51 eabd
0.0913478 -0.030456752 -0.053828042 -0.114413016

onnx::LSTM_98 f4 [1, 128, 64]
00000000: 6e67 203c 7bb9 58be 2c9f bbbd 4855 463e
00000010: f6e9 ac3d 4444 b53d d62f 36be 4197 05be
00000020: 7882 273e 4d99 dfbd ac4c 763e 4604 ef3d
00000030: fded 3f3e 34c8 833d 454c 283c 226e 003e
00000040: 676c 9fbd 7ed7 013e 74cf 0cbe 45e0 a83d
00000050: 2d71 49be 1ea7 8c3e 290c 1cbe 8664 383e
00000060: 1aa0 2d3e e607 d73d d219 463e fe95 2f3e
00000070: f6f4 9b3d 8e95 633e b29d 5e3c c6ad 49bd
00000080: 3b05 6e3c 008d c73d d621 de3c 7a25 52bd
00000090: 80fd 123e 4866 a63d 9b45 8dbd 088e 6abd
000000a0: 7579 5dbc 9ac8 493e b327 203e 57d7 0ebe
000000b0: 7ade 063e 65d4 313e 0dab 1cbe 3a19 95bd
000000c0: 1a84 903e edca 8c3e bddd be3d 9a81 ab3c
000000d0: 3360 863e 847d a4bc 69c3 1c3e cba6 473e
000000e0: bc3c 4d3e b4c2 fe3d 6241 4b3d 578a 873d
000000f0: 4135 dd3d dc5c 41be b6d4 42be 6a51 61be
00000100: 89ae d5bd 5a7e 90bd 0e1d 41be 8819 8c3d
00000110: dd84 59be 4aaa 06be 48bb 6b3c 1798 853e
00000120: f916 34be f62f 48be 6b4f 9e3d 834e 883e
00000130: 964a 693b 6db0 2c3e 107b 423e 8e89 583e
00000140: 5f59 b73d e257 c33d cd57 25be ff1f 183e
00000150: 2d79 ac3d 4f27 61be c849 39be 67bd 13bd
00000160: 47da 833e 40e1 0f3e 80c3 63bd 650f 96bd
00000170: a987 023e 74e5 663e 9862 7b3c 974b 3abe
00000180: 1385 06be 9a76 8c3d 05f3 683d 0b73 193e
00000190: 2e65 edbd b549 833d 9d2d 08be 1395 b83d
000001a0: 9297 bf3d 7f08 343e 9ba7 0e3e d82d fe3d
000001b0: 5b7c 2bbe fe30 1d3e d929 d03d 662c 523e
000001c0: 1f75 2fbe 8660 053e 6e8b 2abd 8e16 2c3e
000001d0: 5f9c 143e 0fe5 15be adfb 063e bc75 9b3c
000001e0: 589f 743e d241 d6bd 99e4 1b3d 03d6 3a3d
000001f0: 582e 803d c0fe ffbd 1f95 9b3c 8d64 1d3e
00000200: 3ff3 7fbe 69c2 ae3b 4b12 88bd e01c c0bc
00000210: 0456 48bd b70d f03d 1f79 4a3e 255c 373e
00000220: 5d00 a03d efd8 e03c 141d 623e e68c 97bd
00000230: 54a2 3d3e e369 08bd 6a32 1d3e 6c8f db3c
00000240: be42 a5bd bc7c 083d 5a88 f7bd 1f23 0fbe
00000250: 55ba e23d fa52 3a3d 4de7 4f3d 24cc 2dbe
00000260: 0999 63be 4a31 153e 03b9 a1bd 0c45 79bc
00000270: 7225 45be bfa3 1fbc 2af6 553e 9a72 79bd
00000280: 8812 1fbe 7d8e c43d a17d c03c c60f bf3a
00000290: cf3a 11be cb3b 0abb 6974 4e3e 78da babc
000002a0: 3c3c 883e 3759 003d f1a4 5c3c 7c8c 1bbc
000002b0: 8ed0 363e 37c6 ae3b d901 1a3e dcdb 54bd
000002c0: 35d1 363e c389 b83c 6aa5 ec3c 2b59 71be
000002d0: 1a64 8fbe b688 713d 8771 973d 497a 4d3a
000002e0: 2415 57be 99c0 343e 647b d33d 7ced 32be
000002f0: 4ee6 623d 5195 72bc 0f42 05be d3cb 01bd
00000300: 3d05 373e 4c09 f23d 4a19 7fbb b6f7 7bbd
00000310: a857 ff3d 5c89 533e bec9 2b3e 4186 84bd
00000320: 6aa2 5b3d 0082 fabd da6f 5d3e f21c 393e
00000330: 3745 643d 8dac 263e 15a2 cf3d bad9 013e
00000340: 94a7 a53d 911c 8b3e 4808 6dbe 85b4 36be
00000350: 57e8 d4bd 4fc8 963d 6dc3 803e a00e 2a3c
00000360: 775d ed3d d5e8 b33d b9ea 35be 41c9 04be
00000370: 1fb2 2d3e 91e5 8e3e 1965 643e 9962 32be
00000380: 36fa ec3d ca3e 6cbe 48a4 c7bb f15e 12be
00000390: 0f77 7f3d 996f 613e 138a 65bc f191 513e
000003a0: 9b25 243e 87c0 233e 0bf7 59be 1fce 02bd
000003b0: e044 e138 faa6 af3c d1e8 3dbd 34e0 813e
000003c0: 30aa f7bd ce08 3abd fefc 94bd 1f5c 4a3d
000003d0: bdea 32be 6d6b 853e cbde 43be 4a31 56be
000003e0: d875 d2bd 1a5f 8d38 9776 5b3e 8453 ddbd
000003f0: 0cb4 023d 97fa 283e c8e0 5ebd c390 30be
0.009790285 -0.21164505 -0.09161219 0.1936847 0.08443062 0.08850911 -0.17791685 -0.1304598
0.16358364 -0.10917912 0.24052685 0.11670737 0.18743129 0.0643467 0.01027209 0.12542012
-0.07784348 0.1267986 -0.13751012 0.08245901 -0.1967208 0.2747125 -0.15239014 0.18007097
0.16955605 0.104995534 0.19345787 0.17147061 0.07615082 0.2222502 0.013587402 -0.04923799
0.014527614 0.097436905 0.027115744 -0.05130527 0.14354515 0.08124977 -0.06898042 -0.057264358
-0.013517727 0.1970543 0.15640144 -0.13949333 0.13170806 0.17366178 -0.15299626 -0.07280202
0.28225785 0.2749857 0.09319637 0.020935822 0.2624527 -0.020079382 0.15308918 0.1949722
0.200427 0.124394804 0.0496229 0.06618183 0.10801173 -0.1888308 -0.19026455 -0.22003713
-0.104336806 -0.0705535 -0.1885874 0.06840807 -0.2124209 -0.13150898 0.014387913 0.26092598
-0.17586888 -0.19549546 0.077299915 0.266224 0.0035597435 0.16864176 0.18992257 0.21146223
0.08952593 0.09538247 -0.16146775 0.14855956 0.0842155 -0.21987651 -0.18094552 -0.0360693
0.2575247 0.1405077 -0.055606365 -0.07327155 0.12747063 0.22548467 0.015343331 -0.18192898
-0.13136701 0.06858559 0.056872386 0.14985292 -0.11591564 0.06410543 -0.1329865 0.09012809
0.093550816 0.17581366 0.13931124 0.12411088 -0.16746657 0.1535072 0.10164232 0.20524749
-0.17134522 0.13025102 -0.041636877 0.16805479 0.14512776 -0.1463816 0.13181944 0.018977039
0.2388891 -0.10461773 0.038059805 0.045614254 0.06258839 -0.124997616 0.018992005 0.15370388
-0.24995135 0.005333234 -0.06644114 -0.023451269 -0.048910156 0.11721366 0.19772767 0.17906244
0.07812569 0.027447192 0.22081405 -0.07399921 0.18518955 -0.033304106 0.15351263 0.026801787
-0.08069371 0.03332208 -0.12086554 -0.13978241 0.11070696 0.04548929 0.050757695 -0.16972405
-0.22226347 0.14569584 -0.07896616 -0.015214216 -0.19252566 -0.00974363 0.20894685 -0.06090031
-0.15534413 0.0959749 0.023497405 0.0014576844 -0.1418259 -0.0021092768 0.20161594 -0.022809252
0.26608455 0.031335082 0.0134670595 -0.009493943 0.17852995 0.0053336876 0.15039767 -0.051967487
0.17853244 0.022526627 0.02888747 -0.23569171 -0.2800606 0.05896827 0.073947005 0.00078383513
-0.21004158 0.17651595 0.10326269 -0.17473406 0.055395417 -0.014806108 -0.1301348 -0.031688523
0.17873092 0.118181795 -0.0038924986 -0.061515532 0.12467891 0.20657867 0.16776177 -0.064709194
0.053621687 -0.12231827 0.21624699 0.18077448 0.05573007 0.1627676 0.101383366 0.12680712
0.080886036 0.27170232 -0.2314769 -0.178423 -0.10395878 0.073624246 0.25149098 0.010379463
0.11590093 0.087846436 -0.17765321 -0.12967397 0.16962479 0.2790952 0.2230419 -0.17420425
0.115711614 -0.23070827 -0.006092582 -0.1429403 0.062369402 0.22015227 -0.01400997 0.20465828
0.1602997 0.15991412 -0.21285646 -0.031934854 0.00010741665 0.021441925 -0.04636461 0.25366366
-0.120930076 -0.045418553 -0.07274817 0.04940426 -0.17472358 0.26058522 -0.19127958 -0.2091724
-0.10276383 6.741118e-05 0.21431957 -0.10806945 0.031909987 0.16501842 -0.054413587 -0.17242722

onnx::LSTM_99 f4 [1, 128, 32]
00000000: ea61 953e 8015 2dbe e7ec c9bd 0ea2 c7bd
00000010: 3652 4d3d 2766 3a3d 537e 23be 14d1 5c3e
00000020: 6d5d ae3c 9a43 dbbd 01db 60be 7e1a 83be
00000030: e7f3 973d 9418 2e3d 63cc 81be 8edb 00be
00000040: 2605 903e afb4 68bb 94ee eabd e00e fd3d
00000050: 7e2e aabd 7340 203d 817e 99be 15e8 8bbe
00000060: b44d 74be 1c70 763e 0396 1fbe 2ea0 883e
00000070: 1d24 9a3e 7116 1abe 5d96 8f3d 3827 333e
00000080: 0d7d 89be af21 523e 3eb6 4f3e 35fb 7c3d
00000090: 7e4f 30be 504d e5bd 4146 56bb c450 d8bd
000000a0: 6c95 c63d 4d33 61be c8e1 71be 44c8 02be
000000b0: d9f0 83be 5af7 86be 6842 73be 7d90 d1bd
000000c0: 349a 9abd bd81 10bc 1e23 833e a421 8dbd
000000d0: afb4 c7bd a2f6 57be 3162 5dbd 1ab4 a8bd
000000e0: d12a bebd 37d4 54be d422 083e 1ca1 ebbd
000000f0: 5a9b 113e 0eb9 08bd 7fb5 513d 4428 55be
00000100: 13d6 943e 5548 e0bd c048 c7bd a460 99be
00000110: a375 0e3e 1413 a73c 8f8a 0f3d 592c 29bd
00000120: 094a a7be d133 8abe 1f15 023e 6542 2bbd
00000130: fe09 49be 0166 cd3d 8612 8abe b162 843d
00000140: 642d 363e c834 853e d82b 6cbe 7282 b0bc
00000150: c9b7 113d a7cf be3b d13e 553d 26b9 a93e
00000160: 924e 8cbe 39e8 8dbe dd07 963d a340 49be
00000170: 7ab4 fd3c b090 093d c7c6 68bc f40d 8abe
00000180: ba74 a13d 9210 873d 3b7c 183e 9a6f 753e
00000190: f0bb 933c a931 873e 62fd 43be 6408 42bd
000001a0: b5fc 5f3d 68ee 473e 5315 02be 5d87 5dbe
000001b0: 781a 6f3e 7bbf 31be 5696 87be afe6 513e
000001c0: 7b28 1e3e 43d5 06be 9aec 8b3e e5e8 87bd
000001d0: decd c83d 2c9d 713e 7599 87be d507 dabd
000001e0: b44a ecbd 5c4e 81be f21a 843d cf24 373d
000001f0: f956 673c 2410 333d ce83 293e 8b4a bebd
00000200: d2a1 acbd d614 6f3e 8d53 b33c 2d0b 81be
00000210: 58bb 20be 3f43 94be 85c7 233e 7413 913e
00000220: be5d 7fbd e687 f13d 7145 6dbe f1ff 383d
00000230: 2442 4b3e 60ab 313e b691 29be 24bf 67be
00000240: c870 92be 3ebb 083d 0ad1 09be 31f4 3fbe
00000250: c89a 5fbc 959c 903e 483d e8bd c6d4 5ebe
00000260: 1834 403e 8bdd 3c3a aaa4 c33c fd13 973e
00000270: f96b 27be 169e ee3d 00de 5bbc a49b e13c
00000280: 859a c3bd 0734 93bc c6d3 8a3e c01a 19be
00000290: e296 00be 4f34 283d 6070 f7bd 085c b63d
000002a0: a8b6 be3d 96e2 6bbe cb8d 00be e38f 80be
000002b0: b515 bbbe d86c 7f3e b9d6 18be bcae 063b
000002c0: 5c22 143e f290 313e 0c75 81be e642 f0bd
000002d0: c645 19bd 73b5 083e aba1 98bc 52cc aa3e
000002e0: bc33 00be 5394 3ebe 6455 db3d 612e a13e
000002f0: f98f 07bd 43c6 673e de8f 5fbd d3fe 033e
00000300: b15b e23d ee22 df3d b405 8abe ad82 46bd
00000310: 169c 15be a1d3 b1bc 0895 16be 7cec 403e
00000320: 557a 8b3e 2c30 c93c 4b8f 6bbe 14ef 3ebd
00000330: a449 9ebe 7757 863d 8c4b 893d 8fe0 7d3e
00000340: 840a 833e 8c47 c43c 2c8b a9bd 15e0 b6be
00000350: 6a24 09be f945 22be b245 5ebe bf06 81bc
00000360: dbfd 203e 6143 8d3e be18 40bd 31c4 2c3d
00000370: 6a82 2d3e adba ff3d 4e70 ad3d 2c39 723e
00000380: 791e 5c3e 4464 353e c3e8 993e da95 323e
00000390: 51ac 52be 9185 4c3e 6e59 733e 8c85 8fbe
000003a0: bb55 033e b12c 92be 23af b53d e73c 8b3d
000003b0: 9d8d 673e ae33 41bd e54f 97be 5da7 55bd
000003c0: e9d1 1cbe 026b 8f3d f6b5 a83d 35ae 7d3e
000003d0: 1bab 853e b472 fa3d 46d2 433e ad29 7b3e
000003e0: 7950 3d3d 2cca ea3d c25b 2abd 09dc 993e
000003f0: 8996 14be d2a2 f23d 5ec7 41be 15ee c7bc
0.29176265 -0.16902733 -0.09859639 -0.09747706 0.05012723 0.045507576 -0.15966158 0.21564132
0.021284783 -0.10706253 -0.21958543 -0.2560615 0.074195676 0.04250391 -0.25351247 -0.12583753
0.28128928 -0.0035508086 -0.114712864 0.12356353 -0.08309649 0.039123964 -0.29979327 -0.27325502
-0.23857766 0.24066204 -0.15584569 0.26684707 0.30105677 -0.15047623 0.070111014 0.1749543
-0.2685322 0.20520662 0.20284364 0.061763007 -0.17217824 -0.11196387 -0.0032695683 -0.1056228
0.09696469 -0.21992226 -0.23621285 -0.12771708 -0.2576969 -0.2636059 -0.237558 -0.10232637
-0.07548943 -0.0088199945 0.2561273 -0.06891182 -0.097512595 -0.21090177 -0.05404872 -0.08237477
-0.0928551 -0.20784079 0.13294536 -0.115053385 0.14219418 -0.033379607 0.05119848 -0.20816141
0.29069576 -0.10951296 -0.09730673 -0.29956543 0.13912062 0.02039484 0.03504425 -0.04130206
-0.32673672 -0.26992658 0.1270337 -0.041811366 -0.19632718 0.10029221 -0.26967257 0.064641364
0.17790753 0.2601683 -0.230636 -0.021546576 0.03557566 0.005823094 0.05206186 0.3314907
-0.27403694 -0.27716234 0.073257186 -0.19653563 0.030969847 0.03358525 -0.014207548 -0.2696377
0.07883592 0.065949574 0.1489114 0.23968354 0.018033952 0.26405075 -0.19139627 -0.047371283
0.05468436 0.19524539 -0.12703447 -0.21633668 0.23349941 -0.173582 -0.26481885 0.20498155
0.1544513 -0.1316729 0.2732895 -0.06636218 0.09804891 0.23595113 -0.26484266 -0.10646025
-0.11537686 -0.25255096 0.06450452 0.044712838 0.014119857 0.043716565 0.16554186 -0.09291562
-0.08429302 0.23347792 0.021890426 -0.2520384 -0.15696466 -0.28957555 0.1599408 0.28335154
-0.06234526 0.11793499 -0.23171021 0.04516596 0.1984945 0.1735053 -0.1655949 -0.22631508
-0.2860167 0.033381693 -0.13458648 -0.18745495 -0.013647743 0.28244463 -0.113398135 -0.21760854
0.18769872 0.00072046433 0.023882229 0.29507437 -0.16349782 0.11651246 -0.013419628 0.027540036
-0.09550957 -0.017969145 0.27114695 -0.1495161 -0.12557557 0.04106551 -0.12081981 0.08904272
0.09312183 -0.23035654 -0.1255409 -0.25109777 -0.3654 0.24943864 -0.1492566 0.0020550927
0.14466232 0.17340448 -0.25284612 -0.1173151 -0.037420057 0.13350467 -0.018631777 0.3335901
-0.12519735 -0.18611269 0.10709646 0.31480697 -0.033096287 0.22634225 -0.05458056 0.12890176
0.11052645 0.10895334 -0.26957476 -0.048464466 -0.14610323 -0.021707358 -0.14705288 0.18840212
0.2724177 0.024559103 -0.2300388 -0.04661472 -0.30915558 0.06559651 0.067038625 0.24792694
0.2559396 0.023959897 -0.08278498 -0.35717836 -0.13392797 -0.15847005 -0.21706274 -0.015750287
0.15721838 0.2759047 -0.046898596 0.04217929 0.1694428 0.124867775 0.08468686 0.23654622
0.21496 0.1771403 0.30060396 0.17439976 -0.20573546 0.19972827 0.23764583 -0.28031576
0.12825672 -0.28549722 0.08871295 0.067987256 0.22612615 -0.047168426 -0.29553142 -0.052161563
-0.1531445 0.07002832 0.08237831 0.24773486 0.26107106 0.12228909 0.19123182 0.24527617
0.046219323 0.114643425 -0.041591413 0.30050686 -0.1451055 0.11847462 -0.18923709 -0.024405519

onnx::LSTM_100 f4 [1, 256]
00000000: 6b79 303d 4bbc 103d 56e1 783c 1014 273d
00000010: 331a 003d 1114 813d 19a1 d23c 65ed d83c
00000020: 465e 843c bca4 1c3c ef8a 3f3d 67d1 6c3d
00000030: f4e2 e13c ee62 e73c fe68 343d 91bf 12bd
00000040: 6123 a83b b415 533c 2f85 543d 8647 453d
00000050: 17fd 2b3d 39b9 343d 05ae 303d 5b31 0c3d
00000060: 9120 5b3d f7ab 023d 2c1b b73c a2a8 603d
00000070: 27e8 0abc 466e 533d 0810 d83c 6276 963c
00000080: e2e4 333d 6f69 c53c a01d 443d 5e21 293d
00000090: 4897 113d e4c3 863d 3bea b53c d6a7 4f3d
000000a0: e9b4 8a3c 0e3a 973d b241 203d 7ec2 663d
000000b0: 7ba6 a53c bd19 9b3d 66f5 b53d 851a 8c3c
000000c0: 0c53 813d ba94 953c 04f2 1f3d 7c82 233d
000000d0: d24c 1a3d 8ed0 193d 5342 b63c eae7 533d
000000e0: e21f 853d 3d8f 193d 67b6 7c3d b9b9 4b3d
000000f0: 99db 90bc 6e5f 3a3d 9304 4d3c 06c1 033d
00000100: 063a 833f 4335 833f 1999 823f 02f0 803f
00000110: 5e7b 793f 310d 853f f07f 843f e702 823f
00000120: 9a27 803f 3f2d 823f dcf3 833f b9ec 823f
00000130: 16dc 833f 7881 853f 60c0 833f 9d93 7e3f
00000140: 7788 823f 3054 873f 8d11 7f3f ffe0 863f
00000150: 6928 833f fe19 833f 731a 863f 2fdb 853f
00000160: d239 833f 3528 813f 4a7e 853f c0af 7d3f
00000170: 8fa4 7d3f ef3d 853f 8f1e 823f 042b 813f
00000180: cad8 9f3c d79d 92bc e08f 053d 11cb 11bb
00000190: 2577 89bc 966b 8e3c 830e 2bbd 4056 40bd
000001a0: 30ab b2bc 3d4d 033c f507 1139 f804 7dbc
000001b0: 338e bcbc 7be7 febc b6e8 b93d c173 97bc
000001c0: ffbe ae3c 4fb8 4bbc cefc 89bc 4bba 603c
000001d0: d45d edbb cd45 083d b0c7 cdbc 7b65 b43c
000001e0: d741 61bc c28e 363d 3c58 2f3d d344 5f3c
000001f0: 0c95 7dbc ef95 d13c 9668 95bc 1500 b6bc
00000200: 6b79 303d 4bbc 103d 56e1 783c 1014 273d
00000210: 331a 003d 1114 813d 19a1 d23c 65ed d83c
00000220: 465e 843c bca4 1c3c ef8a 3f3d 67d1 6c3d
00000230: f4e2 e13c ee62 e73c fe68 343d 91bf 12bd
00000240: 6123 a83b b415 533c 2f85 543d 8647 453d
00000250: 17fd 2b3d 39b9 343d 05ae 303d 5b31 0c3d
00000260: 9120 5b3d f7ab 023d 2c1b b73c a2a8 603d
00000270: 27e8 0abc 466e 533d 0810 d83c 6276 963c
00000280: e2e4 333d 6f69 c53c a01d 443d 5e21 293d
00000290: 4897 113d e4c3 863d 3bea b53c d6a7 4f3d
000002a0: e9b4 8a3c 0e3a 973d b241 203d 7ec2 663d
000002b0: 7ba6 a53c bd19 9b3d 66f5 b53d 851a 8c3c
000002c0: 0c53 813d ba94 953c 04f2 1f3d 7c82 233d
000002d0: d24c 1a3d 8ed0 193d 5342 b63c eae7 533d
000002e0: e21f 853d 3d8f 193d 67b6 7c3d b9b9 4b3d
000002f0: 99db 90bc 6e5f 3a3d 9304 4d3c 06c1 033d
00000300: 063a 833f 4335 833f 1999 823f 02f0 803f
00000310: 5e7b 793f 310d 853f f07f 843f e702 823f
00000320: 9a27 803f 3f2d 823f dcf3 833f b9ec 823f
00000330: 16dc 833f 7881 853f 60c0 833f 9d93 7e3f
00000340: 7788 823f 3054 873f 8d11 7f3f ffe0 863f
00000350: 6928 833f fe19 833f 731a 863f 2fdb 853f
00000360: d239 833f 3528 813f 4a7e 853f c0af 7d3f
00000370: 8fa4 7d3f ef3d 853f 8f1e 823f 042b 813f
00000380: cad8 9f3c d79d 92bc e08f 053d 11cb 11bb
00000390: 2577 89bc 966b 8e3c 830e 2bbd 4056 40bd
000003a0: 30ab b2bc 3d4d 033c f507 1139 f804 7dbc
000003b0: 338e bcbc 7be7 febc b6e8 b93d c173 97bc
000003c0: ffbe ae3c 4fb8 4bbc cefc 89bc 4bba 603c
000003d0: d45d edbb cd45 083d b0c7 cdbc 7b65 b43c
000003e0: d741 61bc c28e 363d 3c58 2f3d d344 5f3c
000003f0: 0c95 7dbc ef95 d13c 9668 95bc 1500 b6bc
0.043084543 0.03533582 0.015190443 0.040790617 0.031274986 0.063026555 0.025711583 0.026480386
0.016158234 0.00956076 0.046763357 0.05781689 0.02757404 0.028245416 0.04404544 -0.035827223
0.0051311706 0.012883592 0.051884826 0.048163913 0.041989412 0.044121955 0.043134708 0.034226757
0.053497855 0.03190228 0.022351824 0.05484832 -0.008478201 0.051618837 0.026374832 0.018366996
0.04391945 0.024098126 0.047879815 0.041291587 0.035544664 0.06580332 0.022206416 0.05069717
0.016931968 0.0738412 0.039125152 0.056337826 0.020220986 0.075732686 0.08884697 0.01710249
0.06314668 0.018259395 0.039049163 0.03991936 0.037670918 0.03755241 0.022248423 0.051734842
0.06500222 0.03749012 0.06169739 0.049737666 -0.017682837 0.045501165 0.012513298 0.032166503
1.0252082 1.0250629 1.0202972 1.0073245 0.9745387 1.0394651 1.0351543 1.0157136
1.0012085 1.0170058 1.0308795 1.0228492 1.030154 1.0430136 1.0293083 0.9944399
1.0197896 1.0572567 0.99636155 1.0537413 1.0246707 1.0242307 1.0476822 1.0457515
1.025202 1.0090395 1.0429165 0.990963 0.9907922 1.0409526 1.0165576 1.0091252
0.019512553 -0.01789753 0.032607913 -0.002224628 -0.016780445 0.017385285 -0.041761886 -0.046957254
-0.021810144 0.0080140205 0.00013831242 -0.015443079 -0.023017025 -0.031116238 0.09077589 -0.018487813
0.021331308 -0.012434079 -0.01684418 0.013716291 -0.007243851 0.033269692 -0.025119632 0.022021046
-0.013748608 0.04456974 0.042808756 0.013627249 -0.01547743 0.02558419 -0.018238347 -0.022216836
0.043084543 0.03533582 0.015190443 0.040790617 0.031274986 0.063026555 0.025711583 0.026480386
0.016158234 0.00956076 0.046763357 0.05781689 0.02757404 0.028245416 0.04404544 -0.035827223
0.0051311706 0.012883592 0.051884826 0.048163913 0.041989412 0.044121955 0.043134708 0.034226757
0.053497855 0.03190228 0.022351824 0.05484832 -0.008478201 0.051618837 0.026374832 0.018366996
0.04391945 0.024098126 0.047879815 0.041291587 0.035544664 0.06580332 0.022206416 0.05069717
0.016931968 0.0738412 0.039125152 0.056337826 0.020220986 0.075732686 0.08884697 0.01710249
0.06314668 0.018259395 0.039049163 0.03991936 0.037670918 0.03755241 0.022248423 0.051734842
0.06500222 0.03749012 0.06169739 0.049737666 -0.017682837 0.045501165 0.012513298 0.032166503
1.0252082 1.0250629 1.0202972 1.0073245 0.9745387 1.0394651 1.0351543 1.0157136
1.0012085 1.0170058 1.0308795 1.0228492 1.030154 1.0430136 1.0293083 0.9944399
1.0197896 1.0572567 0.99636155 1.0537413 1.0246707 1.0242307 1.0476822 1.0457515
1.025202 1.0090395 1.0429165 0.990963 0.9907922 1.0409526 1.0165576 1.0091252
0.019512553 -0.01789753 0.032607913 -0.002224628 -0.016780445 0.017385285 -0.041761886 -0.046957254
-0.021810144 0.0080140205 0.00013831242 -0.015443079 -0.023017025 -0.031116238 0.09077589 -0.018487813
0.021331308 -0.012434079 -0.01684418 0.013716291 -0.007243851 0.033269692 -0.025119632 0.022021046
-0.013748608 0.04456974 0.042808756 0.013627249 -0.01547743 0.02558419 -0.018238347 -0.022216836
