results/FullyAbstract/bachelor/bachelor-1706.onnx (onnx, 76519 bytes, 9 tensors)

network_body._body_endoder.seq_layers.0.weight f4 [64, 7]
0	0xbea6f994	-0.32612288
1	0x3d92d6cb	0.07169875
2	0x3d15271f	0.036414262
3	0x3dd537b2	0.10411014
4	0x3f3b2566	0.7310394
5	0xbf38993a	-0.72108805
6	0xbc8f8d8d	-0.017523551
7	0x3e33de2c	0.1756522
8	0x3e641868	0.22274935
9	0x3f2fc1ad	0.686549
10	0xbe79bef9	-0.24389257
11	0xbc4430ae	-0.011974497
12	0x3e13525b	0.14386885
13	0xbe474249	-0.1945888
14	0xbe2deda5	-0.16985185
15	0xbef7258d	-0.48270836
16	0xbc2e54f0	-0.010640368
17	0xbec2cc90	-0.38046694
18	0x3f3a8721	0.7286244
19	0x3f475362	0.7786161
20	0xbe2215d8	-0.15828645
21	0xbde4529f	-0.11148571
22	0x3f087905	0.5330966
23	0x3ea927d7	0.33038208
24	0xbd5cc1c0	-0.053895712
25	0xbd011ae5	-0.03151979
26	0x3d2b62d3	0.041842293
27	0x3f529634	0.8226044
28	0xbf8127ef	-1.0090312
29	0x3ea9cbf4	0.33163416
30	0x3f1e287a	0.6178051
31	0xbd98e2fb	-0.07465168
32	0xbf275f45	-0.65379745
33	0x3eeac794	0.4585539
34	0xbf006547	-0.50154537
35	0x3efce825	0.49395862
36	0x3e996b54	0.29964697
37	0x3e812c71	0.2522922
38	0x3e76cce8	0.24101603
39	0x3e5bf295	0.21479256
40	0xbbde5818	-0.006785404
41	0x3eb2805a	0.3486355
42	0x3e17b61d	0.14815564
43	0xbe5bc89a	-0.21463242
44	0x3f04a41b	0.51812905
45	0x3efde4e7	0.495887
46	0xbee96797	-0.45586845
47	0xbf4e3d32	-0.80562127
48	0xbf98de74	-1.1942887
49	0xbe76050b	-0.24025361
50	0xbd271903	-0.040795337
51	0x3c437244	0.0119290985
52	0x3dfbb1e1	0.12289787
53	0xbe0d17de	-0.13778636
54	0xbe4ed69b	-0.20199053
55	0xbf467ec6	-0.7753719
56	0xbe0eb17a	-0.1393489
57	0xbea33a6c	-0.3188051
58	0xbe4bb140	-0.19891834
59	0xbf114d30	-0.56758404
60	0xbf13a809	-0.57678276
61	0x3e984dda	0.29746896
62	0xbe2bd5f4	-0.16780835
63	0xbeb64a8f	-0.3560376
64	0x3d93203a	0.07183881
65	0x3ee217ee	0.44158882
66	0xbef93964	-0.48676598
67	0x3e8a491c	0.27008903
68	0x3ef43b7d	0.47701636
69	0x3d11794d	0.035516072
70	0xbe7246a8	-0.23659766
71	0x3f790d46	0.9728588
72	0x3e4eb568	0.20186388
73	0xbee317c5	-0.44354072
74	0x3ccd6fb3	0.025077676
75	0x3e9f8f3c	0.31163967
76	0xbdd90533	-0.10596695
77	0xbca67677	-0.02032016
78	0x3d8f7d92	0.070063725
79	0xbe045cb0	-0.12925982
80	0xbe3a82e5	-0.18213995
81	0xbf3740c9	-0.7158323
82	0x3e82f239	0.25575426
83	0x3e8f09dc	0.2793721
84	0xbf41c03d	-0.7568396
85	0x3da20c2d	0.079124786
86	0x3f04ebee	0.519225
87	0x3d8aee33	0.06783714
88	0x3e5e0ac8	0.216838
89	0xbd97924e	-0.07400952
90	0x3f04056e	0.51570785
91	0x3f55f497	0.8357634
92	0xbcfab2ca	-0.030602831
93	0x3e7c458c	0.24635905
94	0xbea68aa9	-0.32527664
95	0xbe6999ff	-0.22812651
96	0x3f493ec5	0.78611404
97	0xbe39b5c2	-0.18135741
98	0x3e14885b	0.1450514
99	0xbe8c5e31	-0.27415612
100	0x3dba6cb6	0.09102766
101	0x3e49ec08	0.19718945
102	0x3eb645a4	0.35600007
103	0x3f11f430	0.57013226
104	0x3e9a3d45	0.3012487
105	0x3e397f55	0.1811498
106	0x3eaff828	0.34369016
107	0x3f852db9	1.0404578
108	0xbe03b1cc	-0.12860793
109	0xbe127fd2	-0.14306572
110	0xbe688572	-0.22707155
111	0x3d72e86b	0.059303682
112	0xbd9de095	-0.07708851
113	0x3ebc2044	0.36743367
114	0xbeacc5a4	-0.33744538
115	0x3eb556a9	0.3541768
116	0x3cb2eee4	0.021842428
117	0x3e6f6a01	0.23380281
118	0x3d8aa985	0.067706145
119	0xbf2e0c35	-0.67987376
120	0x3ee727be	0.45147508
121	0x3cec4baa	0.028844673
122	0xbdb011fd	-0.08597181
123	0x3e82e2b9	0.255636
124	0xbe52c85f	-0.20584248
125	0xbe123e31	-0.14281537
126	0x3ea9c4aa	0.33157855
127	0xbef400a8	-0.4765675
128	0x3f0dc64f	0.5538072
129	0xbd94cfb3	-0.07266178
130	0x3d5c7ff6	0.05383297
131	0x3eeba1e6	0.46021956
132	0x3d6e9d18	0.058255285
133	0xbf538634	-0.8262665
134	0xbc8455cd	-0.016154194
135	0xbe934fb4	-0.28771746
136	0x3babf6ab	0.005247911
137	0x3bfd22e4	0.0077251066
138	0x395c09de	0.00020984511
139	0xbeab6a46	-0.33479518
140	0x3e70c01c	0.23510784
141	0xbe2dd40e	-0.16975424
142	0x3e6f3734	0.23360902
143	0x3e69c612	0.22829464
144	0xbef7ada5	-0.48374668
145	0xbe969e0e	-0.2941746
146	0xbe71a348	-0.23597443
147	0xbe66157e	-0.22469136
148	0x3e999e4a	0.30003577
149	0xbe0a9957	-0.13535057
150	0x3ec6d9d2	0.3883806
151	0xbe83c265	-0.2573425
152	0x3f04c135	0.5185731
153	0xbd2e9f9d	-0.042632688
154	0xbbb49c85	-0.0055118226
155	0xbc6a2da2	-0.014293106
156	0x3d6f8a6f	0.05848163
157	0x3b818e8d	0.003953761
158	0x3ef711ae	0.48255676
159	0xbf64dec5	-0.8940242
160	0xbe1a6f72	-0.15081576
161	0x3efa6fd2	0.48913437
162	0xbeae1cb4	-0.34006274
163	0xbeb6809d	-0.35645
164	0xbf120485	-0.57038146
165	0x3be4f954	0.00698773
166	0x3e94d2b8	0.29067016
167	0x3eb6b802	0.35687262
168	0x3d167a5c	0.036737785
169	0xbeef127f	-0.466938
170	0x3e0c80a2	0.13720945
171	0x3e9a1c22	0.3009959
172	0x3ed87e65	0.4228393
173	0x3db2433d	0.08704231
174	0xbf260157	-0.64845794
175	0x3f25ac3a	0.6471592
176	0xbdd3b8b6	-0.10337965
177	0xbf14a245	-0.58060104
178	0xbe483590	-0.19551682
179	0x3db6ee15	0.08932129
180	0xbe487cd8	-0.19578874
181	0xbc1bad0a	-0.009501705
182	0xbe6d0279	-0.23145474
183	0xbeb95e9e	-0.36205
184	0x3f36c1db	0.7138955
185	0xbe71c1dc	-0.23609108
186	0x3e228c2e	0.15873787
187	0x3e67c0df	0.22632168
188	0x3e996594	0.2996031
189	0x3e9ab2b1	0.30214456
190	0xbdbf95c7	-0.0935474
191	0xbd984134	-0.074343115
192	0x3e62269c	0.22085041
193	0xbe0e36ff	-0.13888167
194	0x3f648283	0.89261645
195	0xbe6b2be4	-0.22965962
196	0x3e90c31b	0.28273854
197	0xbeb6bce1	-0.35690978
198	0xbf0fd955	-0.56191
199	0xbe27dac0	-0.1639204
200	0x3ea34bcd	0.3189377
201	0x3e98b16b	0.2982286
202	0xbdad3fe0	-0.08459449
203	0xbee7d666	-0.4528076
204	0x3ced1a65	0.02894325
205	0xbe8d484c	-0.2759422
206	0xbede924b	-0.43470988
207	0x3d35d8b3	0.044396114
208	0xbdaa7e9a	-0.083249286
209	0xbd8a737e	-0.0676031
210	0x3ea9c1f4	0.33155787
211	0x3f451d7e	0.76998127
212	0x3e5f2b64	0.21793896
213	0x3dd358df	0.10319685
214	0xbe249038	-0.1607064
215	0x3e68ed1e	0.22746703
216	0x3d44012f	0.04785269
217	0xbe4bebc8	-0.19914162
218	0x3ee38c62	0.4444304
219	0x3ea16147	0.3151953
220	0x3ec9cd51	0.39414456
221	0xbe87d4d7	-0.2652957
222	0x3e8e1343	0.2774907
223	0xbe879a7f	-0.2648506
224	0xbe890dda	-0.2676838
225	0x3f0de37f	0.55425256
226	0x3edd3c08	0.43209863
227	0x3f052520	0.52009773
228	0x3d614c1d	0.055004228
229	0xbe2ff845	-0.17184551
230	0x3baf07d1	0.005341508
231	0x3de68530	0.11255872
232	0xbf177cf4	-0.5917504
233	0xbe905fa5	-0.2819797
234	0xbeacacf0	-0.3372569
235	0x3e64108d	0.22271939
236	0x3f786e91	0.9704371
237	0x3d15f5b6	0.03661128
238	0x3ee712a4	0.4513141
239	0xbe52e8d0	-0.20596623
240	0xbd86b958	-0.0657832
241	0x3e379c43	0.17930703
242	0xbea4f0a2	-0.32214838
243	0x3ec28037	0.37988445
244	0x3dac06ac	0.0839971
245	0xbea3f25d	-0.32020846
246	0x3ed35a30	0.41279745
247	0x3dff149f	0.12455105
248	0xbd9bcc46	-0.076073214
249	0xbf3f3538	-0.7469058
250	0x3ea926ce	0.33037418
251	0x3e88731e	0.26650327
252	0x3c33a814	0.010965366
253	0xbcaf05c8	-0.021365061
254	0xbf43fe7b	-0.7656018
255	0x3d93a435	0.072090544

network_body._body_endoder.seq_layers.0.bias f4 [64]
0	0x3b8b81e2	0.0042574266
1	0x3b5f8028	0.0034103487
2	0xbb3eff78	-0.002914397
3	0x3b59066d	0.0033115402
4	0x3adbe945	0.0016777894
5	0x3b3168c2	0.0027070497
6	0x3a92234f	0.0011149439
7	0x3b0e37f6	0.0021700836
8	0x3b485145	0.0030566019
9	0x3b164f0f	0.0022935306
10	0xbb901441	-0.0043969457
11	0xbb058597	-0.0020373815
12	0x3a3cd122	0.0007202794
13	0xbb8589a0	-0.004075244
14	0xbadb86ff	-0.0016748606
15	0x3a503c08	0.00079435157
16	0xbabf61d0	-0.0014601294
17	0x3b651c30	0.0034959428
18	0x3a6e3acb	0.00090877403
19	0x37a46be3	1.9600562e-05
20	0x3a40a9c2	0.00073495146
21	0xb8879012	-6.464137e-05
22	0xbb0addcf	-0.0021189337
23	0xbb332969	-0.0027337915
24	0x3a4effd9	0.00078964006
25	0x3b03b48f	0.0020096635
26	0x3a41dcc7	0.0007395264
27	0x3b295731	0.0025839324
28	0xb9e4318b	-0.0004352446
29	0xbb73228a	-0.0037099444
30	0x3b901b4f	0.0043977867
31	0xb9b9b9c4	-0.00035424356
32	0xbae15c3e	-0.0017193628
33	0xba460242	-0.0007553437
34	0x3a437a58	0.00074568903
35	0x3b24bb8f	0.0025136208
36	0x3a573a14	0.00082102534
37	0x3a9c1669	0.0011908534
38	0xbb8f461a	-0.0043723704
39	0xbb9597fa	-0.004565236
40	0x3ae9a822	0.0017826597
41	0xbb834f67	-0.004007268
42	0xbb25be94	-0.0025290595
43	0xbae65274	-0.001757218
44	0x3b2f9646	0.002679245
45	0xbba3e4f9	-0.005001661
46	0xbb49355d	-0.0030701973
47	0xbb1b63cd	-0.002371061
48	0xbb5cd78a	-0.0033697807
49	0x3aacb848	0.0013177479
50	0x3a330860	0.0006829556
51	0x3ac26de3	0.0014833774
52	0xbafef72e	-0.0019452327
53	0x3ad2cb23	0.0016082268
54	0x3af083f0	0.0018349867
55	0x3abf54dd	0.0014597435
56	0xbb497997	-0.003074264
57	0x398ad930	0.00026483228
58	0x39ad62d3	0.0003307076
59	0x3b99d01f	0.0046939994
60	0x3b734403	0.0037119396
61	0xbb0633d8	-0.0020477679
62	0xbb6d6c5b	-0.0036227915
63	0x3b26f059	0.0025472848

network_body._body_endoder.seq_layers.2.weight f4 [64, 64]
0	0x3d9f6096	0.07782094
1	0xbdce0fd2	-0.10061611
2	0x3cf3336e	0.02968761
3	0x3ddc107a	0.1074533
4	0xbe767874	-0.24069387
5	0xbe3e6914	-0.18594772
6	0x3dfda589	0.12385089
7	0xbd8c6732	-0.068556204
8	0x3cb23654	0.021754421
9	0xbcf3cfc1	-0.02976215
10	0x3db18884	0.086686164
11	0x3d11f9d2	0.035638638
12	0xbd54380b	-0.05181126
13	0x3e54cf28	0.20782149
14	0xbd01208e	-0.031525187
15	0xbc652344	-0.013985459
16	0x3dd1228f	0.1021167
17	0xbdabd7ea	-0.08390792
18	0xbe536550	-0.20644116
19	0x3c5f5484	0.01363099
20	0x3da00dba	0.07815118
21	0xbdbcc9d2	-0.09218182
22	0x3db457d0	0.088058114
23	0x3dbbfedc	0.0917947
24	0xbdf99e30	-0.12188375
25	0x3cd935ae	0.026514854
26	0xbdc8039d	-0.09766314
27	0xbd8f7ad7	-0.07005852
28	0xbe21bede	-0.15795466
29	0x3e9db498	0.30801845
30	0xbde88e24	-0.11355236
31	0xbde36fbc	-0.11105296
32	0xbd63a49b	-0.055576902
33	0x3c93ae8d	0.018027568
34	0xbdd9bef9	-0.10632128
35	0xbd70b1ab	-0.058763187
36	0xbd92dfdf	-0.07171606
37	0xbc29a126	-0.010353362
38	0x3ddce234	0.10785332
39	0x3d8606ed	0.0654429
40	0x3d8dec5f	0.0692985
41	0x3d98499d	0.074359156
42	0x3d1458c1	0.036217455
43	0xbe051f57	-0.13000236
44	0x3e75c883	0.2400227
45	0x3db1e8f6	0.08687012
46	0xbd151f23	-0.036406647
47	0x3cc93bf3	0.024564719
48	0xbdab42be	-0.083623394
49	0x3ec5dd65	0.38645473
50	0x3e3b82df	0.18311642
51	0xbe2bf139	-0.16791238
52	0x3b92b2b2	0.0044768685
53	0x3dee4be5	0.116355695
54	0x3d0c2246	0.034212373
55	0x3da6d796	0.081465885
56	0xbd05b260	-0.032640815
57	0x3d26f965	0.040765185
58	0x3d4d1dfe	0.05007743
59	0x3d7630db	0.060105186
60	0xbe460f01	-0.19341661
61	0x3da6c128	0.081423104
62	0x3d281650	0.041036904
63	0xbdae462c	-0.08509478
64	0xbdc99c01	-0.098442085
65	0x3de06e25	0.109585084
66	0xbb8ed451	-0.004358806
67	0x3db68b2e	0.08913265
68	0xbdf69bba	-0.12041421
69	0x3d4c8956	0.04993566
70	0xbdeb8c3e	-0.115013584
71	0xbd82504d	-0.063629724
72	0xbe6e357d	-0.23262592
73	0x3be033cf	0.0068421136
74	0x3dd120a9	0.102113076
75	0x3e387823	0.18014579
76	0xbcfeb924	-0.031094141
77	0x3dfa1b09	0.12212188
78	0x3dfbd8aa	0.12297185
79	0xbdf76226	-0.12079267
80	0x3dcf7e4e	0.101315126
81	0x3dbeb696	0.09312169
82	0x3e70c218	0.23511541
83	0xbe462375	-0.19349463
84	0xbd04bccb	-0.03240661
85	0x3d35ab80	0.04435301
86	0xbd806803	-0.06269839
87	0x3d79a655	0.060949642
88	0xbc098076	-0.008392444
89	0xbe8f3d2a	-0.27976352
90	0x3d0dddb6	0.03463527
91	0xbe85b220	-0.2611246
92	0x3e2212d0	0.15827489
93	0x3df780bf	0.12085103
94	0x3e3e9c5d	0.18614335
95	0x3cf189d4	0.029484667
96	0x3daf36d7	0.08555382
97	0x3e4dff29	0.20116867
98	0xbe144a7f	-0.14481543
99	0x3affe4a0	0.0019523092
100	0xbd876649	-0.06611306
101	0x3e0640a4	0.13110596
102	0x3d62c9cd	0.055368233
103	0xbe32fbe7	-0.17478906
104	0xbbd69cb5	-0.0065494427
105	0xbc93431a	-0.017976332
106	0xbca579d1	-0.020199688
107	0x3cf5593e	0.02994978
108	0x3e8c1116	0.27356786
109	0x3cf14b6d	0.029454911
110	0xbe667e37	-0.22509085
111	0x3ea513ab	0.32241568
112	0x3e780e3d	0.24224181
113	0xbd0e6075	-0.034759957
114	0xbd9c5f61	-0.076353796
115	0x3de0e9f9	0.10982127
116	0x3e222d6d	0.15837641
117	0xbe436847	-0.19082747
118	0x3d9ba2cb	0.0759941
119	0xbe61cc5d	-0.22050615
120	0xbe8d4316	-0.27590245
121	0x3e84c91a	0.25934678
122	0x3d252153	0.040314984
123	0x3dc1d547	0.094645076
124	0x3e483168	0.19550097
125	0xba1b8915	-0.00059332076
126	0xbdb11cf9	-0.08648104
127	0x3dd2903b	0.10281416
128	0xbd802180	-0.062563896
129	0xbd7b38df	-0.061333533
130	0xbe08f15b	-0.1337332
131	0xbdef70bf	-0.116914265
132	0x3d39ab45	0.04532935
133	0x3e289384	0.16462523
134	0xbd366429	-0.044529114
135	0x3c7ce960	0.0154365
136	0xbe516061	-0.20446922
137	0x3e2479a4	0.16062027
138	0x3e3418d1	0.17587592
139	0xbc92b522	-0.017908636
140	0x3e3e269e	0.18569419
141	0x3dd82b2f	0.105551116
142	0x3e4c9d48	0.19981873
143	0x3d68e117	0.056855287
144	0xbd1a48ee	-0.037667207
145	0x3e46c95c	0.1941275
146	0x3cc124fb	0.023577204
147	0x3db6b1e0	0.08920646
148	0x3d7232de	0.059130542
149	0x3d70bf9e	0.05877649
150	0xbe04c067	-0.1296402
151	0xbd59964d	-0.053121854
152	0x3dce7a39	0.10081906
153	0xbd9dd760	-0.07707095
154	0xbae7019c	-0.0017624381
155	0x3c722c2d	0.01478104
156	0xbe949059	-0.2901638
157	0xbe72a568	-0.2369591
158	0x3d87221c	0.06598303
159	0x3e4ecdaa	0.20195642
160	0xbd6bb1ca	-0.0575426
161	0xbdb117d0	-0.0864712
162	0xbc6e2e7f	-0.014537453
163	0x3df969e6	0.12178402
164	0xbeac9abc	-0.33711803
165	0xbc7193b2	-0.014744686
166	0xbe029518	-0.12752187
167	0x3da30842	0.079605594
168	0x3d5a08e1	0.053231124
169	0xbe864f29	-0.2623227
170	0x3d937dd9	0.07201738
171	0x3e67fab7	0.22654234
172	0xbe8994f6	-0.2687146
173	0xbe7463f0	-0.23866248
174	0x3dd58d01	0.10427285
175	0x3bc17210	0.00590349
176	0x3e6c9199	0.23102416
177	0xbdaa73fa	-0.08322902
178	0x3e129449	0.14314379
179	0xbecc1b7d	-0.39864722
180	0x3e1540e8	0.14575541
181	0x3e12372a	0.14278856
182	0xbd861fd7	-0.06549042
183	0xbd2bd11d	-0.041947473
184	0x3e8a554b	0.27018198
185	0xbca88a16	-0.020573657
186	0x3dd5731d	0.10422347
187	0x3e5bc497	0.21461712
188	0xbc494f4b	-0.012286971
189	0xbe11d1be	-0.14240167
190	0xbd3ecb74	-0.046580747
191	0xbdd5cf7c	-0.10439965
192	0xbc382b92	-0.011240857
193	0x3e996975	0.2996327
194	0x3d805a61	0.062672384
195	0xbe467874	-0.19381887
196	0x3d5bad0b	0.053631824
197	0xbe01b8a8	-0.12668097
198	0xbcac81ec	-0.021058045
199	0xbe4e6873	-0.20157032
200	0x3d062e38	0.03275892
201	0x3e3ae289	0.18250479
202	0xbe3569a5	-0.17716081
203	0xbd6b2ff1	-0.057418767
204	0xbe6ccd00	-0.23125076
205	0x3d9421e4	0.072330266
206	0xbd9b3ae7	-0.07579594
207	0xbdd3843f	-0.10327958
208	0x3bff6872	0.0077944333
209	0x3e9b7d11	0.30368856
210	0x3ceef92b	0.029171547
211	0x3e2a4fc9	0.16631998
212	0xbd1f4b02	-0.038889892
213	0x3c882d20	0.01662308
214	0xbe3419e5	-0.17588003
215	0xbd1d31ba	-0.0383775
216	0xbdc355dc	-0.09537861
217	0x3d809003	0.06277468
218	0xbe950c5f	-0.29111
219	0x3d864dfb	0.06557842
220	0xbd7a93a6	-0.061175965
221	0xbc41fdf8	-0.011840336
222	0xbe47d5d4	-0.19515163
223	0xbe4804a2	-0.19533017
224	0x3d571156	0.052506767
225	0x3da4ca4d	0.08046398
226	0xbd7f2a09	-0.062295947
227	0x3e00f20e	0.12592337
228	0xbe111fe2	-0.14172319
229	0xbb569ec3	-0.0032748438
230	0x3db5b2a8	0.088719666
231	0x3d06de8c	0.03292708
232	0xbc1ea544	-0.009682957
233	0x3e41e045	0.18933208
234	0x3e26d47a	0.16291991
235	0x3dc16f70	0.09445083
236	0xbe11bf0d	-0.14233036
237	0x3e037e1f	0.1284108
238	0x3e404ba4	0.18778855
239	0x3e14d55d	0.14534517
240	0x3c2d9649	0.010594913
241	0xbd3b8321	-0.04577935
242	0xbdf4a7e8	-0.11946088
243	0xbd608dec	-0.054822847
244	0x3c168445	0.009186809
245	0xbd546859	-0.051857326
246	0x3e0a6e5d	0.13518663
247	0x3df8c1d2	0.12146343
248	0x3d3d6156	0.046235405
249	0xbe11b9bf	-0.14231013
250	0xbd8c6ec1	-0.06857062
251	0xbdd135b2	-0.1021532
252	0xbea4a5da	-0.32157785
253	0x3e182ba1	0.14860393
254	0xbd143e94	-0.03619249
255	0x3d5850fe	0.052811615

network_body._body_endoder.seq_layers.2.bias f4 [64]
0	0x3a8fbcdf	0.0010966322
1	0xbabfa8b6	-0.0014622423
2	0xba7edd11	-0.00097222725
3	0x39daf0a8	0.00041759503
4	0xbad8de41	-0.0016545729
5	0x39fc4b1d	0.0004812115
6	0xbaf82e43	-0.0018934686
7	0x3a8dd1e0	0.0010819994
8	0x3ad1f819	0.0016019373
9	0xba19864c	-0.00058564986
10	0xbad31f2b	-0.0016107311
11	0xbb09eaf3	-0.0021044582
12	0x3aaf1ab6	0.0013359401
13	0x3b70106d	0.0036630884
14	0xbb471a00	-0.0030380487
15	0x39cf213a	0.00039506872
16	0xbb33be86	-0.0027426793
17	0x3b3f6f7d	0.002921074
18	0x3b9fb060	0.0048733205
19	0xbba9deb8	-0.005184021
20	0xbb04e0b5	-0.0020275537
21	0x3b046edc	0.002020768
22	0xbb6c65f2	-0.0036071506
23	0xbb79462c	-0.003803621
24	0xbae1a20c	-0.0017214431
25	0x3b44c414	0.0030024098
26	0xbb36c125	-0.002788612
27	0xba1c7a08	-0.0005969112
28	0x3ba5d5ee	0.005060903
29	0x3a13f49c	0.00056440546
30	0x392ea630	0.00016655843
31	0x3a665305	0.00087861746
32	0x3b0f71dd	0.0021887936
33	0x3a518c62	0.0007993636
34	0xbb1ff23d	-0.002440586
35	0xbb328870	-0.0027241968
36	0x3ac35179	0.00149016
37	0xbb5610c1	-0.0032663795
38	0x3a0ae47a	0.0005298328
39	0xba491ca8	-0.00076718116
40	0x3b8a47f9	0.0042200056
41	0xbb9ada05	-0.004725697
42	0xbb4ccdd8	-0.0031250622
43	0xbb667061	-0.0035162198
44	0xbb195cfa	-0.0023401366
45	0xbb6e20ca	-0.0036335462
46	0xbb71bb1c	-0.0036885208
47	0x3b257c9e	0.002525128
48	0x3abd9a99	0.0014465629
49	0x3ad740a1	0.0016422459
50	0x3a05d04e	0.0005104587
51	0xb8977c92	-7.223444e-05
52	0xbaf518e3	-0.0018699433
53	0x3b52193e	0.0032058503
54	0x3b3819b1	0.0028091485
55	0x39a91789	0.00032251727
56	0x3aed804a	0.0018119898
57	0xbb0a16d3	-0.0021070733
58	0xba99ca9f	-0.001173336
59	0x3a7f5cdc	0.0009741315
60	0x39d1fb42	0.00040050788
61	0x3b5d7a3d	0.0033794784
62	0x3ae96cf7	0.0017808963
63	0xbb134a19	-0.0022474586

action_model._discrete_distribution.branches.0.weight f4 [4, 32]
0	0xbcc4c2ab	-0.024018606
1	0xbc59ef13	-0.013301629
2	0xbce89327	-0.02839048
3	0xbc1294a4	-0.0089465715
4	0xbc7dfff5	-0.015502919
5	0xbc4a10ae	-0.012333078
6	0x3d33ffd4	0.04394515
7	0x3b20d83e	0.0024542953
8	0xbc5e24e1	-0.013558597
9	0xbc2ceb85	-0.010554199
10	0x3b05ed08	0.002043547
11	0x3cab7dea	0.020934064
12	0x3bd01f9c	0.0063514244
13	0x3cc72d14	0.024313487
14	0x3ba31f1d	0.004978074
15	0x3ca78a04	0.020451553
16	0x3d06c163	0.03289927
17	0xbbfeadad	-0.0077721686
18	0x3d2e51b5	0.04255839
19	0xbb93e281	-0.0045130854
20	0xbace2950	-0.0015728865
21	0xbc4266b0	-0.011865303
22	0xbbc07b2d	-0.0058740587
23	0x3c069d2b	0.008216183
24	0x3d007d96	0.031369768
25	0xbcd2f3a9	-0.025750952
26	0xbcc08417	-0.023500485
27	0x3bcef7c1	0.0063161557
28	0xbd29371d	-0.041312326
29	0x3c8797f4	0.01655195
30	0xbbb027e4	-0.005375849
31	0x3c809687	0.015696777
32	0xbb0bc1ea	-0.0021325299
33	0xbcd2fac2	-0.025754336
34	0x3ca271c8	0.019829646
35	0x3c1f0514	0.009705801
36	0xbc733800	-0.014844894
37	0x3bc1373d	0.0058964775
38	0x3c681ad6	0.014166554
39	0xbc644d84	-0.013934497
40	0xbc505d30	-0.01271753
41	0xbc49384b	-0.012281488
42	0x3be3baeb	0.0069497726
43	0xbc69ded3	-0.014274317
44	0xbc8ade97	-0.016951842
45	0x3c5aafe9	0.013347604
46	0x3c1a3242	0.009411396
47	0x3c6ffec1	0.01464814
48	0x3c1cfd7c	0.00958192
49	0xbc7e4bad	-0.015520972
50	0x3d00e6f8	0.03147027
51	0xbd2845bb	-0.041082125
52	0x3ce95821	0.028484406
53	0x3d20a506	0.03921988
54	0x3cbdc931	0.023167225
55	0x3c032a22	0.008005651
56	0x3be209d4	0.0068981443
57	0x3c43b8fc	0.011945959
58	0xbc55672e	-0.013025088
59	0x3cae0320	0.021241724
60	0x3c9a8fe7	0.018867446
61	0xbbff61af	-0.007793627
62	0xbcc4ac90	-0.024008065
63	0x3c8ae6a4	0.016955681
64	0x3c0aa5dc	0.0084623955
65	0xbcb266f6	-0.021777611
66	0x3c711bb1	0.014716075
67	0xbbfbe5dd	-0.007687314
68	0x3c8c75c5	0.017146
69	0xba1be26d	-0.0005946521
70	0xbbff1d5e	-0.0077854833
71	0x3c3605fc	0.011109825
72	0x3c4f79a2	0.012663277
73	0x3c53a104	0.012916807
74	0xbce6acf2	-0.028158639
75	0xbc00c172	-0.007858621
76	0xbc9e13df	-0.019296585
77	0x3cf7e006	0.03025819
78	0xbcdc2171	-0.026871415
79	0xbc01a7ea	-0.007913569
80	0x3a3ad00e	0.00071263395
81	0xbcb238c3	-0.021755582
82	0x3bab1a65	0.0052216523
83	0x3c3ad459	0.011403167
84	0xbc855f8b	-0.01628091
85	0xbbeecfb2	-0.007287943
86	0xba913571	-0.0011078549
87	0x3d23649c	0.03989087
88	0xbce2f119	-0.027702855
89	0xbb5dbe28	-0.0033835266
90	0x3ce1f4c3	0.027582532
91	0xbb82756f	-0.0039812843
92	0xbbc46131	-0.0059930314
93	0x3be9246a	0.0071149366
94	0xbd4e3622	-0.050344594
95	0xbc30946a	-0.010777572
96	0x3cb40675	0.021975735
97	0xbc4188e0	-0.011812419
98	0x3bc01304	0.005861642
99	0xbca85d69	-0.020552354
100	0x3c7ffa3c	0.015623625
101	0x3d19e6fd	0.037573803
102	0xbc3b2139	-0.011421495
103	0x3c9c3668	0.019068912
104	0x3c3b32be	0.011425672
105	0xbca41c7c	-0.020033114
106	0x3cd93bae	0.026517715
107	0xbc8472be	-0.016167995
108	0xbae25935	-0.0017269017
109	0xbcc7168c	-0.024302743
110	0x3c9a68a4	0.018848725
111	0x3bde0b6e	0.006776265
112	0x3c63e4cd	0.013909531
113	0xbcce5c37	-0.025190456
114	0xbc20a523	-0.009804997
115	0x3cdb574b	0.026775023
116	0xbbd9a69e	-0.006642177
117	0x3d102d71	0.035199586
118	0x3c4bae12	0.012431638
119	0x3d27eea1	0.04099906
120	0x3c34db9b	0.011038686
121	0xbca8b3d9	-0.02059357
122	0x3a7fcd3e	0.00097580615
123	0x3c3f9c74	0.011695016
124	0x3b31c4ec	0.0027125431
125	0xbc668075	-0.0140687125
126	0x3b4edea8	0.003156582
127	0xbc230a0a	-0.009951124

action_model._discrete_distribution.branches.0.bias f4 [4]
0	0x3bafc660	0.0053642243
1	0x3b81bfdb	0.0039596385
2	0xbba32cf6	-0.004979725
3	0xbb7cf687	-0.003859909

onnx::LSTM_98 f4 [1, 128, 64]
0	0xbe1ac2f6	-0.15113434
1	0x3e686735	0.2269562
2	0x3d7e3280	0.06205988
3	0xbd54f801	-0.051994327
4	0x3e401efa	0.18761817
5	0xbe630703	-0.22170644
6	0x3e5101f4	0.20410901
7	0xbd03052b	-0.03198735
8	0xbd88536c	-0.066565365
9	0x3e49d05d	0.1970839
10	0xbe80753b	-0.2508944
11	0x3dc78a55	0.097431816
12	0x3d2e4527	0.042546418
13	0x3d986614	0.07441345
14	0x3e6eb9a8	0.2331301
15	0xbe59c511	-0.21266581
16	0x3e09f5f4	0.1347273
17	0xbd2d5ef9	-0.0423269
18	0x3ddefd34	0.108881384
19	0x3d81252b	0.06305917
20	0x3d878319	0.06616802
21	0x3e47eb7f	0.19523428
22	0xbe2db223	-0.16962485
23	0x3d2b5241	0.04182649
24	0x3e63bc8c	0.22239894
25	0xbe70ab80	-0.23502922
26	0x3d82cf26	0.06387167
27	0x3e71f9fa	0.23630515
28	0x3e4645a8	0.19362509
29	0xbe1db891	-0.15402438
30	0xbe63cd00	-0.2224617
31	0x3b8a9645	0.0042293393
32	0x3cd8e42d	0.02647599
33	0x3e785848	0.24252427
34	0x3e143c05	0.1447602
35	0x3e2c09cb	0.1680061
36	0x3e8125c3	0.25224122
37	0xbcc6e11e	-0.024277266
38	0x3e45d9de	0.19321391
39	0x3e505367	0.20344315
40	0x3e3a5a95	0.18198617
41	0xbe1d5da5	-0.15367754
42	0xbe3b16a7	-0.1827036
43	0xba454fa5	-0.00075268216
44	0xbcf39ef7	-0.029738886
45	0x3a221b6a	0.00061838946
46	0xbe52fd31	-0.20604397
47	0xbc015e67	-0.007896042
48	0xbe31036a	-0.17286459
49	0xbc46c2be	-0.012131391
50	0xbe5825f3	-0.21108226
51	0xbd8f7baa	-0.07006009
52	0xbd583a1e	-0.0527898
53	0x3e5a6451	0.2132733
54	0xbd8e8cbb	-0.06960436
55	0xbe45c349	-0.19312777
56	0xbe4e013d	-0.2011766
57	0xbd91dc8d	-0.07122145
58	0xbd828d69	-0.06374628
59	0x3e074fbf	0.13214014
60	0xbe52f0f9	-0.20599736
61	0xbe609571	-0.21932007
62	0x3dc07b48	0.09398514
63	0xbe15654f	-0.14589427
64	0x3afff88b	0.0019529028
65	0xbcfe0046	-0.03100599
66	0x3e197e44	0.14989573
67	0x3e099bf4	0.13438398
68	0xbd92c60d	-0.071666814
69	0x3ded7329	0.11594231
70	0x3d724351	0.05914623
71	0xbe73221b	-0.23743479
72	0xbe42abf9	-0.19010915
73	0x3d2173ba	0.039417006
74	0x3da30838	0.07960552
75	0x3e68ec26	0.22746333
76	0x3e308e22	0.1724172
77	0x3d525ce6	0.051358126
78	0x3d84f522	0.06492068
79	0x3d0c4024	0.034240857
80	0x3df99900	0.121873856
81	0xbdd46b60	-0.10372043
82	0x3e1b2379	0.1515025
83	0x3d976274	0.07391825
84	0xbdd7b6f0	-0.105329394
85	0x3d9c19c3	0.07622101
86	0xbe1306c8	-0.14358056
87	0xbe3c960f	-0.18416618
88	0xbe3e4827	-0.18582211
89	0x3c84cbc8	0.016210452
90	0x3e6f0cf3	0.23344783
91	0xbe3012ab	-0.17194621
92	0xbd7d002b	-0.06176774
93	0x3e2b55d2	0.16731957
94	0x3cdd9520	0.027048647
95	0xbdb12654	-0.08649889
96	0x3daa8bac	0.083274215
97	0x3e313189	0.17304052
98	0x3db7d21f	0.08975624
99	0xbe32a1fb	-0.17444603
100	0xbdbb0713	-0.09132209
101	0xbe189908	-0.14902127
102	0xbd06dc47	-0.032924917
103	0x3e0696e1	0.13143493
104	0xbc96579d	-0.018352324
105	0x3e3ae9c0	0.18253231
106	0xbac35050	-0.0014901254
107	0xbdd1b1a9	-0.10238964
108	0x3e693a19	0.22776069
109	0x3dfa833f	0.122320645
110	0xbe633295	-0.22187264
111	0xbd7dc7fd	-0.0619583
112	0x3e246636	0.16054615
113	0x3e496d50	0.19670606
114	0xbdca4fb1	-0.09878481
115	0xbe375119	-0.1790203
116	0x3d812b7d	0.06307123
117	0x3dd2e1b6	0.10296957
118	0x3ca5d9ad	0.020245397
119	0x3d5d9de0	0.05410564
120	0x3e4bb21b	0.1989216
121	0x3d7e111f	0.062028047
122	0x3d68bf9b	0.056823354
123	0xbe0e1c59	-0.13878001
124	0x3e55785a	0.20846692
125	0x3cc63610	0.0241957
126	0x3e69edfa	0.22844687
127	0xbe3c6d65	-0.18401106
128	0x3d6a339e	0.057178132
129	0x3e300bbe	0.1719198
130	0xbc20cfe2	-0.009815188
131	0x3e48adb4	0.19597512
132	0x3e4202a7	0.18946324
133	0x3df38645	0.11890844
134	0xbe349cba	-0.17637911
135	0xbd2060d8	-0.039154857
136	0x3e2bca6e	0.1677644
137	0xbe2805a1	-0.16408397
138	0x3e7a9bb3	0.24473457
139	0x3d18de51	0.037321392
140	0x3d594111	0.053040568
141	0x3c299c2e	0.010352178
142	0x3e8004cf	0.2500367
143	0xbce73301	-0.028222563
144	0xbe43dc61	-0.19127037
145	0x3bd165aa	0.006390293
146	0xbe461be9	-0.19346584
147	0xbd4db37c	-0.050219998
148	0xbe57a102	-0.21057513
149	0x3d303e98	0.043028444
150	0xbcd864f6	-0.02641533
151	0x3dfd9136	0.123812124
152	0xbe21c866	-0.15799102
153	0xbe1bf330	-0.15229487
154	0xbe1e1d00	-0.1544075
155	0x3e3b1d61	0.18272926
156	0x3ce79993	0.028271472
157	0xbe3e5c30	-0.18589854
158	0x3c935e03	0.017989164
159	0x3dab7985	0.083727874
160	0xbe385117	-0.17999683
161	0xbdc160ce	-0.09442292
162	0xbcf0c42e	-0.02939042
163	0xbe434cbb	-0.19072239
164	0x3d2fbdf0	0.042905748
165	0xbc6380da	-0.013885701
166	0x3e40d468	0.18831027
167	0xbe3e6cb2	-0.18596151
168	0x3e122c9e	0.14274833
169	0x3dcc8b84	0.09987548
170	0x3dcb9bdd	0.09941838
171	0xbe6ec300	-0.23316574
172	0xbe4d7ae8	-0.20066416
173	0x3e54ea0e	0.2079241
174	0x3e326dc9	0.17424692
175	0xbde0f6ce	-0.10984574
176	0xbe062957	-0.13101707
177	0x3e6274a4	0.22114807
178	0x3c898464	0.016786762
179	0x3d4b40b8	0.049622267
180	0x3def177b	0.116744004
181	0x3de54185	0.111941375
182	0xbe755e46	-0.23961744
183	0xbdb9e635	-0.09077112
184	0xbd80eab6	-0.062947676
185	0x3da51161	0.080599554
186	0x3e3bb897	0.18332134
187	0x3dc60c32	0.09670295
188	0x3b84dca3	0.0040546223
189	0x3e1cf09b	0.15326159
190	0xbe254c13	-0.16142301
191	0xbe58bb31	-0.21165158
192	0x3e2265a1	0.15859081
193	0x3e230bd3	0.1592248
194	0xbdde7497	-0.108620815
195	0xbcabf270	-0.020989627
196	0xbd9c09c6	-0.07619052
197	0x3d57838b	0.052615684
198	0x3e43b2b2	0.19111136
199	0x3e0f1524	0.13972908
200	0xbd2b7eb9	-0.0418689
201	0x3c06e59e	0.008233456
202	0xbd20bf74	-0.039245084
203	0x3d89d457	0.06729954
204	0xbdbf8f24	-0.09353474
205	0x3e5ef2a5	0.21772249
206	0xbe427144	-0.1898852
207	0xbdd9a478	-0.10627073
208	0x3da35d78	0.07976812
209	0xbdf47674	-0.11936656
210	0xbe33b741	-0.17550375
211	0xbe4d8aea	-0.20072523
212	0xbe304a0a	-0.17215744
213	0xbe74331b	-0.2384762
214	0xbe23dfe7	-0.1600338
215	0x3df7b03e	0.120941624
216	0xbe079729	-0.13241257
217	0x3e11be7c	0.1423282
218	0x3d94f12f	0.072725646
219	0xbe4780ad	-0.1948268
220	0x3e5e83b7	0.21729933
221	0x3e6ef74a	0.23336521
222	0xbe27992f	-0.16367029
223	0xbe2fd936	-0.17172703
224	0x3dfb0ae2	0.12257935
225	0x3e61e213	0.22058897
226	0x3c91d1f8	0.017800316
227	0x3e1c800a	0.15283218
228	0x3e41b7ec	0.18917817
229	0x3dbeea7a	0.093220666
230	0x3e607310	0.21918893
231	0x3bfc806c	0.007705739
232	0x3d462d9d	0.048383344
233	0xbe2b5aa7	-0.167338
234	0x3d29e87e	0.041481487
235	0x3dd12d12	0.102136746
236	0xbdcc7ab1	-0.09984339
237	0x3d302fcb	0.04301433
238	0x3d7790a8	0.06044069
239	0x3c98caa9	0.018651323
240	0xbdfd29c8	-0.12361485
241	0xbe79952e	-0.24373314
242	0x3d4418a0	0.047875047
243	0xbe032c74	-0.12809926
244	0x3e54a4e4	0.20766026
245	0x3e413748	0.18868744
246	0x3d80cd26	0.06289129
247	0x3e62a3c6	0.22132787
248	0x3d3c00d1	0.045899216
249	0x3dbe8689	0.09303004
250	0x3e04aa71	0.12955643
251	0xbe783eb9	-0.24242677
252	0x3e324d27	0.17412244
253	0x3c82aebc	0.01595246
254	0x3d952e4b	0.0728422
255	0xbd7e4647	-0.06207874

onnx::LSTM_99 f4 [1, 128, 32]
0	0x3e574f10	0.21026254
1	0xbd03f413	-0.03221519
2	0x3ddeb141	0.10873652
3	0xbe8d71cc	-0.27625883
4	0x3dc52b93	0.09627452
5	0x3d1ad45a	0.03780017
6	0xbe112060	-0.14172506
7	0xbe9acd32	-0.30234677
8	0xbe6b2af6	-0.22965607
9	0x3e9217e7	0.2853386
10	0x3e1a240f	0.15052818
11	0xbe3d8a02	-0.18509677
12	0xbe863758	-0.262141
13	0xbe51f9c8	-0.2050544
14	0xbc157ba9	-0.009123721
15	0xbe2d0444	-0.16896158
16	0xbe8d216e	-0.27564567
17	0x3e23b604	0.15987402
18	0x3d2a7fe1	0.04162586
19	0x3e87e1b9	0.265394
20	0x3e098bcc	0.13432235
21	0xbd322152	-0.043488808
22	0xbdea9804	-0.11454776
23	0x3e260a8f	0.16214965
24	0xbe5a82c2	-0.21338943
25	0x3e2be231	0.16785504
26	0xbc8a2f6c	-0.016868316
27	0x3e60d679	0.21956815
28	0xbe57d482	-0.21077159
29	0xbcb76bec	-0.022390328
30	0x3d9f3659	0.07774038
31	0xbe4197ba	-0.18905535
32	0xbd3fea84	-0.04685451
33	0xbe2d6768	-0.16933978
34	0xbe432b7d	-0.19059558
35	0xbe53bc36	-0.20677266
36	0x3dd8b85f	0.10582041
37	0x3e7a3d9c	0.24437565
38	0x3de6f828	0.11277801
39	0x3dd873c2	0.10568954
40	0x3bd0a944	0.0063678343
41	0x3e864707	0.26226065
42	0xbe88d35d	-0.26723757
43	0x3ab4b68e	0.0013787316
44	0x3dbf5c53	0.09343781
45	0xbdecdd39	-0.115656324
46	0xbdc7b377	-0.09751027
47	0x3d91d818	0.07121295
48	0x3e54d24e	0.2078335
49	0xbd9d1f59	-0.07671995
50	0x3e2214b8	0.15828216
51	0x3dbb8849	0.09156854
52	0x3d8e1d67	0.06939202
53	0xbd943089	-0.0723582
54	0x3d2e952e	0.042622738
55	0xbe138e26	-0.14409694
56	0x3e160d05	0.14653404
57	0xbe10b333	-0.14130859
58	0x3e59fc90	0.21287751
59	0x3dfcb514	0.123392254
60	0xbdf30bfa	-0.11867519
61	0xbd7f61ad	-0.06234901
62	0xbc9b73d1	-0.018976124
63	0x3e573380	0.2101574
64	0x3e58cc80	0.2117176
65	0xbe72af58	-0.23699701
66	0x3e798a22	0.243691
67	0xbe5279fe	-0.20554349
68	0x3d964e51	0.073391564
69	0x3dde611b	0.10858365
70	0xbe40cac7	-0.18827353
71	0x3e49ab5a	0.19694272
72	0xbd95f9eb	-0.07323059
73	0xbe19d9ad	-0.15024443
74	0x3e8d74c7	0.27628157
75	0xbe84af7b	-0.2591513
76	0xbe33ac79	-0.17546262
77	0x3e856f08	0.26061273
78	0x3c0cf874	0.008604158
79	0xbe5ac6b0	-0.21364856
80	0xbe94d1ca	-0.29066306
81	0xbe0d05ae	-0.13771698
82	0xbe95777c	-0.29192722
83	0x3dbbd79c	0.091719836
84	0x3da0d635	0.07853357
85	0xbe47114c	-0.19440192
86	0xbded5ed4	-0.11590353
87	0xbe657cf0	-0.22410941
88	0xbc635836	-0.013876012
89	0x3e52ebbf	0.20597742
90	0xbce088ff	-0.027409075
91	0xbdb052ab	-0.08609518
92	0x3e6dedab	0.23235194
93	0xbe829df5	-0.25511137
94	0xbd4a63b3	-0.049411487
95	0x3d283615	0.0410672
96	0xbe46e24e	-0.19422266
97	0x3da0b8a9	0.07847721
98	0x3e6758fc	0.22592539
99	0x3d3f45ad	0.046697307
100	0xbdd3f36f	-0.10349166
101	0x3e45929b	0.19294207
102	0x3d9e32f4	0.07724562
103	0x3e6bcc60	0.23027182
104	0xbe4d505f	-0.2005019
105	0x3e5d2e76	0.21599755
106	0xbe1ee13e	-0.1551561
107	0xbd359495	-0.044331152
108	0x3e3a3a95	0.1818641
109	0xbd9807b5	-0.07423345
110	0x3c7aab70	0.015299663
111	0x3d31733a	0.04332278
112	0x3bc81fea	0.00610732
113	0xbe832fcd	-0.25622407
114	0xbe967256	-0.29384106
115	0x3d129de2	0.0357951
116	0xbe2fd20f	-0.17169975
117	0xbe466ba5	-0.19377
118	0x3e0817a3	0.13290267
119	0xbdf23c55	-0.11827914
120	0xbe1bb45a	-0.15205517
121	0x3e6c6ba9	0.23087944
122	0x3ddc5ed7	0.10760277
123	0x3e14e53d	0.14540572
124	0xbe7cedaf	-0.24700044
125	0x3dcf11d2	0.10110821
126	0xbd64bd63	-0.055844676
127	0x3da878c1	0.08226157
128	0xbe480fa4	-0.19537216
129	0x3e5754dc	0.21028465
130	0x3dad5603	0.08463671
131	0xbd3ba7c1	-0.04581428
132	0xbe6a98ad	-0.22909804
133	0x3e7227ce	0.23647997
134	0xbe7a5305	-0.24445732
135	0x3e86dc65	0.26340023
136	0xbc1035ee	-0.00880192
137	0x3e8ee7f5	0.27911344
138	0xbe8ca05f	-0.27466103
139	0x3c88e504	0.016710766
140	0xbc2f34f2	-0.0106937755
141	0xbe8246f0	-0.25444746
142	0x3e9436ed	0.28948155
143	0x3da5776e	0.0807942
144	0x3e877dbd	0.26463118
145	0x3e0ea0b0	0.13928485
146	0xbe3c31de	-0.18378398
147	0x3e86ea2f	0.26350543
148	0x3e4322c2	0.19056228
149	0xbe73c4fb	-0.23805611
150	0xbe99e2c9	-0.30055836
151	0xbcd66577	-0.02617143
152	0xbe4286f1	-0.18996789
153	0xbd110c16	-0.035411917
154	0x3d4088a6	0.047005318
155	0xbe68b29f	-0.22724389
156	0xbe049e98	-0.12951124
157	0xbdda2cca	-0.10653074
158	0xbe5b48b3	-0.21414451
159	0x3dce28d5	0.10066382
160	0x3e818267	0.25294802
161	0x3e973d28	0.29538846
162	0xbd9a8977	-0.075457506
163	0x3e8471c0	0.25868034
164	0x3e879822	0.26483256
165	0xbe3b8d00	-0.18315506
166	0x3e8c0cbb	0.27353463
167	0xbcd9ba84	-0.026578195
168	0xbe58fc70	-0.21190047
169	0xbe26b2d5	-0.16279157
170	0xbe2119e8	-0.15732539
171	0x3caf68df	0.021412311
172	0x3d02a8ef	0.03189939
173	0xbdab89fe	-0.08375929
174	0xbe01cbc1	-0.12675382
175	0x3e919bdd	0.28439227
176	0xbd077c5b	-0.03307758
177	0x3e7f98e3	0.24960665
178	0xbe26f938	-0.16306007
179	0x3e836bd3	0.256682
180	0xbe0e5ec9	-0.13903345
181	0xbe29a50d	-0.16566868
182	0x3d0204fe	0.031743042
183	0xbe5fc382	-0.21851924
184	0xbceebf83	-0.029144054
185	0x3e20fda9	0.15721764
186	0x3e5d670f	0.21621345
187	0x3e447a26	0.19187221
188	0xbe5689c3	-0.2095099
189	0xbe0416ad	-0.12899275
190	0x3b7569fb	0.0037447202
191	0xbe80c3e3	-0.2514945
192	0xbcc0afc9	-0.02352132
193	0xbd8af4ff	-0.067850105
194	0xbe5b6306	-0.21424493
195	0x3d2a07fd	0.041511524
196	0x3a22e7a4	0.0006214327
197	0xbe200e37	-0.15630423
198	0xbe5c6c2a	-0.21525636
199	0x3d35301b	0.04423533
200	0x3e936347	0.2878668
201	0xbe553a28	-0.20822966
202	0x3ce70121	0.02819878
203	0x3d418f1d	0.047255624
204	0x3e508526	0.20363292
205	0xbdc62182	-0.0967436
206	0x3e27155f	0.16316746
207	0x3e51ccba	0.20488253
208	0xbd381041	-0.044937376
209	0xbe74c7ca	-0.23904338
210	0xbe3bae2f	-0.18328165
211	0xbdebd84b	-0.11515864
212	0xbc281736	-0.01025944
213	0x3cc07bc9	0.023496525
214	0xbe8fdb2b	-0.280969
215	0xbe7ff7bc	-0.24996847
216	0xbe03521a	-0.12824288
217	0xbe821953	-0.25409946
218	0x3e83605f	0.25659463
219	0x3e0ebee3	0.13940005
220	0x3e88a566	0.2668869
221	0x3be93d1c	0.0071178805
222	0xbddaa657	-0.10676258
223	0xbd9d9081	-0.076935776
224	0xbe1eebf9	-0.15519704
225	0xbe836b05	-0.25667587
226	0x3e164e52	0.14678314
227	0xbb87ba80	-0.0041421056
228	0xbe5452d5	-0.20734723
229	0xbe71610c	-0.23572177
230	0xbe5ea9ff	-0.21744536
231	0x3e57565e	0.2102904
232	0xbe2320f4	-0.1593054
233	0xbda76b37	-0.081747465
234	0xbe0c60a7	-0.13708745
235	0x3e549592	0.20760182
236	0x3e29eaac	0.16593426
237	0xbdb0f3ad	-0.086402275
238	0xbdf4ef40	-0.11959696
239	0xbe294d56	-0.16533408
240	0x3d735e0f	0.059415873
241	0xbcfede4c	-0.031111859
242	0x3e029863	0.12753443
243	0x3d591358	0.052996963
244	0xbe317af5	-0.1733206
245	0xbd8dc095	-0.06921498
246	0xbe90b031	-0.28259423
247	0x3e93e3d4	0.28884757
248	0x3d87dbd4	0.06633726
249	0xbe423c20	-0.18968248
250	0x3db103b3	0.08643284
251	0xbd4a885c	-0.04944645
252	0xbdc2586d	-0.09489522
253	0xbe61b0be	-0.22040078
254	0xbe9c4570	-0.30521727
255	0xbe8574df	-0.26065728

onnx::LSTM_100 f4 [1, 256]
0	0x3b38410f	0.002811495
1	0xb9e5053b	-0.0004368218
2	0x3a3ef09d	0.0007283779
3	0x3b93c837	0.0045099515
4	0x3ba60260	0.005066201
5	0xba5ce778	-0.00084268255
6	0x3b038944	0.002007083
7	0x3b5f851e	0.0034106444
8	0x3b022265	0.0019856927
9	0x3aa59178	0.0012631854
10	0x3b154a47	0.0022779868
11	0xbadef9e0	-0.0017011724
12	0xbb85bcb2	-0.004081332
13	0x3b4ec180	0.003154844
14	0x3b82220e	0.003971345
15	0xbb2789a3	-0.0025564216
16	0x3b55b56c	0.0032609357
17	0xbb4b1fe0	-0.003099434
18	0x3b8bab6e	0.0042623794
19	0xbb968963	-0.0045940145
20	0x3b3d6df7	0.0028904655
21	0x3b8d3993	0.004309842
22	0xb8607be0	-5.352113e-05
23	0x3a7382a5	0.0009289182
24	0x3b3f6c96	0.002920901
25	0xba59c5fd	-0.00083073956
26	0xba59b9be	-0.0008305571
27	0x3a738ee0	0.00092910044
28	0xba1a30d1	-0.0005881908
29	0x3b2ba67d	0.0026191764
30	0xbb77657f	-0.0037749705
31	0xbb3730c9	-0.0027952662
32	0xbab509e7	-0.0013812155
33	0xbb1b78c4	-0.0023723105
34	0xbb1c23e5	-0.0023825106
35	0x3ba7e6c1	0.0051239436
36	0x3bad794c	0.0052940007
37	0xba3a886e	-0.00071156665
38	0xbb4f2e0a	-0.0031613135
39	0x3b028033	0.0019912838
40	0x3b944ccf	0.004525758
41	0x3b855fec	0.0040702727
42	0x3b8849f3	0.004159206
43	0xbb31d225	-0.0027133313
44	0xbb4a4d16	-0.00308687
45	0x3b27df70	0.0025615357
46	0x3b55d34c	0.0032627163
47	0xbb929c4c	-0.0044741984
48	0x3bab912a	0.0052358108
49	0xbb09d3d8	-0.002103081
50	0x3b2e21c4	0.002657042
51	0xbb2b9348	-0.0026180316
52	0x3b559110	0.0032587685
53	0x3b81d02f	0.003961585
54	0x3b483432	0.003054869
55	0xbad78e1e	-0.0016445552
56	0x3b9ece69	0.0048463834
57	0x3b812f18	0.0039423816
58	0x3b184462	0.0023234119
59	0x3acc8755	0.0015604297
60	0xbb3f32df	-0.0029174609
61	0x39f58bc8	0.00046834187
62	0xbb5332b1	-0.003222626
63	0xbb80c710	-0.00392998
64	0x3f803115	1.0014979
65	0x3f7f0de7	0.9963059
66	0x3f804abf	1.0022811
67	0x3f807845	1.0036703
68	0x3f80abd3	1.0052437
69	0x3f7f60b8	0.99756956
70	0x3f7f51cc	0.9973419
71	0x3f80420f	1.002016
72	0x3f80343e	1.0015943
73	0x3f80500c	1.0024428
74	0x3f8062e0	1.0030174
75	0x3f802c1f	1.0013465
76	0x3f7f2827	0.9967064
77	0x3f803dcd	1.001886
78	0x3f80365a	1.0016587
79	0x3f7fe78a	0.99962676
80	0x3f7fccd4	0.9992192
81	0x3f801d3d	1.0008923
82	0x3f8053c4	1.0025563
83	0x3f7f3292	0.9968654
84	0x3f807f6c	1.0038886
85	0x3f806a3f	1.0032424
86	0x3f804087	1.0019692
87	0x3f7fb468	0.99884653
88	0x3f7f6466	0.9976257
89	0x3f7f65fd	0.99764997
90	0x3f7fbfed	0.9990223
91	0x3f806955	1.0032145
92	0x3f7ed689	0.99546105
93	0x3f7fc216	0.99905527
94	0x3f7f4a9c	0.9972322
95	0x3f7f5c0a	0.99749815
96	0xbb3ef6f9	-0.0029138906
97	0x3a11e096	0.0005564777
98	0xbb604d48	-0.003422575
99	0x39943820	0.00028270576
100	0xbafb4b93	-0.0019172303
101	0x3b305c35	0.0026910428
102	0x3ae0c691	0.0017149021
103	0x3b067686	0.0020517423
104	0xba039ccd	-0.00050206186
105	0xbb814874	-0.0039454047
106	0x3b661c28	0.0035111997
107	0x3b827dfb	0.003982303
108	0xbac0566c	-0.0014674193
109	0xbb02f548	-0.0019982625
110	0x3b2ecb4b	0.0026671465
111	0x3b850f1a	0.004060638
112	0xbb3201d0	-0.0027161725
113	0x3a037116	0.00050141045
114	0x3b218ab7	0.002464933
115	0xbafe5cc3	-0.0019406307
116	0x3b4bedb3	0.0031117022
117	0xb99aa6f9	-0.00029497573
118	0x3b073805	0.0020632755
119	0xbb691a9d	-0.0035568841
120	0x3948f8d2	0.00019166179
121	0xbb162860	-0.002291225
122	0xbba122c6	-0.0049174754
123	0x3b77ea60	0.0037828907
124	0xb9c3d428	-0.00037351367
125	0xbb584080	-0.003299743
126	0x3b6a948c	0.0035794107
127	0x3b31fb75	0.0027157937
128	0x3b38410f	0.002811495
129	0xb9e5053b	-0.0004368218
130	0x3a3ef09d	0.0007283779
131	0x3b93c837	0.0045099515
132	0x3ba60260	0.005066201
133	0xba5ce778	-0.00084268255
134	0x3b038944	0.002007083
135	0x3b5f851e	0.0034106444
136	0x3b022265	0.0019856927
137	0x3aa59178	0.0012631854
138	0x3b154a47	0.0022779868
139	0xbadef9e0	-0.0017011724
140	0xbb85bcb2	-0.004081332
141	0x3b4ec180	0.003154844
142	0x3b82220e	0.003971345
143	0xbb2789a3	-0.0025564216
144	0x3b55b56c	0.0032609357
145	0xbb4b1fe0	-0.003099434
146	0x3b8bab6e	0.0042623794
147	0xbb968963	-0.0045940145
148	0x3b3d6df7	0.0028904655
149	0x3b8d3993	0.004309842
150	0xb8607be0	-5.352113e-05
151	0x3a7382a5	0.0009289182
152	0x3b3f6c96	0.002920901
153	0xba59c5fd	-0.00083073956
154	0xba59b9be	-0.0008305571
155	0x3a738ee0	0.00092910044
156	0xba1a30d1	-0.0005881908
157	0x3b2ba67d	0.0026191764
158	0xbb77657f	-0.0037749705
159	0xbb3730c9	-0.0027952662
160	0xbab509e7	-0.0013812155
161	0xbb1b78c4	-0.0023723105
162	0xbb1c23e5	-0.0023825106
163	0x3ba7e6c1	0.0051239436
164	0x3bad794c	0.0052940007
165	0xba3a886e	-0.00071156665
166	0xbb4f2e0a	-0.0031613135
167	0x3b028033	0.0019912838
168	0x3b944ccf	0.004525758
169	0x3b855fec	0.0040702727
170	0x3b8849f3	0.004159206
171	0xbb31d225	-0.0027133313
172	0xbb4a4d16	-0.00308687
173	0x3b27df70	0.0025615357
174	0x3b55d34c	0.0032627163
175	0xbb929c4c	-0.0044741984
176	0x3bab912a	0.0052358108
177	0xbb09d3d8	-0.002103081
178	0x3b2e21c4	0.002657042
179	0xbb2b9348	-0.0026180316
180	0x3b559110	0.0032587685
181	0x3b81d02f	0.003961585
182	0x3b483432	0.003054869
183	0xbad78e1e	-0.0016445552
184	0x3b9ece69	0.0048463834
185	0x3b812f18	0.0039423816
186	0x3b184462	0.0023234119
187	0x3acc8755	0.0015604297
188	0xbb3f32df	-0.0029174609
189	0x39f58bc8	0.00046834187
190	0xbb5332b1	-0.003222626
191	0xbb80c710	-0.00392998
192	0x3f803115	1.0014979
193	0x3f7f0de7	0.9963059
194	0x3f804abf	1.0022811
195	0x3f807845	1.0036703
196	0x3f80abd3	1.0052437
197	0x3f7f60b8	0.99756956
198	0x3f7f51cc	0.9973419
199	0x3f80420f	1.002016
200	0x3f80343e	1.0015943
201	0x3f80500c	1.0024428
202	0x3f8062e0	1.0030174
203	0x3f802c1f	1.0013465
204	0x3f7f2827	0.9967064
205	0x3f803dcd	1.001886
206	0x3f80365a	1.0016587
207	0x3f7fe78a	0.99962676
208	0x3f7fccd4	0.9992192
209	0x3f801d3d	1.0008923
210	0x3f8053c4	1.0025563
211	0x3f7f3292	0.9968654
212	0x3f807f6c	1.0038886
213	0x3f806a3f	1.0032424
214	0x3f804087	1.0019692
215	0x3f7fb468	0.99884653
216	0x3f7f6466	0.9976257
217	0x3f7f65fd	0.99764997
218	0x3f7fbfed	0.9990223
219	0x3f806955	1.0032145
220	0x3f7ed689	0.99546105
221	0x3f7fc216	0.99905527
222	0x3f7f4a9c	0.9972322
223	0x3f7f5c0a	0.99749815
224	0xbb3ef6f9	-0.0029138906
225	0x3a11e096	0.0005564777
226	0xbb604d48	-0.003422575
227	0x39943820	0.00028270576
228	0xbafb4b93	-0.0019172303
229	0x3b305c35	0.0026910428
230	0x3ae0c691	0.0017149021
231	0x3b067686	0.0020517423
232	0xba039ccd	-0.00050206186
233	0xbb814874	-0.0039454047
234	0x3b661c28	0.0035111997
235	0x3b827dfb	0.003982303
236	0xbac0566c	-0.0014674193
237	0xbb02f548	-0.0019982625
238	0x3b2ecb4b	0.0026671465
239	0x3b850f1a	0.004060638
240	0xbb3201d0	-0.0027161725
241	0x3a037116	0.00050141045
242	0x3b218ab7	0.002464933
243	0xbafe5cc3	-0.0019406307
244	0x3b4bedb3	0.0031117022
245	0xb99aa6f9	-0.00029497573
246	0x3b073805	0.0020632755
247	0xbb691a9d	-0.0035568841
248	0x3948f8d2	0.00019166179
249	0xbb162860	-0.002291225
250	0xbba122c6	-0.0049174754
251	0x3b77ea60	0.0037828907
252	0xb9c3d428	-0.00037351367
253	0xbb584080	-0.003299743
254	0x3b6a948c	0.0035794107
255	0x3b31fb75	0.0027157937
