results/FullyAbstract/bachelor/bachelor-10999966.onnx (onnx, 76519 bytes, 9 tensors)

network_body._body_endoder.seq_layers.0.weight f4 [64, 7]
000000 b2 91 31 be 5c 97 01 3f e5 ba 7b 3e 53 30 7e be
       -0.17340735 0.5062158 0.24583013 -0.24823122
000010 13 aa fa 3d 5e a2 a2 bb 52 fe 65 be aa a0 b7 be
       0.1223947 -0.0049632033 -0.22460297 -0.35864764
000020 44 df 1b 3e cb 72 e8 3d 08 51 34 bd 96 35 9b bd
       0.15221888 0.1135002 -0.04402259 -0.0757858
000030 15 be 5b 3d 09 64 0d bf 0e 4c 70 bd 1c 42 0a 3e
       0.053648073 -0.55230767 -0.05866628 0.13501781
000040 49 64 4b be d6 8f e3 3e 64 37 f6 3e bb 00 9c 3e
       -0.19862475 0.44445676 0.48089135 0.30469307
000050 89 54 97 3c ce bf 13 3f 55 d8 e8 bd 52 c6 0e 3e
       0.018472927 0.57714546 -0.11369387 0.1394284
000060 37 e7 72 be 43 98 1c 3f 04 bc 6d be 47 8f 92 3e
       -0.23721014 0.6116983 -0.23216254 0.28624937
000070 bc c7 a1 bd a2 2a 38 3e 26 2e 39 3e 66 67 2e bc
       -0.078994244 0.17985013 0.1808401 -0.010644769
000080 73 c5 a7 bd 1b 20 41 bc 8d 13 78 be f6 6b 95 be
       -0.08191957 -0.01178744 -0.24226208 -0.2918393
000090 d9 c0 11 bd ec 7f d1 be 4b 4e c6 3e f8 fa 0a be
       -0.035584304 -0.4091791 0.38731608 -0.135723
0000a0 9a 42 a7 3e 25 94 a5 3e 3c 53 4e 3e 8c 64 d6 3e
       0.32668 0.32339588 0.20148939 0.41873586
0000b0 54 cd 07 be 48 d5 b6 bd 97 9c 14 be 2d 7e 20 3f
       -0.1326192 -0.08927399 -0.1451286 0.6269253
0000c0 9b 44 8b 3d b7 c7 8d 3d bd 7f 45 be cb 08 93 bd
       0.06800195 0.06922858 -0.1928701 -0.071794115
0000d0 28 7e 56 3e 21 72 16 bf 5f 77 34 bd 41 d5 85 3e
       0.20946562 -0.58767897 -0.044059154 0.26139262
0000e0 66 62 e0 3e b1 e8 b2 3d 64 78 90 3e 94 c3 37 be
       0.43825072 0.087357886 0.2821685 -0.17945701
0000f0 8d 47 55 3e ff c4 ec bc 9c 39 43 be 23 85 a5 be
       0.20828076 -0.028902529 -0.19064945 -0.32328138
000100 d1 d2 81 3e 88 5e a8 3e 07 80 36 3d 0c 34 c7 be
       0.25356153 0.32884622 0.04455569 -0.38906896
000110 11 32 eb be 3f 3f ce 3d a9 36 78 3f dd cc 42 3e
       -0.45936635 0.10070657 0.96958405 0.19023462
000120 c6 2d f8 be 0e a8 b8 bd 33 a0 14 bf c6 8b 13 bf
       -0.48472422 -0.09016429 -0.58056945 -0.5763515
000130 f0 70 b0 3e 99 55 c5 be 89 1f 29 bf dc 11 d2 3e
       0.34461164 -0.38541868 -0.66063744 0.4102925
000140 c9 7c 78 bb ba b8 27 be f6 aa f2 be 90 b6 12 3e
       -0.0037916175 -0.16379061 -0.47396058 0.14327455
000150 78 d1 88 be 7a 78 15 3f 58 fb 2e bf 13 6e 03 bf
       -0.26722312 0.5838696 -0.6835227 -0.51339835
000160 06 31 8c be c8 64 10 bf 8a 6d cc be e2 d1 83 bf
       -0.27381152 -0.5640378 -0.39927322 -1.0298426
000170 c1 82 0a 3e 9a 9c 82 3e 59 2e e0 3e fe d3 93 3d
       0.13526441 0.25510103 0.4378536 0.07218169
000180 4f 0a 8b 3e 98 70 fa bd 20 24 dc 3e fd 96 3e 3f
       0.27156302 -0.12228507 0.4299631 0.7444914
000190 e8 68 e7 be cc dd 9b be f3 75 54 be 24 f2 6d be
       -0.45197225 -0.30442655 -0.20748119 -0.232369
0001a0 ab d4 ef be 48 bf 86 3e 3d c4 37 3f 89 4d 13 3f
       -0.4684194 0.2631781 0.7178381 0.57540184
0001b0 07 16 8a be 4c 31 8f be 33 87 62 bc a9 a8 14 bf
       -0.2696993 -0.27967298 -0.013826179 -0.58069855
0001c0 65 f1 92 be c5 18 34 be cb 6b 02 bf f9 31 19 3e
       -0.28699794 -0.17587574 -0.5094573 0.1496047
0001d0 fd 97 c0 3e d8 1d e4 be 4b 3c 11 bf bb 16 07 3f
       0.37615958 -0.4455402 -0.56732625 0.5276906
0001e0 27 77 87 be 50 d5 03 3f 96 c0 a4 3e d4 1b a9 3e
       -0.26458094 0.51497364 0.3217818 0.33029044
0001f0 c4 85 9d 3d d7 4f 89 3d 60 f1 d4 be f2 6f 70 be
       0.076915294 0.06704681 -0.41590405 -0.23480204
000200 56 53 71 3e 43 e8 b7 bd 55 cd a2 bc 86 7a 28 bd
       0.23566946 -0.08979847 -0.0198733 -0.041132472
000210 c0 de df 3e ab d3 ef 3e cb 11 09 bf 71 3e 73 3e
       0.43724632 0.46841177 -0.53542775 0.23754288
000220 ec a3 31 3f 5e 2c 60 bd 06 37 73 be 20 3c c2 3e
       0.6939075 -0.05472981 -0.23751459 0.37936497
000230 8e 8f a8 3e 59 55 cc be 50 ea 1c be 07 1b 94 3e
       0.32922024 -0.39908865 -0.15323758 0.2892687
000240 6b ec 14 3e f9 84 c5 3e 55 54 18 3e 1d 89 05 bf
       0.14543311 0.38578013 0.1487592 -0.52162343
000250 2b 55 a0 3e 2c 25 0b be 21 93 4a be e3 fd 4e be
       0.31314978 -0.13588399 -0.19782688 -0.20214038
000260 fa 56 bd 3d 2f 5f 9f be 3c c8 d2 be 6c 83 4e be
       0.09245105 -0.31127307 -0.41168392 -0.20167321
000270 f0 65 00 3f 8c 1e d0 3e 97 5d 41 be b5 57 10 3e
       0.50155544 0.40648305 -0.18883358 0.14095958
000280 08 5f 8d be 6b ee e7 bd 70 f2 03 bf 4e 66 16 bf
       -0.27611566 -0.113247715 -0.51541805 -0.58749855
000290 a9 bc de bc 6f bc 09 bf e7 90 b7 3e 19 49 85 be
       -0.02718957 -0.5380315 0.3585274 -0.26032332
0002a0 6b f4 d3 3e f1 fa 03 3d 6b c5 79 3b 23 28 d8 3e
       0.41397414 0.03222174 0.0038112055 0.42218122
0002b0 25 56 95 3e 63 69 b3 3d 5f 71 c7 3d 9b c6 3b bf
       0.29167286 0.08760335 0.09738421 -0.7334992
0002c0 a0 b8 1d bd 60 4d d6 3e 6c 54 14 3f ed b6 74 3e
       -0.03850615 0.41855907 0.5794132 0.23897906
0002d0 4a f1 0c be 01 41 82 be 29 ba 7c bf 0b 3c 67 3e
       -0.1376392 -0.2544022 -0.9872156 0.22581498
0002e0 d4 70 be bd 7e 56 c4 be 33 aa fe 3d 7a 99 19 3d
       -0.09298864 -0.38347238 0.12434807 0.037499882
0002f0 2d dd 73 bf 54 b5 2d 3f d0 a0 4a 3e ec 28 f8 be
       -0.9525936 0.6785481 0.19787908 -0.4846872
000300 8c 26 d2 3c 1e 5f 52 be 7e 55 96 ba e7 9b c9 3e
       0.025653146 -0.20544097 -0.001146957 0.39376757
000310 a7 24 c2 3e d8 b3 55 3d e1 4e 91 3e ac 95 2d 3f
       0.3791859 0.052173465 0.28380492 0.67806506
000320 e1 53 e4 3d 44 34 bd 3e 2c c7 a3 bd 81 55 0c 3f
       0.11148811 0.36953938 -0.079969734 0.5481797
000330 30 53 27 3c 3e 93 b9 bc 65 96 d4 be f1 ca b0 3d
       0.010212705 -0.022653218 -0.41520992 0.08632458
000340 8b fc df 3c 8b ea 26 be b3 e0 ca 3e 21 ff 0c 3f
       0.027342102 -0.16300409 0.39624557 0.55076796
000350 93 b0 f8 bd b2 a9 a8 be 31 13 ef 3a da 5a 03 3e
       -0.12143054 -0.32941967 0.0018239972 0.12827626
000360 d3 9b 3c be 5d 69 a7 be a3 73 54 be 0a 83 2a 3f
       -0.18418817 -0.32697573 -0.20747237 0.666062
000370 51 9d 1e 3d 9f 07 42 3e 14 aa c3 3d 19 6f df bd
       0.038724247 0.1894822 0.09553924 -0.10909862
000380 2f e7 3b 3f 05 dc 65 be 6b 96 4b bf 69 4d 04 3f
       0.73399633 -0.22447212 -0.79526395 0.5168062
000390 35 1f 02 3e 25 ce 06 3e dd f5 99 3e 05 03 b4 be
       0.12707217 0.13164575 0.3007039 -0.35158554
0003a0 4a f3 84 be 06 1c 7d 3e 3b c0 f1 bd 3d 5e 48 bd
       -0.25966865 0.24717721 -0.11804243 -0.048917998
0003b0 4b ad 84 3e d5 7c 20 3f 6d d0 03 bd 90 f1 cd be
       0.25913462 0.6269048 -0.032181192 -0.4022336
0003c0 ff 32 22 bf 06 88 db 3d 3d 61 d8 3d 4a bd 80 3e
       -0.63359064 0.10719304 0.10565422 0.25144416
0003d0 87 97 3f 3d b6 da 38 3e 99 0a a3 be cc 5c d9 be
       0.046775367 0.18052182 -0.31844023 -0.4245361
0003e0 82 0e 53 be f2 93 3f bf 4d e3 47 bd 75 38 ca be
       -0.20611003 -0.7483512 -0.048800755 -0.39496198
0003f0 4f 25 26 bf f6 59 7e 3e eb 88 12 3f 48 b3 0f bf
       -0.6490068 0.24839005 0.5724017 -0.56132936

network_body._body_endoder.seq_layers.0.bias f4 [64]
000000 53 48 62 3e 57 e3 ae bd e1 9f 86 bc 1a d9 ca bd
       0.22097902 -0.085394554 -0.016433658 -0.0990469
000010 b4 9f 80 be 93 05 20 3d d3 2c a0 3d ae 07 0f 3d
       -0.25121844 0.039067816 0.078210495 0.034919433
000020 9b 3c ab bb 84 6d 35 bd 93 97 e4 3d 97 ab 69 bd
       -0.0052257306 -0.044293895 0.11161723 -0.057048406
000030 be 0d 11 3d 3d 47 db bd 15 d6 3f 3e b4 8e 4a 3d
       0.035413496 -0.10706947 0.1873401 0.0494525
000040 9f a5 82 bd 9f 53 17 3d be 4b 92 bc 16 ee 84 3e
       -0.06379246 0.03694498 -0.017858382 0.25962895
000050 df c5 8c bd 4c a2 10 be 0f b8 81 3e 6a 88 6d bc
       -0.068736784 -0.14124411 0.25335738 -0.014497856
000060 7d 3f 1d be 70 9f 85 bd 7e 2b 91 be 77 59 dd 3d
       -0.1535625 -0.06524551 -0.28353494 0.1080808
000070 d2 2c 07 be 19 99 40 bd 88 3a e5 3d fd f2 5e 3e
       -0.13200691 -0.047021005 0.111928046 0.2177238
000080 a6 32 73 3e 5e dd 80 3b f2 91 de bd 1a 1c 78 3b
       0.2374979 0.003932639 -0.108676806 0.0037858547
000090 18 f1 e9 3d 97 99 d4 bd 2b 47 f1 bd 15 52 94 bd
       0.11422938 -0.103808574 -0.11781152 -0.072422184
0000a0 cf 64 14 3e 0d be 31 be 19 c6 84 3d 3f 30 12 3e
       0.1449158 -0.17357655 0.06483097 0.14276217
0000b0 29 6a 86 bd 5c 65 0c 3d 01 e1 36 bd 63 b3 8e bd
       -0.06563217 0.03427635 -0.044648174 -0.06967809
0000c0 ee 30 b7 3c 81 bf ad bd a8 6e 58 bd 50 17 1b bc
       0.022362199 -0.08483792 -0.052839905 -0.009466007
0000d0 e3 1e 2b 3e 66 4e 70 bd b4 f6 18 bd bb 15 90 3c
       0.16711001 -0.058668517 -0.03734465 0.017588487
0000e0 c8 36 24 bb bc 86 2a 3d 48 d5 43 bc eb 2e e8 bd
       -0.0025057066 0.0416324 -0.011952706 -0.11337074
0000f0 da f4 1f 3d d6 df 90 3c c8 00 8b 3c 33 66 e3 bd
       0.039051868 0.017684858 0.016968146 -0.11103477

network_body._body_endoder.seq_layers.2.weight f4 [64, 64]
000000 a6 f0 78 be eb 1c ff 3d dc 35 30 3e 73 43 82 3d
       -0.2431055 0.124566875 0.17208046 0.06360521
000010 15 57 09 3e f5 7d 83 3d f4 da 7a bd 06 da 4b 3e
       0.13412125 0.06420509 -0.061243966 0.19907388
000020 4b 20 12 bd 70 83 2b bb be 18 61 3d 42 d3 0c bd
       -0.03567533 -0.0026170872 0.054955237 -0.03438116
000030 05 10 e0 bd 2d fc 3e 3e e8 77 dd 3c a9 f1 ee bd
       -0.109405555 0.18650885 0.027034715 -0.11667187
000040 32 08 79 3e 1c 50 81 3e 6d 19 92 3d e8 fb 02 3e
       0.24319533 0.2525643 0.07133756 0.12791407
000050 5c 0b 3a 3e 9c ba 7b bd a9 a2 77 bd 5e cd 1d 3e
       0.18168396 -0.06145726 -0.06045786 0.15410373
000060 a6 a2 1e 3c 50 04 54 3e e3 d5 a2 bb 91 53 b3 3e
       0.009682333 0.2070477 -0.004969345 0.35024694
000070 ae a7 66 3e d4 45 23 3e 29 d6 af bb d1 82 75 be
       0.22524902 0.15944606 -0.005366106 -0.23975684
000080 6c 3c 96 3e 78 02 0d 3e 9d d6 e1 3d ea 17 ad 3d
       0.29342973 0.13770473 0.11027262 0.08451827
000090 7f 0f 6b be 61 e2 17 bd 27 37 12 3e a3 09 70 3d
       -0.2295513 -0.037081126 0.14278851 0.05860294
0000a0 2a 69 64 be f1 82 ab 3c 30 57 8a be 6f 87 f8 bc
       -0.22305742 0.020936461 -0.27019644 -0.030338017
0000b0 9e 39 c1 bb af e9 29 3e a0 ed b6 3e ba 7f 1d 3d
       -0.005896761 0.1659305 0.35728168 0.038451888
0000c0 e6 7d 0a 3e c3 b8 40 3e 78 5f ff 3a ec be 24 3e
       0.13524589 0.18820481 0.0019483408 0.16088456
0000d0 a7 66 fd 3d ef 6d fe bb d6 76 64 bd 5f a6 df be
       0.12373095 -0.00776457 -0.055777393 -0.4368162
0000e0 7a 9f 45 bd 12 02 c7 3d bf a4 19 be d2 78 9b be
       -0.04824779 0.09717192 -0.15004252 -0.30365616
0000f0 a5 ef 87 bd ea ca c2 bc 02 b0 a5 bd 8d 4a 51 3e
       -0.066375054 -0.023778398 -0.080902115 0.20438595
000100 1d da f5 bd b2 32 87 3c 5a 8d 4f be 5f 45 0d be
       -0.120044924 0.016503666 -0.20268765 -0.13795994
000110 70 64 29 3e 3d a6 07 3c ca 46 be bd 49 14 96 bd
       0.1654222 0.00827938 -0.09290846 -0.07328088
000120 84 00 4e 3d 9a 58 b5 bd 25 e0 fd bd 69 1a 83 3e
       0.05029346 -0.0885479 -0.12396268 0.25606087
000130 12 d9 3c 3e dd 76 1f 3e 8b 48 58 be 1a ee 5e be
       0.18442181 0.15572686 -0.21121423 -0.21770516
000140 e0 b8 3c 3d 9d 25 d7 bd 2c 24 18 3e 89 2d 33 3b
       0.046074748 -0.10505221 0.14857548 0.0027340373
000150 5a 9c 2e 3e fc de 32 3e 75 f6 c7 3d 6f ed 7a be
       0.17051831 0.17467874 0.09763805 -0.24504636
000160 67 be 3b bd 29 97 75 3e 40 b1 b3 3e b4 e2 e2 bd
       -0.04583588 0.23983444 0.3509617 -0.110783964
000170 89 0b 5a be 5b d1 5f 3d 04 66 2e be 9d fe 11 3e
       -0.21293463 0.054643016 -0.17031103 0.14257284
000180 51 db de bd 2f 2c 36 3e c5 e7 9e 3d 53 1b b2 3d
       -0.10881675 0.17790292 0.0775905 0.08696618
000190 b7 18 cf 3e 1c 41 e0 3d 23 6d 3b 3e c2 b7 0a 3d
       0.40448543 0.10949919 0.18303351 0.03386665
0001a0 66 b1 22 3d 1f a5 03 3e dc cf 3c 3e d4 f9 1f bd
       0.03971996 0.12855957 0.18438667 -0.039056614
0001b0 58 ce 8a bd b2 06 cd bc 77 35 6a bd f4 d8 93 3d
       -0.06777638 -0.025027607 -0.057179894 0.07219115
0001c0 71 db af 3c 56 00 17 bd f3 3b 1d be c8 62 0a bd
       0.021466943 -0.036865555 -0.153549 -0.03378561
0001d0 60 91 cd bd fd 85 f8 bd 14 bf 16 bb 88 7a 1b 3d
       -0.10037494 -0.12134931 -0.0023002075 0.03795865
0001e0 b0 bc 93 3d c1 25 8b be 3b 63 5f bc 77 74 90 3e
       0.07213724 -0.2717724 -0.013634498 0.28213856
0001f0 c2 60 34 be 89 ae 32 be 87 9d b0 3c f0 24 90 3e
       -0.17615035 -0.17449392 0.02155949 0.2815318
000200 23 2b 4c 3e 22 2d c4 bc 1e 01 10 bd 73 7b 16 3e
       0.1993833 -0.023947302 -0.035157315 0.1469553
000210 de 1f d1 bc 1c d6 f9 3c 99 dc 82 3d 5b 9e ff 3d
       -0.02552789 0.030497603 0.06389732 0.12481376
000220 58 fd 33 bd 5f 7e 68 be 8f 05 07 be 5d 6c 33 3e
       -0.04394278 -0.22704457 -0.13185714 0.17521806
000230 fa 4e d7 3b 65 ce 29 be a0 14 aa bc 2c 47 cf bd
       0.006570694 -0.1658264 -0.020761788 -0.10120997
000240 b8 ee 2e 3d 46 0e b1 bc db d3 7f be 53 99 48 3d
       0.04270813 -0.021613251 -0.2498316 0.048974346
000250 8d 13 ac bd 60 72 46 bd 96 b7 6f 3d 25 7a 43 3e
       -0.084021665 -0.04844892 0.05852469 0.19089563
000260 7c 36 ad bc 50 73 90 3c 5b c2 31 3c 79 eb 1c be
       -0.021144144 0.01763311 0.010849561 -0.153242
000270 9e 10 03 3e 87 c1 e1 bd b8 79 4a 3d fd bd 18 be
       0.12799308 -0.110232405 0.049432486 -0.14916225
000280 f4 e9 c1 3e a4 f8 8a be 6e a0 1b 3e c0 86 49 3a
       0.37873805 -0.27142823 0.15197918 0.0007687621
000290 66 34 fd bb 93 56 dc 3d 8e e8 b8 bc 30 47 72 be
       -0.0077271936 0.107587 -0.022571828 -0.23659968
0002a0 e7 c4 29 be ee 94 ca 3c 98 61 dd bc 7a ce 90 bc
       -0.16579019 0.024729218 -0.027024075 -0.01767658
0002b0 a6 c5 93 3d 63 70 07 3e fa 68 c1 3e d0 ce 72 3d
       0.07215433 0.13226466 0.37775403 0.059279263
0002c0 12 c5 55 3d 86 07 f0 3c ec 8e 8d 3e db e0 6a 3e
       0.052189894 0.029300462 0.27648103 0.22937338
0002d0 e1 c9 8d 3e 26 9b 9c be 5a 6f 30 bd a0 84 a9 3d
       0.27693084 -0.3058712 -0.043074943 0.08277249
0002e0 c5 7f fc 3c 6b 57 cf 3e b3 9d cb bd 4f cd 0a 3e
       0.030822644 0.40496382 -0.09942188 0.13554882
0002f0 f3 d9 2c 3d 1b 90 ab bd 14 f6 70 3d a9 3b 7f 3d
       0.04220004 -0.08377095 0.05882843 0.062312756
000300 e3 2c 81 3e a6 e5 27 3e fd 62 12 3e b9 00 22 bc
       0.25229558 0.16396198 0.14295574 -0.009887868
000310 78 5f c6 3d 19 a1 36 3d 8a de 5c 3e b7 44 75 be
       0.09686178 0.04458723 0.21569267 -0.23951994
000320 81 8e 23 3d cb ce 52 be 28 95 e9 3e 93 ef b7 3d
       0.039930824 -0.20586698 0.4562161 0.08981242
000330 e0 6e 79 3e 1b 26 19 3e da 54 71 3e 02 de dc 3d
       0.24358702 0.14955942 0.23567525 0.10784532
000340 c5 0f 69 3e 51 ae c6 bb 11 d2 10 bc 3d b5 57 be
       0.22759922 -0.0060632606 -0.008839146 -0.2106523
000350 19 9f ab bd 90 84 7f 3d 29 7a aa be 58 fe 05 3d
       -0.08379955 0.06238228 -0.33296326 0.032713264
000360 6e 81 c6 3d f3 f8 ef 3c 59 a3 85 bc 4a 98 5b 3e
       0.096926555 0.029293513 -0.016313242 0.21444812
000370 83 90 f5 bd 0c 35 03 3e 64 b0 e3 3d 55 b5 04 be
       -0.11990454 0.12813205 0.11117628 -0.12959798
000380 2c c4 a5 bd 89 e1 d0 3d 57 9c 06 b9 c2 05 a9 3e
       -0.080940574 0.101992674 -0.00012837477 0.33012205
000390 39 d5 f2 bd f5 f4 f1 bd 6b 1a 72 bd c3 c5 36 3d
       -0.11857075 -0.118143 -0.059107225 0.044622194
0003a0 c2 63 bd 3d c2 0f 71 3e 62 72 81 3e d0 4e ff 3d
       0.09247543 0.23541167 0.2528258 0.12466204
0003b0 6b be 68 3d 69 1a a6 be 14 ef 96 be 8c 5d 32 3b
       0.05682222 -0.32442024 -0.29479277 0.0027216403
0003c0 08 5e 03 be 11 62 34 3e 1a 3e 36 be 9f 9c 7c 3d
       -0.12828839 0.17615534 -0.17797127 0.061672803
0003d0 b4 ef 8b bd a6 5e ed bd 9e 10 a7 3e c8 76 0e bb
       -0.06832829 -0.115903184 0.32629865 -0.002173828
0003e0 29 9a 17 be 4b 73 2a be e3 aa 80 3e d5 db 08 3e
       -0.14804901 -0.16645543 0.25130376 0.1336511
0003f0 da 28 af 3d 65 7e 90 3e ad 39 39 3e 08 ac 5d 3d
       0.08552714 0.2822143 0.18088408 0.05411914

network_body._body_endoder.seq_layers.2.bias f4 [64]
000000 f1 69 23 be c5 4e 99 bd 63 0c c7 3b b3 29 1f 3e
       -0.15958382 -0.07485727 0.0060744747 0.1554325
000010 d9 b3 c4 3c 43 df 5e 3e 98 74 1d 3e c2 82 a5 3d
       0.02401154 0.21764855 0.15376508 0.08081581
000020 2d a8 17 3d 2a 6d 63 bc ae 68 91 3a 1c cb ba bc
       0.03702562 -0.013881007 0.0011093819 -0.022801928
000030 58 ab 74 bd b7 36 13 be ed a5 ae bd d5 75 aa bd
       -0.05973372 -0.14376341 -0.085277416 -0.08323256
000040 65 88 5a 3d b3 a5 11 3e ec 6f 67 3b 47 3f 9a 3d
       0.053352732 0.14223365 0.0035314513 0.075316004
000050 78 08 e9 3d f9 37 00 bd bf 8a 5d 3d c2 2f 36 3d
       0.113785684 -0.03130338 0.054087397 0.04447914
000060 fe c3 51 3d 72 30 db 3d 05 4e b8 bd 16 8a 61 be
       0.051212303 0.107025996 -0.08999256 -0.22025332
000070 5d 11 c7 bc d0 af 22 be e3 f1 c8 bb a2 e3 9b 3d
       -0.024300272 -0.1588738 -0.006132351 0.07611777
000080 07 0b af bd 11 29 a9 bc 68 df 65 3d 71 56 aa 3d
       -0.08547025 -0.020649465 0.05612126 0.08317269
000090 66 8e 2e bd 67 13 e4 3d 59 a2 28 3d e5 9b cf 3d
       -0.04261627 0.11136513 0.04117045 0.101371564
0000a0 31 8a bc 3d 92 bf a5 bd cd 95 94 3d 98 47 a9 3d
       0.092060454 -0.0809318 0.07255135 0.082656085
0000b0 79 13 36 3d f7 48 c9 3d de c7 2b 3c 04 91 d3 3d
       0.044452164 0.0982837 0.010484664 0.10330394
0000c0 76 35 fa bd d3 70 48 3e a2 8b 91 3c 68 78 ba 3c
       -0.12217228 0.19574289 0.017766777 0.022762492
0000d0 49 fd 8a 3d ae 66 9c 3c ac 94 58 3e 4d b5 a9 3d
       0.067865916 0.01909193 0.21150464 0.082865335
0000e0 43 8f 27 3d cd e4 ff 3d 7b b2 54 3d d0 04 ae bc
       0.04090811 0.12494812 0.051928025 -0.02124253
0000f0 05 3d bc bd c2 71 91 3d ba 10 76 3d d9 53 5f 3e
       -0.09191326 0.07101776 0.060074545 0.21809329

action_model._discrete_distribution.branches.0.weight f4 [4, 32]
000000 ce 1e f8 bf ac e6 0c bf 9b e7 24 3f b2 f2 5b 3e
       -1.9384401 -0.5503948 0.644159 0.214793
000010 ca f9 d9 bc 47 ab 05 3f 18 8f 98 3e a9 c9 82 3e
       -0.026608367 0.52214473 0.29796672 0.2554448
000020 b7 e5 87 be 25 f6 7e 3d df 19 69 3f e4 e6 6f 3e
       -0.26542446 0.06224646 0.910551 0.23427922
000030 51 79 09 bf 15 e5 cb bf ec 0a fe bc 8d 2a be 3e
       -0.5370074 -1.5929285 -0.031011067 0.3714184
000040 c9 67 b4 3e 56 5f e6 3e 2c 21 48 3f 9f cd fc bd
       0.35235432 0.4499461 0.78175616 -0.123439066
000050 1b af a4 bf c8 e1 51 bf 52 11 14 be 42 4d 9f 3e
       -1.2865938 -0.8198514 -0.14459732 0.3111363
000060 b6 8f 54 be 4f 20 17 bf 81 8c 01 bf 96 b7 02 3e
       -0.20757946 -0.59033674 -0.50605017 0.12765345
000070 b0 03 a7 3d 9f 0e 4a 3f 7f 99 30 3f ae d1 2f bd
       0.08155 0.7892856 0.68984216 -0.042924576
000080 b4 6f 23 3f 74 0c a0 bd ca d0 3a 3e 8d 33 94 3c
       0.6384232 -0.07814875 0.18243709 0.018090988
000090 17 4d 07 be b9 99 01 be 40 02 d5 3e 61 36 f3 be
       -0.13213001 -0.12656297 0.4160328 -0.47502425
0000a0 28 a2 1d 3f 19 10 eb 3d e9 db 0d bf 9a d8 cc be
       0.61575556 0.1147768 -0.5541368 -0.40009004
0000b0 e6 67 1f 3e 7b 62 8c 3e 1a 4c 4c be 89 61 06 bd
       0.15566978 0.27418885 -0.19950905 -0.03280786
0000c0 67 da 47 3e fb 4f 86 be 1f 87 28 3e 29 f3 03 be
       0.19516908 -0.26232895 0.16457795 -0.12885727
0000d0 7e e5 31 3f c7 5d 05 3f dd 1a df bc b7 c8 95 be
       0.694908 0.5209622 -0.02723449 -0.29254696
0000e0 94 8a 28 bc 45 50 31 3d 71 1e 06 3f cb 8c 32 3e
       -0.010286946 0.04328944 0.523902 0.17436521
0000f0 df 9d 18 3c 2d 55 d2 be 70 e4 2d be 9d 45 96 3e
       0.009314983 -0.4108061 -0.16981673 0.29349986
000100 47 63 2d 3f e5 6e 38 3e 73 95 eb be 9d 93 49 be
       0.6772961 0.18011053 -0.46012458 -0.19685216
000110 51 e9 ec 3e 88 53 8d be c6 5a 2e bf fd 4c 25 3e
       0.46271756 -0.27602792 -0.6810726 0.1614265
000120 6c 8a 0d be 7b df 50 be c6 6d 58 be cc 02 c5 be
       -0.13822335 -0.20397751 -0.21135625 -0.38478696
000130 4c 9f c8 3e 16 e8 83 3f b3 73 2b bd 51 52 4f 3e
       0.39184034 1.0305202 -0.041858386 0.20246245
000140 4a 09 80 be 4a 87 e5 bd 31 c6 17 bf 0b 46 dd bd
       -0.25007087 -0.11207445 -0.5928679 -0.10804375
000150 5d c4 e7 3e f0 35 57 be 87 54 9d bd 4e bf f4 3e
       0.45267 -0.2101667 -0.07682138 0.47802204
000160 d8 d5 a1 3e b4 25 3b be 06 45 87 be 11 af 25 bf
       0.31608462 -0.18276101 -0.26419848 -0.64720255
000170 ff d5 01 bd 59 46 a4 3b 2c 61 95 bd 19 9d 53 3d
       -0.031698223 0.005013269 -0.07293925 0.051663492
000180 34 49 87 3f 3c 9f 8d 3f 21 bb 32 bf cd 8e 0f be
       1.0569215 1.106422 -0.69816786 -0.14019318
000190 cc 0d 37 bf ee f7 9b be b6 b9 76 be 53 bc 41 bd
       -0.7150543 -0.30462593 -0.2409428 -0.04729874
0001a0 c4 af 14 be c0 21 b9 3d 66 fa c4 be 4a fc e1 3f
       -0.14520174 0.090396404 -0.3847229 1.7655118
0001b0 06 45 80 3e c3 e8 34 3f d8 19 f8 3e 43 ad a9 bf
       0.2505266 0.70667666 0.48457217 -1.3256
0001c0 c0 2d 29 bf b3 43 26 be 0b e4 9e bf 61 50 7d 3f
       -0.66085434 -0.16236763 -1.2413343 0.98950773
0001d0 ad 01 ee 3e 52 99 31 3f c9 ca f8 3e 75 3c bc bf
       0.46485654 0.69374573 0.48592213 -1.470595
0001e0 a9 ab 8e bd 48 2e 78 3f 1c 83 66 3e e3 8a 56 3f
       -0.06966335 0.9694562 0.22510952 0.83805674
0001f0 e5 57 0b be 92 39 30 bf 7b d4 7f bf 4f 62 10 bf
       -0.13607748 -0.68837845 -0.99933594 -0.56400007

action_model._discrete_distribution.branches.0.bias f4 [4]
000000 db 53 0e 40 19 8b 95 bf 85 c1 8a bd d3 09 e8 bf
       2.2238681 -1.1683074 -0.06775192 -1.8127998

onnx::LSTM_98 f4 [1, 128, 64]
000000 2c 32 b0 bb ec ca 4b 3e 30 ff 56 3e f3 c6 18 3b
       -0.0053770747 0.19901627 0.20995784 0.0023311942
000010 e0 30 14 bd 19 7d 84 be 4b d7 4d 3e 1f b6 8c be
       -0.036179423 -0.25876692 0.20101659 -0.27482697
000020 d3 06 10 be f5 b5 64 3d 8b 5f 63 bd 3b a6 e2 3d
       -0.14065103 0.05583759 -0.05551104 0.11066862
000030 a2 2e 54 bc 48 00 07 3e 6d 0a e9 bc 27 52 97 3e
       -0.012950571 0.13183701 -0.028447354 0.29554865
000040 45 ec 09 3e 1a e8 03 bd e9 13 8f 3d ee 24 77 bd
       0.13469036 -0.03220377 0.069862194 -0.060337953
000050 29 a0 0d bd 35 28 17 be 69 17 0b be 52 3e 9a bd
       -0.03457657 -0.14761432 -0.13583149 -0.07531418
000060 e9 8a 49 be 80 35 82 bc 73 0f ad be 16 85 db 3e
       -0.19681896 -0.015894651 -0.3380085 0.42874974
000070 00 6f 3e 3e c6 73 16 bc e7 30 de bd cb cf 88 be
       0.1859703 -0.009182876 -0.10849171 -0.26721033
000080 23 22 40 be 92 ee 93 bb 37 03 65 be 45 81 db 3e
       -0.18763022 -0.004514524 -0.22364508 0.42872062
000090 0a 0b 39 3e a5 6b 6b 3d 8f b7 79 3e 39 74 17 3b
       0.18070617 0.057475705 0.24386428 0.0023110046
0000a0 74 e1 40 3e e8 a2 15 3e a2 be 2f be ac 9d 10 be
       0.18836004 0.14612925 -0.17162564 -0.14122647
0000b0 82 a1 86 be 3e a0 64 be 45 d1 ab bb 55 c7 90 be
       -0.26295096 -0.22326753 -0.0052434527 -0.28277078
0000c0 ba 6e b4 3d 0a 01 76 3d 5e b9 1a 3e e0 3a fd bd
       0.08810182 0.060059585 0.15109774 -0.12364745
0000d0 ec 5d 3d 3e 22 db 8a 3b 02 9f 81 3d b8 11 d0 bd
       0.1849286 0.0042375484 0.063291565 -0.101596296
0000e0 22 c8 ea 3d 52 4e 94 3d 44 a4 02 bc e4 e4 6f 3e
       0.114639536 0.07241501 -0.007973734 0.23427159
0000f0 17 d5 04 3e f8 6f dc be 60 cb 14 be 65 b4 a7 bd
       0.12971912 -0.43054175 -0.14530706 -0.081887044
000100 a7 4b 19 be e9 ac 23 3e 9c 19 ca bc 52 44 df bd
       -0.14970265 0.15983929 -0.024670415 -0.10901703
000110 c7 84 cf bd 77 96 e7 3d 42 b5 7f be 50 a0 ec 3c
       -0.10132747 0.11307996 -0.24971488 0.028885037
000120 04 09 8f be 74 81 19 3d 35 1b b2 3e bb af 15 3e
       -0.27936566 0.03747697 0.34786382 0.14617817
000130 2f fb 9a 3e 64 a5 38 bb c1 69 3a be 4b f6 b5 be
       0.30269763 -0.0028174752 -0.18204404 -0.3553947
000140 60 0c e7 3e ac 66 c7 bd e6 b4 8f 3e 18 0c a0 bd
       0.4512663 -0.0973638 0.28067702 -0.07814807
000150 57 41 77 be 9e e2 86 3d 91 a4 99 3e fa 81 db bc
       -0.24146019 0.065861925 0.30008367 -0.026795376
000160 be 59 56 3e 44 47 81 3e 8f d2 74 be 2b 0a 45 3e
       0.20932671 0.25249684 -0.23908447 0.1924216
000170 4c 10 0f be 04 ce 84 bd e7 2a 44 bc 27 ee b9 3e
       -0.1397106 -0.06484607 -0.011973119 0.36314508
000180 28 56 e2 3e 7e 6a 86 3d d1 81 68 bc 29 ed ae be
       0.44206357 0.065632805 -0.014191107 -0.34165314
000190 fd 51 34 3e 62 d2 e1 3d 3a 73 20 3b 2e 26 9c 3e
       0.17609401 0.110264555 0.0024482743 0.3049788
0001a0 be 1b bd bd 1b 6f 6d 3d 9e d4 5e 3d 3a bb 37 3d
       -0.09233807 0.057967287 0.054401986 0.044856288
0001b0 c4 15 d7 3e 07 f5 8d 3e 36 39 02 3e f5 61 28 3d
       0.42008793 0.27726004 0.12717137 0.041109044
0001c0 25 ca 23 bc d7 a9 84 be a9 54 27 3e b3 8a 95 bd
       -0.0099969255 -0.25910828 0.16340889 -0.073018454
0001d0 41 56 ed 3c a1 2e 26 3c a1 cb 5e 3d 6d cf a6 3e
       0.028971793 0.010142953 0.054393414 0.32580128
0001e0 a0 a2 b7 3d 7f cd 4e 3e 0c 3b 12 be 6e cc 07 be
       0.08966565 0.20195578 -0.14280337 -0.13261577
0001f0 c3 1f 52 3d 9c 3a 89 3b 00 d9 28 3e 08 a8 50 3c
       0.05129982 0.004187895 0.16489029 0.012735374
000200 87 8e 53 3d e2 79 ba 3e a4 5c 76 3d 11 64 3a be
       0.051649597 0.36421114 0.060146943 -0.18202235
000210 4b 75 64 3e 13 b1 55 be 71 11 40 3e bf 5f 20 3e
       0.22310369 -0.2086833 0.18756653 0.15661524
000220 e7 1f 22 be e6 22 4e 3e 19 82 f2 bd e9 bd c5 3b
       -0.15832482 0.201305 -0.118412204 0.006034602
000230 dc aa 6b be 72 d9 5e 3e cc 0b f7 bc c1 36 18 be
       -0.23014396 0.21762636 -0.030156992 -0.14864637
000240 8e 94 72 3e 7a f5 1e 3e 3d 80 8e be e1 90 07 be
       0.23689482 0.1552333 -0.27832213 -0.1323886
000250 0a be 28 3e 96 5a af 3e 3a 47 d0 bd 11 ec db bd
       0.16478744 0.342488 -0.101698354 -0.107383855
000260 2c 73 8d be 83 9a ce bd 6a d3 77 bd 14 9e 16 3e
       -0.27626932 -0.100880645 -0.060504355 0.1470874
000270 62 41 11 be 2a 25 a2 3c 54 95 2e be 6d 08 5c be
       -0.14185098 0.019793112 -0.17049152 -0.21487589
000280 69 e5 56 be e1 52 8b 3d 91 3f bd bd 86 6f 90 3e
       -0.2098595 0.06802917 -0.0924064 0.28210086
000290 e6 53 a8 3d e9 17 e0 3c eb 19 83 3e 80 15 08 bd
       0.08219127 0.027355151 0.2560571 -0.03322363
0002a0 4d 25 71 3e 5d b0 0c bd 9d 91 da bd df f0 49 be
       0.23549385 -0.03434788 -0.10672305 -0.19720791
0002b0 3f ff 83 be 2f a1 0f bd d2 b7 c4 3d 9d 16 47 be
       -0.25780675 -0.035065826 0.096053734 -0.1944222
0002c0 5f a6 96 3d 4e 64 9d bc 0d 97 6c bd 1f b2 93 3b
       0.073559515 -0.019212868 -0.05776124 0.0045073177
0002d0 79 b0 3c 3e b0 8b 1a 3e 37 f0 2c be 07 31 4b be
       0.18426694 0.15092349 -0.1688851 -0.19842921
0002e0 46 19 84 be c4 7a d7 3d 6e b7 a2 3e 9f 73 30 3e
       -0.25800532 0.105214626 0.3178057 0.17231606
0002f0 a7 47 1a be 93 57 3d be 63 c1 cd bd b1 1f e1 bd
       -0.15066396 -0.18490438 -0.10046651 -0.10992373
000300 f5 f8 14 3e 2e 68 93 3e 21 12 07 3e 6a 9f 8a 3d
       0.14548095 0.2879042 0.1319051 0.06768687
000310 b7 8b e3 3d bf 1b 37 3e 41 f6 e2 3e 17 f5 3b be
       0.11110633 0.17881678 0.44328502 -0.18355213
000320 1b b5 c6 bc 29 4f 11 3d fc 60 11 3e e6 ad 8c bc
       -0.02425628 0.035475884 0.14197153 -0.017172765
000330 b8 06 a5 bd 45 c1 52 3e 3a 60 b0 bd 9c 26 b4 3d
       -0.08057922 0.20581539 -0.08612104 0.08796427
000340 b0 5e cb 3c b7 56 f7 bd a1 64 25 3e 0f 00 05 be
       0.024825424 -0.120770864 0.16151668 -0.12988304
000350 3e 34 ce bd b8 20 ea bd 5e ca 47 be 24 3c ef 3d
       -0.10068558 -0.11432022 -0.1951079 0.11681393
000360 3b 3f 55 bc 00 ba b6 3c 62 46 91 be 6c 59 27 be
       -0.013015564 0.022305489 -0.2837401 -0.16342705
000370 95 93 cc 3e 79 7d 96 3d 0c 46 43 be 46 d1 a5 bd
       0.39956346 0.07348151 -0.1906969 -0.08096556
000380 22 f0 04 3e cd e9 e3 3c 4b 07 de bc f0 7f 04 3e
       0.12982228 0.027821446 -0.027103087 0.1293943
000390 14 37 64 bd ef db b9 3d 1c ac 21 3e d2 76 5b be
       -0.05571659 0.09075152 0.15788311 -0.21432045
0003a0 22 d0 0b 3e 7b d9 22 be dd ef 45 be 4d 50 83 3e
       0.13653615 -0.15903275 -0.19329782 0.25647202
0003b0 80 e9 e6 bd db 16 49 be b3 1b 30 be be a0 40 3d
       -0.11275005 -0.19637625 -0.17198066 0.047028296
0003c0 f6 ba 91 3e e1 86 1a be 2d ac a9 3e b6 5d a5 3c
       0.28462952 -0.15090515 0.33139172 0.020186286
0003d0 db 2b 26 3e 70 f8 04 3e 0a 20 85 3d 16 b3 9a bd
       0.16227667 0.12985396 0.065002516 -0.07553689
0003e0 98 43 68 bd 05 59 f9 bd 1b 82 6d 3e 43 9a b6 3d
       -0.056705087 -0.12175182 0.23194163 0.08916142
0003f0 68 cd 0a be b2 6e c4 bd 0b dd af bd 9c b9 9d bd
       -0.13554919 -0.09591426 -0.085870825 -0.07701418

onnx::LSTM_99 f4 [1, 128, 32]
000000 80 6c a1 bd e1 8a 00 3f 08 c3 f2 3d 60 95 a8 3d
       -0.07882023 0.5021191 0.118536055 0.08231616
000010 24 5f 60 3e e1 2c d3 3b c6 3f 3a be c1 05 aa bd
       0.21911293 0.006444559 -0.1818839 -0.08301879
000020 fd 16 13 3d 75 67 0e 3d 30 61 8b 3e 90 0c 1e be
       0.035910595 0.034766633 0.27222586 -0.1543448
000030 8d bb 98 3e 2c 46 50 be 57 05 91 3e 4d 51 4d be
       0.2983059 -0.20339268 0.28324386 -0.20050545
000040 40 0b 1a be 48 c7 5a be e4 57 f5 3d f7 50 5f 3d
       -0.15043354 -0.21365082 0.119796544 0.054520573
000050 e9 d2 79 bd 86 14 1c 3e ec 06 b1 3d ac da fe bd
       -0.060992155 0.15242204 0.08643898 -0.12444052
000060 1f ae 6a be 33 5e 89 3c ea 24 b2 3e 6d 58 f7 bc
       -0.22917984 0.01676855 0.34793788 -0.030193532
000070 c8 53 bb bd 63 e6 9f be b1 fb a4 be 0c b1 20 bc
       -0.091468394 -0.3123046 -0.32223275 -0.009807836
000080 fe 16 46 3e 24 b5 dd 3e 9a f2 ad 3e 7b df be bc
       0.19344708 0.43302262 0.33974153 -0.023299923
000090 1d bc 62 bc 89 7c 63 3e 6d 0c a3 bc bb 47 c0 be
       -0.013838795 0.22215475 -0.019903386 -0.37554726
0000a0 52 43 e8 bd 98 0b d7 bd 59 4b 98 be 9b 8a 17 be
       -0.11340965 -0.10500258 -0.29744986 -0.14798968
0000b0 32 29 95 3e 4b a2 a8 3b 9e 22 31 be 76 bb f0 3d
       0.29132992 0.0051463 -0.17298362 0.11754505
0000c0 18 91 a7 bb 1a ba 56 be c2 94 e8 3d 09 f5 42 bd
       -0.005113732 -0.2096943 0.11356498 -0.047596965
0000d0 84 50 35 3e ed 82 af be 36 2a 4b 3e 68 a1 1c bd
       0.17706496 -0.34279576 0.19840321 -0.038239866
0000e0 24 7b 2e 3e 0a b1 0d be c8 7f 3f be 7b 16 47 3c
       0.17039162 -0.13837066 -0.18701088 0.012151356
0000f0 91 68 c7 bd 37 b5 02 3e ab 8f 30 bd dc 89 96 3e
       -0.09736741 0.1276444 -0.043105762 0.29402053
000100 30 a5 d5 bd 3a 7e 20 be ed 09 60 be 0e 4b a2 be
       -0.10431898 -0.15673152 -0.21878786 -0.31697887
000110 bd 7f ba bd f2 e4 8c 3e 22 3d b0 3d 9b af 5a 3d
       -0.091063954 0.2751842 0.0860541 0.053390127
000120 ea 9d 4d be d9 e0 b7 be 13 36 78 3e 07 bd 90 bd
       -0.2007977 -0.35913733 0.24239378 -0.07067304
000130 5a 50 9c be c0 ac 75 be ad ad 6e 3e 17 d1 9d 3d
       -0.30530053 -0.2399168 0.2330844 0.07705896
000140 f5 28 24 bb 84 21 86 be 96 c0 4d be a5 3e 6a 3c
       -0.0025048826 -0.26197445 -0.20092997 0.014297162
000150 6f d7 01 be 64 26 1a be 0d de 19 be af ff b9 bc
       -0.12679838 -0.15053707 -0.15026112 -0.022704927
000160 3f 8a 04 3e f8 ff 8c 3e b7 65 90 be 9c 3d b6 3d
       0.12943362 0.2753904 -0.28202602 0.0889847
000170 eb ba ed be 9e 8b 97 3d 43 f0 ba be 24 d1 e4 bd
       -0.4643167 0.07399677 -0.3651143 -0.11172703
000180 97 f9 ea bc 4c 02 53 3e 72 10 7a bd 4a 4a bb 3e
       -0.028683467 0.20606345 -0.06105084 0.36580116
000190 09 e5 47 3d 3f b0 58 be e3 17 84 3e 0b 7e 1d 3d
       0.04880241 -0.21160983 0.25799474 0.038450282
0001a0 01 3a 90 3d 20 9c 4e be 50 49 d4 3e dd d2 61 3e
       0.07042313 -0.20176744 0.41462183 0.22053094
0001b0 2e b3 69 be 94 1f 40 3e ba c1 d4 be e0 50 4a 3e
       -0.22822258 0.18762046 -0.41554052 0.19757414
0001c0 4b 99 85 be dd f5 6f 3e 2b f5 53 bc 68 54 c3 bd
       -0.26093516 0.23433633 -0.012936871 -0.095375836
0001d0 88 48 c0 3e e1 44 79 3d b9 31 86 be 40 e8 a4 be
       0.37555337 0.060856704 -0.2620981 -0.32208443
0001e0 2a 11 a7 be 27 02 9b be 96 0a 8d be 8f 12 b9 bd
       -0.32630283 -0.3027508 -0.2754714 -0.09036743
0001f0 c5 f6 9e 3d 88 3c dd be e5 be 16 3c 42 29 8a be
       0.07761911 -0.43210244 0.009200786 -0.26984602
000200 25 b7 d9 3d 86 7d ad bb fe 0e e3 bd 33 42 6f be
       0.10630635 -0.0052945046 -0.11086844 -0.23365097
000210 fa ef 61 3e 32 be 89 bc fb 1f a0 bd ff ab 73 3e
       0.220642 -0.016814325 -0.078186 0.2379608
000220 d2 7d 86 3e 30 e9 c8 bd 42 a6 53 bd 1c 42 90 be
       0.26267868 -0.09810102 -0.051672228 -0.28175437
000230 f9 c7 13 3d cf 4c 0b 3e 65 be 21 be 05 72 c5 bd
       0.03607938 0.13603519 -0.15795286 -0.09640888
000240 fa c6 0e 3e 99 9b c8 3e c3 6f 80 3c c1 74 16 3d
       0.13943091 0.39181212 0.015678292 0.03673244
000250 fb 82 71 bc a2 b9 a7 bb 3c 14 50 3e db 42 38 3e
       -0.014740701 -0.0051185647 0.20320219 0.17994253
000260 ba f7 d9 be 09 fd 53 bd 9c c8 6b be 6c 1e 14 3e
       -0.42571813 -0.051754985 -0.23025745 0.1446473
000270 ce c9 84 be fc 42 58 3c c5 7f 06 3e e0 55 84 be
       -0.25935215 0.013199564 0.13134678 -0.25846767
000280 b7 51 09 be b3 bc b9 bd dd d7 bf 3e ac 00 50 bd
       -0.13410078 -0.09069195 0.37469378 -0.05078189
000290 6a 46 b6 3e a7 18 81 3d e2 26 86 3e 1c 53 1b be
       0.35600597 0.0630353 0.2620154 -0.15168422
0002a0 1b d7 dd 3d 68 dd 6d bd 77 cc a8 3d 3c 24 e0 be
       0.10832044 -0.058072478 0.082421236 -0.43777645
0002b0 20 f8 b3 be 1e 79 15 3e 0b 27 98 3d 6e 95 79 3e
       -0.35150242 0.14596984 0.07429322 0.24373409
0002c0 3f e9 41 bb 5c a9 17 3c 9b d1 3f 3d e5 42 cf be
       -0.0029588488 0.009256687 0.046830755 -0.40480724
0002d0 a3 11 72 3e 1d c0 64 3e 13 05 aa be 55 3c 45 3c
       0.2363954 0.2233891 -0.33206996 0.01203831
0002e0 51 e9 36 be e5 1f 4e bd a5 37 9d 3e 01 ec e9 be
       -0.1786244 -0.050323386 0.30706516 -0.4568787
0002f0 f5 67 32 be 6d d9 d6 bd 9f e7 29 be 6a 96 2a bd
       -0.17422469 -0.104906894 -0.16592263 -0.041647352
000300 32 ac 92 be 9f 96 1e bd e9 e8 13 be 15 c8 bd bd
       -0.28647 -0.038717862 -0.14444317 -0.09266678
000310 a7 5b 9b be 87 28 fa bd c5 98 d7 3d 5f 5c a4 3e
       -0.30343363 -0.12214761 0.10527185 0.32101724
000320 a4 d5 a7 3e 2c 94 8d bd 12 1c 61 3e 59 ba 8c 3e
       0.32780182 -0.06913027 0.21983364 0.27485922
000330 34 8d b3 be 64 38 1f be 6a ec bf be ed be 31 3e
       -0.35068667 -0.15548855 -0.37485057 0.17357989
000340 e6 2e 5f 3d 45 7d c9 be bc 88 c6 bd 25 cd 2c bd
       0.054488085 -0.39353386 -0.09694049 -0.04218783
000350 a3 56 98 3e 1a 63 df bd 8e 12 e2 be 1b f8 93 be
       0.297536 -0.10907574 -0.4415478 -0.28900227
000360 8a 6e 31 bd c9 fd ef be 7b 35 01 3f c4 da cd 3d
       -0.04331831 -0.4687331 0.5047223 0.10051492
000370 0c 37 46 3e 84 94 a0 3e 9f 36 34 3d cd 8d 90 3e
       0.19356936 0.31363308 0.043997403 0.28233185
000380 84 aa 9c be b0 1e 84 be 15 01 a4 bd f7 64 6b bc
       -0.30598843 -0.25804663 -0.08008019 -0.014367334
000390 df 94 1c 3d 81 4f 66 3e 9c 12 05 bf 03 26 3c bd
       0.038227912 0.22491266 -0.5198152 -0.04593469
0003a0 7e 3e dd 3e 7c 50 99 be 59 d1 19 3e 1a 0a de 3c
       0.4321174 -0.29944217 0.15021266 0.027104426
0003b0 dd c7 82 be 4c 14 db 3d e8 51 d1 bd 17 10 80 bb
       -0.2554311 0.10697231 -0.102207005 -0.003908168
0003c0 03 8b 0c be 79 77 83 be c8 d4 8b bd b9 f6 e8 3d
       -0.13724904 -0.25677088 -0.06827694 0.113751836
0003d0 13 42 fe 3e f4 3c 74 3e 88 d1 a1 be 99 bd a3 3d
       0.49659786 0.23851377 -0.31605172 0.07995147
0003e0 1f 25 ac bb ac df 49 be 17 31 6d 3e 59 c8 11 be
       -0.0052534486 -0.1971423 0.23163258 -0.14236583
0003f0 8f e6 81 bc 43 cd 10 3e 5d 32 44 3e 4a ce a1 3c
       -0.01585701 0.14140801 0.19159837 0.019751687

onnx::LSTM_100 f4 [1, 256]
000000 e0 bd 91 3b 3a f9 a3 bc d0 ff cb 3c 83 cd d8 3d
       0.0044476837 -0.020016301 0.024902254 0.10586073
000010 9f 7d 9f 3d 03 f9 fa 3d 9d d4 92 3c db 58 0b be
       0.07787632 0.122545265 0.017923648 -0.13608114
000020 a1 a0 f2 3d f0 28 b6 bd ce 1d 1c 3d ac 26 e5 3c
       0.11847044 -0.08894527 0.03811436 0.027972542
000030 ce e0 35 bd 7b db 83 3e c9 c5 c1 3d 93 8e b2 3b
       -0.044403844 0.25753388 0.09461553 0.005449125
000040 b0 d9 cd 3d 10 88 0c bd 3c 41 83 bb 41 8e aa 3d
       0.10051286 -0.034309447 -0.0040055793 0.08327914
000050 5f 96 45 3e ff e0 72 3d 71 a7 91 3c f4 6c 8d 3d
       0.19295643 0.059296604 0.017780038 0.06905547
000060 88 39 bc 3d 01 e2 0a 3e c1 fd 14 3e 9a 8a 7a 3a
       0.09190661 0.13562776 0.14549924 0.00095573964
000070 30 b0 02 bd 8d 4d b9 bd 67 50 37 3d b7 d0 d9 3d
       -0.031906307 -0.09047995 0.044754412 0.10635512
000080 f7 2f 01 3e 15 73 e2 bd d6 c1 06 b8 23 24 df bc
       0.12615953 -0.110571064 -3.2128613e-05 -0.027238911
000090 7e 97 1d bc d4 0e 49 3d 57 2c 3d bc 9d a4 46 bd
       -0.009618638 0.049086407 -0.011546216 -0.04849683
0000a0 e0 2e d7 3d 30 4b 90 3e 7c 22 c9 3d 38 6e 4b 3d
       0.105069876 0.28182364 0.098210305 0.04966566
0000b0 f1 cb e1 bd aa 21 35 3e 36 97 45 3e 74 67 6f bd
       -0.11025227 0.17688623 0.19295964 -0.05844827
0000c0 60 58 91 3e c5 ee 12 be fb d8 2b bc 59 77 3c 3c
       0.28387737 -0.14348896 -0.010488744 0.011503064
0000d0 ea b4 9d be 6c 66 2f 3d e2 b5 ac 3d 22 18 94 bd
       -0.3080209 0.042822286 0.08433129 -0.072311655
0000e0 7a c1 1c 38 fc 95 46 3e 33 2e ba bd 7a 10 19 3e
       3.7373487e-05 0.19393152 -0.09090843 0.14947692
0000f0 a2 8c 73 bd ab 83 13 3d f4 95 c3 3c 54 94 7f 3c
       -0.05946029 0.03601424 0.023875214 0.015599329
000100 07 c8 83 3f cb 8b 81 3f c7 aa 69 3f ad ee 92 3f
       1.0295419 1.0120786 0.9127621 1.1479088
000110 29 d2 97 3f 0f b7 8d 3f c3 de 87 3f b8 6f 83 3f
       1.1861011 1.107149 1.0614856 1.0268469
000120 01 42 7b 3f d7 5f 74 3f 9f a2 66 3f 35 b0 8a 3f
       0.9814759 0.9545874 0.9009189 1.0835024
000130 79 0d 8f 3f b0 14 68 3f f6 69 7b 3f d4 28 85 3f
       1.1175987 0.90656567 0.9820856 1.0403085
000140 fb a3 81 3f fd 32 6f 3f ae 42 60 3f c6 9c 8c 3f
       1.0128168 0.93437177 0.87601745 1.0985343
000150 6f 27 88 3f 6f ac 8c 3f c8 05 82 3f 70 d1 69 3f
       1.0637034 1.0990123 1.0158014 0.913352
000160 5c f1 83 3f 31 b0 8b 3f d2 d5 84 3f 42 c6 6a 3f
       1.0308032 1.0913144 1.0377753 0.9170877
000170 64 01 98 3f ff e9 51 3f 7c 69 83 3f d0 8d 74 3f
       1.1875424 0.81997675 1.0266566 0.9552889
000180 09 c6 7a 3e 0f 02 e2 bd 6e c0 39 bd 12 4f fb 3c
       0.24489607 -0.11035549 -0.04534953 0.030677352
000190 56 5b c6 3c 21 9a f0 bd 60 cd e3 3d d2 0d 88 bc
       0.024213474 -0.11748148 0.111231565 -0.016608153
0001a0 3b 4c 11 3d 91 87 26 3d 12 c8 18 be 9b b0 6e bd
       0.03547309 0.04065663 -0.14920071 -0.058273893
0001b0 3f 4d fb bd 74 7d 78 bd 41 db 08 3e 5e 39 d9 bc
       -0.12270593 -0.060666516 0.13364889 -0.026516613
0001c0 99 22 33 3d d2 b4 09 3d 7a 19 3d 3e ea 4c fd 3c
       0.043734167 0.03361971 0.1846675 0.030920465
0001d0 06 87 49 bd 97 c9 e3 3d 55 3a cb 3d 50 26 8f bc
       -0.049201034 0.111224346 0.09923235 -0.017474324
0001e0 5e 9d f5 bd 4c 3e 99 3d c0 3f e7 3c 57 3d 9e bd
       -0.11992906 0.07482585 0.02822864 -0.077265434
0001f0 ee d7 83 3d 18 9d 7f 3c 56 ed 1a be cc f7 40 bd
       0.0643767 0.015601419 -0.15129599 -0.047111318
000200 e0 bd 91 3b 3a f9 a3 bc d0 ff cb 3c 83 cd d8 3d
       0.0044476837 -0.020016301 0.024902254 0.10586073
000210 9f 7d 9f 3d 03 f9 fa 3d 9d d4 92 3c db 58 0b be
       0.07787632 0.122545265 0.017923648 -0.13608114
000220 a1 a0 f2 3d f0 28 b6 bd ce 1d 1c 3d ac 26 e5 3c
       0.11847044 -0.08894527 0.03811436 0.027972542
000230 ce e0 35 bd 7b db 83 3e c9 c5 c1 3d 93 8e b2 3b
       -0.044403844 0.25753388 0.09461553 0.005449125
000240 b0 d9 cd 3d 10 88 0c bd 3c 41 83 bb 41 8e aa 3d
       0.10051286 -0.034309447 -0.0040055793 0.08327914
000250 5f 96 45 3e ff e0 72 3d 71 a7 91 3c f4 6c 8d 3d
       0.19295643 0.059296604 0.017780038 0.06905547
000260 88 39 bc 3d 01 e2 0a 3e c1 fd 14 3e 9a 8a 7a 3a
       0.09190661 0.13562776 0.14549924 0.00095573964
000270 30 b0 02 bd 8d 4d b9 bd 67 50 37 3d b7 d0 d9 3d
       -0.031906307 -0.09047995 0.044754412 0.10635512
000280 f7 2f 01 3e 15 73 e2 bd d6 c1 06 b8 23 24 df bc
       0.12615953 -0.110571064 -3.2128613e-05 -0.027238911
000290 7e 97 1d bc d4 0e 49 3d 57 2c 3d bc 9d a4 46 bd
       -0.009618638 0.049086407 -0.011546216 -0.04849683
0002a0 e0 2e d7 3d 30 4b 90 3e 7c 22 c9 3d 38 6e 4b 3d
       0.105069876 0.28182364 0.098210305 0.04966566
0002b0 f1 cb e1 bd aa 21 35 3e 36 97 45 3e 74 67 6f bd
       -0.11025227 0.17688623 0.19295964 -0.05844827
0002c0 60 58 91 3e c5 ee 12 be fb d8 2b bc 59 77 3c 3c
       0.28387737 -0.14348896 -0.010488744 0.011503064
0002d0 ea b4 9d be 6c 66 2f 3d e2 b5 ac 3d 22 18 94 bd
       -0.3080209 0.042822286 0.08433129 -0.072311655
0002e0 7a c1 1c 38 fc 95 46 3e 33 2e ba bd 7a 10 19 3e
       3.7373487e-05 0.19393152 -0.09090843 0.14947692
0002f0 a2 8c 73 bd ab 83 13 3d f4 95 c3 3c 54 94 7f 3c
       -0.05946029 0.03601424 0.023875214 0.015599329
000300 07 c8 83 3f cb 8b 81 3f c7 aa 69 3f ad ee 92 3f
       1.0295419 1.0120786 0.9127621 1.1479088
000310 29 d2 97 3f 0f b7 8d 3f c3 de 87 3f b8 6f 83 3f
       1.1861011 1.107149 1.0614856 1.0268469
000320 01 42 7b 3f d7 5f 74 3f 9f a2 66 3f 35 b0 8a 3f
       0.9814759 0.9545874 0.9009189 1.0835024
000330 79 0d 8f 3f b0 14 68 3f f6 69 7b 3f d4 28 85 3f
       1.1175987 0.90656567 0.9820856 1.0403085
000340 fb a3 81 3f fd 32 6f 3f ae 42 60 3f c6 9c 8c 3f
       1.0128168 0.93437177 0.87601745 1.0985343
000350 6f 27 88 3f 6f ac 8c 3f c8 05 82 3f 70 d1 69 3f
       1.0637034 1.0990123 1.0158014 0.913352
000360 5c f1 83 3f 31 b0 8b 3f d2 d5 84 3f 42 c6 6a 3f
       1.0308032 1.0913144 1.0377753 0.9170877
000370 64 01 98 3f ff e9 51 3f 7c 69 83 3f d0 8d 74 3f
       1.1875424 0.81997675 1.0266566 0.9552889
000380 09 c6 7a 3e 0f 02 e2 bd 6e c0 39 bd 12 4f fb 3c
       0.24489607 -0.11035549 -0.04534953 0.030677352
000390 56 5b c6 3c 21 9a f0 bd 60 cd e3 3d d2 0d 88 bc
       0.024213474 -0.11748148 0.111231565 -0.016608153
0003a0 3b 4c 11 3d 91 87 26 3d 12 c8 18 be 9b b0 6e bd
       0.03547309 0.04065663 -0.14920071 -0.058273893
0003b0 3f 4d fb bd 74 7d 78 bd 41 db 08 3e 5e 39 d9 bc
       -0.12270593 -0.060666516 0.13364889 -0.026516613
0003c0 99 22 33 3d d2 b4 09 3d 7a 19 3d 3e ea 4c fd 3c
       0.043734167 0.03361971 0.1846675 0.030920465
0003d0 06 87 49 bd 97 c9 e3 3d 55 3a cb 3d 50 26 8f bc
       -0.049201034 0.111224346 0.09923235 -0.017474324
0003e0 5e 9d f5 bd 4c 3e 99 3d c0 3f e7 3c 57 3d 9e bd
       -0.11992906 0.07482585 0.02822864 -0.077265434
0003f0 ee d7 83 3d 18 9d 7f 3c 56 ed 1a be cc f7 40 bd
       0.0643767 0.015601419 -0.15129599 -0.047111318
