results/FullyAbstract/bachelor/bachelor-28999927.onnx (onnx, 76519 bytes, 9 tensors)

network_body._body_endoder.seq_layers.0.weight f4 [64, 7]
00000000: 97c4 193f f9f1 56be 7685 0ebf e1d9 15bd
00000010: 8941 3f3e 0bbb 21bd 1608 a13e b8e2 3bbf
00000020: 0db0 1e3f ba76 e0bd dfee c0be a6dc a1bd
00000030: 5b0f 99be 86fa 89bb 2bb6 e13e ebf3 5bbe
00000040: e6f5 11be b764 153d 508c 66bf 19ba d53e
00000050: 0252 4bbd e016 423e f5a0 1f3f a29d adbe
00000060: 8526 24bf a40c e4bd 6e0f ff3d 4f8b 16be
00000070: 6dde a5be 4208 143f a8af f4be f443 3dbf
00000080: c558 82bd b473 18be 4747 1cbe 919b 873e
00000090: 109f b23e 3565 a93e a17f e9bd 4c0f e03c
000000a0: 35d7 0e3e b153 393e 124f 11bf 47d7 3d3d
000000b0: a6ca c93d e6bb bbbe fed2 26bf 5675 2d3f
000000c0: 9cc4 053f 0f45 02be 172b 3ebf cd73 23be
000000d0: b226 1a3e 7739 f13c 5c56 ddbc 02dc 92be
000000e0: 19c2 1ebe 0d0b 32bf fda7 56be 874c 23bf
000000f0: 2507 a43e ab6f 24be 73cf 12bf 56b2 d93e
00000100: a9ba 2c3e 0eaf edbd 939b 89be 0be6 db3e
00000110: 3445 ddbd 9315 073f 5d7a 933e b760 a8bd
00000120: a489 ac3e e990 1dbf 6575 ae3d a5b1 13be
00000130: 5a80 b6be f146 333e 7153 adbe 2479 2e3d
00000140: 6b36 823d 8119 063e aa47 313d 4989 3dbf
00000150: c774 9cbe 8961 a33e 4cf9 153f 5412 633e
00000160: f5e8 43be 99c0 24be c4e7 0d3f 1d43 8dbe
00000170: bfc0 1a3f 8c6e 053f 1b5a 49ba c2b0 303e
00000180: 5b6c 85be c95e b93e 3402 84bf 21d5 863e
00000190: 91ff 1d3d 9e42 49be ef8a b33e 519c 7c3e
000001a0: 8e8d 613d 2917 a33e 91c9 dc3d 09b1 233e
000001b0: 3d2a babe 473b 27bf 8340 8e3e b719 f93e
000001c0: 6212 9fbe beb3 9ebe 086e 4b3f e2be 91be
000001d0: f319 e5bd 7494 253e b41d 4fbe c23d 333e
000001e0: 5a34 8c3e 4477 8a3f ee01 243e 883c 9fbe
000001f0: f822 253e e4a8 85be 44b9 463c da7c 6f3e
00000200: 361b 2abe 026c c7be ec2a 7dbd a849 e13e
00000210: 50e3 ec3e a90c 67bf 8160 4ebf d0cd abbe
00000220: d1a3 b43e ee3e 903f 0ecd 4cbe 3e5c 2ebe
00000230: 7600 a63f b161 9f3f d7fa 80bd 48f0 e03e
00000240: bb6f 84be 4ca8 12be fe97 183e ce12 8a3e
00000250: c5f1 babe ec04 b93c 19c5 693e b0e9 cd3d
00000260: 056d 57bd a478 12bf 4ef7 ffbe f299 443e
00000270: 148f 263e e592 a7be 5c4d 0c3f c011 05bd
00000280: 29b9 093f f65a aa3e 2767 343f 9d8e a4be
00000290: e0ad 31bf e9d0 80bc 3783 823c 11a2 19bf
000002a0: f1ca 523f f058 b83c 0b55 01bf 1cb1 603e
000002b0: 1c57 e1be 02af c9be 4094 8a3e 3977 6a3f
000002c0: 4208 e0bd 0f8e 8a3d b8ec af3e 71dd 92be
000002d0: d255 063f 4039 dbbe 0f5f 30be 6039 273e
000002e0: 124f 2ebe a5c0 50bf 2888 eebe 3eea ef3d
000002f0: de22 05bf 7b97 ef3d 692a 3e3e 0f24 d03d
00000300: 5b72 5abe 3cc7 f2be 89c9 a63e 3a65 e8bd
00000310: 9c9d 5bbe a0c3 b93e de1b 143f 4cc0 80bc
00000320: dfae d8be 58f4 94bd d46e 80bd f438 0c3e
00000330: 615f 9dbe dfeb 43bf f188 ba3e afa5 3cbf
00000340: 412f de3d 159f 8ebe 3cce 65bd f4be e6be
00000350: 0883 8fbf c937 893e edad 783e 509e 58be
00000360: c446 8d3e 22c5 9f3d 61c6 d0bd 000f db3c
00000370: 8786 f83c b822 273e f6ac bc3e ef66 9cbe
00000380: f6cd 573f d97d ee3e ae73 c3be 0ead bbbd
00000390: c57b ba3e c464 453e 6fea 793c f13a 703f
000003a0: 3265 b93e c574 f8be 4e8d 57bf ab98 e6bd
000003b0: 3b9e 373e 351d 7c3e bcac 953f 7600 043f
000003c0: 36e0 3cbf b293 4dbb de5c dfbd 6d08 2b3d
000003d0: ae06 8c3e 76b8 7cbf 00e6 493e 1cf3 4e3e
000003e0: b1e4 86bc a411 19bf b97b 253e 6190 bbbe
000003f0: a674 f83d 381e 443f 67c6 113d 4cb6 3abe
0.600656 -0.20990743 -0.55672395 -0.03658474 0.18677343 -0.03948502 0.31451482 -0.7339282
0.6198738 -0.10960145 -0.37682244 -0.079034135 -0.29894528 -0.004210773 0.44084296 -0.21479766
-0.14253959 0.036473002 -0.9005785 0.41743544 -0.049638756 0.18954039 0.62354976 -0.33909327
-0.64121276 -0.111352235 0.12454115 -0.1470158 -0.3239626 0.578251 -0.47790265 -0.73931813
-0.06364588 -0.14887887 -0.15261565 0.26485875 0.3488698 0.33085027 -0.114012964 0.027351044
0.13949282 0.18098332 -0.56761277 0.046347883 0.09853105 -0.36666793 -0.651657 0.67757165
0.5225313 -0.12721656 -0.742845 -0.15962143 0.15053824 0.029446347 -0.027018718 -0.28683478
-0.1550373 -0.6954811 -0.2096252 -0.63788646 0.320367 -0.16058223 -0.5734779 0.42518872
0.1686808 -0.11605655 -0.26876506 0.42948946 -0.10804215 0.52767295 0.28804293 -0.08221572
0.3369876 -0.6154924 0.08518485 -0.14423235 -0.356448 0.17507531 -0.33852723 0.042595997
0.06358036 0.13095666 0.043281235 -0.74037606 -0.30557844 0.3191035 0.5858352 0.2217496
-0.19131835 -0.16089095 0.5543177 -0.27590266 0.6045036 0.52121806 -0.0007680968 0.17254928
-0.2605923 0.36205128 -1.0313172 0.2633448 0.038573805 -0.19654319 0.35066935 0.24669005
0.055066638 0.31853607 0.10780633 0.15985502 -0.3636035 -0.65324825 0.27783594 0.4865243
-0.31068712 -0.30996507 0.7946477 -0.28465945 -0.1118659 0.16169912 -0.20226175 0.17504027
0.2738369 1.0817647 0.16016361 -0.3110087 0.16126621 -0.26105416 0.012129132 0.23387471
-0.16611943 -0.3894959 -0.06180851 0.44001508 0.46267176 -0.9025369 -0.80616003 -0.3355546
0.35281232 1.1269205 -0.20000097 -0.17027375 1.2968891 1.2451688 -0.06297844 0.4393332
-0.25866494 -0.14322013 0.1490173 0.26967472 -0.3651258 0.022585355 0.22829093 0.10054338
-0.052594204 -0.57215333 -0.49993366 0.1919935 0.16265517 -0.3272926 0.5480554 -0.03248763
0.53798157 0.33272523 0.704699 -0.32140055 -0.6940594 -0.015724616 0.015931709 -0.6001292
0.82340914 0.022503346 -0.5052039 0.21942562 -0.44011772 -0.39391333 0.2706623 0.9158817
-0.10939075 0.06765377 0.3436029 -0.2868457 0.524747 -0.42817116 -0.17223762 0.1633048
-0.1702235 -0.8154395 -0.46588254 0.117146 -0.5200633 0.116988145 0.18570866 0.10163128
-0.21332686 -0.4741763 0.32575634 -0.113474324 -0.21446842 0.36282063 0.5785502 -0.015716694
-0.42320916 -0.07273167 -0.06271139 0.13693601 -0.3073683 -0.76531786 0.36432603 -0.73690313
0.10848857 -0.27855745 -0.056104884 -0.4506756 -1.1211863 0.26800373 0.24285097 -0.21154141
0.27593052 0.07801272 -0.10194088 0.026740551 0.030337585 0.16321838 0.3685071 -0.30547282
0.84298646 0.4658039 -0.38174194 -0.09163867 0.36422554 0.1927672 0.015253647 0.9383994
0.36210018 -0.48526588 -0.8419999 -0.11259588 0.17931454 0.24620517 1.1693339 0.51563203
-0.7377962 -0.003136855 -0.10906385 0.041756082 0.27348846 -0.98718965 0.19716644 0.20209926
-0.01646647 -0.5979254 0.16160478 -0.3663359 0.12131624 0.7660861 0.0355896 -0.18233603

network_body._body_endoder.seq_layers.0.bias f4 [64]
00000000: 5734 8b3d 1909 29be 3bdb a7bd afbd 983e
00000010: 44f7 aebd 50b8 02be 3b5a b33d b55b 273d
00000020: 6424 edbd 9e54 223e f013 4fbe d01e 89be
00000030: 6999 64be 4d50 833c 9df7 92be 8e92 cfbc
00000040: 80ac 71bd b3b3 47be fa24 58be c4cb 3b3e
00000050: cb17 8c3e 0bd3 383e 071a 0b3c 6837 3a3f
00000060: 3349 683e 9ffe 64bd a0d0 a0be b08d fbbd
00000070: d76e 8e3d 832d 863e 2c8b 2f3e c33b 82be
00000080: a268 463d 04b0 e6bd 670c 4b3e 6152 1fbe
00000090: ea87 ce3d d8e8 5abe c879 96bd f045 dfbc
000000a0: 0e34 2dbe 3365 ea3d 1b69 8fbe c3fb 983e
000000b0: bc90 55be 18da 6f3e d68f 68be c17d dfbd
000000c0: 6e85 9a3e 03f2 3a3d d371 1cbe bf85 0b3f
000000d0: f454 9fbd 5b90 d23d 1be1 833e babe 64be
000000e0: 0f95 12be 2a1f 353c 9672 c43e 09a4 8dbe
000000f0: dc03 2ebe 0eba 0dbe ac18 c3bd b7d4 4b3e
0.067970924 -0.16507377 -0.08196112 0.29832217 -0.08543256 -0.12765622 0.087574445 0.040858943
-0.115792066 0.15852591 -0.2022245 -0.2678132 -0.22324146 0.016029501 -0.2870454 -0.025338437
-0.0590024 -0.19502144 -0.21107855 0.18339449 0.27361903 0.18049257 0.008490092 0.72740793
0.22684173 -0.055906888 -0.31409168 -0.12282884 0.06954735 0.26206598 0.17142934 -0.2543622
0.04843963 -0.11264041 0.1982895 -0.15558769 0.10084517 -0.21377885 -0.07347447 -0.027255028
-0.16914389 0.114450835 -0.28009877 0.2987958 -0.20855993 0.2342304 -0.22711119 -0.109126575
0.30179924 0.045640957 -0.15277795 0.54500955 -0.077798754 0.1028144 0.2575768 -0.22338381
-0.14314674 0.011054793 0.38368672 -0.2766421 -0.1699366 -0.13840505 -0.0952619 0.19905363

network_body._body_endoder.seq_layers.2.weight f4 [64, 64]
00000000: 44c6 243e ea37 163e d808 2cbd eec7 7b3e
00000010: d422 043e 37e8 853c b6e0 dabd db30 0bbe
00000020: 8e18 683d 00e1 8abe 31e6 e2bd aa68 b13e
00000030: 05cc 8f3d e4b2 21bd 0142 e13c ab22 50bd
00000040: cc90 bb3d 4a2b 98be ed74 393e 05da 093e
00000050: 3913 74be 19c0 143e 816b 9f3d 39df 03be
00000060: 7dfd a4be 0e03 46bb b24c 083e b53d f63d
00000070: b35d 273c 5297 b2be 56a3 13be 1b6e c93d
00000080: 5021 aabd f136 c4bd 79aa 7c3d cc69 0a3e
00000090: 2401 7abd 63ea d0bb 9e65 b93d 5ec7 163d
000000a0: d4b1 a2bc 3315 9c3d 2405 b93d 742b 46be
000000b0: da3e 643e 0a1d cebe 39ee aebd 5a64 043d
000000c0: ee7f 66bd 5370 8d3e 9d81 5abd 2c8f 73be
000000d0: d2f9 b73d e463 adbc 577b e4bd d00c 823e
000000e0: 3b99 c83d 4e4c a5bd 96fb 96be 781f 453e
000000f0: 3f77 6f3d 26d6 f3bd 7c89 1abc 78e5 a73d
00000100: dd5d 023b 30d9 f8bc 1156 5bbd d9d5 8dbd
00000110: 18f5 253d 7a71 83bc cc9f 71bd 03e9 febe
00000120: 85fc df3b 7c5b c9bd dbd6 dcbd 6fce 78bd
00000130: 3f9e 013d 32ae 0c3e 480e 22be 04d7 1e3d
00000140: ada4 39be b1af 45bd 1063 06ba 30c1 d13d
00000150: 93f4 32bc 409f 75be 9fb9 3b3e 1539 333e
00000160: 3075 c7bd c5e2 30be a988 923e d9a8 20be
00000170: 9107 47be 3598 8fbe d58c 5fbe 312b 5ebc
00000180: a973 333d 79f2 e33d 8af5 0cbe 5fd2 edbe
00000190: d4d6 fdbd b531 9ebd d771 93bc c3b4 b0be
000001a0: 5d7e 013e 9d89 febb 7919 dbbe 0796 afbd
000001b0: b601 1e3e c992 3cbb 0d60 5a3d f692 dfbe
000001c0: 68f7 acbc b21f 36be c73a 2fbe ca84 86be
000001d0: e07f f63c 972e 19be 2d82 a33d c18d 4e3d
000001e0: 4e3e 7a3e f49d 60bd 7391 62be c557 84be
000001f0: 01a4 8e3e 5832 19bd a776 353d 148d 96bd
00000200: a11e a0be e1d7 233d 83fc 443e 5410 97be
00000210: 43b9 63be 04ec 71be af1d bcbe 6c78 d33d
00000220: fc86 71be a3a0 7bbe 6d3b 763e c550 3f3e
00000230: aac3 6f3e 1c68 2dbe 1284 273e ecce 1e3d
00000240: 5d73 133e a3e2 4e3e 9c46 52be 8c90 583b
00000250: 3c51 883d 22b6 843d 8981 0ebe 99c9 34bf
00000260: cde6 febd d535 523d 45ba 94bd 9d02 dabd
00000270: f401 cfbc ae90 0abd 2733 323e a4d4 4c3e
00000280: 3f6f 6fbe 2ae8 9dbe e839 35be 9267 81be
00000290: d02e 4dbe 6cde 503e 790d 05bd 7038 be3d
000002a0: 2ac4 c9bd 713d 92bc 2843 6d3e 6b26 7f3e
000002b0: a07f e93d 6f87 9c3e 4965 53bc 7a53 25bc
000002c0: 1cca 22be a954 20bb bc4c 563d b972 c93d
000002d0: f0d9 c33e 81be 453e c028 1fbe 6175 6e3e
000002e0: 3db5 173e c899 d53c 9a12 aabd 7116 a13d
000002f0: e0df c63e 5bd8 5a3e 57bc aabd ad26 c33e
00000300: 7de8 0dbe 8ff8 39be 22e0 0d3e 2898 e4bc
00000310: cfda 57be d7e0 bcbb 85e3 7cbe ac66 d4be
00000320: 39ab 47be ab4f e33d b835 57be 7a77 93bc
00000330: 836b adbb 58e5 eabd 40f1 6bbe 0751 2bbe
00000340: ab9c 1dbe f3a7 593e 941e 053d 3850 213d
00000350: d044 b4bd bf8f 42be b4b8 f5bd 5dc0 adbe
00000360: 90d7 d2bd 7992 38bc 08ef 81bc c7d6 053d
00000370: c734 14bc a3bc 7dbd cab1 f33d 25ce bc3d
00000380: 6925 66be dcdb 2bbd cfb8 5abe 2bf1 39bd
00000390: 7fc4 52bd 4b5a 513d 323b 93bd 7a89 f13d
000003a0: 69db c538 b5e3 ac3c 4453 383e 39a2 05bd
000003b0: bc6d e03d 9020 0fbe 8a23 13be d8a5 1bbd
000003c0: 1075 57be a4d4 0ebd acc1 183e 14ac dd3d
000003d0: a826 be3d 1d8a 853d d810 abbd 07d8 e6bb
000003e0: aadf 583c fdd1 51bd c311 563d f206 803d
000003f0: 600c 94bb c1c1 283e 97bf 59be ceb6 7a3d
0.16091257 0.14669767 -0.04200062 0.24587986 0.12903911 0.01634608 -0.106873915 -0.13592856
0.056664042 -0.27124786 -0.11079062 0.34650165 0.070213355 -0.039477244 0.027497293 -0.050814312
0.09158477 -0.29720527 0.1811101 0.13462074 -0.23835458 0.14526404 0.077841766 -0.12878121
-0.32224646 -0.0030214223 0.13310507 0.120234884 0.010215211 -0.34881073 -0.14417776 0.09835454
-0.08307135 -0.09580792 0.061686013 0.13516921 -0.061036244 -0.0063755973 0.09052585 0.036811225
-0.019860186 0.07621231 0.090341836 -0.19352514 0.22289601 -0.4025653 -0.08541531 0.032322265
-0.056274347 0.2762476 -0.053346265 -0.23785084 0.08983196 -0.021165796 -0.11156338 0.254004
0.097948514 -0.080711946 -0.2948882 0.19250286 0.05846333 -0.1190608 -0.009432193 0.081980646
0.0019892373 -0.030377 -0.053548876 -0.06925554 0.040516943 -0.01604532 -0.058990285 -0.4978715
0.0068355226 -0.098319024 -0.10783168 -0.060743745 0.031645056 0.13738325 -0.1582576 0.038779274
-0.18129225 -0.048263256 -0.0005126456 0.10241926 -0.010922569 -0.2398653 0.18332528 0.17502244
-0.097391486 -0.17274006 0.28619888 -0.1568941 -0.1943648 -0.28045812 -0.21831067 -0.013560102
0.043811474 0.11130232 -0.1376554 -0.46449563 -0.12394491 -0.077243246 -0.017998619 -0.3451291
0.1264586 -0.0077678696 -0.42792872 -0.08573537 0.1543034 -0.0028774014 0.053314257 -0.4366681
-0.021114066 -0.17785528 -0.17112266 -0.26273185 0.030090272 -0.14959179 0.079838134 0.050428156
0.2443783 -0.054838136 -0.22125797 -0.25848213 0.278595 -0.037401527 0.04430261 -0.07351127
-0.31273368 0.0400008 0.1923695 -0.29504645 -0.2223864 -0.23625189 -0.36741397 0.10325703
-0.23586649 -0.24572997 0.24046107 0.18683155 0.23414484 -0.16934246 0.16358975 0.038771555
0.14399476 0.20203643 -0.20534748 0.003304514 0.06656119 0.064800516 -0.13916601 -0.70620114
-0.124463655 0.05132087 -0.072620906 -0.1064503 -0.025269486 -0.033829384 0.17402326 0.20002991
-0.23382281 -0.3084119 -0.1769787 -0.2527433 -0.20037389 0.20397347 -0.03248355 0.09288108
-0.098518685 -0.017851563 0.2317015 0.24916999 0.11401296 0.30572078 -0.012902566 -0.010090703
-0.15897411 -0.0024464524 0.052319273 0.09836335 0.3825221 0.19310953 -0.15542889 0.23286964
0.1481523 0.026074305 -0.08304329 0.078656085 0.38842678 0.21371596 -0.08336704 0.38115445
-0.13858218 -0.18161224 0.13855031 -0.027904585 -0.21079563 -0.0057641077 -0.24696167 -0.41484582
-0.1949891 0.1109918 -0.21016586 -0.018001307 -0.0052923574 -0.11469525 -0.23041248 -0.16730128
-0.15391795 0.21255474 0.032499865 0.039383143 -0.088021874 -0.19000147 -0.1199812 -0.33935824
-0.102950215 -0.011265391 -0.01586105 0.03267553 -0.009045786 -0.061947476 0.11899145 0.092190064
-0.22475208 -0.04195772 -0.21359561 -0.04539601 -0.051456925 0.0511115 -0.07189025 0.117938
9.43456e-05 0.021104673 0.18000513 -0.03262541 0.1095843 -0.13977265 -0.14369026 -0.037999958
-0.2104075 -0.03487076 0.1491763 0.10823837 0.09284717 0.06520484 -0.08352822 -0.0070447954
0.013236919 -0.05122565 0.052263033 0.06251325 -0.004518077 0.16480161 -0.21264492 0.061209492

network_body._body_endoder.seq_layers.2.bias f4 [64]
00000000: 5e95 a9be f0bc 4bbd 2574 76bd f32d 29be
00000010: 787c e33d f04d 34be 7861 043d aeda 00bd
00000020: 35e1 19bc 79d2 123e 3499 4bbe 33d9 76bd
00000030: 55b8 503e 2159 a63e 000d d03d 13fd e63d
00000040: 4cab febd 1dff c3bd 73d5 8a3e f501 90be
00000050: fbce 6fbd 356e 24bd f292 a5bb da6a d73d
00000060: 3125 153e 9f5a a8bd ce9e 26be dbbb e6bc
00000070: d659 29be 3313 81bc 4e59 30be 0450 423e
00000080: b49a 8f3d 2fcc c7be f646 3abd 16ca 43be
00000090: a91d 563e c653 c53e 0f4c a33d 1ab7 a23d
000000a0: 1161 2e3e 631c b33e 6e15 163e 1415 dc3d
000000b0: 67a1 b0bd 8734 383d d394 dcbb 24e9 0ebd
000000c0: da25 b5bd 7978 51bd 2db6 5b3e 7196 9abe
000000d0: a7c8 9e3c db3d 913d 3734 8f3d 4a49 89bd
000000e0: 1423 07be 7753 d53e c353 3c3c 51b9 293d
000000f0: 2dc8 5e3e 05ce 9e3e b429 86bd 696d d63d
-0.3312177 -0.04974073 -0.060169358 -0.16521434 0.11107725 -0.17607856 0.032319516 -0.03145855
-0.009392072 0.14338101 -0.19882661 -0.06026573 0.20382817 0.32489875 0.101587296 0.11278739
-0.12435016 -0.09570143 0.27115974 -0.28126493 -0.058547 -0.040144164 -0.0050529176 0.10518427
0.14564969 -0.082204096 -0.16271517 -0.028165748 -0.16538176 -0.015756225 -0.17221567 0.18975836
0.07011929 -0.39022967 -0.04547783 -0.19120058 0.20909752 0.38540477 0.079734914 0.0794508
0.17029215 0.34982595 0.14656612 0.10746208 -0.08624535 0.04497197 -0.0067316084 -0.03489031
-0.0884511 -0.051140282 0.21456213 -0.30192903 0.019382788 0.07091876 0.06992381 -0.06703432
-0.13196975 0.4166524 0.01149458 0.041436497 0.21756049 0.31016555 -0.06550923 0.10470087

action_model._discrete_distribution.branches.0.weight f4 [4, 32]
00000000: 578f 6c3e 5b52 b73e 1f19 3ebf 4015 1c3f
00000010: db5f 0e3f 19d9 cb3d 1cec 23bf e0f7 51bf
00000020: 488d 083d 97a7 77be 1e87 7c40 a667 c6be
00000030: 46bb cfbe 7f57 04bf 6852 d23e edc6 9ebf
00000040: b3bb 0cc0 c334 763e 158f 88bf f955 123e
00000050: 4c26 263e 77ae 4abe 4b22 72be 63b8 ddbf
00000060: 378e 563f 147f 88bf 520e 9b3e 2365 f43e
00000070: eef0 ab3d 8af2 a93e e5f4 11be a614 64be
00000080: 314e d13e 7b69 0ebe 6acc acbe d7a1 4abe
00000090: 8b7d ef3e c885 86bd c4ba 873f efe7 60be
000000a0: 9f84 50bf d985 0ebf 4dbe d0bf 8d24 24bf
000000b0: 497b 9fbd addc b73e 4473 073e cc10 493f
000000c0: 04b2 8f3f fda4 4fbd fa60 e23e 80c6 17be
000000d0: dbf0 103f 55b7 2abe e128 e33e b336 f53e
000000e0: 7d0b da3e 6a67 523f d7c6 143d c30d 11bd
000000f0: 017d 9cbd d985 cfbe fc0b 0fbe 8a2e 8dbf
00000100: 6629 07c0 1178 5a3c e7f7 e93e 6e54 c63e
00000110: 937b efbf 5483 25be 3b7f 05bf 26fe 0340
00000120: 089d 523f ecb3 bc3d 54f8 14c0 db6c eebd
00000130: 3632 293f 635b 793e e947 94bf 95ec 50bf
00000140: ce7e a1bf 19a4 55bf a810 e33f 0e5c 553f
00000150: e7de 3c3f 5d58 1fbf 5c4e 25bf 1316 8a3f
00000160: a6b8 2bbf 354e e23d b03f 5b3d 9482 623c
00000170: e125 6d3e 52ea f63d 147e 4bbe 1e84 1440
00000180: bf6a b5bd cb76 62be bcce ca3e 63c4 4fbe
00000190: 845f e8be 447e 363d 2e8b bdbe 41c0 d03e
000001a0: 6087 cc3e 114c 3a3f 4767 88bf 6a0b 433e
000001b0: a09a 8b3e ba67 243e 3e84 793d 9b9f 6e3f
000001c0: b2d5 b63f 4a5b 3b3e e16d fb3d 5306 8ebe
000001d0: 848b 96bf 2595 ed3e c4c1 3b3e 907a d53e
000001e0: d4ff 87bf d45e 833e a633 80be 281a 0dbf
000001f0: 07db a7be 9762 4c3d 3d94 dd3e 2023 4d3d
0.23101555 0.3580502 -0.7425708 0.60969925 0.55615014 0.099535175 -0.6403215 -0.8201885
0.03333786 -0.24185024 3.945747 -0.38750952 -0.40572566 -0.5169601 0.41078496 -1.2404457
-2.1989563 0.24043564 -1.0668665 0.14290608 0.16225547 -0.19793116 -0.23645894 -1.7321895
0.8381075 -1.0663781 0.30284363 0.4773341 0.08395563 0.33192855 -0.14253576 -0.22273502
0.40879968 -0.13907425 -0.33749706 -0.197883 0.4677547 -0.065684855 1.0603871 -0.21963476
-0.81452364 -0.55672985 -1.6308075 -0.6411827 -0.07787187 0.3591055 0.13227564 0.78541255
1.1226201 -0.050694454 0.44214612 -0.14821815 0.56617516 -0.16671498 0.44367126 0.47893295
0.4258689 0.8218905 0.03632244 -0.035413515 -0.0764103 -0.40531805 -0.13969415 -1.1029828
-2.1119018 0.01333429 0.45696947 0.3873629 -1.8709587 -0.16163379 -0.52147263 2.062387
0.8227086 0.09214005 -2.3276567 -0.11641856 0.6609224 0.24351268 -1.1584445 -0.81610996
-1.2616823 -0.8345352 1.7739458 0.8334359 0.7377762 -0.62244207 -0.6457269 1.0787987
-0.67078626 0.11050073 0.053527534 0.013825078 0.23158981 0.12056412 -0.19872314 2.3205638
-0.08858251 -0.22115628 0.3961085 -0.2028976 -0.45385373 0.04455401 -0.37020248 0.40771678
0.39947033 0.7277232 -1.0656518 0.19047323 0.27266407 0.16055194 0.06091713 0.9321229
1.4283965 0.18296543 0.12276817 -0.277392 -1.1761327 0.4640285 0.18335634 0.4169507
-1.0624948 0.25658286 -0.25039405 -0.55118036 -0.32784292 0.04989871 0.4327716 0.050082326

action_model._discrete_distribution.branches.0.bias f4 [4]
00000000: 9351 8240 e089 f8bf f289 3bc0 6303 1bbf
4.072458 -1.9417076 -2.9302945 -0.6055204

onnx::LSTM_98 f4 [1, 128, 64]
00000000: 2176 57be d092 8fbc 090f c33d 75eb f3bd
00000010: e758 2d3e bf0d 513e 64d6 b63d e606 fa3d
00000020: df5d bdbd d721 f8bd 9fe8 23bd 798a 7e3d
00000030: 69a1 0dbe 5564 053e 38c2 fabd 5947 f93d
00000040: 0bdc a83e 51c9 83bd ebc5 39be 4c63 153e
00000050: 8377 0b3f 2c52 2f3e 4a7a 70bd aec7 a73e
00000060: dc48 313d 9b3a bb3d 9eaa ae3d 4d6b c2bd
00000070: 483d bc3d cb45 5ebe 8ceb 2f3f a65f 0a3f
00000080: 2748 373e fc07 8fbe 0f73 75bd 3e20 383c
00000090: 0777 a5bc 35ff 293e 860f 923d fb4d 603e
000000a0: a6f2 9e3d 98a2 dcbc a33e 8b3e 57e3 c5bc
000000b0: 5f2c f03d f8b2 293e 9cc6 483e 6a9a 533e
000000c0: dfc0 28bb 7969 8b3e cdb3 7bbd 7542 04be
000000d0: 5f1e 3f3c 77cc f13d ae16 be3d 27aa 683e
000000e0: c496 103e 4258 c6bd 7221 ddbd b40f 0c3e
000000f0: ba1e 723e 4b72 5e3d ad29 a03e 1603 b13e
00000100: 8fbf cc3e 87be 9f3e 1ece 353e 61cf 3a3e
00000110: 470c 013e 8eac e13d 8d56 25bd 6178 9dbe
00000120: 6647 213d f50d e63e 238e cebd 426d 6c3d
00000130: 8434 103e e995 0dbe e9d6 783d c4a1 58be
00000140: df49 a03e 8c95 6cbc 9e04 0b3e c6bb 88be
00000150: 3629 50be e3ae 753e 0491 873d 6761 ee3e
00000160: 117d 05bf dd8f 973d 11d2 e53d 8120 bebc
00000170: 78a3 e43c 843d 8dbe 0bb8 9dbe 6bb9 9abe
00000180: b550 88bd e4e8 193d 3c40 803b 5410 703e
00000190: c329 623d 17be 343e b983 04be c4c0 99be
000001a0: c693 17be 9317 5fbd e6cb f23d 75ca 853d
000001b0: 23a9 64be fdee 063d 4d38 6cbe 43d4 20bd
000001c0: 8ea2 b3be 914f 683e ed29 39be d74d 543e
000001d0: 64b7 89be b192 953d e708 69be 47e7 9fbb
000001e0: 8d12 c9bd a357 653e 9e97 13be d6cc 073e
000001f0: 4975 293d f835 47bd 2c53 fcbd f492 08be
00000200: ed63 ee3c 919d 84be 7bc9 d73e 853d bb3e
00000210: 4356 083e fdda 6f3e d077 b3bd b9c3 663e
00000220: 491d 5f3e 9513 7d3d 60b4 c2be f33b 2b3d
00000230: c261 003e 52a6 2e3e 6a5c a73e f1c2 ccbd
00000240: a29a c13d 7662 853d 6995 a33e 2f77 723d
00000250: dd98 c93e 2885 dc3d 5337 40bd 9c47 e13e
00000260: 30e0 6abd ff7a e73e e586 b83d f27a e6be
00000270: 607f 11be c44c 853d 6e48 0b3d 36dc 4b3e
00000280: 0c3b 833d 67c8 f23e bc04 e63e 9f21 123e
00000290: 46fb 193e 671b 93be c644 13be a619 673e
000002a0: eda2 8e3e 52e9 a6be 3e7f 6a3e a160 5abd
000002b0: 3e1e b3bd 0ea0 fa3d 2464 a93e 80d0 cdbc
000002c0: dc0a c0bd 0f4b 903e 01b4 debd 8ea9 d83e
000002d0: 8086 10be 0201 62ba 7fec 903e 0338 143e
000002e0: ce2b 143e 1c88 d9bd e19f ff3d 4fd6 823d
000002f0: a5d8 ca3d 9836 62bd c985 cb3e 37ed c73e
00000300: 71d5 febb cb90 1bbe 9e09 48be b18a 23bd
00000310: 16f6 2cbe 2e7f 55bc e4ff 38be 4060 513e
00000320: 12cd 5e3e f2ed 053e 6b3b cf3e f57a 4ebd
00000330: 244b 543e 309d 33be c16b aebe c1db 14bd
00000340: ca92 aabe ffae 73be d84d 2f3e 2661 4a3e
00000350: 4a10 a43d e592 973d b5e1 fe3d 7563 a63e
00000360: e3a4 a33e 02a6 353d 72a2 a7be 7e3f 74be
00000370: 3b80 5dbc 767f 123f 2b43 883c b961 c83e
00000380: 1077 0b3e 027e 1ebe 4af7 d63e e9ce 2a3d
00000390: ffe3 5dbc 7a44 4f3d 615e 923d fe1f d53d
000003a0: bdf4 283e ac9b 553e 29d2 51bd 81c0 9e3d
000003b0: f059 013d 52a7 7bbd d94c e63d 56cc d0bc
000003c0: 0bd3 05bc 951a bdbc c949 113e 6c2b 91be
000003d0: 5075 1cbe cdfd 563e ff5a 253e 90a5 17bd
000003e0: 2fcd c83d 7dbd ab3e 1bab 29bd 4816 ee3c
000003f0: fb74 4c3e b77f ae3d 0140 8f3d 74c0 37be
-0.21041156 -0.01752606 0.09524352 -0.11910144 0.16928445 0.204154 0.089276105 0.12208347
-0.0924642 -0.121158294 -0.040016767 0.062143777 -0.13831104 0.13026555 -0.122440755 0.121718116
0.3298038 -0.064348824 -0.18141906 0.1458866 0.54479235 0.1712119 -0.058710374 0.3276953
0.043282375 0.091420375 0.085286364 -0.09493122 0.09191376 -0.21706311 0.6871879 0.540522
0.17898618 -0.2793578 -0.05992418 0.011238156 -0.020198358 0.1660126 0.07131867 0.21904747
0.07761125 -0.026933 0.27196226 -0.024156256 0.11727213 0.16572177 0.19607013 0.20664373
-0.0025749726 0.27228907 -0.06145077 -0.12915976 0.011664956 0.11806577 0.092816696 0.22721158
0.14120013 -0.096848026 -0.10797395 0.13677865 0.23644534 0.054308217 0.31281796 0.34572667
0.39989898 0.31200048 0.17754409 0.18243171 0.1260234 0.1101924 -0.040365744 -0.30755904
0.03937473 0.44932523 -0.10085704 0.057721384 0.14082533 -0.13826717 0.06075183 -0.21155459
0.3130636 -0.014439952 0.1357598 -0.2670576 -0.2032822 0.23992495 0.066194564 0.46558687
-0.5214396 0.074004866 0.112217076 -0.023208858 0.02790998 -0.27585995 -0.30804476 -0.30219588
-0.06656019 0.037575617 0.0039139073 0.23443729 0.05521561 0.17650639 -0.12940873 -0.3002988
-0.14802465 -0.05446584 0.11855297 0.06532756 -0.22330146 0.03294276 -0.23068352 -0.03926493
-0.35084957 0.22686602 -0.180824 0.20732819 -0.26897728 0.0730337 -0.22757302 -0.0048798653
-0.098179914 0.22396712 -0.14413306 0.13261732 0.041371617 -0.048635453 -0.12320551 -0.13337308
0.029100383 -0.25901464 0.42145905 0.36570373 0.13314156 0.23423381 -0.08763087 0.225356
0.21788515 0.061786253 -0.3802824 0.04180522 0.12537292 0.17055634 0.32687694 -0.099981196
0.09453322 0.065129206 0.31949928 0.059195694 0.39374438 0.10767585 -0.04692776 0.43999946
-0.057342708 0.45211026 0.09010104 -0.45015675 -0.14208746 0.065087825 0.03400462 0.19908223
0.06407747 0.4741852 0.44925487 0.14270638 0.1503726 -0.28731844 -0.14381704 0.22568378
0.27858678 -0.32599884 0.22900102 -0.05331481 -0.087460026 0.12237559 0.33084214 -0.025123835
-0.09377071 0.28182265 -0.10874177 0.4231686 -0.14113808 -0.0008621366 0.28305432 0.14474492
0.14469835 -0.10621664 0.12481666 0.06388532 0.09904603 -0.055227846 0.39750507 0.39048168
-0.007776909 -0.15191953 -0.19534919 -0.03992719 -0.1689075 -0.01303081 -0.18066365 0.20446873
0.21757916 0.1307905 0.4047502 -0.05041023 0.20731789 -0.17540431 -0.34066585 -0.036342386
-0.33315116 -0.23797224 0.17119539 0.19763622 0.080109194 0.07401065 0.12445394 0.32497755
0.31961736 0.04434777 -0.32741123 -0.23852345 -0.013519342 0.5722574 0.01663359 0.39137056
0.13619637 -0.15477756 0.41985542 0.04170123 -0.013543128 0.050602414 0.071469076 0.10406493
0.1649961 0.20860165 -0.051225815 0.07751561 0.03157991 -0.061438866 0.11245126 -0.02548806
-0.008167992 -0.023083964 0.14188303 -0.2835344 -0.15279126 0.20995255 0.16147994 -0.037023127
0.09804761 0.33543006 -0.041422945 0.029063359 0.199665 0.085204534 0.0699463 -0.17944509

onnx::LSTM_99 f4 [1, 128, 32]
00000000: e94d f33d 2757 833d e0d2 0cbe da34 69be
00000010: 76cc d63e 9b9c a93e 1866 0ebe 37e6 d8be
00000020: b45b 50be a9d7 ad3e 31d6 0ebd 28fc f33c
00000030: 8ee0 813b 531d 8abe 8550 8fbd 991f 78be
00000040: 92c1 283d a385 133e 39c7 943e 8af4 13bf
00000050: 85c6 52bc b3ff c5be 89f1 1abe 7497 aabb
00000060: 91ab d8bc 350e 90be 1843 b23d 833b 86be
00000070: 540b f43d dd39 b23e 40a4 473e 3862 a2bd
00000080: 8570 583c c3cd 643d 593f 5cbe 7b69 11be
00000090: 64c2 b03e 54e0 9fbd 13af ad3d c3d3 57be
000000a0: 8871 17bc 6a89 643e d8b8 8f3d 1a22 173e
000000b0: 7d50 b1bd 73c3 8bbd bbf1 8c3e 7bc4 aa3e
000000c0: cb19 ac3d e440 a23e 7d45 8fbe 7f46 66be
000000d0: 6c16 a83e 71f0 87bd 10b4 b93e 50d9 d13d
000000e0: 9cbd 313c 0218 063d 7f5a 99be 1abf e3bc
000000f0: c58e 97be b180 95be 4fc4 993e 3ad1 dfbe
00000100: a31c a13e d3da 10bf 5e1f b0be 3253 223d
00000110: 1a4c babe e5ee d2bd bd34 41bd 32c4 c73e
00000120: 5a46 92bd 3221 773d c3c2 c4bc fe40 3b3d
00000130: a515 30be 2ffe 49be 3e94 7d3d cafc d93e
00000140: 3a4a 4b3e 6968 31bf 3826 d63e 2885 d2bd
00000150: 4587 5fbd f510 42be 7b2a 41be eb9c 96bc
00000160: 579b cc3e 9e31 8cbe 5c93 90be 8213 ea3e
00000170: 768d d73d f274 033d 60ec c0be 91c5 8f3d
00000180: 2a4b 033d 1d53 c43e b52f 13be 6e8a 263d
00000190: f95f 0e3e 5195 8c3e ceaf 93bd 6aa8 26be
000001a0: 6456 413c 176f 303e 8373 713e 8e3e c9be
000001b0: e5c7 403c 40d1 2ebe c504 46be f8ad 54be
000001c0: 2647 fa3d 8fc4 89bd c284 6e3e cae9 c53d
000001d0: 6abd 92be fe6e 543e 0828 f0bd 4e2d c83c
000001e0: f8bf d13e 82c0 0a3e 3c9f c83d 73ec 13be
000001f0: 3526 26bd 0507 c8bd 0219 533e 8d34 333e
00000200: 1251 173d 9da2 a23d 9405 7a3d e630 4b3e
00000210: 5b19 31bc c140 bb3d f902 ddbc 7a18 07be
00000220: a2b8 97bd 13be 833c 4155 19be 6bac 483e
00000230: d9a2 f23e f2a3 1abe 147a 6ebe 2ec4 6abe
00000240: 858d 453e 9576 fcbd 1fb4 efbd 130d 9b3e
00000250: b007 9cbe 3657 d03e 684f b23c d683 5c3d
00000260: 61ab fdbe 13cc 323e bd42 4ebd 8178 983d
00000270: 0369 983e 7b20 e63e c367 8bbe d642 093f
00000280: 361f 80be a126 36be a51a 293d 5687 ec3b
00000290: aaa3 d6bd a31f c3bd 7a40 58bd dd02 d6bd
000002a0: d6d2 893d 336c bfbe d16a fb3e 29f8 e63e
000002b0: 518c f4bb f7a4 a3be 99a3 c33e 6dc3 623e
000002c0: dc39 9b3e 255d 82be 29ee d0be 1d3b 2e3e
000002d0: 47d3 2cbe d32a 63bc 754f d33c 965e 3fbd
000002e0: 7605 7d3e a20e 96bd f0cd ed3d 1641 80bd
000002f0: cfac 69be 3efb ddbe 0d55 94be 23da 90bc
00000300: 4a92 76be e064 a53e 98bc f13e 92c2 223e
00000310: b8ee 1bbc 3ef9 043e 2553 b3be 54a3 b2be
00000320: 8da4 e83e 8073 75be 4337 c3be 1a78 413e
00000330: e9c9 80be f42a e93d 0504 c83e 8cfc 89be
00000340: dba8 a7be 69e6 c63d 91d7 f2bd a1cd c2be
00000350: 5393 81bd e786 123e f8f8 d0be 613e bdbe
00000360: 7d32 54be 03a6 573e 083e c7be 974a 1d3d
00000370: 4448 86be 2e61 cebe 63f8 0c3e dade b33e
00000380: 92e1 b83e 2697 b83d 47d0 aa3d be61 b7bd
00000390: a9a8 cf3e 6b5b 6bbd bc4e b5bd e13a 8f3d
000003a0: fbd1 06be 6d13 d73d bf62 abbe 768b 733e
000003b0: ca42 233e 769d 043f 8b6a 9e3d f0ef 383d
000003c0: f932 783e 5a74 2c3c f931 b83d e820 bbbd
000003d0: c126 25be 8fa2 69bd a426 8d3e ed3c ce3c
000003e0: 9c71 70be 8f1e 7dbd 15ef 1e3e b221 50be
000003f0: 2943 5dbd 8199 8f3e 87dd 88be c408 75bd
0.118800946 0.06413107 -0.13752317 -0.22774068 0.41952866 0.33127293 -0.13906133 -0.4236314
-0.20347482 0.33953598 -0.034872238 0.029783323 0.0039635366 -0.26975498 -0.0699778 -0.24230804
0.041200228 0.14406447 0.29058245 -0.5779501 -0.012864714 -0.38671646 -0.15131201 -0.005206043
-0.026448997 -0.2813584 0.08704203 -0.2621728 0.11916223 0.3480977 0.1949625 -0.0792889
0.0132104205 0.055860292 -0.2150854 -0.14200394 0.34523308 -0.07806459 0.084806584 -0.21076874
-0.009243377 0.22318044 0.07017678 0.14759102 -0.0865793 -0.06824388 0.27528176 0.33353028
0.08403357 0.31690133 -0.27982703 -0.2248783 0.32829607 -0.066376574 0.3627019 0.10246527
0.010848429 0.03273774 -0.29951856 -0.027801085 -0.29601112 -0.29199746 0.30032584 -0.43714315
0.3146716 -0.565839 -0.3439893 0.039630122 -0.36386186 -0.10299472 -0.047169436 0.39016873
-0.07142325 0.060334392 -0.02401865 0.04571628 -0.17195757 -0.1972587 0.061908953 0.42575675
0.19852534 -0.6929994 0.41826034 -0.10279304 -0.054572362 -0.18951781 -0.18863861 -0.018385371
0.39962265 -0.27381605 -0.28237426 0.45718008 0.105250284 0.03209395 -0.3768034 0.07020105
0.032054104 0.3834466 -0.14373668 0.04065936 0.13903798 0.2745767 -0.072112665 -0.16275182
0.011800382 0.17229877 0.2357922 -0.39305538 0.011766409 -0.1707201 -0.19337757 -0.20769489
0.12220602 -0.06726944 0.2329283 0.09663732 -0.28660136 0.20745465 -0.11726385 0.024435665
0.40966773 0.13549998 0.097959965 -0.14445667 -0.04056378 -0.09766964 0.20615008 0.17500515
0.03694255 0.07941172 0.061040476 0.19842872 -0.010809268 0.0914321 -0.026978957 -0.13192931
-0.07408263 0.016081845 -0.14973928 0.19597022 0.47389868 -0.15101603 -0.23288757 -0.22926399
0.19292267 -0.12327305 -0.11704277 0.30283412 -0.30474615 0.40691537 0.02176638 0.053836666
-0.49544814 0.1746066 -0.050356615 0.07444859 0.29767618 0.44946656 -0.272276 0.5361761
-0.25023812 -0.17788173 0.041285176 0.0072182817 -0.10480435 -0.095275186 -0.052795865 -0.10449765
0.06729667 -0.37387237 0.49104932 0.45111206 -0.007463016 -0.31961796 0.38210753 0.22144862
0.3031758 -0.2546169 -0.40806702 0.17014737 -0.16877471 -0.013865191 0.025794724 -0.046721064
0.24709114 -0.0732701 0.11611545 -0.06262414 -0.22819827 -0.43355745 -0.2897114 -0.01768214
-0.24079242 0.32303524 0.47214198 0.15894535 -0.009517364 0.12985703 -0.35024372 -0.34890234
0.45438042 -0.23969841 -0.381281 0.18893471 -0.25154045 0.11385146 0.39065567 -0.2695049
-0.32746014 0.09711916 -0.11857522 -0.38047507 -0.06326928 0.14309274 -0.40814948 -0.36961654
-0.20722385 0.21059422 -0.38914514 0.038401213 -0.2622701 -0.40308517 0.13766627 0.3513096
0.36109596 0.09013204 0.08340507 -0.0895419 0.40558365 -0.05746023 -0.08852908 0.06993652
-0.13166039 0.10501752 -0.33473775 0.23783669 0.15943447 0.51802766 0.07735165 0.045150697
0.24238195 0.010525787 0.089939065 -0.09137136 -0.16128065 -0.057039794 0.27568543 0.025175536
-0.23480839 -0.06179672 0.1552089 -0.20325354 -0.054019127 0.28046802 -0.26731512 -0.059822813

onnx::LSTM_100 f4 [1, 256]
00000000: 8bb8 ea3d 06e7 e73d ee64 27bd 6966 ec3d
00000010: 32b4 1b3c 7a46 6d3d 49db 8c3e d6e8 233e
00000020: a9ab c03e afa3 c83d 425e 8c3e 0800 123e
00000030: 1e26 8dbd ed05 903d 5b5e 513e 9cd3 4abe
00000040: 6565 6c3e 92d4 2b3e 2999 533d 4516 f93b
00000050: f946 923d 218c 373c d627 fbbd 8e48 b73d
00000060: 5328 6bbe e76a 873d 2db3 593d 8bc3 f43d
00000070: ae70 42bd 3a7c ba3c d423 553d 4bd4 8d3d
00000080: 82cf 143e a8fa a83e a58b 8d3d bb54 3abd
00000090: db99 853e a613 703e 2ef5 443e e1bf 213e
000000a0: e099 f33d b54a 913e d636 5dbe 0d91 503d
000000b0: 978f 8b3e 6984 05bd 970e b4bd 7c12 03be
000000c0: 3aaf e63e 3ebe d33e 5a0f a03d 963e c23d
000000d0: 8e17 e5bd 1208 e03c 57dd 243e 9e11 9cbe
000000e0: 19db 88be 590a 31bd 9530 913e 4182 033e
000000f0: e5ee b23e a767 f13d 30ad f43d 0587 3b3e
00000100: e3bd 8e3f d250 913f e8b1 773f 326d 853f
00000110: 54dd 833f 5592 3b3f d578 743f 677d 993f
00000120: 1bd0 833f 66f8 6b3f a5ee 773f aaf5 803f
00000130: 88d8 613f 6d9f 233f 3fc8 8d3f 2ec5 5f3f
00000140: d3f6 483f 5015 463f a544 863f f480 3b3f
00000150: a3d4 773f 3fa3 793f 3472 7a3f a8fa 7e3f
00000160: c573 5a3f ce78 353f 551a 9c3f fc43 823f
00000170: 6cb9 623f ad82 8e3f e4b5 8a3f 0a93 8a3f
00000180: cd54 043e 55c1 973e ffd4 ac3d e88d 1abe
00000190: 81ba bcbc 06c6 2f3e 5f73 7a3e bf08 52bd
000001a0: 530b 0cbe 55bd 373e b67f 8dbe fc49 8abd
000001b0: 3dfa 5db9 2eb1 0d3d 2a0d 87bd 15b9 48be
000001c0: d7bd 723e c799 0d3e f229 e5bd f4c0 6a3e
000001d0: b24f d9bc 5b50 b03d a0f3 5dbd d2f1 a83e
000001e0: c134 4e3d 43b0 113e ba20 663d f9d6 51bc
000001f0: ce4e 3bbe 9a0b 583e 4b3d 42bb 7729 8f3b
00000200: 8bb8 ea3d 06e7 e73d ee64 27bd 6966 ec3d
00000210: 32b4 1b3c 7a46 6d3d 49db 8c3e d6e8 233e
00000220: a9ab c03e afa3 c83d 425e 8c3e 0800 123e
00000230: 1e26 8dbd ed05 903d 5b5e 513e 9cd3 4abe
00000240: 6565 6c3e 92d4 2b3e 2999 533d 4516 f93b
00000250: f946 923d 218c 373c d627 fbbd 8e48 b73d
00000260: 5328 6bbe e76a 873d 2db3 593d 8bc3 f43d
00000270: ae70 42bd 3a7c ba3c d423 553d 4bd4 8d3d
00000280: 82cf 143e a8fa a83e a58b 8d3d bb54 3abd
00000290: db99 853e a613 703e 2ef5 443e e1bf 213e
000002a0: e099 f33d b54a 913e d636 5dbe 0d91 503d
000002b0: 978f 8b3e 6984 05bd 970e b4bd 7c12 03be
000002c0: 3aaf e63e 3ebe d33e 5a0f a03d 963e c23d
000002d0: 8e17 e5bd 1208 e03c 57dd 243e 9e11 9cbe
000002e0: 19db 88be 590a 31bd 9530 913e 4182 033e
000002f0: e5ee b23e a767 f13d 30ad f43d 0587 3b3e
00000300: e3bd 8e3f d250 913f e8b1 773f 326d 853f
00000310: 54dd 833f 5592 3b3f d578 743f 677d 993f
00000320: 1bd0 833f 66f8 6b3f a5ee 773f aaf5 803f
00000330: 88d8 613f 6d9f 233f 3fc8 8d3f 2ec5 5f3f
00000340: d3f6 483f 5015 463f a544 863f f480 3b3f
00000350: a3d4 773f 3fa3 793f 3472 7a3f a8fa 7e3f
00000360: c573 5a3f ce78 353f 551a 9c3f fc43 823f
00000370: 6cb9 623f ad82 8e3f e4b5 8a3f 0a93 8a3f
00000380: cd54 043e 55c1 973e ffd4 ac3d e88d 1abe
00000390: 81ba bcbc 06c6 2f3e 5f73 7a3e bf08 52bd
000003a0: 530b 0cbe 55bd 373e b67f 8dbe fc49 8abd
000003b0: 3dfa 5db9 2eb1 0d3d 2a0d 87bd 15b9 48be
000003c0: d7bd 723e c799 0d3e f229 e5bd f4c0 6a3e
000003d0: b24f d9bc 5b50 b03d a0f3 5dbd d2f1 a83e
000003e0: c134 4e3d 43b0 113e ba20 663d f9d6 51bc
000003f0: ce4e 3bbe 9a0b 583e 4b3d 42bb 7729 8f3b
0.1146098 0.11323361 -0.04086774 0.11542971 0.009503411 0.05792854 0.2751105 0.16006789
0.37630966 0.09796845 0.27415663 0.14257824 -0.06892036 0.0703238 0.2044615 -0.19807285
0.23085554 0.16780308 0.051659737 0.0076015317 0.07142443 0.011202843 -0.122634575 0.089493856
-0.22964601 0.06612187 0.05314939 0.11951359 -0.04747074 0.022764314 0.05203612 0.06925257
0.14532283 0.33003736 0.06911401 -0.04549096 0.26093945 0.23444995 0.19234154 0.15795852
0.11894584 0.2837731 -0.2160295 0.05091958 0.27257988 -0.03259698 -0.08791845 -0.1280002
0.45055562 0.4135608 0.07815428 0.094845936 -0.11186133 0.027347598 0.1610006 -0.3048219
-0.26729658 -0.04322276 0.28357378 0.12842657 0.34947887 0.11787348 0.119470954 0.18313225
1.1151699 1.1352789 0.9675584 1.0423949 1.0301919 0.7327016 0.95496875 1.1991395
1.0297884 0.921759 0.9684852 1.0074971 0.88221025 0.6391514 1.1076735 0.8741025
0.78501624 0.7737627 1.0489699 0.7324364 0.9680883 0.9751472 0.9783051 0.9960122
0.853329 0.7088746 1.2195536 1.0176997 0.8856418 1.1133629 1.0836759 1.0826123
0.12922974 0.29639688 0.08439063 -0.15093195 -0.02303815 0.17165384 0.24458073 -0.051277872
-0.13676195 0.17943318 -0.27636498 -0.06752393 -0.00021169423 0.0345928 -0.06594308 -0.19601853
0.2370523 0.13828193 -0.11189641 0.22925168 -0.02652726 0.086090766 -0.054187417 0.32996994
0.05034328 0.14227395 0.056183554 -0.012807601 -0.1829178 0.21098176 -0.0029638584 0.0043689567
0.1146098 0.11323361 -0.04086774 0.11542971 0.009503411 0.05792854 0.2751105 0.16006789
0.37630966 0.09796845 0.27415663 0.14257824 -0.06892036 0.0703238 0.2044615 -0.19807285
0.23085554 0.16780308 0.051659737 0.0076015317 0.07142443 0.011202843 -0.122634575 0.089493856
-0.22964601 0.06612187 0.05314939 0.11951359 -0.04747074 0.022764314 0.05203612 0.06925257
0.14532283 0.33003736 0.06911401 -0.04549096 0.26093945 0.23444995 0.19234154 0.15795852
0.11894584 0.2837731 -0.2160295 0.05091958 0.27257988 -0.03259698 -0.08791845 -0.1280002
0.45055562 0.4135608 0.07815428 0.094845936 -0.11186133 0.027347598 0.1610006 -0.3048219
-0.26729658 -0.04322276 0.28357378 0.12842657 0.34947887 0.11787348 0.119470954 0.18313225
1.1151699 1.1352789 0.9675584 1.0423949 1.0301919 0.7327016 0.95496875 1.1991395
1.0297884 0.921759 0.9684852 1.0074971 0.88221025 0.6391514 1.1076735 0.8741025
0.78501624 0.7737627 1.0489699 0.7324364 0.9680883 0.9751472 0.9783051 0.9960122
0.853329 0.7088746 1.2195536 1.0176997 0.8856418 1.1133629 1.0836759 1.0826123
0.12922974 0.29639688 0.08439063 -0.15093195 -0.02303815 0.17165384 0.24458073 -0.051277872
-0.13676195 0.17943318 -0.27636498 -0.06752393 -0.00021169423 0.0345928 -0.06594308 -0.19601853
0.2370523 0.13828193 -0.11189641 0.22925168 -0.02652726 0.086090766 -0.054187417 0.32996994
0.05034328 0.14227395 0.056183554 -0.012807601 -0.1829178 0.21098176 -0.0029638584 0.0043689567
