results/FullyCont4/bachelor/bachelor-34999967.onnx (onnx, 872319 bytes, 12 tensors)

network_body._body_endoder.seq_layers.0.weight f4 [256, 7]
0	0xbe8f3291	-0.27968267
1	0xbf4dd548	-0.80403566
2	0x3e045b8e	0.1292555
3	0xbeadc01e	-0.33935636
4	0xbef3413e	-0.47510713
5	0x3e0cae67	0.13738404
6	0xbe86607a	-0.2624548
7	0xbe78db35	-0.24302371
8	0xbdf3af63	-0.11898687
9	0xbf08e6c7	-0.5347714
10	0xbef74358	-0.48293567
11	0xbf21f5f7	-0.6326594
12	0xbf394f67	-0.72386783
13	0xbf01590f	-0.5052652
14	0x3cd985df	0.026553093
15	0x3f7978ce	0.9744996
16	0x3f192ff1	0.5983878
17	0x3e128da5	0.14311846
18	0x3f419a51	0.75626093
19	0xbf31c737	-0.694446
20	0x3e59251e	0.21205565
21	0x3ded62c3	0.11591103
22	0x3ebcd22a	0.36879092
23	0x3e58e39c	0.21180576
24	0x3e14b4b1	0.14522053
25	0xbe6dc966	-0.23221359
26	0x3e131783	0.14364438
27	0x3b450b9d	0.0030066737
28	0x3eb7553f	0.35807225
29	0x3ed1ac40	0.4095173
30	0x3f197488	0.5994344
31	0xbea311bb	-0.31849465
32	0x3e3c3f85	0.18383606
33	0x3e121e40	0.14269352
34	0xbe6a6161	-0.2288871
35	0xbec648ef	-0.3872752
36	0xbcfff190	-0.031243116
37	0x3c49bf4b	0.012313674
38	0x3db55da3	0.088557504
39	0x3cbcdcea	0.023054559
40	0xbee52c0d	-0.4476017
41	0xbca886d4	-0.020572104
42	0xbe8831f4	-0.2660061
43	0xbd60b3ef	-0.054859098
44	0x3f297002	0.66186535
45	0xbef96370	-0.48708677
46	0xbf324405	-0.6963504
47	0x3d9ea338	0.07745975
48	0xbf09fbad	-0.5389965
49	0x3be9d4e7	0.0071359756
50	0x3ed7f428	0.42178464
51	0x3d133c46	0.035946153
52	0xbe05d475	-0.13069327
53	0x3e2ef918	0.17087209
54	0xbd481af6	-0.048853837
55	0xbe41c670	-0.18923354
56	0xbebd6804	-0.3699342
57	0x3f0ded82	0.55440533
58	0x3e60f214	0.21967345
59	0xbed2d43a	-0.4117754
60	0x3d294699	0.041327093
61	0x3e2759fb	0.16342919
62	0x3ecd996e	0.4015612
63	0xbed0dbf9	-0.40792826
64	0xbed412dd	-0.41420642
65	0x3d9239d9	0.0713994
66	0x3ed427c8	0.414366
67	0xbef889f0	-0.48542738
68	0xbf675a6d	-0.90372354
69	0xbf047cb6	-0.51752794
70	0xbf3d1008	-0.73852587
71	0x3eb92f51	0.36168912
72	0xbf1bd7a9	-0.60875946
73	0x3ea9a3bb	0.3313273
74	0xbd310cd7	-0.043225136
75	0x3e60f10d	0.21966954
76	0x3f2af25a	0.6677605
77	0xbf2a8f42	-0.66624844
78	0x3ed89688	0.42302346
79	0x3d8d488c	0.06898603
80	0xbf0f9f56	-0.561025
81	0xbf18a27a	-0.5962292
82	0xbe7026d8	-0.23452318
83	0xbf03fc00	-0.51556396
84	0x3f64e4f0	0.8941183
85	0x3e8f1454	0.27945197
86	0xbe102bda	-0.14079228
87	0xbe2a161e	-0.1661
88	0xbed6280c	-0.41827428
89	0x3f1afea7	0.6054482
90	0x3ef433da	0.4769581
91	0xbdd0028f	-0.10156738
92	0xbebe786e	-0.37201256
93	0xbe5f41b8	-0.21802413
94	0xbeca98e3	-0.39569768
95	0xbbc442b4	-0.005989397
96	0xbdcf1748	-0.101118624
97	0xbe6559eb	-0.22397582
98	0xbe364e7b	-0.17803375
99	0xbe2b88a4	-0.16751343
100	0xbea5eb18	-0.32405925
101	0xbee1a9b6	-0.44074792
102	0x3eafd912	0.343453
103	0xbe1079ad	-0.14108916
104	0xbf4b4369	-0.79399735
105	0xbda59850	-0.08085692
106	0xbefb3690	-0.49065065
107	0xbcc58a8f	-0.024113921
108	0xbe27ecad	-0.16398878
109	0x3ce50066	0.027954292
110	0x3e924ae3	0.2857276
111	0xbebe86ff	-0.3721237
112	0x3ea0fa13	0.3144079
113	0x3e35a873	0.1774004
114	0x3ea4657e	0.32108682
115	0x3e3a1d38	0.18175209
116	0xbeed082b	-0.46295294
117	0xbd16cdb7	-0.03681728
118	0xbf19192e	-0.59804046
119	0xbdf4add0	-0.119472146
120	0xbf468a8f	-0.77555174
121	0x3eeb4d98	0.45957637
122	0x3eb7b3d5	0.35879388
123	0x3f14fa72	0.5819465
124	0x3ef4f871	0.47845796
125	0xbef18dfa	-0.47178632
126	0x3e85bc3d	0.26120177
127	0xbf6b8de4	-0.9201338
128	0xbe6cb524	-0.23115975
129	0x3cd2fe1a	0.02575593
130	0xbe0daa69	-0.13834538
131	0x3ed9cc1f	0.42538545
132	0x3eb9c1c4	0.36280644
133	0x3d167a13	0.036737513
134	0xbf54419b	-0.82912606
135	0xbdc5cb04	-0.09657863
136	0x3e16ff79	0.14745893
137	0xbd0fb87a	-0.03508804
138	0xbe172aed	-0.14762469
139	0xbd55ceaf	-0.052199062
140	0xbe1fe344	-0.15614039
141	0x3ec30086	0.38086337
142	0xbef001a0	-0.4687624
143	0x3f3c59c6	0.73574483
144	0x3b334626	0.0027355044
145	0x3d5d2623	0.053991448
146	0xbf188145	-0.5957225
147	0xbd900f6e	-0.07034193
148	0xbf214226	-0.6299156
149	0xbee97d48	-0.45603395
150	0x3e51f0ce	0.20502016
151	0xbf52addf	-0.82296556
152	0xbdbbbb06	-0.09166531
153	0xbf4a40a1	-0.79004866
154	0x3c8be8ef	0.017078845
155	0xbd83ebf4	-0.06441489
156	0xbde833ca	-0.11338003
157	0x3e126d0e	0.14299414
158	0x3eb6aa71	0.3567691
159	0xbd55005a	-0.05200229
160	0xbe91ddc4	-0.28489506
161	0x3e82ec49	0.25570896
162	0x3f037c38	0.5136142
163	0x3ea7cb69	0.32772377
164	0xbdc5fc0f	-0.09667217
165	0xbe660d00	-0.22465897
166	0x3f45e356	0.7730001
167	0x3f1350ae	0.5754498
168	0x3f5aa45d	0.8540705
169	0x3ed6586c	0.41864336
170	0xbdee7938	-0.116442144
171	0x3ef0f08e	0.4705853
172	0x3d136d31	0.035992805
173	0xbe0796af	-0.13241075
174	0x3f565d12	0.83735764
175	0x3e5e9594	0.21736747
176	0x3d7fd55c	0.062459335
177	0x3eef37af	0.4672217
178	0xbec14c86	-0.37753695
179	0xbe11d79b	-0.14242403
180	0xbef109ce	-0.47077793
181	0xbea1fa84	-0.3163644
182	0xbd4599d2	-0.048242398
183	0x3e9098ab	0.28241476
184	0x3e243212	0.16034725
185	0xbe8e9ccc	-0.27854002
186	0x3eaeb07a	0.34119016
187	0xbf47b496	-0.7800993
188	0x3f1c1ebf	0.60984415
189	0x3f2663e4	0.6499617
190	0x3f29d8df	0.66346544
191	0xbe505a6a	-0.2034699
192	0xbef66188	-0.48121285
193	0x3e6654df	0.22493313
194	0x3e6b4a07	0.22977458
195	0x3ebe88d7	0.37213776
196	0xbed2eaf5	-0.41194883
197	0xbf004a80	-0.5011368
198	0xbe55695f	-0.20840977
199	0x3e72072e	0.23635551
200	0x3e05ed67	0.13078843
201	0xbe84f10d	-0.25965157
202	0x3de93f23	0.113889955
203	0x3e8c3b0c	0.273888
204	0xbee72caf	-0.45151278
205	0xbe6509ef	-0.2236707
206	0xbedc3b26	-0.43013877
207	0xbed081fd	-0.40724173
208	0xbedbb55d	-0.42911807
209	0xbee1205f	-0.4397001
210	0x3efeb952	0.49750763
211	0xbe6740a3	-0.2258325
212	0xbeb00adc	-0.34383285
213	0xbe9dc47c	-0.30813968
214	0x3f06a54a	0.5259596
215	0xbf054c49	-0.52069527
216	0x3daa3a4d	0.08311901
217	0xbf281c6c	-0.6566837
218	0x3f4dc5aa	0.80379736
219	0xbea17ff0	-0.3154292
220	0x3e43fe07	0.19139872
221	0x3d02ff4e	0.03198176
222	0x3dd8c0a9	0.10583622
223	0x3f138f1d	0.5764025
224	0xbe3777f8	-0.17916858
225	0xbf2ec7b5	-0.6827348
226	0x3ed6392b	0.4184049
227	0x3f009d09	0.50239617
228	0xbec8fdc6	-0.39256114
229	0xbf181dd4	-0.59420514
230	0x3e55cc61	0.20878746
231	0x3f0b8bb1	0.5451003
232	0x3e5a213a	0.21301737
233	0x3e42b654	0.19014865
234	0x3ec6b22b	0.38807806
235	0x3f16dcae	0.5893048
236	0x3e0a0f98	0.13482511
237	0x3eb20385	0.3476831
238	0xbe2dd3a5	-0.16975267
239	0x3ea98b57	0.3311412
240	0xbe88be01	-0.2670746
241	0x3e8d3edc	0.2758702
242	0x3eb55eaa	0.35423785
243	0xbc98d508	-0.018656269
244	0xbeda8629	-0.4268048
245	0x3e8033ff	0.2503967
246	0x3dd1adfd	0.10238264
247	0x3d2ad66e	0.041708402
248	0x3d63cf4d	0.05561762
249	0xbe4c0ac9	-0.19925989
250	0x3eb71f28	0.35765958
251	0xbe4e13b9	-0.20124711
252	0x3f45f47c	0.7732618
253	0x3da760a9	0.08172733
254	0x3f0a8547	0.54109615
255	0x3ee11dbf	0.43968007

network_body._body_endoder.seq_layers.0.bias f4 [256]
0	0x3bd3dd05	0.0064655566
1	0x3cc605a1	0.024172606
2	0x3c67e414	0.014153499
3	0x3b54da59	0.0032478778
4	0x3b5f4f0c	0.0034074215
5	0x3bac5441	0.0052590673
6	0x3ce4d1cc	0.02793207
7	0xbb53ef9e	-0.0032338868
8	0x3ce1c258	0.02755849
9	0xbce7734b	-0.028253218
10	0x3c55d064	0.0130501725
11	0x3aa7ad29	0.0012792695
12	0x3cb46f3f	0.022025703
13	0xbc4b3db8	-0.012404852
14	0x3c366103	0.011131528
15	0xbb809e81	-0.003925145
16	0x3c0de0e8	0.008659579
17	0x3ce5d9db	0.028057983
18	0x3b8179ed	0.0039513023
19	0xbc06a170	-0.008217201
20	0xbca2d2dd	-0.019875938
21	0x3c555238	0.013020091
22	0xbc075fd5	-0.008262594
23	0x3c264e7a	0.010150546
24	0x3c554929	0.013017931
25	0x3bc381f2	0.0059664184
26	0x3c817959	0.015804933
27	0x3d3eec55	0.046612103
28	0x3c9d4061	0.019195737
29	0x3c1721b1	0.009224341
30	0xbbb9eb43	-0.0056737973
31	0x3c65837d	0.0140084
32	0xbbab09ee	-0.0052196896
33	0xbb13deeb	-0.002256329
34	0x3b21d6b5	0.0024694626
35	0x3cf572ba	0.029961932
36	0xbc08fce5	-0.008361076
37	0xbb77637d	-0.0037748509
38	0x3c9b7325	0.018975804
39	0xbbae2bce	-0.0053152805
40	0x3d022a8c	0.031778857
41	0x3bd6167f	0.0065334435
42	0xbcb8ffd2	-0.022582922
43	0x3b9899e3	0.0046570166
44	0xbc2066e8	-0.00979016
45	0xbc57ad3d	-0.013163862
46	0xbc9a7f94	-0.018859662
47	0xbc2338ab	-0.009962241
48	0x3c22c109	0.0099337185
49	0xbba64de3	-0.005075203
50	0xbc3a7a99	-0.011381769
51	0xbd0e3446	-0.03471782
52	0x3cafb64d	0.021449232
53	0x3cababc4	0.020955928
54	0x3cb05946	0.021526944
55	0xbc16e1a0	-0.009209067
56	0x3cfe4480	0.031038523
57	0xbb62fc4d	-0.0034635246
58	0x3cd8103b	0.026374927
59	0xbc52b04f	-0.012859418
60	0x3b6e945f	0.0036404354
61	0xbc41e5d4	-0.01183458
62	0x3cdda1b3	0.027054643
63	0x3c5ed77d	0.013601181
64	0x3cc426df	0.023944316
65	0x3c662550	0.014046982
66	0x3bcb0ad0	0.0061963573
67	0x3cadede5	0.021231601
68	0x3b6a4943	0.0035749234
69	0x3bf15c36	0.0073657287
70	0x3cfc5fe0	0.030807436
71	0xbcb0ea2e	-0.02159604
72	0x3becffa9	0.0072326255
73	0xbcab965a	-0.020945717
74	0x3bdcdd3f	0.006740242
75	0xbbedccba	-0.0072570713
76	0xbc265ed4	-0.010154445
77	0xbc819dd1	-0.015822323
78	0x3ccec57d	0.025240654
79	0xbc7d2ab2	-0.015452074
80	0xbc8baede	-0.017051157
81	0xbc0b8e37	-0.008517793
82	0xbc8085e1	-0.015688838
83	0xbd160818	-0.036628813
84	0xbc1e89f6	-0.009676447
85	0x3bdc617c	0.006725488
86	0x3b2bbbaf	0.0026204397
87	0xbc1e23b9	-0.009652072
88	0x3c687963	0.014189097
89	0xbb83f4e1	-0.0040269946
90	0xbbcd1c5c	-0.006259484
91	0xbc8e413e	-0.017365094
92	0xbaa00500	-0.0012208521
93	0x3bff7e28	0.0077970214
94	0xbc8c70b3	-0.017143583
95	0x3c986414	0.018602408
96	0x3c50fe0c	0.012755882
97	0xbc19e736	-0.009393504
98	0xbc52f8e2	-0.012876721
99	0x3c9ef19c	0.019402318
100	0xbc303f1a	-0.010757232
101	0x3c8ee56d	0.017443383
102	0xbc05ab3c	-0.008158501
103	0x3c71be3f	0.014754831
104	0x3bff902d	0.0077991695
105	0x3bade89b	0.0053072697
106	0x3b7935c2	0.0038026427
107	0x3b1639c8	0.0022922624
108	0x3b14da3e	0.002271309
109	0x3d24677a	0.040137745
110	0x3adf1e24	0.0017022532
111	0xbc7a46ff	-0.015275716
112	0xba85a52a	-0.0010196317
113	0xbc229fce	-0.009925796
114	0x3c403084	0.011730317
115	0xbb1efd37	-0.0024259815
116	0x3acfe8ab	0.0015862187
117	0xbc13e960	-0.009027809
118	0xbc1c45d5	-0.009538134
119	0xbbaab428	-0.0052094646
120	0xbb7404f8	-0.0037234407
121	0xbc50a767	-0.012735224
122	0x3c75f284	0.0150114335
123	0x3a001b32	0.0004886865
124	0x3ca39239	0.019967185
125	0x3d0ed9ea	0.034875788
126	0x3cdce18c	0.026963018
127	0xbbb5d6cf	-0.005549289
128	0x3bbfea84	0.005856814
129	0xbb599500	-0.0033200383
130	0xbc6ed80f	-0.01457788
131	0x3c941ddd	0.018080646
132	0xbb5535ad	-0.0032533214
133	0xbc495d31	-0.012290285
134	0x3b183d62	0.0023229946
135	0xbc3ac936	-0.0114005115
136	0xbc93075d	-0.017947847
137	0x3c95f703	0.01830626
138	0xbc389fd3	-0.011268574
139	0x3bf3f815	0.007445345
140	0x3c4cbd3f	0.012496292
141	0xbba23344	-0.004949959
142	0x3c38a59f	0.011269956
143	0xbc1c6a5e	-0.009546844
144	0x3c6672f9	0.014065498
145	0x3c602ee5	0.0136830555
146	0xbb589eda	-0.0033053667
147	0xbc10f18c	-0.008846652
148	0x3bd7514b	0.00657097
149	0x3b3cb6fd	0.0028795593
150	0x3881a0cf	6.181152e-05
151	0xbd24944d	-0.040180493
152	0xbb87c4f7	-0.004143353
153	0x3cbda07c	0.023147814
154	0xbb336dde	-0.0027378718
155	0xb85f3dc5	-5.322487e-05
156	0x3c88aabb	0.016682973
157	0x3c8f9f0d	0.017531896
158	0xbc51d341	-0.0128067145
159	0xbc247c86	-0.010039454
160	0xbbae413a	-0.005317834
161	0x3cd37cb2	0.025816295
162	0xbc081139	-0.008304887
163	0x3c721245	0.014774864
164	0xbbba3426	-0.005682486
165	0xbcf780ab	-0.03021272
166	0xbb6eec49	-0.0036456755
167	0x3a69fddd	0.0008926073
168	0xbc244ae0	-0.010027617
169	0xbb95a961	-0.0045673107
170	0xbce3193a	-0.02772199
171	0x3d39fe2f	0.045408424
172	0xbb460917	-0.003021782
173	0xbb2f66f0	-0.0026764236
174	0xbbff63ec	-0.007793894
175	0xbc781087	-0.015140659
176	0xbcadf525	-0.021235058
177	0xbb3e533d	-0.0029041313
178	0x3c416533	0.011803913
179	0xbba4b43e	-0.0050263694
180	0x3cd1a229	0.02559002
181	0x3c095492	0.00838198
182	0xbce77707	-0.028254999
183	0x3ced49d0	0.02896586
184	0x3c8dac7b	0.01729416
185	0x3bd7db51	0.006587424
186	0x3c255d90	0.010093108
187	0x3c28900e	0.010288252
188	0x3bedbc6f	0.007255129
189	0x3cf6f65b	0.030146768
190	0x3cd28cce	0.025701907
191	0xbbe44f87	-0.006967488
192	0x3c15e806	0.009149557
193	0x3a56a427	0.0008187913
194	0x3c75b3ca	0.014996478
195	0x3b087857	0.0020823681
196	0xba992b4d	-0.0011685878
197	0x3b8f8aad	0.004380545
198	0xbcb0e458	-0.021593258
199	0x3c795995	0.015219112
200	0x3a1e467e	0.0006037726
201	0xbc608f1b	-0.013705994
202	0xbbfc89bf	-0.0077068503
203	0xbb1ea009	-0.0024204275
204	0x3bb4d41e	0.0055184504
205	0xbba67d11	-0.005080827
206	0xbc16ca2d	-0.009203476
207	0xbc90d358	-0.017678902
208	0x3cd62848	0.026142254
209	0xbcc9a703	-0.02461577
210	0x3d17e752	0.03708584
211	0xbb70a713	-0.0036720678
212	0x3be67ded	0.0070340545
213	0xbc7b3602	-0.015332701
214	0x3b115e73	0.002218154
215	0xbbf1890d	-0.007371074
216	0xbc74cdfa	-0.014941687
217	0x3d113bc1	0.035457376
218	0xbc19282a	-0.009347955
219	0x3bf229f3	0.0073902546
220	0xbb83c21d	-0.004020943
221	0xbbc2a591	-0.005940147
222	0x3cb3a253	0.021927988
223	0x3ca384fa	0.01996087
224	0x3b9a804e	0.004715002
225	0xbcc14da0	-0.023596585
226	0x3c9590a3	0.018257445
227	0x3c7f6c17	0.0155897355
228	0xbcbf0d28	-0.023321703
229	0x3c8b4c29	0.01700409
230	0xbca29f5f	-0.019851385
231	0xbc0f0e66	-0.00873146
232	0xbc89b653	-0.016810572
233	0xbb8e08ee	-0.0043345606
234	0x3c9b54a0	0.01896125
235	0x3cc35e99	0.023848819
236	0xbbbee331	-0.005825423
237	0xbbe33d30	-0.0069347844
238	0x3b846b29	0.004041095
239	0xbc9b5cd7	-0.018965168
240	0xbbfb753c	-0.0076738875
241	0x3b941af7	0.004519816
242	0xbc7ad3ab	-0.015309255
243	0x3999849b	0.00029281233
244	0xbc0b218e	-0.008491887
245	0x3c777a2c	0.015104812
246	0xbc11bc48	-0.008894987
247	0x3caf3b45	0.021390567
248	0x3a9bd854	0.0011890032
249	0xbc296e45	-0.010341232
250	0x3bf73d71	0.007545166
251	0x3d028167	0.03186169
252	0xbc95bbfa	-0.01827811
253	0xbc86fdf0	-0.016478509
254	0xbbaf2f03	-0.0053461804
255	0xbb51b023	-0.0031995855

network_body._body_endoder.seq_layers.2.weight f4 [256, 256]
0	0x3d8d8998	0.069110096
1	0x3d3110d4	0.04322894
2	0xbb767644	-0.0037607113
3	0x3e1408f8	0.14456546
4	0x3b051923	0.0020309172
5	0x3d8c1a29	0.06840927
6	0x3cb04d77	0.021521313
7	0xbdfc8c8f	-0.12331497
8	0xbcc3dc28	-0.02390869
9	0xbc9cef3b	-0.019157043
10	0xbd32a31a	-0.043612577
11	0x3c1b1b33	0.009466934
12	0xbd2d98b3	-0.042381953
13	0xbdaaa381	-0.08331967
14	0xbd1946b9	-0.037420962
15	0x3d49c7ad	0.04926269
16	0x3c841adc	0.016126089
17	0xbda0af13	-0.07845893
18	0x3bf4ef58	0.007474821
19	0xbcd7c0e1	-0.026337089
20	0x3d0bec8a	0.034161128
21	0x3d926854	0.07148805
22	0xbcfc0ea8	-0.030768707
23	0x3be5aea8	0.007009346
24	0xbd82fac7	-0.06395488
25	0x3d30cf5d	0.043166507
26	0x3e00d390	0.12580705
27	0x3dd1ebe8	0.10250074
28	0x3c006bd8	0.007838212
29	0xbdc2ae05	-0.09505848
30	0x3daf5a46	0.0856214
31	0xbbb68411	-0.0055699428
32	0xbd4c7d94	-0.049924448
33	0x3cd64573	0.026156163
34	0x3d3391c0	0.04384017
35	0xbd0af880	-0.033928394
36	0xbd045ef3	-0.032317113
37	0xbce1b768	-0.027553275
38	0x3cf826ce	0.030291941
39	0xbdea2dba	-0.11434503
40	0xbc17a3e1	-0.00925538
41	0x3d88b55e	0.06675218
42	0x3c2530fe	0.010082481
43	0x3c984225	0.018586228
44	0x3dc733e6	0.09726696
45	0x3db4ae21	0.08822275
46	0x3cb87dba	0.022520889
47	0xbd3f99a1	-0.04677737
48	0xbd5a9eea	-0.05337421
49	0x3d6992bf	0.057024714
50	0xbde1797c	-0.110094994
51	0x3d264da0	0.040601373
52	0xbd829466	-0.06375961
53	0x3cb53116	0.022118133
54	0x3dd8cde4	0.105861455
55	0x3c2972de	0.010342328
56	0x3c57f3b9	0.013180667
57	0x3d15c767	0.036567118
58	0xbe08cd86	-0.13359651
59	0xbd31fd15	-0.04345425
60	0xbb9fe86f	-0.004880003
61	0x3ac19f1e	0.0014772152
62	0xbd059fa1	-0.032622937
63	0xbd210563	-0.039311778
64	0xbd2c3b7e	-0.042048924
65	0xbdc9dad0	-0.09856188
66	0x3d8224aa	0.06354649
67	0x3d3d1683	0.046164047
68	0xbda7e671	-0.0819825
69	0xbd80f8d4	-0.0629746
70	0x3d97c8bd	0.07411335
71	0x3bc06e19	0.0058724997
72	0x3de0961a	0.109661296
73	0xbcb1d82f	-0.02170953
74	0x3ca91b51	0.020642908
75	0xbd1d5cd5	-0.03841861
76	0x3dc8076b	0.0976704
77	0xbd693e12	-0.05694396
78	0x3c07af07	0.008281476
79	0x3c85b75a	0.01632278
80	0x3d82a626	0.063793465
81	0xbd2bbf26	-0.04193034
82	0x3d86548a	0.06559093
83	0xbcc7aefe	-0.024375435
84	0xbd92432d	-0.07141719
85	0x3d460c00	0.048351288
86	0x3e2288fc	0.15872568
87	0x3c8f9995	0.017529288
88	0xbd9322ef	-0.071843974
89	0xbcd81404	-0.026376732
90	0x3d71e4dd	0.05905615
91	0x3e07b28a	0.13251701
92	0x3d83c3f1	0.06433857
93	0x3cdbd7ab	0.026836237
94	0x3d4a0df0	0.049329698
95	0xbda47ce2	-0.08031632
96	0x3bf9f2c7	0.0076278183
97	0xbd6c9f4f	-0.057769116
98	0x3d4dde9f	0.050261136
99	0x3dd377ef	0.1032561
100	0xbe249ced	-0.16075487
101	0x3d908ff3	0.07058706
102	0x3bff7520	0.007795945
103	0xbb9e6443	-0.0048337295
104	0xbd75fa43	-0.06005312
105	0xbd45ca1a	-0.048288442
106	0x3cae4a19	0.021275567
107	0xbd90bb0f	-0.070669286
108	0xbd8ff261	-0.07028652
109	0x3cfd7e5c	0.030944042
110	0xbd398276	-0.045290433
111	0xbdae2f8d	-0.08505163
112	0x3db741f9	0.0894813
113	0xbc8b309d	-0.016990954
114	0x3e1a8530	0.1508987
115	0xbcdb7bee	-0.026792493
116	0xbc670231	-0.014099644
117	0x3dae3001	0.0850525
118	0xbcd62c5f	-0.026144205
119	0xbdde47fe	-0.10853575
120	0xbc18512d	-0.009296698
121	0xbd7aecf1	-0.06126112
122	0x3be516f6	0.0069912625
123	0xbdcea283	-0.100895904
124	0x3d52bf61	0.051452044
125	0x3cc57764	0.024104781
126	0x3cc66c06	0.024221431
127	0xbd021a26	-0.03176322
128	0xbde863be	-0.11347149
129	0x3ceb132a	0.028695662
130	0x3b840e41	0.0040300195
131	0xbc94de67	-0.018172456
132	0xbdbb51ba	-0.091464475
133	0x3dcf75c2	0.101298824
134	0xbc83af91	-0.016074928
135	0x3d6aacf8	0.057293862
136	0x3c18afde	0.009319274
137	0xbc55d861	-0.013052077
138	0x3b81a49b	0.00395639
139	0xbd50dd26	-0.050992154
140	0x3d309d55	0.043118794
141	0xbe03bb7d	-0.1286449
142	0x3db7464e	0.089489564
143	0x3bbd89a6	0.0057842312
144	0x3cc8a2a6	0.02449162
145	0xbc898dd5	-0.016791264
146	0xbd5697aa	-0.052390732
147	0x3d6114f4	0.054951623
148	0xbda49a76	-0.080372736
149	0xbd8504a5	-0.064950265
150	0x3cbb2ad3	0.022847569
151	0xbe12ce14	-0.14336425
152	0xbca6cf82	-0.02036262
153	0xbd2ace3b	-0.041700583
154	0x3bca0183	0.006164731
155	0xbbda42be	-0.0066607883
156	0xbc598a34	-0.013277579
157	0xbcfda3cd	-0.030961895
158	0xbb371ac6	-0.0027939542
159	0xbaa3b297	-0.0012489137
160	0x3d45de0a	0.048307456
161	0x3cd134a9	0.025537806
162	0x3d2b0bc2	0.04175926
163	0xbda5a4cc	-0.08088073
164	0xbcb9fe9c	-0.022704415
165	0xbc9d9bed	-0.01923939
166	0xbb843a3d	-0.004035263
167	0x3d1d0663	0.03833617
168	0xbd962772	-0.07331742
169	0xbda24ce7	-0.07924824
170	0x3d6ed115	0.058304865
171	0xbd558f6d	-0.052138735
172	0x3db86ea3	0.09005477
173	0xbd7c9c69	-0.0616726
174	0xbd26fd78	-0.04076907
175	0x3d7ad893	0.061241698
176	0x3d0046c0	0.031317472
177	0x3d50fe31	0.051023666
178	0xbde9eab9	-0.11421723
179	0x3ca76fe5	0.020439098
180	0x3d0771aa	0.033067383
181	0x3c2bec0b	0.010493289
182	0x3d18f0b9	0.037338946
183	0x3c9fc5ab	0.019503435
184	0x3c9eb597	0.019373698
185	0xbe0eeee5	-0.13958319
186	0x3d0443e4	0.032291308
187	0x3cf45827	0.02982719
188	0xbda93623	-0.08262279
189	0x3d348093	0.04406793
190	0xbd9091e6	-0.07059078
191	0xbd51fc3c	-0.05126594
192	0x3bcdc653	0.0062797456
193	0xbbfab0a3	-0.0076504513
194	0x3da7f6a5	0.082013406
195	0xbd4fe81f	-0.050758477
196	0xbd7ae804	-0.061256424
197	0xbcffa7c0	-0.03120792
198	0xbd55aed4	-0.052168682
199	0x3c4ad03f	0.012378751
200	0xba1b7867	-0.0005930722
201	0xbc6e5a12	-0.014547842
202	0x3dcca1e4	0.09991816
203	0xbd685b0f	-0.056727465
204	0x3d5ef8f2	0.05443663
205	0xbd49c8aa	-0.049263634
206	0x3b9d0166	0.0047914265
207	0x3d7468c2	0.059670217
208	0xbcd13e6b	-0.025542459
209	0xbd7fc88d	-0.06244712
210	0x3e32014b	0.17383306
211	0xbd1d7c6b	-0.038448732
212	0xbb9c48f6	-0.00476944
213	0x3d179b26	0.037013195
214	0x3d09ad35	0.03361245
215	0x3dbdb5b1	0.092631705
216	0xbd8fa0fe	-0.07013129
217	0xbd24e196	-0.040254198
218	0x3d9d5a20	0.076832056
219	0xbd862130	-0.06549299
220	0x3d09b6c4	0.033621565
221	0xbcad5675	-0.02115939
222	0x3d2ebf95	0.042663176
223	0xbce4db8f	-0.027936725
224	0xbd7a8f0a	-0.06117157
225	0xbd2828bf	-0.041054484
226	0x3d3debe6	0.04636755
227	0xbd9ac513	-0.0755712
228	0xbd794c6a	-0.06086389
229	0xbc5b4b06	-0.013384586
230	0xbda01c0b	-0.07817849
231	0xbc129385	-0.008946304
232	0x3cfb91c9	0.030709164
233	0xbd54e776	-0.05197855
234	0xbb3fe36c	-0.002927984
235	0xbce3076b	-0.027713498
236	0xbd96dce1	-0.07366348
237	0xbd55574e	-0.052085213
238	0xbd06fbb5	-0.03295489
239	0x3c953a0c	0.018216155
240	0xbcc35fdf	-0.023849426
241	0xbd73c3c1	-0.059512857
242	0x3d0f1580	0.034932613
243	0x3d570519	0.052495096
244	0x3cde5199	0.027138518
245	0xbc6b9a45	-0.014380042
246	0xbc5992db	-0.013279642
247	0xbc8c02dc	-0.017091207
248	0xbd829250	-0.06375563
249	0x3dc4a266	0.096012875
250	0xbdd4a9d8	-0.103839576
251	0xbd1312ae	-0.035906486
252	0x3d8ac7db	0.06776401
253	0xbdc06d45	-0.093958415
254	0x3d89291a	0.066972926
255	0x3c020db0	0.007937834

network_body._body_endoder.seq_layers.2.bias f4 [256]
0	0xb9fe2d33	-0.0004848033
1	0xbc41c259	-0.011826121
2	0xbc71c7b8	-0.014757089
3	0xbcbb3a57	-0.022854967
4	0x3aa05da0	0.0012234934
5	0xbce1cb59	-0.027562784
6	0x3ba24c04	0.0049529094
7	0x3c2105cd	0.009828043
8	0x3c55c69d	0.013047841
9	0xbca1a9ab	-0.019734224
10	0xbca9dac8	-0.020734206
11	0xbc36791a	-0.011137271
12	0x3ca5f1f6	0.020256978
13	0xbc18dae0	-0.009329528
14	0x3cc1a96f	0.023640363
15	0xbcc02bb9	-0.023458349
16	0xbafed2a3	-0.0019441437
17	0x3bfa5a16	0.0076401336
18	0xbc1219bd	-0.008917269
19	0xb8742c53	-5.8215413e-05
20	0xbc077ac6	-0.008269018
21	0xba8b2245	-0.0010615072
22	0x3c32a337	0.010903171
23	0x3d01dcd7	0.03170475
24	0x3c65a626	0.014016664
25	0x3bfbf55f	0.0076891626
26	0x3b19b2e9	0.0023452586
27	0x3b0dabe2	0.0021617343
28	0xbd06f260	-0.03294599
29	0x3c59f96f	0.0133040985
30	0x3cbf4d6c	0.023352347
31	0xbc91e67f	-0.017810104
32	0x3aa9b703	0.0012948219
33	0x3b222ed0	0.002474714
34	0xba9c71f0	-0.0011935811
35	0xbacaecbe	-0.0015481932
36	0x3bef69ca	0.007306312
37	0x3d04a8a4	0.03238739
38	0x3d1c6306	0.038180374
39	0xbcce9453	-0.02521721
40	0xbcab5482	-0.02091432
41	0xbc307257	-0.010769448
42	0x3c719914	0.014745969
43	0xbbc461a5	-0.0059930854
44	0xbc5f77ea	-0.01363943
45	0xbc6ed4e7	-0.014577127
46	0x3d2022ab	0.039095562
47	0xbcc80956	-0.024418514
48	0x3c50b8cd	0.012739372
49	0xbc59f6ae	-0.013303442
50	0x3c81f87f	0.015865562
51	0x3bda462b	0.0066611967
52	0xbbb5e045	-0.0055504167
53	0xbb704a80	-0.00366655
54	0xbc1cfa2a	-0.009581128
55	0xbcd48c05	-0.025945673
56	0x3c37e6b5	0.011224438
57	0xbcc45c6b	-0.02396985
58	0x3c6d5691	0.014485971
59	0x3c47f0f7	0.012203447
60	0x3c211a86	0.009832984
61	0xbca3fc0c	-0.020017646
62	0x3d05875e	0.0325998
63	0xbb8cdca2	-0.0042987624
64	0xbcc0a0ef	-0.02351424
65	0xba2a177d	-0.00064884854
66	0xbc31de28	-0.010856189
67	0x3bd4128b	0.006471937
68	0xbba157fb	-0.004923818
69	0xbb82ca8a	-0.0039914297
70	0x3b68f230	0.0035544746
71	0x3c189678	0.009313218
72	0x3cac616b	0.021042546
73	0x3d021ab3	0.031763744
74	0x3c52449b	0.01283374
75	0xbc41fdfa	-0.011840338
76	0x3c3d001f	0.011535673
77	0xbadca2f2	-0.001683323
78	0xbbe06f36	-0.006849195
79	0x3babb8ab	0.00524052
80	0x3b625944	0.003453807
81	0x3cb79e1f	0.022414265
82	0xbc043ddb	-0.008071388
83	0xbc84348c	-0.016138338
84	0x3cb6dac8	0.02232112
85	0xbb985fdb	-0.0046500987
86	0x3c9b4fb3	0.018958902
87	0x3c1a44dc	0.009415831
88	0x3a36bc2b	0.0006970788
89	0xbbf2a76a	-0.007405211
90	0x3bcace06	0.0061891107
91	0x3bdfa084	0.006824555
92	0xbcb88b02	-0.022527222
93	0x3bf6ec7a	0.0075355144
94	0xbaee91b6	-0.0018201384
95	0xbc00aaf1	-0.007853256
96	0x3c85efed	0.016349757
97	0xbd0916e7	-0.033469107
98	0xbc5de336	-0.013542941
99	0xbcb9ad40	-0.02266562
100	0xbc516f24	-0.012782846
101	0x3bc14633	0.005898261
102	0xb99a2b84	-0.0002940559
103	0xbc8bc911	-0.01706365
104	0x3b6f59cd	0.0036522031
105	0x3c7e6b50	0.015528515
106	0xbcbfd59a	-0.023417283
107	0x3c174f45	0.009235208
108	0x3c13397b	0.008985872
109	0x3c7a2e6c	0.015269857
110	0xbbc021c0	-0.0058633983
111	0xbbb5489b	-0.005532337
112	0xbb8955cc	-0.004191136
113	0x3ca5856e	0.020205226
114	0xbc7eed9d	-0.015559581
115	0xbc77ade4	-0.015117142
116	0xbc93bbeb	-0.018033942
117	0xbcd0b1ca	-0.025475401
118	0xbc95d238	-0.018288717
119	0x3c7be621	0.015374691
120	0xbbd8c070	-0.006614737
121	0xbcc16ae7	-0.023610545
122	0xbcf27027	-0.029594494
123	0xbcec38e6	-0.028835725
124	0xbc151227	-0.009098566
125	0xbbf42283	-0.007450403
126	0xbc55ec49	-0.013056823
127	0xbcbdfbd6	-0.023191374
128	0x3c4ff47b	0.012692566
129	0xbd032ba9	-0.03202406
130	0xbbf66666	-0.007519531
131	0x3ce6ffa5	0.028198073
132	0x3c8bce0b	0.017066022
133	0xbc4bdaaa	-0.01244227
134	0x3cec97e4	0.02888102
135	0x3c683fcf	0.014175369
136	0x3b37fbf9	0.0028073771
137	0xbca94536	-0.020662885
138	0xbc190439	-0.009339386
139	0x3b3d0113	0.0028839752
140	0xbcac3a46	-0.02102388
141	0x3c6f3673	0.014600384
142	0x3c8b5716	0.0170093
143	0x3c7c342e	0.0153933
144	0xbc57fa3b	-0.013182218
145	0x3c77221c	0.015083816
146	0xbc3c418c	-0.011490237
147	0xbcaf139e	-0.021371659
148	0x3c0beb77	0.008540026
149	0x3c8a5a9b	0.016888907
150	0xbb9f5be9	-0.0048632515
151	0xbba0f944	-0.0049125273
152	0xbc52f338	-0.012875371
153	0xbc0302ca	-0.00799627
154	0xbbdcfdf0	-0.006744139
155	0x3c5df392	0.013546841
156	0x3c84cba0	0.016210377
157	0xbc254c5c	-0.010089006
158	0x3c86019c	0.01635819
159	0x3ca61bd4	0.020276941
160	0xbca3d541	-0.019999148
161	0xbcac03dc	-0.020997934
162	0x3b35acfb	0.0027721513
163	0x3b03304e	0.0020017806
164	0xbc36431b	-0.011124398
165	0x3ba785e4	0.0051123966
166	0x3c29ded5	0.010368069
167	0x3a7cb70f	0.0009640315
168	0xbc3ff5d2	-0.011716323
169	0x3c430120	0.011902124
170	0xbcb3166c	-0.021861278
171	0xbc3f460c	-0.011674415
172	0x3c4bb0ee	0.01243232
173	0x3a93117d	0.0011220422
174	0xbb8ea95e	-0.0043536862
175	0xbc0b727c	-0.008511182
176	0xbbc6f7cb	-0.0060720197
177	0xbc9f6fb7	-0.01946245
178	0xbc6fbb4b	-0.0146320565
179	0xbab3fbd5	-0.0013731668
180	0x3b69bf28	0.0035666917
181	0xbae218d3	-0.001724983
182	0xbc7bdf23	-0.015373024
183	0xbcb5f3ac	-0.022210918
184	0x3b6d3857	0.0036196911
185	0xbadf3dd5	-0.0017031977
186	0x3cb77ff0	0.022399873
187	0x3c3aa905	0.011392836
188	0x3b888033	0.004165673
189	0xb9470fce	-0.00018984007
190	0xbcbb6eec	-0.02288004
191	0x3bce0e4d	0.006288326
192	0xbc27129c	-0.010197308
193	0x3c48df34	0.012260247
194	0x3c6239c3	0.013807717
195	0xbbba5233	-0.0056860684
196	0xbb94a467	-0.0045362
197	0xbc6455ea	-0.013936499
198	0x3bdbe5db	0.0067107505
199	0xbb81a00a	-0.0039558457
200	0x3c73db2b	0.014883797
201	0x3bdd0e06	0.0067460565
202	0xbab355fc	-0.0013682242
203	0x3b40c3c8	0.002941357
204	0x3bd404f8	0.006470319
205	0xbba41816	-0.005007754
206	0xbd113c98	-0.035458177
207	0x3bc7cc74	0.0060973708
208	0x3ce99184	0.02851177
209	0x3caf25bc	0.021380298
210	0xb8a59a7f	-7.89659e-05
211	0xbc4be6b2	-0.012445139
212	0x3b86e799	0.004116964
213	0xbc1b9ad5	-0.009497364
214	0x3c975912	0.01847509
215	0xbcc00d12	-0.023443732
216	0xbc291c11	-0.010321633
217	0x3b5325cd	0.0032218576
218	0x3bc31f87	0.005954686
219	0xbc8b20e6	-0.01698346
220	0x3b18e182	0.0023327773
221	0xbc903705	-0.01760436
222	0x3cd31e1f	0.025771199
223	0x3ca6ddeb	0.02036949
224	0x3bb2a794	0.005452106
225	0x3b6ba850	0.0035958476
226	0x3c83bfae	0.016082611
227	0xbcc1d02e	-0.023658838
228	0x3bffc9f0	0.0078060552
229	0xbc9112f0	-0.017709225
230	0xbd2624ec	-0.040562555
231	0x3bee2e15	0.007268677
232	0xbc9dac14	-0.019247092
233	0xbb91726a	-0.004438688
234	0x3c2d4801	0.010576249
235	0xbad54137	-0.0016270046
236	0x3aea4f9e	0.0017876511
237	0x3c91015f	0.01770085
238	0xbcfe201a	-0.031021167
239	0x3ae13569	0.0017182055
240	0x3c913790	0.01772669
241	0x3c82e01c	0.015976004
242	0xb86bd8bc	-5.6230216e-05
243	0xb95b4c26	-0.00020913835
244	0x3c3a2398	0.011361025
245	0x3bae3071	0.0053158333
246	0x3cd317b4	0.025768138
247	0xbc65f4a0	-0.014035374
248	0xbd26a89e	-0.04068815
249	0x3ae900ec	0.0017776764
250	0xbc95857c	-0.018252127
251	0x3c574fa6	0.013141548
252	0xbc00d861	-0.007864089
253	0xbc49af34	-0.012309838
254	0x3b2d100b	0.0026407267
255	0xbbd322eb	-0.0064433715

network_body._body_endoder.seq_layers.4.weight f4 [256, 256]
0	0x3d27cd3a	0.040967204
1	0x3cce7d84	0.025206335
2	0xbd0e2568	-0.034703642
3	0x3d647a83	0.0557809
4	0x3a9bae6a	0.0011877541
5	0xbd33062b	-0.043707054
6	0x3d9eceb6	0.07754271
7	0xbb683f8a	-0.0035438263
8	0xbcad9b1a	-0.021192122
9	0xbcdbbd93	-0.026823794
10	0x3ce1ca70	0.02756235
11	0xbcf51d57	-0.029921217
12	0x3ce66cde	0.028128084
13	0x3cf16a7d	0.029469723
14	0xbdc268e9	-0.09492666
15	0xbd2d1424	-0.042255536
16	0x3de69586	0.11258988
17	0x3d857560	0.06516528
18	0x3dadc385	0.08484558
19	0x3d4910f8	0.04908845
20	0xbc20659e	-0.009789852
21	0xbd4db331	-0.05021972
22	0xbd6ab137	-0.05729791
23	0xbc980e16	-0.018561404
24	0xbc0e276b	-0.00867639
25	0xbb529cbd	-0.003213688
26	0xbd218124	-0.0394298
27	0x3d0c64cf	0.034275826
28	0xbdad1d9e	-0.08452915
29	0x3d5d1466	0.05397453
30	0xbd426367	-0.04745808
31	0xbc13ad6a	-0.009013513
32	0xbd02621a	-0.03183184
33	0xbc80989f	-0.015697775
34	0x3dbfb851	0.093613274
35	0x3c472c33	0.012156534
36	0x3d80bf44	0.06286481
37	0x3cb51671	0.022105427
38	0xbd8cc93e	-0.068743214
39	0xbc910c71	-0.017706128
40	0xbd931002	-0.071807876
41	0xbdeb1ef4	-0.11480513
42	0xbd64c252	-0.05584938
43	0x3d78977b	0.060691338
44	0x3c716a02	0.014734747
45	0x3d8c19da	0.06840868
46	0xbdf2d136	-0.1185631
47	0x3d1758fd	0.0369501
48	0xbc8ead0a	-0.017416496
49	0x3de2e3fa	0.11078639
50	0xbc8e3643	-0.017359858
51	0x3d449469	0.047993097
52	0xbca3c47b	-0.01999115
53	0x3d8ecf36	0.06973116
54	0xbdfbf1a9	-0.123019524
55	0xbc4d8a93	-0.012545246
56	0x3d812c8c	0.06307325
57	0x3d91c730	0.0711807
58	0xbc2a5c65	-0.010398005
59	0xbddd684d	-0.108109094
60	0xbcdd4dbf	-0.027014611
61	0xbcac6558	-0.021044418
62	0xbd25ff52	-0.040526696
63	0x3d224993	0.039620947
64	0x3aac8b61	0.0013164097
65	0x3d7aa56f	0.061192926
66	0xbdf1b434	-0.11801949
67	0x3c382e11	0.011241452
68	0xbd03d5d0	-0.03218633
69	0x3d0529a5	0.03251042
70	0xbdbcabfa	-0.092124894
71	0xbdd8b60c	-0.10581598
72	0x3d11d1d5	0.035600502
73	0xbcdac26e	-0.02670404
74	0x3d9fe07e	0.0780649
75	0x3c915eb2	0.01774535
76	0xbc8aa684	-0.016925104
77	0x3caf8c91	0.021429332
78	0x3c593a58	0.013258539
79	0x3cd0bfad	0.025482023
80	0xbe1d9eac	-0.1539256
81	0xbd796332	-0.060885616
82	0xbdd0259a	-0.10163422
83	0x3dbfaff3	0.093597315
84	0xbc656ac9	-0.01400251
85	0x3bdd9320	0.0067619234
86	0x3dbb20bb	0.09137102
87	0x3d8f3b32	0.069937125
88	0xbdc4a2d6	-0.09601371
89	0x3c135138	0.008991532
90	0x3ce0a145	0.02742065
91	0x3d3a6f62	0.04551638
92	0x3bda0409	0.006653313
93	0x3d11017b	0.035401803
94	0xbc6616fa	-0.014043564
95	0xbb49f36c	-0.0030815257
96	0xbd61ec81	-0.05515719
97	0x3d1fd98b	0.039025825
98	0xbdcdd3c1	-0.100501545
99	0xbd527ad7	-0.05138668
100	0x3d50ed4e	0.05100756
101	0x3e01b09b	0.12665026
102	0xbda9a628	-0.08283645
103	0x3d0359ee	0.032068186
104	0x3d67d2a7	0.056597378
105	0xbd8bccac	-0.068261474
106	0x3de5ba56	0.112171814
107	0xbce8fbe2	-0.02844042
108	0x3af4037b	0.001861676
109	0xbd4006d0	-0.046881497
110	0x3c5feef9	0.013667815
111	0xbcab7c97	-0.020933433
112	0x3dbddb77	0.09270375
113	0xbd0190fe	-0.031632416
114	0x3da113b4	0.07865086
115	0x3c318f80	0.010837436
116	0xbd829079	-0.06375212
117	0xbde86dc7	-0.11349063
118	0x3d3e5203	0.04646493
119	0xbcc0df32	-0.023543928
120	0xbd4d033d	-0.050051916
121	0xbd8d9833	-0.06913795
122	0xbdaf2052	-0.085510865
123	0xbbd47f2f	-0.006484888
124	0xbc093e51	-0.008376674
125	0x3d622288	0.055208713
126	0x39dccecc	0.00042115746
127	0x3d931aef	0.071828716
128	0xbca27722	-0.019832198
129	0x3db1f685	0.08689598
130	0xbae855aa	-0.0017725725
131	0xbce70f62	-0.028205577
132	0x3cfaf303	0.030633455
133	0x3b0a3409	0.0021088144
134	0x3bca4752	0.006173053
135	0xb9ab75ec	-0.0003270352
136	0xbc20ee57	-0.00982245
137	0x3c2621fe	0.01013994
138	0xbe1d2a80	-0.15348244
139	0xbc3b30a7	-0.011425174
140	0xbd18b79d	-0.037284482
141	0x3d20539c	0.039142236
142	0x3d5a8aad	0.053354908
143	0xbcbf0489	-0.023317592
144	0x3d139993	0.03603513
145	0xbdfbb124	-0.12289646
146	0x3d538577	0.051640954
147	0x3daf684a	0.085648134
148	0xbaa11b95	-0.0012291545
149	0x3d7bc0cd	0.061463166
150	0xbc80454d	-0.015658045
151	0x3da22b2f	0.07918393
152	0xbc3fa731	-0.011697576
153	0x3d03cc71	0.032177392
154	0x3bfea1f0	0.0077707693
155	0xbd45013d	-0.048096884
156	0x398c9112	0.00026810967
157	0x3dd338f2	0.10313596
158	0xbc4f2a8d	-0.012644422
159	0xbda56a60	-0.0807693
160	0x3c413061	0.01179132
161	0x3d9499e6	0.07255916
162	0x3d74102b	0.05958573
163	0x3c15185a	0.009100044
164	0x3c1f9bd7	0.009741745
165	0xbdbf967d	-0.09354875
166	0xbcb8a3d4	-0.022539057
167	0x3d9b854f	0.07593786
168	0x3d0bc8cc	0.03412704
169	0xbd486952	-0.048928566
170	0x3d2341aa	0.039857544
171	0x3d247526	0.040150784
172	0xbdb550ad	-0.08853278
173	0xbd741d3f	-0.059598204
174	0xbcaf4c60	-0.021398723
175	0x3cde9c35	0.027174095
176	0xbcc2f4ac	-0.02379831
177	0xbd3ce742	-0.046118982
178	0x3d8dc94a	0.069231585
179	0x3c6fcbd0	0.014635995
180	0x3da6688f	0.08125412
181	0x39b4a04c	0.00034451706
182	0x3d8789cf	0.06618082
183	0x3d7d0f91	0.061782423
184	0x3d1b7ec2	0.037962683
185	0x3c7fa431	0.015603111
186	0x3d3831f4	0.044969514
187	0xbdbf8264	-0.09351042
188	0xbd1c8604	-0.038213745
189	0xbd9ea8e1	-0.07747055
190	0x3dad4595	0.08460537
191	0x3da7490d	0.0816823
192	0xbd883232	-0.06650199
193	0x3d0bb00b	0.034103435
194	0xbc616f0a	-0.013759384
195	0xbcc2ab2e	-0.023763265
196	0x3c9e6c52	0.01933876
197	0x3ccc09d7	0.024907036
198	0x3da0c205	0.07849506
199	0x3c9bc956	0.019016903
200	0x3d3cc928	0.046090275
201	0x3c5907f6	0.013246527
202	0x3cd3071e	0.02576023
203	0xbcc1ec5f	-0.02367228
204	0x3ccc19e9	0.024914699
205	0xbb2491dc	-0.0025111353
206	0x3d3d462e	0.046209507
207	0xbb302135	-0.0026875262
208	0xbcb30d4e	-0.02185693
209	0x3d3570c8	0.04429701
210	0x3d6be8cb	0.057595056
211	0xbd71a764	-0.058997527
212	0xbcda6fcb	-0.026664635
213	0x3bf78da8	0.0075547285
214	0xbdbf3423	-0.09336116
215	0x3dda8d4a	0.1067148
216	0xbe2c44c8	-0.16823113
217	0x3c85f4de	0.016352113
218	0xbd5631ef	-0.052293714
219	0x37bbef0e	2.2403456e-05
220	0x3d1c7052	0.038193054
221	0x3dbb5c86	0.09148507
222	0xbdc8cba1	-0.09804464
223	0xbc2ad79a	-0.01042738
224	0xbcb13563	-0.021631902
225	0x3c8eb8a8	0.017422035
226	0x3b739f2a	0.0037173727
227	0xbd38db1a	-0.045130827
228	0x3d0ab578	0.03386447
229	0xbd0fb43a	-0.035083987
230	0xbd1b14e8	-0.037861735
231	0x3d97afc2	0.0740657
232	0x3d936372	0.07196702
233	0x3d4bcc1b	0.049755197
234	0x3a72ce1a	0.0009262279
235	0x3e0b8a17	0.13626896
236	0xbdf45078	-0.11929411
237	0xbd4ca240	-0.04995942
238	0xbce8300e	-0.028343227
239	0xbda60a3f	-0.08107423
240	0xbb53b269	-0.0032302386
241	0xbe3ff3b1	-0.18745305
242	0x3d33641d	0.043796647
243	0xbd042326	-0.032260083
244	0x3dd2ea4d	0.102985956
245	0x3deba1b2	0.1150545
246	0x3c207d2d	0.009795469
247	0xbdb79254	-0.08963457
248	0xbc3b72a1	-0.011440904
249	0xbc65368c	-0.013990056
250	0xbca847f4	-0.020542122
251	0xbc730078	-0.014831655
252	0x3d7b724a	0.06138829
253	0x3db0c8f7	0.08632081
254	0x3d9bd051	0.076080926
255	0xbc8574eb	-0.016291102

network_body._body_endoder.seq_layers.4.bias f4 [256]
0	0xbc2f6188	-0.010704406
1	0xbd75308b	-0.059860747
2	0x3c485519	0.01222732
3	0x3c134dc8	0.008990712
4	0xbcf7c435	-0.030244926
5	0xbb545d07	-0.0032404081
6	0xbc885f07	-0.016646875
7	0x3baf89e7	0.0053570154
8	0x3b456b5f	0.0030123813
9	0x3b76cc76	0.003765849
10	0x3a465cec	0.0007566947
11	0xbb55fae1	-0.0032650756
12	0x3c709467	0.014683819
13	0xba4b868c	-0.00077638845
14	0xbcfcaa55	-0.03084294
15	0xbc1b8413	-0.009491938
16	0x3c774ba4	0.015093718
17	0x3d0451b8	0.032304496
18	0x3b880eed	0.00415217
19	0x3cb18d3a	0.021673787
20	0x3d147425	0.036243577
21	0xbc6b44d8	-0.014359675
22	0x3aa447fd	0.0012533661
23	0xbc7933f2	-0.015210139
24	0x3ae4d580	0.0017458647
25	0x3b11d1af	0.0022250225
26	0xbc38e12f	-0.011284157
27	0xbc6c6a9e	-0.014429716
28	0xbd384fdc	-0.044998035
29	0xbccdaa05	-0.025105486
30	0xbbea8172	-0.0071565444
31	0xbcaafc30	-0.020872205
32	0xbc5e847d	-0.013581392
33	0xbb9c5f01	-0.0047720675
34	0x3c561c0c	0.01306821
35	0x3b2d9610	0.002648715
36	0x3a3f8509	0.00073058956
37	0xbc4653ff	-0.012104987
38	0xbb5c2c7e	-0.0033595855
39	0x3b934c06	0.0044951467
40	0xbc8d730f	-0.017266778
41	0x3d41a33e	0.04727482
42	0xbb89d89a	-0.004206729
43	0x3c259654	0.010106642
44	0x3d11e7e8	0.035621554
45	0x3d0a4316	0.033755384
46	0x3c0e88a1	0.008699567
47	0xbc925564	-0.017862983
48	0x3c5e0255	0.013550361
49	0x3c2b4669	0.010453799
50	0x3bb75534	0.005594874
51	0xbc19ab7b	-0.009379263
52	0x3ce0d8bf	0.027447103
53	0x3b5c00b1	0.0033569748
54	0x3ca8d5b4	0.020609714
55	0xbb8bdcc1	-0.0042682593
56	0x3bbb5287	0.005716625
57	0xbc7c42b4	-0.015396763
58	0x3bbc6a1a	0.005749953
59	0x3c3f554b	0.01167805
60	0x3bce11a0	0.006288722
61	0xbc074991	-0.008257286
62	0x3c0731f0	0.008251652
63	0xbc48acda	-0.012248242
64	0x3d0a07eb	0.033698957
65	0x3c776319	0.01509931
66	0xbcb18d5a	-0.021673847
67	0xbc871d5f	-0.016493497
68	0x3c337115	0.010952254
69	0xbae4371e	-0.0017411446
70	0xbb9755c7	-0.0046183798
71	0x3cb66c4a	0.022268433
72	0x3bc612a6	0.0060447035
73	0xbd167bf4	-0.036739305
74	0xbbd8dc23	-0.006618039
75	0xbc13b869	-0.009016135
76	0xbcfb9974	-0.03071282
77	0x3c8a1b93	0.016858852
78	0xbc6aa113	-0.01432063
79	0x3c97de41	0.018538596
80	0xbc62047d	-0.013795015
81	0x3caf43a9	0.021394568
82	0xbc4c9a79	-0.012488001
83	0x3c48d710	0.012258306
84	0x3b71e81c	0.003691203
85	0x3c2fa8e4	0.010721419
86	0xbba8a9e4	-0.0051472057
87	0xbc3eac78	-0.011637799
88	0xbc322df2	-0.010875212
89	0x3b940ea3	0.0045183464
90	0x3ba5ce65	0.0050600045
91	0xbcd3c139	-0.025848972
92	0x3af0a017	0.0018358257
93	0xbc01bd42	-0.007918658
94	0xbd0f4e42	-0.03498674
95	0xbb5ad343	-0.0033390082
96	0x3c51c33a	0.012802893
97	0xbc542638	-0.012948565
98	0x3c6c10b1	0.014408276
99	0xbca8a934	-0.020588495
100	0x3c4a607d	0.012352106
101	0xbb009be4	-0.0019624168
102	0x3c435ee5	0.01192448
103	0xbbd13fe8	-0.006385792
104	0x3c5b3ee0	0.01338169
105	0x3d0370f7	0.032090154
106	0xbbf24280	-0.0073931813
107	0x3c4e59e2	0.012594672
108	0x3cc94e4e	0.024573471
109	0x3c6de97a	0.014520997
110	0xbc5ddc56	-0.013541302
111	0x3c2ddf62	0.010612341
112	0x3b1d9c61	0.0024049508
113	0x3b47af0f	0.0030469333
114	0x3cc3f31c	0.023919635
115	0xbc4ae420	-0.012383491
116	0xbb82fe64	-0.003997611
117	0x3b8956f4	0.004191274
118	0x3d016f1f	0.031600114
119	0xbc8ea5c0	-0.01741302
120	0x3c33e1f1	0.010979162
121	0x3d27d12c	0.040970966
122	0xbacf8d84	-0.0015835022
123	0x39f757bf	0.00047176887
124	0x3c81542f	0.015787212
125	0xbcd1c1f0	-0.025605172
126	0x3cf3d617	0.029765172
127	0x3c29d599	0.010365867
128	0xbce20e68	-0.02759476
129	0xbbe0c936	-0.0068599237
130	0x3c91fb20	0.017819941
131	0x39991930	0.000292012
132	0xbce8cc5d	-0.02841776
133	0xbca7df8c	-0.020492338
134	0x3b7cfe96	0.0038603893
135	0xbcb044fe	-0.021517273
136	0xbbe6932a	-0.0070365863
137	0xbbf6da75	-0.0075333663
138	0x3bc488d2	0.0059977556
139	0xbc8136ac	-0.01577314
140	0x3cf6bf5e	0.030120548
141	0x3d0443fd	0.0322914
142	0x3c3b740b	0.011441241
143	0x39af881b	0.00033480008
144	0x3cf47535	0.029841045
145	0xbc2086ed	-0.009797794
146	0xbb4ead7d	-0.0031536513
147	0xbcad34e5	-0.021143386
148	0x3c926bb8	0.01787363
149	0xbcc3895f	-0.023869215
150	0x3b523a47	0.0032078193
151	0xbc8e1d14	-0.01734785
152	0x3b95563a	0.004557398
153	0x3c953d8b	0.018217823
154	0xbd15170e	-0.03639894
155	0x3d1fe738	0.039038867
156	0x3b9f8a19	0.0048687574
157	0x3bff6b20	0.0077947527
158	0xbb7a3d13	-0.0038183376
159	0xbcdf8225	-0.027283737
160	0xbc9856a7	-0.018596007
161	0x3d03cc1d	0.03217708
162	0xbbb1abc7	-0.005422089
163	0xbcbed474	-0.023294665
164	0x3a73843b	0.0009289418
165	0xbc14d859	-0.009084784
166	0xbbe08bba	-0.006852594
167	0x3cb72e11	0.022360833
168	0xbc277ece	-0.010223104
169	0x3c6eb288	0.014568932
170	0xbc69259b	-0.014230157
171	0x3d2ddda4	0.0424477
172	0xbc53d823	-0.012929949
173	0xbbf4247c	-0.0074506383
174	0xbb198713	-0.0023426458
175	0x3ce3fd80	0.02783084
176	0xb88bc178	-6.664073e-05
177	0x3ca1785b	0.01971071
178	0xbc075cf9	-0.0082619125
179	0x3ce93a1a	0.028470088
180	0xbcc66270	-0.02421686
181	0x3cd83b24	0.026395388
182	0x3cc812ad	0.024422968
183	0x3a5951f3	0.00082901045
184	0xbc0942d3	-0.008377749
185	0x3b72a073	0.0037021905
186	0x3a8f2633	0.0010921418
187	0xba70ab61	-0.0009180811
188	0xbbecdf82	-0.0072287926
189	0x3b649ae8	0.003488237
190	0x3ccb7d95	0.024840156
191	0x3b040b8c	0.0020148484
192	0xbcca5d8d	-0.024702812
193	0x3c0cd581	0.008595825
194	0xbb91ad96	-0.004445742
195	0x3c86fcba	0.016477931
196	0xbbeaeaf3	-0.0071691214
197	0xbc3bf826	-0.011472737
198	0x3bda35f1	0.0066592623
199	0x3cdf7a09	0.02727987
200	0xbaa18a2f	-0.0012324507
201	0x3cd72ef4	0.026267506
202	0xbcc271c8	-0.023735896
203	0xbbf243d9	-0.007393342
204	0x3bdc07c6	0.006714794
205	0x3c3c0ce9	0.011477687
206	0xbce3d080	-0.027809381
207	0xba9c0fe0	-0.0011906587
208	0xbbe01c0a	-0.00683928
209	0x3c15ce17	0.009143374
210	0xbc1bca89	-0.009508737
211	0xbc3453eb	-0.011006336
212	0xbc0e8690	-0.008699074
213	0xbb8996f8	-0.004198905
214	0x3c1e5b12	0.009665268
215	0x3c5af698	0.013364457
216	0x3c81e1c3	0.015854722
217	0x3c1815f5	0.009282579
218	0xbca98df7	-0.020697577
219	0xbca566f2	-0.02019069
220	0xbbfe821f	-0.0077669765
221	0xbc210acf	-0.009829237
222	0xbd034de3	-0.0320567
223	0xbcea01c0	-0.028565288
224	0xbb22fdb5	-0.002487046
225	0x3c3cd4ab	0.011525313
226	0xb8cca91f	-9.758979e-05
227	0xbccb8122	-0.024841849
228	0x3ad4c006	0.0016231544
229	0x3c311f27	0.01081065
230	0xbc0851f5	-0.008320321
231	0x3b406c0b	0.0029361274
232	0x3b53ef08	0.0032338519
233	0xbb010dca	-0.0019692057
234	0x3b679d57	0.0035341585
235	0xbbe6fb8d	-0.00704903
236	0xbc8ed9af	-0.017437784
237	0x3c865e7b	0.016402474
238	0xbc14cbfe	-0.009081839
239	0x3cc2de4a	0.023787636
240	0xbbf85bfc	-0.0075793248
241	0xbc89f382	-0.016839746
242	0xbc10960c	-0.008824836
243	0x3c6515d4	0.013982255
244	0x3c875b19	0.016522931
245	0x3bca41cd	0.006172395
246	0x3bf1b5c0	0.0073764026
247	0x3c2a2919	0.010385775
248	0xba936a41	-0.0011246876
249	0xbcc40e2a	-0.023932535
250	0xbc209900	-0.009802103
251	0xbc858ce9	-0.016302543
252	0xbc4b5e28	-0.012412585
253	0xbbe81c54	-0.007083455
254	0xbbf5d5b3	-0.0075022816
255	0x3c88e849	0.016712325

action_model._continuous_distribution.log_sigma f4 [1, 2]
0	0xbe86265d	-0.26201144
1	0xbead05f0	-0.33793592

action_model._continuous_distribution.mu.weight f4 [2, 64]
0	0xbe827117	-0.25476906
1	0xbd9e44ab	-0.07727941
2	0xbe65d14c	-0.22443122
3	0xbc69690a	-0.014246235
4	0xbc30a633	-0.0107818125
5	0xbbd4dc8b	-0.0064960173
6	0x3db36935	0.08760301
7	0x3d2923c4	0.041293874
8	0xbcdeeb67	-0.027211858
9	0xbe22c536	-0.15895543
10	0xbd54b77d	-0.0519328
11	0xbde107ff	-0.10987853
12	0xbe11498a	-0.14188209
13	0x3e60e777	0.21963297
14	0xbdd6ad1c	-0.10482237
15	0x3d584aab	0.052805584
16	0x3cf10713	0.029422319
17	0xbda699fd	-0.0813484
18	0x3d8b7075	0.06808559
19	0xbdf977b3	-0.12181034
20	0xbc44cf3b	-0.012012298
21	0x3e7eae0a	0.24871078
22	0x3d976e2f	0.07394063
23	0x3e266558	0.16249597
24	0x3e215a46	0.15757093
25	0xbdd2b426	-0.10288267
26	0xbe52f7ab	-0.2060229
27	0x3e0e5632	0.13900068
28	0x3d6f3fa4	0.0584103
29	0x3d97d23e	0.074131474
30	0xbdc4d4f2	-0.096109286
31	0xbe51699d	-0.20450445
32	0x3e03f645	0.12886913
33	0xbdbb1878	-0.091355264
34	0x3d60ef76	0.054915868
35	0x3e4dd04a	0.20098987
36	0x3dad02f5	0.0844783
37	0xbdfea6ca	-0.12434156
38	0xbdaee8d4	-0.08540502
39	0x3d888a62	0.066670194
40	0xbe264f8c	-0.16241282
41	0xbe71a93a	-0.23599711
42	0x3dc1d6af	0.09464776
43	0x3d21fc9f	0.03954756
44	0xbdd678c9	-0.10472257
45	0xbe2d7ef9	-0.16942967
46	0xbe2f99ac	-0.17148465
47	0xbd91e820	-0.071243525
48	0x3dc99ef2	0.098447695
49	0x3ec2cef5	0.3804852
50	0x3d9c70c8	0.07638699
51	0x3e9f9ee0	0.311759
52	0xbcf41a05	-0.029797563
53	0xbd232b0d	-0.03983598
54	0xbd36aaac	-0.04459636
55	0x3e346127	0.17615186
56	0x3dd00998	0.1015808
57	0x3d648c51	0.05579788
58	0x3e91aa69	0.28450325
59	0xbd8f1921	-0.06987215
60	0x3e247416	0.16059908
61	0xbe1c23fe	-0.15248105
62	0xbe0d0ef3	-0.13775234
63	0x3dd84d0a	0.10561569
64	0xbd061542	-0.032735117
65	0x3db6f56e	0.08933531
66	0xbe3fd534	-0.18733674
67	0x3c8c5772	0.01713154
68	0x3dee03fd	0.116218545
69	0xbe467120	-0.19379091
70	0x3e15f3b9	0.14643754
71	0xbe586f94	-0.21136314
72	0xbdc29802	-0.095016494
73	0xbe6bfc4e	-0.23045465
74	0xbe2c645c	-0.16835159
75	0xbd3f2396	-0.046664797
76	0x3b53b598	0.0032304283
77	0x3e283cb7	0.16429411
78	0xbe3c6865	-0.18399198
79	0x3e480f93	0.19537191
80	0x3ca64a5e	0.020299133
81	0xbe0d77ce	-0.13815233
82	0xbd4951ad	-0.049150158
83	0x3e355b4c	0.17710608
84	0x3c12e718	0.00896623
85	0x3dabb416	0.08383958
86	0xbe97bc89	-0.29636028
87	0xbe0ed14d	-0.1394703
88	0x3d92055f	0.07129931
89	0x3e12e21a	0.14344063
90	0x3e12dc39	0.14341821
91	0x3e3e97a4	0.18612534
92	0x3d5dd14e	0.054154687
93	0xbda58fc7	-0.08084064
94	0x3de4af8b	0.11166295
95	0xbe657096	-0.2240623
96	0xbe35dd0f	-0.17760108
97	0xbdcf6964	-0.101275235
98	0xbadc7dc3	-0.0016822148
99	0x3cd47c2c	0.025938116
100	0xbd16bf4e	-0.036803536
101	0xbd3ada3e	-0.04561829
102	0xbc2db150	-0.010601357
103	0xbdee8e05	-0.11648182
104	0xbe1d83a0	-0.15382242
105	0x3e4083e7	0.18800317
106	0x3ddad22e	0.1068462
107	0xbd205252	-0.039141007
108	0xbcf6a93b	-0.030109992
109	0x3e4902cf	0.19629978
110	0xbe5fb587	-0.21846591
111	0xbd7a4d06	-0.06110861
112	0xbdd432a1	-0.10361219
113	0x3f111fe0	0.5668926
114	0x3ddf06bb	0.108899556
115	0x3e16a5f0	0.14711738
116	0x3cb08017	0.021545453
117	0xbbf19d66	-0.0073734997
118	0x3e1bf2b6	0.15229306
119	0x3d8f719a	0.0700409
120	0x3e45cf32	0.1931732
121	0x3d8c5e30	0.06853902
122	0x3d41f9ed	0.04735749
123	0x3c9a6c9c	0.018850617
124	0xbdb447bb	-0.08802744
125	0xbd0c2735	-0.03421708
126	0xbdf31392	-0.11868967
127	0x3cf06d23	0.029348915

action_model._continuous_distribution.mu.bias f4 [2]
0	0xbdb62671	-0.08894051
1	0xbd802f37	-0.062590055
