results/FullyCont4/bachelor/bachelor-35999945.onnx (onnx, 872319 bytes, 12 tensors)

network_body._body_endoder.seq_layers.0.weight f4 [256, 7]
00000000: 8346 8fbe 44cc 4dbf e77b 043e 2775 adbe
00000010: 8adb f2be f22c 0c3e 15da 86be 518e 79be
00000020: 7429 f3bd efe8 08bf 4110 f7be 84ee 21bf
00000030: fe61 39bf 5d80 01bf 4323 d53c 1c64 793f
00000040: 1bf0 183f c0a7 123e c1c2 413f 81cd 31bf
00000050: 94a7 593e ad92 eb3d e722 bd3e 7327 583e
00000060: 67cd 143e 70dd 6ebe 1296 133e 5cce 653b
00000070: 2cf5 b63e f9c6 d13e 2738 193f 39e6 a2be
00000080: 9efc 3a3e 3f27 123e 6238 6bbe 072c c6be
00000090: 724c 04bd 0a04 423c 2e74 b33d 679e c23c
000000a0: 2249 e5be 08b6 a9bc b011 88be 41e7 61bd
000000b0: f5ba 293f 963a f9be 04f8 31bf 78db 9d3d
000000c0: d138 0abf 909d 013c 3eea d73e 125f 153d
000000d0: d474 06be 2870 2f3e b634 45bd c108 43be
000000e0: 1038 bdbe abeb 0d3f 9a0f 613e 53da d2be
000000f0: d09e 253d 85b5 283e c639 ce3e eb78 d0be
00000100: c5df d3be 422b 923d 606a d43e 7f9e f8be
00000110: 8b86 67bf f01c 05bf b71b 3dbf 61d9 b83e
00000120: 47b0 1bbf b7f4 a93e 1ea1 2fbd f453 613e
00000130: 2339 2b3f 30d2 2abf e8e1 d83e 5b1c 8b3d
00000140: c0b8 0fbf 4366 18bf b94d 6fbe 9c46 04bf
00000150: 2098 643f 93d6 8e3e ebe2 10be 9731 2abe
00000160: 4fda d6be be4b 1b3f e1de f33e def9 cfbd
00000170: 47cb bebe 463e 5ebe f424 cabe 7b99 d4bb
00000180: 306e d1bd d2c5 66be 2843 37be 731b 2bbe
00000190: 6606 a6be 5bb3 e1be a435 af3e 761b 10be
000001a0: 1deb 4bbf be79 a5bd 8e33 fbbe d44f c3bc
000001b0: 00f9 27be bf97 e83c eff3 913e 4f1a bfbe
000001c0: 3f57 a13e 7430 353e b452 a43e 83e6 393e
000001d0: a226 edbe 43de 13bd 7e2c 19bf e393 f2bd
000001e0: 277b 46bf 33e8 eb3e fe0d b83e 3119 153f
000001f0: 194a f53e 63dc f0be 070c 863e a27d 6bbf
00000200: d5e3 6cbe 87da d23c fff8 0dbe 53d4 d93e
00000210: 80bb ba3e 494d 173d bc2f 54bf 4f19 c7bd
00000220: 9904 173e abff 0cbd 0b02 17be 1fff 55bd
00000230: 34b7 1fbe fcd1 c23e c36d efbe a089 3c3f
00000240: 4c68 3f3b 4801 5c3d 338a 18bf 4f1e 8fbd
00000250: fc48 21bf 7d99 e9be c727 513e 82b3 52bf
00000260: 4b45 bdbd 485c 4abf 0205 853c 0807 84bd
00000270: 6fe5 e6bd cced 113e d16c b63e 6089 54bd
00000280: d199 92be 60f5 823e 02b2 033f c8bb a73e
00000290: c785 c6bd 8faa 66be e3fc 453f f9a6 133f
000002a0: 55b2 5a3f 93f6 d53e f47a ebbd 8373 f03e
000002b0: a1a0 103d 88ac 07be 4a4e 563f f1c6 5e3e
000002c0: 74ab 7e3d 2513 ef3e 0d02 c1be 6ff7 11be
000002d0: 4c5f f1be 85a1 a1be 4e50 4dbd ef44 903e
000002e0: 06ad 223e 8ffe 8ebe 52fb ad3e 04a2 47bf
000002f0: 2f82 1b3f f870 263f 12e9 293f 446b 51be
00000300: 263d f6be 1406 683e 2cd2 6c3e 8f10 c03e
00000310: 7c0b d3be 9165 00bf b842 55be 0f4b 713e
00000320: 8590 063e 72af 84be 591a e93d e5a6 8c3e
00000330: 81f2 e6be a4a6 64be 8d1c dcbe 92d7 d0be
00000340: e77e dbbe 8600 e2be 19aa fe3e 40e3 66be
00000350: 16dc b0be f712 9ebe df91 063f 28e7 04bf
00000360: 38e4 ab3d 062f 28bf 64be 4d3f 29c3 a1be
00000370: 3d3e 433e 41c4 003d 2992 db3d 9ed9 133f
00000380: 7e59 38be 0709 2fbf 0fb4 d63e 5887 003f
00000390: fbc6 c8be 9efa 17bf 14c8 553e 0750 0b3f
000003a0: abd1 593e bf7f 423e 1299 c63e aea1 163f
000003b0: 780b 093e 5444 b23e 25a7 2dbe 6e3b a93e
000003c0: 8783 88be e8af 8d3e 596d b53e c75f 93bc
000003d0: 711b dbbe 21c0 803e 7c55 d03d 3f71 2d3d
000003e0: a8bf 603d dbee 4cbe b148 b73e 1e5f 4fbe
000003f0: 8690 453f 6ce8 a73d e845 0a3f 8440 e13e
-0.27983484 -0.8038981 0.1293789 -0.33878443 -0.4743312 0.1368902 -0.26338258 -0.24370696
-0.11873141 -0.5348043 -0.48254588 -0.6325457 -0.7241515 -0.5058649 0.02601779 0.9741838
0.5974137 0.14321804 0.75687796 -0.694542 0.21255332 0.115025856 0.3694069 0.21108799
0.1453148 -0.23326659 0.14412716 0.0035065627 0.35733926 0.40972117 0.59851307 -0.3181627
0.18260428 0.14272784 -0.22970727 -0.38705465 -0.032299466 0.011841783 0.08762394 0.023757173
-0.44782358 -0.020716682 -0.26575994 -0.05515218 0.663009 -0.4867751 -0.69519067 0.07707876
-0.53992945 0.007911101 0.421709 0.03646762 -0.13130504 0.17132628 -0.048145972 -0.19046308
-0.36956835 0.55437726 0.21978608 -0.41182193 0.04043466 0.16475494 0.40278453 -0.40717253
-0.4138166 0.07137157 0.41487408 -0.48558423 -0.9043967 -0.5199728 -0.73870414 0.36103347
-0.6081585 0.33194515 -0.042878263 0.22004682 0.6688406 -0.6672697 0.42359853 0.06792518
-0.5614128 -0.5953104 -0.23369493 -0.5167024 0.89294624 0.27898082 -0.14149062 -0.1662048
-0.4196343 0.6066245 0.4763098 -0.1015508 -0.37264463 -0.21703443 -0.39481318 -0.006488023
-0.10226095 -0.225364 -0.17896712 -0.1670969 -0.32426757 -0.4408215 0.34220612 -0.14072976
-0.7965563 -0.08079861 -0.4906277 -0.023841776 -0.1640358 0.02839267 0.2850642 -0.3732476
0.31511876 0.17694265 0.32094347 0.1815434 -0.46318537 -0.036100637 -0.59833515 -0.118446134
-0.77531666 0.4607559 0.35948175 0.58241564 0.47908095 -0.47043142 0.2618105 -0.91988575
-0.23133786 0.025738968 -0.13864516 0.42544803 0.36471176 0.03693894 -0.82885337 -0.09721624
0.14747848 -0.03442351 -0.14746873 -0.052245256 -0.1559723 0.3805083 -0.4676343 0.736475
0.0029206453 0.05371216 -0.59585875 -0.06988203 -0.6300199 -0.45624915 0.2042533 -0.8230516
-0.09241732 -0.7904706 0.01623774 -0.064466536 -0.1127423 0.14250869 0.35629895 -0.051888824
-0.28632978 0.2557783 0.51443493 0.32760453 -0.09693485 -0.22526 0.77339 0.57676655
0.85428363 0.41789684 -0.11498061 0.46963128 0.035309438 -0.13249409 0.8371321 0.21755578
0.06217523 0.46694294 -0.37696877 -0.14254545 -0.47143018 -0.31568542 -0.050125413 0.28177592
0.15886316 -0.27928588 0.33980805 -0.7798159 0.6074552 0.65016127 0.6637126 -0.20451075
-0.48093528 0.22658569 0.23127049 0.37512633 -0.412197 -0.5015498 -0.20826232 0.23563789
0.13141067 -0.25915104 0.113819785 0.2747108 -0.4510689 -0.22329193 -0.42990533 -0.40789467
-0.42870256 -0.44141024 0.4973915 -0.22547626 -0.34542912 -0.30873844 0.5256633 -0.51915216
0.08393139 -0.6569675 0.8036864 -0.31594208 0.19066711 0.031437162 0.10721237 0.5775393
-0.18002889 -0.6837315 0.4193425 0.5020652 -0.3921431 -0.59366786 0.20877105 0.5441899
0.21271388 0.18994044 0.38788658 0.58840454 0.13383281 0.34817755 -0.16958292 0.33053154
-0.26662847 0.27673268 0.35434988 -0.017990006 -0.42794374 0.25146583 0.10172555 0.042344328
0.054870278 -0.20012991 0.35797647 -0.20251128 0.7717365 0.08198628 0.5401292 0.43994534

network_body._body_endoder.seq_layers.0.bias f4 [256]
00000000: 66f0 ca3b acd2 c93c 7bbd 6b3c 4232 6a3b
00000010: d5d4 463b 8e87 b53b d7b8 eb3c 21f6 83bb
00000020: 6bca e93c 5dd3 e1bc ad46 5c3c d66e 8e3a
00000030: 3559 b03c 0b18 56bc b8ab 3e3c c603 93bb
00000040: ec3e 0d3c 81f7 eb3c 89cf 6a3b d941 0bbc
00000050: 3c89 a5bc d740 613c 4438 10bc 042a 2e3c
00000060: b76a 423c 421c c33b cda1 6f3c 13a0 433d
00000070: d92d 9b3c 3206 163c 9b90 afbb 1c7e 693c
00000080: c115 a5bb b05d 2ebb c39d 253b b5e3 f93c
00000090: 3b09 1ebc 7bf9 59bb 7d97 a23c f9e1 aebb
000000a0: deac 063d 8a42 c53b 59ce b7bc c90e 8a3b
000000b0: 9a8c 12bc 0b26 5dbc b8e6 95bc 942e 1cbc
000000c0: f91e 273c 0fef 7cbb e53e 35bc c43f 0cbd
000000d0: 5fcc b03c 6c66 ae3c 58f5 ac3c 6a6a 27bc
000000e0: 4c27 003d c204 6abb a25a d73c c42b 53bc
000000f0: a65d 4f3b 83e4 5abc 479e e13c 7cd2 5c3c
00000100: 249e c63c 8ed9 6e3c 72a0 e73b 95bb ad3c
00000110: b0c0 7f3b 9351 fe3b 2c64 fa3c 0cb5 afbc
00000120: 95b3 d53b 16d2 abbc f21f ed3b 8934 f9bb
00000130: f024 31bc c7c7 8bbc e995 cd3c 24ef 6ebc
00000140: 4a93 81bc 3551 09bc 1e98 82bc c3be 14bd
00000150: e7bb 21bc 1248 e33b fd2e 463b 5a37 24bc
00000160: e7f9 573c db95 93bb 6b5d d5bb f0d5 94bc
00000170: f1ea b6ba 8308 fc3b 3e27 90bc 9065 9a3c
00000180: aa7b 603c ccc3 27bc e241 52bc f75d a33c
00000190: 56d9 37bc 8c38 883c 54fc 03bc 9099 733c
000001a0: af8e fc3b c267 9d3b a91a ad3b 39ac f93a
000001b0: a4c9 253b 603b 253d 682c ff3a 38e5 75bc
000001c0: 3278 d9ba da55 2fbc d083 463c 10ef 4dbb
000001d0: 288f 8e3a 404d 1ebc c69d 17bc ef8f a6bb
000001e0: a490 71bb 33de 43bc 46ec 663c 224f 223a
000001f0: 0d74 a13c c424 083d e3a6 e53c c4c7 b9bb
00000200: a7c1 bc3b 4c47 63bb 70cb 70bc f2f3 903c
00000210: 95ab 55bb e45d 43bc 8db8 1a3b 3da0 3ebc
00000220: 2e64 98bc 5530 913c 6adc 51bc 0372 ef3b
00000230: b9cb 4a3c 36aa 95bb e3d8 333c 5354 1abc
00000240: 39c9 5d3c 2e5d 663c 9e88 53bb c86e 17bc
00000250: fc1d da3b 3f9f 3b3b 838a 30b9 d5af 28bd
00000260: 8bed 97bb 31de c03c ab4c b1ba 8992 8aba
00000270: 85cc 8f3c ccb7 8f3c fe85 51bc a3f5 31bc
00000280: c58e a6bb 859e d53c 1a53 e9bb 51d3 803c
00000290: c2b6 94bb 0927 fcbc 79ee 33bb 0a1a 6e3a
000002a0: aa17 18bc 2a79 75bb 7876 e7bc 07a0 3a3d
000002b0: 0a82 3bbb 0cf2 33bb 2006 03bc 1af9 6fbc
000002c0: a21d afbc 6104 deba d0e1 413c 7a3e b4bb
000002d0: 5cb6 d93c a4e0 083c b81a e8bc 9569 f03c
000002e0: 92e4 903c 87b1 e83b d21c 2e3c bbe2 3f3c
000002f0: d625 e93b c469 f43c de72 d53c e03f e2bb
00000300: 043a 193c f141 a739 87c6 743c 38db 0c3b
00000310: 1f4a d7ba 476a 993b 4ccd b6bc 3eb0 653c
00000320: ee13 243a 7b9b 5bbc 0bc6 09bc d842 bdba
00000330: 4d4a b53b bd9b aabb f250 19bc 92db 92bc
00000340: b72c d23c 269f c7bc 63dc 163d 790b 66bb
00000350: 58b7 c13b 2ee3 81bc ae41 703a 8ddb f1bb
00000360: ee93 75bc 5813 163d 5e41 14bc cbc3 ff3b
00000370: f66e 93bb fc30 d1bb 4923 b33c 6d76 a93c
00000380: 1f2d a33b 060e c7bc db64 993c 5b6d 7b3c
00000390: 1f48 b9bc b198 893c 65c7 a7bc 16eb 13bc
000003a0: 1bc1 8abc 6c9e 7abb bfbd a43c 16ed bc3c
000003b0: 7e5d b1bb b339 debb 9fbd 8d3b 001f a1bc
000003c0: ff6b 03bc 3527 7e3b 5227 83bc 4f5f ca39
000003d0: bc24 08bc 85f0 823c a6b6 03bc 8daa b23c
000003e0: 4bed a53a 32ad 16bc ad34 003c 349d 053d
000003f0: 8dd9 93bc d011 88bc 8495 99bb 473b 94bb
0.0061932085 0.024636589 0.014388437 0.0035735522 0.003033926 0.005539841 0.028774662 -0.0040271436
0.028538903 -0.027566606 0.013444585 0.0010866772 0.021526912 -0.013067256 0.011637621 -0.004486534
0.008620959 0.028804542 0.0035829267 -0.008499586 -0.02020704 0.013748369 -0.008802477 0.0106301345
0.011866263 0.0059542963 0.014625979 0.04776008 0.01894276 0.0091567505 -0.0053578145 0.014251258
-0.0050379937 -0.0026606135 0.0025271035 0.030504087 -0.009645755 -0.0033260274 0.019847626 -0.0053369966
0.032879703 0.006019895 -0.022437261 0.0042131883 -0.008944655 -0.01349784 -0.018298492 -0.009532589
0.010200256 -0.0038594638 -0.0110623585 -0.0342405 0.021581827 0.021289073 0.021113083 -0.010218242
0.031287476 -0.0035708402 0.026288334 -0.0128888525 0.0031641512 -0.0133601455 0.027541293 0.013477918
0.02424533 0.014578236 0.007068687 0.02120761 0.0039024763 0.0077611892 0.030565344 -0.021448635
0.006521652 -0.0209742 0.007236474 -0.0076051396 -0.010812029 -0.017063035 0.025095897 -0.014583383
-0.015817303 -0.008381178 -0.015941676 -0.036314737 -0.00987146 0.0069360817 0.003024041 -0.0100229625
0.01318214 -0.004503948 -0.0065113804 -0.01816842 -0.0013955516 0.0076914444 -0.017596837 0.018847257
0.013701359 -0.010239553 -0.0128330905 0.019942267 -0.0112212505 0.016628526 -0.008055765 0.014868155
0.007707439 0.0048036287 0.005282719 0.0019048519 0.002529719 0.040339828 0.001946819 -0.015008263
-0.0016591607 -0.010701621 0.0121163875 -0.003142301 0.0010876404 -0.0096619725 -0.009253925 -0.005083076
-0.0036859894 -0.011954832 0.014094418 0.0006191601 0.019708658 0.033238187 0.02803368 -0.005669566
0.00576039 -0.0034679947 -0.014696941 0.017694447 -0.0032603492 -0.011924241 0.0023608536 -0.0116348835
-0.018602457 0.017723242 -0.012808898 0.0073072924 0.012377673 -0.00456741 0.010977003 -0.0094195185
0.013536745 0.014060302 -0.0032277475 -0.009242721 0.0066564064 0.0028628854 -0.00016836268 -0.04118331
-0.0046364716 0.02354345 -0.0013526877 -0.0010572235 0.017553577 0.017543696 -0.012788294 -0.010861787
-0.0050829374 0.026076565 -0.007120502 0.015725764 -0.004538388 -0.030780332 -0.0027455373 0.00090828596
-0.009282986 -0.0037456253 -0.028254732 0.04556277 -0.0028611445 -0.0027457504 -0.007997066 -0.014646793
-0.021376435 -0.0016938561 0.011833623 -0.005500612 0.026576214 0.00835434 -0.028333053 0.02934722
0.017687116 0.007101241 0.0106269885 0.011711772 0.007115106 0.02983559 0.02605575 -0.006904587
0.009352211 0.00031901852 0.014939911 0.002149297 -0.0016425288 0.0046818587 -0.02231469 0.01401907
0.0006259073 -0.013403769 -0.0084090335 -0.0014439477 0.005532539 -0.0052065537 -0.009357678 -0.017926965
0.025656087 -0.02436788 0.03683127 -0.0035102053 0.005911749 -0.015855398 0.00091650605 -0.007380909
-0.0149888825 0.03663954 -0.009048788 0.0078053228 -0.0044993116 -0.006384013 0.021867411 0.020686353
0.004979744 -0.02429868 0.01872485 0.015345897 -0.022617398 0.016796442 -0.02048082 -0.009028217
-0.016937783 -0.00382414 0.02011001 0.02306227 -0.0054127565 -0.0067817806 0.004325583 -0.019668102
-0.008021354 0.0038780693 -0.01600996 0.00038599453 -0.008309539 0.01598383 -0.008039152 0.02180984
0.001265922 -0.009196566 0.007825059 0.032620624 -0.018048072 -0.016610056 -0.004687013 -0.004523668

network_body._body_endoder.seq_layers.2.weight f4 [256, 256]
00000000: db38 8c3d c4fe 383d c9f6 77bb eea0 143e
00000010: 870a f93a ea9a 8f3d 9369 b53c 258d fcbd
00000020: 4085 bebc 676d 8dbc 969a 2fbd d5a7 3d3c
00000030: 4a4d 2cbd 8c7d a9bd 120a 17bd 385a 483d
00000040: d1b0 893c 03ad a1bd 2afc dc3b a58a dbbc
00000050: 17ae 103d bc3c 923d 4eda fcbc 3aab eb3b
00000060: d70e 82bd 26f2 323d 4342 013e 65d9 d23d
00000070: 77b9 013c a524 c0bd fb0b b03d 7216 94bb
00000080: b627 48bd 3573 d33c a269 363d 44c8 0abd
00000090: 4217 03bd fc72 dfbc a320 fd3c 4678 eabd
000000a0: 466b 17bc 498a 8a3d ec86 213c ebc9 993c
000000b0: 66fb c73d cdf3 b53d e871 b33c 2454 3fbd
000000c0: 94ca 57bd 94c4 6a3d 6451 dfbd e5bf 273d
000000d0: 2bed 82bd dbef b83c 148b d83d 8c5f 2a3c
000000e0: c5bf 5a3c f506 1d3d 4e12 07be 7e63 32bd
000000f0: b14d 76bb 8d03 653a 5607 04bd e814 21bd
00000100: 2608 2abd 00c5 c9bd cf06 833d a8b2 413d
00000110: 982c a8bd dcd9 80bd 3f1b 993d 539f c53b
00000120: a06f e13d 75ab aabc 0d62 a73c 8e80 1fbd
00000130: df1b c93d 9a3e 65bd 04a1 0e3c 9da3 843c
00000140: af74 823d eecd 29bd 7798 873d 621d c5bc
00000150: 93fe 91bd caa3 4b3d 46c6 223e b05c a13c
00000160: a6df 91bd e244 d6bc 9e23 733d baff 073e
00000170: faeb 823d 1fdd e23c bbb3 513d 2d71 a4bd
00000180: b1a2 f13b 99e0 6ebd f81c 4e3d 0c73 d43d
00000190: 511a 24be ad84 943d 45e6 173c c6d9 9cbb
000001a0: 24cc 71bd b0bf 3dbd 4df1 b63c 294f 91bd
000001b0: 0a49 90bd 5dd9 fc3c 3b54 36bd a38a abbd
000001c0: d044 b93d 07db 8cbc 29ee 1a3e f74e cfbc
000001d0: 50fa 60bc 7d6d ae3d 924a d6bc dc48 ddbd
000001e0: 1272 0ebc 13c9 76bd b284 e13b a10a ccbd
000001f0: fed4 513d 9bf8 d13c 7f0d c43c 055d febc
00000200: 8176 e7bd 2d80 ee3c f22f 9f3b 5b03 91bc
00000210: d61d bbbd 2d06 d13d 6015 6dbc babb 693d
00000220: 2517 083c 3eda 40bc 558f 883b 665a 4fbd
00000230: 7f87 323d 3b65 02be fb29 b73d a5ad c53b
00000240: 7c25 ce3c 9441 8abc 5e6b 56bd a9c3 623d
00000250: 0b2f a3bd c77c 83bd b79b bc3c 275f 13be
00000260: e7e8 a9bc 02a3 2bbd dea4 f43b 3eaa b9bb
00000270: add6 53bc e346 fabc f48b 23bb 3482 05ba
00000280: c175 453d 6cba cf3c a350 2d3d 24c7 a3bd
00000290: eb43 b9bc e0d2 99bc d26a 36bb 34e7 1c3d
000002a0: e7ec 93bd 62b8 a1bd 980c 6f3d 1638 55bd
000002b0: 7694 ba3d b9fc 7bbd 0565 23bd 60cf 7d3d
000002c0: 86c9 fe3c 9554 4e3d bfe6 e9bd cebb b33c
000002d0: a308 073d 013f 413c 4e3c 1e3d 4329 a53c
000002e0: 2044 9d3c 34cb 0ebe 5cef 073d 5f6c f73c
000002f0: 4c6e a9bd 6d3a 3c3d 9393 91bd 88ce 4bbd
00000300: af61 ce3b 79d2 01bc 1fe1 a83d 3ec4 4fbd
00000310: d239 7cbd 1a47 00bd 1dc6 55bd ec3a 423c
00000320: 1889 dd38 424d 6fbc f2b0 cb3d 0fe1 67bd
00000330: 319a 5e3d a48a 48bd dbae bb3b c2d5 773d
00000340: 73d2 c9bc a02c 7dbd 2194 313e c343 1bbd
00000350: f825 86bb dfc8 163d 97c5 083d 7f51 bf3d
00000360: 64bc 8fbd 6312 1cbd 62bb 9e3d ad48 85bd
00000370: da61 0d3d 0336 a6bc 5a04 2f3d 3710 e0bc
00000380: 3bb4 7bbd 6dd4 29bd 7e11 403d 9f1c 9bbd
00000390: 37b0 74bd e7ef 56bc 4a0d 9fbd c86a 10bc
000003a0: e128 043d 29f0 53bd 2ffc 4dbb a446 e3bc
000003b0: 1179 97bd 1d30 51bd 7bff 03bd 15f7 973c
000003c0: a4af c3bc 2f6e 71bd 9d8d 123d 45cb 553d
000003d0: 381f e43c 4d2e 64bc 6554 56bc 5d15 82bc
000003e0: 688c 7ebd 7453 c83d 8729 d2bd 5f6f 13bd
000003f0: 15c1 8a3d aef5 bcbd d4ba 883d 8683 f13b
0.06846782 0.04516484 -0.0037836304 0.14514515 0.001900033 0.070119694 0.022145068 -0.12331609
-0.023256898 -0.017264081 -0.042872034 0.011575659 -0.042065896 -0.08275899 -0.03687484 0.048914164
0.016807945 -0.078943275 0.0067439275 -0.02679951 0.035322275 0.071404904 -0.030865815 0.0071920427
-0.06350487 0.043687962 0.12622933 0.10295371 0.007917753 -0.093819894 0.08596035 -0.0045192773
-0.048865996 0.02581177 0.044534333 -0.033882394 -0.032004602 -0.027276509 0.030899351 -0.114487216
-0.009241885 0.06764657 0.009858828 0.01877304 0.09764747 0.08884392 0.0219049 -0.046711102
-0.052683428 0.057316378 -0.10904196 0.04095449 -0.063928925 0.02257531 0.10573402 0.010398757
0.0133513855 0.038336713 -0.13190576 -0.043551914 -0.0037582929 0.0008736186 -0.03223356 -0.03932658
-0.041511677 -0.09852028 0.06397783 0.04728952 -0.082116306 -0.062915534 0.074759 0.006030956
0.11007619 -0.02083371 0.020432496 -0.03894096 0.09819769 -0.055967905 0.008705381 0.016191298
0.06369912 -0.041456155 0.06620877 -0.024061862 -0.07128634 0.04971675 0.15895948 0.019697517
-0.07122736 -0.026155893 0.05936014 0.13281146 0.06392665 0.02769333 0.051196795 -0.08029399
0.0073741307 -0.05831966 0.050320596 0.10373506 -0.16025664 0.072518684 0.009271209 -0.004786703
-0.059032574 -0.046325386 0.022331858 -0.07095177 -0.07045181 0.030865366 -0.044513922 -0.08376052
0.09046328 -0.017194284 0.15129913 -0.025306208 -0.013731554 0.08516977 -0.026158605 -0.108049124
-0.008694189 -0.060250353 0.0068822736 -0.09962965 0.051228516 0.02563124 0.023932217 -0.031050215
-0.113019 0.029113853 0.0048580104 -0.017701795 -0.0913655 0.10206256 -0.014470428 0.057063796
0.008306299 -0.011770783 0.004167477 -0.05062332 0.04358625 -0.12733929 0.08943554 0.006032663
0.025164358 -0.016876973 -0.052348487 0.055362377 -0.07967957 -0.06420284 0.02302347 -0.14391766
-0.02074094 -0.041903503 0.0074659428 -0.0056660464 -0.012929601 -0.03055138 -0.0024955245 -0.0005092949
0.048208002 0.025357448 0.04231323 -0.079969674 -0.022615394 -0.01877731 -0.0027834666 0.03830643
-0.0722292 -0.07896496 0.05836162 -0.05205544 0.09110348 -0.061520312 -0.03989126 0.061965346
0.031101953 0.050373632 -0.114209644 0.021940138 0.03296722 0.011794806 0.03863173 0.020161277
0.019197524 -0.13944703 0.033187255 0.030203043 -0.082729906 0.045954157 -0.07108226 -0.04975751
0.006298266 -0.007923716 0.082460634 -0.05072426 -0.06157858 -0.031317808 -0.05219089 0.011854868
0.00010563637 -0.014605822 0.09945859 -0.056611117 0.054346267 -0.048960343 0.0057276315 0.06050659
-0.024636483 -0.061810136 0.17341663 -0.03790642 -0.0040938817 0.03681266 0.03339156 0.09341716
-0.070183545 -0.038103472 0.07750584 -0.065080024 0.034517147 -0.020289427 0.04272876 -0.027351482
-0.061451178 -0.04146235 0.04689168 -0.075738184 -0.059738364 -0.013118721 -0.077662066 -0.008814521
0.032265548 -0.051742706 -0.003143083 -0.027743645 -0.073961385 -0.051071275 -0.032226067 0.018550435
-0.023887463 -0.05894297 0.035779584 0.052195806 0.027846918 -0.013927055 -0.013081645 -0.015879327
-0.06214562 0.097815424 -0.10261827 -0.035994884 0.06775109 -0.09226547 0.0667626 0.007370415

network_body._body_endoder.seq_layers.2.bias f4 [256]
00000000: f17e 1439 68f3 45bc 9610 71bc ce93 bcbc
00000010: 9d8f 093b 32da dcbc aff3 c53b 2088 2a3c
00000020: 6556 553c 4478 a8bc 1c53 a8bc 4400 42bc
00000030: 8e68 a63c 93ba 22bc 4d66 c33c e13a c0bc
00000040: f219 07bb 46e5 fc3b c82c 18bc 6497 b137
00000050: 2c29 0bbc 9e44 a9ba 2603 343c 18f2 023d
00000060: ce3a 683c 12b8 f63b 4b27 163b 15a9 203b
00000070: f20a 0abd b223 603c e608 c33c a3ce 96bc
00000080: 7d8a 083b c375 573b 0f26 2aba 7483 9dba
00000090: 03ea f83b ddd4 033d f6ed 1f3d 7e4f d4bc
000000a0: a718 aebc 45ba 31bc 2701 6f3c 846a ccbb
000000b0: 1d23 62bc fa03 76bc 05e6 1e3d d8d4 c7bc
000000c0: 6453 4f3c 5dd1 53bc 7490 813c 553d e83b
000000d0: 048d babb 6dcb 58bb cdea 10bc ae13 d6bc
000000e0: 2144 383c def5 c6bc e0a2 683c 04e6 4b3c
000000f0: b851 1e3c bad2 a5bc bf13 023d 9240 a9bb
00000100: 15f1 bebc 4505 2fba 083d 35bc 0d76 e73b
00000110: 8082 8abb 7d2f 82bb e476 6d3b ab55 1e3c
00000120: 96dc ab3c df80 023d 9aaa 4c3c 046e 3bbc
00000130: 38a2 373c b8f3 ffba 48a1 e8bb 2eb7 923b
00000140: b6bf 7e3b afe2 b13c 2b20 0bbc 62a9 7ebc
00000150: 737f b63c 2928 97bb 7218 993c b76f 223c
00000160: a38c b9b8 eab2 e3bb 68d0 df3b 0b88 ec3b
00000170: 7169 bcbc 4bb8 e73b 48f1 9bba dc66 11bc
00000180: cd83 823c 15f7 0abd f332 61bc c3c7 bbbc
00000190: c5a4 55bc d595 d03b 182c 4938 667f 8abc
000001a0: 3742 683b 619d 853c 85e5 bcbc f277 213c
000001b0: 6503 133c 1eb1 6e3c 4b07 c7bb 8e2a afbb
000001c0: 2f14 a2bb 583d a93c 0745 7dbc 16d0 7ebc
000001d0: 5538 93bc a1da d1bc 9c64 96bc e856 7e3c
000001e0: 98e5 f1bb 8466 cabc bd25 f6bc 4ed3 f3bc
000001f0: f401 24bc f1e0 eabb 2785 4fbc ed7c bcbc
00000200: 39a5 513c 042a 07bd 01e6 fcbb 85fe ea3c
00000210: 413f 883c 91fb 59bc 67bc ee3c ce52 773c
00000220: b7e7 603b 77ca aabc 367e 1dbc 9cf5 793b
00000230: 240e aebc 769b 693c d0bd 903c 5b9a 7e3c
00000240: b687 5fbc ba7e 713c 53d8 4bbc 4542 b0bc
00000250: 43bc 0e3c 79ca 8e3c 909d babb c2f4 bbbb
00000260: 6763 58bc caef 04bc eaf6 f9bb 3a12 623c
00000270: 5a0d 863c e55d 24bc 9a49 873c 55d8 ac3c
00000280: 52f3 a6bc 793b b0bc 7d14 123b 1714 2c3b
00000290: da4f 30bc 24cc ae3b 0b1a 2f3c 1b55 3f39
000002a0: e1b6 48bc ce94 453c 220b b4bc d53c 3ebc
000002b0: b940 443c 2a17 9f3a 1845 93bb 48e2 12bc
000002c0: d8ec d8bb 9b31 9ebc 7d22 6bbc f786 3dba
000002d0: d310 803b ef7c d0ba 5059 7bbc a16d b7bc
000002e0: 185f 623b d218 d2ba 08dd b33c dd66 363c
000002f0: 72d1 8d3b b364 96ba 1d1f c0bc 7bc3 ce3b
00000300: 6fb5 24bc 612a 4c3c 416c 5a3c e757 c1bb
00000310: b735 81bb 5ea1 68bc c18d cc3b 4b22 91bb
00000320: 0558 743c 975d e63b b913 05bb d92c 663b
00000330: 87f2 e73b d88c 9abb 1398 0fbd 8052 d13b
00000340: 7e26 eb3c 07bf b13c 9a3b 68b9 55d5 40bc
00000350: c7e8 a23b a0dc 16bc 6b11 983c ff6d c3bc
00000360: 54aa 3cbc b3cd 4b3b ed1d c93b 8e6c 83bc
00000370: 85e0 103b 21e9 83bc 533c ce3c a05f a63c
00000380: e646 c73b f043 7b3b edca 7e3c 4c3f c9bc
00000390: bd78 f43b 1f55 8cbc a3a5 28bd fbda f13b
000003a0: 64ee a1bc d609 86bb da57 2e3c 4fbc aaba
000003b0: 3167 fb3a 4e56 8d3c ddde f9bc aaf7 da3a
000003c0: 1d56 933c 6851 823c 9a8c 813a 2f42 e6b7
000003d0: fee0 423c 4858 b43b d6ee d43c fa8e 65bc
000003e0: 51df 26bd 450a 133b d5b7 92bc db60 553c
000003f0: 235f 08bc 9ff1 4abc 7e79 2d3b 39ed e9bb
0.00014161669 -0.012081958 -0.014713427 -0.023019698 0.0020990141 -0.026959512 0.0060410122 0.010408431
0.013021086 -0.02056516 -0.020547442 -0.011840884 0.020313527 -0.009932178 0.023852492 -0.023465576
-0.002061483 0.007717761 -0.00928802 2.1170541e-05 -0.008493703 -0.0012914126 0.010987079 0.03196916
0.014174176 0.007529267 0.0022911604 0.0024514843 -0.033701845 0.013680385 0.023807954 -0.018409079
0.0020834499 0.0032876588 -0.00064906565 -0.0012017325 0.0075962557 0.032185424 0.039045297 -0.025916811
-0.02125199 -0.010847633 0.014587677 -0.0062382836 -0.013802317 -0.0150155965 0.038793582 -0.024393484
0.012654159 -0.012928334 0.01581595 0.0070873895 -0.00569308 -0.0033080236 -0.008845043 -0.02613243
0.011246712 -0.02428716 0.014198989 0.012444977 0.009663038 -0.020242084 0.031757113 -0.005165168
-0.023308316 -0.00066765054 -0.011061914 0.0070636333 -0.0042269826 -0.003972946 0.0036234194 0.0096639795
0.020979207 0.031861182 0.012491846 -0.011439804 0.01120811 -0.001952759 -0.0070993043 0.004477403
0.0038871593 0.021714536 -0.008491556 -0.015543314 0.02227757 -0.0046129418 0.018688414 0.00991433
-8.847683e-05 -0.0069488185 0.006830264 0.007218366 -0.022999497 0.00707153 -0.0011897469 -0.008874621
0.015931988 -0.033927042 -0.013745057 -0.022922402 -0.013039772 0.0063655176 4.79632e-05 -0.016906451
0.0035439858 0.016310396 -0.023058662 0.009855257 0.008972977 0.014568595 -0.0060738674 -0.005345649
-0.0049462537 0.020659134 -0.015458352 -0.015552541 -0.017971197 -0.025616946 -0.018358521 0.01552365
-0.007382106 -0.024707086 -0.030047292 -0.029763844 -0.010010231 -0.0071679284 -0.012666023 -0.023008788
0.01279574 -0.032999054 -0.0077178483 0.028685817 0.016631724 -0.013304607 0.029142572 0.015095426
0.00343178 -0.020848496 -0.009612611 0.003814078 -0.021246977 0.014258256 0.017668635 0.015539731
-0.013643196 0.014739687 -0.012441712 -0.021515975 0.008711877 0.01743053 -0.0056950524 -0.0057359645
-0.013207293 -0.008113811 -0.0076283114 0.013798291 0.016363788 -0.010032152 0.016514588 0.021099249
-0.020379696 -0.021512734 0.0022290044 0.0026257092 -0.010761226 0.005334394 0.0106873615 0.00018246884
-0.012250633 0.012059404 -0.021977965 -0.011611183 0.011978322 0.0012137641 -0.0044943206 -0.0089650825
-0.006620031 -0.019310763 -0.014351484 -0.0007229889 0.0039082556 -0.0015906374 -0.015341118 -0.022391142
0.0034541544 -0.0016029126 0.021955982 0.011132923 0.0043279463 -0.0011474103 -0.023452336 0.006309924
-0.010053023 0.012461276 0.013331474 -0.0059003714 -0.003943171 -0.014198629 0.0062424843 -0.004429137
0.014913564 0.0070301997 -0.0020305945 0.0035121946 0.007078472 -0.004716497 -0.03505714 0.0063880086
0.028704878 0.021697534 -0.00022147447 -0.011769612 0.004971597 -0.009207875 0.018562993 -0.023856161
-0.011515219 0.0031097948 0.0061376006 -0.016042974 0.002210648 -0.016102375 0.02517525 0.02030927
0.00608145 0.0038340054 0.015551311 -0.024566315 0.007460682 -0.017130433 -0.04117359 0.007380841
-0.019766994 -0.004090528 0.010641063 -0.0013026091 0.0019180534 0.017253067 -0.030501777 0.001670589
0.017985398 0.015907958 0.0009883821 -2.7448956e-05 0.011894463 0.005503688 0.025992792 -0.014011139
-0.040740315 0.002243654 -0.017909924 0.01302358 -0.008323464 -0.0123867085 0.002647012 -0.007138875

network_body._body_endoder.seq_layers.4.weight f4 [256, 256]
00000000: af43 283d 0c2d d33c f61e 0cbd 2507 653d
00000010: 64e6 0a3a 3cd9 35bd 0cae a03d 2a52 8bbb
00000020: 708d abbc a7fe dbbc 1c14 dd3c 0e18 f5bc
00000030: 3c93 f03c 5a95 f23c a70e c1bd 7800 2dbd
00000040: 8bb9 e53d 1164 853d f8a0 ad3d 7842 4d3d
00000050: 1b69 21bc e24b 4fbd eb99 6abd 1266 97bc
00000060: de35 08bc 2d19 87bb db84 21bd 9021 0f3d
00000070: 9513 aebd aea7 5b3d b283 41bd 6af0 0ebc
00000080: e863 02bd 535c 72bc 52f6 c03d 63a4 363c
00000090: b0a9 813d fc95 b83c 6e0a 8dbd c695 99bc
000000a0: ab7f 93bd 5be2 e9bd 0c93 61bd 142e 7b3d
000000b0: a353 5d3c 8469 8d3d b7f5 f2bd e571 143d
000000c0: 51cf 8cbc 2381 e53d 4bf8 92bc e306 413d
000000d0: 63d6 aabc 6a7b 8f3d 689a fabd 7911 4bbc
000000e0: 9d2d 823d 60ce 933d b7d6 2cbc ae16 dbbd
000000f0: 7f75 d7bc 21c2 afbc 5dbf 25bd 86cc 233d
00000100: c66a bd3a 60fc 7b3d 7d0e f3bd 213e 3e3c
00000110: 4c6e 06bd a689 063d b0e1 bdbd fb9a d7bd
00000120: 78d2 123d 318b d7bc 8647 a03d 4c94 943c
00000130: 7cfe 81bc 16b1 af3c e8bf 553c 0ee8 cc3c
00000140: 37b1 1dbe 05d9 76bd cbc0 cebd 2c75 c23d
00000150: a29c 65bc 9b7e d93b ab55 ba3d 7c9a 8e3d
00000160: 4e6b c4bd 491e 1b3c 23b7 e03c 3073 3b3d
00000170: d3f6 e43b 2c27 123d 3522 70bc 68d4 66bb
00000180: bdad 60bd 0672 223d 2f70 cebd c9b4 4fbd
00000190: 038b 4d3d 511e 023e e2f0 aabd 5281 033d
000001a0: f208 693d 77a2 8bbd 52a6 e43d 867a ebbc
000001b0: 57c0 073b 18c3 35bd 096c 663c e58b a8bc
000001c0: 5871 bd3d 51f4 ffbc c480 a23d 770c 1e3c
000001d0: a94b 81bd 64ea e9bd fb14 403d 3e07 bfbc
000001e0: 895d 48bd 3c4f 8ebd 10b2 afbd 776b cbbb
000001f0: 2592 f4bb f859 643d 4475 bc39 44fe 913d
00000200: 4929 9dbc d208 b43d f13d a2ba 2d2b e4bc
00000210: 56b8 003d d798 203b 59ea d53b 077f b13a
00000220: 5155 28bc 0044 1e3c 83bf 1dbe 996c 37bc
00000230: 34c8 1abd 8018 1d3d 88ec 5c3d 82fe b8bc
00000240: 4bc5 143d 5b13 fbbd af28 5a3d 6c7e af3d
00000250: e264 cbba 45e5 7d3d b8f7 83bc f895 a13d
00000260: 670b 55bc a846 023d 6462 f23b f828 43bd
00000270: a1ab 113a 722a d23d a528 48bc 07ad a2bd
00000280: 0acf 3d3c e103 953d d2a1 743d 133a e93b
00000290: 5cb3 273c aaad bfbd 5a91 bbbc 546e 9b3d
000002a0: 7289 0c3d 9ed9 45bd f186 243d a13e 233d
000002b0: 3c37 b5bd 454f 72bd 9499 b1bc 7c8b d83c
000002c0: c2f7 bebc 43ca 3cbd 20a7 8e3d ab05 7a3c
000002d0: 6904 a33d 0761 4bba 9ee7 853d c358 7a3d
000002e0: cc4e 1b3d 87fe 833c b5f9 363d 0746 bfbd
000002f0: 1375 18bd 5642 9fbd 6956 ad3d 59a6 a53d
00000300: 1f4c 87bd 9a87 0c3d 6d08 57bc 1dee bfbc
00000310: 00d0 a33c 6f9d d03c 77df a03d 554a 9a3c
00000320: 5f36 3b3d 0053 5c3c 7d33 d23c 597f bebc
00000330: c7a5 cf3c 7155 58bb c172 3e3d 0523 73bb
00000340: 4f69 b0bc f1b5 313d 5d47 6b3d 68f7 71bd
00000350: d071 dcbc 4a45 083c 0787 c1bd 7718 da3d
00000360: 54ea 2bbe cce9 7c3c 5433 56bd c448 9cb8
00000370: 1c7f 183d 6737 bc3d 2926 c6bd cfed 0dbc
00000380: 79d2 b0bc 1603 933c f682 8f3b df6c 39bd
00000390: 702e 0c3d 6494 0dbd 91f5 18bd 818d 973d
000003a0: d420 923d 4396 483d b1dc f23a caae 0b3e
000003b0: 63bb f7bd c7fe 4dbd f419 f0bc bd53 a5bd
000003c0: b105 32bb c3f3 40be 4628 2f3d e4df 04bd
000003d0: da1a d23d 6079 eb3d 28ea 2f3c 91dc b7bd
000003e0: d27b 34bc da9e 6cbc 3463 a9bc 9c8c 74bc
000003f0: f353 7e3d 9f45 b23d 813b 993d d175 86bc
0.041080173 0.025778316 -0.034209214 0.055915017 0.0005298613 -0.044396624 0.07845697 -0.004251738
-0.020941466 -0.026854826 0.026987128 -0.029918697 0.029367082 0.029612232 -0.09426623 -0.042236775
0.1121703 0.06513227 0.08477968 0.050112218 -0.009851719 -0.050609477 -0.057275694 -0.018481288
-0.008313624 -0.0041228742 -0.03943334 0.034944117 -0.08499829 0.05362671 -0.047244735 -0.008724311
-0.03183356 -0.01479252 0.09421982 0.011147591 0.063311934 0.022532456 -0.06886755 -0.018748175
-0.07202085 -0.11420127 -0.055071875 0.06132324 0.01350871 0.06904891 -0.11863273 0.03624143
-0.0171887 0.112062715 -0.017940661 0.04712571 -0.02085418 0.07005961 -0.12236482 -0.0123943025
0.06356356 0.07217097 -0.010549239 -0.10697685 -0.026301144 -0.021454873 -0.0404657 0.03998997
0.0014451377 0.06151998 -0.11867998 0.011611492 -0.03282003 0.032846116 -0.09271562 -0.10527607
0.03584525 -0.026311489 0.07826142 0.01813712 -0.015868418 0.021446746 0.013046242 0.025012996
-0.15399633 -0.06026556 -0.10095366 0.09495005 -0.014014395 0.006637407 0.09098371 0.06963059
-0.09590779 0.00946767 0.027431076 0.04576415 0.0069874316 0.03568189 -0.014656593 -0.0035221819
-0.05485319 0.039659522 -0.10079991 -0.05070952 0.0501814 0.12706877 -0.08346726 0.03210575
0.056893297 -0.06818097 0.111645356 -0.028744947 0.0020714009 -0.04437551 0.0140638435 -0.02057452
0.09250134 -0.031244429 0.07934716 0.009646527 -0.06313259 -0.114216596 0.04689501 -0.023318883
-0.048917327 -0.069487065 -0.085788846 -0.006207879 -0.007463711 0.055749863 0.00035945524 0.071285754
-0.019184725 0.08790745 -0.0012378079 -0.027852619 0.031425796 0.0024505162 0.0065281806 0.0013541885
-0.010274247 0.009659767 -0.15405087 -0.011195325 -0.037788585 0.038353443 0.05393651 -0.022582296
0.036320966 -0.12259551 0.053261455 0.08569035 -0.0015517736 0.061986227 -0.016109332 0.078899324
-0.013003207 0.031805664 0.007396983 -0.047646493 0.0005556886 0.10262002 -0.012216722 -0.079431586
0.0115850065 0.072761305 0.059724636 0.0071175187 0.010235634 -0.09359296 -0.022896457 0.07589403
0.034310766 -0.04830324 0.040167753 0.03985465 -0.08848426 -0.05915763 -0.021679677 0.026433699
-0.0233115 -0.04609133 0.0696547 0.01526014 0.079598255 -0.00077582937 0.06538318 0.061119806
0.037916943 0.016112579 0.044671733 -0.093395285 -0.037221026 -0.077763245 0.08463747 0.08088369
-0.06606316 0.034309007 -0.013124567 -0.023428971 0.019996643 0.025465695 0.078551225 0.018834272
0.04570615 0.013447523 0.025659317 -0.023254083 0.025347603 -0.0033009911 0.046496157 -0.003709973
-0.02153459 0.043386403 0.057441104 -0.059073836 -0.026909739 0.008317301 -0.094495825 0.106491975
-0.16788608 0.015436601 -0.052295044 -7.452213e-05 0.037230596 0.09190255 -0.09675247 -0.008662655
-0.021584736 0.017945807 0.0043796254 -0.045269843 0.034223974 -0.034565344 -0.037343565 0.074000366
0.07135168 0.048971426 0.0018528906 0.13640895 -0.12096288 -0.050291803 -0.02930925 -0.080726124
-0.0027164037 -0.18842988 0.042763017 -0.03244008 0.10259028 0.1149776 0.01073698 -0.089776166
-0.011015849 -0.01444217 -0.020677187 -0.014926102 0.06209178 0.087046854 0.074820526 -0.016413601

network_body._body_endoder.seq_layers.4.bias f4 [256]
00000000: 778e 29bc b8cc 76bd d628 443c 8977 163c
00000010: 463d f5bc d185 2dbb d7fe 87bc cb5a b13b
00000020: c063 473b 4dac 673b 6024 f639 79da 83bb
00000030: d463 7a3c b552 e3ba b272 fdbc f0d5 16bc
00000040: 8729 793c 5fea 063d 6287 573b 02d4 b43c
00000050: a58b 153d 5257 55bc ae78 e63a e267 5ebc
00000060: aa36 b13a 5e9b 053b 3a02 3ebc 57c6 73bc
00000070: fa41 3abd b607 d0bc e7a2 febb ba2f b1bc
00000080: 80aa 5fbc e151 a2bb 6a61 573c 42d5 313b
00000090: 35b4 9e38 4583 4ebc 30ff 7ebb 61b8 963b
000000a0: 713c 98bc 1886 403d 4925 97bb 353d 2a3c
000000b0: 17ae 153d 5a6e 0b3d b35f 113c da00 90bc
000000c0: 1182 5d3c 6883 2b3c aba4 b83b c31a 14bc
000000d0: cb3a e43c c05a 5c3b 4676 a93c d146 82bb
000000e0: eb26 d83b 2028 85bc c1c5 d13b 26e6 3a3c
000000f0: add7 ce3b ec77 f9bb 1214 ff3b 8458 39bc
00000100: d589 093d 5e63 703c 7bbc afbc f74a 83bc
00000110: 0e4c 3a3c 9088 01bb d8ca b7bb d6ec b53c
00000120: 8f97 b13b 5e57 17bd 97a2 d0bb ebcd 1cbc
00000130: fb6c fdbc 7c47 8d3c 98d9 62bc 3412 963c
00000140: 3168 5ebc 38a2 b63c 9cc2 56bc da39 473c
00000150: b4c0 7d3b 19b6 3c3c d52c b5bb 571f 4bbc
00000160: d8fd 37bc 6fed 963b 2038 a23b 8263 d5bc
00000170: a004 d63a 5f01 edbb 867f 14bd b243 5dbb
00000180: db75 503c 7f89 4cbc 9e95 6c3c 4cce a9bc
00000190: 4640 4c3c 4f72 efba 840d 3b3c 76b5 d5bb
000001a0: a531 5a3c 8714 063d ec1f f0bb 3e4c 513c
000001b0: 547d c73c 41a1 733c 8e64 68bc b563 303c
000001c0: 1638 163b 0d85 203b adc8 c53c 1d47 53bc
000001d0: ca5e 76bb b3c2 783b 421c 043d 99c1 8abc
000001e0: 8f81 323c 5a43 293d 6bdb ddba c365 db39
000001f0: 4952 833c 7bd7 d5bc c805 f43c f39b 393c
00000200: ae27 e4bc e96f 0abc 8df3 923c a172 3b3a
00000210: 8c14 e9bc c6a5 a8bc f8fe 7d3b b685 adbc
00000220: c270 e3bb 360e f3bb 1dbc ed3b 0246 79bc
00000230: 1a02 f93c 298b 053d 49b0 3b3c b818 603a
00000240: 923d f73c 365b 24bc 6649 27bb 1bd8 aebc
00000250: e0a3 913c abe7 c7bc c0fe 723b 7a51 8dbc
00000260: 539f 8f3b fdb2 933c 4802 17bd 1ead 213d
00000270: 91cb 543b 5f90 f93b 5350 0ebb 6dd4 e2bc
00000280: e11e 9dbc 2afa 053d eb4e b9bb ed40 c1bc
00000290: 1aea c93a 669f 0fbc f6c8 f3bb 0e01 ba3c
000002a0: 61a0 2bbc 84fd 693c dc1c 64bc b3ab 2f3d
000002b0: 3b92 5abc 11be eabb 0759 07bb d629 e53c
000002c0: f727 73ba e45a 973c bf58 06bc a205 f23c
000002d0: 4d01 cdbc b5a3 da3c ce4e c93c f603 f43a
000002e0: c74b 07bc 39a4 873b de16 093a db4c 13ba
000002f0: 4304 f3bb dea4 953b d290 d23c f27d 183a
00000300: 3c48 c7bc f97d 0b3c 9550 9abb 3b1c 873c
00000310: 5cad e5bb e955 3fbc 03f1 e43b 4331 df3c
00000320: ebea 86ba 3c09 d83c 110d c8bc e3fa 00bc
00000330: fb14 b53b b656 3a3c af71 e6bc 3205 71ba
00000340: 2eaa cdbb 072c 223c 8d61 23bc d44b 2bbc
00000350: 1a7a 0dbc cb99 88bb 9b1f 213c 5c5b 503c
00000360: d96c 803c 2577 173c d77b adbc 27f5 a4bc
00000370: 9fb7 07bc 8139 30bc 21b1 06bd 00d9 edbc
00000380: b973 20bb 768c 413c 4ba6 993a 80d0 cebc
00000390: 8584 173b 528c 3a3c ed66 0abc b1eb 403b
000003a0: f206 873b 8abd 13bb f2e2 5c3b 05ab 00bc
000003b0: 962d 8fbc 7e82 883c 3dd9 0dbc fa32 c83c
000003c0: 29b7 0fbc 9c80 8abc a00a 18bc 0974 663c
000003d0: 0ca3 8e3c 500e ca3b 8beb ed3b 02d6 293c
000003e0: 52b4 93ba 3a7b c5bc 96a6 1dbc f603 8abc
000003f0: e1b2 4ebc 4b59 e5bb e2cd 01bc bafb 813c
-0.010348908 -0.06025383 0.011972627 0.009183773 -0.029936444 -0.0026477466 -0.01660101 0.0054124347
0.0030424446 0.0035350502 0.00046947878 -0.0040238467 0.01528259 -0.0017343374 -0.03093848 -0.00920628
0.015207655 0.032938357 0.003288709 0.02207375 0.03651013 -0.013021307 0.0017583573 -0.013574572
0.001352032 0.0020386796 -0.011597211 -0.014878831 -0.045473076 -0.025394302 -0.0077708843 -0.021629203
-0.01365149 -0.0049536084 0.013145784 0.0027135168 7.567593e-05 -0.012604539 -0.0038909428 0.0045996164
-0.018583508 0.04700288 -0.004612599 0.010390569 0.03654298 0.034040786 0.008872914 -0.017578531
0.01351978 0.010468341 0.0056348643 -0.009039584 0.027860066 0.0033623427 0.02068628 -0.003975727
0.0065964363 -0.016254485 0.006401748 0.011407411 0.0063123317 -0.0076131728 0.007784375 -0.011312608
0.033578712 0.0146721285 -0.02145218 -0.016026957 0.011370672 -0.0019765235 -0.0056088977 0.022207659
0.0054196785 -0.036948554 -0.0063670385 -0.009570579 -0.030935755 0.017246 -0.013845824 0.018319227
-0.013574646 0.022294149 -0.013107922 0.012159789 0.0038719596 0.011518025 -0.005529026 -0.012397609
-0.011229955 0.004605941 0.0049505383 -0.026048426 0.0016328283 -0.0072328295 -0.03625443 -0.0033762273
0.012723411 -0.0124839535 0.014439968 -0.020728253 0.012466496 -0.001826832 0.011416797 -0.006521876
0.0133175 0.03273442 -0.007328024 0.012774525 0.024351753 0.014869989 -0.01418413 0.0107659595
0.0022921613 0.0024493367 0.024143541 -0.012895373 -0.003759312 0.0037957847 0.03225351 -0.016938018
0.010895147 0.041323997 -0.0016926354 0.00041846753 0.016030448 -0.026103726 0.029787913 0.011328685
-0.027850952 -0.008449533 0.0179384 0.0007150565 -0.02845218 -0.02058686 0.003875671 -0.021181922
-0.006940932 -0.0074174656 0.007255091 -0.015214445 0.03039651 0.032603417 0.011455604 0.0008548605
0.030180726 -0.010031512 -0.0025525927 -0.021343281 0.017778337 -0.02440246 0.0037078112 -0.017250765
0.0043830066 0.018029684 -0.03686741 0.039471738 0.0032469968 0.0076160873 -0.0021715357 -0.027689183
-0.019179763 0.03270928 -0.0056551597 -0.02359053 0.0015404851 -0.008766031 -0.007439728 0.022705581
-0.010475249 0.014281634 -0.013922896 0.042888355 -0.013340528 -0.007163771 -0.002065243 0.02797405
-0.00092756696 0.018475957 -0.00819987 0.029543702 -0.025025034 0.02668939 0.02457371 0.0018616903
-0.008257813 0.00413945 0.0005229543 -0.00056190573 -0.0074162795 0.004566773 0.025703821 0.0005817107
-0.024326436 0.008513921 -0.004709313 0.016492954 -0.0070091914 -0.011678197 0.0069867386 0.02724517
-0.00102934 0.02637159 -0.024420293 -0.007872316 0.0055261827 0.011373213 -0.02813038 -0.00091941946
-0.0062763905 0.009898192 -0.009971988 -0.010455091 -0.008635068 -0.004168724 0.0098341955 0.012717094
0.015676903 0.009244715 -0.021177216 -0.020136429 -0.008283525 -0.0107558975 -0.032883767 -0.029034138
-0.0024483039 0.011813274 0.0011722533 -0.025245905 0.002311976 0.011385994 -0.008447391 0.0029437358
0.004120701 -0.0022543394 0.0033704606 -0.007853274 -0.017477792 0.016663786 -0.008657751 0.02443837
-0.008771696 -0.016907029 -0.009279877 0.014065751 0.017411731 0.006166257 0.007260745 0.010365965
-0.001126895 -0.02410661 -0.009622237 -0.016847592 -0.01261589 -0.00699917 -0.007922621 0.015867103

action_model._continuous_distribution.log_sigma f4 [1, 2]
00000000: ecb5 88be 5df4 b0be
-0.26701295 -0.34561434

action_model._continuous_distribution.mu.weight f4 [2, 64]
00000000: ac1b 84be c437 a0bd 5cdc 67be 0280 6bbc
00000010: 67a9 3abc 7773 c6bb b53b b63d 97a6 293d
00000020: 027b dfbc 7476 22be b6d6 57bd 69ee e0bd
00000030: 14ad 10be 5233 623e 79d5 d8bd f1ad 5c3d
00000040: 6abc f63c 87a8 a8bd 4f87 8c3d 39d5 fbbd
00000050: f9d5 3cbc 9fe2 803e a83e 993d f464 273e
00000060: f289 233e d56d d3bd d307 53be 0bac 0c3e
00000070: 278d 6e3d cd6c 9b3d 1d3b c9bd 5ff2 52be
00000080: cf6e 043e 1d44 babd 57d5 5d3d 4d94 4f3e
00000090: ec57 af3d e2d1 00be 8fda b2bd 3c38 883d
000000a0: 9aee 27be 62a5 73be 5dda bc3d f85c 213d
000000b0: 35d6 d7bd 4b6c 2ebe 9524 31be ddaf 91bd
000000c0: ccdf ca3d ab3f c33e bafc 9b3d b2a6 a13e
000000d0: 2742 f8bc dcf4 23bd 9bc1 3fbd bf2b 363e
000000e0: 3fa8 d13d c2ce 603d 0833 933e a0c9 91bd
000000f0: 5d04 253e 02d4 1abe cead 0ebe 4f0f d93d
00000100: dec8 08bd b097 b93d adac 41be deb1 963c
00000110: c917 ef3d 5d81 47be 1eae 173e fe65 5bbe
00000120: 3472 c4bd ef57 6dbe 4660 2ebe 69fd 38bd
00000130: f0b3 b63b 3b5a 2a3e 90d8 3ebe 8b05 4b3e
00000140: d8a5 a23c d70f 0fbe feca 52bd 1df8 373e
00000150: 4685 153c d63a ac3d ec48 99be ca19 10be
00000160: 8df3 953d 4f98 123e a64d 133e 4c8f 403e
00000170: 2783 613d cdf0 a5bd 70f7 e03d 3241 66be
00000180: ecbb 36be 4269 cfbd 0d63 26bb 29dd d73c
00000190: 7bce 17bd 92e8 40bd 4803 33bc a64f efbd
000001a0: 0cc3 1fbe 41a7 423e f8f6 db3d c0be 27bd
000001b0: c0eb f9bc 5677 4b3e 9659 62be d64b 79bd
000001c0: 2c68 d4bd 4ef4 123f 7efe dd3d ac80 1a3e
000001d0: 56a5 ae3c b330 f8bb bcfe 1b3e 454a 923d
000001e0: 4813 453e 0fcd 8f3d 5983 463d 58d3 903c
000001f0: d378 b7bd 4623 07bd 0430 f6bd 0878 e53c
-0.25802362 -0.078231364 -0.22642654 -0.014373781 -0.011392928 -0.006056245 0.08898107 0.041418638
-0.027280334 -0.15865499 -0.052695 -0.10982973 -0.14128524 0.2208989 -0.10587592 0.05387682
0.03011914 -0.08235269 0.068617456 -0.12296528 -0.011525624 0.25172898 0.07482654 0.16347104
0.1597059 -0.10323683 -0.20608453 0.13737504 0.058240082 0.075891115 -0.09825728 -0.2060027
0.12932895 -0.09095023 0.054158535 0.20271416 0.08561692 -0.12580064 -0.08733093 0.06651351
-0.16399613 -0.23793557 0.09221337 0.039395303 -0.105389036 -0.17033498 -0.17299111 -0.071136214
0.09905967 0.38134512 0.07616563 0.3157249 -0.030304981 -0.040028438 -0.046815496 0.17790125
0.102371685 0.05488468 0.2874987 -0.07118535 0.16114946 -0.15119937 -0.13933489 0.10598623
-0.033394687 0.09062135 -0.18913527 0.01839536 0.116744585 -0.19482942 0.14812514 -0.21425626
-0.09592095 -0.23178075 -0.17028913 -0.045163546 0.0055756494 0.16635983 -0.186373 0.19826333
0.019854471 -0.13970886 -0.05146312 0.17965741 0.009126013 0.084096596 -0.29938447 -0.14072338
0.07321844 0.14315914 0.1438509 0.18804663 0.055056717 -0.0810257 0.10984695 -0.22485808
-0.17845124 -0.10127498 -0.0025388629 0.026350575 -0.03706215 -0.047096796 -0.010926075 -0.116851136
-0.15601748 0.19009115 0.10740465 -0.040953398 -0.030507922 0.19869742 -0.22104487 -0.06086334
-0.10371432 0.5740403 0.10839556 0.15088147 0.021319073 -0.007574165 0.15233892 0.07143072
0.19245636 0.07021534 0.048465107 0.017678902 -0.08958592 -0.032992624 -0.12020877 0.028011337

action_model._continuous_distribution.mu.bias f4 [2]
00000000: 5718 b8bd 308d 82bd
-0.089890175 -0.06374586

onnx::LSTM_102 f4 [1, 256, 256]
00000000: 0779 963d 918f dbbd 0b88 e33d 7328 a73d
00000010: a038 d8bd 238a 14be e457 56bd 7522 f83d
00000020: 7e3c 4d3d a44c 003e bcad 183d a74b 24be
00000030: 4784 8ebd 41c0 69bd e1ec b9bd 788f 8e3d
00000040: c2d0 2abd e6ff bb3d fca1 acbd 482a 97bd
00000050: 9116 bf3d 48bb 08be 3f53 64bd 900c 81bd
00000060: 7fd1 98bc cbde 98bb 0f3d 30be a6dc 99bd
00000070: 9110 3b3d 90d6 893d 7ec2 6cbc dfa0 d83b
00000080: ebba 0fbe accb 1a3d a864 bc3d 128d d0bd
00000090: a352 ce3d b93e dc3d 1eb5 c1bc b0d9 2cbe
000000a0: e534 973d 5f34 be3d e7fa b13d 5052 ff3d
000000b0: c090 f63b f812 99bd ba9a efbd 281d b83b
000000c0: 50e1 d83d 981f dc3d d892 b1bd bcfa 343c
000000d0: 9de5 fe3d 9bd7 223e 8d77 1fbd 2b29 b7bd
000000e0: 17ac 41bd d5dd 823d c004 b43d 47e6 6ebd
000000f0: 14af 04be 26d7 12be f67d c9bd e4cd 933c
00000100: a1f8 cfbd 3fbb 053d 1796 cd3d dac7 97bd
00000110: 6034 4f3c da8c eabc 5cc9 6bbd 3282 933c
00000120: 7e4e 81bd d048 c2bd 6d62 3c3d 485c d1bd
00000130: ce40 ca3d d9aa bbbd 60b5 b7bd 8fc3 b53d
00000140: dcb8 a53b 2122 09be 62f3 643c d0c8 37bd
00000150: bedd 5a3c 327e b93d 20ea 243d 7a6b 8abd
00000160: c86b 003e 8a24 0c3d c784 fa3d d8e8 2d3d
00000170: 3295 cb3b f40f 6b3c d4c6 bfbd c369 f7ba
00000180: 2960 31bd 5514 393d 4a99 6d3c 0bf1 f9bd
00000190: 2c34 a43c c22a dfbd 0e1a bb3d cda3 ff3d
000001a0: e2ef d23d 34e6 bfbd d6f3 fe3d eefb d53d
000001b0: fe32 13bd 6d97 ffbd 85b2 dabd 7449 02bd
000001c0: 0d38 cbbd 3de2 efbd 4a0c 8f3d 55be 18bd
000001d0: 87b5 8bbc bab0 d53d ecfc b8bc 5953 adbd
000001e0: 0ace f33d 463c c3bd 5fec 863d f79a c0bd
000001f0: d91d f83d 93f9 ec3b b762 cebd 2797 13bd
00000200: cb53 28bd 1a5c f83c 8c8a bb3d 37a4 e63d
00000210: d47e 3dbd d6b0 c5bd 9dcc 24bb 9ed4 8cbc
00000220: 5f38 03be d148 28bd b276 853d d1b9 2b3d
00000230: 7dc9 16bc 4a8c 743c 24a3 9a3d e09a 9bbd
00000240: de6d ce3d 11e8 3f3d 62f9 16bc 390e 923d
00000250: 2b2f 13be 0ad3 68bd fdd8 06be 8c7f 04be
00000260: 01b8 c33d bec5 d1bc 53cb a7bd 6654 e1bc
00000270: 6ac6 a53d 4d13 e13c 7630 b5bd 4087 4cbd
00000280: ebc6 82bc f77a 71bd 8015 c4bc 5ba6 ec3d
00000290: 2752 06bc 7e0a 26be 40e9 1a3c 847a b3bd
000002a0: 925d ed3d cd93 df3d 614b 52bb d128 f1bc
000002b0: c85c bf3d 8cf6 87bc 8403 74bd c499 0d3e
000002c0: 7ce7 af3d eaf9 1ebc 7403 8fbd f8e4 dd3d
000002d0: 7343 d23a 8ff3 dd3d d755 a6bd 6206 8d3c
000002e0: e945 85bd eb38 473d f99d 223d 5867 c13d
000002f0: abd3 6abc a32c 263d 8680 12bd f087 80bc
00000300: d1f0 c6bd 4d9d 89bd 468a 36bd d4a4 373d
00000310: 9dee d6bc 5aea d9bd a363 983d 5696 033e
00000320: dadb d1bc a11b b1bd 9a2e 65bd aade a7bd
00000330: 4d83 a33d 3a02 f93c e18f 8d3c 84cc 40bb
00000340: 4f13 f03c f99d 09bb 3836 b0bd 9958 503d
00000350: b9ba 5dbd 4d59 91bc 6d1a b2bd f81b af3d
00000360: 1784 ee3d 050d a9bd 1156 0d3e a726 c23d
00000370: 3804 9abd 7c09 07bd 7cd9 993d 3007 fa3d
00000380: c3b2 1dbd b08f b83d d901 a4ba 0263 b2bd
00000390: 6d21 86bc b006 46bd 12a8 d43c 5265 823c
000003a0: 362c 623d 7503 eb3d 5866 08be 9668 193e
000003b0: dcf9 5bbd 3d4a cbbc dee7 e7bd 3dc5 a43b
000003c0: 1960 ddbd 805f ee3d b44f 003c 9f2b f2bd
000003d0: 4fc7 0b3e 0c74 23bd 2ad6 be3d 8ab0 5c3d
000003e0: 3c82 21bb ab14 51bd 6578 06bd 18f0 1bbe
000003f0: df16 03be f376 c93d 8485 d13d 9f85 2b3e
0.07347303 -0.107207425 0.111099325 0.08162012 -0.10557675 -0.1450582 -0.052329913 0.12115947
0.050106518 0.12529236 0.03727506 -0.16044484 -0.06958824 -0.057068113 -0.09078384 0.06960958
-0.041702993 0.09179668 -0.084293336 -0.073811114 0.09330476 -0.13352692 -0.055743452 -0.06301224
-0.018654583 -0.004665231 -0.17210792 -0.075127885 0.045670096 0.06730378 -0.014450667 0.006610974
-0.14036147 0.037791893 0.09198886 -0.10183157 0.100743555 0.10754151 -0.023645934 -0.16879916
0.07383136 0.09287333 0.08690434 0.12466872 0.0075245798 -0.07474321 -0.116994336 0.00561871
0.1058985 0.107482135 -0.08670586 0.011046108 0.12446139 0.1590256 -0.038932372 -0.08943399
-0.04728326 0.06389967 0.087899685 -0.05832508 -0.12957412 -0.14339885 -0.09838478 0.018042512
-0.10154844 0.032649275 0.10038393 -0.074111655 0.0126467645 -0.028631616 -0.05756508 0.018006418
-0.06313799 -0.09486544 0.045992304 -0.102226794 0.09875642 -0.09163446 -0.089701414 0.088751905
0.0050574373 -0.13391925 0.013974043 -0.044869244 0.0133585315 0.09057273 0.04026234 -0.06758781
0.12541115 0.034214534 0.122323565 0.042458385 0.006212854 0.014347065 -0.09364095 -0.0018876124
-0.043304596 0.045185406 0.014501879 -0.122041784 0.020044409 -0.10896827 0.09135829 0.124824144
0.1029966 -0.0937008 0.12448852 0.104484424 -0.0359373 -0.12480054 -0.10678581 -0.03180833
-0.099228 -0.117130734 0.06984766 -0.03729089 -0.017054332 0.104340985 -0.02258154 -0.08463163
0.11904533 -0.095329806 0.06588053 -0.09404557 0.12115068 0.0072319 -0.10077422 -0.036032822
-0.041095536 0.030317355 0.09157285 0.1126179 -0.04626353 -0.096528694 -0.0025146373 -0.017191228
-0.12814473 -0.041085068 0.0651678 0.041925255 -0.009203312 0.014926026 0.07550648 -0.075978994
0.10079549 0.046852175 -0.009214731 0.07131619 -0.14373462 -0.056841888 -0.13168712 -0.1293928
0.0955658 -0.025606986 -0.08193078 -0.027506065 0.08094485 0.027475024 -0.08847134 -0.049933672
-0.015963992 -0.05895516 -0.023936033 0.11555167 -0.008198298 -0.1621494 0.009455025 -0.087636024
0.11590113 0.10916863 -0.0032088386 -0.029438408 0.093438685 -0.016597055 -0.059573665 0.13828188
0.08589074 -0.009703139 -0.069830805 0.10834688 0.001604183 0.10837471 -0.081218414 0.017214958
-0.06507475 0.048638266 0.039701436 0.094435394 -0.014332692 0.040569913 -0.0357671 -0.01568982
-0.09713901 -0.06719456 -0.04456546 0.044834927 -0.026236827 -0.10640402 0.07440879 0.12850317
-0.025617529 -0.08647848 -0.055952646 -0.08196767 0.07984028 0.03039657 0.01728052 -0.0029418776
0.029306082 -0.00209987 -0.086040914 0.050865743 -0.05413315 -0.017742777 -0.086964466 0.085502565
0.11646288 -0.082544364 0.13802363 0.094800286 -0.07520336 -0.03296803 0.07512185 0.12208402
-0.03850056 0.09011781 -0.0012512758 -0.087102905 -0.01637336 -0.04834622 0.025959048 0.015917454
0.055217944 0.11475269 -0.13320291 0.14981303 -0.05370508 -0.024815673 -0.11323522 0.0050283954
-0.10809345 0.11639309 0.007831503 -0.11824726 0.13650249 -0.039905593 0.09318192 0.0538793
-0.0024644276 -0.0510451 -0.03282966 -0.15228307 -0.12801693 0.09837141 0.10230544 0.16750191
