results/FullyCont4/bachelor/bachelor-35499979.onnx (onnx, 872319 bytes, 12 tensors)

network_body._body_endoder.seq_layers.0.weight f4 [256, 7]
00000000: 10f9 8ebe 80d1 4dbf 2748 043e 648f adbe
00000010: d8b2 f2be fdbe 0b3e 960e 87be 811d 79be
00000020: 974d f3bd b1ca 08bf 4553 f7be e2df 21bf
00000030: c451 39bf 555c 01bf 700e d63c 036f 793f
00000040: b80d 193f 3f69 123e 0bad 413f f2b8 31bf
00000050: 2e12 593e 280f ed3d a5fc bc3e 62bf 573e
00000060: 0cc8 143e 3fdd 6dbe 88f3 123e ebc8 4c3b
00000070: b143 b73e 01ba d13e 023f 193f d62d a3be
00000080: d267 3b3e f751 123e a22b 6abe 21f9 c5be
00000090: 2ac7 03bd 8071 383c a078 b43d f849 c63c
000000a0: ff5d e5be 4e12 aabc 380c 88be 9e02 61bd
000000b0: e181 293f 8b63 f9be 1036 32bf c50a 9f3d
000000c0: 8437 0abf ab18 fb3b 96d0 d73e 0fe9 153d
000000d0: 0a25 06be 543d 2f3e ffc1 43bd 1b66 42be
000000e0: 183c bdbe 44ed 0d3f 5786 613e 7b0f d3be
000000f0: ff6a 283d 2b06 283e 6fe5 cd3e 17b7 d0be
00000100: cf00 d4be 1703 923d 7a36 d43e f594 f8be
00000110: 546f 67bf 9ac2 04bf b511 3dbf 4d41 b93e
00000120: 09bf 1bbf aef1 a93e e721 2fbd a336 613e
00000130: 5d02 2b3f 1edb 2abf 7fbb d83e 91ca 8a3d
00000140: 1196 0fbf 8e96 18bf a492 6fbe 872e 04bf
00000150: 49b9 643f 71ea 8e3e fd7d 11be a41d 2abe
00000160: c666 d6be bd1a 1b3f d241 f43e 49d9 cfbd
00000170: 19aa bebe 1744 5fbe 3779 cabe 18bd ccbb
00000180: 9dc5 cfbd a145 66be d3ba 35be ee68 2bbe
00000190: 0760 a5be b0aa e1be 79bd af3e cb58 10be
000001a0: 2aa1 4bbf cadf a4bd c442 fbbe 9457 c1bc
000001b0: b92a 28be d364 e53c 8068 923e 014b bfbe
000001c0: 223e a13e 71a1 353e 128f a43e 9a72 3a3e
000001d0: 14ff ecbe 5e7b 16bd b403 19bf 1cfb f4bd
000001e0: 7c88 46bf 769a eb3e a324 b83e b8ff 143f
000001f0: 601f f53e 9f13 f1be 20a2 853e 1a98 6bbf
00000200: 98ee 6cbe 4573 d03c 7bd4 0dbe cfc3 d93e
00000210: 7133 ba3e f3a7 163d b349 54bf 8185 c6bd
00000220: dd02 173e bed6 0fbd 56de 16be 07d4 57bd
00000230: ebb7 1fbe 7ce3 c23e 11b0 efbe 8362 3c3f
00000240: aa8f 443b ef4e 5d3d a984 18bf 83d0 8fbd
00000250: 4c4a 21bf 9f87 e9be 121f 523e aed0 52bf
00000260: 40ea bcbd 976d 4abf b71c 883c 1923 84bd
00000270: 42b2 e5bd bb0a 123e 4f50 b63e c4da 56bd
00000280: 4f2f 92be d8e3 823e b4a9 033f 67cd a73e
00000290: f0a7 c6bd fc38 66be 4dfa 453f 9e8d 133f
000002a0: f2b9 5a3f 1511 d63e fc52 ecbd 28c1 f03e
000002b0: c8a6 0f3d 37df 07be 7a7a 563f 9624 5f3e
000002c0: e7a2 7e3d 320c ef3e 7a3f c1be 685d 11be
000002d0: 5447 f1be b428 a2be a21f 4abd 569e 903e
000002e0: 95bb 233e 63c3 8ebe 295b ae3e 6d92 47bf
000002f0: 77ae 1b3f f664 263f 3edb 293f 4a43 51be
00000300: 6d5d f6be 5ffb 673e ce1d 6c3e dd01 bf3e
00000310: 2528 d3be 735f 00bf 634a 55be 8eb6 713e
00000320: 0a36 063e 2e81 84be 63ba e93d 275d 8c3e
00000330: f6e0 e6be 6a37 65be 35e0 dbbe 8e17 d1be
00000340: 2fc3 dbbe 8554 e1be 0659 fe3e eb02 67be
00000350: 67ec afbe f3f4 9dbe 9175 063f 0d16 05bf
00000360: 27c0 aa3d 4b46 28bf 91d6 4d3f af83 a1be
00000370: fc30 433e 0fe0 003d ec28 db3d 13ca 133f
00000380: e876 37be 82d9 2ebf 1bbe d63e 59a9 003f
00000390: cbd1 c8be 0603 18bf dc23 563e cb8e 0b3f
000003a0: 2df2 593e d914 433e e293 c63e a6b1 163f
000003b0: 8323 093e b5e7 b13e 46e4 2dbe 7b67 a93e
000003c0: cdb0 88be fc64 8d3e 9369 b53e 386b 98bc
000003d0: 69ca dabe 876d 803e fb1f d13d 4a85 2a3d
000003e0: 6db6 613d 5a27 4cbe ec3e b73e adce 4ebe
000003f0: 95b0 453f 8d54 a83d 827b 0a3f fc3f e13e
-0.27924395 -0.80397797 0.12918149 -0.3389846 -0.47402072 0.13647075 -0.26378316 -0.24327661
-0.118800335 -0.5343428 -0.48305717 -0.63232243 -0.7239039 -0.5053151 0.026129931 0.97435015
0.5978656 0.1429796 0.7565467 -0.6942283 0.21198341 0.115751565 0.36911502 0.210691
0.14529437 -0.2322893 0.14350712 0.0031247686 0.35793832 0.40962222 0.5986177 -0.31870908
0.18301323 0.1428908 -0.22868207 -0.38666633 -0.03217236 0.011257529 0.0881207 0.024205193
-0.44798276 -0.020760681 -0.26571822 -0.054934137 0.66213804 -0.48708758 -0.6961374 0.07765726
-0.5399096 0.0076628528 0.42151326 0.036599215 -0.13100067 0.17113239 -0.04779243 -0.18984263
-0.3695991 0.55440164 0.22023903 -0.41222748 0.041117664 0.16408603 0.40214106 -0.40764686
-0.41406867 0.071294956 0.41447812 -0.48551145 -0.9040425 -0.5185944 -0.73855144 0.36182633
-0.6083837 0.331922 -0.04275694 0.21993499 0.6680048 -0.66740596 0.42330548 0.06776918
-0.5608836 -0.5960473 -0.23395783 -0.51633495 0.8934522 0.2791324 -0.14208217 -0.1661287
-0.41875285 0.60587674 0.47706467 -0.10148866 -0.3723915 -0.21803318 -0.39545605 -0.0062481277
-0.101451136 -0.22487499 -0.17747049 -0.16739246 -0.32299826 -0.44075537 0.34324244 -0.14096372
-0.7954279 -0.08050497 -0.49074376 -0.02360133 -0.16422547 0.028002178 0.28595352 -0.3736191
0.31492716 0.17737366 0.32140404 0.1820778 -0.4628836 -0.036738746 -0.59771276 -0.11961958
-0.7755201 0.46016282 0.35965452 0.58202696 0.478755 -0.47085282 0.26100254 -0.92028964
-0.23137891 0.02544559 -0.13850586 0.42532203 0.36367372 0.036781263 -0.82924956 -0.096934326
0.14747186 -0.035116903 -0.14733252 -0.05269244 -0.15597503 0.38064182 -0.46814016 0.73587817
0.0029992857 0.054030355 -0.59577423 -0.07022192 -0.63003993 -0.45611283 0.20519665 -0.8234967
-0.09224367 -0.7907347 0.016615255 -0.06452007 -0.112156406 0.14261906 0.35608146 -0.052454725
-0.2855172 0.25564456 0.5143082 0.32773897 -0.097 -0.22482675 0.77335054 0.57637966
0.8543998 0.41809908 -0.115392655 0.47022367 0.035071164 -0.13268743 0.83780634 0.217913
0.062167075 0.46688992 -0.3774374 -0.14195788 -0.47124732 -0.3167168 -0.049346574 0.282458
0.15989526 -0.27883443 0.34053925 -0.77957803 0.6081309 0.64997804 0.6635016 -0.20435825
-0.48118153 0.22654484 0.23058245 0.3730611 -0.41241565 -0.50145644 -0.20829158 0.23604795
0.13106552 -0.25879806 0.114125036 0.2741482 -0.45093507 -0.2238442 -0.42944494 -0.40838283
-0.4292235 -0.44009796 0.49677294 -0.22559707 -0.34360048 -0.30850944 0.5252314 -0.5198677
0.083374314 -0.6573226 0.8040553 -0.3154578 0.19061655 0.03146368 0.107011646 0.57730216
-0.17916453 -0.6830064 0.41941914 0.50258404 -0.3922256 -0.59379613 0.20912117 0.5451476
0.21283789 0.19050921 0.387847 0.5886482 0.13392453 0.3474709 -0.1698161 0.33086762
-0.26697388 0.27616107 0.3543211 -0.018605813 -0.42732552 0.25083563 0.10211178 0.04163102
0.055105615 -0.19936886 0.35790193 -0.20196028 0.7722257 0.08219252 0.5409471 0.4399413

network_body._body_endoder.seq_layers.0.bias f4 [256]
00000000: 8905 c43b 5e1f c53c cd78 663c cf55 573b
00000010: 8324 5a3b 00bc b03b a963 e53c 0aa9 79bb
00000020: 4f27 e63c 19d9 e4bc ab52 5c3c 1098 a43a
00000030: cfde b13c 43ff 47bc 316e 393c 5feb 8ebb
00000040: 8cf7 0e3c b95f e93c 674a 843b c6f7 0abc
00000050: fbfe a6bc 019e 5b3c daec 12bc 234d 283c
00000060: 269b 4f3c 14fd be3b fe90 713c 8362 413d
00000070: aab4 9b3c 57cd 163c bbbb babb 60ed 683c
00000080: e0fa a7bb 56e0 1dbb 872b 2a3b 071b fa3c
00000090: 83ca 0cbc af2d 48bb 17b2 9c3c 209a aabb
000000a0: 976e 033d 64e7 bd3b e2e4 b8bc 4e51 8f3b
000000b0: a75f 1cbc 1e34 5fbc f1d9 97bc a301 20bc
000000c0: baee 223c b0ce 9fbb aaf5 30bc 8761 0cbd
000000d0: 3ce7 ab3c c695 a93c 04fa b13c 1b20 22bc
000000e0: 0149 fe3c 7c6c 5dbb a6a9 db3c a3e1 51bc
000000f0: 2d16 7d3b 55f7 4bbc aba1 dc3c 2ca0 5b3c
00000100: 0b1e c63c 1a20 6e3c 79f8 e23b 0d03 b33c
00000110: 35f9 7e3b 3664 013c e3ea fb3c 9804 b0bc
00000120: 43e6 dd3b f6be aabc 070a d63b d073 f7bb
00000130: a876 2abc 45ea 83bc 23b3 ce3c b62b 7dbc
00000140: 1621 88bc 5741 09bc 7182 7fbc 8c01 13bd
00000150: 8c78 1cbc 210b ee3b f4e1 6e3b ddb9 2abc
00000160: d74a 653c 3137 88bb 80a7 dfbb 2f54 90bc
00000170: c6f4 91ba 2500 043c fde3 8dbc b985 9b3c
00000180: 8520 4c3c 96af 1dbc ba7b 4ebc 0fe3 9c3c
00000190: 19c1 37bc c27c 8b3c 6d77 ffbb 0e34 753c
000001a0: 3579 023c 9d1c 983b 3dc2 a43b b64c 0c3b
000001b0: ffba 363b e0c2 253d b690 083b 9c40 74bc
000001c0: db9f 22bb 7862 27bc 5aa9 3e3c d6e1 31bb
000001d0: ded7 9e3a 817c 17bc 32bd 1dbc 7bd4 b1bb
000001e0: 0d46 8abb f71a 47bc f6c8 683c 4de1 403a
000001f0: 52ea 9e3c aec0 0b3d 9f5b e33c 07df adbb
00000200: 8dc7 c43b 726a 68bb 89b4 69bc 25c9 8e3c
00000210: f0b5 6abb 5d68 3ebc 39be 0d3b d60f 38bc
00000220: 9f88 96bc df33 923c 4041 3bbc e478 f93b
00000230: 8902 503c 4744 93bb 914a 3b3c 7cb0 1fbc
00000240: 7339 5b3c 9d44 5e3c 90c4 48bb aba9 10bc
00000250: 6e2f de3b bf9c 2e3b d464 fb36 98cd 24bd
00000260: 5d0f 89bb 4600 bd3c 983d 1cbb 0bba a3b9
00000270: 7281 8d3c 5054 8e3c 48ef 56bc bd21 2dbc
00000280: 0e0d a3bb 5cfd d83c cb18 ecbb 7830 823c
00000290: 3499 a8bb fe8a fabc 23cd 52bb df28 323a
000002a0: 4b5f 21bc 5a83 59bb f8df e4bc dc63 393d
000002b0: 7aa9 41bb a3cf 43bb a2f8 00bc 6b7b 79bc
000002c0: e276 adbc e7f6 ebba fe74 403c e510 b5bb
000002d0: 4a11 d63c b834 083c b1f9 e5bc abc3 ec3c
000002e0: eade 903c 6b11 d83b 47ab 273c 8305 353c
000002f0: 57ac f23b 32e4 f63c 9cad d23c 81dd e5bb
00000300: e10b 193c c700 663a 0611 6a3c b4b0 fa3a
00000310: f1e9 beba 92d7 903b dad8 b3bc 7ab2 6c3c
00000320: 83a2 8e3a 55e7 5ebc c8ef 00bc e288 04bb
00000330: a147 af3b c658 aebb 5b9f 1bbc 2366 94bc
00000340: 92bd d63c bbcd ccbc 75f3 183d 6c05 60bb
00000350: 5f2f db3b 6d55 84bc d215 e73a 8de3 f0bb
00000360: 94e8 74bc a267 123d 33c6 1dbc 61d9 e83b
00000370: 40d8 7ebb 7776 cbbb 0ea0 b13c c468 a63c
00000380: df19 9b3b 01b2 c4bc 7955 953c 9c13 7a3c
00000390: c588 c0bc c74b 8a3c 938d a4bc 5625 07bc
000003a0: 80a7 89bc 217e 81bb 371a 9f3c db2e c33c
000003b0: bdec bfbb 25b2 dcbb eb68 943b 10d2 9ebc
000003c0: afa4 f8bb fe6c 883b 6872 7cbc 995d 1939
000003d0: ecb3 fcbb 8ed7 7d3c 6556 11bc d1e7 b23c
000003e0: 4b30 e73a 7a5a 22bc 633c 033c bfb8 033d
000003f0: c598 95bc 0d66 86bc 0a70 98bb b874 8bbb
0.005982105 0.024062809 0.014066887 0.0032857542 0.0033285923 0.005393505 0.028001623 -0.003809514
0.028094916 -0.027935551 0.013447444 0.0012557525 0.021712689 -0.012206855 0.011317776 -0.0043615545
0.008726012 0.028488027 0.0040371898 -0.008481925 -0.020385256 0.01340437 -0.008967603 0.010272297
0.012671268 0.005828509 0.0147440415 0.04721309 0.019007046 0.00920423 -0.0056986487 0.014216751
-0.005126342 -0.0024090013 0.0025965886 0.030530466 -0.008593204 -0.0030544808 0.019127889 -0.0052063614
0.03208789 0.005795406 -0.022570077 0.004373706 -0.00954429 -0.013623266 -0.01853654 -0.009766015
0.009944612 -0.004876934 -0.010800758 -0.034272697 0.020984285 0.0207013 0.021725662 -0.00989535
0.03104067 -0.0033786586 0.026814293 -0.012810144 0.0038617954 -0.012449105 0.026932558 0.013404887
0.024184247 0.014534021 0.006926593 0.02185204 0.0038905863 0.007897427 0.030751651 -0.021486565
0.006771834 -0.02084301 0.006531957 -0.0075516477 -0.010404266 -0.01610292 0.025231903 -0.015452316
-0.01661734 -0.008377395 -0.0155950645 -0.035890147 -0.009550225 0.0072645103 0.0036450597 -0.01042029
0.013994894 -0.00415697 -0.0068253875 -0.017618267 -0.001113557 0.008056675 -0.017320627 0.018984662
0.012458925 -0.0096243825 -0.012602741 0.019151239 -0.011215472 0.017027263 -0.007796219 0.014966024
0.007963468 0.004642083 0.005028038 0.0021408028 0.0027882454 0.04046905 0.0020838208 -0.014907982
-0.002481452 -0.010216348 0.011637056 -0.0027142665 0.0012118777 -0.009245993 -0.009627627 -0.005426941
-0.0042197765 -0.012152425 0.014208069 0.0007357791 0.019398842 0.0341193 0.02775365 -0.005306128
0.0060052336 -0.0035463837 -0.014264234 0.017429898 -0.003581401 -0.011621562 0.0021628274 -0.011234244
-0.018375693 0.017847 -0.011429131 0.0076132882 0.012695917 -0.0044942233 0.011431352 -0.009746667
0.013380396 0.013566163 -0.0030634739 -0.0088295145 0.0067805564 0.002664372 7.492121e-06 -0.040235132
-0.0041827396 0.02307142 -0.0023840424 -0.00031228396 0.017273638 0.017374188 -0.0131185725 -0.010567126
-0.0049759215 0.026487999 -0.007205104 0.015892252 -0.0051452164 -0.030583855 -0.0032165728 0.00067962514
-0.00984938 -0.0033189864 -0.027938828 0.04526125 -0.0029550479 -0.00298784 -0.007871779 -0.015227179
-0.021174852 -0.001800266 0.011746643 -0.0055256956 0.026131291 0.00831335 -0.028073164 0.028901896
0.017684419 0.0065938733 0.010233707 0.011048677 0.0074057984 0.030138109 0.025717549 -0.0070149307
0.009341211 0.00087739195 0.014286285 0.0019126148 -0.001456557 0.0044202292 -0.021953989 0.014446849
0.0010882173 -0.013604959 -0.007869668 -0.002022319 0.005349115 -0.005320641 -0.0094984425 -0.018115109
0.026213441 -0.025000444 0.037341554 -0.003418292 0.0066889967 -0.016154015 0.0017630404 -0.007351345
-0.014948029 0.035743363 -0.009629774 0.0071059917 -0.003888622 -0.0062091905 0.021682765 0.020313628
0.0047333087 -0.02401066 0.018229233 0.015263464 -0.023502717 0.016881837 -0.02008704 -0.008248648
-0.016803503 -0.0039518033 0.01942168 0.023826053 -0.005857079 -0.0067351037 0.0045291088 -0.019387275
-0.007587991 0.0041633835 -0.015408136 0.00014626085 -0.007711878 0.015493287 -0.008870696 0.021839054
0.0017638294 -0.009909267 0.008010003 0.03215861 -0.018261323 -0.016406083 -0.004652028 -0.0042558573

network_body._body_endoder.seq_layers.2.weight f4 [256, 256]
00000000: 8e42 8e3d 85be 343d 4eb4 6dbb a50b 143e
00000010: 0edf 063b dd19 8e3d a53b b53c 79aa fcbd
00000020: efbb c4bc dce9 93bc 4639 2fbd cc58 2c3c
00000030: 7ebd 2ebd 344f a9bd 33bf 18bd 36db 4a3d
00000040: b50e 853c 4cc5 a0bd 8e43 f23b 1fc3 d4bc
00000050: 099e 0f3d 0f77 933d b94b fdbc be66 d23b
00000060: 09a4 83bd a4a3 343d 2d34 013e abe8 d13d
00000070: aa25 043c 3f3f c0bd e1e8 af3d 5081 9cbb
00000080: 0ffa 48bd b0b2 d03c 8ef9 353d 5e09 0dbd
00000090: 159d 03bd 6cce dcbc 0686 ff3c 7d73 ebbd
000000a0: efd2 13bc 9b31 8a3d fff1 2d3c f65a 9a3c
000000b0: 14e6 c73d 2ea4 b53d ddd9 b93c 4d2e 3dbd
000000c0: 986f 59bd 329c 6c3d 7d03 e0bd 93d7 263d
000000d0: 8aa7 81bd b902 bb3c 401c da3d 5412 253c
000000e0: 1d23 553c 30f0 183d 57d0 07be e47f 33bd
000000f0: 2e93 90bb 3ea2 003b 8cda 02bd b6c4 20bd
00000100: 3430 2abd 8d20 cabd 3b22 833d c754 3e3d
00000110: fa5f a7bd 9e17 81bd 7fae 983d 154e c93b
00000120: f18b df3d 89ac a8bc 1064 a63c e077 1ebd
00000130: 8574 c83d 6ba1 66bd 7fe4 0d3c 128b 813c
00000140: b8fa 823d 3068 29bd a969 863d 1ffc c3bc
00000150: 89ad 90bd 5bba 493d 7d50 223e 2442 993c
00000160: fca7 92bd 437f d3bc c248 713d 6661 083e
00000170: 6cb3 843d bdc6 e23c b0f9 4f3d b092 a3bd
00000180: ceea f93b ff9d 70bd 69e5 4e3d 4212 d43d
00000190: c6a2 24be 3016 933d 7668 113c b76e a5bb
000001a0: bab4 73bd bcfe 3fbd 7a77 b13c 8fd2 90bd
000001b0: df66 90bd 018e f63c d38d 38bd 092b acbd
000001c0: 094c b93d 6b26 86bc 5bca 1a3e a1ce d3bc
000001d0: 99c6 5bbc 4967 af3d 5df0 dabc 0c10 ddbd
000001e0: f54f 17bc 933e 79bd 14ae dd3b 32f2 ccbd
000001f0: fa4e 523d 76e2 cf3c f493 c53c c5eb 01bd
00000200: 6098 e7bd 4b4e ee3c 6c65 8e3b 6ab4 92bc
00000210: 4f79 babd a867 d13d 39a8 74bc 6010 6c3d
00000220: 9daf 173c 712b 4abc 1d36 933b 39ff 4fbd
00000230: bdd4 2f3d 6405 03be f373 b73d d5be b83b
00000240: 265f cb3c 63f5 83bc 906d 56bd 07d6 623d
00000250: 5a8b a2bd 2f88 84bd b706 bb3c 1b8c 12be
00000260: 675a a5bc 1e1e 28bd 5ff5 da3b 103e d3bb
00000270: 8817 59bc 2f6a ffbc e698 2cbb 68df 3bba
00000280: 39f9 433d 826e cf3c bdfb 2d3d 4b74 a4bd
00000290: e29d bebc 3894 9ebc e1a8 48bb 675d 1d3d
000002a0: 80f9 94bd fac7 a2bd 5165 6f3d 537b 55bd
000002b0: dd08 ba3d 011c 7dbd 888d 24bd 1332 7e3d
000002c0: e174 003d e500 4f3d 4af5 e8bd cfa2 b03c
000002d0: ae94 053d ea9d 333c f913 1d3d a37c a23c
000002e0: 7e31 9f3c ba11 0fbe fa6e 053d b0ea f43c
000002f0: ea4f a9bd 9e99 393d 3496 90bd 2323 4fbd
00000300: 3da7 c43b 0ec1 00bc b638 a83d 4faf 4fbd
00000310: cda2 79bd 55ca fbbc 5ead 57bd 094c 443c
00000320: e2ae 7139 07f2 62bc faea cc3d 764e 67bd
00000330: 9f0b 5e3d 4623 47bd 76d8 ac3b 7794 783d
00000340: 26a4 cebc 56f5 7ebd b115 323e 4a07 1cbd
00000350: a63a 85bb 6c13 193d be73 0b3d bb67 bf3d
00000360: f060 8fbd 31f7 20bd af94 9e3d 396c 85bd
00000370: 7681 0b3d 6c6b a7bc 361a 2f3d f4e5 e5bc
00000380: 69c5 7abd 57e7 26bd c72d 413d 7e08 9bbd
00000390: fbde 74bd 364d 57bc d348 9fbd e3d5 10bc
000003a0: 2b84 003d 6b0b 52bd 3aa3 13bb 6ba9 e3bc
000003b0: 8a4d 97bd 50e1 52bd 5463 04bd 951d 9a3c
000003c0: ecc5 bdbc ffa4 71bd a9c8 0f3d ea75 573d
000003d0: 1ab2 e03c 5382 69bc af91 4fbc 3ec6 84bc
000003e0: 8138 80bd ce74 c63d 3dd3 d2bd 9afa 12bd
000003f0: 77fd 8a3d fe82 bebd 1b52 883d 85db fa3b
0.06946288 0.044127006 -0.00362708 0.14457567 0.0020579728 0.06938527 0.022123167 -0.123372026
-0.024015395 -0.018055849 -0.04277923 0.010519218 -0.042661183 -0.0826706 -0.037291717 0.049525462
0.016242364 -0.078501314 0.007393307 -0.025971947 0.035062823 0.07200443 -0.030919896 0.006420939
-0.064277716 0.044101372 0.1261756 0.10249456 0.00806562 -0.09387063 0.0858934 -0.0047761574
-0.0490666 0.02547583 0.044427447 -0.03443276 -0.032132227 -0.026953898 0.031191837 -0.11496637
-0.009022458 0.06747743 0.010616778 0.018842202 0.09760681 0.088692054 0.022686893 -0.046186734
-0.05308494 0.057766147 -0.10938165 0.04073293 -0.06330784 0.022828447 0.106499195 0.010075171
0.01300886 0.037338436 -0.13263069 -0.043823138 -0.0044120764 0.0019627954 -0.031946704 -0.0392501
-0.041549876 -0.0986949 0.06403013 0.04646757 -0.08172603 -0.06303333 0.074551575 0.0061433413
0.109153636 -0.020590084 0.020311385 -0.03868854 0.09787849 -0.056306284 0.008660435 0.015813384
0.06395477 -0.041359127 0.06563122 -0.023923932 -0.07064349 0.049249988 0.15851016 0.018708296
-0.07160947 -0.025817519 0.058907278 0.13318405 0.064795345 0.027682656 0.05077523 -0.07986963
0.007626868 -0.058744427 0.05051175 0.10355045 -0.16077718 0.07181966 0.008875003 -0.0050485986
-0.059498526 -0.046873793 0.021663416 -0.07071411 -0.07050871 0.03009701 -0.04505713 -0.08406646
0.09047706 -0.016375741 0.15116255 -0.025855364 -0.013414049 0.08564622 -0.026725942 -0.10794076
-0.009235372 -0.06085069 0.0067651365 -0.100071326 0.05134485 0.02537654 0.024118401 -0.031718988
-0.1130836 0.029090067 0.0043455865 -0.017908294 -0.09105169 0.10224849 -0.0149326855 0.057632804
0.009258178 -0.012339459 0.004492535 -0.05078051 0.042927492 -0.12795025 0.089576624 0.0056379833
0.024825644 -0.01610822 -0.05235058 0.055379894 -0.079367355 -0.064712875 0.02283035 -0.14311258
-0.020184709 -0.041044347 0.0066820825 -0.0064466074 -0.013250239 -0.031178562 -0.0026336252 -0.0007166774
0.0478451 0.025321249 0.042476404 -0.080299936 -0.023268644 -0.019357786 -0.0030618238 0.038419154
-0.07274151 -0.07948299 0.058446232 -0.052119564 0.09083722 -0.061794285 -0.040174037 0.062059473
0.031361464 0.050537962 -0.1137491 0.021562008 0.032612495 0.010962943 0.038349126 0.019834822
0.01943278 -0.13971606 0.03257654 0.029897064 -0.082671955 0.045312516 -0.07059899 -0.05057062
0.0060013817 -0.007858528 0.08213942 -0.050704297 -0.060946275 -0.030736128 -0.05265557 0.011981019
0.000230487 -0.013851649 0.10005756 -0.05647131 0.0542103 -0.048617624 0.0052748276 0.060688462
-0.025224756 -0.06224569 0.17391087 -0.03809289 -0.0040658293 0.037372038 0.034045927 0.09345957
-0.07000911 -0.03929824 0.07743203 -0.065147825 0.03405901 -0.020436965 0.042749606 -0.028063752
-0.06122342 -0.040747967 0.047162797 -0.07569979 -0.059782963 -0.013140967 -0.07777562 -0.008840057
0.031376045 -0.05128042 -0.002252771 -0.027790746 -0.07387836 -0.051484406 -0.03232129 0.018812934
-0.023165666 -0.058995243 0.035103474 0.052602686 0.027428675 -0.014252263 -0.012669011 -0.01620781
-0.06260777 0.096902475 -0.10294197 -0.035883524 0.06786626 -0.093023285 0.066562854 0.0076555633

network_body._body_endoder.seq_layers.2.bias f4 [256]
00000000: 3408 0cb9 2eea 45bc b5f7 72bc 38e3 bcbc
00000010: a512 9f3a 9160 e0bc ba94 bb3b d12d 2a3c
00000020: b8e9 523c 1d61 a5bc d20d abbc f79f 3cbc
00000030: ef75 a63c a49b 1cbc bda8 c43c 5d7f c1bc
00000040: e2dd 05bb 0490 023c 576c 19bc 51f5 93b8
00000050: a8f6 04bc 7e9d b0ba cddb 2f3c e154 023d
00000060: fba1 693c d534 fe3b baca 063b 49ef 063b
00000070: 4273 09bd f6a0 5a3c ec8b c23c 5929 91bc
00000080: 9f71 e43a 12a1 333b c1ee 05ba 0e1b aaba
00000090: d6ef f43b f0fb 033d f69a 1d3d fc6f d3bc
000000a0: ecad acbc bbd4 35bc c144 6b3c a5dd d6bb
000000b0: ab7e 60bc 6fa1 6ebc f7d7 1e3d e799 c9bc
000000c0: 1926 4c3c 6950 53bc 4eaa 813c d430 e13b
000000d0: 1416 afbb 392f 77bb 5dae 12bc bb7e dabc
000000e0: a430 373c 1408 c4bc 9f6f 683c 41f4 483c
000000f0: afbf 243c f424 a7bc e9f1 043d fb76 90bb
00000100: 383f bebc 7d82 f9b9 7724 38bc dac0 db3b
00000110: 7d46 9cbb 4af2 83bb de04 733b 427f 1e3c
00000120: 335c ab3c 0c13 023d a035 523c 0bb9 41bc
00000130: f9ad 3b3c 41ad bcba b4eb eabb b31c 9b3b
00000140: 522f 7e3b b69d b63c 3ddf 09bc 0d89 82bc
00000150: 7194 b73c 16f5 9fbb 0f8f 9d3c 6d29 1f3c
00000160: cff4 0c3a e689 f1bb 79de cc3b f5aa ed3b
00000170: 3c55 bcbc 6347 ed3b 496d c7ba f87f 0abc
00000180: 9771 853c 9635 0abd a5ef 62bc 69bd b9bc
00000190: e533 54bc bc23 d03b 1f3d 3fb7 3ec0 8abc
000001a0: de65 803b 492e 803c f194 c0bc fb5b 1d3c
000001b0: 4048 113c 8617 6e3c e0a0 c2bb de6b a6bb
000001c0: 97a8 9ebb 5b50 a63c a885 80bc 78bc 79bc
000001d0: 69e6 92bc f5cd d2bc ce4d 95bc eaa0 803c
000001e0: 6cfb dabb cb46 c3bc ed08 f5bc c172 f0bc
000001f0: 51fb 12bc 684e f7bb 057a 50bc 2548 bcbc
00000200: d72d 543c cb28 05bd 0234 06bc dbf5 e73c
00000210: bf5f 893c 1e09 57bc 45cb eb3c a51c 733c
00000220: b14c 413b 57ae a9bc b568 1dbc 9184 493b
00000230: f868 afbc e6ae 723c b4dc 8d3c 5427 803c
00000240: 283b 50bc 16f6 6b3c cb72 46bc f7f7 acbc
00000250: 282c 133c 4834 8a3c bbb5 a6bb fbdc b0bb
00000260: 9ac9 50bc 618d 06bc c8df e2bb 5bce 673c
00000270: 6ed3 863c cfd9 24bc a2a8 863c ad34 ab3c
00000280: 5b96 a2bc dd71 acbc cafe 343b e288 fa3a
00000290: f98b 3cbc 605a aa3b add9 283c dfa8 6d3a
000002a0: b59e 43bc bb3c 403c 0fae b1bc 4091 40bc
000002b0: f1fc 493c afa0 ba3a 8ece 69bb 1a7c 0cbc
000002c0: 6eb4 dcbb 551d 9dbc 31f8 6fbc d3c4 4dba
000002d0: 969e 723b d7a2 e2ba 1dbe 78bc d27e b7bc
000002e0: b1d2 6e3b 990c e4ba e8a2 b53c da73 363c
000002f0: f9a5 903b 8c5d f1b9 b78e babc 1ebe cc3b
00000300: 0efa 23bc 5c14 4c3c 3fd5 5d3c fde7 b6bb
00000310: 6e8c 91bb cb27 61bc 2b4d ce3b c0a9 83bb
00000320: 2774 743c f013 e63b e15d 12bb 384f 4b3b
00000330: 15d2 ec3b 9991 abbb be23 10bd 4c3c ca3b
00000340: 1e13 ea3c d5ad ad3c f588 3936 e152 48bc
00000350: 022f 9d3b 6c21 19bc 9d84 9a3c 195a c1bc
00000360: 9cb7 34bc 103d 4f3b 6128 c83b a033 84bc
00000370: 3079 1e3b a45b 8bbc 3ed2 d03c f9b9 a83c
00000380: 1b3e bd3b b081 823b 83cd 813c 1539 c4bc
00000390: f4d2 f93b 4b1c 90bc a780 28bd 2091 ea3b
000003a0: 66a7 9ebc c2d6 91bb 1f08 303c 75e8 cdba
000003b0: 2539 f13a 18e0 8e3c e71f febc 8a58 0b3b
000003c0: 5e91 933c f7e9 813c 26d9 3a39 0c26 8038
000003d0: d7a9 403c 3990 ae3b b879 d53c 2ba3 66bc
000003e0: 118e 26bd 8d48 133b 2ceb 8ebc 22e9 5a3c
000003f0: a647 03bc 627a 46bc 4424 3a3b d7f4 d6bb
-0.00013354496 -0.012079759 -0.014829566 -0.023057565 0.0012136294 -0.027389796 0.0057245167 0.0103869
0.012873106 -0.020187909 -0.020880613 -0.011512748 0.020319907 -0.009558592 0.024006242 -0.023620302
-0.0020426442 0.007968906 -0.009364209 -7.0552e-05 -0.008115448 -0.0013474671 0.010733557 0.031819228
0.014259811 0.007757763 0.0020567612 0.0020589402 -0.033557184 0.01334404 0.02374836 -0.017719911
0.0017428881 0.0027409238 -0.00051091245 -0.0012978034 0.0074748797 0.03222269 0.03847786 -0.025810234
-0.021079026 -0.011098082 0.014359654 -0.006557184 -0.013702075 -0.014564856 0.03878018 -0.02460952
0.012460255 -0.012897589 0.015828278 0.006872276 -0.005343208 -0.0037717356 -0.008952704 -0.026671758
0.01118103 -0.023929633 0.014186769 0.012265266 0.010055467 -0.020403363 0.032457266 -0.004408715
-0.023223504 -0.00047590202 -0.011239163 0.0067063393 -0.004769145 -0.004026686 0.0037081758 0.009673895
0.020917987 0.031756446 0.012830168 -0.011823903 0.0114550525 -0.0014394895 -0.0071692113 0.004733646
0.003878553 0.022292 -0.008415041 -0.015934492 0.02240965 -0.0048815114 0.019233255 0.0097144665
0.00053770555 -0.007371175 0.0062521067 0.0072530457 -0.022989862 0.007241176 -0.0015215065 -0.008453362
0.016289515 -0.03374251 -0.013851081 -0.022673326 -0.012951826 0.006351916 -1.1398718e-05 -0.016937371
0.0039183935 0.01564707 -0.02350852 0.009604449 0.008867323 0.014531976 -0.005939588 -0.0050787767
-0.004841875 0.020301988 -0.015688732 -0.015242688 -0.017932134 -0.025732974 -0.018225577 0.01570173
-0.006682804 -0.023837468 -0.029911483 -0.029351594 -0.008971051 -0.0075471886 -0.012724404 -0.02298362
0.012950382 -0.032509606 -0.008191111 0.028315475 0.016769288 -0.013124732 0.02878345 0.014838372
0.0029495175 -0.020713015 -0.009607484 0.0030749182 -0.021412358 0.014812207 0.017317154 0.015643753
-0.012709416 0.014401933 -0.01211233 -0.021114333 0.008982696 0.016870633 -0.005087582 -0.0053974367
-0.012743378 -0.008212418 -0.0069236495 0.01414832 0.01645824 -0.010061695 0.016437832 0.020899141
-0.019847086 -0.021050388 0.0027617686 0.0019114281 -0.011507981 0.005198762 0.010305804 0.0009065996
-0.011939694 0.011733229 -0.021689443 -0.01175338 0.012328372 0.0014238561 -0.0035676095 -0.00857451
-0.006735376 -0.019179026 -0.014646576 -0.00078494585 0.0037020794 -0.0017290962 -0.015182045 -0.02239934
0.00364415 -0.0017398774 0.022172406 0.01113602 0.0044143167 -0.000460368 -0.02277313 0.0062482497
-0.010008348 0.012456026 0.013539611 -0.0055818544 -0.0044417894 -0.013742398 0.00629582 -0.0040180385
0.014920271 0.0070214197 -0.0022333788 0.003102256 0.007227192 -0.0052358625 -0.035190336 0.0061717387
0.028573569 0.021201054 2.7646868e-06 -0.012226791 0.0047968635 -0.009346347 0.018862063 -0.023602532
-0.011030104 0.003162209 0.006108329 -0.016137898 0.002418112 -0.017011471 0.025490876 0.020596491
0.005775226 0.003982745 0.015845066 -0.023953 0.0076240245 -0.017591616 -0.041138317 0.0071584135
-0.019366931 -0.00445065 0.010744124 -0.0015709536 0.0018403871 0.01744084 -0.031021072 0.002126249
0.018013652 0.015858633 0.00017819236 6.1106024e-05 0.011759243 0.0053272513 0.026059017 -0.014076988
-0.04066283 0.0022473664 -0.017446123 0.013361247 -0.008012688 -0.012114139 0.0028402964 -0.006559949

network_body._body_endoder.seq_layers.4.weight f4 [256, 256]
00000000: e687 273d b307 ce3c 3f81 0fbd 3082 653d
00000010: 2401 393a e3e3 36bd 9d01 9f3d be53 6cbb
00000020: 6552 aebc 4e0f dabc 1226 dc3c 16d4 f6bc
00000030: fc9a e83c d367 f43c 1435 c1bd cfbf 2dbd
00000040: f5f8 e53d 6a57 853d 2aac ac3d f4f8 483d
00000050: a6e8 1cbc 306a 4dbd d9af 6cbd 4fff 92bc
00000060: 222b 08bc 7fec 64bb 3474 21bd 7407 0f3d
00000070: 714d adbd fff3 5e3d 4d87 3ebd c6c1 16bc
00000080: 409d 02bd bbb5 73bc d089 c03d de79 463c
00000090: 4e1c 813d f36d ba3c cd5c 8cbd 399d 93bc
000000a0: 31d8 92bd 5419 ebbd addf 62bd 9aab 7b3d
000000b0: f21a 6f3c 9c18 8d3d aecd f2bd b4fc 163d
000000c0: 9e9d 88bc f094 e43d 9cd1 8ebc eddf 413d
000000d0: 3a67 a7bc e469 8f3d f14e fbbd 037c 49bc
000000e0: a38a 813d 133e 923d 91d8 22bc dfc2 dbbd
000000f0: db54 d7bc 465b a9bc b2dc 25bd 5088 243d
00000100: 5b2a ff3a 56b7 7a3d 3565 f1bd 2587 3e3c
00000110: dbe6 02bd d88f 053d 4f56 bcbd f624 d7bd
00000120: ad9a 133d 8269 dabc 6fad a13d 541d 933c
00000130: 1b5c 84bc 84c6 ad3c 9a71 5b3c 692e cf3c
00000140: 97e1 1dbe b661 76bd 6890 cfbd 643e c03d
00000150: 39b0 5cbc 8bc1 f53b 60a0 bb3d 2c80 8f3d
00000160: 3dae c4bd 504e 213c 5dd6 e13c c543 3c3d
00000170: 9976 e43b 18ab 103d 5aab 5ebc a795 55bb
00000180: 13c3 61bd be35 223d c59f cebd e3fa 4fbd
00000190: 60a4 4f3d 8938 023e 31f6 a8bd 9bf2 043d
000001a0: ab2c 693d 31f7 8abd b493 e53d 5882 e9bc
000001b0: bb43 143b dc98 3abd 6dc2 6c3c cc99 a8bc
000001c0: 5c4e bd3d 9e38 00bd 50dc a13d d460 243c
000001d0: 8533 81bd 057f e9bd 5826 3f3d b401 b9bc
000001e0: af52 4dbd 2936 8ebd 7681 afbd cc3a e1bb
000001f0: 8bbf 04bc 1052 633d f2c9 c939 cb99 923d
00000200: e82b 9bbc e7fe b23d ffaf bcba 1d8d e2bc
00000210: b7ef ff3c 6345 093b 2612 d33b 6adc 573a
00000220: ebec 1fbc cb8b 293c 73d2 1cbe 971f 37bc
00000230: 8440 18bd 11ea 203d 4694 5d3d 0bc7 b8bc
00000240: 5536 123d 9230 fbbd 0cc1 5a3d ef59 b03d
00000250: 9406 afba 5b59 7d3d 623d 81bc eed3 a23d
00000260: ce9b 46bc 9fea 033d f75d f53b cd01 44bd
00000270: 318d 423a 127b d33d dba2 44bc 09c3 a4bd
00000280: da0d 483c f25c 953d 725c 763d a973 083c
00000290: 97f4 233c 8ddd bebd cda0 bcbc 0a21 9c3d
000002a0: 79af 0a3d b664 45bd 1595 243d 9b1e 243d
000002b0: ac4c b4bd 3b27 73bd 37fa b2bc e5dd dd3c
000002c0: aa8d c1bc 3582 3cbd 4e28 8d3d a890 6f3c
000002d0: b066 a53d 417e 67b8 e833 873d 875a 7d3d
000002e0: 54ac 1b3d ac23 7f3c 2f8b 373d 3185 bfbd
000002f0: 651b 18bd b508 9fbd b92d ae3d 2966 a63d
00000300: 5dd3 87bd 5b45 0e3d 8042 60bc 5c36 c6bc
00000310: dac6 9f3c aa23 d23c 6e96 a03d 6fca 983c
00000320: 85f9 3b3d 5bbd 693c 960d cf3c bbb5 bfbc
00000330: 5d4c d13c 648e 29bb 4342 3c3d 13d9 5bbb
00000340: 4fcc afbc d271 323d a836 6b3d ef6a 71bd
00000350: 3e60 d7bc f8ba 043c 61d9 bfbd 8a26 da3d
00000360: 6927 2cbe fb2a 873c 384a 56bd 4585 0eba
00000370: 9ab6 1c3d d9a3 bc3d b3fc c7bd 0a88 1dbc
00000380: 63fc afbc 4e52 933c a2ac 6c3b 006c 37bd
00000390: 224e 0e3d c3c1 0fbd 559c 18bd f992 973d
000003a0: 788a 923d acea 483d 3f7c bd3a 985a 0b3e
000003b0: 906b f6bd a2ef 4cbd 6c3a ecbc f5c1 a5bd
000003c0: dd70 1ebb cd7b 40be f495 313d d68e 01bd
000003d0: 9444 d33d 11c4 ea3d 8735 303c e768 b7bd
000003e0: c095 36bc 98cd 66bc 7ae3 a8bc 38b0 6dbc
000003f0: 3068 7e3d 9f1b b23d 9589 9a3d d582 82bc
0.040901087 0.025150156 -0.035035368 0.05603236 0.000705736 -0.044650923 0.077639796 -0.0036060656
-0.021279523 -0.026618626 0.026873622 -0.030130427 0.028394215 0.029834663 -0.09433952 -0.04241925
0.112291254 0.065108135 0.08431275 0.049065545 -0.009576952 -0.050150096 -0.05778489 -0.017944006
-0.008311065 -0.0034931002 -0.03941746 0.034919217 -0.084620364 0.05443191 -0.04651575 -0.009201473
-0.031888247 -0.014874871 0.09401286 0.012114016 0.06304227 0.022757506 -0.06853638 -0.018019306
-0.071701415 -0.1147944 -0.055389095 0.06144295 0.014593827 0.068894595 -0.118556365 0.03686209
-0.01667672 0.1116122 -0.017433934 0.047332693 -0.020434964 0.07002619 -0.12270916 -0.012297633
0.06325271 0.07140746 -0.009939329 -0.10730528 -0.02628558 -0.020673405 -0.040493675 0.04016906
0.0019467579 0.06121 -0.11786882 0.011628901 -0.031958442 0.032607883 -0.091961496 -0.105050966
0.036036182 -0.026661638 0.07894408 0.01795832 -0.0161572 0.021212824 0.013393784 0.025290685
-0.15418087 -0.06015178 -0.10134965 0.093869 -0.013469749 0.0074998788 0.091614485 0.07006869
-0.09603546 0.009845331 0.027568037 0.045963068 0.0069721458 0.035319418 -0.013590658 -0.003259042
-0.055117678 0.039602034 -0.10089067 -0.050776374 0.05069387 0.12716879 -0.08250082 0.03245793
0.056927364 -0.06785429 0.11209813 -0.028504536 0.0022623378 -0.045555934 0.014450652 -0.020581149
0.092434615 -0.031303994 0.079033494 0.010032851 -0.06308655 -0.1140118 0.046667427 -0.02258382
-0.05012768 -0.06943924 -0.085696146 -0.006873464 -0.008102308 0.055498183 0.00038488169 0.0715824
-0.018941835 0.08740025 -0.0014395713 -0.027655179 0.031242235 0.0020945899 0.0064413724 0.00082344434
-0.0097610755 0.010348271 -0.15314655 -0.011176965 -0.037170902 0.039285723 0.054096483 -0.022555849
0.035696346 -0.122651234 0.05340676 0.086109035 -0.0013353401 0.061852794 -0.01577634 0.07950579
-0.012122108 0.032206174 0.007488008 -0.04785328 0.0007421552 0.10326208 -0.012001718 -0.080450125
0.012210334 0.072931185 0.060146756 0.008328357 0.010007045 -0.09319601 -0.023025895 0.07623489
0.03385875 -0.04819175 0.04018124 0.04006825 -0.088036865 -0.059363585 -0.021847827 0.027083347
-0.023627121 -0.046022613 0.06892453 0.014621891 0.08076227 -5.5192275e-05 0.06601697 0.06185391
0.03800614 0.01557247 0.04481047 -0.09351576 -0.0371355 -0.077653326 0.08504815 0.08124954
-0.06632111 0.03473411 -0.01368773 -0.024195842 0.019504 0.025651772 0.07841192 0.018651215
0.045892257 0.014266337 0.025275033 -0.023402086 0.025549108 -0.0025872225 0.04596163 -0.0033546134
-0.021459727 0.04356558 0.05742517 -0.05893987 -0.026291009 0.008101217 -0.093676336 0.10651882
-0.16811909 0.016499987 -0.052316874 -0.0005436729 0.03826008 0.09210939 -0.097649954 -0.009614954
-0.021482652 0.017983582 0.003611364 -0.04478073 0.034742482 -0.035096895 -0.037258465 0.0740108
0.07155317 0.049051926 0.0014456584 0.13608778 -0.12032235 -0.05003322 -0.028836451 -0.08093635
-0.0024176158 -0.18797226 0.043355897 -0.03163036 0.103158146 0.11463178 0.010754949 -0.089555554
-0.011144102 -0.014087103 -0.020616282 -0.014507346 0.06211108 0.086966746 0.07545773 -0.015931526

network_body._body_endoder.seq_layers.4.bias f4 [256]
00000000: 46f7 2bbc be56 75bd a799 443c e3bf 143c
00000010: bd19 f6bc aea6 64bb 98bb 86bc ed73 ad3b
00000020: 9c91 423b d0ff 753b 12c7 153a e610 67bb
00000030: 3f90 753c 2c84 81ba d37e febc eb60 16bc
00000040: 4ca0 783c 7f2b 053d e8e7 6e3b 12aa b33c
00000050: 6275 163d d853 64bc a6c9 de3a efc7 6abc
00000060: 31cf a43a c3a0 103b 2050 42bc a987 6bbc
00000070: 7612 39bd 3d46 cfbc 03f0 f2bb 3ff7 abbc
00000080: 9c37 6bbc 9ed3 99bb 693f 593c e4f2 243b
00000090: f0d2 023a 3b66 4abc bf9d 63bb 254b a33b
000000a0: 9d1e 92bc 4fd6 3f3d 20c3 8fbb 45dd 233c
000000b0: 0949 133d ab9f 093d e256 173c 0327 92bc
000000c0: b692 5f3c c678 2b3c 9e49 ba3b c967 16bc
000000d0: 666f e03c 3d30 4c3b e8e1 a73c 06b5 85bb
000000e0: 26c9 c53b a9cc 80bc 00f4 d53b 1e70 3d3c
000000f0: 6f00 ca3b 03e3 f2bb 010d 003c e7d1 32bc
00000100: 2ee9 083d dbcc 703c 5b82 b1bc 5034 84bc
00000110: e042 363c 4e0a dcba f5c6 abbb 00a4 b43c
00000120: 1220 c43b 36da 16bd 45e0 ccbb 8118 19bc
00000130: f541 fcbc 595c 8b3c 7334 61bc 8887 983c
00000140: e606 63bc 5c83 b13c e594 4ebc 6d46 423c
00000150: 5b92 813b 5f01 363c 495d b1bb f2e8 39bc
00000160: 3129 31bc 1df5 9f3b 3c48 a93b e1d0 d5bc
00000170: d79d e43a 62f4 f6bb 780e 14bd 7942 47bb
00000180: a219 513c 595b 4bbc f8ef 6b3c cf17 a7bc
00000190: 3505 4d3c 6f45 08bb b8c3 403c e209 d1bb
000001a0: 02fd 573c d48a 033d b73c edbb cc0a 523c
000001b0: d568 c83c 01f2 6b3c 24af 60bc fce8 2d3c
000001c0: 5920 433b 4e5d 3d3b c11a c53c 5d57 4dbc
000001d0: 176a 87bb b637 7e3b 2798 023d d497 8fbc
000001e0: d869 363c e217 293d bb9b cdba b0f1 ba39
000001f0: 269b 813c 0807 d4bc 2da0 f23c b6d4 333c
00000200: 5b6c e4bc 6309 eebb b6e8 923c f69a 513a
00000210: 625c e9bc 7440 a5bc e51c 6f3b 66b1 adbc
00000220: 616f e2bb 28b8 fcbb 95ae df3b e0d0 7cbc
00000230: 7dce f93c 3b39 033d 3265 403c 6e67 493a
00000240: f57f f23c c67e 22bc fd2c 23bb c294 b2bc
00000250: e6ae 903c cf73 c6bc 4898 533b a621 90bc
00000260: ab46 9b3b 479f 933c 3c3e 16bd 1ca1 1f3d
00000270: a9ae 953b fcc0 ff3b 8ef8 49bb f1df e0bc
00000280: 428e 9abc ec3b 063d cace b7bb 5003 c1bc
00000290: 4835 6b3a b618 14bc 074b e7bb 8bd1 b53c
000002a0: 3fc8 26bc 082a 6f3c a286 66bc ee4b 2f3d
000002b0: b6d2 52bc 750d efbb 3dad 14bb 26bd e43c
000002c0: 3261 2eba 78c1 9c3c 3a8f 04bc 974e eb3c
000002d0: c85a cabc f5b0 da3c d4d1 c83c 5cb2 7c3a
000002e0: 6674 07bc d8c8 863b dbad 103a 51e1 30ba
000002f0: 4137 f3bb 7db4 7d3b f5ef d13c 6934 633a
00000300: acbf cbbc 07a2 0d3c 3f4f 9bbb 22a6 833c
00000310: 9182 e0bb aaee 41bc 4915 e03b 2098 df3c
00000320: 7c50 90ba e0e6 d83c 2f5c c5bc a21b f5bb
00000330: c822 a23b 79f6 3a3c 9f5c e5bc 6aec 5aba
00000340: 45e2 d5bb c99a 183c 6025 1abc 6fd7 2cbc
00000350: 65ea 0cbc 5333 8ebb 4f8e 1e3c c244 5a3c
00000360: a080 813c d858 1b3c a36a aabc fc45 a5bc
00000370: 2a1d 02bc a54c 2cbc 19c3 04bd cb20 ecbc
00000380: c06e 1fbb 0ab2 3e3c 42df e13a 0fd3 ccbc
00000390: 46a9 073b 7357 353c aca9 05bc bae0 673b
000003a0: 4258 723b 6dc4 1abb 128c 713b ddd9 f1bb
000003b0: a40a 8ebc 2a81 873c f010 12bc 91d2 c63c
000003c0: 57fa 01bc 6962 8abc b5c4 13bc 0284 653c
000003d0: 47e1 873c ac8c cb3b a776 f93b 9706 2d3c
000003e0: 14cd 8bba b3dc c4bc 99c9 27bc 0cd6 87bc
000003f0: 000a 53bc 5260 d6bb 54cb fabb 4300 873c
-0.010495966 -0.059897177 0.011999524 0.0090789525 -0.03004157 -0.0034889388 -0.016446874 0.0052933604
0.002968884 0.003753651 0.0005713563 -0.0035257875 0.014988004 -0.0009881309 -0.031066334 -0.0091783805
0.0151749365 0.032512184 0.0036454145 0.021931682 0.03673304 -0.0139360055 0.0016997352 -0.014329894
0.0012573955 0.0022068478 -0.011859924 -0.014375606 -0.04518362 -0.025302047 -0.0074138655 -0.02099192
-0.01435652 -0.004694416 0.013259747 0.0025169188 0.00049905386 -0.012353475 -0.0034731475 0.004983323
-0.017836863 0.04683524 -0.0043872744 0.010001485 0.035958324 0.033599537 0.009237023 -0.017840868
0.013645818 0.010465806 0.0056850454 -0.009180018 0.027396869 0.0031156682 0.020493463 -0.0040804176
0.0060359417 -0.01572259 0.006529331 0.011562375 0.0061646025 -0.007412316 0.0078156 -0.010914302
0.033425502 0.014697279 -0.021668604 -0.016138226 0.011124343 -0.0016787739 -0.0052422234 0.022050858
0.0059852684 -0.036829196 -0.006252321 -0.009344221 -0.03079317 0.017011808 -0.013745415 0.018619314
-0.013856625 0.021669082 -0.012608741 0.011857611 0.0039542145 0.011108725 -0.005412732 -0.011347042
-0.010813043 0.0048815147 0.0051660817 -0.026100578 0.001744206 -0.007536457 -0.03614661 -0.003040461
0.012762459 -0.012411916 0.014400475 -0.020397095 0.0125134485 -0.0020793339 0.011765413 -0.006379352
0.01318288 0.03211482 -0.007239904 0.012819957 0.02446405 0.01440096 -0.013713632 0.01061463
0.002977392 0.0028894725 0.024060609 -0.012533036 -0.00413252 0.003879053 0.031883385 -0.017528452
0.011133634 0.041282542 -0.001568667 0.00035656756 0.01582105 -0.025882259 0.029617393 0.010976007
-0.0278837 -0.0072643026 0.01793323 0.0007995808 -0.028486434 -0.020172335 0.0036485728 -0.021202754
-0.00691025 -0.007712383 0.0068262317 -0.015430659 0.03049397 0.032037 0.011742877 0.0007682954
0.02960203 -0.00991792 -0.0024898641 -0.021799449 0.017661523 -0.024225144 0.0032286812 -0.01759417
0.004738649 0.018020285 -0.036680445 0.038972005 0.0045679403 0.007804988 -0.0030818316 -0.027450534
-0.018866662 0.03277199 -0.005609368 -0.02356115 0.0008972478 -0.009039095 -0.0070585045 0.022194644
-0.010179578 0.014597423 -0.014070185 0.04279702 -0.01286762 -0.0072953054 -0.0022686266 0.027922224
-0.00066520565 0.019135222 -0.0080907885 0.028723998 -0.024701491 0.026695708 0.024514116 0.0009639615
-0.008267498 0.004113298 0.00055190705 -0.0006747442 -0.0074223583 0.0038712316 0.025627116 0.00086671725
-0.02487167 0.008644587 -0.0047396715 0.01607043 -0.006851502 -0.011836687 0.006838475 0.027294219
-0.0011010314 0.026477277 -0.024091808 -0.0074801007 0.004947994 0.011411303 -0.027998267 -0.00083512685
-0.0065272176 0.009314247 -0.009408325 -0.01054941 -0.008600806 -0.0043396144 0.009677484 0.013322057
0.015808403 0.009481631 -0.020802801 -0.020174973 -0.007941524 -0.01051632 -0.032412622 -0.02882423
-0.0024327487 0.0116391275 0.0017232674 -0.025002984 0.002070026 0.011068213 -0.008158129 0.003538175
0.0036978875 -0.0023615614 0.003685717 -0.0073807077 -0.017339058 0.016541082 -0.008915171 0.024270328
-0.007933221 -0.016892629 -0.009019067 0.014008524 0.016586913 0.0062118378 0.0076130214 0.010560653
-0.0010665976 -0.024031019 -0.010240936 -0.016581558 -0.012880802 -0.006542244 -0.007653633 0.016479617

action_model._continuous_distribution.log_sigma f4 [1, 2]
00000000: a368 87be 62ee aebe
-0.2644702 -0.34166247

action_model._continuous_distribution.mu.weight f4 [2, 64]
00000000: ce1d 83be 7eb9 9ebd 53e2 66be 598e 5abc
00000010: cfd0 3cbc e21d c9bb 9ab3 b43d 3d46 293d
00000020: 8ed6 debc c637 22be 4c2a 55bd 0299 e0bd
00000030: 83dd 10be 9066 613e 8077 d7bd d24d 5a3d
00000040: 1f9f f33c 707c a7bd 5ecd 8b3d 5962 f9bd
00000050: caf5 42bc 0ed6 7f3e a048 993d 810f 273e
00000060: c6e7 213e 32a0 d2bd 9123 53be c004 0d3e
00000070: 71d8 6b3d 51bb 993d 2247 c7bd 5d1d 53be
00000080: 1009 043e 7f0b bbbd 6712 5f3d 8eb6 4e3e
00000090: 0ba9 ae3d 9e03 00be 73a3 b0bd 47f3 883d
000000a0: cdec 26be 0970 72be c951 bf3d 7c8a 213d
000000b0: e4ad d7bd c32b 2ebe 9c45 30be b4af 92bd
000000c0: 368a ca3d 99c2 c23e 7c07 9b3d cb91 a03e
000000d0: 392f f0bc d15c 20bd 7618 3abd f94f 353e
000000e0: 678a d13d e3e2 5f3d bb9b 923e 99f8 8ebd
000000f0: 10b1 243e df6e 1bbe ffe6 0dbe b4f7 d73d
00000100: 4986 07bd 6533 b73d 63ab 40be 155a 8e3c
00000110: 9147 ef3d 7ec6 46be 7ec4 163e 47ae 59be
00000120: 70e6 c2bd 2f50 6cbe ea35 2dbe 27f4 3cbd
00000130: 6a15 813b 9efc 283e 5c7b 3dbe 8dac 493e
00000140: 7f7b a83c f248 0ebe fd27 4fbd c693 363e
00000150: e8d1 183c 7df1 aa3d 58b6 98be cb44 0fbe
00000160: e0d6 933d 7aa1 123e 4186 123e 9494 403e
00000170: caa6 603d c9e4 a5bd 33aa e23d dabe 65be
00000180: f45a 36be 63ed cfbd 9a2b 17bb 82cc d63c
00000190: 7813 1bbd 18ff 3cbd 73bc 29bc 6bc8 eebd
000001a0: 2a9e 1ebe 000d 413e 4ce9 da3d 8eca 22bd
000001b0: c710 f8bc 7715 4a3e e00f 61be 2502 7abd
000001c0: a6df d3bd 052c 123f 9733 df3d d934 183e
000001d0: f0a7 b23c c1c9 efbb a576 1c3e 1ac2 903d
000001e0: 12a8 453e 408b 8e3d fba7 433d e7b0 8f3c
000001f0: 7769 b4bd 88ea 0cbd e8c5 f4bd 0c63 ec3c
-0.25608677 -0.077502236 -0.22547273 -0.013339602 -0.011524393 -0.0061375955 0.08823319 0.04132675
-0.027201917 -0.15841588 -0.05204229 -0.10966684 -0.14147 0.2201178 -0.1052084 0.05329687
0.02973896 -0.081780314 0.0682628 -0.121769615 -0.011899421 0.24983999 0.07484555 0.16314508
0.15811071 -0.10284461 -0.20619036 0.13771343 0.05757946 0.07506431 -0.097303644 -0.2061667
0.12894082 -0.09133052 0.05446091 0.20186827 0.08528336 -0.1250138 -0.086249255 0.066870265
-0.1630127 -0.2367555 0.09341771 0.03943871 -0.10531214 -0.17008881 -0.17214054 -0.07162419
0.09889643 0.3803909 0.07569787 0.3136123 -0.029319393 -0.039151017 -0.045433484 0.17706288
0.10231476 0.054659735 0.28634438 -0.0698101 0.16083169 -0.15179013 -0.1385765 0.105452925
-0.03308705 0.089453496 -0.18815379 0.017376939 0.11683572 -0.19411656 0.14723393 -0.21257888
-0.09516609 -0.23077463 -0.16915098 -0.04613128 0.0039393203 0.16502616 -0.18504089 0.19694729
0.0205667 -0.13895014 -0.050575245 0.17829809 0.009327389 0.083468415 -0.29826617 -0.13991086
0.072187185 0.14319411 0.14309026 0.18806678 0.054846562 -0.08100278 0.11067619 -0.22436085
-0.17808133 -0.101527 -0.002306676 0.026220564 -0.037860364 -0.046141714 -0.010359871 -0.116593204
-0.15490022 0.18852615 0.10689029 -0.039743952 -0.030281438 0.1973475 -0.21978712 -0.0610372
-0.10345392 0.5709842 0.10898512 0.1486391 0.021808594 -0.007317752 0.15279634 0.07068272
0.19302395 0.069601536 0.04776762 0.017540408 -0.08809178 -0.034403354 -0.1195181 0.028855823

action_model._continuous_distribution.mu.bias f4 [2]
00000000: 24e7 b6bd 6e6e 81bd
-0.08930805 -0.06319891

onnx::LSTM_102 f4 [1, 256, 256]
00000000: a957 953d 0df6 dcbd 8528 e33d dadd a63d
00000010: 1d64 d7bd 7ede 14be 4f23 54bd a3c2 f83d
00000020: e9f4 4c3d 58ed fe3d deaa 183d 7019 24be
00000030: db42 8ebd a364 68bd e2b9 babd 2f28 8c3d
00000040: adee 2cbd 472e bc3d 78a1 acbd a2b7 96bd
00000050: b63f bf3d 3132 09be 2909 65bd 7793 82bd
00000060: f4f0 92bc 244c 8dbb be35 30be 8ab3 99bd
00000070: c829 3b3d d6b4 873d 74f5 67bc 8c95 ce3b
00000080: 921d 10be 40c7 1b3d 63a3 bc3d c3aa cfbd
00000090: 8b76 cc3d b02d dc3d 524f c8bc b100 2ebe
000000a0: 12e3 953d 9614 bf3d 2880 b13d 051e ff3d
000000b0: bff5 dd3b f26d 99bd e5cd f1bd d2cd a53b
000000c0: 5ad8 da3d 5e94 dc3d e291 b0bd 214e 293c
000000d0: 73ca fd3d 6e28 223e 5ae1 1ebd bdea b6bd
000000e0: 0b89 3ebd bd71 843d 7eb1 b43d d9ae 70bd
000000f0: e4c6 04be 1f56 12be 947a c8bd 52b6 883c
00000100: 7a75 cfbd c760 053d 97ec cd3d ba57 96bd
00000110: b5bc 523c 2679 ecbc 4bab 6cbd b6d2 943c
00000120: b78f 80bd 2c33 c2bd f50b 3f3d 4347 d1bd
00000130: 8141 c93d e452 bbbd 2b13 babd 639f b63d
00000140: 0247 9d3b 2fc3 08be a115 663c e363 36bd
00000150: fbd6 663c 7724 ba3d d8bf 233d 71e5 8bbd
00000160: 1165 003e f02f 0a3d 2e86 f93d a832 2b3d
00000170: 39c2 cd3b 2115 6a3c 4f69 c1bd de2b 3cbb
00000180: 0b0c 32bd 8cb9 3c3d d854 7d3c 87eb f9bd
00000190: d23b a63c c5c4 e0bd eec9 bb3d c3a5 fe3d
000001a0: f342 d23d 9c15 c0bd e5e8 fe3d e0b5 d53d
000001b0: 1335 10bd 6af3 febd 5946 dabd 1913 01bd
000001c0: 9655 cdbd 4a8a efbd 32c6 8f3d b83c 18bd
000001d0: a24d 8fbc c97c d43d 100f bbbc 0447 aebd
000001e0: d4cf f13d 46db c2bd f869 873d 17ae bfbd
000001f0: f0de f83d 68a6 e83b 5c7c cdbd 2ce6 15bd
00000200: 7e57 2bbd d9bf fa3c 505f bb3d 70c9 e73d
00000210: 4f91 3ebd 81f3 c4bd a684 19bb 9c11 90bc
00000220: 903a 04be 2f9b 27bd 47a5 843d dc78 2f3d
00000230: 6962 01bc 84a3 763c d013 993d 5178 9bbd
00000240: 5fad cd3d eec7 433d 2a9a 11bc f1d7 913d
00000250: 2bf6 12be 4940 6abd ed0c 07be 6656 04be
00000260: d49d c43d a8c1 cdbc 94e5 a9bd ee61 e0bc
00000270: 754f a63d e6ec df3c 7dc1 b5bd ff1f 4dbd
00000280: da63 83bc bd99 70bd b41c c6bc 9ed4 eb3d
00000290: 66b1 09bc 89b7 24be 2c32 2b3c ffaa b3bd
000002a0: 275b ee3d 9e7f de3d 5aca 8bbb 0fa1 f1bc
000002b0: d0fe bf3d 6963 8abc 4c32 74bd a61d 0d3e
000002c0: 37b4 ae3d 615a 18bc eddd 8ebd fac2 dd3d
000002d0: ed12 f83a b0c2 de3d 4ca2 a5bd bb73 953c
000002e0: d907 85bd fc80 463d 933b 203d 210e c23d
000002f0: 31a7 67bc 596b 233d 556d 12bd 0f6e 88bc
00000300: 69c6 c8bd d0aa 89bd a2ff 33bd 7380 3a3d
00000310: 34ec d2bc 3f8e d9bd 848b 983d ef6b 033e
00000320: e9a4 d4bc bd0b b0bd f06b 61bd 4fc9 a6bd
00000330: ef04 a23d 487d f83c b805 843c 153a 48bb
00000340: 05b8 f23c d0f3 d9ba 097b b2bd 03b9 4b3d
00000350: 8bba 5bbd be91 8abc 85e0 b1bd 9c44 af3d
00000360: d8a5 ee3d 3219 a9bd 21d9 0c3e 2a06 c03d
00000370: 1903 9bbd 6ba0 09bd 2c79 983d 5338 f83d
00000380: b9b1 20bd e7ea b53d bdfb 18bb 8a04 b1bd
00000390: b729 8dbc 0f2e 45bd 5e4f d03c 30af 803c
000003a0: a783 623d 29c0 eb3d f76f 08be dd8d 193e
000003b0: 88c0 60bd 1cd6 cbbc b88b e7bd 8777 a73b
000003c0: 2c0f dfbd 94f4 ed3d 8ae4 093c 6f36 f2bd
000003d0: 5ab9 0a3e 951e 25bd a047 bf3d ff9c 613d
000003e0: 40da 43bb 3bf3 4fbd dff7 08bd adb2 1cbe
000003f0: 4545 03be bc15 c73d 7e6c d23d 09e7 2a3e
0.072921105 -0.10789118 0.11091713 0.081477836 -0.10517142 -0.14537999 -0.051791485 0.12146499
0.050038252 0.124476135 0.037272327 -0.16025329 -0.069463454 -0.0567366 -0.091174856 0.06843602
-0.042219806 0.09188514 -0.08429235 -0.07359244 0.09338324 -0.13398053 -0.05591694 -0.06375783
-0.017937161 -0.004312055 -0.17208001 -0.075049475 0.045694143 0.066262886 -0.014157642 0.0063044485
-0.1407378 0.038031816 0.09210851 -0.10139992 0.09983548 0.10750902 -0.024451885 -0.16992451
0.07318701 0.09330098 0.08667022 0.12456898 0.00677368 -0.074916735 -0.118068494 0.005059936
0.10685797 0.10770486 -0.08621575 0.010333569 0.1239213 0.15835735 -0.03878913 -0.089314915
-0.046517413 0.06467006 0.088229164 -0.058760498 -0.12966496 -0.14290665 -0.09789005 0.0166885
-0.10129829 0.032562997 0.100548916 -0.07340951 0.012862374 -0.028866362 -0.057780545 0.018166881
-0.062774114 -0.094824165 0.046642262 -0.1021867 0.09826947 -0.091466695 -0.09085687 0.08917119
0.0047997246 -0.13355707 0.014043243 -0.044528853 0.014089341 0.09088986 0.03997788 -0.06830872
0.12538554 0.033737123 0.12183796 0.041796356 0.0062792567 0.014287264 -0.09443914 -0.002871267
-0.043468516 0.04607539 0.015462123 -0.122031264 0.020292196 -0.10975031 0.091693744 0.1243396
0.10266676 -0.09379122 0.12446765 0.104350805 -0.035206866 -0.12448771 -0.10657949 -0.031512354
-0.1002609 -0.116962984 0.07020225 -0.03716728 -0.017493073 0.103753634 -0.02283433 -0.08509639
0.11807218 -0.09514479 0.06612009 -0.09359377 0.12151897 0.0070999153 -0.10033485 -0.036596462
-0.041831486 0.030609058 0.09149039 0.11317718 -0.046525296 -0.09616757 -0.0023425012 -0.017586522
-0.12912965 -0.04091948 0.06476837 0.04283987 -0.007896998 0.015053634 0.07474482 -0.07591308
0.100428335 0.04779809 -0.008886853 0.07121266 -0.14351718 -0.057190213 -0.13188525 -0.12923583
0.09600416 -0.025116757 -0.08295742 -0.027390447 0.08120624 0.027334642 -0.088747956 -0.050079342
-0.016038824 -0.058740366 -0.024183609 0.11515163 -0.0084041115 -0.16085638 0.010448974 -0.08772849
0.1163848 0.10864185 -0.0042660655 -0.029495744 0.093747735 -0.016893106 -0.05961828 0.13780841
0.08530467 -0.009298892 -0.06975923 0.108282045 0.0018926539 0.108769774 -0.08087596 0.018243661
-0.064956374 0.048462853 0.039119314 0.09475351 -0.014138983 0.039897297 -0.0357488 -0.016654043
-0.09803469 -0.06722033 -0.043944962 0.045532655 -0.025747396 -0.106228344 0.074484855 0.12834142
-0.025957542 -0.08595989 -0.055034578 -0.08143865 0.07911097 0.030333176 0.016116008 -0.0030552198
0.029628763 -0.0016628448 -0.08714873 0.049736988 -0.053644698 -0.016915198 -0.08685402 0.08558008
0.11652726 -0.08256759 0.13754703 0.09376176 -0.0756895 -0.033600252 0.07444987 0.12120118
-0.03923199 0.08882695 -0.0023343407 -0.08643444 -0.017231805 -0.048139628 0.02542847 0.015708536
0.055301335 0.11511261 -0.13323961 0.14995523 -0.054871112 -0.024882369 -0.11305946 0.0051106843
-0.10891566 0.11618915 0.008416304 -0.11826789 0.13547269 -0.04031237 0.09339833 0.055081364
-0.0029884726 -0.050769072 -0.033439513 -0.15302534 -0.12819393 0.097209424 0.102745995 0.16689695
