results/FullyCont4/bachelor/bachelor-36499964.onnx (onnx, 872319 bytes, 12 tensors)

network_body._body_endoder.seq_layers.0.weight f4 [256, 7]
-0.2806075 -0.8041868 0.12921454 -0.3387832 -0.47429937 0.136545 -0.263041 -0.24336821
-0.11871411 -0.5343263 -0.48246533 -0.632117 -0.72443247 -0.5066622 0.025672507 0.97368485
0.5973243 0.14240813 0.7571737 -0.694186 0.21255548 0.1144413 0.3696534 0.21085429
0.14506827 -0.23265263 0.14427471 0.0042287135 0.357564 0.40991506 0.5981853 -0.3181248
0.18275006 0.14269717 -0.22973068 -0.38713333 -0.0323317 0.012352809 0.087280355 0.023920078
-0.44814885 -0.020275116 -0.2664275 -0.055198353 0.6630198 -0.48643392 -0.69506407 0.07684135
-0.5409092 0.008480649 0.42177358 0.036547694 -0.13060391 0.1712575 -0.048625804 -0.19081628
-0.36992684 0.5546392 0.21969424 -0.41201782 0.03987844 0.1654011 0.40362325 -0.40664998
-0.41355816 0.071036026 0.41492254 -0.48611125 -0.90457714 -0.5198556 -0.73879564 0.36123446
-0.6080957 0.33183408 -0.04349142 0.21915187 0.66867554 -0.6675221 0.42358842 0.06832211
-0.56086296 -0.5955612 -0.23398 -0.5163351 0.89340144 0.27968308 -0.14168389 -0.16623494
-0.4193325 0.6071673 0.4762315 -0.10170837 -0.37321332 -0.21728402 -0.39476982 -0.0061884783
-0.10281154 -0.22493973 -0.17986262 -0.16680808 -0.32400835 -0.44110784 0.34223396 -0.14057936
-0.7970381 -0.0803227 -0.49024794 -0.024365107 -0.16427176 0.02859192 0.28469732 -0.37355444
0.31522503 0.17698006 0.32174754 0.18139766 -0.4626205 -0.03587329 -0.5989214 -0.11723866
-0.7759178 0.46107116 0.3594235 0.58378583 0.4780401 -0.47019723 0.2622738 -0.91989326
-0.23117757 0.025613198 -0.13840514 0.4254901 0.36545712 0.036959354 -0.82878584 -0.097946286
0.14782654 -0.033836707 -0.14749871 -0.05186136 -0.15670039 0.3803722 -0.46737486 0.7363943
0.002210807 0.053138647 -0.5951737 -0.07021103 -0.6298799 -0.4568026 0.20452963 -0.82284707
-0.092145026 -0.78952867 0.015914973 -0.06434632 -0.1125378 0.14275938 0.35623434 -0.051925443
-0.28588775 0.25589597 0.51444626 0.32804945 -0.09688718 -0.22525936 0.77388996 0.57660186
0.85481924 0.41818503 -0.11558623 0.46913737 0.0361171 -0.13224289 0.8367518 0.21693324
0.0618993 0.46648198 -0.37755474 -0.14256753 -0.47140422 -0.31602478 -0.05034045 0.28186393
0.15933478 -0.27886686 0.3394476 -0.77953005 0.60760266 0.64979523 0.6644838 -0.20576635
-0.4807404 0.2252835 0.23248169 0.37564236 -0.41255304 -0.501602 -0.20875034 0.23633882
0.13122438 -0.25949654 0.11475006 0.2748461 -0.45090458 -0.22295873 -0.42987174 -0.40708357
-0.42827934 -0.4421721 0.49791384 -0.22583924 -0.34525704 -0.3085398 0.52644616 -0.5192134
0.08521473 -0.6569733 0.8040902 -0.3153239 0.19047387 0.031463567 0.10763558 0.5776529
-0.18002076 -0.6829538 0.41935185 0.502551 -0.39110327 -0.5939114 0.20860727 0.54408634
0.21272896 0.1899284 0.38793266 0.58841604 0.13388509 0.34742215 -0.17014459 0.330547
-0.26681513 0.27718508 0.35391194 -0.01789165 -0.42809385 0.25136673 0.10219572 0.041611556
0.055318493 -0.2005157 0.35788321 -0.2024087 0.7724181 0.08191335 0.54133654 0.43910015
00000000: c9ab 8fbe 30df 4dbf d150 043e fe74 adbe
00000010: 5ed7 f2be 74d2 0b3e 4fad 86be 8435 79be
00000020: 6220 f3bd 9cc9 08bf b205 f7be 6bd2 21bf
00000030: 6874 39bf 9db4 01bf 264f d23c 6943 793f
00000040: 3fea 183f 70d3 113e 23d6 413f 2cb6 31bf
00000050: 25a8 593e 3360 ea3d 3643 bd3e 30ea 573e
00000060: c78c 143e 7e3c 6ebe c0bc 133e 0591 8a3b
00000070: a112 b73e 63e0 d13e ac22 193f 41e1 a2be
00000080: d522 3b3e 351f 123e 853e 6bbe 5736 c6be
00000090: 3f6e 04bd 7063 4a3c 0bc0 b23d 0af4 c33c
000000a0: c473 e5be 0018 a6bc 2f69 88be ab17 62bd
000000b0: aabb 293f de0d f9be b8ef 31bf ff5e 9d3d
000000c0: 0679 0abf 6cf2 0a3c b5f2 d73e 09b3 153d
000000d0: 08bd 05be 205e 2f3e da2b 47bd 5865 43be
000000e0: 0d67 bdbe d6fc 0d3f 87f7 603e 00f4 d2be
000000f0: 9357 233d e85e 293e b5a7 ce3e 6d34 d0be
00000100: e5bd d3be 567b 913d ba70 d43e 93e3 f8be
00000110: 5e92 67bf 4215 05bf b621 3dbf b9f3 b83e
00000120: 29ac 1bbf 28e6 a93e 0f24 32bd 5969 603e
00000130: 522e 2b3f bae2 2abf 95e0 d83e 76ec 8b3d
00000140: b794 0fbf b376 18bf 7498 6fbe 8a2e 04bf
00000150: f5b5 643f 9f32 8f3e 9515 11be 7e39 2abe
00000160: c0b2 d6be 516f 1b3f 9dd4 f33e 7a4c d0bd
00000170: d115 bfbe b47f 5ebe 451f cabe b8c8 cabb
00000180: db8e d2bd 9a56 66be e82d 38be bdcf 2abe
00000190: 6ce4 a5be e3d8 e1be 4a39 af3e 09f4 0fbe
000001a0: b00a 4cbf 3a80 a4bd c701 fbbe 5599 c7bc
000001b0: db36 28be 9a39 ea3c d9c3 913e 8742 bfbe
000001c0: 2d65 a13e 433a 353e 18bc a43e 4fc0 393e
000001d0: 98dc ecbe dfef 12bd ea52 19bf d31a f0bd
000001e0: 8da2 46bf 8511 ec3e 5b06 b83e fd72 153f
000001f0: acc1 f43e b1bd f0be c048 863e 207e 6bbf
00000200: d0b9 6cbe c5d2 d13c 14ba 0dbe d7d9 d93e
00000210: 321d bb3e b162 173d 4f2b 54bf 1098 c8bd
00000220: d75f 173e 5c98 0abd e709 17be 946c 54bd
00000230: 1176 20be 25c0 c23e c24b efbe 5684 3c3f
00000240: 30e3 103b e9a7 593d 4e5d 18bf cdca 8fbd
00000250: cf3f 21bf 08e2 e9be 3770 513e 1ba6 52bf
00000260: 88b6 bcbd 8d1e 4abf 1e60 823c 01c8 83bd
00000270: 387a e6bd 842f 123e 5964 b63e c6af 54bd
00000280: e15f 92be cc04 833e c0b2 033f 19f6 a73e
00000290: c96c c6bd 64aa 66be a71d 463f 2e9c 133f
000002a0: 6fd5 5a3f 591c d63e 79b8 ecbd c632 f03e
000002b0: 86ef 133d ae6a 07be 5e35 563f bf23 5e3e
000002c0: 1f8a 7d3d bad6 ee3e db4e c1be 39fd 11be
000002d0: e55b f1be 00ce a1be ca31 4ebd 7850 903e
000002e0: a828 233e a3c7 8ebe 13cc ad3e 488f 47bf
000002f0: d98b 1b3f fb58 263f 9c1b 2a3f 6ab4 52be
00000300: 9b23 f6be b8b0 663e ae0f 6e3e 3254 c03e
00000310: 273a d3be fd68 00bf a6c2 55be ce02 723e
00000320: af5f 063e bbdc 84be 1402 eb3d a1b8 8c3e
00000330: f7dc e6be 4b4f 64be 2618 dcbe 426d d0be
00000340: 6e47 dbbe 6264 e2be 90ee fe3e 6742 67be
00000350: 88c5 b0be eef8 9dbe 2dc5 063f 2beb 04bf
00000360: 0f85 ae3d 672f 28bf dbd8 4d3f 2272 a1be
00000370: 950b 433e f1df 003d 0b70 dc3d 0fe1 133f
00000380: 5d57 38be 0fd6 2ebf 49b5 d63e 2fa7 003f
00000390: b03e c8be 940a 18bf 259d 553e 3e49 0b3f
000003a0: 9fd5 593e 977c 423e 1c9f c63e 6fa2 163f
000003b0: 2c19 093e 51e1 b13e 623a 2ebe 753d a93e
000003c0: fe9b 88be 34eb 8d3e f233 b53e 8291 92bc
000003d0: 1e2f dbbe 24b3 803e fd4b d13d e170 2a3d
000003e0: a595 623d fd53 4dbe 783c b73e 3a44 4fbe
000003f0: 31bd 453f 30c2 a73d 0895 0a3f bcd1 e03e

network_body._body_endoder.seq_layers.0.bias f4 [256]
0.006958992 0.024598775 0.014004483 0.0038222603 0.0033012128 0.0054180897 0.028840493 -0.003919337
0.028480433 -0.027325813 0.013065529 0.000977124 0.021941388 -0.012997866 0.01178069 -0.0050220587
0.00871132 0.029159434 0.004032852 -0.008684308 -0.020242088 0.014201204 -0.008353402 0.010982822
0.01159973 0.005707308 0.014704789 0.047952067 0.019374488 0.008497597 -0.0045972094 0.014676496
-0.0050438913 -0.002949565 0.003002821 0.030576967 -0.009527695 -0.003690876 0.019420533 -0.0053782496
0.033046838 0.006444738 -0.022931878 0.004161633 -0.009078386 -0.0134953 -0.018982425 -0.009637614
0.010033979 -0.0040936335 -0.011354047 -0.034757007 0.02176113 0.021586679 0.021877637 -0.010074574
0.032097585 -0.003585269 0.025873434 -0.012873965 0.0036076123 -0.013371889 0.02807473 0.01382248
0.023829626 0.014405289 0.0065293885 0.022151038 0.0039658444 0.007129498 0.03085123 -0.021329746
0.0066775936 -0.020697607 0.006582537 -0.007576702 -0.010801044 -0.016927963 0.025088273 -0.0148100145
-0.016183058 -0.008997099 -0.016040897 -0.036474425 -0.009944222 0.0067623034 0.0038845353 -0.010069459
0.013141341 -0.0052826228 -0.00646553 -0.018220453 -0.0013880349 0.008089279 -0.018269617 0.019101834
0.013971452 -0.01039758 -0.013093333 0.020282255 -0.01108932 0.016630128 -0.008765968 0.014425915
0.0076382277 0.0045681545 0.005356229 0.0019086372 0.0029103402 0.040357765 0.001947476 -0.014779087
-0.0010765566 -0.011372043 0.012751799 -0.0034060222 0.0014383649 -0.00880034 -0.009264297 -0.0049576703
-0.0031426535 -0.012181767 0.014473496 0.00045115023 0.019863978 0.033076707 0.027766692 -0.005877749
0.005631655 -0.0035790252 -0.014296326 0.017727917 -0.004226993 -0.01223201 0.0023350485 -0.012292846
-0.01911267 0.017652616 -0.01256891 0.007897743 0.012826054 -0.0048553706 0.011489004 -0.00994402
0.013647244 0.013714872 -0.0034957726 -0.009482655 0.007466123 0.0027706444 3.8475497e-05 -0.04183073
-0.004954927 0.02361383 -0.0016390911 -0.0012884894 0.017561562 0.01762096 -0.013234758 -0.010999061
-0.0046290136 0.026197324 -0.0068333135 0.01592177 -0.0043254616 -0.030621901 -0.0025004994 0.0003480809
-0.009044035 -0.004190395 -0.0282333 0.046118047 -0.0026556842 -0.0026963134 -0.0079962 -0.01454804
-0.02145874 -0.0021057106 0.011248959 -0.0058908965 0.026830634 0.0086355815 -0.028501756 0.02956395
0.017799227 0.008028251 0.010606257 0.011748967 0.0068968055 0.030544052 0.026186706 -0.0069340677
0.009664656 0.0008837307 0.015346959 0.0022957153 -0.001390484 0.005010012 -0.022121819 0.01380889
0.0009927856 -0.013339553 -0.007937584 -0.0014229142 0.005750169 -0.0052726413 -0.0093838135 -0.018075902
0.025016386 -0.02270792 0.036728077 -0.003751044 0.0057061184 -0.015295173 0.0005938441 -0.0068223365
-0.015546012 0.037132334 -0.008820152 0.00811226 -0.004637116 -0.0058513666 0.022312976 0.020667734
0.004962729 -0.02424648 0.018749237 0.015197023 -0.022614468 0.017133106 -0.020302087 -0.008873371
-0.017487787 -0.0040162513 0.019859292 0.023829708 -0.0049545555 -0.006788872 0.00411856 -0.019327605
-0.0080880765 0.0038565607 -0.016428398 0.00018586818 -0.008183542 0.01571153 -0.008081825 0.021704746
0.0008134263 -0.009723488 0.008616374 0.03355327 -0.018128734 -0.01662828 -0.0049263407 -0.0034710786
00000000: 4208 e43b 5f83 c93c 0f73 653c e37e 7a3b
00000010: 2959 583b 3b8a b13b e642 ec3c c86d 80bb
00000020: cc4f e93c 62da dfbc cd10 563c d712 803a
00000030: 6dbe b33c 00f5 54bc cc03 413c 1590 a4bb
00000040: edb9 0e3c c4df ee3c 0426 843b a148 0ebc
00000050: bcd2 a5bc 2bac 683c b5dc 08bc 4bf1 333c
00000060: cb0c 3e3c 5f04 bb3b 5bec 703c 6369 443d
00000070: 3fb7 9e3c 8139 0b3c 30a4 96bb b075 703c
00000080: 3a47 a5bb 7d4d 41bb faca 443b 8c7c fa3c
00000090: 0d1a 1cbc a0e2 71bb cf17 9f3c 073c b0bb
000000a0: 1f5c 073d 612e d33b a2db bbbc 4f5e 883b
000000b0: 83bd 14bc 641b 5dbc 0881 9bbc 15e7 1dbc
000000c0: 8f65 243c e323 86bb 5306 3abc 5d5d 0ebd
000000d0: 6644 b23c 8cd6 b03c bb38 b33c d30f 25bc
000000e0: c278 033d d5f6 6abb 86f4 d33c 53ed 52bc
000000f0: b16d 6c3b c415 5bbc fafc e53c af77 623c
00000100: 5936 c33c 2904 6c3c 7bf4 d53b 1876 b53c
00000110: eaf3 813b 909e e93b b8bb fc3c b8bb aebc
00000120: b7cf da3b 078e a9bc 53b2 d73b fc45 f8bb
00000130: ddf6 30bc 83ac 8abc ec85 cd3c b4a5 72bc
00000140: 5592 84bc 9168 13bc 3368 83bc 3566 15bd
00000150: 17ed 22bc 5096 dd3b b093 7e3b 5ffa 24bc
00000160: c74e 573c da19 adbb ccdc d3bb 0f43 95bc
00000170: b9ee b5ba e588 043c 2aaa 95bc 737b 9c3c
00000180: 84e8 643c 9d5a 2abc 6b85 56bc f926 a63c
00000190: fbaf 35bc e83b 883c 229f 0fbc ac5a 6c3c
000001a0: 194a fa3b 75b0 953b 4e83 af3b 3d2b fa3a
000001b0: 68bb 3e3b 2f4e 253d 7342 ff3a fc23 72bc
000001c0: 3f1b 8dba ce51 3abc ecec 503c 9237 5fbb
000001d0: 8487 bc3a 4d2f 10bc 47c9 17bc f473 a2bb
000001e0: faf4 4dbb 0996 47bc 3e22 6d3c 5c88 ec39
000001f0: c8b9 a23c 717b 073d f976 e33c 229a c0bb
00000200: bf89 b83b 148e 6abb 233b 6abc 233a 913c
00000210: 9682 8abb c568 48bc 9d07 193b ef67 49bc
00000220: 2d92 9cbc 389c 903c d4ed 4dbc 8965 013c
00000230: 5f24 523c cd19 9fbb 603c 3c3c 3eec 22bc
00000240: b198 5f3c 58b4 603c 5519 65bb 235d 1bbc
00000250: 61a6 f43b b393 353b c060 2138 b356 2bbd
00000260: f15c a2bb ca71 c13c c5d6 d6ba 88e2 a8ba
00000270: 44dd 8f3c d559 903c 99d6 58bc 6835 34bc
00000280: fbae 97bb c59b d63c fde9 dfbb 5f6e 823c
00000290: 9abc 8dbb c8da fabc 6bdf 23bb a17e b639
000002a0: 6f2d 14bc 954f 89bb 8649 e7bc 47e6 3c3d
000002b0: fd0a 2ebb a2b4 30bb 7e02 03bc e75a 6ebc
000002c0: 3dca afbc f6ff 09bb 8e4d 383c 6c08 c1bb
000002d0: ebcb db3c 417c 0d3c 847c e9bc 1930 f23c
000002e0: afcf 913c ed88 033c dec5 2d3c bd7e 403c
000002f0: 99fe e13b 8537 fa3c 8185 d63c 2d37 e3bb
00000300: 8158 1e3c 2aaa 673a d071 7b3c b673 163b
00000310: e740 b6ba 072b a43b d138 b5bc af3e 623c
00000320: 5b20 823a 248e 5abc a40c 02bc 1481 baba
00000330: ea6b bc3b 1fc6 acbb 91be 19bc ea13 94bc
00000340: 2aef cc3c f605 babc 2e70 163d 13d4 75bb
00000350: 64fa ba3b 9b98 7abc 34ac 1b3a e88d dfbb
00000360: b3b4 7ebc 1318 183d 6682 10bc 49e9 043c
00000370: f3f2 97bb d2bc bfbb b4c9 b63c 614f a93c
00000380: 639e a23b 8ea0 c6bc 0098 993c effc 783c
00000390: fa41 b9bc ba5a 8c3c 9050 a6bc 9e61 11bc
000003a0: 8c42 8fbc c29a 83bb f4af a23c 8536 c33c
000003b0: d359 a2bb 3075 debb fcf4 863b ed54 9ebc
000003c0: da83 04bc 5abe 7c3b d994 86bc 9ce5 4239
000003d0: 4314 06bc 77b5 803c a269 04bc 27ce b13c
000003e0: 1d3c 553a 444f 1fbc b12b 0d3c 276f 093d
000003f0: b682 94bc 0838 88bc 246d a1bb 097b 63bb

network_body._body_endoder.seq_layers.2.weight f4 [256, 256]
0.0680172 0.04507516 -0.004663881 0.14475627 0.002045607 0.07086914 0.021585995 -0.12323704
-0.023056775 -0.016917562 -0.04252061 0.011283061 -0.04143825 -0.08277704 -0.036352824 0.04906395
0.016082862 -0.07861971 0.007118222 -0.026572326 0.03583157 0.072075166 -0.029960005 0.0077210334
-0.06379226 0.04306321 0.1256743 0.10351937 0.009155166 -0.09406815 0.08615455 -0.0045964834
-0.048775755 0.026074763 0.044634786 -0.033273637 -0.032917883 -0.027460568 0.030496448 -0.11357099
-0.008237528 0.067409545 0.009156711 0.019049417 0.09833267 0.08855895 0.021606041 -0.04657488
-0.052023057 0.057008553 -0.10903462 0.0399974 -0.06383689 0.0220034 0.10525938 0.010927582
0.014423578 0.038188588 -0.13283584 -0.042615406 -0.0048212083 0.0010405205 -0.032700077 -0.038821712
-0.04072631 -0.09891019 0.06369885 0.048131645 -0.08219351 -0.0628182 0.07553029 0.0053990814
0.110569336 -0.02021048 0.020666374 -0.03833307 0.098555386 -0.0549373 0.0086455485 0.016669884
0.064304195 -0.04040244 0.06620759 -0.024207048 -0.07034608 0.049624246 0.16017294 0.01940671
-0.070694655 -0.026179511 0.059551544 0.13203034 0.06420496 0.028553953 0.051140007 -0.08107754
0.008533372 -0.058031432 0.051333122 0.10437023 -0.159789 0.07249232 0.009379901 -0.003932933
-0.058518145 -0.045943454 0.022458846 -0.071000576 -0.07075315 0.031186221 -0.044088498 -0.083231844
0.09121349 -0.017649552 0.15178871 -0.025576005 -0.014279051 0.08607066 -0.025331035 -0.107262716
-0.00823577 -0.060976885 0.0073740506 -0.09918734 0.051967833 0.026216934 0.02468832 -0.030496614
-0.113126084 0.028932178 0.0047907326 -0.017463593 -0.09167978 0.101278596 -0.014295845 0.056829587
0.008707475 -0.011654568 0.004072506 -0.050064333 0.044019934 -0.12656884 0.09028002 0.0061987676
0.025296003 -0.017646967 -0.052108772 0.05540807 -0.0802089 -0.063762635 0.022380486 -0.14367086
-0.019765552 -0.042622805 0.007105385 -0.0058185235 -0.012404959 -0.030242225 -0.0020671808 -0.0009241577
0.049161796 0.026056139 0.043139227 -0.080246344 -0.022429539 -0.018069023 -0.0034610997 0.038303424
-0.07255729 -0.078216106 0.058942016 -0.051653482 0.0921928 -0.060928307 -0.040159184 0.061585136
0.03100112 0.050932188 -0.11457642 0.022421116 0.033584774 0.010960558 0.039447285 0.020288248
0.019198328 -0.13808423 0.033777557 0.029384645 -0.08248274 0.046530664 -0.070828184 -0.049530845
0.0069720587 -0.008530635 0.08310015 -0.049636956 -0.061633885 -0.030374384 -0.052071895 0.012579194
-0.00017073056 -0.014557146 0.0998937 -0.057687663 0.054886885 -0.049605917 0.006158804 0.0611967
-0.024029763 -0.06080735 0.17300498 -0.03857637 -0.004423795 0.036263455 0.033274647 0.094549164
-0.070082314 -0.038505126 0.07775023 -0.06515102 0.03386755 -0.02114327 0.0427137 -0.027564777
-0.060502186 -0.041886088 0.047164276 -0.07491778 -0.058876727 -0.0127861025 -0.07851128 -0.009048209
0.031937517 -0.05191542 -0.002486794 -0.027431501 -0.07362677 -0.050425503 -0.031086266 0.018437956
-0.024097512 -0.058522247 0.03581941 0.05227093 0.028180264 -0.014540426 -0.014215908 -0.016291553
-0.061402407 0.09754391 -0.10334129 -0.035352487 0.068011686 -0.092818275 0.06643019 0.00747163
00000000: 9a4c 8b3d bba0 383d 78d3 98bb fd3a 143e
00000010: 970f 063b d723 913d 1dd5 b03c b463 fcbd
00000020: 90e1 bcbc b396 8abc 172a 2ebd 96dc 383c
00000030: 28bb 29bd 0287 a9bd b3e6 14bd 48f7 483d
00000040: 35c0 833c 5f03 a1bd f93f e93b 35ae d9bc
00000050: 20c4 123d 259c 933d af6e f5bc b900 fd3b
00000060: 84a5 82bd 0c63 303d c4b0 003e f701 d43d
00000070: 8dff 153c cda6 c0bd cc71 b03d 199e 96bb
00000080: 16c9 47bd be9a d53c f7d2 363d f049 08bd
00000090: e7d4 06bd fcf4 e0bc b0d3 f93c e897 e8bd
000000a0: b2f6 06bc 040e 8a3d 0806 163c 860d 9c3c
000000b0: a462 c93d 655e b53d 27ff b03c 4dc5 3ebd
000000c0: 2116 55bd cd81 693d 8b4d dfbd 50d4 233d
000000d0: eabc 82bd 7940 b43c 3b92 d73d 9a09 333c
000000e0: df50 6c3c a36b 1c3d 1e06 08be 7e8d 2ebd
000000f0: 3afb 9dbb 1362 883a 84f0 05bd 8403 1fbd
00000100: a2d0 26bd 6d91 cabd 8b74 823d b025 453d
00000110: 1255 a8bd d4a6 80bd a0af 9a3d c7ea b03b
00000120: 2d72 e23d 7390 a5bc 874c a93c 2303 1dbd
00000130: 68d7 c93d ef05 61bd 0fa6 0d3c 488f 883c
00000140: ebb1 833d 077d 25bd d897 873d dc4d c6bc
00000150: 9b11 90bd cb42 4b3d 6004 243e d2fa 9e3c
00000160: 5cc8 90bd 6a76 d6bc 52ec 733d f632 073e
00000170: e47d 833d fbe9 e93c 2f78 513d fb0b a6bd
00000180: 8ecf 0b3c 5eb2 6dbd ae42 523d 0fc0 d53d
00000190: ba9f 23be da76 943d 28ae 193c d5df 80bb
000001a0: b9b0 6fbd 342f 3cbd 9dfb b73c c068 91bd
000001b0: 07e7 90bd 3f7a ff3c 2496 34bd 7575 aabd
000001c0: 23ce ba3d cb95 90bc 806e 1b3e c584 d1bc
000001d0: aef2 69bc d045 b03d 0883 cfbc 8eac dbbd
000001e0: 53ef 06bc e6c2 79bd 05a2 f13b bb22 cbbd
000001f0: 39dc 543d e5c4 d63c 293f ca3c 09d4 f9bc
00000200: a6ae e7bd 2d03 ed3c 94fb 9c3b cf0f 8fbc
00000210: 9cc2 bbbd 276b cf3d 1f39 6abc 24c6 683d
00000220: cca9 0e3c cdf2 3ebc a872 853b 4210 4dbd
00000230: 3f4e 343d 439b 01be bbe4 b83d 081f cb3b
00000240: 9039 cf3c 5f90 90bc 0270 55bd 93f3 623d
00000250: 9044 a4bd fc95 82bd 4857 b73c 741e 13be
00000260: 5eeb a1bc 4095 2ebd 4ad4 e83b 50a9 bebb
00000270: 2b3e 4bbc 8bbe f7bc 8a79 07bb 2c43 72ba
00000280: e15d 493d af73 d53c c2b2 303d 3258 a4bd
00000290: 27be b7bc 7d05 94bc 9ed3 62bb 0de4 1c3d
000002a0: eb98 94bd c42f a0bd 2f6d 713d 9a92 53bd
000002b0: 94cf bc3d f68f 79bd f57d 24bd b240 7c3d
000002c0: 10f6 fd3c 459e 503d 0ba7 eabd 7dac b73c
000002d0: 3090 093d ea93 333c 7a93 213d 8a33 a63c
000002e0: d045 9d3c f465 0dbe 565a 0a3d 11b8 f03c
000002f0: b6ec a8bd f096 3e3d 5e0e 91bd dbe0 4abd
00000300: de75 e43b 14c4 0bbc 6930 aa3d 1f50 4bbd
00000310: d073 7cbd b3d3 f8bc 5749 55bd f718 4e3c
00000320: 2306 33b9 1881 6ebc 1195 cc3d e649 6cbd
00000330: 12d1 603d 932f 4bbd cbcf c93b 64a9 7a3d
00000340: 11da c4bc 2111 79bd 3828 313e 4102 1ebd
00000350: 7bf5 90bb fd88 143d ff4a 083d fea2 c13d
00000360: 5187 8fbd 8db7 1dbd 833b 9f3d e66d 85bd
00000370: b3b8 0a3d a734 adbc 90f4 2e3d 87cf e1bc
00000380: 24d1 77bd bf90 2bbd 542f 413d 7e6e 99bd
00000390: b928 71bd cd7c 51bc 86ca a0bd f03e 14bc
000003a0: ead0 023d 43a5 54bd 7bf9 22bb 07b8 e0bc
000003b0: a2c9 96bd f98a 4ebd a0a8 febc 320b 973c
000003c0: 2568 c5bc 06b5 6fbd 60b7 123d 0b1a 563d
000003d0: 4cda e63c f83a 6ebc d7e9 68bc dd75 85bc
000003e0: 1781 7bbd 1ac5 c73d 99a4 d3bd c5cd 10bd
000003f0: b649 8b3d 8217 bebd 8d0c 883d 93d4 f43b

network_body._body_endoder.seq_layers.2.bias f4 [256]
0.00044159795 -0.01275438 -0.014765909 -0.022944298 0.0021449348 -0.02689771 0.0059331954 0.010535327
0.012955621 -0.020948324 -0.020991664 -0.012203799 0.020158036 -0.009784686 0.023341063 -0.023208637
-0.0022657423 0.0075450013 -0.0097883325 0.0003701713 -0.008567421 -0.0018077642 0.0113906525 0.0321541
0.013956211 0.0079280995 0.0024266494 0.0024481325 -0.033225384 0.014586344 0.023729937 -0.0181045
0.0016305539 0.0034408597 -0.0007024387 -0.0015546961 0.007826175 0.03236672 0.03955593 -0.026292074
-0.021356896 -0.010683606 0.014714745 -0.0063569476 -0.014148679 -0.0151278395 0.039020315 -0.024728937
0.012913998 -0.013744912 0.015681846 0.0074792546 -0.0055474318 -0.0033633173 -0.008576747 -0.026027849
0.011001212 -0.024528468 0.014320698 0.012523091 0.009866064 -0.020567896 0.03199623 -0.0052645802
-0.02281228 -0.0010520206 -0.0111667365 0.007416582 -0.0042236582 -0.004268526 0.003966272 0.009831172
0.021207558 0.03179223 0.012716587 -0.01172713 0.011578755 -0.0015697766 -0.008308352 0.0044525135
0.0036698706 0.02176988 -0.008544206 -0.015538214 0.022694105 -0.0048205107 0.019096622 0.010384319
-0.00020489545 -0.0070978054 0.0072344113 0.007190626 -0.022426685 0.006969222 -0.0011290951 -0.008767702
0.016081827 -0.033976782 -0.013638264 -0.022817219 -0.013050573 0.006410916 -0.0005777109 -0.01778964
0.0032198115 0.016105589 -0.022752937 0.0096026035 0.0096579855 0.014439866 -0.0062202546 -0.0055833
-0.004588657 0.02121056 -0.015453058 -0.015724756 -0.01829095 -0.02563313 -0.018749544 0.01572597
-0.007246657 -0.024265194 -0.0297125 -0.030138051 -0.010065518 -0.007260609 -0.012870789 -0.022822011
0.012679501 -0.033058587 -0.0072141034 0.029019061 0.017160447 -0.013680565 0.029177912 0.015678706
0.0033996955 -0.02088103 -0.009714276 0.0030823136 -0.021424029 0.014084299 0.017281717 0.015552134
-0.014138804 0.014453398 -0.011826484 -0.02118706 0.008832692 0.017699117 -0.004952893 -0.0057027442
-0.013367104 -0.008087332 -0.0070881997 0.013562212 0.015774162 -0.01063297 0.016866224 0.021369612
-0.020686543 -0.021290919 0.002035404 0.0019743117 -0.011119544 0.0056239576 0.011071724 0.00056741765
-0.012450935 0.012511931 -0.022380015 -0.011404362 0.011780132 0.0008735762 -0.004393063 -0.009185629
-0.0063748476 -0.018981071 -0.014216375 -0.00068742665 0.0038543686 -0.0019070331 -0.0153286215 -0.022616059
0.0036296295 -0.0015606245 0.022029055 0.010586696 0.0043570763 -0.0014235125 -0.023524545 0.0065865847
-0.010260364 0.01261558 0.013432003 -0.005952214 -0.0045656385 -0.014275376 0.0068182335 -0.0047192783
0.014944044 0.0068522505 -0.0023084152 0.0032840786 0.0073560053 -0.005135352 -0.035522424 0.006651911
0.028739512 0.022153413 -0.00041863296 -0.011991132 0.005438005 -0.008831684 0.018479144 -0.023763636
-0.010977738 0.0036337345 0.006461798 -0.016055975 0.0021382254 -0.01667566 0.024468338 0.02029834
0.006250266 0.0035759532 0.0161816 -0.024650306 0.00739721 -0.017603235 -0.041463155 0.0077354703
-0.01979961 -0.0047234455 0.011028806 -0.001734357 0.0023654797 0.0172093 -0.030355401 0.0011585295
0.017849693 0.016020125 0.0012362681 0.000101733516 0.011826385 0.004940691 0.026070656 -0.013895524
-0.040436868 0.0018989423 -0.01837908 0.01282702 -0.008597206 -0.012449256 0.003154424 -0.006830395
00000000: 4686 e739 bff7 50bc b6ec 71bc aef5 bbbc
00000010: 0992 0c3b 9658 dcbc 406b c23b 5d9c 2c3c
00000020: d043 543c d29b abbc b6f6 abbc 71f2 47bc
00000030: 7722 a53c f34f 20bc c235 bf3c 0a20 bebc
00000040: d97c 14bb 0f3c f73b 3e5f 20bc 8d13 c239
00000050: 5e5e 0cbc 80f2 ecba dc9f 3a3c 04b4 033d
00000060: 97a8 643c dce4 013c 6c08 1f3b d970 203b
00000070: 5717 08bd 90fb 6e3c 4965 c23c e34f 94bc
00000080: 4fb8 d53a 0c80 613b dd23 38ba f2c6 cbba
00000090: 5b39 003c f792 043d 6605 223d 7a62 d7bc
000000a0: a8f4 aebc 4b0a 2fbc 1d16 713c f14d d0bb
000000b0: dccf 67bc c2da 77bc c4d3 1f3d 5794 cabc
000000c0: 3c95 533c 5732 61bc 3777 803c 8914 f53b
000000d0: 3bc7 b5bb 1a6b 5cbb 7c85 0cbc 5b38 d5bc
000000e0: 6d3e 343c edef c8bc 5ca1 6a3c a72d 4d3c
000000f0: 46a5 213c 017e a8bc 7b0e 033d 8082 acbb
00000100: d2e0 babc f4e3 89ba b0f4 36bc cd06 f33b
00000110: 9d66 8abb fede 8bbb 80f7 813b ed12 213c
00000120: 79bb ad3c 9238 023d 3b59 503c 2623 40bc
00000130: d2b4 3d3c f6c0 cdba c11f 08bc 64e6 913b
00000140: 3682 703b bf56 b23c fffc 0bbc fe93 7ebc
00000150: fde8 b93c 60f5 9dbb 8570 9c3c fe22 2a3c
00000160: 34d9 56b9 b594 e8bb a40e ed3b 589f eb3b
00000170: 2bb8 b7bc 125e e43b 25fe 93ba 68a6 0fbc
00000180: 09be 833c 3d2b 0bbd 0673 5fbc 2deb babc
00000190: 12d2 55bc a912 d23b 8671 17ba 94bb 91bc
000001a0: 7903 533b deef 833c 5e64 babc 3d54 1d3c
000001b0: 873c 1e3c 3095 6c3c 47d3 cbbb 1df4 b6bb
000001c0: 725c 96bb c5c1 ad3c d32e 7dbc 34d1 80bc
000001d0: e7d6 95bc 92fc d1bc a598 99bc c0d3 803c
000001e0: 5d75 edbb cdc7 c6bc a167 f3bc 13e4 f6bc
000001f0: d8e9 24bc 67ea edbb 00e0 52bc 3af5 babc
00000200: afbd 4f3c 7168 07bd 4964 ecbb 62b9 ed3c
00000210: 1194 8c3c 7324 60bc 8406 ef3c a170 803c
00000220: 6dcd 5e3b b20e abbc a028 1fbc a400 4a3b
00000230: 7281 afbc d5c1 663c 6392 8d3c 61ce 7e3c
00000240: 71a6 67bc f2cd 6c3c dfc3 41bc 7c90 adbc
00000250: ffb6 103c bdfd 903c e14b a2bb 16de babb
00000260: b301 5bbc bb80 04bc 2144 e8bb 0a34 5e3c
00000270: d138 813c e935 2ebc 092b 8a3c 530f af3c
00000280: d376 a9bc 4b6a aebc 6a64 053b 7463 013b
00000290: bf2e 36bc 2d49 b83b 2d66 353c c1be 143a
000002a0: 02ff 4bbc d8fe 4c3c 4b56 b7bc 5cd9 3abc
000002b0: 7401 413c b500 653a aff3 8fbb 527f 16bc
000002c0: 19e4 d0bb 317e 9bbc cceb 68bc 6c34 34ba
000002d0: 9399 7c3b 6af5 f9ba e624 7bbc 5045 b9bc
000002e0: 14df 6d3b de8d ccba 4776 b43c d273 2d3c
000002f0: cec5 8e3b 2795 baba 8cb6 c0bc 47d4 d73b
00000300: 161b 28bc 94b1 4e3c e711 5c3c ca0a c3bb
00000310: 5a9b 95bb 44e3 69bc 7d6b df3b 2da4 9abb
00000320: ddd7 743c d888 e03b c848 17bb b239 573b
00000330: a50a f13b 7446 a8bb f67f 11bd 46f8 d93b
00000340: 206f eb3c 137b b53c f77b dbb9 7476 44bc
00000350: 4b31 b23b c4b2 10bc 9361 973c f5ab c2bc
00000360: f8db 33bc f323 6e3b 7ebd d33b d287 83bc
00000370: 7821 0c3b 659b 88bc d371 c83c b448 a63c
00000380: 08cf cc3b 8a5a 6a3b 468f 843c 70ef c9bc
00000390: 4c64 f23b a934 90bc 45d5 29bd d479 fd3b
000003a0: cb32 a2bc 22c7 9abb 2ab2 343c 5d53 e3ba
000003b0: 2a06 1b3b 85fa 8c3c e4ab f8bc cdd9 973a
000003c0: 8539 923c a33c 833c 460a a23a c459 d538
000003d0: 74c3 413c 85e5 a13b 2192 d53c 0daa 63bc
000003e0: 21a1 25bd eee5 f83a b98f 96bc 6c28 523c
000003f0: 4cdb 0cbc f7f7 4bbc 74ba 4e3b 82d1 dfbb

network_body._body_endoder.seq_layers.4.weight f4 [256, 256]
0.041442078 0.026172314 -0.035030585 0.056185234 0.0006992738 -0.04421257 0.07885097 -0.0049878177
-0.020974455 -0.026380202 0.027271774 -0.029685313 0.0294668 0.029603004 -0.09387804 -0.042585704
0.1118034 0.064773574 0.08466975 0.05084482 -0.009775401 -0.050180536 -0.056552254 -0.018576488
-0.008378204 -0.0042594234 -0.039590783 0.035457555 -0.084757924 0.0531679 -0.047093246 -0.008434427
-0.031963665 -0.015197326 0.095038705 0.010804243 0.06340751 0.022814121 -0.068987966 -0.019067792
-0.07243182 -0.11452277 -0.05471531 0.060820263 0.0128833605 0.06946209 -0.11922202 0.036063716
-0.016945835 0.11167254 -0.01830377 0.046609074 -0.021179607 0.07040284 -0.12243162 -0.012796078
0.06392095 0.072445326 -0.010679755 -0.107511505 -0.026449718 -0.021307608 -0.040966827 0.03969606
0.000924112 0.06100975 -0.11866171 0.011319776 -0.033028606 0.032304365 -0.09326492 -0.10572584
0.036394816 -0.02650794 0.07815372 0.018350728 -0.015311341 0.021375747 0.012872316 0.024856461
-0.15420751 -0.060118686 -0.100651704 0.09556595 -0.01413467 0.006872302 0.090763785 0.07005145
-0.09611747 0.009347187 0.027661355 0.046152554 0.0068018986 0.03537787 -0.014386545 -0.0043181283
-0.054872483 0.039807294 -0.10154693 -0.051805083 0.04976794 0.12702511 -0.08330612 0.03206978
0.056731194 -0.06864789 0.111096844 -0.02795381 0.0018403318 -0.045003004 0.014128241 -0.020058883
0.09236076 -0.031087887 0.079719774 0.0083184345 -0.063090175 -0.11463474 0.047214415 -0.023005286
-0.048984945 -0.069428705 -0.08641201 -0.0069437223 -0.007757358 0.056564268 0.0012918575 0.07085558
-0.018956408 0.08677489 -0.0011881224 -0.027853915 0.03142813 0.0028772189 0.0065423893 0.0015205711
-0.010943506 0.0094296215 -0.15432754 -0.011360006 -0.037301995 0.03855238 0.053919878 -0.022345182
0.03585307 -0.12287135 0.05331414 0.08594223 -0.0012845761 0.062101897 -0.01640566 0.078730956
-0.012600233 0.03196398 0.0067759 -0.04779102 0.00054515863 0.10217139 -0.012096493 -0.07962127
0.010790627 0.072324514 0.05934354 0.0071014287 0.010584964 -0.09435822 -0.024649344 0.07610228
0.03468673 -0.04813424 0.039329346 0.039869413 -0.08900807 -0.05840854 -0.021993244 0.026030118
-0.023640484 -0.04613846 0.069628224 0.015488365 0.080172904 -0.0013621917 0.06467031 0.060745787
0.03802727 0.016308105 0.04477187 -0.09352227 -0.03703493 -0.07801388 0.084939286 0.08067003
-0.0659551 0.034697864 -0.012774611 -0.022932474 0.01968006 0.026021564 0.07904859 0.018749563
0.045347743 0.013499044 0.025439253 -0.023382831 0.025335182 -0.0037232114 0.04680436 -0.004332773
-0.02092494 0.043272723 0.05705704 -0.05878002 -0.027352724 0.00859288 -0.09451345 0.10608003
-0.16909654 0.014968881 -0.0524504 -0.00012105173 0.037300013 0.092378676 -0.09721846 -0.009012081
-0.022103166 0.018281555 0.0037908198 -0.0461835 0.034106717 -0.033977002 -0.0376808 0.07403111
0.07079584 0.04862093 0.0022708613 0.13651663 -0.12146343 -0.051377755 -0.029736223 -0.080270134
-0.0025189286 -0.18930086 0.042407315 -0.032196347 0.10187804 0.115010865 0.010865588 -0.08943536
-0.010077365 -0.014933594 -0.021521967 -0.015267058 0.061441034 0.08725773 0.07403408 -0.01673169
00000000: 2bbf 293d 5267 d63c 3b7c 0fbd 7d22 663d
00000010: 784f 373a 3d18 35bd 9e7c a13d d970 a3bb
00000020: 9fd2 abbc 4b1b d8bc 0e69 df3c 9d2e f3bc
00000030: 5c64 f13c 0082 f23c 2143 c0bd 596e 2ebd
00000040: 2ef9 e43d 02a8 843d 5567 ad3d a842 503d
00000050: 0129 20bc 1b8a 4dbd 56a3 67bd b82d 98bc
00000060: bc44 09bc a292 8bbb f229 22bd f13b 113d
00000070: 9095 adbd 95c6 593d d9e4 40bd 8d30 0abc
00000080: 55ec 02bd 35fe 78bc a7a3 c23d 4804 313c
00000090: ccdb 813d aee4 ba3c 9049 8dbd 0f34 9cbc
000000a0: 2257 94bd ea8a eabd 291d 60bd ab1e 793d
000000b0: bb14 533c 2442 8e3d ad2a f4bd 8cb7 133d
000000c0: fed1 8abc 93b4 e43d caf1 95bc 28e9 3e3d
000000d0: db80 adbc 5d2f 903d 6ebd fabd a4a6 51bc
000000e0: fde8 823d 375e 943d 24fa 2ebc fe2e dcbd
000000f0: 14ad d8bc 4b8d aebc d5cc 27bd 5698 223d
00000100: 1b40 723a 5ce5 793d e904 f3bd 9576 393c
00000110: 0149 07bd 9551 043d ae01 bfbd ca86 d8bd
00000120: bb12 153d 2e27 d9bc 0f0f a03d 4454 963c
00000130: 6bdc 7abc 311c af3c 68e6 523c c79f cb3c
00000140: 93e8 1dbe 033f 76bd 7b22 cebd 15b8 c33d
00000150: 1a95 67bc 0c31 e13b 5de2 b93d 2277 8f3d
00000160: 3cd9 c4bd f224 193c 119a e23c 760a 3d3d
00000170: 76e2 de3b 63e8 103d 8bb5 6bbc 167f 8dbb
00000180: f8c1 60bd f90c 233d d6f7 cfbd 9131 54bd
00000190: 78d9 4b3d df12 023e 669c aabd 9a5b 033d
000001a0: f85e 683d 4497 8cbd be86 e33d 63ff e4bc
000001b0: 4a37 f13a 1255 38bd 237a 673c 8752 a4bc
000001c0: a327 bd3d 06ac febc 1f44 a33d 0b4a 083c
000001d0: 6c35 81bd 9ec5 eabd e763 413d 9575 bcbc
000001e0: 70a4 48bd a330 8ebd c8f8 b0bd 2a88 e3bb
000001f0: 6f31 febb efaf 673d 8b53 a93a bb1c 913d
00000200: 784a 9bbc 09b7 b13d c6ba 9bba e52d e4bc
00000210: c8ba 003d b98f 3c3b 8a61 d63b e64d c73a
00000220: 644c 33bc b37e 1a3c 0a08 1ebe 521f 3abc
00000230: fac9 18bd 1ae9 1d3d 17db 5c3d 3e0d b7bc
00000240: abda 123d f9a3 fbbd ed5f 5a3d 7b02 b03d
00000250: 395f a8ba 8f5e 7e3d 2a65 86bc b23d a13d
00000260: 3571 4ebc aaec 023d 5e08 de3b 84c0 43bd
00000270: fae8 0e3a 3c3f d13d 5e30 46bc 7a10 a3bd
00000280: 2ccb 303c e01e 943d 3612 733d 1ab3 e83b
00000290: 8f6c 2d3c e23e c1bd 6ced c9bc 83db 9b3d
000002a0: ac13 0e3d 6928 45bd cf17 213d 1c4e 233d
000002b0: dd49 b6bd cb3d 6fbd 2d2b b4bc 1d3d d53c
000002c0: b0a9 c1bc affb 3cbd 3e99 8e3d e9c2 7d3c
000002d0: b131 a43d 928b b2ba de71 843d 93d0 783d
000002e0: 7cc2 1b3d 9398 853c b562 373d 9b88 bfbd
000002f0: f0b1 17bd bec5 9fbd a6f4 ad3d 5436 a53d
00000300: 7813 87bd 591f 0e3d 9a4c 51bc e2dc bbbc
00000310: 1438 a13c 2d2b d53c 3ae4 a13d af98 993c
00000320: 8ebe 393d 182b 5d3c fb65 d03c 5a8d bfbc
00000330: ba8b cf3c 1f01 74bb eeb5 3f3d eff9 8dbb
00000340: c86a abbc bd3e 313d a5b4 693d 51c3 70bd
00000350: d212 e0bc 27c9 0c3c 4590 c1bd 7d40 d93d
00000360: a527 2dbe 0a40 753c 3bd6 56bd 27dd fdb8
00000370: e6c7 183d 0831 bd3d 791a c7bd 68a7 13bc
00000380: b311 b5bc 33c3 953c 676f 783b e92a 3dbd
00000390: 7cb3 0b3d 782b 0bbd 2f57 1abd 9f9d 973d
000003a0: 69fd 903d be26 473d bbd2 143b 04cb 0b3e
000003b0: d2c1 f8bd 7b71 52bd 6199 f3bc ab64 a4bd
000003c0: 9c14 25bb 16d8 41be 4bb3 2d3d 51e0 03bd
000003d0: 6fa5 d03d d18a eb3d 9405 323c e329 b7bd
000003e0: 881b 25bc 08ac 74bc d64e b0bc af22 7abc
000003f0: 98a9 7b3d 2eb4 b23d 2e9f 973d e610 89bc

network_body._body_endoder.seq_layers.4.bias f4 [256]
-0.010405507 -0.060411967 0.0115195075 0.009228941 -0.030168327 -0.0027184575 -0.016751844 0.0056827967
0.0033026035 0.0035652253 0.00057169143 -0.0047176643 0.015621328 -0.0014803463 -0.031496145 -0.00898717
0.015132912 0.032948107 0.002986481 0.022160785 0.036737002 -0.012616502 0.0016808774 -0.014243685
0.002074311 0.0019009539 -0.011382492 -0.014723993 -0.045445167 -0.025399106 -0.0073224525 -0.021730602
-0.014136623 -0.005304886 0.013096493 0.0026508672 0.00068531465 -0.012364516 -0.0039350814 0.0045837495
-0.018026883 0.046950527 -0.0045799846 0.009888242 0.036747392 0.03455045 0.009223316 -0.017632676
0.013208276 0.00994401 0.005535851 -0.009367119 0.028084604 0.0036063704 0.02082203 -0.0040463833
0.0070263254 -0.016392771 0.006383205 0.011962009 0.006565339 -0.007917305 0.008128501 -0.011136025
0.033723574 0.01520985 -0.021576967 -0.016065074 0.0111292 -0.0019687929 -0.0058568493 0.021895058
0.0052458453 -0.037213083 -0.0064606233 -0.00946357 -0.031193031 0.017751744 -0.014615056 0.018252999
-0.013537214 0.022346223 -0.012511747 0.012443751 0.0037151698 0.010791485 -0.0052958285 -0.0122101465
-0.011224439 0.0046217158 0.005001229 -0.026132405 0.0019800977 -0.007451787 -0.036454905 -0.0027846054
0.012878901 -0.012760624 0.014662741 -0.02088892 0.011916044 -0.0023956436 0.011727788 -0.0070065595
0.012972989 0.032570142 -0.007440748 0.012969898 0.024430413 0.014576733 -0.014187794 0.011149724
0.0017200181 0.002066074 0.02428299 -0.012539618 -0.0042925775 0.0038058755 0.032191567 -0.017415134
0.010799082 0.041340612 -0.001800098 0.0005580447 0.01613046 -0.026155379 0.02970872 0.011863002
-0.027842745 -0.008771806 0.017590519 0.00073314115 -0.028225472 -0.02085874 0.0042823534 -0.021077191
-0.0071142004 -0.0072396467 0.0065348228 -0.01579491 0.030982237 0.032611918 0.011119066 0.0006003912
0.03042624 -0.0099369185 -0.0029264186 -0.021803543 0.017739426 -0.024045091 0.003497364 -0.017300837
0.0046419282 0.017817557 -0.0375205 0.039634734 0.0032799852 0.007833968 -0.0024022972 -0.02757094
-0.019308591 0.032559007 -0.005995523 -0.023888642 0.0012989363 -0.008609891 -0.0074874917 0.022715634
-0.010362098 0.01384719 -0.014131425 0.043473925 -0.013206484 -0.0069134105 -0.0017609943 0.0278287
-0.0010795194 0.019127369 -0.008436902 0.029698154 -0.024996076 0.02660672 0.024325253 0.00047569897
-0.008094324 0.0040888954 0.0008309797 -0.0005667708 -0.0073013958 0.0040901285 0.02607262 0.001042222
-0.023761043 0.008551251 -0.004412269 0.01628417 -0.006441279 -0.0120032085 0.006815141 0.027120065
-0.0009157495 0.027324384 -0.024181748 -0.007775191 0.005685626 0.01174909 -0.027843343 -0.000594342
-0.005874022 0.009663809 -0.009583814 -0.010763907 -0.008453725 -0.00376491 0.009967678 0.012637229
0.016160848 0.009537437 -0.021337917 -0.020326754 -0.0077201133 -0.010994863 -0.033094414 -0.029492747
-0.0027395133 0.012300259 0.0020680365 -0.025738537 0.0027313484 0.011342895 -0.00872161 0.0030967884
0.0044672885 -0.0016402919 0.00342464 -0.008425866 -0.017187655 0.016825503 -0.008827473 0.024634928
-0.008886631 -0.016914465 -0.009384652 0.014164002 0.01706272 0.006290321 0.007365688 0.010966865
-0.0011302946 -0.02442399 -0.009623211 -0.016645363 -0.012006344 -0.006836803 -0.007478648 0.015679548
00000000: dc7b 2abc 8a72 77bd 51bc 3c3c fc34 173c
00000010: 9123 f7bc 2628 32bb 2a3b 89bc c136 ba3b
00000020: 7e70 583b 8ea6 693b 90dd 153a a396 9abb
00000030: 99f0 7f3c 2e08 c2ba 1a02 01bd ec3e 13bc
00000040: 09f0 773c 98f4 063d d6b8 433b 898a b53c
00000050: 8a79 163d 72b5 4ebc e350 dc3a 585e 69bc
00000060: 2af1 073b 6e29 f93a a27d 3abc e73c 71bc
00000070: b624 3abd c911 d0bc 2ff1 efbb 6004 b2bc
00000080: 4b9d 67bc 9cd4 adbb ac92 563c 2cba 2d3b
00000090: b0a6 333a 8a94 4abc dbf1 80bb 4733 963b
000000a0: 1dad 93bc 324f 403d b213 96bb 4b02 223c
000000b0: 6f84 163d c684 0d3d 641d 173c 6772 90bc
000000c0: 8667 583c 33ec 223c 1666 b53b 8b78 19bc
000000d0: af11 e63c db58 6c3b f692 aa3c 8697 84bb
000000e0: 173d e63b 224a 86bc 342a d13b 4dfc 433c
000000f0: 0e22 d73b 96b7 01bc 672d 053c e073 36bc
00000100: bb21 0a3d bc32 793c 2ec2 b0bc e79a 83bc
00000110: 4057 363c dd06 01bb d0ea bfbb 445d b33c
00000120: 57e5 ab3b bf6c 18bd a3b3 d3bb 170d 1bbc
00000130: 8788 ffbc 1b6c 913c fd73 6fbc 5087 953c
00000140: 31cb 5dbc 6d0f b73c 12fe 4cbc e0e0 4b3c
00000150: 357a 733b c5ce 303c a188 adbb 110d 48bc
00000160: b6e6 37bc c371 973b 59e1 a33b a013 d6bc
00000170: 87c4 013b 1f2e f4bb bd51 15bd ed7d 36bb
00000180: 0702 533c f011 51bc fe3b 703c 3e1f abbc
00000190: 833b 433c 3b00 1dbb e825 403c 4897 e5bb
000001a0: a98c 543c 4568 053d 85d1 f3bb b27f 543c
000001b0: 4a22 c83c 40d3 6e3c ec73 68bc 55ad 363c
000001c0: 3b72 e13a f866 073b 1fed c63c f872 4dbc
000001d0: c0a8 8cbb ff6b 793b 4edb 033d 2faa 8ebc
000001e0: a2ee 303c c654 293d 44f1 ebba bf49 123a
000001f0: 0724 843c ce43 d6bc b45f f33c 095d 423c
00000200: 7816 e4bc 9fb7 0fbc fe19 903c 4530 403a
00000210: 1b39 e7bc f3df aabc fc52 8c3b 13aa acbc
00000220: 3d1e e9bb 8f3a edbb 1122 d63b 5464 81bc
00000230: 76ce fd3c 1394 053d be2c 363c 9263 1d3a
00000240: 7340 f93c 75ce 22bc 28c9 3fbb 589d b2bc
00000250: 4652 913c 36fa c4bc 0834 653b 7cba 8dbc
00000260: 511b 983b 20f6 913c 19af 19bd 0858 223d
00000270: 05f5 563b 0b5a 003c dc6f 1dbb 74dc e1bc
00000280: 0d2d 9ebc 985c 053d 1876 c4bb 1db2 c3bc
00000290: 1241 aa3a 8010 0dbc a259 f5bb 2316 ba3c
000002a0: cac5 29bc 53df 623c 7e87 67bc b711 323d
000002b0: 0260 58bc e489 e2bb 2ad1 e6ba 04f9 e33c
000002c0: a97e 8dba 00b1 9c3c ef3a 0abc 8b49 f33c
000002d0: 92c4 ccbc 56f6 d93c c145 c73c 3c67 f939
000002e0: 0e9e 04bc 24fc 853b 1bd6 593a 5893 14ba
000002f0: 8c40 efbb 7c06 863b 3f96 d53c 2b9b 883a
00000300: 85a6 c2bc 8c1a 0c3c cc94 90bb 6166 853c
00000310: 5d11 d3bb 1ba9 44bc 8c51 df3b e62a de3c
00000320: e90e 70ba 63d7 df3c cd18 c6bc 08c7 febb
00000330: 7d4e ba3b 417f 403c b917 e4bc 9ecd 1bba
00000340: de7a c0bb f454 1e3c 6e05 1dbc 195b 30bc
00000350: 7e81 0abc b5bc 76bb 794f 233c 610c 4f3c
00000360: c163 843c e942 1c3c dbcc aebc 4b84 a6bc
00000370: 01f9 fcbb cc23 34bc 028e 07bd c69a f1bc
00000380: 6889 33bb 0787 493c e587 073b a0d9 d2bc
00000390: 6c00 333b 8dd7 393c 15e5 0ebc 7df3 4a3b
000003a0: 5562 923b 10ff d6ba ed6f 603b a50c 0abc
000003b0: 20cd 8cbc a3d5 893c 1ba1 10bc 30cf c93c
000003c0: 3b99 11bc 3490 8abc 15c2 19bc 2110 683c
000003d0: 1ec7 8b3c 091f ce3b df5b f13b 5eae 333c
000003e0: 6526 94ba d214 c8bc acaa 1dbc db5b 88bc
000003f0: 42b6 44bc 4307 e0bb 720f f5bb 6572 803c

action_model._continuous_distribution.log_sigma f4 [1, 2]
-0.2701696 -0.34948012
00000000: ab53 8abe 0fef b2be

action_model._continuous_distribution.mu.weight f4 [2, 64]
-0.25910595 -0.078906246 -0.22746515 -0.013671777 -0.011252881 -0.006887769 0.08945443 0.040551167
-0.027543252 -0.15897602 -0.05315976 -0.11131385 -0.14246744 0.22160438 -0.10661661 0.0544167
0.029808003 -0.0829294 0.06903973 -0.123006545 -0.011065602 0.25371623 0.074959874 0.16456757
0.1597074 -0.103007175 -0.2062258 0.13740487 0.05873084 0.07657371 -0.099305585 -0.20650874
0.12921524 -0.09198273 0.05418639 0.20362459 0.08562432 -0.12670882 -0.08785999 0.06752421
-0.1649375 -0.23945494 0.09181964 0.03946887 -0.10584707 -0.17090808 -0.17363758 -0.0721203
0.0996173 0.38285217 0.07620787 0.3176917 -0.030817544 -0.040320918 -0.047570653 0.17905226
0.10226749 0.055083767 0.2883829 -0.072494656 0.16244309 -0.15177745 -0.1402158 0.10609707
-0.034098495 0.09071613 -0.19023745 0.018538997 0.11671267 -0.19626942 0.14911766 -0.21451156
-0.09528628 -0.23299159 -0.1719244 -0.044417758 0.0063549457 0.16737115 -0.18817842 0.20030455
0.018787522 -0.14081642 -0.052275173 0.1804215 0.009931108 0.08394791 -0.3012429 -0.14047514
0.073362544 0.14248648 0.14530462 0.18938294 0.05391976 -0.08016945 0.10900854 -0.22508383
-0.17779592 -0.10089815 -0.0032815998 0.027082158 -0.036088645 -0.048023738 -0.01136704 -0.11732025
-0.15752411 0.19127285 0.10845387 -0.041592423 -0.031522185 0.19923627 -0.22272082 -0.061681055
-0.1037834 0.5771972 0.10849122 0.15264471 0.020950047 -0.007616126 0.1521652 0.07273337
0.19129086 0.0699116 0.048978765 0.017641623 -0.08968174 -0.033319887 -0.12175986 0.0291037
00000000: 89a9 84be 9999 a1bd a0ec 68be 97ff 5fbc
00000010: 015e 38bc cbb2 e1bb e233 b73d fb18 263d
00000020: 63a2 e1bc 9cca 22be 0cbe 59bd 84f8 e3bd
00000030: fce2 11be 42ec 623e cf59 dabd 0ce4 5e3d
00000040: ea2f f43c e4d6 a9bd b464 8d3d dbea fbbd
00000050: 804c 35bc 18e7 813e 9084 993d 6784 283e
00000060: 568a 233e 6df5 d2bd db2c 53be ddb3 0c3e
00000070: c08f 703d add2 9c3d ba60 cbbd 0777 53be
00000080: 0051 043e 7161 bcbd 8cf2 5d3d f782 503e
00000090: ce5b af3d f5bf 01be f0ef b3bd 224a 8a3d
000000a0: 60e5 28be ad33 75be ef0b bc3d 1caa 213d
000000b0: 59c6 d8bd 8702 2fbe 0dce 31be cfb3 93bd
000000c0: 2804 cc3d 3305 c43e df12 9c3d 7da8 a23e
000000d0: 1375 fcbc 8c27 25bd 72d9 42bd 7a59 373e
000000e0: 9e71 d13d 849f 613d eca6 933e 1478 94bd
000000f0: 7b57 263e 8c6b 1bbe bb94 0fbe 6c49 d93d
00000100: ddaa 0bbd 61c9 b93d 9bcd 42be 18df 973c
00000110: 0d07 ef3d dafa 48be 4db2 183e eba8 5bbe
00000120: 7425 c3bd 5995 6ebe f30c 30be 65ef 35bd
00000130: 263d d03b 5863 2b3e d8b1 40be a31c 4d3e
00000140: 4ae8 993c 2e32 10be 7e1e 56bd 6ac0 383e
00000150: 16b6 223c e2ec ab3d 823c 9abe b7d8 0fbe
00000160: 1a3f 963d fae7 113e bcca 143e 9aed 413e
00000170: f7da 5c3d e12f a4bd df3f df3d 607c 66be
00000180: 2210 36be b0a3 cebd 1c10 57bb 67db dd3c
00000190: b0d1 13bd 8ab4 44bd d23c 3abc 9945 f0bd
000001a0: 004e 21be 08dd 433e 101d de3d d15c 2abd
000001b0: 681d 01bd 9804 4c3e ed10 64be 46a5 7cbd
000001c0: 648c d4bd 32c3 133f a530 de3d e54e 1c3e
000001d0: 6f9f ab3c b290 f9bb 32d1 1b3e 3cf5 943d
000001e0: c0e1 433e d02d 8f3d f59d 483d 2a85 903c
000001f0: 0fab b7bd 6f7a 08bd 3c5d f9bd e26a ee3c

action_model._continuous_distribution.mu.bias f4 [2]
-0.09041498 -0.064834975
00000000: 7d2b b9bd 33c8 84bd

onnx::LSTM_102 f4 [1, 256, 256]
0.07419053 -0.10648717 0.11080506 0.0821618 -0.105344735 -0.14525647 -0.051884476 0.12097407
0.050345637 0.12457157 0.03755325 -0.16026704 -0.06938458 -0.05679336 -0.09009099 0.070579514
-0.041732233 0.09243181 -0.08387497 -0.07348064 0.093820095 -0.13400684 -0.055002708 -0.063448116
-0.018686717 -0.004435272 -0.1712807 -0.07507197 0.046213012 0.067866616 -0.014159651 0.0072513777
-0.14096834 0.038324393 0.09205389 -0.10103072 0.1018283 0.107556805 -0.022936247 -0.16935357
0.073986545 0.09331194 0.08733364 0.12492842 0.008465808 -0.07435884 -0.11681325 0.005491448
0.105941415 0.10769198 -0.08613133 0.011392858 0.12580873 0.15968235 -0.03858292 -0.089198135
-0.047649585 0.06436932 0.08817011 -0.05903307 -0.12916045 -0.14335637 -0.09793908 0.017963337
-0.101258665 0.033040732 0.100772135 -0.073686466 0.012862557 -0.029127656 -0.057903755 0.01816523
-0.06302467 -0.09449729 0.046505723 -0.10218544 0.09899716 -0.09111244 -0.09016959 0.0887794
0.0055403076 -0.13330004 0.0141942855 -0.044285506 0.0139649 0.09102783 0.040009532 -0.0681064
0.12540917 0.035284735 0.12259713 0.041266356 0.0068131494 0.013201197 -0.09411982 -0.0021944006
-0.04302871 0.04594635 0.0147827715 -0.12183403 0.020554464 -0.10952716 0.09164138 0.124865554
0.103466 -0.09373073 0.12452683 0.10535239 -0.036160044 -0.12499675 -0.106303364 -0.031942498
-0.099530704 -0.116604455 0.06999202 -0.036941003 -0.01648381 0.10438496 -0.022374725 -0.08374626
0.11940585 -0.094938755 0.06596507 -0.09365678 0.12130156 0.007556549 -0.10059848 -0.036576804
-0.040955704 0.030687498 0.091629215 0.112715594 -0.04594288 -0.09621881 -0.0028707169 -0.016932407
-0.12881288 -0.040827043 0.063979976 0.04282628 -0.008806203 0.015885437 0.07539662 -0.075551115
0.1008877 0.047476083 -0.009686993 0.07137712 -0.14364737 -0.056413624 -0.13147485 -0.12923886
0.09587503 -0.02618219 -0.08122691 -0.027608508 0.079791985 0.028044665 -0.08922282 -0.049552497
-0.016256737 -0.058499716 -0.024251185 0.1163138 -0.008158452 -0.1630541 0.0103836525 -0.086827345
0.11672094 0.10965085 -0.0024640833 -0.02921051 0.09334877 -0.016046314 -0.0591585 0.13800529
0.086022705 -0.010002446 -0.06945075 0.1089128 0.0021216592 0.108184636 -0.080621295 0.017937586
-0.06512595 0.048794884 0.039085757 0.09525911 -0.013962354 0.041486878 -0.036225386 -0.016071836
-0.09705555 -0.06677807 -0.04530969 0.044715416 -0.026167367 -0.10561637 0.075006194 0.12876576
-0.025487674 -0.086431324 -0.055851586 -0.08127075 0.0796103 0.030750943 0.016530769 -0.0035859067
0.029990362 -0.0013043559 -0.08652126 0.050507765 -0.0537594 -0.016851397 -0.08690784 0.08573123
0.116694294 -0.081896275 0.13822822 0.09548999 -0.07583251 -0.033693172 0.07565025 0.12173073
-0.037859026 0.090855844 -0.0019252747 -0.086397804 -0.017068924 -0.04807024 0.026503522 0.016015097
0.054984335 0.11479815 -0.13296984 0.15007037 -0.05449577 -0.024535485 -0.11372169 0.0051281853
-0.1087535 0.11697176 0.008480878 -0.11793509 0.13661526 -0.03984801 0.093864135 0.053608444
-0.0023882384 -0.05108732 -0.033536803 -0.1529556 -0.1282908 0.09873507 0.10320323 0.16831985
00000000: 34f1 973d f215 dabd c3ed e23d 7244 a83d
00000010: fbbe d7bd 1dbe 14be d184 54bd 41c1 f73d
00000020: 3a37 4e3d 611f ff3d 70d1 193d 0b1d 24be
00000030: 8119 8ebd 27a0 68bd a081 b8bd fe8b 903d
00000040: 6bef 2abd e44c bd3d a4c6 abbd 057d 96bd
00000050: c024 c03d 1739 09be 854a 61bd 16f1 81bd
00000060: e314 99bc c255 91bb 3564 2fbe 55bf 99bd
00000070: db49 3d3d a7fd 8a3d e1fd 67bc f79c ed3b
00000080: 015a 10be 0afa 1c3d c086 bc3d 32e9 cebd
00000090: 5b8b d03d be46 dc3d cce4 bbbc 066b 2dbe
000000a0: 4286 973d 551a bf3d fbdb b23d 79da ff3d
000000b0: 2cb4 0a3c 7349 98bd c93b efbd 9bf1 b33b
000000c0: d0f7 d83d 9d8d dc3d 9f65 b0bd 1ca9 3a3c
000000d0: 01d4 003e c583 233e 2009 1ebd 83ad b6bd
000000e0: 362c 43bd 10d4 833d 8892 b43d a9cc 71bd
000000f0: a342 04be 03cc 12be 4994 c8bd d927 933c
00000100: b460 cfbd b855 073d 9f61 ce3d eee8 96bd
00000110: 79bd 523c 1f9d eebc 7d2c 6dbd 40cf 943c
00000120: 1413 81bd cc87 c1bd c97c 3e3d 9a46 d1bd
00000130: 06bf ca3d 2999 babd d6aa b8bd f9d1 b53d
00000140: 788b b53b ce7f 08be 268f 683c b864 35bd
00000150: 09cd 643c cd6c ba3d 09e1 233d 5e7b 8bbd
00000160: 436b 003e ba86 103d 3414 fb3d e906 293d
00000170: d740 df3b d549 583c e4c1 c0bd efcf 0fbb
00000180: df3e 30bd 3d32 3c3d 7033 723c 1f84 f9bd
00000190: d661 a83c c74f e0bd 7aae bb3d 83b9 ff3d
000001a0: fbe5 d33d e6f5 bfbd ec07 ff3d fec2 d73d
000001b0: 8e1c 14bd 4cfe ffbd 94b5 d9bd 23d6 02bd
000001c0: c1d6 cbbd 51ce eebd fa57 8f3d 734f 17bd
000001d0: 0e09 87bc c8c7 d53d 334b b7bc 2983 abbd
000001e0: 0e8b f43d 406f c2bd b218 873d 20cf bfbd
000001f0: f46c f83d ed9c f73b 9306 cebd 8fd1 15bd
00000200: 2bc1 27bd 5964 fb3c 19a8 bb3d 6fd7 e63d
00000210: 9a2e 3cbd 5e0e c5bd a322 3cbb d5b5 8abc
00000220: 86e7 03be 423a 27bd ef07 833d 9c6a 2f3d
00000230: e447 10bc 2d22 823c 8b69 9a3d 8bba 9abd
00000240: 369e ce3d 4876 423d 32b6 1ebc 2b2e 923d
00000250: 4c18 13be f911 67bd 58a1 06be 3157 04be
00000260: 215a c43d 087c d6bc 4b5a a6bd 3d2b e2bc
00000270: fb69 a33d edbd e53c 74ba b6bd 8ff7 4abd
00000280: d92c 85bc 669d 6fbd 6caa c6bc ee35 ee3d
00000290: 07ab 05bc a7f7 26be 3220 2a3c 89d2 b1bd
000002a0: 630b ef3d a090 e03d 757c 21bb e14a efbc
000002b0: a42d bf3d 8f73 83bc 2f50 72bd 4251 0d3e
000002c0: ac2c b03d 4de1 23bc 323c 8ebd ad0d df3d
000002d0: 890b 0b3b e88f dd3d c71c a5bd d8f1 923c
000002e0: c160 85bd 25dd 473d 6318 203d 3517 c33d
000002f0: 5bc2 64bc 25ee 293d 1261 14bd 15a9 83bc
00000300: 0fc5 c6bd f1c2 88bd a796 39bd 8327 373d
00000310: f25c d6bc 654d d8bd d99c 993d 2cdb 033e
00000320: 87cb d0bc e802 b1bd a2c4 64bd 4771 a6bd
00000330: ba0a a33d 67e9 fb3c 896b 873c 8801 6bbb
00000340: 59ae f53c ecf6 aaba 0f32 b1bd 3be1 4e3d
00000350: d132 5cbd f10b 8abc bdfc b1bd db93 af3d
00000360: 6bfd ee3d 3cb9 a7bd b38b 0d3e 4290 c33d
00000370: 134e 9bbd da01 0abd 85ee 9a3d f64d f93d
00000380: 1112 1bbd a112 ba3d 8059 fcba 55f1 b0bd
00000390: 21d4 8bbc 4de5 44bd ea1d d93c 1832 833c
000003a0: 4137 613d 4b1b eb3d 3f29 08be 0cac 193e
000003b0: f536 5fbd a4fe c8bc ebe6 e8bd 560a a83b
000003c0: 28ba debd e48e ef3d 61f3 0a3c f487 f1bd
000003d0: dfe4 0b3e ab37 23bd d73b c03d 8794 5b3d
000003e0: fe83 1cbb f040 51bd e35d 09bd 65a0 1cbe
000003f0: aa5e 03be 9d35 ca3d 375c d33d 0a5c 2c3e
