results/HalfAbstract1/bachelor/bachelor-48499985.onnx (onnx, 872319 bytes, 12 tensors)

network_body._body_endoder.seq_layers.0.weight f4 [256, 7]
-0.2848903 -0.8035936 0.12807024 -0.33545145 -0.47310218 0.13967593 -0.23271212 -0.24084015
-0.10428222 -0.53568864 -0.49966177 -0.6225121 -0.7376273 -0.49473688 0.041006558 0.9532175
0.60350615 0.11787901 0.740109 -0.71528965 0.19808786 0.114430234 0.35029513 0.23196661
0.14972033 -0.22712322 0.13650307 0.022199841 0.37047902 0.41964233 0.5939111 -0.34654802
0.1800904 0.12803079 -0.30971938 -0.38214365 -0.025480239 0.015324139 0.09006469 0.004674203
-0.4466309 0.005655433 -0.2554079 -0.05569217 0.66449577 -0.4970014 -0.6879926 0.09960686
-0.5538995 0.017715119 0.41272214 0.04114298 -0.1308642 0.1698475 -0.04460288 -0.1816201
-0.3667248 0.5488296 0.2371517 -0.4262498 0.041271817 0.17928997 0.46964157 -0.42283055
-0.41762385 0.0872037 0.42366055 -0.5124156 -0.8994735 -0.46583846 -0.76264316 0.37054703
-0.5963847 0.32571822 -0.045312997 0.24290141 0.72499406 -0.66070133 0.43741822 0.05627582
-0.57967496 -0.59965086 -0.22933932 -0.5172135 0.8758623 0.2620529 -0.13519463 -0.20370986
-0.42863396 0.60010034 0.48632896 -0.079599604 -0.35965076 -0.24720567 -0.40861705 -0.00737362
-0.09236709 -0.22775215 -0.18509975 -0.17929049 -0.34645078 -0.42358786 0.34232506 -0.12891975
-0.7585025 -0.07462973 -0.5017048 -0.029241115 -0.14217377 0.02794598 0.2888117 -0.33122626
0.29902655 0.1829038 0.33782446 0.16270448 -0.4351701 -0.01626938 -0.58711076 -0.15202473
-0.799371 0.47639084 0.32398894 0.5265714 0.4993372 -0.49972132 0.26865393 -0.92609817
-0.23466678 -0.000690336 -0.14588714 0.41199788 0.3058899 0.035330396 -0.8406027 -0.08404427
0.14122696 -0.039454293 -0.13643533 -0.061895914 -0.14705233 0.38202557 -0.44911277 0.7418332
-0.025127994 0.042004094 -0.5894645 -0.08130536 -0.62943023 -0.436713 0.17111908 -0.82158524
-0.093562305 -0.77572936 0.011041098 -0.06758127 -0.124035574 0.14721282 0.36887887 -0.043563932
-0.27340096 0.23952056 0.5265571 0.3398755 -0.09149443 -0.22583233 0.7708189 0.57537544
0.83572084 0.4107267 -0.10401292 0.44128525 0.028730784 -0.12959446 0.81314576 0.21990949
0.07743427 0.46731666 -0.37013134 -0.14732558 -0.50711215 -0.36150512 -0.048031613 0.29159
0.1648314 -0.30201015 0.3503615 -0.77891195 0.6197711 0.6347682 0.65059215 -0.18746848
-0.49951914 0.21715733 0.21424417 0.41088212 -0.39675426 -0.49986625 -0.21422274 0.23234002
0.13646868 -0.26156735 0.056718767 0.2677264 -0.44497085 -0.21271315 -0.45199865 -0.41608235
-0.4378787 -0.42124048 0.5301501 -0.23013201 -0.34446222 -0.27910203 0.5198389 -0.5208571
0.03413867 -0.64265025 0.8068335 -0.31773016 0.18000309 0.051233992 0.10478199 0.5700993
-0.18068708 -0.673713 0.42809325 0.51662666 -0.3913431 -0.6033257 0.19863799 0.5390966
0.21704996 0.2198486 0.38875464 0.58754456 0.12255596 0.31191376 -0.15749103 0.3228975
-0.24796103 0.29459223 0.35762924 -0.028350055 -0.40779856 0.24727163 0.1056086 0.05192876
0.03298705 -0.20099068 0.360097 -0.20336975 0.761034 0.09457469 0.5254305 0.42970473
00000000: 24dd 91be 4fb8 4dbf d824 033e 4bc0 abbe
00000010: 733a f2be 3507 0f3e 164c 6ebe cd9e 76be
00000020: eb91 d5bd e422 09bf abd3 ffbe f45c 1fbf
00000030: 25d5 3cbf 274e fdbe 7ef6 273d 1006 743f
00000040: 617f 1a3f 8d6a f13d c977 3d3f 391d 37bf
00000050: 8bd7 4a3e 665a ea3d e259 b33e a888 6d3e
00000060: 4950 193e fd92 68be 76c7 0b3e 71dc b53c
00000070: 6daf bd3e 5cdb d63e 8f0a 183f be6e b1be
00000080: 9e69 383e 811a 033e 8a93 9ebe 55a8 c3be
00000090: efbb d0bc 1912 7b3c d673 b83d 0f2a 993b
000000a0: ceac e4be 3651 b93b d3c4 82be 791d 64bd
000000b0: 651c 2a3f f876 febe 4820 30bf aefe cb3d
000000c0: 5ccc 0dbf 4c1f 913c 5150 d33e 8b85 283d
000000d0: 4401 06be 81ec 2d3e 82b1 36bd 9ffa 39be
000000e0: 5ac3 bbbe 1980 0c3f e5d7 723e 6a3d dabe
000000f0: a30c 293d ca97 373e dc74 f03e 3f7d d8be
00000100: cbd2 d5be da97 b23d 09ea d83e ab2d 03bf
00000110: e543 66bf 6182 eebe 953c 43bf 57b8 bd3e
00000120: abac 18bf 8ac4 a63e 1f9a 39bd 26bb 783e
00000130: 3699 393f b923 29bf 48f5 df3e 7981 663d
00000140: 9465 14bf b882 19bf edd7 6abe 1b68 04bf
00000150: 8338 603f cc2b 863e 7670 0abe 5199 50be
00000160: e975 dbbe 2da0 193f 1c00 f93e 1e05 a3bd
00000170: 2524 b8be 7c23 7dbe 4136 d1be 689e f1bb
00000180: f52a bdbd dc37 69be ca8a 3dbe ed97 37be
00000190: ff61 b1be 82e0 d8be 3b45 af3e 8a03 04be
000001a0: 382d 42bf 79d7 98bd ba6f 00bf 108b efbc
000001b0: 0096 11be f8ee e43c 21df 933e 7d96 a9be
000001c0: 021a 993e 224b 3b3e 54f7 ac3e 019c 263e
000001d0: 9ece debe 5d47 85bc e44c 16bf 5fac 1bbe
000001e0: 94a3 4cbf 80e9 f33e e1e1 a53e 62cd 063f
000001f0: 20a9 ff3e 79db ffbe 028d 893e c514 6dbf
00000200: 7d4c 70be aaf7 34ba 7063 15be 63f1 d23e
00000210: 9a9d 9c3e 9bb6 103d bd31 57bf 671f acbd
00000220: cd9d 103e d39a 21bd b4b5 0bbe 9286 7dbd
00000230: e394 16be db98 c33e 1cf2 e5be c8e8 3d3f
00000240: 39d9 cdbc 7c0c 2c3d 25e7 16bf 6d83 a6bd
00000250: 5722 21bf d998 dfbe d739 2f3e 6953 52bf
00000260: 989d bfbd 3396 46bf b9e5 343c 0d68 8abd
00000270: 5d06 febd f5be 163e b1dd bc3e 1870 32bd
00000280: 36fb 8bbe e144 753e 72cc 063f 2904 ae3e
00000290: 6f61 bbbd 9740 67be 6354 453f ce4b 133f
000002a0: cdf1 553f c54a d23e ba04 d5bd 24f0 e13e
000002b0: d25c eb3c 69b4 04be 522a 503f f42f 613e
000002c0: dc95 9e3d 2144 ef3e db81 bdbe 84dc 16be
000002d0: 1ad2 01bf 3317 b9be ccbc 44bd 494b 953e
000002e0: 90c9 283e 13a1 9abe 9562 b33e c666 47bf
000002f0: 52a9 1e3f 2b80 223f 358d 263f bdf7 3fbe
00000300: f9c0 ffbe 7e5e 5e3e d362 5b3e 245f d23e
00000310: 6023 cbbe 78ee ffbe 355d 5bbe 8bea 6d3e
00000320: 72be 0b3e 28ec 85be f051 683d 6f13 893e
00000330: 38d3 e3be 7ad1 59be 5e6c e7be bf08 d5be
00000340: a331 e0be d5ac d7be ebb7 073f baa7 6bbe
00000350: 5a5d b0be 76e6 8ebe 2a14 053f e456 05bf
00000360: fdd4 0b3d ba84 24bf a48c 4e3f 87ad a2be
00000370: bb52 383e bcda 513d f197 d63d 07f2 113f
00000380: 0906 39be 7578 2cbf 0a2f db3e a541 043f
00000390: 1f5e c8be 8e73 1abf c267 4b3e 3c02 0a3f
000003a0: 5842 5e3e fe1f 613e d90a c73e 5269 163f
000003b0: 9ffe fa3d 29b3 9f3e 5445 21be d252 a53e
000003c0: 7fe9 7dbe cbd4 963e 2e1b b73e 603e e8bc
000003d0: f9ca d0be c634 7d3e 5249 d83d 40b3 543d
000003e0: 6e1d 073d 80d0 4dbe a25e b83e 2940 50be
000003f0: 20d3 423f 60b0 c13d 9d82 063f 4202 dc3e

network_body._body_endoder.seq_layers.0.bias f4 [256]
0.0019094192 0.01919418 0.0002483187 0.0030078315 -0.025902411 0.014167484 0.044101566 -0.0037999572
0.033551678 0.005214318 0.027997857 0.017443411 0.014426821 -0.020345384 -0.010524602 0.0044364
0.0043550087 0.041405298 -0.010099382 0.011909843 -0.022994922 0.01556533 0.007383803 0.024147175
-0.004532765 -0.015685545 0.021580396 0.0069908267 0.0030806027 0.012653452 -0.012155338 0.021988168
-0.0044859378 -0.02785004 0.004215716 0.009958934 -0.0014765232 0.017007176 0.016379584 0.0073142475
0.0406793 -0.029297477 -0.010277189 -0.007015369 -0.0020307202 0.015094299 -0.0045126826 -0.0094855875
-0.0027636199 0.001883271 -0.01801486 -0.02999322 0.020160435 0.017995605 -0.0012194124 0.023807278
0.04307443 0.0033881404 0.0024404372 0.0207002 0.0141509585 -0.00028207593 0.012832462 0.01780607
0.038681965 -0.03309683 -0.012305194 -0.0035603554 -0.022691894 -0.0021396736 -0.0075471266 -0.019209752
0.031714343 0.015172387 -0.037459854 0.004797489 -0.027572427 -0.018444603 0.028674897 -0.009855637
0.0045819264 -0.014686635 0.013749622 -0.033866834 0.00408102 0.0036251247 -0.0071289022 -0.0051325327
-0.0033611648 -0.01772472 -0.020929951 -0.01870808 0.017888162 0.046143584 -0.0056955307 0.022585187
0.0285817 -0.004965441 -0.022794195 0.030583428 0.0024718037 -0.018299254 0.003006457 0.037669532
0.0012727545 0.024990506 -0.010629588 0.00021013351 -0.016149035 0.0014289236 0.023964433 0.016438477
-0.00089796283 0.007583277 0.0008182555 0.015940398 0.019723266 -0.0077430843 -0.025178067 0.03605748
0.0050955224 -0.009752359 0.008423016 -0.001700812 0.009923858 0.026025914 0.03244571 0.010567547
-0.0045260945 0.017744731 0.002860716 0.030855993 0.006984398 -0.0065644276 0.0066613066 0.007730744
0.02476277 0.016063342 -0.017440315 0.013647892 0.012337526 0.049047414 0.008782142 -0.012459851
0.01778588 -0.01242166 -0.019787919 -0.03300618 0.0119341165 0.012717547 0.013754518 -0.020414308
0.012804668 0.001802011 0.010486576 -0.008682905 0.013844573 -0.008251073 0.0054976605 -0.014691551
-0.014051263 0.036194474 0.0062000547 0.027145157 -0.0033583639 -0.038792808 0.004375017 0.011783024
-0.025456341 -0.001489663 0.02397248 0.012751848 0.011704418 -0.01571917 0.020178167 -0.011607061
-0.016741622 0.0024421648 -0.014129711 -0.021986237 0.021938285 0.016734429 -0.03991217 -0.031513862
-0.0020818503 0.011753826 -0.004283473 -0.0078004454 0.0005083786 0.02753094 0.012019345 0.0112129925
-0.0009038089 -6.70421e-05 -0.018428158 -0.011719823 -0.03561461 0.025442207 -0.019540828 0.0040406366
-0.0059444895 0.014934349 0.0036613503 -0.006440361 0.04074934 -0.012724702 -0.019290505 0.02677748
-0.0002806521 -0.009749391 0.010364707 -0.025123585 0.009311424 -0.028820144 -0.024164194 -0.02086183
0.0065696556 -0.0054072035 0.0014249232 0.018354418 -0.013482222 -0.010402361 -0.01234929 0.016048113
0.04051439 -0.0043765344 0.0041350606 0.010637229 -0.0032047415 0.0010893506 0.019598631 -0.015562271
0.0022778248 0.00942254 0.024130331 0.029523358 0.0019966816 0.02559284 0.010112514 0.0014801916
0.009677056 0.012511776 -0.021472262 0.009079233 -0.0054420424 -0.004717628 -0.003656341 -0.001383495
0.009415293 -0.02448789 -0.0062230746 0.02606611 -0.025107969 -0.0072298534 -0.005134444 -0.0028367897
00000000: 7a45 fa3a 1d3d 9d3c c630 8239 0a1f 453b
00000010: 4b31 d4bc bc1e 683c d8a3 343d b408 79bb
00000020: 7c6d 093d dfdc aa3b c35b e53c 7ce5 8e3c
00000030: 795e 6c3c 5dab a6bc 616f 2cbc 385f 913b
00000040: 76b4 8e3b 9a98 293d e177 25bc 8121 433c
00000050: d95f bcbc ba05 7f3c d4f3 f13b 4cd0 c53c
00000060: 9787 94bb f97e 80bc 5fc9 b03c 4e13 e53b
00000070: f0e3 493b 6d50 4f3c 2f27 47bc 8820 b43c
00000080: c6fe 92bb c425 e4bc fd23 8a3b cc2a 233c
00000090: e687 c1ba a252 8b3c 7a2e 863c 5bac ef3b
000000a0: 569f 263d 4301 f0bc a861 28bc 2ee1 e5bb
000000b0: d515 05bb 144e 773c 20df 93bb 7069 1bbc
000000c0: d91d 35bb 17d8 f63a e693 93bc 57b4 f5bc
000000d0: 7f27 a53c 856b 933c b1d4 9fba 7b07 c33c
000000e0: d06e 303d 900b 5e3b beef 1f3b 7793 a93c
000000f0: 6cd9 673c 97e3 93b9 3f3f 523c 09de 913c
00000100: fb70 1e3d 8b90 07bd b99b 49bc da54 69bb
00000110: 5ae4 b9bc c439 0cbb e34d f7bb c55d 9dbc
00000120: e6e6 013d 9a95 783c 816f 19bd 4134 9d3b
00000130: 92df e1bc 2319 97bc 9ee7 ea3c 8a79 21bc
00000140: fc23 963b 36a0 70bc 1846 613c f3b7 0abd
00000150: 14ba 853b 8093 6d3b 9199 e9bb ce2e a8bb
00000160: fd46 5cbb 6f33 91bc 4a75 abbc b041 99bc
00000170: 328a 923c 0e01 3d3d 93a1 babb 9204 b93c
00000180: 2b24 ea3c 23b5 a2bb e4ba babc 198a fa3c
00000190: fcfd 213b 51e8 95bc fa07 453b 5e4b 1a3d
000001a0: 8ed2 a63a e4b8 cc3c b927 2ebc 4957 5c39
000001b0: fb4a 84bc b84a bb3a 0f51 c43c fca9 863c
000001c0: 4465 6bba 237d f83b 3280 563a 7095 823c
000001d0: b092 a13c b3b9 fdbb 3c42 cebc 02b1 133d
000001e0: 57f8 a63b 5cc8 1fbc b100 0a3c c8ed deba
000001f0: ad97 223c 4c34 d53c cbe5 043d 8123 2d3c
00000200: a24f 94bb 665d 913c da7a 3b3b b5c5 fc3c
00000210: 60dd e43b 691a d7bb 1747 da3b 2e52 fd3b
00000220: 4bdb ca3c 4597 833c fede 8ebc 689b 5f3c
00000230: 5623 4a3c f1e5 483d f9e2 0f3c 6724 4cbc
00000240: b2b3 913c 3884 4bbc 461a a2bc 7d31 07bd
00000250: 5087 433c 425d 503c a15a 613c e83b a7bc
00000260: acca 513c 7531 ec3a e3cf 2b3c be42 0ebc
00000270: 59d4 623c 822f 07bc b825 b43b d5b4 70bc
00000280: 4537 66bc a840 143d d429 cb3b 855f de3c
00000290: ff17 5cbb 35e5 1ebd 4d5c 8f3b 960d 413c
000002a0: d189 d0bc cc40 c3ba ef61 c43c 21ed 503c
000002b0: e3c3 3f3c 7dc5 80bc af4c a53c 8b2b 3ebc
000002c0: ba25 89bc ba0c 203b 4e80 67bc 7b1c b4bc
000002d0: ebb7 b33c a416 893c f27a 23bd ae14 01bd
000002e0: a76f 08bb 1f93 403c 605c 8cbb e19a ffbb
000002f0: b644 053a 9188 e13c c9ec 443c b3b6 373c
00000300: 97ed 6cba f498 8cb8 a6f6 96bc 8004 40bc
00000310: a0e0 11bd 2d6c d03c 1614 a0bc 5167 843b
00000320: fec9 c2bb 33af 743c 44f3 6f3b aa09 d3bb
00000330: c8e8 263d 457b 50bc 1f07 9ebc 725c db3c
00000340: 7d24 93b9 e9bb 1fbc bbd0 293c facf cdbc
00000350: f18e 183c 3918 ecbc fdf3 c5bc 6ee6 aabc
00000360: 4446 d73b e92e b1bb 7dc4 ba3a 015c 963c
00000370: 8ae4 5cbc aa6e 2abc ad54 4abc 5577 833c
00000380: 6bf2 253d 0869 8fbb 677f 873b c647 2e3c
00000390: a406 52bb 8ac8 8e3a 4f8d a03c e5f8 7ebc
000003a0: 8f47 153b ff60 1a3c f9ac c53c f8da f13c
000003b0: c2da 023b 13a8 d13c f5ae 253c fd02 c23a
000003c0: 848c 1e3c 31fe 4c3c 99e6 afbc 10c1 143c
000003d0: 2953 b2bb 5596 9abb 399f 6fbb 6456 b5ba
000003e0: 9a42 1a3c d49a c8bc efea cbbb 9888 d53c
000003f0: 3aaf cdbc 68e8 ecbb d73e a8bb 6fe9 39bb

network_body._body_endoder.seq_layers.2.weight f4 [256, 256]
0.07616168 0.046543743 -0.0040067057 0.15534149 -0.015280746 0.07091248 0.008566737 -0.13858882
-0.027394 -0.020491214 -0.041589525 0.0034471331 -0.052442413 -0.06605963 -0.02042267 0.059336573
0.027958697 -0.08441406 0.014186597 -0.027748432 0.018115 0.05846658 -0.047084153 0.00062923454
-0.07141186 0.034667883 0.122327656 0.08018523 0.007961834 -0.09243409 0.08128134 0.0021478906
-0.048872337 0.016265713 0.03832679 -0.04779715 -0.040354222 -0.020531263 0.02947648 -0.11937714
-0.0046118465 0.049757503 0.006708495 0.007350863 0.072534434 0.06630265 0.017980166 -0.04005806
-0.056248702 0.05588551 -0.11298478 0.041887924 -0.059840277 0.0070950515 0.10438323 0.016245991
-0.007620905 0.04395142 -0.12285696 -0.049834613 0.008562839 0.010298901 -0.033423137 -0.048022162
-0.035662238 -0.10860168 0.06259649 0.04257553 -0.08643975 -0.07022859 0.06761885 0.0021581724
0.10669632 -0.02989779 0.0059536826 -0.05234877 0.07971161 -0.06784443 0.01486299 0.022828108
0.05352826 -0.041344397 0.053555753 -0.03607515 -0.0786985 0.031664964 0.13961236 0.016786264
-0.06876254 -0.027739624 0.03901953 0.118627384 0.075050294 0.008750543 0.050253 -0.08737542
0.012215582 -0.057715118 0.056382775 0.09852 -0.17618793 0.07447743 -0.0008234317 -0.013297052
-0.05451373 -0.056552667 0.0247025 -0.08792121 -0.077500544 0.018785097 -0.055884555 -0.0887475
0.07229569 -0.010433635 0.14491142 -0.021422314 -0.014229054 0.08657128 -0.018730208 -0.11926148
-0.011434486 -0.056471065 -0.0063842884 -0.09574649 0.038489725 0.014569902 0.017142655 -0.039932914
-0.13647363 0.019787183 0.0010431849 -0.005667402 -0.09247751 0.09376396 -0.017242372 0.077620834
0.013067041 -0.003837279 -0.011652179 -0.0519287 0.03985388 -0.13400689 0.07512864 0.009160662
0.016869681 -0.015055266 -0.073808424 0.0806463 -0.07608718 -0.07373998 0.03701216 -0.1488989
-0.0015457772 -0.04336626 0.007214434 -0.010117885 -0.023884581 -0.03529176 -0.0054013734 -0.004895134
0.033999633 0.020810395 0.03238436 -0.07721863 -0.03148167 -0.0014224423 0.002867589 0.024812516
-0.07358743 -0.088024415 0.057621997 -0.06257228 0.090310656 -0.06583694 -0.033705413 0.054290935
0.018350119 0.027759591 -0.11426981 0.018209124 0.027109524 0.026222518 0.031451 0.008966782
0.00010859269 -0.16092448 0.015087572 0.026632817 -0.06943492 0.03402855 -0.07684041 -0.07870824
-0.0028740922 0.0045038215 0.062366933 -0.035007723 -0.055425175 -0.022684224 -0.06255796 -0.0077777263
-0.0060684024 0.004272483 0.118379235 -0.061659075 0.051984914 -0.05638247 0.0043360703 0.052793846
-0.045790337 -0.070340395 0.16726503 -0.03999701 -0.0171975 0.03564723 0.025194798 0.08453433
-0.06699826 -0.036726948 0.08487412 -0.06380917 0.038557626 -0.018498015 0.024186967 0.000104799234
-0.067597464 -0.044711698 0.046300877 -0.09181436 -0.06542115 0.0046804864 -0.09125925 -0.0015013868
0.038340364 -0.047211673 -0.0034219993 -0.031773675 -0.09308986 -0.04680379 -0.035708692 0.024121333
-0.02100046 -0.06441136 0.028894631 0.06281728 -0.00018633256 -0.0034898599 -0.01674489 -0.003968148
-0.08078946 0.098472185 -0.108129546 -0.03378239 0.049322013 -0.09736863 0.06649286 0.0019091247
00000000: a8fa 9b3d a7a4 3e3d af4a 83bb d711 1f3e
00000010: 185c 7abc 903a 913d 805b 0c3c 3aea 0dbe
00000020: 6269 e0bc 31dd a7bc c759 2abd 4ce9 613b
00000030: dbcd 56bd 454a 87bd 714d a7bc e80a 733d
00000040: a309 e53c 47e1 acbd e76e 683c ae50 e3bc
00000050: e965 943c a77a 6f3d 50db 40bd 37f3 243a
00000060: 6240 92bd e9ff 0d3d ec86 fa3d 2738 a43d
00000070: 5a72 023c 164e bdbd d576 a63d a0c3 0c3b
00000080: 5c2e 48bd ac3f 853c 8dfc 1c3d f2c6 43bd
00000090: 784a 25bd 2e31 a8bc a978 f13c 017c f4bd
000000a0: f91e 97bb 86ce 4b3d efd2 db3b 82df f03b
000000b0: ef8c 943d afc9 873d 244b 933c ec13 24bd
000000c0: 0a65 66bd 34e8 643d 9064 e7bd ac92 2b3d
000000d0: 141b 75bd 9b7d e83b e0c6 d53d 5016 853c
000000e0: c9b8 f9bb 6706 343d 6e9c fbbd 611f 4cbd
000000f0: 264b 0c3c b9bc 283c b3e6 08bd e3b2 44bd
00000100: 9112 12bd 8f6a debd 9732 803d ae63 2e3d
00000110: 5307 b1bd 02d4 8fbd c07b 8a3d 2070 0d3b
00000120: 9a83 da3d 36ec f4bc 1c17 c33b aa6b 56bd
00000130: d73f a33d 05f2 8abd e683 733c 0302 bb3c
00000140: 7340 5b3d be58 29bd 475d 5b3d 89c3 13bd
00000150: ae2c a1bd 1fb3 013d 8bf6 0e3e 5983 893c
00000160: 60d3 8cbd 353e e3bc f1d2 1f3d eaf2 f23d
00000170: f8b3 993d 705e 0f3c 17d6 4d3d e2f1 b2bd
00000180: dd23 483c b066 6cbd a0f1 663d dbc4 c93d
00000190: 9c6a 34be 9f87 983d 91db 57ba e1db 59bc
000001a0: ca49 5fbd c5a3 67bd e65c ca3c 0910 b4bd
000001b0: 9bb8 9ebd 34e3 993c 34e7 64bd 40c1 b5bd
000001c0: c30f 943d d6f1 2abc a963 143e d97d afbc
000001d0: fa20 69bc 494c b13d 1870 99bc 5d3f f4bd
000001e0: b657 3bbc 344e 67bd 4b33 d1bb bc16 c4bd
000001f0: 67a7 1d3d 99b6 6e3c c16e 8c3c b290 23bd
00000200: bebf 0bbe bb18 a23c 7abb 883a 9db5 b9bb
00000210: d964 bdbd 5207 c03d e03f 8dbc acf7 9e3d
00000220: 2417 563c dc7a 7bbb c8e8 3ebc 30b3 54bd
00000230: d23d 233d 1a39 09be 0bdd 993d 9a16 163c
00000240: 4932 8a3c 5daa 76bc df28 97bd e329 a53d
00000250: 98d3 9bbd fd04 97bd 109a 173d f478 18be
00000260: ad9b caba d2a0 31bd 0f67 ec3b 7cc5 25bc
00000270: 99a9 c3bc 188e 10bd 01fe b0bb 5c67 a0bb
00000280: 3343 0b3d 907a aa3c 76a5 043d cd24 9ebd
00000290: ecf2 00bd 3e71 baba 29ee 3b3b 9e43 cb3c
000002a0: 02b5 96bd 2546 b4bd 0b05 6c3d e525 80bd
000002b0: cbf4 b83d 85d5 86bd b00e 0abd 2c60 5e3d
000002c0: fd52 963c 1568 e33c 4a06 eabd 4d2b 953c
000002d0: cb14 de3c 9bd0 d63c c4d2 003d 69e9 123c
000002e0: 42bc e338 63c9 24be dd31 773c 112d da3c
000002f0: e533 8ebd 8561 0b3d 815e 9dbd c931 a1bd
00000300: 445b 3cbb cb94 933b 7874 7f3d 4264 0fbd
00000310: 8205 63bd 44d4 b9bc 631e 80bd 4cdc febb
00000320: 73d9 c6bb 2f00 8c3b d070 f23d 3a8e 7cbd
00000330: 22ee 543d 4ef1 66bd 9815 8e3b 5c3e 583d
00000340: a68e 3bbd a00e 90bd 8647 2b3e e8d3 23bd
00000350: c6e1 8cbc d402 123d 5265 ce3c 5620 ad3d
00000360: 6236 89bd ff6e 16bd 7cd2 ad3d 62ae 82bd
00000370: 9aee 1d3d 2689 97bc bf23 c63c a9c7 db38
00000380: 8a70 8abd 9d23 37bd fda5 3d3d 2b09 bcbd
00000390: 86fb 85bd c45e 993b 21e6 babd 2eca c4ba
000003a0: c90a 1d3d 0761 41bd 9f43 60bb 1d25 02bd
000003b0: e6a5 bebd 55b5 3fbd 4743 12bd 1a9a c53c
000003c0: 2809 acbc 1aea 83bd 6fb4 ec3c 59a6 803d
000003d0: 4462 43b9 22b6 64bb 942c 89bc 3d07 82bb
000003e0: f274 a5bd c9ab c93d 0673 ddbd 675f 0abd
000003f0: e105 4a3d 3469 c7bd 692d 883d 983b fa3a

network_body._body_endoder.seq_layers.2.bias f4 [256]
-0.011998466 -0.014284151 -0.016832666 0.015943607 0.020270089 -0.02755522 0.029699119 0.019049639
0.008844149 -0.028624203 -0.02936055 -0.03148506 0.0029025096 0.009609047 -0.029071102 0.0060762754
0.025320895 -0.012240923 0.0036528104 -0.01907881 0.01250411 -0.0035849817 0.006974864 0.020858139
0.013313903 -0.015076356 0.008332741 0.0021156445 -0.030057846 0.031664193 0.03469257 -0.012035904
0.0040922323 0.020504601 -0.01716659 -0.012226299 0.0029045057 -0.011968345 0.02792648 -0.018103931
-0.0127223525 -0.0011123664 0.0013957381 -0.02045209 0.03677822 -0.03550124 0.037430257 0.009270007
0.008058428 0.012900481 -0.016915707 -0.029283762 0.006150384 -0.008732585 0.005374791 -0.044143908
-0.021636834 -0.04041582 0.019844366 0.023506057 -0.019216968 -0.004653381 -0.0011815472 -0.002379099
0.0025621343 -7.761314e-05 0.017700236 0.026055768 0.0011550378 -0.01415862 -0.012125041 0.0017223477
0.014820911 0.037302114 0.006473821 -0.007549654 -0.0044978303 -0.005857893 -0.02315675 -0.0059908293
-0.005106733 0.033632625 0.0015979001 -0.033786435 -0.004751948 -0.0024345142 0.016779097 -0.012739874
-0.026000578 0.010435776 0.010946473 -0.00113927 -0.018983554 0.01086576 -0.002551525 0.0035293286
0.011202437 0.00215249 0.0033062303 -0.038196538 -0.007119779 0.016463947 0.0058470606 -0.016860152
0.0055764103 0.028967205 0.0025089665 -0.01629303 -0.002030205 -0.0129480865 -0.026729785 -0.011380983
0.011422061 -0.0122306645 -0.0065234425 -0.017334903 -0.0141024515 -0.010057147 -0.003653368 -0.028414723
-0.022341024 -0.003721173 0.0017199998 0.0029897257 -0.016900092 -0.011272156 -0.0040379385 -0.037283752
0.021747028 -0.000917371 0.005055806 -0.021117164 0.008415499 -0.023905545 0.00088287325 -0.018270774
-0.007952004 0.012376678 -0.011909506 0.008069921 0.008101178 -0.011246143 0.0048798174 0.015367476
-0.020611105 0.039106898 -0.02606457 -0.022086995 -0.008424497 -0.021483585 0.010806264 0.005323435
0.0013056332 -0.013596286 0.03239437 0.010941812 -0.015814872 -0.016302 -0.0006772451 0.0067021777
-0.003994595 0.00089826033 0.035637327 -0.025758917 -0.015917243 0.009402345 -0.006753524 0.0051287943
-0.03006246 -0.0010401987 0.0039586993 -0.0041796747 0.023381608 -0.02022245 -0.027565295 -0.0077848122
-0.017289199 -0.02684996 0.0018649554 -0.015840095 0.014295836 -0.009036827 0.0058143726 -0.019077664
-0.018781774 0.0013151424 0.026610313 0.0020051796 0.0063978527 -0.0025734114 -0.024476012 -0.01858827
0.01487205 -0.0055840346 -0.019826787 -0.009081458 -0.0120394165 -0.011458884 -0.009706447 0.009702721
0.026081212 0.014421967 0.003839783 0.026744938 0.007968399 0.0074297274 -0.014422861 -0.010999867
0.021311097 0.004819972 0.0097517185 0.01159159 -0.007759124 -0.01724602 -0.002702404 0.005694608
0.0068662767 0.0073829195 -0.02132304 -0.003089758 -0.008655475 -0.012964457 0.009776478 0.022037964
0.016105322 0.008660665 0.0093737375 -0.006657981 0.016817642 -0.025453037 -0.023393493 -0.0024639943
-0.01323148 0.02482203 -0.00790478 -0.036302514 0.021625983 0.028129417 0.016172878 -0.023027005
-0.004916066 0.03241883 0.01664731 0.0021178322 0.016157744 -0.005105631 0.0031261833 -0.021152532
-0.026330044 0.013211532 -0.018863963 -0.020842783 -0.014191978 0.019047052 0.013222489 -0.035725527
00000000: 3795 44bc 1208 6abc a9e4 89bc 2b9c 823c
00000010: 750d a63c 7cbb e1bc 914b f33c fd0d 9c3c
00000020: 0de7 103c 4e7d eabc 8985 f0bc 7af6 00bd
00000030: 0838 3e3b 446f 1d3c 8526 eebc 7e1b c73b
00000040: c46d cf3c 278e 48bc fd63 6f3b 2a4b 9cbc
00000050: 0ade 4c3c 03f2 6abb 668d e43b b0de aa3c
00000060: 8e22 5a3c d202 77bc 0d86 083c a0a6 0a3b
00000070: df3b f6bc 50b2 013d cc19 0e3d 3e32 45bc
00000080: 2218 863b 44f9 a73c f3a0 8cbc d150 48bc
00000090: 8559 3e3b e116 44bc 13c6 e43c b24e 94bc
000000a0: 6a71 50bc d3cc 91ba 33f1 b63a 248b a7bc
000000b0: c2a4 163d c069 11bd 7850 193d 3ae1 173c
000000c0: 7f07 043c 8a5c 533c cf92 8abc 80e4 efbc
000000d0: 2989 c93b 1e13 0fbc 041f b03b 3ed0 34bd
000000e0: bb3f b1bc 0f8b 25bd a790 a23c c68f c03c
000000f0: e76c 9dbc 647b 98bb 25de 9aba a8ea 1bbb
00000100: 7be9 273b 3dc4 a2b8 1600 913c e872 d53c
00000110: a364 973a 8ef9 67bc 1ca8 46bc 66c0 e13a
00000120: 68d3 723c 1aca 183d 5922 d43b 1763 f7bb
00000130: 8962 93bb 91f3 bfbb 39b3 bdbc b84e c4bb
00000140: 6256 a7bb 5dc2 093d a170 d13a a563 0abd
00000150: 3bb6 9bbb 5f8c 1fbb 5174 893c e8ba 50bc
00000160: 2aff d4bc d1fa 2a3c d658 333c 8f53 95ba
00000170: 6683 9bbc 4d06 323c 7c37 27bb 4f4c 673b
00000180: 6d8a 373c ca10 0d3b 57ad 583b f973 1cbd
00000190: 094d e9bb 66df 863c b398 bf3b 4d1e 8abc
000001a0: 52ba b63b a24c ed3c 796d 243b f678 85bc
000001b0: 300d 05bb 3624 54bc 6cf8 dabc 4d77 3abc
000001c0: 9923 3b3c 2063 48bc 9ac2 d5bb ed01 8ebc
000001d0: f80d 67bc bbc6 24bc 586d 6fbb fec5 e8bc
000001e0: 8604 b7bc ecde 73bb 9e71 e13a 46ef 433b
000001f0: 1072 8abc d9ae 38bc af50 84bb d9b6 18bd
00000200: d326 b23c ba7b 70ba 2dab a53b e7fd acbc
00000210: 29e1 093c 90d5 c3bc 9f70 673a 97ac 95bc
00000220: 1f49 02bc 8dc7 4a3c 1720 43bc b437 043c
00000230: ceba 043c be41 38bc e0e6 9f3b dec7 7b3c
00000240: 9fd8 a8bc 8e2e 203d 5d85 d5bc c9ef b4bc
00000250: e706 0abc 58fe afbc c20c 313c 3670 ae3b
00000260: c821 ab3a f5c2 5ebc f5af 043d 4945 333c
00000270: 318e 81bc c68b 85bc 2689 31ba f19d db3b
00000280: 17e5 82bb 3b79 6b3a 72f8 113d 5d04 d3bc
00000290: e164 82bc 4b0c 1a3c aa4c ddbb 720f a83b
000002a0: 8c45 f6bc 4757 88ba fab7 813b a7f5 88bb
000002b0: c98a bf3c 8da9 a5bc 9dd0 e1bc bd17 ffbb
000002c0: 14a2 8dbc 73f4 dbbc 8571 f43a 16c3 81bc
000002d0: 1539 6a3c 330f 14bc 7e86 be3b c348 9cbc
000002e0: 3cdc 99bc db60 ac3a dffd d93c 5569 033b
000002f0: 14a5 d13b aea6 28bb eb81 c8bc 6d46 98bc
00000300: e6a9 733c 47fa b6bb c96b a2bc 65ca 14bc
00000310: f940 45bc 0bbe 3bbc ca07 1fbc 29f8 1e3c
00000320: 44a8 d53c 1d4a 6c3c dea4 7b3b 3318 db3c
00000330: e38d 023c 1275 f33b dd4d 6cbc c938 34bc
00000340: 9c94 ae3c dbf0 9d3b acc5 1f3c a7ea 3d3c
00000350: 4040 febb 8647 8dbc d11a 31bb d699 ba3b
00000360: 81fe e03b 6bec f13b a8ad aebc 8a7d 4abb
00000370: b2cf 0dbc e068 54bc 852d 203c f688 b43c
00000380: 4fef 833c 76e5 0d3c 4e94 193c 312b dabb
00000390: 27c5 893c e382 d0bc b6a3 bfbc f77a 21bb
000003a0: d9c8 58bc 9257 cb3c 0d83 01bc f2b1 14bd
000003b0: f928 b13c aa6f e63c fc7c 843c 21a3 bcbc
000003c0: f316 a1bb 9bc9 043d f15f 883c 54cb 0a3b
000003d0: 3f5d 843c 234d a7bb a7e0 4c3b 1348 adbc
000003e0: 1bb2 d7bc 2e75 583c 9988 9abc 7cbe aabc
000003f0: 7885 68bc 9008 9c3c 23a3 583c ee54 12bd

network_body._body_endoder.seq_layers.4.weight f4 [256, 256]
0.051835623 0.032531504 -0.019976975 0.03720119 -0.016046315 -0.0053522056 0.068416186 0.03014251
-0.031188583 -0.03280515 0.029194133 -0.030373897 0.03399464 0.029488746 -0.105657876 -0.034377642
0.118590966 0.08116944 0.07838225 0.02635651 -0.0018188386 -0.05848633 -0.057102352 -0.038557664
-0.013585526 0.00961983 -0.03151324 0.027943049 -0.093652874 0.026372615 -0.048086897 -0.01541908
-0.015320199 -0.027462248 0.10084154 0.023847986 0.040651925 0.025221054 -0.0811075 -0.0090878215
-0.073224545 -0.11189317 -0.06344857 0.07153635 0.0283611 0.07538098 -0.11220232 0.052930016
-0.025568116 0.111799486 -0.00866452 0.032254923 -0.019714622 0.07688389 -0.10323338 -0.015461644
0.06926896 0.07361838 -0.010102086 -0.081620805 -0.0233588 -0.013431377 -0.002601151 0.055416204
0.0060426854 0.060790602 -0.12485714 0.007479964 -0.011705949 0.034989733 -0.08098284 -0.0966853
0.023408799 -0.03695248 0.07842031 0.013238602 -0.03168965 0.018011365 0.02849807 0.021934891
-0.15721251 -0.059227083 -0.12615652 0.09747982 -0.0213192 0.0044804523 0.062589034 0.07341314
-0.09402975 0.003420606 0.029618667 0.034893878 0.02399129 0.04998907 -0.013966157 -0.020875014
-0.041109927 0.04680496 -0.1167241 -0.045869913 0.07334239 0.12797514 -0.07445271 0.04170614
0.059062246 -0.05976695 0.12400531 7.94554e-05 0.007946378 -0.0483194 0.035356082 -0.029684836
0.0929654 -0.020115422 0.08479175 0.010553659 -0.066903174 -0.11636903 0.04850172 -0.023361422
-0.034662552 -0.071197174 -0.08775684 -0.01308444 0.00064057636 0.08602278 0.035347443 0.09422604
-0.025724867 0.105907016 -0.013856692 -0.03034226 0.020677699 -0.014831468 0.0015354782 -0.0017603815
-0.016348165 0.025621876 -0.16442609 0.0041072927 -0.04796512 0.0407038 0.06356344 -0.032950494
0.030785201 -0.108460054 0.06926941 0.08297518 0.020366713 0.060213447 -0.0113688605 0.08825043
0.0023860119 0.031583548 0.013375022 -0.04636536 0.0042153643 0.11935631 -0.0129100885 -0.091737784
0.013566586 0.07686382 0.047423057 0.031466007 0.033192996 -0.073376074 -0.0127084395 0.06474672
0.04807156 -0.060647186 0.058343396 0.04771662 -0.08907761 -0.06792989 -0.013452012 0.020143965
-0.015500382 -0.04374834 0.069396496 0.009157385 0.08983959 -0.007246578 0.071947545 0.065105945
0.03565725 0.00421417 0.04701105 -0.104540534 -0.04558947 -0.06700917 0.10053312 0.07500907
-0.07051618 0.03992531 -0.023986218 -0.027581884 0.013984782 0.016317818 0.06432101 0.02947648
0.042216346 0.009961933 0.03773264 -0.024219131 0.03433961 0.022341345 0.062583245 0.0084635345
-0.0256535 0.0505403 0.056076214 -0.051706757 -0.02196676 0.008313405 -0.09200554 0.083417654
-0.14783272 0.0045923567 -0.046454597 0.023389421 0.034096718 0.10474676 -0.082295254 0.006792009
-0.011934217 0.0071830438 0.00840677 -0.04564674 0.007307518 -0.034118343 -0.031598866 0.07342643
0.0836228 0.044761147 0.009592469 0.14604062 -0.12258737 -0.045672968 -0.020255521 -0.07891309
-0.008987426 -0.17269787 0.026131788 -0.02831509 0.11212562 0.14013529 0.0026510218 -0.10704999
-0.018243 -0.013807374 -0.005857335 -0.002718468 0.084845945 0.0683183 0.039201442 -0.011644774
00000000: 9751 543d c13f 053d c1a6 a3bc 4660 183d
00000010: 9073 83bc 8e61 afbb c91d 8c3d 6ded f63c
00000020: 337f ffbc b15e 06bd 8928 ef3c aed2 f8bc
00000030: f73d 0b3d 6292 f13c 2863 d8bd 92cf 0cbd
00000040: d2df f23d 2a3c a63d e086 a03d 9ce9 d73c
00000050: 1966 eeba 5d8f 6fbd 28e4 69bd a4ee 1dbd
00000060: d395 5ebc 7e9c 1d3c 0714 01bd d2e8 e43c
00000070: 14cd bfbd 620b d83c c4f6 44bd 4fa0 7cbc
00000080: 9201 7bbc 82f8 e0bc 0286 ce3d da5c c33c
00000090: a282 263d 629c ce3c b01b a6bd 16e5 14bc
000000a0: c0f6 95bd 3f28 e5bd 53f1 81bd a681 923d
000000b0: 8a55 e83c 5861 9a3d 54ca e5bd 25cd 583d
000000c0: 3a74 d1bc 21f7 e43d a2f5 0dbc bd1d 043d
000000d0: 8f80 a1bc 4d75 9d3d 066c d3bd d652 7dbc
000000e0: e2dc 8d3d 3cc5 963d 3883 25bc cf28 a7bd
000000f0: f45a bfbc 470f 5cbc 1278 2abb 1afc 623d
00000100: b801 c63b 91ff 783d 1ab5 ffbd 7c1a f53b
00000110: 4fca 3fbc 6551 0f3d 55da a5bd f102 c6bd
00000120: cfc3 bf3c 7c5b 17bd d49a a03d b9e6 583c
00000130: 02cd 01bd 928c 933c c974 e93c cdb0 b33c
00000140: 51fc 20be 1998 72bd 2d2f 01be 80a3 c73d
00000150: 9aa5 aebc c2d0 923b ae2e 803d a159 963d
00000160: ab92 c0bd 3f2c 603b d9a2 f23c e2ec 0e3d
00000170: 6289 c43c 57c1 4c3d 4fd2 64bc 1402 abbc
00000180: e262 28bd 8fb6 3f3d 0c0d efbd 17e2 3bbd
00000190: 8934 963d ea0b 033e aa7a 98bd 0fd4 2a3d
000001a0: 41eb 713d 30ce 74bd 7ff6 fd3d 4ba1 a638
000001b0: 8631 023c 90ea 45bd 8ad1 103d 9d2d f3bc
000001c0: a564 be3d 19c9 a4bc 4ca7 ad3d 41e9 2c3c
000001d0: 8804 89bd e352 eebd bda9 463d 7460 bfbc
000001e0: 52fa 0dbd d3cf 91bd dcb9 b3bd 1e60 56bc
000001f0: 5aec 273a b62c b03d 7bc8 103d 95f9 c03d
00000200: f5bc d2bc c7e5 d83d 2e07 63bc 5590 f8bc
00000210: 4764 a93c b0ff 72bc 1942 c93a 9abc e6ba
00000220: 96ec 85bc f8e4 d13c 505f 28be 7896 863b
00000230: 1377 44bd 07b9 263d 8d2d 823d 19f7 06bd
00000240: 3f31 fc3c 4e20 debd 1fdd 8d3d e4ee a93d
00000250: 18d8 a63c 60a2 763d 7544 3abc a4bc b43d
00000260: a35e 1c3b c05d 013d e922 5b3c 9be9 3dbd
00000270: 0a21 8a3b 1571 f43d d684 53bc 05e1 bbbd
00000280: 6346 5e3c c76a 9d3d ae3e 423d 80e2 003d
00000290: 61f5 073d 3246 96bd 0f37 50bc ee99 843d
000002a0: afe6 443d 2f69 78bd 7cf9 6e3d 8172 433d
000002b0: 526e b6bd d31e 8bbd d465 5cbc f504 a53c
000002c0: 50f5 7dbc 7631 33bd c01f 8e3d db08 163c
000002d0: d2fd b73d b474 edbb 3c59 933d 4456 853d
000002e0: 560d 123d 0517 8a3b a98e 403d 5919 d6bd
000002f0: 06bc 3abd 1b3c 89bd 4fe4 cd3d 5b9e 993d
00000300: c96a 90bd b988 233d bf7e c4bc 67f3 e1bc
00000310: 6d20 653c f2ac 853c bcba 833d a978 f13c
00000320: 0ceb 2c3d 6037 233c 8a8d 1a3d 3367 c6bc
00000330: b1a7 0c3d 3205 b73c a52b 803d a3aa 0a3c
00000340: 4a27 d2bc 5803 4f3d 2cb0 653d 77ca 53bd
00000350: a2f3 b3bc f334 083c 676d bcbd e0d6 aa3d
00000360: 7661 17be 7b7b 963b 2d47 3ebd 2c9b bf3c
00000370: 00a9 0b3d 7885 d63d 6a8a a8bd 808f de3b
00000380: bc87 43bc bd5f eb3b 8dbc 093c 13f8 3abd
00000390: e773 ef3b adbf 0bbd d06d 01bd 9960 963d
000003a0: 6e42 ab3d 7757 373d bb29 1d3c ac8b 153e
000003b0: 160f fbbd 9413 3bbd e8ee a5bc 309d a1bd
000003c0: ff3f 13bc b6d7 30be 5512 d63c 0cf5 e7bc
000003d0: 1ea2 e53d a07f 0f3e c4bc 2d3b 063d dbbd
000003e0: 5872 95bc 5338 62bc e3ee bfbb 5328 32bb
000003f0: b6c3 ad3d 77ea 8b3d b191 203d b9c9 3ebc

network_body._body_endoder.seq_layers.4.bias f4 [256]
-0.020095201 -0.029912442 0.01874905 0.0071815555 -0.033488754 -0.014325121 0.003922889 -0.011883986
0.011091038 0.0014342408 -0.025439959 0.017739858 -0.0064193592 0.0009803302 -0.009187696 0.004148837
0.026221352 0.016144577 0.014810249 0.017913355 0.033083953 -0.0021348468 -0.034243174 -0.0012929712
-0.015438373 0.005615407 -0.013271076 0.0089379735 -0.02108456 -0.028732486 0.00023662082 -0.009122093
-0.0037577865 -0.009058104 0.025836933 -0.0010483535 0.032291926 0.0030171908 -0.005497541 0.007131524
-0.00847384 0.0023956154 -0.012262373 -0.00020113612 0.006858968 0.045132957 0.017669963 -0.018255554
-0.0263156 -0.0032060756 0.021562673 -0.009525881 0.03698985 0.025519859 0.03218385 0.00975771
-0.009666199 -0.020688305 -0.025003625 0.02214569 0.008416055 -0.0119494395 0.0009046673 0.014893588
0.011072173 0.02337517 0.001987874 -0.02145892 0.013068627 -0.024049869 -0.0010907142 0.0453077
-0.010976972 -0.008500843 -0.025219627 0.00011543633 -0.0017414561 0.0042951563 -0.0062218267 0.0032582423
0.00021697421 -0.013360694 -0.00895695 0.017067414 0.019641304 0.0006478325 -0.00017250163 0.0044914405
-0.016730055 0.00982763 0.006253476 -0.0048827534 -0.016505072 0.021787291 0.003223746 0.0014457693
0.008781331 -0.018412001 0.007497108 -0.017506523 0.008003619 -0.00903054 -0.0005108432 0.007604725
0.026652351 0.015765388 -0.009864039 0.040931407 0.006796413 -0.004825088 -0.01649203 -0.00742762
0.0066594407 -0.021856673 0.019719945 -0.025487982 0.005501845 -0.008159578 0.030191379 0.0012529418
-0.010203942 0.016434304 -0.0027802535 -0.0012818807 0.0024003685 -0.033260807 0.037770737 0.006768432
-0.012650247 0.004609131 0.0046686293 -0.014260477 -0.0073740594 -0.00030530876 -0.013246559 -0.010967374
-0.0026391912 0.008912121 0.013788197 -0.0038946925 0.007002487 0.03620161 0.015943233 -0.012042742
0.039423805 -0.011400456 0.00027148298 0.018243229 -0.012081523 -0.0031908548 -0.01107884 0.013977453
0.0058122273 0.004646436 -0.019142658 0.0009083947 -0.007133264 0.020256542 0.0063211187 -0.013270218
0.0017207658 0.014166218 0.017407913 -0.0025005678 -0.009001294 -0.022127373 -0.030857002 0.02520056
-0.019989269 0.0014264885 -0.008524151 0.026622044 -0.00070202263 0.008337485 -0.020397544 -0.0006064453
-0.015760414 0.021169215 -0.017001472 0.013336191 -0.018429622 0.022985613 0.0046311812 -0.009445245
-0.00835314 0.012474395 0.004719151 -0.044795092 -0.011628252 0.029061642 0.0019562165 0.022540318
-0.027122254 -0.010867286 -0.014121156 0.008810981 -0.02248209 0.0020544021 -0.0018438911 0.042039447
0.013095098 0.016631966 -0.0061689024 -0.012607968 0.007437658 0.0012982069 0.006499697 0.0063656173
-0.011142328 -0.013695203 -0.014096371 -0.011795621 -0.0023993407 -0.0042248503 0.0003483501 -0.018067628
0.0013408068 0.012410539 -0.026510162 -0.013931394 -0.002702996 -0.0065753916 -0.004786346 -0.0023517928
-0.012812722 -0.015476789 0.0017232227 -0.013505725 -0.0022450073 -0.016630923 0.008670558 0.00048340744
0.015987223 -0.020714497 -0.0017243242 -0.0014458221 0.01585373 0.005366769 -0.0043215784 -0.025738718
-0.008897064 -0.018991057 0.018017877 0.010076586 0.017763903 0.022616802 -0.026147932 -0.011256432
-0.0069296462 -0.010529088 -0.009236866 -0.004294155 -0.021076059 -0.02445991 0.0037166115 0.017795611
00000000: b19e a4bc f00a f5bc 9c97 993c 4153 eb3b
00000010: 812b 09bd eab3 6abc 948b 803b 0db5 42bc
00000020: 2fb7 353c 23fd bb3a 7667 d0bc 2e53 913c
00000030: 7d59 d2bb 6c7e 803a fd87 16bc f8f2 873b
00000040: 29ce d63c a241 843c b0a6 723c 07bf 923c
00000050: 0a83 073d c9e8 0bbb 9242 0cbd ea78 a9ba
00000060: 3bf1 7cbc 7301 b83b ed6e 59bc 9470 123c
00000070: 87b9 acbc 6460 ebbc 6b1d 7839 d574 15bc
00000080: 3245 76bb 7168 14bc faa7 d33c e868 89ba
00000090: 8a44 043d 10bc 453b b724 b4bb 8faf e93b
000000a0: dcd5 0abc c2ff 1c3b 1fe8 48bc 11e8 52b9
000000b0: 32c1 e03b 56dd 383d 99c0 903c ac8c 95bc
000000c0: d093 d7bc 061d 52bb 34a4 b03c 7112 1cbc
000000d0: ab82 173d 060f d13c 36d3 033d cdde 1f3c
000000e0: fa5e 1ebc 857a a9bc 67d4 ccbc e16a b53c
000000f0: 7ee3 093c 95c7 43bc 3227 6d3a 3c04 743c
00000100: 0f68 353c 497d bf3c fe46 023b 9eca afbc
00000110: cb1d 563c 3b04 c5bc 4cf6 8eba 9194 393d
00000120: c2d8 33bc 1f47 0bbc 6499 cebc 6816 f238
00000130: 9241 e4ba 62be 8c3b 77e0 cbbb 3c88 553b
00000140: 9283 6339 d0e6 5abc 2cc0 12bc f6d0 8b3c
00000150: cde6 a03c 4ed3 293a 8ee1 34b9 ef2c 933b
00000160: 780d 89bc 1104 213c f5e9 cc3b 81ff 9fbb
00000170: a535 87bc 437b b23c 7c45 533b f87f bd3a
00000180: 92df 0f3c c4d4 96bc 4daa f53b d769 8fbc
00000190: 9c21 033c d4f4 13bc 1bea 05ba 0f31 f93b
000001a0: 0856 da3c 6a26 813c c79c 21bc b1a7 273d
000001b0: 72b4 de3b c61b 9ebb 4b1a 87bc 6463 f3bb
000001c0: 7037 da3b c40c b3bc b98b a13c 2ccc d0bc
000001d0: d248 b43b c0af 05bc e953 f73c c039 a43a
000001e0: 6f2e 27bc 3ca1 863c ea34 36bb c704 a8ba
000001f0: 804f 1d3b 7c3c 08bd 7db5 1a3d b9c9 dd3b
00000200: fb42 4fbc 3108 973b 4dfb 983b c7a4 69bc
00000210: 18a2 f1bb d911 a0b9 1808 59bc 80b0 33bc
00000220: 48f6 2cbb 2504 123c e4e7 613c 193e 7fbb
00000230: 1e75 e53b 2448 143d 629b 823c ec4e 45bc
00000240: db7a 213d fac8 3abc d455 8e39 d372 953c
00000250: 95f1 45bc a91d 51bb 0684 35bc b001 653c
00000260: 7f74 be3b 2141 983b 10d1 9cbc 5621 6e3a
00000270: 28be e9bb 0cf1 a53c 6321 cf3b 546b 59bc
00000280: 528b e13a 6d19 683c 0a9b 8e3c 91e0 23bb
00000290: 2a7a 13bc 7744 b5bc d3c7 fcbc 6871 ce3c
000002a0: 89c0 a3bc 03f9 ba3a e1a8 0bbc 7916 da3c
000002b0: f107 38ba f299 083c c018 a7bc dbf9 1eba
000002c0: fc1b 81bc 106b ad3c ac46 8bbc 0a80 5a3c
000002d0: b8f9 96bc 534c bc3c 2ac1 973b 3bc0 1abc
000002e0: 9cdb 08bc 6861 4c3c 1ca3 9a3b 0f7b 37bd
000002f0: 6d84 3ebc ae12 ee3c de33 003b 79a6 b83c
00000300: 7d2f debc b30c 32bc 6c5c 67bc ef5b 103c
00000310: 5c2c b8bc 26a3 063b b8ae f1ba 8e31 2c3d
00000320: d28c 563c c33f 883c 8124 cabb a791 4ebc
00000330: 99b7 f33b 9828 aa3a 69fb d43b ab96 d03b
00000340: 508e 36bc d861 60bc 77f4 66bc 6c42 41bc
00000350: 423e 1dbb 9d70 8abb c2a2 b639 9002 94bc
00000360: 03be af3a 9355 4b3c d72b d9bc 8040 64bc
00000370: bf24 31bb 6276 d7bb c8d6 9cbb 8920 1abb
00000380: 73ec 51bc 5c92 7dbc c2dd e13a 1e47 5dbc
00000390: f920 13bb 933d 88bc f50e 0e3c d971 fd39
000003a0: a3f7 823c 73b1 a9bc b802 e2ba bd81 bdba
000003b0: aedf 813c b9db af3b 079c 8dbb 01da d2bc
000003c0: fec4 11bc 2293 9bbc 3a9a 933c 4418 253c
000003d0: 9b85 913c df46 b93c 3034 d6bc e66c 38bc
000003e0: 1612 e3bb 3282 2cbc 3956 17bc fcb5 8cbb
000003f0: b3a7 acbc 2660 c8bc 6592 733b 1ac8 913c

action_model._continuous_distribution.log_sigma f4 [1, 2]
-0.37531814 -0.19759531
00000000: b329 c0be 6d56 4abe

action_model._continuous_distribution.mu.weight f4 [2, 64]
-0.1484153 0.0365776 -0.28377658 -0.08010161 -0.057179477 -0.06527946 -0.019151336 -0.03432825
-0.04742843 -0.08899721 0.1271419 -0.09941997 -0.13803229 0.24229789 0.08564445 -0.059774924
0.087632775 -0.039916135 0.09021724 0.048033074 0.20830564 0.40489092 -0.13540074 -0.022268582
0.18495008 -0.02998011 -0.058658022 0.119821295 0.11012675 0.067300126 0.035984587 -0.19006431
-0.022233179 -0.05072312 0.104105406 0.14659965 0.18426722 0.07867144 -0.09388848 0.13038912
0.025994426 -0.22703761 0.18273325 -0.0109458165 0.04053451 -0.088956274 0.0046556676 -0.13044333
-0.22165696 0.506898 0.021743929 0.03892039 0.0008141652 0.030146124 0.08101135 0.11509886
0.05215629 0.10536838 0.32655025 -0.020869698 0.33322397 -0.16921896 -0.08619247 -0.13774489
-0.2078976 0.20819107 -0.23425615 0.027729657 0.16250353 -0.1849669 0.10182882 -0.204236
-0.10186273 -0.20922203 -0.17866407 -0.049986288 0.12248592 0.15909933 -0.099731795 0.023572167
0.05537312 -0.10400112 -0.046442304 0.16795373 0.16530856 0.2294899 -0.10526716 -0.14065158
0.062706105 0.14737783 0.21715756 0.069244 0.1707737 -0.1271127 0.11244739 -0.2903138
-0.285273 -0.16175047 0.071617186 -0.057554636 0.17553109 0.15367782 -0.1791754 -0.048327312
0.046688423 0.07712779 -0.030551177 -0.10496643 0.122168116 0.16926526 -0.10548198 -0.077769
-0.20810339 0.2883892 0.2060348 -0.08319283 -0.08464657 -0.030206123 -0.086894915 0.041985475
0.17651929 0.07305298 0.07909591 0.026326846 -0.074565575 0.059626885 -0.13098356 -0.093278125
00000000: 2efa 17be 65d2 153d 2a4b 91be 500c a4bd
00000010: 0735 6abd 3db1 85bd 43e3 9cbc c79b 0cbd
00000020: 5044 42bd 2b44 b6bd 7c31 023e b29c cbbd
00000030: 5658 0dbe f01c 783e 5b66 af3d 8dd6 74bd
00000040: d078 b33d 1a7f 23bd d1c3 b83d 54be 443d
00000050: 134e 553e dd4d cf3e 7ea6 0abe 9a6c b6bc
00000060: 8e63 3d3e d998 f5bc 6543 70bd de64 f53d
00000070: 228a e13d a6d4 893d 9364 133d 38a0 42be
00000080: 5b22 b6bc 0cc3 4fbd 3735 d53d 381e 163e
00000090: 8cb0 3c3e 7e1e a13d 9a48 c0bd ba84 053e
000000a0: 43f2 d43c 8c7c 68be 6d1e 3b3e 1556 33bc
000000b0: 8407 263d b52e b6bd 928e 983b f092 05be
000000c0: 0bfa 62be 11c4 013f 5320 b23c fd6a 1f3d
000000d0: b46d 553a 01f5 f63c 47e9 a53d f3b8 eb3d
000000e0: d5a1 553d 61cb d73d 9831 a73e eef6 aabc
000000f0: 559c aa3e bc47 2dbe ad85 b0bd ff0c 0dbe
00000100: 1ce3 54be 0a30 553e d8e0 6fbe 4e29 e33c
00000110: 5367 263e f767 3dbe a18b d03d 3e23 51be
00000120: 689d d0bd 4d3e 56be b7f3 36be 6cbe 4cbd
00000130: e6d9 fa3d efea 223e 2f40 ccbd 6b1a c13c
00000140: edce 623d 8afe d4bd 493a 3ebd 10fc 2b3e
00000150: a646 293e 66ff 6a3e 4f96 d7bd f806 10be
00000160: 0f6c 803d 37ea 163e 8d5e 5e3e cccf 8d3d
00000170: 4ddf 2e3e d529 02be d14a e63d 03a4 94be
00000180: 4d0f 92be eaa1 25be 08ac 923d 69be 6bbd
00000190: 6cbe 333e b85d 1d3e c279 37be dcf2 45bd
000001a0: 5c3c 3f3d 2df5 9d3d 7646 fabc a4f8 d6bd
000001b0: 4733 fa3d df53 2d3e f006 d8bd 5a45 9fbd
000001c0: 0e19 55be c0a7 933e c9fa 523e 0161 aabd
000001d0: 2e5b adbd d572 f7bc f6f5 b1bd f6f8 2b3d
000001e0: 79c1 343e cd9c 953d 09fd a13d 66ab d73c
000001f0: d6b5 98bd 523b 743d 8e20 06be 9a08 bfbd

action_model._continuous_distribution.mu.bias f4 [2]
-0.057115998 -0.097365014
00000000: 77f2 69bd 4f67 c7bd

onnx::LSTM_102 f4 [1, 256, 256]
0.09087471 -0.11838583 0.10707002 0.09475239 -0.08199931 -0.13996191 -0.049230922 0.1324933
0.05898009 0.11953042 0.03368401 -0.12374619 -0.076588266 -0.036829464 -0.07887472 0.034650464
-0.02450105 0.09749838 -0.08921998 -0.0872966 0.08904062 -0.13905348 -0.05310133 -0.025923492
0.015519398 -0.00882497 -0.13539264 -0.08919622 0.043682773 0.03625685 -0.008355106 0.009692104
-0.12038749 0.056976616 0.10628834 -0.06831737 0.09703184 0.12931648 -0.03443151 -0.14154805
0.116317995 0.13358463 0.102557644 0.1415199 -0.01718054 -0.08534952 -0.10577016 -0.0113902
0.11968704 0.118199475 -0.07540712 -0.022851478 0.09930942 0.11359595 -0.069056824 -0.08642877
-0.039495014 0.07787871 0.06497586 -0.075786166 -0.12953721 -0.13757032 -0.07682497 0.079022884
-0.09141278 0.037001003 0.09909647 -0.07322631 0.0057333317 0.012903256 -0.02813454 0.015043655
-0.06795589 -0.014438109 0.070143044 -0.10652543 0.08307765 -0.068261005 -0.0767265 0.103018425
0.041135006 -0.10917773 0.0035005135 -0.0361698 0.0186514 0.078644864 0.06616557 -0.04108748
0.10568406 0.016778411 0.1418428 0.09621526 0.03129383 0.019785868 -0.09452326 0.017191691
-0.047366448 0.04948034 0.041543715 -0.13044794 0.023653833 -0.068212576 0.12357146 0.108603366
0.114172235 -0.09876257 0.1437766 0.072363876 -0.02299573 -0.13312821 -0.1123672 -0.032029692
-0.06494943 -0.11522753 0.04567978 -0.028557248 -0.04582156 0.104494914 -0.03564361 -0.07649563
0.14374365 -0.09032282 0.073205546 -0.06813042 0.122722566 0.03312874 -0.089065924 -0.011705707
-0.058963835 0.07222081 0.05541837 0.10016233 -0.031972498 -0.11829051 -0.031009866 0.0031810733
-0.084496796 -0.09323487 0.110385075 0.0775516 0.01604597 0.02761107 0.102985054 -0.06600402
0.10301851 0.05845558 0.030428072 0.04254297 -0.16046458 -0.037057508 -0.13060035 -0.13430005
0.10782852 -0.039517667 -0.07403898 -0.035320587 0.12582478 0.002442714 -0.051752824 -0.056631368
-0.041576166 -0.06753682 -0.043652803 0.11136885 0.0057532275 -0.13682282 -0.024562368 -0.10905246
0.1099825 0.103648864 0.028444298 -0.06524522 0.11445566 -0.0024210545 -0.07304785 0.10302595
0.08534891 0.0022357109 -0.07716282 0.10025827 0.046211336 0.11411771 -0.07800089 0.034848616
-0.05781983 -0.006636567 0.057311486 0.129841 -0.022255808 0.015090596 -0.044486597 -0.009441444
-0.039687794 -0.07679971 -0.021024821 0.059599392 -0.0061721313 -0.11302026 0.06709019 0.10784817
-0.06319151 -0.10834383 -0.03307788 -0.090395965 0.08296902 0.038705483 0.06110479 0.03397706
0.04273333 0.010049959 -0.08298572 0.10314219 -0.042880002 0.032468364 -0.05466235 0.0910974
0.12489712 -0.0551045 0.13658099 0.111437656 -0.048803683 -0.022140007 0.061316926 0.14171991
-0.035632767 0.078128286 0.03428716 -0.064635664 0.02157943 -0.06902473 -0.00593601 -0.0040839026
0.04939093 0.11170285 -0.11985524 0.13614622 -0.004682048 -0.037903175 -0.11609507 -0.01654481
-0.09091441 0.08028356 0.027360702 -0.12434538 0.13202415 -0.05702479 0.07945164 0.093998134
0.023844833 -0.021743638 -0.018435603 -0.13706824 -0.11970613 0.083296895 0.11524048 0.14736484
00000000: 851c ba3d 4574 f2bd 8747 db3d 8b0d c23d
00000010: 41ef a7bd 2d52 0fbe 5da6 49bd 53ac 073e
00000020: 1b95 713d 5dcc f43d 3ff8 093d a46e fdbd
00000030: 4fda 9cbd 7eda 16bd 1289 a1bd a5ed 0d3d
00000040: 6db6 c8bc 3bad c73d f7b8 b6bd 8fc8 b2bd
00000050: ee5a b63d 0964 0ebe c880 59bd 815d d4bc
00000060: 1345 7e3c 9b96 10bc 5ea4 0abe 82ac b6bd
00000070: b5ec 323d 1082 143d dbe3 08bc a1cb 1e3c
00000080: b78d f6bd 5060 693d b4ad d93d fae9 8bbd
00000090: a1b8 c63d 8a6b 043e 0e08 0dbd f9f1 10be
000000a0: 2138 ee3d 69ca 083e be09 d23d 98ea 103e
000000b0: 34be 8cbc bbcb aebd 079e d8bd f69d 3abc
000000c0: 7b1e f53d 9112 f23d 0c6f 9abd 0633 bbbc
000000d0: bd62 cb3d fea4 e83d aa6d 8dbd 9101 b1bd
000000e0: 86c5 21bd e07e 9f3d 1012 853d c735 9bbd
000000f0: 67a5 04be 3cdf 0cbe 6956 9dbd c0d6 a13d
00000100: a036 bbbd 5d8e 173d 17f3 ca3d adf7 95bd
00000110: acde bb3b 2e68 533c 687a e6bc aa79 763c
00000120: 752c 8bbd d18d 6cbc 28a7 8f3d 012a dabd
00000130: 9d24 aa3d 6dcc 8bbd c922 9dbd 53fb d23d
00000140: 2e7d 283d 9398 dfbd df68 653b c926 14bd
00000150: d2ca 983c 8f10 a13d d081 873d 584b 28bd
00000160: e270 d83d e172 893c 3d3f 113e 820c c53d
00000170: f62d 003d f915 a23c 6995 c1bd 97d5 8c3c
00000180: 5203 42bd e6ab 4a3d be29 2a3d 2594 05be
00000190: afc5 c13c 09b3 8bbd 0913 fd3d 716b de3d
000001a0: 22d3 e93d 0844 cabd 2c3a 133e 8333 943d
000001b0: 8b61 bcbc c352 08be c620 e6bd 9131 03bd
000001c0: 3504 85bd 69fc ebbd b91a 3b3d e4f0 e9bc
000001d0: 63af 3bbd 6e01 d63d 09ff 11bd bea9 9cbd
000001e0: 8931 133e 2cfb b8bd caec 953d f687 8bbd
000001f0: f855 fb3d 00b2 073d 3268 b6bd 4bc9 3fbc
00000200: 1084 71bd 81e8 933d 5ffe 623d e821 cd3d
00000210: 98f5 02bd 4b42 f2bd 6708 febc 8e79 503b
00000220: a80c adbd ecf1 bebd 9211 e23d 60d3 9e3d
00000230: d772 833c 9c30 e23c d4e9 d23d 1e2d 87bd
00000240: 5efb d23d 1e6f 6f3d 4b44 f93c 8a41 2e3d
00000250: d450 24be 9dc9 17bd 19bc 05be f485 09be
00000260: 33d5 dc3d 47dd 21bd c0a1 97bd 52ac 10bd
00000270: 36d8 003e f115 203b c5fa 53bd 4bf6 67bd
00000280: c54b 2abd bf50 8abd 48cd 32bd 5a15 e43d
00000290: 9285 bc3b 481b 0cbe 0537 c9bc e556 dfbd
000002a0: 813e e13d db45 d43d 0404 e93c 499f 85bd
000002b0: bb67 ea3d 8eaa 1ebb 1c9a 95bd 45ff d23d
000002c0: 69cb ae3d 0185 123b 8a07 9ebd 3554 cd3d
000002d0: 1948 3d3d 8cb6 e93d eebe 9fbd 6cbd 0e3d
000002e0: 7cd4 6cbd 8f77 d9bb 73bf 6a3d 0af5 043e
000002f0: d051 b6bc 8c3e 773c 9437 36bd 49b0 1abc
00000300: ab8f 22bd 2b49 9dbd 3f3c acbc 7e1e 743d
00000310: 973f cabb 2b77 e7bd 9566 893d 80df dc3d
00000320: 8d6a 81bd 5fe3 ddbd ac7c 07bd 8521 b9bd
00000330: a9eb a93d a489 1e3d 0449 7a3d 882b 0b3d
00000340: 2509 2f3d 95a8 243c 6bf4 a9bd 363c d33d
00000350: f1a2 2fbd 8cfd 043d a1e5 5fbd 4691 ba3d
00000360: 10ca ff3d 42b5 61bd e3db 0b3e 6d39 e43d
00000370: 5fe6 47bd f65e b5bc 7527 7b3d 061f 113e
00000380: aaf3 11bd b901 a03d b170 0c3d b45f 84bd
00000390: 58c7 b03c d65c 8dbd dc82 c2bb 42d2 85bb
000003a0: 254e 4a3d 77c4 e43d aa76 f5bd ea69 0b3e
000003b0: de6b 99bb 5c40 1bbd 41c3 edbd fb88 87bc
000003c0: 5631 babd b56b a43d 8d23 e03c caa8 febd
000003d0: 5731 073e d492 69bd 8bb7 a23d 1882 c03d
000003e0: 3d56 c33c b71f b2bc 4306 97bc 9e5b 0cbe
000003f0: 7d28 f5bd 9097 aa3d 3303 ec3d cfe6 163e
