results/Abstract1/bachelor/bachelor-32499983.onnx (onnx, 872319 bytes, 12 tensors)

network_body._body_endoder.seq_layers.0.weight f4 [256, 7]
0	0xbe8af4e4	-0.27139962
1	0xbf4fc97e	-0.8116683
2	0x3dfdd2d1	0.12393726
3	0xbeb5aeb7	-0.3548486
4	0xbeedb5c7	-0.46427748
5	0x3e1935d4	0.1496194
6	0xbe808f4b	-0.25109324
7	0xbe759e80	-0.23986244
8	0xbdedc3b3	-0.11609592
9	0xbf0a9d8a	-0.54146636
10	0xbef17741	-0.47161296
11	0xbf20adc8	-0.6276517
12	0xbf37d10c	-0.71803355
13	0xbf00d8a1	-0.5033055
14	0x3d249242	0.040178545
15	0x3f72fd5d	0.9491785
16	0x3f171d8a	0.5902945
17	0x3e049e70	0.12951064
18	0x3f4067e3	0.7515852
19	0xbf38e0f9	-0.7221828
20	0x3e5bf812	0.2148135
21	0x3e0bf26a	0.13666692
22	0x3eb8d873	0.36102638
23	0x3e47cb0b	0.19511048
24	0x3e13eb22	0.14445165
25	0xbe6f0492	-0.23341587
26	0x3e0d4290	0.13794923
27	0x3cbc2f35	0.022971729
28	0x3ebe4c5b	0.3716763
29	0x3ecb9c3a	0.3976763
30	0x3f17b61d	0.5926226
31	0xbeb028ed	-0.34406224
32	0x3e3d2367	0.18470536
33	0x3e03ee44	0.1288386
34	0xbe90bf07	-0.28270742
35	0xbebe7142	-0.37195784
36	0xbcbda5e8	-0.0231504
37	0x3c99d905	0.01878024
38	0x3dad6c2d	0.084678985
39	0xbbbc27cb	-0.0057420484
40	0xbee57a2b	-0.4481977
41	0x3b68ba3b	0.0035511393
42	0xbe75c190	-0.2399962
43	0xbd38dd98	-0.045133203
44	0x3f2f2a1d	0.68423635
45	0xbef8e27e	-0.486103
46	0xbf364212	-0.71194565
47	0x3d98d636	0.074627325
48	0xbefa8286	-0.48927706
49	0xbb248ae3	-0.0025107197
50	0x3ed64404	0.41848767
51	0x3d309b60	0.043116927
52	0xbe18b2b5	-0.14911921
53	0x3e42e7ed	0.19033785
54	0xbd46e5e1	-0.048559073
55	0xbe163e2d	-0.14672156
56	0xbebb12e5	-0.36537853
57	0x3f0f8e0e	0.56076133
58	0x3e6c4022	0.2307134
59	0xbed6a744	-0.4192449
60	0x3cc2a76e	0.023761477
61	0x3e28d188	0.1648618
62	0x3eec14d7	0.4610965
63	0xbed3eaed	-0.41390172
64	0xbedfa71a	-0.43682176
65	0x3d622d89	0.055219207
66	0x3eda9995	0.426953
67	0xbefe1242	-0.49623305
68	0xbf668f13	-0.90062064
69	0xbf099fc9	-0.5375944
70	0xbf42b702	-0.760605
71	0x3ebdb676	0.3705327
72	0xbf16d66e	-0.58920944
73	0x3ea38404	0.31936657
74	0xbd6bf357	-0.057605114
75	0x3e71a99c	0.23599857
76	0x3f315a2e	0.6927823
77	0xbf2c3409	-0.672669
78	0x3ede367d	0.43400946
79	0x3d4610bf	0.048355814
80	0xbf117192	-0.5681392
81	0xbf1da3cf	-0.6157808
82	0xbe6847b7	-0.22683607
83	0xbf0c5b7e	-0.54827106
84	0x3f65f525	0.89827186
85	0x3e89de4b	0.2692741
86	0xbe040bbb	-0.128951
87	0xbe43845d	-0.19093461
88	0xbed3663e	-0.41288942
89	0x3f1853a9	0.59502655
90	0x3ee5d38a	0.44887954
91	0xbdc2eab8	-0.09517425
92	0xbec0969c	-0.37614906
93	0xbe6fd503	-0.23421101
94	0xbebf24a9	-0.37332657
95	0xbb904d61	-0.0044037555
96	0xbdd06278	-0.101750314
97	0xbe367319	-0.17817344
98	0xbe348c78	-0.1763171
99	0xbe357bbd	-0.17722984
100	0xbea94261	-0.33058456
101	0xbeea4b19	-0.4576042
102	0x3eba1af5	0.36348692
103	0xbe259c82	-0.16172984
104	0xbf3cbe8d	-0.7372826
105	0xbd98b529	-0.074564286
106	0xbefef978	-0.49799705
107	0xbcebc683	-0.028781181
108	0xbe1b03ce	-0.1513817
109	0x3ce92603	0.028460508
110	0x3e8d8658	0.2764156
111	0xbecb59d0	-0.3971696
112	0x3e95b849	0.2924216
113	0x3e3d1d7c	0.18468279
114	0x3ea67c7b	0.32516846
115	0x3e336ec4	0.17522722
116	0xbeecc2fa	-0.46242505
117	0xbcee1b00	-0.029065609
118	0xbf15e44d	-0.58551484
119	0xbde0c25c	-0.10974571
120	0xbf4be6e5	-0.7964919
121	0x3eec2aed	0.461265
122	0x3eb1228e	0.34596676
123	0x3f0eb07c	0.55738044
124	0x3ef1dc74	0.47238505
125	0xbef349c3	-0.47517213
126	0x3e865483	0.26236352
127	0xbf6d2492	-0.92633927
128	0xbe5491f2	-0.20758799
129	0x3c603c7a	0.013686294
130	0xbe0b6371	-0.13612153
131	0x3ed01592	0.40641457
132	0x3e93c779	0.28863123
133	0x3d8671c8	0.06564671
134	0xbf53d7e7	-0.82751316
135	0xbdd8ad11	-0.10579885
136	0x3e23cd79	0.1599635
137	0xbc5cac31	-0.013468788
138	0xbe260fd2	-0.16216972
139	0xbde042ae	-0.10950218
140	0xbe2551c1	-0.16144468
141	0x3ec428c7	0.3831236
142	0xbee9749c	-0.45596778
143	0x3f3dc4ef	0.7412862
144	0x3b900eb3	0.0043962835
145	0x3d68747c	0.056751713
146	0xbf1aeafb	-0.605148
147	0xbda7bbf2	-0.081901446
148	0xbf1f214a	-0.6216017
149	0xbee45108	-0.44593072
150	0x3e4d301c	0.20037884
151	0xbf50efe0	-0.8161602
152	0xbde1d20e	-0.11026393
153	0xbf4b17e3	-0.79333323
154	0x3c4362ab	0.01192538
155	0xbd8d10ef	-0.068879955
156	0xbde980a0	-0.114014864
157	0x3e1b091a	0.1514019
158	0x3eb99189	0.36243847
159	0xbd116bdd	-0.035503257
160	0xbe7ec40d	-0.24879475
161	0x3e896d80	0.26841354
162	0x3f07017f	0.5273666
163	0x3eaa5464	0.3326751
164	0xbdc6d00e	-0.09707652
165	0xbe63274d	-0.22182961
166	0x3f44a2e9	0.7681108
167	0x3f0e051b	0.5547654
168	0x3f5499be	0.8304709
169	0x3ecfc024	0.4057628
170	0xbdd0e2b1	-0.10199488
171	0x3edd52b1	0.4322715
172	0x3cdeec1f	0.0272122
173	0xbe17a14f	-0.14807628
174	0x3f54b959	0.8309532
175	0x3e5dfdbd	0.21678825
176	0x3d731b74	0.059352353
177	0x3eec1969	0.46113136
178	0xbec0cef8	-0.37657905
179	0xbe0f2289	-0.13978018
180	0xbef1bc27	-0.4721386
181	0xbeb1150d	-0.34586373
182	0xbd4b10b2	-0.04957647
183	0x3e939302	0.28823096
184	0x3e4073ff	0.18794249
185	0xbe8e21ae	-0.2776007
186	0x3eae5006	0.34045428
187	0xbf453999	-0.7704101
188	0x3f27053c	0.6524236
189	0x3f2a3f41	0.6650277
190	0x3f26c72b	0.65147656
191	0xbe593af3	-0.21213894
192	0xbf018671	-0.50595766
193	0x3e54cb05	0.20780571
194	0x3e55a33e	0.20863053
195	0x3eb9df87	0.3630335
196	0xbeccdc01	-0.400116
197	0xbf02cf4c	-0.5109756
198	0xbe5548f5	-0.20828612
199	0x3e5e692c	0.21719807
200	0x3e04d413	0.12971525
201	0xbe8353db	-0.25649914
202	0x3dcfcd4c	0.10146579
203	0x3e831449	0.25601414
204	0xbee84183	-0.4536248
205	0xbe7192d5	-0.23591168
206	0xbedd1de1	-0.43186858
207	0xbecbd1b9	-0.39808443
208	0xbedd42d5	-0.4321505
209	0xbee7ac2a	-0.45248538
210	0x3f02319c	0.5085695
211	0xbe5a7494	-0.21333534
212	0xbeb5e0ce	-0.35523075
213	0xbe9dcd57	-0.30820724
214	0x3f059645	0.5218242
215	0xbf0920cd	-0.53565675
216	0x3d4d49a6	0.050119065
217	0xbf23d60d	-0.6399849
218	0x3f4e3943	0.80556124
219	0xbe99520d	-0.29945412
220	0x3e3abe0b	0.18236558
221	0x3d0b437f	0.033999916
222	0x3dcde58e	0.1005355
223	0x3f113a80	0.5672989
224	0xbe2ba0f9	-0.16760625
225	0xbf2f868f	-0.68564695
226	0x3eda2ea5	0.42613712
227	0x3f03da34	0.51504827
228	0xbed30c40	-0.41220284
229	0xbf18fe34	-0.59762883
230	0x3e402938	0.18765724
231	0x3f0b826d	0.5449589
232	0x3e618a04	0.22025305
233	0x3e53a609	0.20668806
234	0x3eca34c8	0.39493394
235	0x3f1375d7	0.57601684
236	0x3e09b1c5	0.1344672
237	0x3ea1fe44	0.31639302
238	0xbe15af0f	-0.14617561
239	0x3ea73865	0.32660213
240	0xbe8c056f	-0.27347896
241	0x3e8be197	0.2732055
242	0x3ebf73d8	0.3739307
243	0xbbe8f072	-0.0071087414
244	0xbed9bacd	-0.4252533
245	0x3e709260	0.23493338
246	0x3dbb46b4	0.09144345
247	0x3d5802dc	0.052737102
248	0x3d668dd0	0.056287587
249	0xbe5a69d5	-0.21329434
250	0x3eb267f3	0.34844932
251	0xbe5b3ed3	-0.21410684
252	0x3f45b3b6	0.7722734
253	0x3dc305ac	0.09522566
254	0x3f073357	0.52812713
255	0x3ee4be9f	0.44676682

network_body._body_endoder.seq_layers.0.bias f4 [256]
0	0xbbd3ff65	-0.0064696544
1	0x3c20300c	0.00977708
2	0xbb6ae43e	-0.003584161
3	0xbc0d6009	-0.008628854
4	0xbc2eae4b	-0.010661672
5	0x3bb9fdd7	0.005676012
6	0x3cfd8f4d	0.03095212
7	0xba57e9c3	-0.00082364323
8	0x3cd099c4	0.025463946
9	0xbc6c4c6b	-0.014422516
10	0x3c9911ee	0.018685307
11	0x3cdc29f9	0.026875483
12	0xbaa58bf4	-0.001263021
13	0xbbef1a41	-0.007296831
14	0xbbd53ef3	-0.0065077483
15	0xbc0e740f	-0.008694663
16	0x3bbe6f24	0.005811589
17	0x3ca6ecff	0.02037668
18	0xbae79468	-0.001766813
19	0xbac6ddae	-0.0015172267
20	0xbcab67e6	-0.020923566
21	0x3c78d163	0.01518664
22	0xbc012107	-0.0078814095
23	0x3c3f413c	0.011673268
24	0x3c326cce	0.010890199
25	0x3aace166	0.0013189733
26	0x3c8d73ee	0.017267194
27	0x3cd43c42	0.02590764
28	0xbc47afe0	-0.012187928
29	0x3bfd7f56	0.007736127
30	0xbc384a72	-0.011248218
31	0x3c4fdd0a	0.012686977
32	0xbb8ea829	-0.0043535423
33	0xbc878137	-0.016541107
34	0x3c901f3b	0.017593017
35	0x3c2fda90	0.010733262
36	0xbc296d2d	-0.010340971
37	0x3c72a998	0.014810942
38	0x3c5a64a8	0.013329662
39	0xbc2e50bc	-0.010639366
40	0x3ba69cf0	0.0050846264
41	0x3b03dc43	0.00201203
42	0xbac2db90	-0.001486646
43	0xbc4e9c20	-0.012610465
44	0x3a4f0b78	0.00078981323
45	0xbba24474	-0.004952008
46	0xbc249fc9	-0.010047861
47	0xbcabc98a	-0.020970125
48	0x3c66c850	0.014085844
49	0x3c20c09e	0.0098115485
50	0x3bbf06a2	0.005829648
51	0xbc903149	-0.017601626
52	0x3c514ae6	0.012774205
53	0x3cad1972	0.021130297
54	0x3c8536cb	0.016261479
55	0x3c649126	0.013950622
56	0x3c69cfb5	0.014270713
57	0x3b86f48c	0.0041185077
58	0xbc8bc9d4	-0.017064013
59	0x3c13b160	0.009014457
60	0x3ba0ba96	0.0049050553
61	0xbaab403b	-0.0013065407
62	0x3c22d753	0.009939033
63	0xbb016c4a	-0.0019748383
64	0x3cd5eb33	0.026113128
65	0xbca1355a	-0.01967876
66	0x3bb1fa9e	0.005431487
67	0x3bfdace1	0.007741556
68	0xbbfb57b9	-0.0076703695
69	0x3abb795e	0.0014303138
70	0x3abb2102	0.0014276805
71	0xbc6005f8	-0.013673298
72	0x3c4743c6	0.012162155
73	0x3c0919b8	0.008367948
74	0xbca833c3	-0.020532494
75	0xbc9c76ca	-0.019099612
76	0xbc5f64c2	-0.013634862
77	0xbcb705dd	-0.022341663
78	0x3cbdaa10	0.023152381
79	0xbc95ec56	-0.01830117
80	0xbc9c922d	-0.01911267
81	0xbc645fdb	-0.013938869
82	0xba5619e6	-0.00081673113
83	0xbc82a421	-0.015947403
84	0xbc10d609	-0.008840092
85	0xbc0b50b5	-0.008503129
86	0xbca5f1f0	-0.020256966
87	0x3b810889	0.003937785
88	0x3b628c2a	0.0034568408
89	0xbc115325	-0.008869921
90	0xbbad05ab	-0.0052802167
91	0xbb318681	-0.0027088227
92	0x3cce7fc5	0.02520741
93	0x3c59a303	0.013283494
94	0xbc376eab	-0.011195819
95	0x3cfda636	0.030963045
96	0x3bfdc933	0.007744932
97	0xbbc14ffa	-0.0058994265
98	0x3a022349	0.00049643643
99	0x3bcd0d2d	0.006257674
100	0x3c13ee46	0.009028977
101	0xbc57bf89	-0.013168224
102	0x3c90b6e7	0.01766534
103	0x3c90e982	0.01768947
104	0x3b377e6e	0.0027998942
105	0x3b5ef16d	0.0034018413
106	0xbc70aa59	-0.014689052
107	0xbbe9c16c	-0.0071336534
108	0x3b36cc4c	0.0027892767
109	0xbbfca3bf	-0.0077099497
110	0xbb44d34d	-0.0030033172
111	0x3be36ca4	0.006940441
112	0x3a4452e7	0.000748916
113	0xbc7c4d16	-0.015399238
114	0xbc541f4b	-0.012946914
115	0x3cb714f8	0.022348866
116	0x3c3f7247	0.011684961
117	0xbc7bedcd	-0.01537652
118	0xbcaca47c	-0.021074526
119	0x3c5da724	0.013528619
120	0x3b02c4d5	0.0019953747
121	0xbbd1a7dd	-0.0063981847
122	0x3c85e419	0.016344117
123	0xbaf53f13	-0.0018710814
124	0xbbb3061a	-0.005463374
125	0x3c3d10e8	0.011539675
126	0x3c8bdeda	0.017074037
127	0xbc88aa28	-0.0166827
128	0x3c38d2bb	0.011280711
129	0x3c9f555b	0.01944988
130	0x3ac05824	0.0014674705
131	0x3b978171	0.004623585
132	0xbc21cf65	-0.009876107
133	0xbc00e6d7	-0.0078675365
134	0x3c50beae	0.012740774
135	0x3c2220fd	0.00989556
136	0xbaa6ea20	-0.001273457
137	0xbbb988e7	-0.005662072
138	0xbc8fb0de	-0.017540392
139	0xbaa680dc	-0.0012703198
140	0x3bf73079	0.00754362
141	0x3c7ca341	0.015419782
142	0xbc188d0f	-0.009310975
143	0x3becdb2b	0.0072282753
144	0x3c60d448	0.013722487
145	0x3c167f00	0.009185553
146	0xbcd44704	-0.02591277
147	0xbd1af7a4	-0.037833825
148	0x3c2b420b	0.010452758
149	0x3c311a0e	0.010809435
150	0x3c2e2dee	0.010631068
151	0xbc7906a9	-0.015199342
152	0x3c0bc685	0.008531217
153	0xbc7f9a78	-0.015600793
154	0x3bdd1f7c	0.006748138
155	0xbcaa80df	-0.020813404
156	0xbba9f9b4	-0.0051872376
157	0x3cc1b72f	0.023646919
158	0x3bce9d93	0.0063054054
159	0x3a4108a4	0.0007363653
160	0xbbbef3c8	-0.005827401
161	0x3d0ff161	0.035142306
162	0x3c5d1603	0.0134940175
163	0x3c911ee6	0.017714929
164	0xbc184d77	-0.009295813
165	0xbc5ff709	-0.013669738
166	0x3c98f917	0.018673463
167	0x3b55c263	0.0032617084
168	0xbc2f499b	-0.010698701
169	0x3c4610e2	0.012088986
170	0xbbd9b15d	-0.006643458
171	0x3c5ac012	0.013351457
172	0xbb8f0fea	-0.004365911
173	0x3c162e0e	0.009166254
174	0x3c2d4ff2	0.0105781425
175	0xbbf59a0f	-0.007495172
176	0xbbc71ced	-0.0060764463
177	0xbb849073	-0.00404554
178	0xbc8bf7db	-0.01708596
179	0xbc8b0c7a	-0.016973723
180	0x3ccc5046	0.024940621
181	0x3ccb424e	0.02481189
182	0xbcc4b53d	-0.024012202
183	0x3b9e2114	0.0048257206
184	0xbc1fbea6	-0.009750044
185	0xbbf1e168	-0.007381607
186	0x3b45956d	0.003014888
187	0xba1bcea4	-0.00059435726
188	0x3c1b7e5d	0.009490577
189	0x3c88aa5a	0.016682792
190	0x3c3a684c	0.011377405
191	0x3c0dd0c1	0.008655728
192	0xbbbe61f5	-0.005810017
193	0xbc6b529c	-0.014362957
194	0x3bc7023c	0.0060732644
195	0xbca499ed	-0.020092929
196	0xbbc87c77	-0.006118353
197	0x3cc02108	0.02345325
198	0xbbee9641	-0.0072810953
199	0x3b1ad6bb	0.0023626524
200	0xba4106ee	-0.00073633983
201	0xbb7cad38	-0.0038555395
202	0xbb7a62c3	-0.003820584
203	0xbce57ffa	-0.028015126
204	0x3bcbb9db	0.006217224
205	0xbc0ef55f	-0.008725493
206	0xbce55e06	-0.027998935
207	0x3c734cab	0.014849822
208	0x39a3d720	0.00031250063
209	0xbbd057ff	-0.006358146
210	0x3c56e6cb	0.013116549
211	0xbc3d8c72	-0.011569129
212	0x3b7464a3	0.003729143
213	0xbcd9f757	-0.026607199
214	0xbc402655	-0.011727889
215	0xbc255cd6	-0.010092935
216	0xbb352e9f	-0.0027646197
217	0x3ac877aa	0.0015294452
218	0xbb319cd6	-0.0027101538
219	0x3c3faaf6	0.011698475
220	0xbc94cdf9	-0.018164622
221	0xbc02bd02	-0.007979633
222	0x3bfc3db1	0.007697784
223	0x3c34552f	0.0110066375
224	0xba57f192	-0.0008237596
225	0xbc03c202	-0.008041861
226	0xbc2203f9	-0.0098886425
227	0x3c703e8c	0.01466335
228	0xbc45eed6	-0.012080869
229	0xbb94cc3b	-0.0045409477
230	0xbc4ab091	-0.012371198
231	0xbc365720	-0.011129171
232	0x3c47d7d4	0.0121974535
233	0xbbda497d	-0.0066615925
234	0x3c870c2a	0.016485292
235	0xbb98d81d	-0.0046644346
236	0xba3175a1	-0.0006769542
237	0x3b3604c4	0.0027773837
238	0x39d1f8b0	0.00040048873
239	0xbcafa49f	-0.021440802
240	0xbcb80754	-0.022464432
241	0x3c243c06	0.010024076
242	0xbb5d715c	-0.0033789491
243	0x3bb7dc7c	0.0056110006
244	0xbb33bc6a	-0.0027425536
245	0xbca7becc	-0.020476721
246	0xbc28b368	-0.01029668
247	0x3bb9609a	0.0056572678
248	0x3ab91667	0.0014121056
249	0xbc8aa59f	-0.016924677
250	0x3bfc2de0	0.0076958984
251	0x3c6ced03	0.014460805
252	0xbbde4586	-0.00678319
253	0xbc2706b8	-0.010194473
254	0xbc09bd2c	-0.0084069185
255	0x3a1123a8	0.0005536624

network_body._body_endoder.seq_layers.2.weight f4 [256, 256]
0	0x3d82202e	0.06353794
1	0x3d2f3688	0.042776614
2	0xbbb34308	-0.005470637
3	0x3e18f8c8	0.14938653
4	0x3a30d261	0.0006745216
5	0x3d92da49	0.07170541
6	0x3c267076	0.010158649
7	0xbdfbe63f	-0.12299775
8	0xbc8fc237	-0.017548664
9	0xbc6154d9	-0.013753139
10	0xbd551ec1	-0.052031282
11	0x3c8b00ca	0.01696815
12	0xbd10da28	-0.0353643
13	0xbdaf83f6	-0.085700914
14	0xbd05f467	-0.032703783
15	0x3d5057ab	0.050864857
16	0x3cbccc5d	0.023046667
17	0xbdb16cba	-0.08663316
18	0x3c7112d0	0.014713958
19	0xbd2533bd	-0.040332545
20	0x3c3d3420	0.011548072
21	0x3d67e527	0.05661502
22	0xbcc1cc50	-0.023656994
23	0x3bd05f6c	0.0063590314
24	0xbd6ec4ac	-0.05829303
25	0x3d0e37fd	0.034721363
26	0x3de1dd4e	0.11028539
27	0x3ddc4407	0.10755163
28	0xbaf4e3e0	-0.0018683635
29	0xbdb7ab36	-0.08968203
30	0x3da87223	0.08224895
31	0xbc049961	-0.008093209
32	0xbd4cb241	-0.049974684
33	0x3d05ec4c	0.032696053
34	0x3d436467	0.047703173
35	0xbd1d509f	-0.038406964
36	0xbd3bd55a	-0.045857765
37	0xbd059f01	-0.03262234
38	0x3c82a745	0.015948901
39	0xbdd15aee	-0.102224216
40	0xbc05c537	-0.008164695
41	0x3d759620	0.059957623
42	0xbbced99c	-0.006312562
43	0x3ceb5ee5	0.028731773
44	0x3dd6695b	0.10469314
45	0x3dacec35	0.084434904
46	0x3ca35abc	0.019940726
47	0xbd412619	-0.047155473
48	0xbd88812c	-0.066652626
49	0x3d3c9428	0.04603973
50	0xbde92064	-0.11383131
51	0x3d539136	0.051652156
52	0xbd7c540d	-0.061603595
53	0x3bdbe358	0.006710451
54	0x3dc07c71	0.09398735
55	0x3cd03fcc	0.025421046
56	0x3bcb5076	0.00620466
57	0x3d11acff	0.035565373
58	0xbe098e17	-0.13433109
59	0xbd4035ab	-0.04692618
60	0x3c2183e5	0.009858106
61	0xbb83f9e9	-0.0040275943
62	0xbd1a6c32	-0.03770084
63	0xbcfb1aa2	-0.030652348
64	0xbd0c53b8	-0.034259528
65	0xbdcf1738	-0.101118505
66	0x3d80c143	0.06286862
67	0x3d499ed2	0.04922373
68	0xbd9ae889	-0.07563884
69	0xbd72d8c7	-0.059288766
70	0x3d8506a6	0.06495409
71	0xbb6a6a37	-0.0035768875
72	0x3dd5e92e	0.10444866
73	0xbd0a3b63	-0.03374804
74	0x3ce2b656	0.027674835
75	0xbd286ddf	-0.041120406
76	0x3dcdf467	0.10056382
77	0xbd861cf1	-0.06548489
78	0xba6ee134	-0.00091125374
79	0x3c6d0cd1	0.014468388
80	0x3d85cab6	0.06532805
81	0xbd0b4cd1	-0.034008805
82	0x3d879cc7	0.066217
83	0xbd02b8c8	-0.031914502
84	0xbdae870f	-0.08521854
85	0x3d288cb4	0.04114981
86	0x3e26c0e0	0.16284513
87	0x3cbb4952	0.02286211
88	0xbd9008ab	-0.07032903
89	0xbd1ac5f7	-0.03778645
90	0x3d5c154a	0.05373124
91	0x3dfa73ce	0.12229119
92	0x3d979e6a	0.07403262
93	0x3c251866	0.010076618
94	0x3d31d1b9	0.043412898
95	0xbdb3e3e1	-0.08783699
96	0xba9f58f5	-0.0012157249
97	0xbd85094c	-0.06495914
98	0x3d856fe1	0.0651548
99	0x3dbdb16a	0.09262355
100	0xbe2687a5	-0.16262682
101	0x3d98a83c	0.07453963
102	0x3ca8b3bd	0.020593518
103	0xbbaa0c6c	-0.005189469
104	0xbd83f19e	-0.06442569
105	0xbd0d6192	-0.03451688
106	0x3c40cde2	0.011767836
107	0xbd7b6116	-0.061371885
108	0xbd8efac5	-0.06981424
109	0x3d034b63	0.032054316
110	0xbd117863	-0.0355152
111	0xbdc314b9	-0.09525437
112	0x3dbf1507	0.093301825
113	0xbd02b895	-0.031914312
114	0x3e2783db	0.16358893
115	0xbd029afb	-0.031886082
116	0xbca8c383	-0.02060104
117	0x3db2928c	0.08719358
118	0xbcbb11f5	-0.022835711
119	0xbdf158e4	-0.11784533
120	0x3baf6a01	0.005353213
121	0xbd9770f8	-0.07394594
122	0x3c34fb2d	0.011046213
123	0xbddc8fe3	-0.10769632
124	0x3d5df86c	0.05419199
125	0x3cc4a42e	0.024004068
126	0x3c9c087f	0.01904702
127	0xbc9790f1	-0.01850173
128	0xbde4ea5f	-0.11177515
129	0x3c6a0633	0.014283705
130	0x3b66bb54	0.003520687
131	0xbc2c1af9	-0.010504478
132	0xbdbba7e3	-0.09162881
133	0x3dcb8aba	0.09938569
134	0xbc8331a0	-0.016014874
135	0x3d62c7df	0.055366393
136	0xbc1cd3ff	-0.009572028
137	0xbbf0c8f9	-0.0073481766
138	0x3b0d4035	0.0021553163
139	0xbd35219a	-0.044221498
140	0x3d2f50c3	0.04280163
141	0xbe047137	-0.12933813
142	0x3db4fcb0	0.08837259
143	0x3b40c0ad	0.0029411719
144	0x3bfda13c	0.007740168
145	0xbca8004b	-0.020507952
146	0xbd38ab69	-0.045085344
147	0x3d6cbd0e	0.057797484
148	0xbd9ab70e	-0.07554446
149	0xbd47d76d	-0.04878943
150	0x3c92781e	0.017879542
151	0xbe252830	-0.16128612
152	0xbc63c4f6	-0.01390194
153	0xbd52b9da	-0.051446773
154	0x3c1a2b46	0.009409731
155	0xbc68895a	-0.014192903
156	0xbc3de213	-0.011589545
157	0xbc9dceba	-0.019263614
158	0xbca99b8d	-0.020704055
159	0xbbd1cf49	-0.006402884
160	0x3d3fe5d0	0.046850026
161	0x3d1463c0	0.03622794
162	0x3c2bead4	0.010492999
163	0xbd9c45c1	-0.07630492
164	0xbc9189c9	-0.017765896
165	0xbc4eb08a	-0.012615332
166	0xbbb56b47	-0.00553647
167	0x3d454f40	0.04817128
168	0xbd8e4dd3	-0.069484375
169	0xbd8fa87b	-0.07014557
170	0x3d4c9c9e	0.04995405
171	0xbd3730e6	-0.044724368
172	0x3dc1f735	0.09470979
173	0xbdaf60de	-0.08563398
174	0xbd22b8b1	-0.039726917
175	0x3d9a0188	0.07519823
176	0x3d203090	0.039108813
177	0x3c7d42f4	0.015457857
178	0xbdf7c336	-0.120977804
179	0x3d0be91e	0.034157865
180	0x3d19e6ae	0.03757351
181	0x3cd29761	0.025706949
182	0x3d073476	0.033009015
183	0x3c4cc84d	0.012498927
184	0x3cde2192	0.027115617
185	0xbe0b3fc2	-0.1359854
186	0x3d0a7d27	0.03381076
187	0x3c8529ba	0.016255248
188	0xbd898375	-0.067145266
189	0x3d38fa5e	0.045160644
190	0xbd9be59c	-0.07612154
191	0xbdbb9e76	-0.091610834
192	0x3bdda3d9	0.006763917
193	0xbd17021e	-0.036867253
194	0x3db6f607	0.08933645
195	0xbd2825bb	-0.041051608
196	0xbd986ff7	-0.074432306
197	0xbd521265	-0.051287074
198	0xbd619b8b	-0.055079978
199	0x3bd72b46	0.006566438
200	0xbc879f68	-0.016555503
201	0xbc1c04c0	-0.009522617
202	0x3deb840e	0.11499797
203	0xbd807c18	-0.06273669
204	0x3d4fc9bc	0.0507295
205	0xbd82332e	-0.06357418
206	0xbb7589d6	-0.003746619
207	0x3d42552e	0.047444515
208	0xbc51977b	-0.012792463
209	0xbd8669a3	-0.06563117
210	0x3e2e930f	0.17048286
211	0xbcffd306	-0.031228554
212	0xbb854063	-0.0040665134
213	0x3cfc5523	0.030802315
214	0x3cfbfe75	0.030760983
215	0x3dab42f0	0.08362377
216	0xbd933eb2	-0.071896926
217	0xbd1c82b3	-0.038210582
218	0x3d8ac91c	0.0677664
219	0xbd84751f	-0.064676516
220	0x3d0a1d6c	0.033719465
221	0xbcb752b9	-0.022378312
222	0x3d3d6eb8	0.046248168
223	0xbc760fda	-0.015018428
224	0xbd82518a	-0.063632086
225	0xbd5d5051	-0.054031674
226	0x3d584510	0.052800238
227	0xbd9a4a53	-0.075337075
228	0xbd75d052	-0.060013123
229	0xbb315f44	-0.002706484
230	0xbdbc1938	-0.091844976
231	0xbc08698c	-0.008325946
232	0x3c371465	0.011174296
233	0xbd66e72b	-0.056372803
234	0xbc5a9ae8	-0.013342597
235	0xbd67283b	-0.05643485
236	0xbd9a3576	-0.07529728
237	0xbd36477c	-0.044501767
238	0xbd07351e	-0.03300964
239	0x3ca8bd14	0.020597972
240	0xbcdc9e8b	-0.026931068
241	0xbd8f559b	-0.0699875
242	0x3d09da48	0.033655435
243	0x3d573938	0.052544802
244	0x3d05c408	0.032657653
245	0xbbfca35c	-0.0077099036
246	0xbc89f943	-0.01684249
247	0xbcb26b31	-0.021779628
248	0xbd71a5e7	-0.058996107
249	0x3dc27ce4	0.09496477
250	0xbdecee6b	-0.11568912
251	0xbcc85205	-0.024453172
252	0x3d9caf7b	0.07650658
253	0xbdbd041f	-0.09229302
254	0x3d937a26	0.07201032
255	0x3c8b6779	0.017017113

network_body._body_endoder.seq_layers.2.bias f4 [256]
0	0xbba99907	-0.005175713
1	0xbc063636	-0.008191636
2	0xbc4c8a52	-0.01248415
3	0x3c0d1aa6	0.0086123105
4	0x3bd8c7ab	0.006615599
5	0xbcacc864	-0.021091647
6	0x3c80131b	0.01563411
7	0x3cd842c6	0.026399028
8	0x3c689a2b	0.014196913
9	0xbb83c77f	-0.0040215845
10	0xbc88dd91	-0.016707214
11	0xbcd07366	-0.025445651
12	0x3c0c4423	0.008561167
13	0x3b355cc2	0.0027673696
14	0x3b7225ec	0.0036948873
15	0x3c0033ce	0.007824851
16	0x3c1f4169	0.009720185
17	0x3bb8b9d5	0.0056373873
18	0xbc93d77e	-0.01804709
19	0xbc41a24d	-0.011818481
20	0x3b6f5dea	0.0036524483
21	0x3b2444a4	0.0025065327
22	0x3c3c1f82	0.011482121
23	0x3caa729f	0.020806609
24	0xbbcaf8d9	-0.0061942157
25	0xbbc05ac1	-0.0058701937
26	0xbc2efb16	-0.010679981
27	0x3c081afd	0.008307216
28	0xbce9a7e2	-0.028522436
29	0x3c75d434	0.015004206
30	0x3c836ff3	0.016044592
31	0xbcb794c7	-0.02240981
32	0xba1a79b6	-0.000589277
33	0x3c31355b	0.010815944
34	0xbbef0bee	-0.0072951233
35	0xbcbcddd4	-0.023054995
36	0x3ac83aa9	0.0015276271
37	0x3c197eff	0.009368657
38	0x3c5e11de	0.013554065
39	0xbc0b83da	-0.008515323
40	0xbb3be425	-0.002866992
41	0x3aa90245	0.0012894353
42	0x3b51261a	0.003191358
43	0xbc8b686c	-0.017017566
44	0x3c92fc4e	0.017942574
45	0xbc9a445b	-0.018831423
46	0x3cc58004	0.024108894
47	0xbb2f76de	-0.0026773731
48	0x3c4fd89b	0.01268592
49	0xbbff8c41	-0.007798702
50	0x3bb55a96	0.0055344803
51	0xbc605579	-0.013692253
52	0xbba0270e	-0.004887468
53	0xbc33dfeb	-0.010978679
54	0x3c4dfc29	0.012572327
55	0xbc801aa8	-0.01563771
56	0xbc8782ee	-0.016541924
57	0xbcaa387b	-0.020778885
58	0xbc1e4aa5	-0.009661351
59	0x3bfc143d	0.0076928423
60	0xbc42e7c0	-0.011896074
61	0xba93c2b1	-0.0011273233
62	0x3bdc0a39	0.006715086
63	0x3b9ab648	0.0047214366
64	0x3b09fb35	0.0021054272
65	0x3c679962	0.01413569
66	0x3c0bee4e	0.008540703
67	0x3c09928b	0.008396755
68	0xbb63c376	-0.0034753955
69	0xbca38454	-0.01996056
70	0xbc0eecbe	-0.008723436
71	0x3c99c023	0.018768376
72	0xbb90a1ea	-0.004413833
73	0x3ca89dde	0.02058309
74	0xbc34733a	-0.0110138
75	0xbb779e08	-0.0037783403
76	0x3bd736ce	0.0065678125
77	0xbaf36628	-0.0018569874
78	0xbb935051	-0.0044956584
79	0xbc3870e8	-0.011257388
80	0x3b717d37	0.0036848316
81	0x3cd9c29f	0.02658206
82	0x3a718c18	0.0009214296
83	0xbd1d6202	-0.038423546
84	0xbc940bfd	-0.018072123
85	0xbaca01ab	-0.0015411874
86	0x3c7980d1	0.015228466
87	0x3af8690e	0.0018952207
88	0xbbea5777	-0.00715154
89	0x3b73af7e	0.003718346
90	0x3c659136	0.014011672
91	0xbaa012a0	-0.0012212582
92	0xbcd128c5	-0.025532136
93	0x3c910d2c	0.017706476
94	0xbc2821a0	-0.010261923
95	0xbc590085	-0.013244753
96	0x3c2c6ca9	0.0105239535
97	0xbba834f2	-0.0051332647
98	0x3a8434c4	0.0010086526
99	0xbc1272ff	-0.00893855
100	0x3ba97b99	0.0051722047
101	0x3b4434a9	0.0029938614
102	0x3c64e656	0.013970932
103	0x3adecbbf	0.0016997977
104	0x3bcf091f	0.006318226
105	0x3c4b823a	0.012421185
106	0xbca419eb	-0.02003189
107	0xbbb0815a	-0.0053865137
108	0xbc4bfb62	-0.012450071
109	0x3bd3f1aa	0.0064680176
110	0xbc8fee8a	-0.017569799
111	0xbbfc6dcd	-0.007703519
112	0xbbe33118	-0.0069333427
113	0x3b52c1a6	0.003215888
114	0xbca653cb	-0.020303627
115	0xbbeff0c0	-0.007322401
116	0xbc8a33e1	-0.01687044
117	0xbc7f19d0	-0.015570119
118	0xbc9742ca	-0.018464465
119	0xbbe91be6	-0.0071139215
120	0x3ab07751	0.0013463293
121	0x3b456459	0.0030119626
122	0xbc3fd643	-0.011708799
123	0xbbbec6e4	-0.0058220495
124	0xbc27549b	-0.010213043
125	0xbb99c7a3	-0.004692988
126	0xbbacf039	-0.00527766
127	0xbca902e4	-0.020631261
128	0x3ba1197f	0.0049163694
129	0xbc1a6342	-0.009423079
130	0x3c887a54	0.016659893
131	0xba9fb373	-0.0012184217
132	0x3bf0adc9	0.0073449356
133	0xbc8b1cea	-0.01698156
134	0x3b01b181	0.0019789638
135	0xbb869891	-0.004107543
136	0xbc8e24b2	-0.017351482
137	0x3cc0db05	0.023541937
138	0x3b9f63ae	0.0048641777
139	0xbbe94443	-0.007118733
140	0xbc8597ea	-0.01630779
141	0x3c159230	0.009129092
142	0x3c76b416	0.015057584
143	0x3c37b385	0.011212234
144	0xbaee5f4a	-0.0018186357
145	0x3ca7c774	0.020480849
146	0xbbb2acc2	-0.0054527232
147	0xbbcb84b2	-0.006210887
148	0x3c0f86e6	0.00876019
149	0x3a89b932	0.0010507463
150	0xb9baac14	-0.00035604893
151	0x3b55d979	0.0032630845
152	0x3bb60b44	0.005555542
153	0xbc1c9664	-0.00955734
154	0x3c88f9d5	0.016720692
155	0x3c835507	0.016031755
156	0xbc889c5c	-0.01667612
157	0x3c759915	0.014990111
158	0xbc1f1674	-0.009709943
159	0x3c99cb0c	0.018773578
160	0xb84e34c6	-4.9163376e-05
161	0xbb893fcd	-0.004188514
162	0x3cd102ad	0.025513971
163	0xbc19b3b7	-0.009381226
164	0xbccacce6	-0.024755906
165	0xb9bf5035	-0.00036490118
166	0xbb5b4dca	-0.0033463114
167	0xbb826a13	-0.00397993
168	0xbc8b2e7f	-0.016989945
169	0x3adb9928	0.0016754018
170	0xbb19d2bd	-0.0023471557
171	0xbaeb016c	-0.0017929501
172	0xbbaec945	-0.005334052
173	0xbc8e79be	-0.017392036
174	0xbca2596e	-0.019818034
175	0xbc1ca94d	-0.009561849
176	0x3c5d5042	0.0135079045
177	0xbc13271e	-0.008981494
178	0xbc7df74e	-0.015500857
179	0xbb17832b	-0.0023118954
180	0x3cba18aa	0.022716839
181	0xbc60c901	-0.013719798
182	0x3c6e83a0	0.014557749
183	0xbc59eda3	-0.013301286
184	0xbce5661a	-0.028002787
185	0x3bb0d6f8	0.00539672
186	0x3c2c0c8d	0.010501039
187	0x3cb5269d	0.022113139
188	0x37bdc94c	2.2624292e-05
189	0xbc23185a	-0.009954536
190	0xbcf0d689	-0.029399173
191	0x3b62c6a9	0.0034603274
192	0xba9cd074	-0.0011963979
193	0x3c7ffc3a	0.0156241
194	0x3ac88583	0.0015298579
195	0xbcc09b9d	-0.023511702
196	0xbc892a1e	-0.016743716
197	0xbd0128d3	-0.031533074
198	0x3c098887	0.008394367
199	0x3c6eec45	0.014582698
200	0x3cc7ab7f	0.024373768
201	0x3b9beff5	0.0047588297
202	0xbc1cfdc1	-0.009581984
203	0x3b9f88a5	0.004868584
204	0x3c6146f0	0.013749823
205	0x3aec56c4	0.0018031229
206	0xbc978dfc	-0.01850032
207	0xbc58ec42	-0.013239922
208	0x3c03ba40	0.008040011
209	0x3c85c194	0.016327657
210	0xbb248129	-0.00251014
211	0x3c5db9a2	0.013533028
212	0xbb5bcc4e	-0.0033538523
213	0xbca247ba	-0.019809593
214	0x3c99f335	0.018792728
215	0xbc822bda	-0.01589005
216	0xbb51ee11	-0.0032032768
217	0x3cb5c117	0.022186799
218	0xbb9f2b79	-0.0048574773
219	0x3ba90baf	0.0051588635
220	0xbba8ce38	-0.0051515363
221	0xbc234b73	-0.009966719
222	0x3c810b3c	0.015752427
223	0x3cc8a552	0.024492893
224	0x3c9f5586	0.01944996
225	0x3c004da8	0.007831015
226	0x3bb1047c	0.005402146
227	0xbc904f0b	-0.017615816
228	0x3c196a49	0.009363719
229	0xba675a27	-0.00088253844
230	0xbc8cce25	-0.017188141
231	0xba8d857b	-0.0010797227
232	0x3c2e06c2	0.010621728
233	0x3cb170c2	0.021660212
234	0x3b1ccd8c	0.0023926226
235	0xbc97e0f4	-0.018539883
236	0xbad33002	-0.001611233
237	0x3b0b5cd9	0.0021265058
238	0xbabaf809	-0.0014264594
239	0xbcb2d9df	-0.021832405
240	0x3b285ac9	0.0025688878
241	0x3cd70023	0.026245182
242	0x3b19aaba	0.0023447708
243	0x3c7a217b	0.015266771
244	0x3cda0415	0.026613275
245	0xbbea33e3	-0.0071472987
246	0xbb0957ab	-0.0020956795
247	0xbb3e7fcc	-0.0029067872
248	0xbd0a6211	-0.03378493
249	0xbacca0e3	-0.0015611913
250	0xbc5120ff	-0.012764215
251	0x3bd45dd0	0.00648091
252	0xbbf3865a	-0.0074317874
253	0x3c26af5f	0.010173648
254	0xbc5d50c9	-0.01350803
255	0xbbfef631	-0.007780813

network_body._body_endoder.seq_layers.4.weight f4 [256, 256]
0	0x3cf7c2c2	0.030244235
1	0x3cf31f56	0.029678028
2	0xbce0c08a	-0.02743556
3	0x3d7aeac0	0.06125903
4	0xbbde5f34	-0.0067862514
5	0xbc88bf96	-0.016692918
6	0x3d990e67	0.0747345
7	0x3c7d6b42	0.015467467
8	0xbd050917	-0.032479372
9	0xbd14ee08	-0.036359817
10	0x3cc30023	0.023803776
11	0xbd0cebec	-0.03440468
12	0x3d40df79	0.04708812
13	0x3cf81d19	0.030287312
14	0xbdd26c5e	-0.10274576
15	0xbd05cf0a	-0.03266815
16	0x3e07d26c	0.13263863
17	0x3daf130b	0.08548554
18	0x3daba0c9	0.08380277
19	0x3c9d7d40	0.019224763
20	0xbbe790a0	-0.007066801
21	0xbd8d0e35	-0.068874754
22	0xbd75773e	-0.05992817
23	0xbcb90a64	-0.022587962
24	0xbba43ad1	-0.0050118943
25	0x3cba2f51	0.02272764
26	0xbd0ff231	-0.03514308
27	0x3d1e4281	0.03863764
28	0xbdaf64cc	-0.08564147
29	0x3d0532ea	0.03251926
30	0xbd337e31	-0.043821517
31	0x3c6db283	0.014507893
32	0xb9966c61	-0.00028690978
33	0xbcdecebc	-0.027198188
34	0x3daab1c8	0.0833469
35	0x3d0bf513	0.034169268
36	0x3d626e2e	0.055280857
37	0x3d03d1cf	0.03218251
38	0xbd89128f	-0.06692993
39	0xbc125158	-0.008930527
40	0xbda03daa	-0.078242615
41	0xbe00e54c	-0.1258747
42	0xbd36e89c	-0.044655427
43	0x3d8d75ec	0.069072574
44	0x3cc44d8c	0.023962758
45	0x3dae3445	0.08506063
46	0xbdcd711f	-0.10031342
47	0x3d8573de	0.065162405
48	0xbcd9f898	-0.026607797
49	0x3df79d23	0.12090518
50	0x3af98c7d	0.0019039061
51	0x3d51bfcd	0.051208306
52	0xbc3b1986	-0.0114196595
53	0x3d887ed0	0.066648126
54	0xbdf6d9a9	-0.12053234
55	0xbad173b3	-0.0015979916
56	0x3d909f1c	0.07061598
57	0x3d93f319	0.072241016
58	0x3caff503	0.021479135
59	0xbda517c6	-0.08061175
60	0xbc4532dc	-0.012036052
61	0xbc1975a5	-0.009366428
62	0xbc24d320	-0.010060102
63	0x3d1347c0	0.035957098
64	0x3bb3a1e1	0.005481944
65	0x3d8aee2d	0.0678371
66	0xbdcda6a5	-0.100415505
67	0x3c5df4ff	0.013547181
68	0xbcf05446	-0.02933706
69	0x3d596da3	0.053083073
70	0xbda301f7	-0.07959359
71	0xbdd09cc9	-0.101861544
72	0x3cf8daab	0.030377707
73	0xbce31f69	-0.027724938
74	0x3db9bbb5	0.090690054
75	0x3c612664	0.013742063
76	0xbc84be50	-0.01620403
77	0x3ce2d084	0.027687319
78	0x3d01067d	0.03150033
79	0x3cb8dbf3	0.022565817
80	0xbe1a4a23	-0.15067343
81	0xbd631f55	-0.055449802
82	0xbdd7ccb3	-0.1053709
83	0x3dcaf395	0.09909741
84	0xbc57d5b2	-0.0131735075
85	0x3c87f517	0.01659636
86	0x3dc66483	0.0968714
87	0x3d8bb827	0.06822234
88	0xbdc68d84	-0.09694961
89	0x3bd7586b	0.0065718195
90	0x3d22a951	0.039712254
91	0x3d2ea0be	0.042633764
92	0x3cc33dbc	0.023833148
93	0x3d45860b	0.048223536
94	0xbcc74cbb	-0.02432858
95	0x3c392caa	0.011302153
96	0xbd57cfbd	-0.05268835
97	0x3d3ee94b	0.046609204
98	0xbdb93c3d	-0.09044693
99	0xbd20942d	-0.03920381
100	0x3d7da5fa	0.061925866
101	0x3e01b65c	0.12667221
102	0xbd8633d9	-0.06552858
103	0x3d1fcd20	0.03901398
104	0x3d9a0486	0.07520394
105	0xbd8936cd	-0.066999055
106	0x3e03b00f	0.1286013
107	0xbc32dc0e	-0.010916723
108	0x3cad8328	0.021180704
109	0xbd2d61b0	-0.04232949
110	0x3c9c8baf	0.019109575
111	0xbcae3967	-0.021267606
112	0x3dc38a37	0.09547847
113	0xbcd6edab	-0.026236376
114	0x3db1df19	0.086851306
115	0x3cd9cc2f	0.02658662
116	0xbd46ac47	-0.04850414
117	0xbddfd5d9	-0.1092946
118	0x3d35f91b	0.04442702
119	0xbce44201	-0.027863504
120	0xbd27f422	-0.041004308
121	0xbd9babf9	-0.076011606
122	0xbd9c8446	-0.07642417
123	0xbac1e576	-0.0014793116
124	0x3aae457c	0.0013295854
125	0x3d93a24e	0.072086915
126	0x3ceea5c5	0.02913178
127	0x3dab5912	0.08366598
128	0xbceb2750	-0.02870527
129	0x3dc88a6c	0.09792027
130	0xbc14669b	-0.009057666
131	0xbcb74d2b	-0.022375664
132	0x3cfb31fc	0.030663483
133	0xbb971887	-0.004611078
134	0x3b55eab7	0.0032641122
135	0x3c5293e8	0.012852646
136	0xba0a60b0	-0.000527869
137	0x3c87510a	0.016518135
138	0xbe1f176d	-0.1553628
139	0xbc1b2057	-0.00946816
140	0xbd003dab	-0.03130881
141	0x3d32985e	0.04360234
142	0x3d6c70e2	0.05772484
143	0xbcf800c2	-0.030273799
144	0x3cb29f32	0.021804426
145	0xbdbf1e51	-0.09331954
146	0x3d97c847	0.07411247
147	0x3db787ff	0.08961486
148	0x3cb7d0f5	0.022438506
149	0x3d84f994	0.06492916
150	0xbca1e150	-0.019760758
151	0x3dc29960	0.0950191
152	0x3b21b1d6	0.002467265
153	0x3d0b0606	0.03394129
154	0xb8f80fae	-0.00011828482
155	0xbd4f48bc	-0.050606474
156	0x3b92d2d6	0.0044807
157	0x3dc67323	0.09689929
158	0xbb91b975	-0.004447157
159	0xbd84fc18	-0.064933956
160	0x3c21ddfe	0.009879587
161	0x3daba608	0.08381277
162	0x3d5fb9f5	0.0546207
163	0x3ce27c25	0.027647087
164	0x3ca71f60	0.020400703
165	0xbd8e9d1d	-0.06963561
166	0xbc8acdb1	-0.016943784
167	0x3d87ffee	0.066406116
168	0x3d87fac5	0.06639627
169	0xbd5d1123	-0.05397142
170	0x3d7e2df3	0.06205554
171	0x3d343b71	0.044002
172	0xbda44e54	-0.080227524
173	0xbd7b458d	-0.061345626
174	0xbb8e5bf4	-0.0043444578
175	0x3ce39c54	0.027784504
176	0xbcf49933	-0.029858207
177	0xbd25c15f	-0.040467616
178	0x3d8c5882	0.06852819
179	0x3c7d08a2	0.015443953
180	0x3dab7f53	0.083738945
181	0x3b0d3a00	0.0021549463
182	0x3d965f98	0.07342452
183	0x3d95f68c	0.07322416
184	0x3d1cc50f	0.038273867
185	0x3b7ae4cf	0.0038283353
186	0x3d49407f	0.049133774
187	0xbdbb6fd2	-0.091521874
188	0xbd2bb38b	-0.041919272
189	0xbd939d4f	-0.072077386
190	0x3dc15a92	0.09441103
191	0x3d9dffd1	0.07714809
192	0xbd83948a	-0.06424816
193	0x3d31c649	0.04340199
194	0xbc85a7c4	-0.016315348
195	0xbcb20b91	-0.02173403
196	0x3cf4117f	0.029793499
197	0x3ca9f3e6	0.020746183
198	0x3d827201	0.06369401
199	0x3cc4a23b	0.024003139
200	0x3d53385b	0.051567417
201	0x3ca9f13f	0.020744918
202	0x3d02a761	0.031897906
203	0xbca0e1c6	-0.019638907
204	0x3d016bc3	0.03159691
205	0x3cb5ebf7	0.022207243
206	0x3d83673a	0.06416173
207	0x3c803ab5	0.015652994
208	0xbc8b7a85	-0.017026195
209	0x3d593997	0.053033438
210	0x3d8852f4	0.06656447
211	0xbd7c0ed3	-0.061537575
212	0xbcb66196	-0.02226333
213	0x3c300701	0.010743857
214	0xbdba0b0e	-0.0908414
215	0x3daac3a2	0.08338095
216	0xbe1ed49a	-0.15510789
217	0x3c43c608	0.01194907
218	0xbd206e4f	-0.0391677
219	0x3c85ff78	0.016357169
220	0x3d584cbb	0.05280755
221	0x3db63e3d	0.0889859
222	0xbdd040be	-0.101685986
223	0x3c2feb81	0.010737301
224	0xbb6172fd	-0.0034400814
225	0x3c9fba0c	0.019497894
226	0xbbdfcad1	-0.0068295975
227	0xbd52799c	-0.051385507
228	0x3c6d2298	0.01447358
229	0xbcd3f8e1	-0.02587551
230	0xbd006440	-0.031345606
231	0x3da9b021	0.08285547
232	0x3daa4fc8	0.08315998
233	0x3d726b92	0.05918462
234	0x3c97cf24	0.01853139
235	0x3e0ba7e7	0.13638268
236	0xbdcf0058	-0.101074874
237	0xbceccfe6	-0.028907727
238	0xbc7b50ca	-0.015339086
239	0xbda00537	-0.07813495
240	0xbb0c1354	-0.0021373825
241	0xbe310e96	-0.1729072
242	0x3d39cf8d	0.04536395
243	0xbcdbba87	-0.026822342
244	0x3ddfe789	0.10932834
245	0x3e16954d	0.14705391
246	0x3bfd5fc6	0.0077323643
247	0xbdb9a509	-0.09064681
248	0xbb88cb07	-0.0041745934
249	0xbc13c4c1	-0.009019078
250	0xbb71feb4	-0.0036925497
251	0x3b0902ac	0.0020906134
252	0x3da33df0	0.07970798
253	0x3da85fe0	0.08221412
254	0x3d81325a	0.06308432
255	0xbc5d2691	-0.0134979645

network_body._body_endoder.seq_layers.4.bias f4 [256]
0	0xbc99419b	-0.018708041
1	0xbd1dc561	-0.038518313
2	0xbc00f1cf	-0.007870152
3	0x3bef610f	0.0073052715
4	0xbd0dd940	-0.034631014
5	0xbc24dde5	-0.010062669
6	0xbc50b812	-0.012739198
7	0xbc93aa43	-0.018025523
8	0x3c0df69b	0.008664752
9	0x3be8b017	0.0071010697
10	0xbc03bffc	-0.008041378
11	0x3b8773e1	0.004133687
12	0x3c1f0d0b	0.0097076995
13	0x3c8578ce	0.016292956
14	0xbc8434aa	-0.016138393
15	0xbbab0f31	-0.005220317
16	0x3c18e452	0.00933178
17	0x3c2aef0d	0.010432971
18	0xbb9145a4	-0.0044333506
19	0x3c59c552	0.013291674
20	0x3d1adc76	0.037807904
21	0xbc139628	-0.009007968
22	0xbc63d3d1	-0.013905481
23	0xbbc9ea3d	-0.0061619566
24	0x3b30a8f4	0.0026956173
25	0xbacf3762	-0.0015809352
26	0xbc8e02b2	-0.01733527
27	0x3c040594	0.008057971
28	0xbca67aef	-0.020322291
29	0xbbaf866b	-0.0053566
30	0x3c31f9d4	0.010862786
31	0xbbef9914	-0.0073119495
32	0xbc8706ca	-0.01648273
33	0x3be170f2	0.006879919
34	0x3c17d413	0.009266871
35	0x3c3df1ba	0.011593277
36	0x3c6d1971	0.014471398
37	0x38ee44c3	0.00011361532
38	0xbb1af13f	-0.002364233
39	0x3bedb234	0.0072539095
40	0x3b9277ab	0.004469832
41	0x3c5d0ea4	0.01349226
42	0xbba2781c	-0.004958166
43	0x3be36a4d	0.0069401623
44	0x3b88de9c	0.0041769277
45	0x3cff615a	0.03117435
46	0x3cf2443c	0.029573552
47	0xbc75c652	-0.0150008965
48	0xbbd9cdf0	-0.006646864
49	0x3b012506	0.0019705906
50	0x3cac925c	0.021065883
51	0x3c9142b1	0.017731996
52	0x3cb303c4	0.021852382
53	0x3bc64a80	0.0060513616
54	0xbb00fbff	-0.0019681451
55	0x3a96bbfc	0.0011500116
56	0xbbd5e025	-0.0065269643
57	0xbca486e2	-0.020083848
58	0xbc455848	-0.012044974
59	0x3b361fc7	0.0027789937
60	0x3bc67219	0.006056082
61	0xbba53454	-0.0050416384
62	0xbb7231a2	-0.0036955853
63	0x3b975b10	0.00461901
64	0x3ac26eb4	0.0014834017
65	0x3ce1a22e	0.027543154
66	0xbbe09399	-0.0068535325
67	0xbc6414c3	-0.013920966
68	0x3cb5fb53	0.022214567
69	0x3b5956ca	0.0033163303
70	0xbb4d6f12	-0.003134672
71	0x3ca95298	0.020669267
72	0xbbc3849e	-0.005966737
73	0xbbd6baae	-0.0065530157
74	0xbcabe4c8	-0.020983115
75	0x3ac0a1fc	0.0014696713
76	0xbc04dbb3	-0.008109021
77	0x3bedac9e	0.0072532436
78	0x3c08a95e	0.0083411615
79	0xbca4b3c1	-0.020105245
80	0xbb7ad515	-0.003827398
81	0xbc54dde0	-0.012992352
82	0x3baf2a68	0.0053456314
83	0x3c1095b6	0.008824756
84	0x3c032f48	0.008006878
85	0x3c4902e2	0.012268754
86	0x3b254c83	0.0025222606
87	0x3b10b07a	0.0022077844
88	0xbb5e2367	-0.0033895613
89	0xbbeec1e4	-0.007286297
90	0x3ba624d8	0.00507031
91	0xbc7df3d7	-0.0155000305
92	0xbba05dc1	-0.004893989
93	0x3c70262e	0.01465754
94	0xbbd99c0a	-0.0066409158
95	0xb9b41d71	-0.0003435421
96	0x3aad5960	0.0013225488
97	0xbcc3c564	-0.023897834
98	0x3c6fd81e	0.014638929
99	0xbcb92277	-0.022599442
100	0xbbb483ff	-0.005508899
101	0x3ba6c2ba	0.005089131
102	0x3b43f699	0.0029901622
103	0x3c6eee5c	0.0145831965
104	0xbbaebfb8	-0.0053329132
105	0x3c93a049	0.018020766
106	0xbbc01dd6	-0.0058629317
107	0x3c13a5f2	0.009011732
108	0xbc1e5ee9	-0.009666183
109	0x3b9d84cf	0.004807092
110	0xbc3f69aa	-0.011682907
111	0xbc3d18e4	-0.011541579
112	0x3c44f9e4	0.012022469
113	0xbc93e2e9	-0.018052535
114	0x3cefac84	0.029257067
115	0xbc365ca4	-0.011130486
116	0x3b43683f	0.0029816774
117	0xbc2b915d	-0.010471669
118	0x3c989927	0.018627716
119	0xbc38bc50	-0.011275366
120	0x3b83e169	0.0040246737
121	0x3c1fc5d9	0.00975176
122	0xbb521753	-0.003205736
123	0xbc2c7c5b	-0.0105276955
124	0x3c8336a5	0.016017267
125	0xbbeb5ba0	-0.0071825534
126	0x3d0a2d4a	0.033734597
127	0x3be8ddbd	0.0071065114
128	0xbc062e19	-0.0081897015
129	0x39ea8c29	0.00044736385
130	0x3c78bfae	0.015182419
131	0x3bef61d7	0.0073053646
132	0xbae08955	-0.0017130772
133	0xbc05d283	-0.008167866
134	0xbbe37a23	-0.00694205
135	0xbbb40718	-0.0054940097
136	0xbb8ee761	-0.0043610786
137	0x3c139492	0.00900759
138	0xbb950b20	-0.0045484453
139	0x3c2699e4	0.010168526
140	0xbac60ea9	-0.001511057
141	0x3cf8e7f4	0.030384041
142	0xbc15c1d1	-0.009140448
143	0xbc2637b2	-0.010145115
144	0x3b0693b0	0.0020534806
145	0xba5890cb	-0.0008261322
146	0xbb5b591d	-0.0033469864
147	0x3b8e764c	0.004347598
148	0xbd0f2f6f	-0.034957346
149	0xbc892619	-0.0167418
150	0xbc757c3e	-0.014983235
151	0xba69bddd	-0.00089165365
152	0xba8f6f9d	-0.0010943298
153	0x3cc706d0	0.02429524
154	0xbabbac58	-0.001431833
155	0x3c29120a	0.010319242
156	0xbbb27c95	-0.0054469802
157	0xb73ce5ad	-1.1259149e-05
158	0xbc5d2688	-0.013497956
159	0xbc7d6be4	-0.015467618
160	0xba8feeb1	-0.001098117
161	0x3bcecb01	0.006310821
162	0xbc24655a	-0.01003393
163	0xbc345604	-0.011006836
164	0xbca90dfc	-0.020636551
165	0xbc648865	-0.013948535
166	0xbbf4a487	-0.0074659023
167	0x3d261353	0.040545773
168	0x3a98282f	0.0011608655
169	0x3bbb868e	0.0057228273
170	0x3ba7fd5a	0.0051266374
171	0x3cd0c11e	0.02548271
172	0xbc3abf88	-0.011398204
173	0xbb459622	-0.00301493
174	0xbccdb0d6	-0.025108736
175	0x3c438711	0.011934058
176	0xbbf10646	-0.007355484
177	0xbc257d23	-0.010100636
178	0xbc1d5967	-0.009603835
179	0x3ca51dcb	0.020155808
180	0xbcc83736	-0.02444039
181	0x3d003edd	0.03130995
182	0x3be4799c	0.006972505
183	0x3c3bc06f	0.011459454
184	0xbbf171cc	-0.007368302
185	0x3ca97452	0.020685349
186	0xbc7cd396	-0.015431305
187	0xbd0a32d8	-0.033739895
188	0x3af174d1	0.0018421655
189	0x3cdc6d07	0.026907457
190	0x3c31ab39	0.010844045
191	0x3bd04f76	0.0063571287
192	0xbba284a2	-0.0049596587
193	0xb946229d	-0.00018895646
194	0xbc5a2e1b	-0.013316656
195	0xb8e65032	-0.00010982192
196	0xbb11ca50	-0.0022245832
197	0xbbe4f025	-0.0069866353
198	0x3c092087	0.0083695715
199	0x3c91ca7d	0.01779675
200	0x3ba0a9ba	0.0049030455
201	0x3c81e199	0.015854644
202	0x3c45dff6	0.012077322
203	0xbcdc3371	-0.026879998
204	0x3ab81bdf	0.0014046392
205	0x3c110c4c	0.008853029
206	0xbbf9c44e	-0.0076222783
207	0xbc82dfbc	-0.015975825
208	0xbc8416aa	-0.016124088
209	0xbc9fe72d	-0.019519413
210	0x3b847d8c	0.0040432867
211	0x3a01a0b7	0.0004944908
212	0xbc522f44	-0.012828652
213	0xbc6e3238	-0.01453834
214	0x3c025dc6	0.007956928
215	0xbc3233e4	-0.0108766295
216	0x3c64b161	0.013958306
217	0x3b22db8b	0.0024850096
218	0xbcd99e59	-0.026564764
219	0xbbd3f7ff	-0.0064687724
220	0xbcb47810	-0.022029907
221	0x3c88280d	0.01662066
222	0x3b92d062	0.0044804076
223	0xbb99561a	-0.0046794536
224	0xba95bcd1	-0.001142407
225	0xbbbf34af	-0.005835138
226	0xbb185ee5	-0.002324992
227	0x3a3d9f8a	0.0007233551
228	0xbc626d78	-0.013820045
229	0x3be771f6	0.0070631457
230	0xbc385df6	-0.011252871
231	0x3bf8d54a	0.0075937854
232	0xbb740394	-0.0037233578
233	0xbc4688d8	-0.012117587
234	0xbbca9659	-0.0061824736
235	0x3967f1cd	0.00022119955
236	0x3a9ae306	0.0011816926
237	0x3c1571d6	0.009121379
238	0xbc005633	-0.0078330515
239	0xbc3d1772	-0.011541234
240	0xbc6f49c9	-0.014604994
241	0x3a6cedd8	0.0009038127
242	0x3b091f50	0.0020923205
243	0x3c2468e3	0.010034773
244	0xb9d92ad7	-0.00041421384
245	0x3c839040	0.016059995
246	0xbb3dcbaa	-0.0028960505
247	0xbc696f31	-0.0142477015
248	0x3c15a157	0.009132705
249	0xbbfbf41a	-0.0076890113
250	0xb9c7582f	-0.0003802194
251	0xbc15d066	-0.009143924
252	0xbca4217f	-0.020035503
253	0x39bc2392	0.00035884656
254	0xbc11ba38	-0.008894496
255	0x3c9ab113	0.018883264

action_model._continuous_distribution.log_sigma f4 [1, 2]
0	0xbe979198	-0.29603267
1	0xbe142630	-0.14467692

action_model._continuous_distribution.mu.weight f4 [2, 64]
0	0xbdb1c202	-0.08679582
1	0xbd8cd2ad	-0.06876121
2	0xbe872c61	-0.26401046
3	0xbdc47cef	-0.09594142
4	0x3c571d80	0.013129592
5	0xbdc77a70	-0.0974015
6	0x3d1dcab5	0.038523395
7	0x3af80392	0.0018921962
8	0xbc982101	-0.018570425
9	0xbefc1ba4	-0.49239838
10	0xbae42559	-0.001740615
11	0xbddbe638	-0.1073727
12	0xbe01571b	-0.12630884
13	0x3e4040f0	0.18774772
14	0x3d2d812d	0.04235952
15	0xbc1269f3	-0.008936393
16	0x3cdf996d	0.027294839
17	0xbdd50c91	-0.104027875
18	0x3d9c0e54	0.076199204
19	0xbc74602b	-0.014915506
20	0x3dca3035	0.09872476
21	0x3f14fa61	0.5819455
22	0x3cfa1150	0.030525833
23	0xbc206dd9	-0.009791815
24	0x3e03050c	0.12794894
25	0xbd64fc30	-0.055904567
26	0xbd592eb4	-0.053023055
27	0x3e9c782b	0.3056043
28	0x3db86e27	0.09005385
29	0x3d0d25e6	0.03445997
30	0xbd63de58	-0.055631965
31	0xbe1f60ee	-0.1556432
32	0xbd9e1057	-0.0771796
33	0xbdaa64ae	-0.083199844
34	0xbe2ef43d	-0.17085357
35	0xbc66456f	-0.01405464
36	0xbcbdbad9	-0.023160385
37	0xbc910c59	-0.017706083
38	0xbe2c3fda	-0.16821232
39	0x3d79fac6	0.06103017
40	0xbd12e9f5	-0.03586765
41	0xbe442419	-0.19154395
42	0x3e285750	0.16439557
43	0x3d287643	0.04112841
44	0xbda6999d	-0.08134768
45	0xbcd33b86	-0.025785219
46	0xbce580cd	-0.028015519
47	0xbc8b3c91	-0.016996654
48	0xbcfad75a	-0.030620266
49	0x3eaced26	0.3377468
50	0x3d9908e9	0.074724026
51	0x3e0b2350	0.1358769
52	0x3d257cb4	0.04040213
53	0xbc9fab00	-0.019490719
54	0x3ddcea84	0.10786918
55	0x3e706746	0.23476896
56	0x3e097ed5	0.13427289
57	0x3e04ce70	0.12969375
58	0x3da55a28	0.080738366
59	0xbcce1ffb	-0.025161734
60	0x3dcde8cb	0.10054167
61	0xbde47816	-0.11155717
62	0xbd7f9c54	-0.062404945
63	0x3cfe916d	0.031075204
64	0xbe1ec7ee	-0.15505955
65	0x3e344355	0.1760381
66	0xbe3c64da	-0.18397847
67	0x3d01d4c7	0.03169706
68	0x3e36da56	0.17856726
69	0xbcfa1817	-0.030529065
70	0x3d49587e	0.04915666
71	0xbe4c65ee	-0.19960758
72	0x3db9b130	0.09066999
73	0xbe464dfb	-0.19365685
74	0xbe0937e3	-0.13400225
75	0xbd986d78	-0.074427545
76	0x3df81c48	0.12114769
77	0x3e32c450	0.174577
78	0xbe3abeac	-0.18236798
79	0x3da4e29d	0.080510356
80	0xbc82adae	-0.015951958
81	0xbd9725f2	-0.07380284
82	0xbd1ca4bf	-0.03824305
83	0x3e441c32	0.1915138
84	0xbd509e0a	-0.050931968
85	0x3e21001b	0.15722696
86	0xbd4bc377	-0.049746957
87	0xbdb1b6bf	-0.08677434
88	0x3d956638	0.07294887
89	0x3e0b6560	0.1361289
90	0x3dfa2a70	0.122151256
91	0x3e76ee97	0.24114452
92	0x3debde1f	0.115169756
93	0xbdae1650	-0.085003495
94	0x3da12b27	0.07869559
95	0xbe542752	-0.20718125
96	0xbe19cfaf	-0.15020631
97	0xbe4b54f9	-0.19856633
98	0xbd980f65	-0.07424811
99	0xbdc3b3ad	-0.09555755
100	0x3bac15ea	0.005251636
101	0x3dbf1a3f	0.09331178
102	0xbe0d132b	-0.13776843
103	0xbe352601	-0.17690279
104	0xbe0d4d95	-0.13799126
105	0x3cc35427	0.023843838
106	0xbd628da4	-0.05531086
107	0xbcc3091a	-0.02380805
108	0xbda5eda5	-0.08101968
109	0x3e0c29e2	0.13687852
110	0xbe221a66	-0.15830383
111	0x3d32921a	0.043596365
112	0x3ddb980c	0.1072236
113	0x3e69825c	0.22803634
114	0x3dbd5796	0.09245221
115	0xbdb396d6	-0.08769004
116	0xbd3ee730	-0.046607196
117	0xbdd43406	-0.10361485
118	0xbd0d112c	-0.034440205
119	0x3cd56e8a	0.026053686
120	0x3e48ff41	0.19628622
121	0x3ca64004	0.020294197
122	0xbd29764c	-0.041372582
123	0x3d3d7591	0.0462547
124	0x3c107652	0.008817272
125	0x3d953113	0.07284751
126	0xbdd060f1	-0.1017474
127	0x3d9ddb95	0.077078976

action_model._continuous_distribution.mu.bias f4 [2]
0	0xbcb4107d	-0.021980518
1	0xbddbe6d6	-0.10737388
