results/Abstract1/bachelor/bachelor-31999983.onnx (onnx, 872319 bytes, 12 tensors)

network_body._body_endoder.seq_layers.0.weight f4 [256, 7]
00000000: 39de 8abe 3dd1 4fbf 2a78 fe3d 8fc4 b5be
00000010: db00 eebe 7b8b 183e 1a7c 80be 8f5a 76be
00000020: 91b8 eebd a698 0abf 5cbc f1be 89c6 20bf
00000030: 9cb7 37bf 9ed3 00bf 5e63 273d 36ea 723f
00000040: 137b 173f 513d 053e 0a39 403f d61f 39bf
00000050: 5f55 5b3e 399d 0b3e 13cf b83e 5e78 483e
00000060: a22d 143e c9b7 6dbe 521e 0d3e 6919 b93c
00000070: 8169 be3e 48ae cb3e 45bd 173f 002f b0be
00000080: 4716 3d3e 687f 043e de4c 90be 2f58 bebe
00000090: 1aa4 bfbc 3489 993c 2455 ad3d fa8c c1bb
000000a0: 44fa e5be 8802 863b f72c 75be 5c37 39bd
000000b0: 0b3f 2f3f 9f14 f9be 0f40 36bf d2b4 973d
000000c0: cb09 fabe a8d8 32bb d844 d63e 069f 333d
000000d0: 49c3 18be 6c8c 423e 6747 44bd b913 16be
000000e0: e057 bbbe 4e84 0f3f 079f 6a3e 74cd d6be
000000f0: ea8c c93c 78f2 283e 7382 eb3e c242 d4be
00000100: d558 dfbe b2e7 623d 138f da3e 37a0 fdbe
00000110: fdc2 66bf 362a 09bf 7abd 42bf dfe8 bd3e
00000120: d2ef 16bf 89af a33e e264 6fbd 8248 713e
00000130: 9b39 313f b759 2cbf dd40 de3e dbe9 473d
00000140: 277d 11bf 408b 1dbf 0eea 67be 41e7 0bbf
00000150: fb26 663f 40ef 893e 12d4 03be 1ecb 43be
00000160: a117 d3be cc66 183f b50d e63e c653 c3bd
00000170: 3fca c0be de6c 70be a03b bfbe f36b 8cbb
00000180: bbcd cebd 4a9b 36be 32c8 34be 949f 35be
00000190: 0b02 a9be 83ad eabe 6c02 ba3e b5e2 24be
000001a0: 2d6e 3cbf 50a7 98bd 452f ffbe 9d32 f3bc
000001b0: 8ce1 1abe 1c1d ea3c 3274 8d3e 50eb cabe
000001c0: 950f 963e 9d8d 3c3e 98cf a63e 26b9 333e
000001d0: c5f4 ecbe ff06 f3bc 00cc 15bf f0ce dfbd
000001e0: efc3 4bbf a379 ec3e 6d30 b13e 3cbc 0e3f
000001f0: 0ef6 f13e f97a f3be bd81 863e 7124 6dbf
00000200: 667c 54be 2e7a 573c 2ad6 0bbe ab16 d03e
00000210: d5ad 933e 5e50 863d 4ae5 53bf ebb0 d9bd
00000220: a896 243e cd5d 55bc 4cc2 25be de19 e0bd
00000230: 48e9 25be 981a c43e 813c e9be 68f9 3d3f
00000240: 3c32 6c3b c41b 683d 89c7 1abf 4492 a7bd
00000250: 471a 1fbf c313 e4be bc73 4c3e 5fee 50bf
00000260: 51a7 e1bd 8924 4bbf 3ed0 453c 1ec5 8bbd
00000270: 9e00 eabd 8ba7 1a3e c5af b93e 8414 0dbd
00000280: d7fa 7dbe ecc7 893e ea1b 073f ecd6 aa3e
00000290: dbd4 c6bd 123f 62be 5e9c 443f 0bed 0d3f
000002a0: c687 543f af22 d03e 46b1 d2bd 8030 dd3e
000002b0: fc97 dd3c a01d 17be cc70 543f 47ce 5d3e
000002c0: 5919 753d 0c0a ec3e 1e92 c0be 2a5b 0fbe
000002d0: 46d1 f1be 0e7a b0be 04ee 49bd de83 933e
000002e0: 9a3a 403e 8b1b 8ebe 3c26 ae3e d21f 45bf
000002f0: 5a18 273f 4d62 2a3f dbf1 263f a98b 57be
00000300: ae78 01bf 7bcb 543e b0cb 573e 7107 ba3e
00000310: 6ba3 ccbe 5bd2 02bf f978 54be 5e6e 5e3e
00000320: 33fb 033e 0863 83be 8902 cd3d 698d 833e
00000330: bb26 e8be 8753 71be 45fb dcbe a154 cbbe
00000340: 0ff8 dcbe 70db e6be e154 023f a69d 5abe
00000350: 4ea2 b5be 36a8 9dbe d181 053f 802c 09bf
00000360: df7c 513d 58a9 23bf 3636 4e3f 8398 99be
00000370: ca86 3a3e ab68 0e3d 1ba2 ce3d 7926 113f
00000380: ac4d 2cbe c78b 2fbf e6e7 d93e 3e92 033f
00000390: 933b d3be d1fb 18bf c242 403e 6a9a 0b3f
000003a0: 3e45 613e a6c1 543e 0a64 ca3e 20b0 133f
000003b0: 34d0 093e d5ff a13e cd44 16be 8e43 a73e
000003c0: 7f50 8cbe af25 8c3e 3811 bf3e e06f cbbb
000003d0: 7f8c d9be d364 703e 30df ba3d 9ea8 593d
000003e0: 2dec 653d a0b7 59be f247 b23e 02f5 5abe
000003f0: b593 453f bba0 c43d 8c24 073f efcc e43e
-0.27122667 -0.8117865 0.12425263 -0.35501525 -0.46485028 0.14896958 -0.25094682 -0.24057983
-0.11656297 -0.54139173 -0.4721402 -0.6280294 -0.7176454 -0.503229 0.04086625 0.9488863
0.5917217 0.13011672 0.75087035 -0.723142 0.21419285 0.13634194 0.36095485 0.19577166
0.14470533 -0.2321464 0.13781098 0.022595124 0.37189868 0.39781404 0.5927318 -0.34410858
0.1846553 0.12939227 -0.28183645 -0.37176654 -0.02339368 0.018742181 0.08463505 -0.0059066983
-0.449175 0.004089657 -0.23942934 -0.04521881 0.6845557 -0.48648545 -0.71191496 0.074075356
-0.48835596 -0.0027289782 0.418494 0.04385283 -0.14918245 0.18998879 -0.047919657 -0.14655961
-0.3659048 0.56061256 0.22912227 -0.41953623 0.024603326 0.16498744 0.45997962 -0.41457182
-0.4362246 0.055396743 0.42687282 -0.49536297 -0.9014128 -0.53580034 -0.7607037 0.3709173
-0.58959687 0.3196986 -0.05844582 0.23562816 0.69228524 -0.67324394 0.43408862 0.048807006
-0.5683159 -0.61540604 -0.22647879 -0.5464974 0.8990323 0.26940346 -0.12873867 -0.19120452
-0.41228965 0.59531856 0.44932333 -0.09537463 -0.37654302 -0.2347903 -0.37350178 -0.0042853295
-0.10097834 -0.17832676 -0.17654493 -0.17736655 -0.3300937 -0.45835504 0.36329973 -0.16102107
-0.73605615 -0.07453787 -0.4984075 -0.02968722 -0.15125102 0.028578334 0.27627712 -0.39632654
0.29308763 0.18413396 0.32580256 0.17551097 -0.46280494 -0.029666422 -0.58514404 -0.10928142
-0.79595846 0.4618655 0.34607258 0.5575597 0.47258037 -0.47554758 0.26270857 -0.9263373
-0.20750579 0.0131516885 -0.13655916 0.40642294 0.2884356 0.065582976 -0.8277174 -0.106294475
0.16073096 -0.013022852 -0.161874 -0.10942434 -0.16202271 0.3830154 -0.45553973 0.7420869
0.0036040684 0.056667104 -0.60460716 -0.08182195 -0.6214947 -0.44546327 0.19966024 -0.81613725
-0.11018241 -0.79352623 0.012073575 -0.068247065 -0.11425899 0.15102975 0.36266914 -0.034443393
-0.24802719 0.2691034 0.5277697 0.33367097 -0.09708568 -0.22094372 0.768011 0.55439824
0.83019674 0.4065146 -0.102877185 0.43201065 0.02705001 -0.14757395 0.82984614 0.2166072
0.059838627 0.46101415 -0.3761148 -0.1399962 -0.47229975 -0.3446812 -0.049299255 0.28811544
0.18772355 -0.2775539 0.34013546 -0.7700168 0.6527153 0.66556245 0.6521279 -0.2104937
-0.5057477 0.20780747 0.21073794 0.36333802 -0.39968428 -0.51102227 -0.20749272 0.21721789
0.12888794 -0.25661492 0.10010249 0.25693825 -0.4534205 -0.2356702 -0.43160453 -0.39713004
-0.43158004 -0.45089293 0.50910765 -0.213492 -0.3547539 -0.30792397 0.5215121 -0.53583527
0.051144477 -0.63930273 0.8055147 -0.2999917 0.1821548 0.034767788 0.10089513 0.5669933
-0.16826504 -0.6857266 0.42559737 0.5139502 -0.4125639 -0.5975924 0.18775466 0.5453249
0.2199907 0.20776996 0.3952945 0.5769062 0.1345833 0.31640497 -0.14674683 0.32668728
-0.27405164 0.273725 0.37317824 -0.006208405 -0.42490003 0.23475961 0.09124601 0.05313932
0.056133438 -0.21261454 0.34820515 -0.21382526 0.7717851 0.096009694 0.5279014 0.44687602

network_body._body_endoder.seq_layers.0.bias f4 [256]
00000000: 58c5 c8bb f46c 243c ea63 36bb 2b6e 0dbc
00000010: 22de 2bbc f304 d53b d98b 023d e0a0 3bba
00000020: d754 ce3c 72e8 6ebc 852c 9a3c 8d41 d93c
00000030: 083a 6cba 7c8d eabb c735 dabb af9f 0dbc
00000040: c653 be3b 152f a63c 6ba1 eaba f4b5 54ba
00000050: e59a adbc 887e 713c ddd0 06bc 2e59 423c
00000060: 4766 363c bf2e 823a f899 8b3c 936e d73c
00000070: 3846 4cbc 6489 ed3b 7c8a 39bc c3c4 4c3c
00000080: 794e 9ebb 2e42 84bc a50b 913c 886c 2e3c
00000090: 98b3 34bc 304d 663c 7fe1 613c 843e 31bc
000000a0: d5a8 9a3b 31bc f23a 5f59 d9ba e355 45bc
000000b0: 54e4 183a a139 89bb 9d8d 2cbc d66a a9bc
000000c0: 2d0f 623c 07b9 273c e864 bb3b b1c0 8ebc
000000d0: f5a6 503c 8081 aa3c 7797 853c 9dd6 673c
000000e0: df37 713c 2599 7c3b 7544 8dbc 98b9 0f3c
000000f0: 2f68 ac3b 7958 9aba 103f 213c c945 8fba
00000100: 7d36 d73c 5bd5 9fbc a1a8 b63b 661a fa3b
00000110: 6a1c fbbb 3d21 c43a 4b7c dd3a c39e 55bc
00000120: 9ee1 463c 684d 0e3c c12f a8bc 0a05 a1bc
00000130: 468a 54bc ab37 b8bc 0b18 bc3c fc9d 9ebc
00000140: d574 9cbc 33e7 5bbc 2427 85ba f8a8 85bc
00000150: d5ce 13bc c33a 22bc 6144 a3bc 9f83 803b
00000160: 20fc 443b 40b8 11bc 7b79 9dbb 50d2 40bb
00000170: 1537 ce3c fe61 583c 6e0d 31bc 0fad 003d
00000180: c275 f63b a706 bebb 8dcc 5a37 3909 b93b
00000190: 3fea 073c 2215 56bc 3d6f 963c 01ac 8e3c
000001a0: 2dd7 2b3b f5f6 833b 2eec 79bc 3aff f5bb
000001b0: 28e2 f43a f623 01bc 05cd 4fbb 8fc2 f53b
000001c0: 7e5a b73a ebb3 80bc b7d1 55bc 905a b23c
000001d0: 60fb 443c df6f 7dbc 78f4 acbc 967e 663c
000001e0: de29 ca3a 102d dfbb 81b9 883c 8d4c faba
000001f0: 4679 9ebb f3aa 393c 95f4 863c a8ef 83bc
00000200: 50dd 373c a63d a53c d7cf 9c3a 2a59 a03b
00000210: 6993 1fbc 4dd8 ffbb 23cc 553c 85cd 173c
00000220: 4da8 ddba 0ed2 b7bb c954 95bc ebe4 baba
00000230: 43a1 063c bb2c 7b3c e10e 19bc 42f3 de3b
00000240: c938 5e3c 1164 243c 736d d7bc 8752 1abd
00000250: 23d8 2d3c 9bde 363c 3cdf 283c 0f10 79bc
00000260: f390 103c 8e54 82bc a9a6 e33b 4d68 abbc
00000270: b04d cdbb 3765 bc3c 490c b53b 3a16 9c3a
00000280: 8293 cfbb c365 0f3d 46db 643c 0c40 8f3c
00000290: 62ba 19bc c650 61bc 5e9f 9a3c b9c5 443b
000002a0: faad 29bc 19e1 403c c80b eebb 7982 5a3c
000002b0: e1f6 8bbb 5ab1 173c 0f11 333c 57da 00bc
000002c0: 52eb cdbb 58bc b0bb 3251 8dbc ff33 87bc
000002d0: c48d d03c 6491 d03c b65e c4bc e7c7 8a3b
000002e0: 9b9a 1dbc 59ac 08bc ef5b 123b 1e57 f4b9
000002f0: d01f 1a3c d84c 873c 12c2 3b3c 926f ff3b
00000300: 2ff5 c4bb 889d 69bc 8119 b63b e05f 9dbc
00000310: 2b42 b0bb 5a0e bf3c 24f1 e8bb 73d7 223b
00000320: 90ec 70ba b220 84bb 98be 6dbb 5c72 e8bc
00000330: d1d4 d33b 4507 10bc 2c7f e4bc f622 773c
00000340: 60ec c837 0375 ddbb 859c 573c b2c5 3ebc
00000350: 93db 6f3b 9fec d6bc e487 3cbc da51 2ebc
00000360: d9c7 4cbb f6c2 323b 8f20 25bb 3c31 453c
00000370: cb90 93bc 3be4 0ebc 58bc f43b bb3e 2c3c
00000380: 07e8 9eba dfd2 01bc 2ea1 24bc 0de4 673c
00000390: 4da2 44bc f9c5 acbb 874f 3fbc 1a71 43bc
000003a0: 76d0 443c dc3e e7bb 140a 8e3c 40f4 9fbb
000003b0: 78f9 51ba fb05 1f3b 8486 b039 4ddd aebc
000003c0: 5457 b2bc ca11 283c 1aaa 80bb 9a7d be3b
000003d0: 3481 40bb 4e33 a5bc 0d4a 2ebc 20e3 a23b
000003e0: e3b6 993a 1245 8cbc d4ff ee3b fee5 6b3c
000003f0: ba1d dcbb 5b7d 18bc bbf2 0abc 00b0 863a
-0.006127041 0.010035742 -0.002783055 -0.008632223 -0.010489972 0.006500834 0.03187165 -0.0007157456
0.02518694 -0.0145817865 0.018820057 0.026520515 -0.0009011333 -0.0071579795 -0.006659243 -0.008644029
0.0058083264 0.020286122 -0.001790089 -0.00081142713 -0.021192024 0.01473964 -0.008228508 0.011862082
0.011132783 0.0009932144 0.017041191 0.026297843 -0.012467913 0.0072490443 -0.011324521 0.0124980835
-0.004831132 -0.016144838 0.017705748 0.010645993 -0.011029147 0.014056489 0.013786673 -0.010818128
0.0047198334 0.001851922 -0.0016582421 -0.012044403 0.00058323634 -0.004187778 -0.01053181 -0.020680826
0.0137975635 0.010236985 0.005718816 -0.017425867 0.012735118 0.020813704 0.016307576 0.014150289
0.014722793 0.003854343 -0.017244557 0.008772276 0.005261443 -0.0011775634 0.009841695 -0.0010930832
0.0262711 -0.019510916 0.0055743014 0.0076325415 -0.0076632993 0.0014963519 0.0016898004 -0.01303834
0.012138752 0.008685447 -0.020530583 -0.019655723 -0.01297242 -0.022487482 0.022960683 -0.019362442
-0.019098679 -0.013421821 -0.001015876 -0.016315922 -0.009021481 -0.009901705 -0.019930067 0.0039219405
0.0030057505 -0.008894026 -0.0048057414 -0.002942223 0.02517275 0.013206957 -0.010806425 0.03141504
0.007521362 -0.005799133 1.3041438e-05 0.0056468514 0.008295595 -0.013066562 0.01836359 0.017416002
0.0026220784 0.0040272423 -0.0152540635 -0.007507232 0.0018683122 -0.007882109 -0.0031707895 0.0075
0.0013988761 -0.015710792 -0.013050488 0.0217717 0.012022823 -0.015468567 -0.021112666 0.014068266
0.0015423854 -0.006810792 0.016690018 -0.00190963 -0.0048362343 0.011332261 0.016474048 -0.016105488
0.011222199 0.020170998 0.0011963797 0.0048934417 -0.009739735 -0.0078077675 0.013049158 0.009265308
-0.001691112 -0.0056097573 -0.018228905 -0.0014258897 0.008217159 0.015330489 -0.009341926 0.006803901
0.013563343 0.010033623 -0.026297307 -0.03767636 0.010610613 0.011161472 0.0103071295 -0.015201583
0.008823621 -0.01590946 0.0069473577 -0.020923758 -0.0062653646 0.022997482 0.005525146 0.001190848
-0.006334723 0.035009157 0.0139682945 0.017486595 -0.009382816 -0.013752168 0.01887482 0.0030025078
-0.010356421 0.011772417 -0.007264588 0.013336771 -0.0042713736 0.0092585925 0.01092936 -0.007864556
-0.006284156 -0.005393546 -0.017250631 -0.016504286 0.025458224 0.025459953 -0.023970943 0.004235256
-0.00961938 -0.008341872 0.0022332629 -0.00046604214 0.009406999 0.016516134 0.011459844 0.0077952826
-0.0060106735 -0.01425875 0.0055572395 -0.019210756 -0.0053789816 0.023322273 -0.0071088243 0.0024847656
-0.0009190524 -0.004032218 -0.0036276933 -0.028374843 0.0064645787 -0.008790796 -0.027892672 0.015084019
2.3951929e-05 -0.0067583336 0.013159876 -0.011643814 0.0036599382 -0.026235877 -0.011507008 -0.010639632
-0.0031247048 0.002727685 -0.0025196408 0.012035664 -0.018013379 -0.008721407 0.0074687414 0.010513003
-0.0012123593 -0.007923811 -0.010048194 0.014153493 -0.012001586 -0.0052726236 -0.011676676 -0.011928821
0.012012592 -0.007057054 0.01733879 -0.004881412 -0.0008009891 0.002426504 0.00033669558 -0.021345759
-0.021770157 0.0102581475 -0.0039265277 0.0058133127 -0.0029373886 -0.020166066 -0.010637772 0.004970923
0.0011727478 -0.017122779 0.0072936807 0.014398096 -0.006717411 -0.009307231 -0.008480723 0.0010275841

network_body._body_endoder.seq_layers.2.weight f4 [256, 256]
00000000: a39c 823d 0104 2f3d 4b17 a6bb de46 193e
00000010: bf1a 213a d276 943d aaf3 123c 2fa6 fbbd
00000020: 4ac8 90bc ebf7 5abc a649 54bd 617e 853c
00000030: 4c95 0ebd 7d3f afbd 4957 06bd cd86 523d
00000040: af19 b93c 37e6 afbd 3be8 7e3c 14c5 23bd
00000050: 5c19 383c c36b 683d 9a1c c1bc b13d dd3b
00000060: 0781 6abd ed0f 093d 9666 e23d 880a dd3d
00000070: 5972 22ba f395 b8bd 1afd a83d b22a efbb
00000080: ae3f 4cbd ed24 0a3d 7716 443d 21a6 1bbd
00000090: 31be 3abd 7acf 05bd 0e33 7a3c 50b4 cfbd
000000a0: 3f00 eabb 83dd 733d 4875 d3bb af6e ed3c
000000b0: 8778 d63d 167c ad3d e152 a33c cfa7 3fbd
000000c0: 28cb 87bd a20d 3c3d 08fa e9bd dcf6 533d
000000d0: 1518 7abd 5bf6 ca3b e2cb bf3d da1d d43c
000000e0: 7a1d e03b 73dd 113d bff3 08be 1181 3dbd
000000f0: f2b0 193c 929e 4bbb d1f5 1abd 427d f8bc
00000100: 110c 07bd e149 cdbd 3316 7f3d 8f93 493d
00000110: da72 9abd 5d10 71bd 8e69 853d 89f2 61bb
00000120: 09a6 d63d 2bc5 09bd 8f4a e73c b01d 25bd
00000130: 2b01 ce3d 6427 85bd 111d 85ba dc27 723c
00000140: f597 853d 7fe3 05bd f8c3 873d 2b56 04bd
00000150: 5f9c adbd 7c7f 253d 9019 273e 74f3 b53c
00000160: ce43 8fbd 1e8f 1bbd 3202 5d3d 50e0 f83d
00000170: 3e55 993d dd25 2e3c 6c6d 323d 98a7 b3bd
00000180: 0bda 07ba f11d 84bd c5ed 863d 2625 be3d
00000190: be4e 26be 4120 983d 9283 a63c 9087 9fbb
000001a0: b456 82bd 4d8f 0ebd ee0d 433c 7910 79bd
000001b0: 982c 8ebd 0057 063d 2de3 10bd f61c c3bd
000001c0: 7288 be3d c111 03bd a0ae 273e 3f50 02bd
000001d0: 1aa1 a8bc ccee b33d a874 b9bc 462f f1bd
000001e0: 32c8 b73b b9e2 96bd 1e1d 3c3c 81bc dcbd
000001f0: 1e28 603d ac41 c83c f996 9f3c 799e 95bc
00000200: 09cb e3bd 4fc2 673c 4168 773b 6297 29bc
00000210: b315 bcbd b43f c93d fdf7 83bc b1df 633d
00000220: 86ad 07bc 7ace e2bb 5081 163b 4443 34bd
00000230: 6f60 313d 1247 04be 3d9e b43d 9f69 3a3b
00000240: c0ac 093c 561e abbc c600 37bd 8632 6e3d
00000250: d033 9cbd 7964 47bd fb67 8e3c 05fa 24be
00000260: cf7c 58bc c2d1 51bd 5963 183c dc3e 5abc
00000270: c538 3dbc c042 98bc 2981 a9bc 28d1 e3bb
00000280: 5e47 423d ae18 173d f111 293c 2718 9bbd
00000290: 96d6 8bbc 0c2e 49bc 4654 c8bb c3bc 463d
000002a0: 2863 8ebd 02ba 8fbd b9fa 4c3d ec22 34bd
000002b0: 05ba c43d b7ed aebd f164 23bd 51c1 983d
000002c0: 1576 213d d8d3 823c d637 f8bd 185e 0d3d
000002d0: 1b12 1c3d 03ae d63c 8c87 083d e36c 4d3c
000002e0: 21c7 e13c 3b6c 0bbe cb2d 0a3d cb42 833c
000002f0: 35b7 88bd c31d 393d 8175 9bbd 090a bcbd
00000300: b8f1 ec3b 0e33 17bd 5086 b73d 3f7a 24bd
00000310: 8d9f 97bd 7a38 50bd 759d 60bd 166e f53b
00000320: 4c5e 8cbc 9151 16bc 8419 ed3d c0ac 81bd
00000330: 0cc0 513d 5bff 82bd 9fcb 65bb 5e92 453d
00000340: 4817 52bc f038 86bd 4701 2f3e d034 fbbc
00000350: cb95 b2bb fc6c fd3c 9c63 fe3c 5b8a ac3d
00000360: 38b9 93bd 767d 1ebd 7288 8c3d 6a86 84bd
00000370: 6722 0b3d 7ed4 b5bc 45cc 3d3d 9ee3 6fbc
00000380: e71c 81bd 3666 5dbd f6fc 543d bc4a 99bd
00000390: d31f 73bd 0e3b 24bb 3ac0 bbbd 2364 13bc
000003a0: 0a01 383c a331 6abd d6cd 54bc 053a 66bd
000003b0: 5364 99bd 7b54 35bd 44d9 02bd 3025 a83c
000003c0: 2354 d8bc 8791 8ebd 45a1 0c3d d031 583d
000003d0: 0d3d 073d c663 08bc 0d86 90bc cec6 b0bc
000003e0: 8302 71bd 41b5 c23d 6916 edbd 3ea4 c5bc
000003f0: d121 9d3d 4fca bdbd 1ab7 943d e04b 903c
0.06377532 0.042728428 -0.0050686947 0.1496844 0.0006145648 0.07249226 0.008969227 -0.122875564
-0.01767363 -0.013364772 -0.05182805 0.016295614 -0.03481035 -0.08557031 -0.032798085 0.051398087
0.022595255 -0.08588832 0.015558298 -0.03998287 0.011236515 0.056743395 -0.023573209 0.006751739
-0.057251956 0.033462454 0.11054723 0.10793024 -0.00061968487 -0.090129755 0.082514 -0.007298791
-0.049865417 0.03372662 0.047872987 -0.03800023 -0.045591537 -0.03266857 0.015270961 -0.10141814
-0.0071411426 0.059537422 -0.00645319 0.028983442 0.104722075 0.08470933 0.01993698 -0.046790894
-0.06630546 0.04591144 -0.11424643 0.051749095 -0.061058123 0.0061939186 0.093650594 0.02589314
0.0068394514 0.03561158 -0.13374232 -0.046265665 0.009380566 -0.0031069857 -0.037832085 -0.030333165
-0.03297049 -0.10023857 0.06227703 0.04921299 -0.075414374 -0.058853496 0.065142736 -0.0034476838
0.104808874 -0.0336353 0.028233794 -0.040311515 0.100588165 -0.06501654 -0.0010155757 0.014780011
0.06523124 -0.03268766 0.06629175 -0.03230874 -0.08477091 0.04040478 0.16318345 0.022210814
-0.069953546 -0.037978284 0.05395717 0.12152159 0.07486962 0.0106291445 0.043561384 -0.087722
-0.0005182332 -0.06451023 0.0658832 0.09284429 -0.16240975 0.07428027 0.02032641 -0.004868455
-0.063641936 -0.03480463 0.011905177 -0.060806725 -0.06942099 0.032797813 -0.0353729 -0.09527008
0.09303369 -0.031999353 0.16375208 -0.03181481 -0.020584632 0.08785781 -0.022638634 -0.11776595
0.005608582 -0.07367463 0.011481551 -0.10778142 0.05472576 0.024445377 0.019481169 -0.018264042
-0.1112271 0.014145448 0.003775135 -0.010351034 -0.09183826 0.098266035 -0.016109461 0.05563325
-0.008281117 -0.0069215866 0.002296526 -0.044009462 0.043304857 -0.12917736 0.08819244 0.0028444303
0.008403003 -0.020888489 -0.044678472 0.05815365 -0.0762707 -0.048679803 0.017383566 -0.16111
-0.01321335 -0.05122543 0.00930103 -0.013320651 -0.011549179 -0.018586516 -0.020691471 -0.0069524236
0.047431342 0.03688877 0.010319219 -0.07572966 -0.017070096 -0.012279045 -0.006113562 0.04851986
-0.06952506 -0.070179 0.050043795 -0.043978617 0.09605793 -0.08541434 -0.039891187 0.07458747
0.039419252 0.015970156 -0.12120025 0.034513563 0.038103204 0.026206022 0.033332393 0.012538168
0.027560772 -0.13615505 0.033735078 0.01602306 -0.06675569 0.0451944 -0.075907715 -0.091816016
0.0072309636 -0.036913924 0.08961165 -0.040155645 -0.07403479 -0.05083511 -0.054837663 0.00748993
-0.017134808 -0.00917472 0.11577132 -0.063317776 0.05120854 -0.063963614 -0.0035063995 0.04823529
-0.0128229335 -0.06553829 0.17090331 -0.030664831 -0.0054499856 0.030935757 0.031053357 0.08424827
-0.07213062 -0.038693868 0.068619624 -0.0647095 0.033968356 -0.02219605 0.046337385 -0.0146416705
-0.06304341 -0.054052554 0.051999055 -0.074849576 -0.05935652 -0.0025059613 -0.09167524 -0.008996042
0.0112307165 -0.057176244 -0.012988528 -0.056207675 -0.074898385 -0.04427002 -0.031945482 0.020525545
-0.026407307 -0.06961351 0.034333486 0.05278188 0.033017207 -0.008324569 -0.017642045 -0.021579172
-0.058840286 0.09507228 -0.1157654 -0.024126168 0.076724656 -0.09267103 0.07261486 0.017614305

network_body._body_endoder.seq_layers.2.bias f4 [256]
00000000: ce8d a5bb 7999 06bc 346c 3fbc e284 0d3c
00000010: e2a9 e53b e884 abbc c72a 803c 68ca d63c
00000020: 4172 6e3c 164d 7dbb d67d 89bc dd7c cbbc
00000030: dc10 0a3c fdb7 4a3b d31d 803b 839a f83b
00000040: c6b9 153c c217 b23b 32e6 93bc d309 3cbc
00000050: 3664 803b bb30 223b cdd9 463c 2bbd a83c
00000060: 2705 d2bb 0300 c7bb cc00 3bbc 8b4a 0f3c
00000070: 0288 e9bc 803f 793c cf7b 803c b9f9 b5bc
00000080: f201 e1b7 c84f 383c e457 f1bb 709d bbbc
00000090: 27cd 793a 9e8c 1c3c 959d 633c 836d 08bc
000000a0: 5634 4cbb 04c5 ec3a 51fd 683b 16cb 8cbc
000000b0: bfca 923c 5625 9dbc 49f1 c63c 2bde 1bbb
000000c0: 0cc0 4d3c 7163 d6bb 6839 b43b 085f 64bc
000000d0: c2b0 b4bb 7644 34bc e683 553c 75e6 84bc
000000e0: 6247 8abc be41 acbc 6dc2 19bc 9bba 063c
000000f0: 4c89 3abc 863b a5ba 6450 e93b 9af5 ad3b
00000100: ee1d 0b3b 0254 683c 21f4 0a3c e63d 0b3c
00000110: 32e7 81bb c250 a5bc ddc9 10bc 366d 9c3c
00000120: 8085 8bbb 9c4d aa3c 8d09 2fbc afdf 69bb
00000130: bd05 ce3b 372b 00bb 96b6 8bbb b909 37bc
00000140: 45e3 7d3b bafc d93c 7add 923a d8ba 1dbd
00000150: 3392 91bc f7e5 b9ba 9307 733c bb64 cc3a
00000160: 88c8 febb decb 5c3b 2be4 683c 9441 e3ba
00000170: 80ec d3bc 4e37 8f3c 91b7 2bbc 9c07 52bc
00000180: 89f4 263c 22bc 9dbb 7045 653a d534 12bc
00000190: bc60 a83b de1e 533b 540f 693c fd10 d63a
000001a0: cbcf c13b bca9 443c e10e a1bc 1a7d 94bb
000001b0: 4a0f 50bc 2238 c73b f665 8dbc 0ecf eebb
000001c0: 7f2f d6bb d5f7 3e3b 4c10 a5bc 7ddc d7bb
000001d0: 55e3 89bc f71f 81bc 6a85 9bbc 8036 e1bb
000001e0: 6b24 ab3a a0c5 183b 26d1 3fbc c637 bcbb
000001f0: 3d3f 2abc 3c9c 88bb c890 b0bb 04ab a8bc
00000200: 7e15 9f3b 0e7c 18bc 9578 8d3c 2634 7dba
00000210: 21ff dd3b 3d07 8cbc 9df6 d03a 8132 7dbb
00000220: 979c 90bc f170 c03c bfc5 a53b e05c fdbb
00000230: c127 86bc 12d1 0a3c 8148 7a3c c99f 363c
00000240: b2c9 c3ba 4330 ab3c 1765 a8bb 4ebb c0bb
00000250: 3c09 113c 93cf 813a 9380 23ba 220c 3f3b
00000260: 43f3 a13b 98eb 1abc b121 8b3c 8418 8b3c
00000270: b11c 88bc c451 743c ba11 1ebc ebef 933c
00000280: 4310 0139 591a 71bb 5f95 cd3c cd23 13bc
00000290: c3ce cabc ee26 13ba 64f1 8abb 8a6f 8dbb
000002a0: 8dc2 8cbc 6ab7 073b 410e ffba 447d b4ba
000002b0: a4bb c5bb 9db3 8cbc b45f a3bc 3b75 1ebc
000002c0: 95da 543c 5c37 1abc 92b7 7ebc db4b 27bb
000002d0: e3f8 b93c ea3e 5ebc 46e0 6c3c 5239 5ebc
000002e0: 301c e4bc f16e a33b 98c8 1b3c 982f b33c
000002f0: 635b 15ba e47c 20bc d691 efbc d5fb 5d3b
00000300: 3a38 c6ba 6ad8 803c 3e24 fd3a b75d c0bc
00000310: 45f6 8bbc 8c74 febc d332 f93b 3838 6b3c
00000320: 1e4c c33c 7b0d 943b 9c24 1abc d9bb ab3b
00000330: c324 713c 135f ea3a 1436 98bc 008f 63bc
00000340: 64f8 e63b 1237 863c b4fb 0ebb 1607 593c
00000350: 9044 5fbb 464d a4bc a3f3 9a3c eba8 79bc
00000360: 689d 30bb b609 b23c cf8b 9cbb a121 a03b
00000370: 57d1 c0bb d28e 26bc f431 7c3c 208e c93c
00000380: 5444 9e3c 10a8 eb3b 0dde a43b f6b3 8dbc
00000390: e814 113c 445a 35ba 9ecd 8bbc 00b1 4fba
000003a0: 218f 233c ab5f b33c 08e1 133b 977c 97bc
000003b0: 38dd f1ba fc56 293b c9a7 dbba 992e b0bc
000003c0: dc67 203b e9ec d23c 8abb 303b f2f5 773c
000003d0: fa62 da3c 5eb2 d4bb 5d5c fdba 28e9 4ebb
000003e0: 1a47 09bd a641 dcba 09d6 57bc eab9 b93b
000003f0: aece 09bc 91aa 253c 01c1 4bbc b6f7 0dbc
-0.005052305 -0.008215302 -0.0116835125 0.008637639 0.007008777 -0.020937398 0.015645398 0.026219562
0.014553607 -0.0038650683 -0.016783636 -0.024839813 0.008426871 0.003093242 0.0039098053 0.0075867786
0.00913853 0.005434961 -0.018054102 -0.011476952 0.003918196 0.0024748284 0.012136889 0.020598015
-0.0064093056 -0.0060729994 -0.011413764 0.0087458 -0.028507236 0.0152128935 0.015684037 -0.022213804
-2.6822996e-05 0.01124949 -0.0073652137 -0.02290222 0.0009529166 0.00955501 0.013892551 -0.008326891
-0.0031159124 0.0018064086 0.003555138 -0.017186683 0.017918942 -0.019182842 0.024284976 -0.0023783545
0.012557995 -0.006542616 0.0055000074 -0.013938673 -0.0055142352 -0.0110026505 0.013031935 -0.016223172
-0.016879741 -0.021027442 -0.009384734 0.008223201 -0.011385273 -0.001260624 0.007120179 0.005308819
0.0021227556 0.014180185 0.008481056 0.008498644 -0.003964328 -0.02018011 -0.00883719 0.019095045
-0.004257858 0.02078896 -0.010683429 -0.0035686304 0.006287305 -0.0019557008 -0.0042637093 -0.011171752
0.00387402 0.026609767 0.0011204921 -0.038508266 -0.017769909 -0.0014182915 0.014833349 0.0015593985
-0.00777537 0.003369085 0.014214556 -0.0017338269 -0.025869608 0.017482426 -0.010480777 -0.012819197
0.010190138 -0.004813687 0.0008746004 -0.008923729 0.0051384848 0.0032214443 0.014224846 0.0016331967
0.0059146634 0.012003358 -0.019660415 -0.004531515 -0.012698958 0.0060796896 -0.017260533 -0.0072878664
-0.0065364237 0.0029139419 -0.020149373 -0.0065875635 -0.016832033 -0.015762312 -0.018984515 -0.006872952
0.0013057118 0.0023311153 -0.01170758 -0.0057439534 -0.010391054 -0.004169015 -0.005388353 -0.02058936
0.004854857 -0.009306921 0.017269412 -0.0009658955 0.0067747985 -0.017093295 0.0015942637 -0.003863484
-0.017652793 0.023491355 0.0050589736 -0.007732019 -0.016376378 0.008472698 0.015276075 0.011146494
-0.0014937429 0.020897036 -0.005139004 -0.0058817035 0.008852299 0.0009903781 -0.00062371156 0.0029151519
0.004942329 -0.009455584 0.016983839 0.016979463 -0.016615244 0.014912073 -0.009647781 0.018058738
0.00012308457 -0.0036789386 0.02509564 -0.008980704 -0.024756795 -0.0005613406 -0.004240202 -0.004316275
-0.017182613 0.0020708689 -0.0019459204 -0.0013770242 -0.0060343314 -0.01717549 -0.019943096 -0.009671505
0.012991567 -0.009412613 -0.015546696 -0.002552739 0.022701686 -0.013564805 0.014457768 -0.013563471
-0.027845472 0.0049875905 0.0095082745 0.02187328 -0.00056975166 -0.009795401 -0.029244345 0.0033872027
-0.0015122958 0.015728194 0.0019313169 -0.023482187 -0.017085204 -0.031061433 0.0076049357 0.014356665
0.023840006 0.0045182086 -0.009408142 0.005240899 0.014718237 0.0017881118 -0.018580474 -0.013889074
0.0070486534 0.016383681 -0.0021817507 0.013246318 -0.0034067966 -0.020056378 0.018915003 -0.015238027
-0.002694929 0.021733146 -0.0047774087 0.0048868214 -0.0058843303 -0.010165887 0.015392769 0.024603903
0.01931969 0.0071916655 0.0050313533 -0.017297726 0.008855082 -0.00069180527 -0.01706582 -0.00079227984
0.009982855 0.021896204 0.002256455 -0.018492026 -0.0018452769 0.00258392 -0.0016758378 -0.021506594
0.0024475968 0.025747733 0.002696725 0.0151343215 0.026658524 -0.0064909896 -0.0019329895 -0.0031572077
-0.033515073 -0.0016804233 -0.013173589 0.0056679146 -0.008411093 0.010111467 -0.012436152 -0.008665016

network_body._body_endoder.seq_layers.4.weight f4 [256, 256]
00000000: 5317 f63c bea0 f73c 3511 e2bc bedc 783d
00000010: a885 c4bb d050 8cbc d679 993d 502a 843c
00000020: 30d1 04bd de99 16bd 5c5c cd3c 39ff 0dbd
00000030: 667f 403d 2ce7 f93c ac01 d2bd 387f 05bd
00000040: 9ee2 073e 5f47 af3d d203 ab3d 6c96 a43c
00000050: 5aee e4bb b3a8 8cbd a19a 72bd c257 b4bc
00000060: 03f9 b1bb 0c66 ba3c fdfa 0dbd 4951 1d3d
00000070: cbc5 aebd b8ff 063d be3f 33bd c6b1 743c
00000080: 9149 ab39 a47f e1bc b7cc aa3d 6780 0c3d
00000090: f9be 623d f8aa 033d e27c 89bd 761e 0bbc
000000a0: 4a21 9ebd 15a9 00be 5a55 38bd d885 8d3d
000000b0: c299 ce3c 5c46 af3d 8ba5 cdbd 0482 873d
000000c0: 2ccd d5bc 0151 f63d a8fb d53a 5bdf 503d
000000d0: 651b 3dbc 31f7 873d 00b8 f6bd 7144 f9ba
000000e0: ec83 913d 7a75 933d 4760 b23c 6cd0 a5bd
000000f0: bcce 3ebc 50db 06bc 252c 22bc e216 153d
00000100: 03dc d83b 0347 8b3d 22d2 cdbd f399 613c
00000110: 1a30 eebc eeff 583d 1584 a1bd a4a0 d0bd
00000120: c557 f73c 0baa e7bc 9805 ba3d ba5c 5d3c
00000130: c773 83bc 8e47 e03c 52e5 013d 08ea bd3c
00000140: 6a92 1abe 683e 63bd eeba d8bd ca3a ca3d
00000150: 1d40 56bc 9a8e 873c 21cc c63d f718 8c3d
00000160: ad41 c6bd 3f10 c63b f225 233d 9053 2e3d
00000170: c01b c63c 50ad 463d 6bbb c4bc 5432 303c
00000180: 77ab 57bd e94e 3f3d 7123 b8bd 9dec 20bd
00000190: ccb6 803d 2608 023e e2bc 85bd 6a5b 1f3d
000001a0: 674e 973d 97ac 88bd 8a11 043e d468 3ebc
000001b0: fc81 ac3c 5c37 30bd acd6 9c3c a35b afbc
000001c0: 2b92 c33d 880b d5bc 9921 b13d a9a9 da3c
000001d0: 34d8 47bd d7bf debd 31f5 333d 62dd d9bc
000001e0: 4ada 29bd dbe0 9abd 3b66 9cbd 92f3 f0ba
000001f0: 6e40 c93a a8b6 943d 4bcf f23c 2483 ac3d
00000200: e45e e8bc ed61 c93d 1cff 0bbc 999e b8bc
00000210: 36a2 fb3c d680 b0bb c038 513b 08be 4c3c
00000220: 562a 90ba 7226 8a3c 06f0 1ebe 71ec 19bc
00000230: df81 01bd b228 333d 307f 6d3d 267f f5bc
00000240: 73f8 ae3c 9a3f bebd 016a 973d 54b0 b83d
00000250: 4fdc b93c 2d9f 843d a542 a2bc b4b4 c23d
00000260: ee05 c53a c435 0b3d 4662 273a 7c32 4ebd
00000270: 26a0 9a3b d2d2 c73d 31df 90bb 910c 86bd
00000280: d8ef 293c 66fe ab3d ff74 5e3d fc54 e93c
00000290: c237 a93c cd8f 8cbd 02e9 85bc 768f 873d
000002a0: 2b3f 873d a7ad 5bbd 96ef 7e3d 1ed5 353d
000002b0: 1532 a5bd 25ef 7cbd c1be 9dbb ea77 e23c
000002c0: ed1c f6bc e631 26bd 37cd 8b3d f1b6 813c
000002d0: 113a ad3d 133e 3a3b 2948 973d 52e6 953d
000002e0: 28a2 1d3d 83ed 963b 5f01 483d 2fa2 bbbd
000002f0: 9aa8 2bbd 4181 93bd e420 c13d f5ee 9e3d
00000300: db32 83bd 552a 313d 11de 88bc 9318 b7bc
00000310: 31bc f33c 00c6 ab3c 0307 823d 9662 cc3c
00000320: 13b6 533d 0aac ab3c 17d1 053d 1a37 9fbc
00000330: ce62 023d 2a5b b23c c480 823d 29d1 7c3c
00000340: f084 8dbc 61f9 593d ad01 893d 8819 7abd
00000350: b5af b4bc 78db 2a3c 107c b9bd cbb9 a93d
00000360: 82ad 1ebe 08b3 413c 4928 22bd 5646 873c
00000370: b6d1 583d 386c b63d 7930 d0bd ef30 313c
00000380: e7eb 50bb 660b 9e3c 6e06 d6bb 0e40 51bd
00000390: 5cf3 733c 6172 d0bc 5b37 ffbc bada a93d
000003a0: 99fb aa3d 6082 753d 7f23 993c cbef 0b3e
000003b0: 118d cdbd 8af4 ecbc 880e 77bc 0d39 a1bd
000003c0: 38aa 22bb c3f7 30be b6b2 383d 5e2e dcbc
000003d0: 18e9 df3d afe0 153e 01bc 063c 22f6 b9bd
000003e0: 7741 88bb 5b9a 10bc 3e5d 57bb 4987 203b
000003f0: bd83 a33d ac7b a93d 8e10 833d da29 6abc
0.030040419 0.030228015 -0.027596096 0.06075739 -0.0059973784 -0.017128378 0.074939415 0.016133457
-0.03242606 -0.036767833 0.025068454 -0.034667227 0.046996497 0.03050574 -0.10254225 -0.03259203
0.13270041 0.08558535 0.08350338 0.020091258 -0.0069864215 -0.06868114 -0.059229497 -0.022014502
-0.005431296 0.022753738 -0.03466319 0.038407598 -0.0853382 0.032958716 -0.04376196 0.014934963
0.00032670473 -0.027526684 0.083398275 0.03430214 0.055357907 0.03214547 -0.06713273 -0.008491149
-0.07721193 -0.125645 -0.045003273 0.06910294 0.025219802 0.08558342 -0.100413404 0.066165954
-0.02609881 0.12027169 0.001632561 0.05099426 -0.011542176 0.06638945 -0.12046814 -0.001901759
0.0710524 0.07200141 0.021774424 -0.08096394 -0.011645969 -0.008230999 -0.00989822 0.036398776
0.0066180243 0.06800654 -0.10049845 0.0137696145 -0.029075671 0.05297845 -0.07886521 -0.1018689
0.030193219 -0.028279325 0.09083098 0.013510877 -0.016046418 0.02737787 0.031712838 0.023182884
-0.15094915 -0.055479437 -0.10582529 0.098744944 -0.013076809 0.01654749 0.09706903 0.06840699
-0.096804954 0.006044417 0.03983111 0.04256016 0.024183154 0.048505127 -0.02401515 0.010754187
-0.052653756 0.046706114 -0.08991135 -0.039288152 0.06284866 0.12698421 -0.06530167 0.03890554
0.07388001 -0.06673544 0.12897316 -0.011621673 0.021058075 -0.043021545 0.019145332 -0.021406
0.09549364 -0.026006475 0.08648986 0.026692228 -0.04879017 -0.10876434 0.043935005 -0.026594821
-0.041467942 -0.07562419 -0.076366864 -0.0018383136 0.0015354285 0.072614014 0.02963986 0.084234506
-0.02836556 0.09833131 -0.0085447095 -0.022536563 0.030716997 -0.005386452 0.0031924695 0.012496479
-0.0010998945 0.016864035 -0.15521249 -0.009394751 -0.031617995 0.043739982 0.057982624 -0.029967856
0.021358704 -0.09289475 0.073932655 0.09018007 0.02268806 0.06475673 -0.01980717 0.09507123
0.0015031674 0.03398682 0.00063851883 -0.050341114 0.004718798 0.09757008 -0.0044211377 -0.065453656
0.010372125 0.08398132 0.054310795 0.028482907 0.02065647 -0.06863365 -0.016346458 0.0661916
0.06603845 -0.053632405 0.062240206 0.044392698 -0.08066193 -0.061751503 -0.0048139994 0.02764507
-0.03004309 -0.04057493 0.06826251 0.015834304 0.08458341 0.0028418347 0.0738681 0.07319321
0.038484722 0.0046059503 0.048829433 -0.091617934 -0.041908838 -0.072023876 0.094301015 0.07760421
-0.06406184 0.04325326 -0.016707452 -0.022350585 0.029752823 0.020968437 0.06348994 0.024949353
0.05168731 0.020956058 0.032670107 -0.019435454 0.03183251 0.021771986 0.06372216 0.015430727
-0.017275304 0.053216342 0.06689773 -0.061059505 -0.02205644 0.010428302 -0.09056866 0.0828739
-0.15495875 0.0118224695 -0.0395892 0.016513031 0.05293437 0.0890736 -0.101654954 0.010814889
-0.003187889 0.019292545 -0.006531528 -0.051086478 0.014889564 -0.025445165 -0.031154325 0.08293672
0.0834877 0.05993879 0.018693684 0.13665693 -0.10036672 -0.028925199 -0.015079148 -0.0787221
-0.0024820697 -0.17282014 0.045092307 -0.026877578 0.10933131 0.14636491 0.008223535 -0.09080149
-0.0041581946 -0.008825864 -0.0032861973 0.0024494699 0.079841115 0.08275542 0.06399642 -0.014292205

network_body._body_endoder.seq_layers.4.bias f4 [256]
00000000: 6870 97bc b407 1ebd 9119 e9bb a418 f53b
00000010: 8212 0cbd 2479 33bc f939 50bc 78c3 90bc
00000020: a13b 113c 4798 fb3b 190b fcbb ab27 7e3b
00000030: 514a 203c 5837 8b3c 19b7 84bc b181 aabb
00000040: ba93 163c 6e55 223c bc7c 8bbb 5a2b 613c
00000050: bc69 183d 6422 10bc b9cd 5fbc 8f4d c5bb
00000060: 12d8 363b fc95 c5ba e7a1 8fbc 4e24 043c
00000070: 43fe a5bc 4877 b5bb 2ab3 2b3c a674 f5bb
00000080: 674a 86bc 8b53 d63b 0387 123c be67 3c3c
00000090: 8e81 613c a93b 2c39 2770 d7ba b395 f03b
000000a0: cb80 543b fe43 5c3c 2bd6 b4bb 5636 d73b
000000b0: 9417 903b d847 ff3c 1f34 ef3c fc13 83bc
000000c0: fcc9 d2bb 667c 153b 8fa8 aa3c 5e13 903c
000000d0: 49d0 af3c ccd3 c83b 9316 f4ba 1b3e 973a
000000e0: f25d c9bb 26f5 a4bc 75cd 44bc af55 403b
000000f0: 4f9c c53b 2abc babb 9e83 6bbb 79cb 8d3b
00000100: 451f e03a cdc4 e23c d952 dfbb 0b5d 66bc
00000110: 9d88 b73c e955 5d3b c143 69bb c862 a93c
00000120: b1d5 b1bb 5697 d9bb 7820 aebc 2a1e b13a
00000130: 694e 0ebc 1d51 f13b f6fc 063c fe7f 9cbc
00000140: 9661 74bb 4e95 6abc 62ea ac3b 8bc3 143c
00000150: 57c8 013c dfaf 473c cb6f 303b 8a0c 013b
00000160: a1ea 49bb e49d dcbb dd36 a63b 49ee 79bc
00000170: 86e1 9cbb 66d6 763c 5c8a d7bb 7fd4 0e3a
00000180: c439 993a 121a c3bc 2280 703c 19ef b6bc
00000190: 9272 b7bb 9f8e 913b 2329 543b 4f62 6f3c
000001a0: 7bd3 afbb 74a2 933c aebf b6bb 5f68 103c
000001b0: dfca 06bc f601 9a3b 9e3f 3ebc 1e46 2ebc
000001c0: 03c1 453c e210 92bc e4a5 ee3c 3718 30bc
000001d0: c713 523b 0c03 24bc 905d 963c 5512 39bc
000001e0: 805c 7f3b 533c 1a3c e927 47bb d3d9 27bc
000001f0: 46e3 823c 6093 eabb 2b1b 0d3d 7e1f fe3b
00000200: e88e 06bc a738 1f39 fac7 7e3c 4845 df3b
00000210: 7ee3 0dbb b36f 05bc bad1 e5bb bd66 bcbb
00000220: 15bd 98bb d63d 153c 5908 94bb 5628 1a3c
00000230: b765 e5ba eb08 f53c b9f4 0dbc 270e 20bc
00000240: 704e 143b bd30 23ba cf0a 84bb c41a 8a3b
00000250: 646f 0fbd b223 88bc dc65 78bc cca7 82ba
00000260: 1af7 19ba 9ac8 c73c 11a2 a7ba eb35 263c
00000270: 58b2 aabb afa5 f339 e935 5dbc 9be4 77bc
00000280: f209 84ba c3f2 c13b 191a 29bc bd94 37bc
00000290: 86db abbc e799 66bc ee76 eebb 5876 263d
000002a0: 5ac3 843a 953f a93b 2629 a83b 50e4 d33c
000002b0: 8558 33bc caad 61bb 36f8 c9bc 2376 353c
000002c0: e0e9 06bc 3abe 2ebc b272 1abc 0c01 a43c
000002d0: e34c c3bc 7866 fd3c bd4a d83b 258a 3d3c
000002e0: 2a23 ffbb 2832 a63c 4b25 89bc c74c 09bd
000002f0: d706 d43a f589 da3c 899f 2e3c 3ca8 e13b
00000300: 5da6 91bb d338 ebb9 361b 51bc 6d8a bab9
00000310: 714c aeba efe5 e2bb a022 073c 0990 903c
00000320: 2ed0 a93b f1b9 813c af0d 3e3c e69d d1bc
00000330: 8111 073b e535 0a3c 4771 f7bb 7edf 7abc
00000340: b35d 88bc 0fb0 9dbc b4c6 6f3b feee 6fb9
00000350: cd3e 58bc 9a61 67bc dbdd f93b ba11 33bc
00000360: 3617 523c 3bc3 1f3b 1b88 dbbc 273a c3bb
00000370: a7e7 a5bc 098d 873c 6e54 7d3b 251f 71bb
00000380: 5680 97ba edf5 aebb 1775 42bb 7f4a 5c3a
00000390: 95f5 68bc 81e9 e93b e41e 3abc fdcf f73b
000003a0: 6748 59bb 4bde 44bc 42a7 bebb 95a8 2839
000003b0: a52a bc3a 1977 193c bd46 fcbb 5da2 39bc
000003c0: 911b 5abc d037 de39 ca4b 1c3b 438d 233c
000003d0: 934a 8db9 5682 853c 9e1e 3abb 39b9 6fbc
000003e0: 07b3 1e3c 8cae febb 1366 13ba 3b0a 17bc
000003f0: 31b4 a4bc 9084 0c37 44cb 15bc 7eb7 9a3c
-0.018486217 -0.038581565 -0.0071136435 0.007479744 -0.034197338 -0.010954175 -0.012709134 -0.017671332
0.008864314 0.007678065 -0.0076917526 0.0038780968 0.009783343 0.016994163 -0.016200589 -0.0052034487
0.009190494 0.009908063 -0.004256813 0.013743246 0.03721021 -0.008797262 -0.013659888 -0.0060212086
0.0027899784 -0.0015074606 -0.017533256 0.008065296 -0.020262843 -0.005537901 0.010479728 -0.007490712
-0.0163929 0.006540721 0.008943322 0.011499343 0.013763798 0.00016425423 -0.0016436622 0.0073420643
0.00324254 0.013443945 -0.005518695 0.0065677566 0.004397342 0.031162187 0.029199658 -0.01600074
-0.00643277 0.0022809743 0.020832328 0.01758736 0.021461623 0.006128764 -0.001862245 0.0011538895
-0.0061452324 -0.020136427 -0.012011875 0.0029347946 0.0060305963 -0.0056987004 -0.0035936604 0.0043272343
0.0017099163 0.027681733 -0.006815296 -0.014060269 0.02240401 0.003377313 -0.0035593363 0.020676985
-0.0054270853 -0.006640355 -0.021255717 0.0013513018 -0.008685687 0.007364406 0.0082390215 -0.019104
-0.003728961 -0.014317824 0.005276964 0.009079824 0.0079213 0.012187927 0.0026922103 0.0019691312
-0.0030810016 -0.006732689 0.005072458 -0.0152545655 -0.0047876267 0.015065765 -0.006577773 0.00054485345
0.0011690189 -0.023816142 0.014678987 -0.022330808 -0.0055983746 0.0044420506 0.0032373152 0.014610841
-0.0053657866 0.0180218 -0.005577049 0.0088139465 -0.008227079 0.004699941 -0.011611847 -0.010636834
0.012069943 -0.017830316 0.029131837 -0.010747961 0.0032055245 -0.010010492 0.018355161 -0.011295875
0.0038965046 0.0094137965 -0.0030388779 -0.010244804 0.015977513 -0.0071586818 0.034449738 0.007755219
-0.008212782 0.00015184526 0.015550608 0.006813679 -0.0021650488 -0.008144307 -0.0070135267 -0.005749552
-0.004661212 0.009108981 -0.0045175967 0.009409031 -0.0017501627 0.029911479 -0.008664303 -0.009768999
0.002262976 -0.0006225219 -0.004029609 0.0042146165 -0.03501834 -0.016618583 -0.015161004 -0.000996822
-0.0005873308 0.024387646 -0.0012789388 0.010144691 -0.0052092485 0.00046472016 -0.013501623 -0.015130187
-0.0010073765 0.005918832 -0.010321164 -0.011204896 -0.0209787 -0.014074779 -0.007277361 0.040640205
0.001012902 0.0051650503 0.0051318584 0.025865704 -0.010946398 -0.0034435862 -0.024654489 0.011075529
-0.008234471 -0.010665471 -0.00942676 0.02002003 -0.023840373 0.03093265 0.0066007064 0.011568581
-0.0077861743 0.020287588 -0.016741415 -0.033520486 0.0016176355 0.026677111 0.010658153 0.00688651
-0.004444881 -0.0004486503 -0.012762835 -0.0003557982 -0.0013297928 -0.006924383 0.008248001 0.017646806
0.0051822877 0.015835734 0.011599942 -0.025587987 0.0020609798 0.008435701 -0.0075513455 -0.015312074
-0.016646242 -0.01924899 0.0036586942 -0.00022881848 -0.013198567 -0.014122391 0.007625324 -0.010929519
0.012822917 0.002437784 -0.026798299 -0.00595786 -0.020252062 0.016546743 0.003865506 -0.0036792245
-0.0011558633 -0.005339375 -0.0029671842 0.0008403435 -0.014218708 0.0071384315 -0.011359904 0.007562636
-0.0033154727 -0.012015889 -0.0058182785 0.0001608453 0.0014355971 0.009366774 -0.0076988623 -0.011330214
-0.013312236 0.00042384723 0.0023848885 0.00998241 -0.00026949178 0.0162975 -0.0028399597 -0.014631563
0.009686238 -0.0077722725 -0.0005622815 -0.009218748 -0.020105453 8.375515e-06 -0.009142701 0.018886324

action_model._continuous_distribution.log_sigma f4 [1, 2]
00000000: 361c 95be b1a7 11be
-0.29123086 -0.14224125

action_model._continuous_distribution.mu.weight f4 [2, 64]
00000000: 10ae b2bd a862 8dbd dfd2 86be 1094 c3bd
00000010: 155d 573c a655 c6bd 8b13 1b3d 7419 c53a
00000020: c9b9 9abc 22c6 f9be 8cde 09bb b389 dbbd
00000030: 0fdb 00be 85bf 3f3e 940e 2b3d eabd 13bc
00000040: 07a3 dc3c 6edd d4bd dd5d 9a3d 6199 67bc
00000050: 6707 c63d e19d 133f 029d f63c fefd 1abc
00000060: 6ca6 033e a098 65bd 648b 56bd c08f 9b3e
00000070: 9704 b93d 0506 0a3d cb25 65bd aa44 1fbe
00000080: f734 9fbd 53af aabd ac62 2dbe 7901 65bc
00000090: 9c04 bbbc 2058 8ebc 7942 2bbe 5aee 743d
000000a0: b17c 13bd 63ca 42be e226 273e f041 273d
000000b0: 3fdf a7bd 47f1 cebc 1076 e7bc de6a 8abc
000000c0: d44f f7bc f395 ab3e 6571 9a3d d7be 093e
000000d0: 9bdd 223d 9b80 a2bc f53d da3d f7fa 6d3e
000000e0: a90d 093e 3edf 023e 5395 a33d 2449 cbbc
000000f0: 1079 cd3d 5412 e3bd 9691 80bd 96c3 003d
00000100: 7ab1 1ebe 00ab 343e e14e 3cbe 69d2 fc3c
00000110: 0ab4 363e 4729 f8bc aae9 493d 1ef9 4bbe
00000120: 4bef b83d f360 47be 46d0 08be 715c 9abd
00000130: abd6 f63d b481 323e e0b4 39be e2b0 a33d
00000140: 1811 7abc 5486 95bd e68f 1abd d69d 433e
00000150: d4f3 4cbd bd9e 213e b9bf 48bd 5fba b2bd
00000160: 515a 943d 5cac 0b3e 4c4d f73d 05ce 763e
00000170: 07fd ea3d 7b71 afbd 209b a13d 8eed 52be
00000180: 9fb5 18be f6a2 4abe 0c71 98bd 6111 c4bd
00000190: 0d1b 993b 0487 be3d 74af 0abe 1867 34be
000001a0: 9c13 0dbe 8b75 c83c c1c4 5dbd 3c5b bebc
000001b0: 142e a5bd d9e9 0b3e 6697 21be 4612 353d
000001c0: fb50 dc3d 25eb 683e b62d bd3d 99cc afbd
000001d0: dee4 3ebd 9036 d4bd c1d0 0cbd c6f7 e53c
000001e0: 8130 493e 960c a93c 9de2 28bd 3f4a 423d
000001f0: e15f 0c3c 2979 953d 0ad3 cfbd d345 9d3d
-0.08724606 -0.06903583 -0.26332757 -0.09549725 0.013144751 -0.09684305 0.037860435 0.0015037493
-0.018887417 -0.48783976 -0.002103719 -0.107196234 -0.12583564 0.18725403 0.04176195 -0.009017447
0.026933206 -0.10393797 0.07537434 -0.0141356895 0.09669381 0.5766278 0.030104164 -0.0094599705
0.12856454 -0.056053758 -0.052379027 0.3038311 0.090340786 0.033697147 -0.055944245 -0.15553537
-0.07773774 -0.08334222 -0.16932172 -0.013977402 -0.022829346 -0.017376006 -0.16724576 0.059797622
-0.036007587 -0.19022517 0.16323426 0.040834367 -0.08196878 -0.025261534 -0.028254539 -0.016896661
-0.030189432 0.3351284 0.075411595 0.13451706 0.03976212 -0.019836714 0.106563486 0.23240267
0.13384117 0.12780473 0.07987466 -0.02481515 0.100328565 -0.1108748 -0.06277768 0.031436525
-0.1549739 0.17643356 -0.18389465 0.03086205 0.17842117 -0.03029312 0.049295105 -0.1991925
0.090300165 -0.19470577 -0.133607 -0.07537163 0.120526634 0.1743229 -0.18135405 0.07992722
-0.0152628645 -0.07301012 -0.03773489 0.19103178 -0.05003722 0.1578321 -0.049010966 -0.08726954
0.07243789 0.13639969 0.1207529 0.24102028 0.114740424 -0.085665666 0.07890916 -0.20598432
-0.14913033 -0.19788727 -0.07443437 -0.09573627 0.004672414 0.09303096 -0.13543493 -0.17617452
-0.13777012 0.024470111 -0.054142717 -0.023236863 -0.08065429 0.13663425 -0.1578041 0.04420688
0.10757633 0.2274595 0.09237234 -0.08583946 -0.046604984 -0.103619695 -0.03437877 0.02807225
0.19647409 0.020635884 -0.04123174 0.047434088 0.008567781 0.072985 -0.101476744 0.076793335

action_model._continuous_distribution.mu.bias f4 [2]
00000000: c050 b8bc 5a3c dbbd
-0.022499442 -0.107048705

onnx::LSTM_102 f4 [1, 256, 256]
00000000: 6d41 ad3d 8f2e 0dbe c644 be3d ccbc 943d
00000010: 7015 08be 5bd4 0cbe cc69 44bd 5a1e d63d
00000020: de78 993d a239 133e 5766 313d 6f19 d9bd
00000030: 6392 74bd 1b9e d03c 8d83 e8bd aa08 063c
00000040: 456b 18bd cdd0 ac3d ec37 e7bd 068d 8fbd
00000050: 7d7a bc3d 0559 f6bd caf0 9cbd 9f77 ddbb
00000060: e13a 0e3d 0e47 37bc fff1 26be ed82 86bd
00000070: bb7c 043d 97a0 863c 7c56 833a 5daf 2c3c
00000080: fb8e 02be 197a 463d 78d9 bc3d a916 9ebd
00000090: f6ec 003e e70f 003e 16b4 febc 43dc 0fbe
000000a0: 04fe d53d ddb4 f03d e81d 883d 5799 143e
000000b0: 412c 94bc 349f 94bd 7325 8dbd 7a4b 6abb
000000c0: 151b 013e abff ff3d a9ec 8dbd b6ee babb
000000d0: d365 f23d 10a3 d23d 29f9 64bd b397 cebd
000000e0: 932a 29bd 27ce 813d 3a0c aa3d d27b 27bd
000000f0: 71ab f7bd 7ae5 16be 47d5 a3bd 968c 703d
00000100: 340f c8bd 8020 1f3d daf6 db3d 88ac 91bd
00000110: fec6 313c 6815 b13c 70bc 1cbd 3228 923c
00000120: cfda 83bd 7123 9cbd da3f 763d 4f8a e5bd
00000130: 4aa3 8d3d 5688 b2bd d557 65bd d214 9f3d
00000140: 859f e23b 717a 1fbe 9bda 033d 9e04 43bd
00000150: f6ef d33b 376c 9a3d 53e5 893c cd82 54bd
00000160: f53e e53d 4249 2d3d 2d3a 013e ffd4 643d
00000170: 66ba 523c 88c0 2f3d 104f c3bd 49e5 893c
00000180: b25a 79bd bb1d 913d 34e4 ac3c 24b3 f8bd
00000190: b6f4 bc3c c890 9bbd 31a8 c83d 6ce5 f83d
000001a0: 8b24 b13d fb92 c7bd 6031 103e d6c2 943d
000001b0: f86f 4dbd fad6 dfbd b88a edbd 0602 16bd
000001c0: 76d0 74bd 9751 0ebe 3c04 493d 98ef 08bd
000001d0: 8c81 2bbd f140 cc3d 03ff 0dbd f7f5 c5bd
000001e0: 2103 913d 0cbe c6bd dc64 8c3d e733 b0bd
000001f0: 7480 de3d b328 95bc 2535 c4bd 4b0b fbbc
00000200: 7589 98bd 1baf 473d b734 be3d 2694 e43d
00000210: dd1d 97bd c913 d5bd b8b7 80bc e88a 0fbd
00000220: 9901 ccbd f1d7 80bd 3068 973d 207d 933d
00000230: 1a7d b9ba 0b7a 083d e938 9d3d e110 c2bd
00000240: 2c9f c13d 2963 1a3d 9c53 863c e653 843d
00000250: 16cc 29be 77ee 74bd 3314 29be 798c cfbd
00000260: ed4c ab3d b7c2 10bd 05d8 bebd fedd 8abc
00000270: 86e5 ba3d 4b90 88ba d410 76bd 954f 92bd
00000280: a1ac 71bd 2670 c7bd 6f39 37bd 30ec ae3d
00000290: 552b 26bd 4141 febd 33dd f63c 6580 e9bd
000002a0: a651 de3d 60f9 f73d 1867 da3c 2bed 42bd
000002b0: db0c cc3d 2ba0 d6bc ad61 c5bd 5217 ef3d
000002c0: 6b0f a03d da37 8abc 9a10 a2bd 2ece d93d
000002d0: 863b 173b 6b36 f63d a596 85bd 22be 473d
000002e0: f6bb 94bd 727e 853c f3c5 533d c3bf c73d
000002f0: 5653 96bc 27e4 273d b4a9 00bd bf4d e3bb
00000300: 82d8 a8bd 4117 8cbd f2a0 5fbd 8cfa 1a3d
00000310: 98ca f0bb b774 efbd 5261 433d 4d70 0e3e
00000320: 759b 51bd ef2f 8ebd 42f3 6f3c 3f21 c8bd
00000330: 07d6 e43d 826f 383b 3015 703d f756 533c
00000340: 3cef e73c 5cb1 3e3c e6f7 b3bd 084e 4d3d
00000350: fdf0 92bd 8909 693c bd7b 90bd 16dc 8d3d
00000360: f657 013e cdd4 98bd 0065 f73d 355d a03d
00000370: 0d3d a9bd 3027 cd3c aaab 943d e7ee cb3d
00000380: 1212 49bd 8301 ae3d 1cb8 993c f56b 65bd
00000390: bfad 893b c499 98bd c4f7 84ba 1bcf df3c
000003a0: 2715 2b3d 37c9 f13d 0fbb f4bd 51a6 063e
000003b0: ca58 c9bc 972d 8fbc 7035 0dbe 6da8 223c
000003c0: 2911 d5bd f9cf ae3d a33b b1bb 893c f1bd
000003d0: 433b 303e f727 8abd 6806 763d 8a6b 693d
000003e0: ad00 5b3d d3b9 ebbc 5c46 ccbb 1f2d d7bd
000003f0: c6be 0abe 18b4 ee3d f5f9 ce3d 32d0 1b3e
0.084597446 -0.13787292 0.09290461 0.07262573 -0.13289428 -0.13752882 -0.04795246 0.10455008
0.07493757 0.14377454 0.04331049 -0.10600554 -0.059709918 0.025466016 -0.11353216 0.008180777
-0.037211675 0.08438263 -0.11289963 -0.0700932 0.0920305 -0.12028698 -0.07663114 -0.0067586447
0.03472412 -0.011186374 -0.16303252 -0.06567941 0.032345515 0.016433997 0.0010020281 0.010539857
-0.12749855 0.048456285 0.09221166 -0.07719166 0.12590393 0.12506066 -0.031091731 -0.14048867
0.1044884 0.11753247 0.06646329 0.1451162 -0.018087508 -0.07256928 -0.068919085 -0.0035750554
0.12607987 0.12499937 -0.06929905 -0.005704726 0.11835828 0.10285008 -0.05590168 -0.10087528
-0.041300368 0.063381486 0.08303113 -0.04088957 -0.12093247 -0.14735976 -0.07999664 0.058727823
-0.09768525 0.038849354 0.107404426 -0.07112986 0.010850666 0.021616653 -0.038265646 0.017841432
-0.06438219 -0.076239474 0.060119487 -0.11208021 0.069159105 -0.0871741 -0.055991966 0.07767643
0.006915989 -0.15574051 0.0321909 -0.047611825 0.0064678146 0.075401716 0.016832983 -0.051882554
0.11193649 0.042306192 0.12619849 0.05586719 0.012861824 0.04290822 -0.09536564 0.016832964
-0.06087751 0.07085749 0.02110491 -0.12143543 0.023065906 -0.07595974 0.09797705 0.12153134
0.08649548 -0.09744831 0.14081335 0.072637245 -0.05015561 -0.109296754 -0.11598724 -0.036623023
-0.059769116 -0.13898312 0.049076304 -0.03343162 -0.041871592 0.09973324 -0.034667026 -0.09666055
0.07080675 -0.09704217 0.06855175 -0.086036496 0.10864344 -0.018207883 -0.09580449 -0.030645033
-0.07448093 0.048750978 0.09287398 0.111610696 -0.07378743 -0.10404164 -0.015712604 -0.03504458
-0.09961242 -0.062911876 0.07392919 0.072016 -0.0014151663 0.033319514 0.076768704 -0.09475876
0.09454188 0.037692223 0.01639729 0.06461315 -0.16581759 -0.05979773 -0.16511612 -0.10134215
0.08364282 -0.035341945 -0.09318546 -0.016951557 0.09125809 -0.0010418979 -0.060074642 -0.07144085
-0.059002522 -0.097381875 -0.044732507 0.08541143 -0.04056867 -0.1241479 0.030134773 -0.114014424
0.10855417 0.121081114 0.026660487 -0.047589462 0.099633895 -0.02619942 -0.09637771 0.1167437
0.07815441 -0.016872335 -0.07913323 0.10635029 0.002307625 0.12022098 -0.06522874 0.04876531
-0.07262413 0.016295645 0.05170245 0.097533725 -0.018350285 0.040989067 -0.03141184 -0.0069367583
-0.082444206 -0.06840373 -0.05459685 0.037836596 -0.00734837 -0.116921835 0.047700234 0.13910027
-0.051173646 -0.06942736 0.0146453995 -0.09771966 0.11173635 0.0028142636 0.058613956 0.012899152
0.028312318 0.011638965 -0.08787517 0.050123245 -0.07174871 0.014223465 -0.07054851 0.06926744
0.1263121 -0.074624635 0.12079811 0.07830278 -0.08263598 0.0250431 0.07259305 0.099576764
-0.0490895 0.08496382 0.018764548 -0.05601116 0.0042016204 -0.074512035 -0.0010144641 0.027320435
0.04176822 0.11805957 -0.11949741 0.13149382 -0.02457847 -0.017477794 -0.13789916 0.009927851
-0.10403664 0.085357614 -0.0054087206 -0.11779124 0.17210107 -0.06745904 0.060064703 0.056987323
0.05346744 -0.028775131 -0.0062339734 -0.10506653 -0.13549337 0.11655444 0.10106269 0.15216139
