results/Abstract1/bachelor/bachelor-32778694.onnx (onnx, 872319 bytes, 12 tensors)

network_body._body_endoder.seq_layers.0.weight f4 [256, 7]
000000 a1 93 8b be 69 e3 4f bf 16 f4 fc 3d 0e 63 b5 be
       -0.2726107 -0.81206375 0.12351243 -0.35427135
000010 a5 a6 ed be c1 a5 18 3e 4a 2c 80 be 79 50 75 be
       -0.46416202 0.1490698 -0.2503379 -0.23956479
000020 c9 6f ed bd b8 a7 0a bf 37 22 f1 be 20 c1 20 bf
       -0.11593587 -0.5416217 -0.47096416 -0.62794685
000030 ee fe 37 bf 9d dd 00 bf 65 b0 22 3d 96 10 73 3f
       -0.71873367 -0.50338155 0.039719004 0.94947183
000040 06 f9 16 3f d3 71 04 3e 29 5f 40 3f be b1 38 bf
       0.5897373 0.12934045 0.751452 -0.72146213
000050 a0 24 5c 3e 36 9a 0c 3e 4a c6 b8 3e de b4 48 3e
       0.21498346 0.13730702 0.36088783 0.19600245
000060 e4 98 13 3e 1a 1d 6f be 99 ba 0d 3e 5d 54 bc 3c
       0.14413792 -0.23350945 0.13840713 0.022989446
000070 71 55 be 3e 05 b0 cb 3e fb d4 17 3f 50 2c b0 be
       0.37174562 0.3978273 0.5930936 -0.34408808
000080 b5 f3 3c 3e cf 12 04 3e 99 1c 91 be b8 6b be be
       0.18452342 0.128978 -0.2834213 -0.37191558
000090 5c 4c c0 bc e0 ce 97 3c bb 6c ad 3d 90 e3 bb bb
       -0.023473911 0.018531263 0.08468004 -0.0057339147
0000a0 c1 61 e5 be 10 91 71 3b 2d 72 75 be 5f 8e 38 bd
       -0.44801143 0.0036860146 -0.23969336 -0.04505765
0000b0 b7 4a 2f 3f ac a6 f8 be 6c 6e 36 bf 5e 08 99 3d
       0.6847338 -0.4856466 -0.7126224 0.07472299
0000c0 fc ad fa be 87 fa 26 bb af 47 d6 3e 5c 95 31 3d
       -0.48960865 -0.0025478916 0.41851565 0.04335533
0000d0 70 11 19 be 9c 82 42 3e 2c 2f 46 bd 33 6a 15 be
       -0.14948058 0.18995136 -0.04838483 -0.14591293
0000e0 24 bf ba be dc 7c 0f 3f 32 9e 6c 3e 88 8b d6 be
       -0.36473954 0.56049895 0.23107222 -0.4190333
0000f0 7d e6 c0 3c 03 a9 28 3e 81 3d ec 3e 56 c7 d3 be
       0.023547405 0.16470723 0.46140674 -0.4136302
000100 c2 c9 df be 6c 5a 63 3d e7 b6 da 3e 94 2b fe be
       -0.43708616 0.055506155 0.42717668 -0.49642622
000110 c7 73 66 bf b9 b1 09 bf bb c2 42 bf c4 99 bd 3e
       -0.9002041 -0.5378681 -0.76078385 0.37031376
000120 b9 df 16 bf 63 94 a3 3e 3b 02 6a bd 31 b0 71 3e
       -0.58935124 0.31949148 -0.057131033 0.23602368
000130 28 70 31 3f c8 6a 2c bf 83 45 de 3e 6f ae 44 3d
       0.6931176 -0.67350435 0.43412408 0.048017915
000140 79 61 11 bf 2c a3 1d bf eb 87 68 be 14 3e 0c bf
       -0.56789356 -0.61577106 -0.22708099 -0.54782224
000150 6b f8 65 3f e2 0b 8a 3e 0f 70 04 be c5 8a 43 be
       0.8983218 0.2696219 -0.12933372 -0.19095905
000160 ea 49 d3 be 85 85 18 3f 29 d9 e5 3e 49 77 c2 bd
       -0.4126733 0.59578735 0.44892243 -0.09495408
000170 5e 4d c0 be b3 c7 6f be 43 02 bf be 80 78 8f bb
       -0.37559026 -0.23416023 -0.37306413 -0.0043783784
000180 98 21 d0 bd fd 85 36 be 0c 83 34 be 02 bf 35 be
       -0.101626575 -0.1782455 -0.17628115 -0.17748645
000190 e2 04 a9 be b7 30 ea be b5 3d ba 3e 0f 80 25 be
       -0.33011538 -0.4574029 0.36375204 -0.16162132
0001a0 90 d9 3c bf 70 58 99 bd ac 01 ff be a2 2b e2 bc
       -0.73769474 -0.07487571 -0.49805963 -0.027608696
0001b0 84 01 1b be c2 5a ef 3c ab 90 8d 3e 2e a1 cb be
       -0.15137297 0.029218081 0.27649435 -0.39771408
0001c0 4b 99 95 3e 67 7c 3d 3e b9 29 a6 3e 27 f2 32 3e
       0.29218516 0.18504487 0.32453707 0.17475186
0001d0 5d e4 ec be ee 82 e5 bc 90 ed 15 bf 8c 9a e0 bd
       -0.46267977 -0.028016534 -0.58565617 -0.109669775
0001e0 23 d9 4b bf 96 46 ec 3e 18 06 b1 3e 75 86 0e 3f
       -0.796282 0.46147603 0.34574962 0.55673915
0001f0 4e ad f1 3e 27 4b f3 be 61 61 86 3e ad 29 6d bf
       0.47202533 -0.47518274 0.2624617 -0.9264172
000200 6f bf 54 be c4 2e 55 3c ff 40 0a be bb 36 d0 3e
       -0.20776151 0.013011638 -0.13501357 0.40666756
000210 de a8 93 3e 92 5f 87 3d de e1 53 bf 0a ef d8 bd
       0.28839773 0.066100255 -0.8276652 -0.10592468
000220 d7 14 24 3e 1f c9 4e bc 10 62 26 be 9a a4 e1 bd
       0.16023575 -0.012621193 -0.16248345 -0.110177234
000230 f2 fe 24 be da 6b c4 3e ef 89 e9 be 0d ae 3d 3f
       -0.16112879 0.38363534 -0.45613047 0.74093705
000240 d5 fc 95 3b 44 78 66 3d 96 da 1a bf fa 52 a8 bd
       0.004577259 0.056267038 -0.60489786 -0.082189515
000250 a7 26 1f bf 43 ad e4 be 9e c0 4d 3e cc ed 50 bf
       -0.62168354 -0.44663438 0.20093009 -0.8161285
000260 8d 95 e2 bd 65 0f 4b bf ba d4 53 3c e9 b6 8e bd
       -0.11063681 -0.79320365 0.012929136 -0.06968481
000270 05 10 e9 bd cd 01 1b 3e 36 d6 b9 3e 59 53 12 bd
       -0.113800086 0.15137406 0.36296242 -0.035724018
000280 c6 1d 7e be f2 3b 89 3e 95 1c 07 3f f5 fd a9 3e
       -0.24816045 0.26803547 0.5277799 0.33201566
000290 b3 71 c6 bd 20 37 63 be 66 b4 44 3f 64 01 0e 3f
       -0.09689655 -0.22188997 0.76837766 0.5547087
0002a0 4b 83 54 3f dd c8 cf 3e c5 9d d1 bd b0 30 dd 3e
       0.8301284 0.40582934 -0.1023517 0.43201208
0002b0 86 4a e0 3c d1 23 18 be 26 ac 54 3f 9a 4e 5e 3e
       0.027379286 -0.14857413 0.8307518 0.21709672
0002c0 ce 66 75 3d 4a 13 ec 3e b0 af c0 be a5 32 0e be
       0.059912495 0.46108466 -0.3763404 -0.13886507
0002d0 59 bc f1 be 07 1f b1 be ce 8a 49 bd 02 c1 93 3e
       -0.4721401 -0.34593984 -0.04920464 0.2885819
0002e0 91 5b 3f 3e fc 34 8e be bf ba ae 3e 6f 1a 45 bf
       0.18687274 -0.277748 0.3412685 -0.7699346
0002f0 d9 1c 27 3f 4c 53 2a 3f 66 e2 26 3f da 14 5a be
       0.65278393 0.6653335 0.65189207 -0.21297017
000300 9d 6c 01 bf f6 b1 54 3e 3e ba 55 3e ab 16 ba 3e
       -0.50556356 0.20771012 0.20871827 0.3634542
000310 4d c1 cc be 61 c0 02 bf 8b 6d 55 be 2a 48 5e 3e
       -0.39991227 -0.51074797 -0.20842569 0.21707216
000320 4c 7e 05 3e a3 53 83 be fd ce cf 3d 17 4e 83 3e
       0.1303646 -0.25649747 0.10146902 0.25645515
000330 f3 32 e8 be e6 a0 71 be 6e fc dc be 21 95 cb be
       -0.4535137 -0.23596534 -0.4316134 -0.39762214
000340 a8 51 dd be a8 94 e7 be 2c 48 02 3f ba dd 59 be
       -0.4322636 -0.45230603 0.50891376 -0.21275988
000350 6f a4 b5 be c8 a8 9d be 8d 54 05 3f 8c 26 09 bf
       -0.35477015 -0.30792832 0.5208214 -0.5357444
000360 4e 5f 4b 3d 28 b9 23 bf d9 36 4e 3f 05 02 99 be
       0.049651437 -0.639544 0.8055244 -0.29884353
000370 29 97 3b 3e f1 84 0a 3d df 67 cc 3d 2c 0f 11 3f
       0.18319382 0.03381819 0.09980749 0.56663775
000380 e7 6e 2b be 4d 6a 2f bf da 4a da 3e df 0c 04 3f
       -0.16741525 -0.6852158 0.42635232 0.5158214
000390 c3 d2 d2 be 83 fc 18 bf df 2e 40 3e 11 7e 0b 3f
       -0.41176423 -0.597603 0.1876788 0.5448924
0003a0 cb ea 61 3e 65 30 53 3e 14 46 ca 3e 9d 96 13 3f
       0.22062223 0.2062393 0.3950659 0.5765169
0003b0 e0 c0 09 3e 35 fd a1 3e af 77 15 be 52 1d a7 3e
       0.13452482 0.31638494 -0.14596437 0.32639557
0003c0 37 11 8c be 23 d1 8b 3e 41 73 bf 3e a2 d8 e3 bb
       -0.27356884 0.27307996 0.3739262 -0.006953315
0003d0 74 66 d9 be 4f 30 71 3e 81 ff bb 3d ad d0 56 3d
       -0.42460978 0.23553585 0.09179593 0.052445102
0003e0 44 89 64 3d fc d5 5a be 3e 7e b2 3e 6c 40 5b be
       0.05579497 -0.21370691 0.3486194 -0.21411294
0003f0 bb ad 45 3f 80 b3 c2 3d c6 e9 06 3f 3f 97 e4 3e
       0.77218217 0.09506893 0.5270046 0.44646642

network_body._body_endoder.seq_layers.0.bias f4 [256]
000000 6c f3 ce bb 50 d0 2a 3c 94 e4 8c bb c1 83 0c bc
       -0.0063156392 0.010425642 -0.0042997096 -0.008576334
000010 6b 27 2b bc b2 b2 b5 3b f0 25 fd 3c 8c f7 8a ba
       -0.01044641 0.005544984 0.03090188 -0.0010602339
000020 b2 55 cf 3c 84 4d 6c bc 4c 79 9d 3c 60 7f e2 3c
       0.025309417 -0.014422778 0.019222878 0.027648628
000030 7c 34 a7 ba 94 37 fa bb 9a 2b d4 bb 15 c6 0b bc
       -0.001275673 -0.00763602 -0.0064749243 -0.008531113
000040 b2 9b b3 3b 53 d7 a6 3c 72 2d ed ba c9 1a d7 ba
       0.005481207 0.020366346 -0.0018095209 -0.0016411181
000050 bc 24 a7 bc f2 a9 82 3c 99 71 fb bb d6 2d 3f 3c
       -0.020403259 0.015950177 -0.007673454 0.011668643
000060 d6 9c 2f 3c 2b 21 e7 3a 18 86 8e 3c 5e ea d5 3c
       0.010718545 0.0017633786 0.017397925 0.026112732
000070 fe 04 4b bc 5d ea 00 3c b8 50 3c bc 89 ed 4b 3c
       -0.012391327 0.007868377 -0.011493854 0.0124467695
000080 16 a8 7a bb 6a 00 84 bc 3c 99 92 3c 5d de 39 3c
       -0.003824716 -0.016113479 0.017895333 0.011344519
000090 68 d6 31 bc 58 51 6f 3c 70 d0 53 3c f1 81 2c bc
       -0.010854341 0.014606796 0.012928113 -0.010529027
0000a0 3c 41 95 3b b2 53 c0 3a 4b 31 cc ba 77 70 56 bc
       0.0045548957 0.0014673381 -0.0015578655 -0.013088337
0000b0 6a fe 2a 3a 93 b8 a1 bb 20 89 23 bc 93 e8 ab bc
       0.0006522896 -0.004935333 -0.009981424 -0.020984923
0000c0 dd fc 67 3c 6f 6c 26 3c 4a 3b ac 3b 95 d6 8c bc
       0.014159408 0.0101576885 0.0052560912 -0.017192164
0000d0 f8 46 54 3c be 7b aa 3c 25 02 83 3c fe f3 63 3c
       0.012956373 0.020810958 0.015992234 0.013913153
0000e0 70 3e 69 3c ee 7a 88 3b f2 34 8c bc 75 33 14 3c
       0.014236078 0.004165045 -0.01711509 0.009045471
0000f0 a8 49 93 3b a2 41 ab ba df 28 26 3c fe e3 1e bb
       0.0044948645 -0.0013065825 0.01014158 -0.002424478
000100 6d 08 d5 3c 7f 66 a0 bc 5a 29 b4 3b 4e 90 02 3c
       0.026004994 -0.019580124 0.0054980936 0.007968975
000110 27 de f9 bb d0 e1 00 3b f2 d2 c1 3a 74 a4 66 bc
       -0.0076253596 0.0019665845 0.0014787598 -0.014077295
000120 97 c8 40 3c 87 fd 10 3c 37 39 aa bc 00 00 9c bc
       0.011766574 0.008849508 -0.020779235 -0.019042969
000130 98 cf 67 bc 3c 6b b8 bc 54 02 bb 3c 24 0f 94 bc
       -0.014148615 -0.02251207 0.022828259 -0.018073626
000140 29 09 98 bc d4 66 63 bc 50 22 fc b9 e2 55 85 bc
       -0.018559055 -0.013879497 -0.0004809075 -0.016276304
000150 52 83 18 bc 48 eb 0b bc 20 22 a7 bc 42 69 77 3b
       -0.009308653 -0.008539982 -0.020402014 0.0037751948
000160 ea 67 4c 3b 2d 3e 0e bc 72 1b b2 bb 5f c1 12 bb
       0.0031189867 -0.008681816 -0.0054354006 -0.002239309
000170 47 97 cd 3c 86 2c 5b 3c 86 86 3f bc f1 e4 00 3d
       0.025096549 0.013377314 -0.011689788 0.031468336
000180 b9 3f f4 3b f1 32 cb bb 9b 0f 99 3a 56 2f e4 3b
       0.0074538854 -0.006201141 0.0011677624 0.0069636507
000190 77 05 13 3c 6a 14 5c bc 39 4e 91 3c 43 a1 8c 3c
       0.008973471 -0.0134326015 0.017737495 0.01716674
0001a0 d4 87 48 3b 65 9a 4c 3b c0 39 6f bc 45 c3 f9 bb
       0.0030598538 0.0031219956 -0.014601171 -0.007622155
0001b0 7f e5 22 3b 10 5a f6 bb 4e c6 47 bb 4e 35 d7 3b
       0.0024856029 -0.0075180605 -0.003048319 0.0065676337
0001c0 01 63 ea 39 16 a9 85 bc 77 46 57 bc 8d 4a b6 3c
       0.00044705722 -0.016315978 -0.013139359 0.022252345
0001d0 6d fd 3e 3c 0a 9d 7f bc f0 3c ab bc 38 e3 59 3c
       0.011657101 -0.015601406 -0.02090308 0.013298802
0001e0 72 74 15 3b 19 e9 c5 bb d9 b2 85 3c e5 c8 f5 ba
       0.0022805003 -0.0060397503 0.016320633 -0.0018751888
0001f0 a1 fc a8 bb b5 b4 37 3c 7a 45 8a 3c 02 ac 87 bc
       -0.005157069 0.0112125175 0.016878832 -0.016561512
000200 9c 82 39 3c 6f 81 9f 3c 7a 0f d9 3a 90 b5 9d 3b
       0.011322644 0.019470898 0.0016560399 0.0048129037
000210 c6 3e 26 bc db e6 fd bb 41 27 4a 3c fa f0 25 3c
       -0.010146802 -0.0077484674 0.01233846 0.010128254
000220 a5 23 fc ba 9c 63 b1 bb c1 07 91 bc 08 93 45 ba
       -0.0019236697 -0.0054134857 -0.017703893 -0.0007536863
000230 0e 64 f2 3b 4d 7d 76 3c d5 8b 13 bc fe 03 03 3c
       0.0073971814 0.0150445225 -0.0090055065 0.007996557
000240 71 7f 60 3c e2 a0 1b 3c 26 96 d4 bc 6a ee 1b bd
       0.013702259 0.009498807 -0.025950503 -0.038069166
000250 81 02 31 3c 7c 5d 35 3c 46 73 28 3c 6c 89 7d bc
       0.01080382 0.011069652 0.01028139 -0.015474658
000260 fc d3 0e 3c 80 ae 83 bc d9 79 d5 3b 81 41 ae bc
       0.008717533 -0.016074419 0.0065147695 -0.02127147
000270 dc be 9c bb d7 1d bf 3c a2 ee d6 3b e6 b0 8d 3a
       -0.0047834944 0.023329658 0.006559209 0.0010810166
000280 73 bd c0 bb 62 01 0e 3d cf 75 68 3c b3 c2 92 3c
       -0.005881959 0.034669288 0.014188244 0.017915105
000290 b3 7d 1b bc 21 8a 61 bc 3a 95 98 3c 41 c6 56 3b
       -0.009490418 -0.013765843 0.018625844 0.0032771977
0002a0 98 74 35 bc 5f 67 49 3c e5 b4 d4 bb 7d 32 56 3c
       -0.011075161 0.012292712 -0.006491291 0.013073561
0002b0 fc 96 8a bb ef 88 16 3c 2a 57 2f 3c 13 36 f2 bb
       -0.0042294245 0.009187921 0.010701934 -0.0073917
0002c0 7b 89 c9 bb 91 05 66 bb 4e 66 8e bc 71 c5 8a bc
       -0.006150422 -0.0035098533 -0.017382767 -0.01693985
0002d0 1a 65 ca 3c 9b ea c8 3c 03 9a c4 bc 06 53 a4 3b
       0.024706412 0.024525931 -0.02399922 0.00501478
0002e0 0b 86 21 bc f2 a2 fd bb d8 7b 4a 3b 3d 4d 1c ba
       -0.0098586185 -0.007740372 0.003089657 -0.0005962437
0002f0 98 f6 19 3c 84 e0 88 3c c6 4b 3f 3c ae 28 15 3c
       0.009397171 0.01670862 0.011675781 0.009103937
000300 93 4e ba bb d7 f9 6c bc 7a c2 cb 3b 14 12 a3 bc
       -0.0056856363 -0.014463863 0.006218252 -0.019906081
000310 5b 40 cc bb 34 bc c1 3c a9 95 eb bb f3 e5 fe 3a
       -0.0062332577 0.023649313 -0.0071894717 0.0019447192
000320 62 43 33 ba 12 35 84 bb b6 53 91 bb eb c3 e4 bc
       -0.0006838349 -0.004034647 -0.004435028 -0.027925452
000330 f4 9f d0 3b 76 2f 0a bc 9b d4 e6 bc d1 fb 6f 3c
       0.006366724 -0.008434167 -0.02817755 0.01464744
000340 05 90 5d 39 c8 cd cc bb 86 9e 53 3c bf 19 36 bc
       0.00021129854 -0.006250117 0.012916213 -0.011114537
000350 c3 e7 77 3b 33 42 db bc 18 b2 3c bc ff 43 2b bc
       0.003782735 -0.026764965 -0.01151707 -0.010453223
000360 80 e1 28 bb 77 a6 97 3a 6a c7 50 bb d3 c3 3c 3c
       -0.0025769174 0.0011569996 -0.0031857141 0.0115212975
000370 f6 fb 92 bc 60 62 03 bc 5a b6 ea 3b b4 2e 3c 3c
       -0.01794241 -0.00801906 0.0071628513 0.011485744
000380 22 59 94 ba 55 f0 04 bc b0 36 2a bc 24 82 74 3c
       -0.0011318068 -0.00811394 -0.010389015 0.014923606
000390 05 30 46 bc c3 b9 96 bb be a3 49 bc 8f 59 2c bc
       -0.01209641 -0.0045997812 -0.012307106 -0.010519399
0003a0 4f e1 49 3c f6 ed ec bb 26 1c 8c 3c 25 75 8f bb
       0.012321784 -0.0072305156 0.017103266 -0.0043779784
0003b0 c6 31 2e b8 a3 2a 45 3b 2d f2 3a 3a fb 2c af bc
       -4.1531188e-05 0.0030085228 0.0007131424 -0.021383753
0003c0 2b 31 b4 bc d5 a7 22 3c 98 a6 6b bb 50 60 b6 3b
       -0.021996101 0.00992771 -0.0035957452 0.0055656806
0003d0 3e c7 31 bb a8 20 a7 bc c9 48 2a bc 70 f3 c2 3b
       -0.0027126814 -0.020401314 -0.01039333 0.00594943
0003e0 fd 7c 8e 3a f8 10 87 bc 8f 69 f7 3b 5b ec 76 3c
       0.001087099 -0.016487584 0.0075504254 0.015071
0003f0 15 ea cf bb b6 1b 1e bc 7b a9 fd bb d5 38 8c 39
       -0.0063450434 -0.0096501615 -0.007741151 0.00026745224

network_body._body_endoder.seq_layers.2.weight f4 [256, 256]
000000 3f f9 81 3d 48 ec 2d 3d 0f 5c ac bb eb 47 19 3e
       0.06346368 0.042461663 -0.0052599977 0.14968841
000010 49 ad 97 3a b3 ee 91 3d 10 72 2c 3c 9f ec fa bd
       0.0011572029 0.071256064 0.0105252415 -0.12252163
000020 cc 7c 8c bc 26 3a 62 bc e0 ad 54 bd 60 00 8a 3c
       -0.017149352 -0.013807809 -0.051923633 0.016845882
000030 12 b7 0e bd 02 93 af bd 30 d1 04 bd 24 08 51 3d
       -0.03484256 -0.085729614 -0.03242606 0.051033154
000040 ac 56 bf 3c e4 fa b1 bd ee 5a 73 3c 86 28 25 bd
       0.023356758 -0.08690432 0.014853222 -0.04032185
000050 0d 13 45 3c 4b 7e 68 3d f4 5e be bc 6e 1d e0 3b
       0.012028468 0.056761067 -0.023238637 0.006839446
000060 80 fd 6e bd 1d 97 0e 3d 68 7a e2 3d b4 78 dd 3d
       -0.058347225 0.03481208 0.110585034 0.10814038
000070 df 01 23 bb 7d d4 b7 bd 94 3e a9 3d ea fb 01 bc
       -0.0024872941 -0.08976076 0.08263889 -0.007933596
000080 cf b1 4e bd c3 8d 06 3d 2b 80 45 3d 4b dd 1a bd
       -0.05046254 0.03285004 0.048217934 -0.037808698
000090 ad 9c 3c bd b6 df 05 bd ec 56 84 3c aa 78 d0 bd
       -0.046047855 -0.03268405 0.016154729 -0.10179265
0000a0 d2 c2 0b bc fb 2f 77 3d 0b a4 cb bb a0 69 ed 3c
       -0.0085303355 0.060348492 -0.006214624 0.02898103
0000b0 9b b4 d7 3d 52 50 ad 3d 6a b2 a6 3c 16 25 41 bd
       0.10532495 0.084625855 0.020348746 -0.04715451
0000c0 0c c9 87 bd 9e 57 3c 3d 86 3a e8 bd 16 7d 53 3d
       -0.066301435 0.045981996 -0.113392875 0.051632963
0000d0 ca 2b 7c bd 38 5a dd 3b 99 b9 c0 3d 77 51 d2 3c
       -0.061565198 0.0067551397 0.094104 0.025673611
0000e0 97 7e d6 3b 3e 34 11 3d 77 b0 09 be af b0 3f bd
       0.0065458524 0.035450213 -0.13446222 -0.046799358
0000f0 19 40 22 3c be ec 88 bb cc 06 1a bd d3 7b f7 bc
       0.009902977 -0.0041786125 -0.03760414 -0.030210411
000100 c4 5e 0f bd 4c e0 ce bd 37 b2 81 3d 80 3f 4a 3d
       -0.035002485 -0.10101375 0.0633282 0.049376965
000110 f5 51 9a bd 59 b6 70 bd 23 c3 85 3d 88 85 53 bb
       -0.07535163 -0.05876765 0.0653136 -0.0032275636
000120 f4 10 d6 3d b9 33 0a bd e8 65 e6 3c 1f 1a 28 bd
       0.10452452 -0.033740733 0.028124765 -0.041040536
000130 28 20 cf 3d 57 60 86 bd 46 19 20 ba b6 93 73 3c
       0.10113555 -0.06561344 -0.00061072817 0.01486676
000140 bd c9 86 3d b0 55 0f bd 37 fc 88 3d cf d3 02 bd
       0.06581447 -0.034993827 0.06688731 -0.031940278
000150 89 fe ae bd f1 7c 2a 3d 79 5d 27 3e 07 0e be 3c
       -0.085446425 0.04162306 0.1634425 0.023200048
000160 ee 8a 8f bd 44 74 1a bd b9 ae 5c 3d 57 4d fa 3d
       -0.070089206 -0.037708536 0.053877566 0.12221783
000170 43 47 97 3d b7 21 21 3c bc b9 31 3d 74 e1 b3 bd
       0.07386639 0.009834698 0.04339002 -0.08783236
000180 a2 9d de ba 13 25 84 bd bd b0 84 3d 97 78 be 3d
       -0.0016984234 -0.06452384 0.06479023 0.093003444
000190 78 59 26 be eb 28 98 3d 31 54 aa 3c 32 a8 9b bb
       -0.16245067 0.074296795 0.020792099 -0.004750275
0001a0 81 ee 84 bd 5e ce 0e bd 6a 18 44 3c 90 66 7a bd
       -0.064908035 -0.034864776 0.011968711 -0.061132967
0001b0 d8 45 8e bd 3d 96 04 3d 94 c4 0f bd a8 6b c2 bd
       -0.069469154 0.03236984 -0.03509958 -0.0949319
0001c0 87 c9 be 3d cf 96 02 bd df fa 27 3e a2 a5 02 bd
       0.09315782 -0.031882104 0.16404293 -0.03189624
0001d0 2f 1e a8 bc 5d 72 b1 3d df a2 b7 bc f3 66 f1 bd
       -0.020522205 0.08664391 -0.02241653 -0.11787214
0001e0 8a 50 bd 3b ed 66 98 bd 38 4f 3d 3c fc fa dc bd
       0.0057774233 -0.074415065 0.011554532 -0.10790059
0001f0 8d f3 5f 3d 29 1e c1 3c c2 c2 9e 3c ed 05 94 bc
       0.054675627 0.023573952 0.019379977 -0.018069232
000200 b0 6d e4 bd 8e a2 73 3c 63 3d 81 3b c5 df 27 bc
       -0.11153734 0.014870299 0.0039440854 -0.010246222
000210 b1 f2 ba bd 30 12 cb 3d f5 cc 82 bc 62 62 63 3d
       -0.09128321 0.09915578 -0.015966872 0.055513747
000220 9e 72 28 bc f5 f5 f9 bb 5a 14 1a 3b 5a 37 32 bd
       -0.010281233 -0.0076281973 0.0023510666 -0.04350982
000230 b9 78 30 3d 32 87 04 be d0 0e b6 3d e8 ba 53 3b
       0.04308388 -0.12942198 0.08889544 0.003230745
000240 cd 8b f3 3b 26 aa a9 bc 21 79 36 bd 29 b2 6c 3d
       0.007432437 -0.020711016 -0.04454911 0.057787094
000250 3a 97 9b bd 2b 86 49 bd 77 78 91 3c 44 92 25 be
       -0.075972036 -0.04920022 0.017757637 -0.16169077
000260 dc 83 6c bc 44 fc 52 bd 60 16 20 3c f3 34 6a bc
       -0.014435735 -0.05151011 0.00977096 -0.014294851
000270 23 9d 35 bc 58 16 9b bc 7f e6 a6 bc cb 09 c4 bb
       -0.011084828 -0.018931553 -0.020373581 -0.0059826127
000280 de 07 42 3d 1c 4a 16 3d 3e 12 33 3c 40 7c 9d bd
       0.047370784 0.03669177 0.010929642 -0.076897144
000290 e9 4f 8e bc 38 a8 50 bc 46 23 b8 bb 6f d2 46 3d
       -0.017372089 -0.012735419 -0.0056194393 0.04854053
0002a0 70 97 8e bd 01 c3 8e bd bd 12 4c 3d a5 06 36 bd
       -0.06962478 -0.06970788 0.049822558 -0.04443993
0002b0 b0 76 c0 3d 68 8f ae bd 96 c2 23 bd 1c ac 9a 3d
       0.09397638 -0.08523446 -0.039980493 0.075523585
0002c0 c5 6c 21 3d 96 9d 82 3c 19 52 f7 bd 76 ed 0a 3d
       0.03941037 0.015944283 -0.12076206 0.033917867
0002d0 a7 75 1b 3d 3f 1e d0 3c b9 ea 06 3d ac 45 54 3c
       0.037954 0.025405047 0.032938693 0.012956064
0002e0 ab 31 e0 3c e8 97 0a be 06 6f 0d 3d f1 61 83 3c
       0.027367434 -0.1353451 0.03452971 0.016037913
0002f0 95 f7 88 bd e8 ee 37 3d ec 12 9b bd 30 1d bb bd
       -0.066878475 0.044905573 -0.075719684 -0.091364264
000300 fe 05 ec 3b 9e 8a 17 bd d9 25 b8 3d 8f f0 29 bd
       0.0072028628 -0.03699743 0.08991594 -0.04148918
000310 66 e3 98 bd d4 ba 52 bd 73 68 5f bd 37 a4 da 3b
       -0.07465248 -0.051447704 -0.05454297 0.006672408
000320 de 44 85 bc a1 c0 1f bc 4f b8 eb 3d 12 64 80 bd
       -0.01626819 -0.009750516 0.115097634 -0.06269087
000330 8f 68 50 3d 7c e7 81 bd d4 00 69 bb d7 af 3e 3d
       0.050880965 -0.0634298 -0.0035553472 0.046554413
000340 8c 6c 48 bc ce 7a 86 bd 50 b9 2e 3e 73 bf fd bc
       -0.012232911 -0.06566392 0.17062879 -0.03097508
000350 b8 18 94 bb b6 35 fe 3c 74 e7 fc 3c 44 ed aa 3d
       -0.0045195483 0.03103147 0.030872084 0.08346036
000360 ab e9 92 bd f4 12 1d bd c7 63 8b 3d e5 cc 83 bd
       -0.07173475 -0.038348153 0.068061404 -0.06435565
000370 6c c5 0a 3d 8d 10 b7 bc 60 81 3f 3d eb d2 75 bc
       0.033879682 -0.02234676 0.04675424 -0.0150039
000380 e8 87 82 bd 42 b3 5d bd 36 53 58 3d f8 80 99 bd
       -0.06373578 -0.05412603 0.05281373 -0.07495302
000390 5b f3 76 bd 61 1e 24 bb 42 85 bc bd 44 c0 01 bc
       -0.060290676 -0.0025042521 -0.092051044 -0.007919375
0003a0 11 de 30 3c 5a fd 64 bd a3 9e 5b bc 39 d5 67 bd
       0.010795132 -0.055905677 -0.013404521 -0.05659983
0003b0 2e 1f 99 bd 66 96 37 bd 1d ac 08 bd 16 22 a6 3c
       -0.0747665 -0.044821166 -0.033367265 0.020279925
0003c0 97 1d de bc 90 6a 8e bd 55 66 0a 3d 7f 7b 58 3d
       -0.027113719 -0.06953919 0.033788998 0.05285215
0003d0 71 0c 08 3d 98 71 f0 bb 0a 3e 8b bc 19 66 b3 bc
       0.03321499 -0.00733776 -0.016997356 -0.02189927
0003e0 20 33 72 bd cd db c1 3d 39 9d ed bd 9c d2 c5 bc
       -0.059130788 0.09465752 -0.116022535 -0.024148278
0003f0 34 88 9d 3d 18 a9 bc bd 6d eb 93 3d b9 a8 8d 3c
       0.07691994 -0.092119396 0.07222638 0.017292367

network_body._body_endoder.seq_layers.2.bias f4 [256]
000000 54 34 a4 bb d2 e9 05 bc 8a 0a 4d bc 68 dd 08 3c
       -0.005011121 -0.008173423 -0.01251472 0.008353569
000010 f8 0c d0 3b 01 09 ac bc 98 48 81 3c f8 17 d9 3c
       0.0063492022 -0.021000387 0.015781686 0.026500687
000020 d0 3c 65 3c d4 73 8e bb 79 9a 89 bc f6 2d d1 bc
       0.01399155 -0.004347304 -0.016797291 -0.025534611
000030 0f 30 13 3c ce 4b 3a 3b a5 52 69 3b 75 54 02 3c
       0.008983626 0.002842653 0.0035602238 0.007954706
000040 d0 b9 16 3c 45 a6 b6 3b b0 dd 94 bc d9 b8 36 bc
       0.009199575 0.00557402 -0.018172115 -0.01115247
000050 45 a4 84 3b c2 61 00 3b 67 c8 3b 3c 28 88 aa 3c
       0.0040479028 0.0019589518 0.011461354 0.020816877
000060 fd 06 c6 bb d6 ae cd bb 5b c4 25 bc 7c 14 11 3c
       -0.0060433135 -0.0062769456 -0.010117616 0.0088549815
000070 b4 fa eb bc c6 fc 6d 3c d5 2c 83 3c 85 6c b6 bc
       -0.028806068 0.014525598 0.016012589 -0.022268543
000080 d8 28 0d ba 19 30 31 3c 6a 02 f6 bb 68 73 bc bc
       -0.00053848093 0.01081469 -0.007507612 -0.023004249
000090 97 d6 da 3a bb a7 18 3c d4 7a 5d 3c df fb 11 bc
       0.0016696033 0.009317334 0.013518054 -0.008910148
0000a0 35 00 28 bb c7 a1 a9 3a 41 1c 3a 3b 27 d7 8a bc
       -0.002563489 0.001294189 0.0028398188 -0.016948296
0000b0 62 51 95 3c 4c 21 99 bc df ae c4 3c 19 60 4a bb
       0.018227283 -0.018692635 0.024009166 -0.0030880033
0000c0 fd f1 4f 3c de 80 07 bc 6d 87 ca 3b 3b cb 64 bc
       0.012691972 -0.00827047 0.006180695 -0.01396447
0000d0 e1 4b 9e bb cc 6a 2f bc 21 22 4c 3c bf df 81 bc
       -0.004830823 -0.010706615 0.012459309 -0.01585376
0000e0 22 ad 84 bc 6c 19 ae bc 28 f5 1e bc 32 f0 fe 3b
       -0.016195837 -0.021252356 -0.0097020045 0.0077800984
0000f0 87 a8 47 bc 98 cf b5 ba ea 30 ee 3b 12 c8 92 3b
       -0.012186176 -0.0013871072 0.0072690146 0.0044794166
000100 c5 e9 09 3b 5e f1 68 3c fc c3 08 3c 63 38 08 3c
       0.0021043879 0.014217703 0.008347508 0.008314225
000110 7a f3 5b bb be 9c a3 bc df c3 06 bc ae 40 99 3c
       -0.0033561871 -0.019972201 -0.00822541 0.0187076
000120 ee a3 99 bb 62 fd ad 3c 0e 8d 2d bc ec 64 81 bb
       -0.0046887314 0.021238986 -0.010592712 -0.0039487984
000130 d2 ed d1 3b 32 0e d9 ba 6a 2f 92 bb ab 97 3f bc
       0.006406524 -0.0016560017 -0.0044612186 -0.011693875
000140 17 c2 75 3b 2b e7 d5 3c 7e 3d 48 3a 90 01 1f bd
       0.003749972 0.026111206 0.00076385576 -0.03881985
000150 ef df 95 bc 9b c5 e0 ba 20 de 77 3c e7 32 dd 3a
       -0.018295256 -0.0017148735 0.015128642 0.0016876132
000160 19 9a e8 bb 0e 78 6e 3b 39 64 64 3c 06 82 2a ba
       -0.007098448 0.0036387476 0.013939911 -0.00065043604
000170 69 19 d0 bc 50 21 91 3c a7 a8 23 bc 9d 23 5a bc
       -0.025402742 0.01771608 -0.00998894 -0.013314155
000180 21 c4 2f 3c c2 52 a3 bb 0f d1 82 3a 5f ec 11 bc
       0.010727913 -0.0049842307 0.0009980517 -0.008906453
000190 5f 69 b6 3b 37 35 3b 3b d6 d2 66 3c 26 b0 f6 3a
       0.0055667604 0.0028565654 0.014088353 0.0018820807
0001a0 5c cd c0 3b e4 d0 50 3c f2 b8 a1 bc d6 d5 ad bb
       0.0058838557 0.012745116 -0.01974151 -0.0053050322
0001b0 3a 0d 4a bc a5 72 df 3b f0 c5 8f bc dc fa f5 bb
       -0.012332255 0.0068190866 -0.017550439 -0.0075067114
0001c0 1b 80 ee bb b2 62 58 3b d7 22 a5 bc 83 e7 ef bb
       -0.007278455 0.0033017811 -0.020158214 -0.0073212995
0001d0 ea 2c 89 bc 29 e1 81 bc 4e fc 9d bc 74 54 e6 bb
       -0.01674505 -0.015854435 -0.019285347 -0.0070291106
0001e0 2d d2 e8 3a df 4d 57 3b 6b 74 43 bc 96 bb c3 bb
       0.0017762833 0.0032852811 -0.011929612 -0.0059732897
0001f0 fe d2 2d bc 6f 3b a3 bb 84 5e aa bb 02 fa aa bc
       -0.0106093865 -0.0049814503 -0.0051992554 -0.020871166
000200 55 9a a0 3b 4e fc 23 bc ae e7 89 3c 29 80 eb ba
       0.0049012103 -0.010008885 0.016834106 -0.0017967272
000210 9e 6b eb 3b 04 d2 86 bc 48 66 12 3b cd 33 97 bb
       0.00718446 -0.016457565 0.0022338796 -0.0046143294
000220 7e bd 8d bc bd eb c1 3c 0b a6 a0 3b db 33 eb bb
       -0.017302271 0.02367198 0.0049026064 -0.0071778125
000230 d8 9c 85 bc c4 99 16 3c 3e 60 7d 3c d1 79 3d 3c
       -0.01631014 0.009191934 0.01546484 0.011564688
000240 b3 6e 08 bb 64 f4 a6 3c 06 72 ae bb 3d 62 cf bb
       -0.0020817935 0.020380206 -0.0053236512 -0.0063288496
000250 6b f0 0e 3c 02 5e c1 3a 05 36 f1 b9 74 1f 61 3b
       0.008724312 0.0014752748 -0.0004600735 0.0034351023
000260 d4 c3 d9 3b cb 4e 23 bc 39 1b 87 3c d0 fc 86 3c
       0.006645659 -0.009967516 0.016492473 0.016477972
000270 c1 64 8a bc 47 1e 6f 3c c0 2e 1f bc ae 4c 9a 3c
       -0.016893746 0.014594621 -0.009715736 0.018835392
000280 f9 a4 48 39 e0 d9 91 bb 32 78 d0 3c bf fe 19 bc
       0.00019134943 -0.0044510216 0.025447939 -0.009399115
000290 14 72 cf bc a2 df d2 b8 5b d1 52 bb 9e 52 8f bb
       -0.025322951 -0.00010055235 -0.0032168243 -0.0043738624
0002a0 e6 92 8f bc 28 00 d6 3a 1e 42 4b bb c6 0f ed ba
       -0.017526101 0.0016326951 -0.003101475 -0.0018086366
0002b0 0e ff ae bb 99 2e 90 bc 02 3f a1 bc 5d a3 1d bc
       -0.0053404635 -0.017600344 -0.019683365 -0.009621468
0002c0 97 33 66 3c 0a 63 10 bc 27 6a 77 bc e3 ae 1b bb
       0.014050386 -0.008812675 -0.015100992 -0.0023755364
0002d0 e9 ba ba 3c 64 70 5f bc b5 51 6b 3c 04 2e 5a bc
       0.022794204 -0.013637636 0.014362742 -0.013316635
0002e0 e9 56 e4 bc 35 e8 a8 3b c4 17 2d 3c 94 8b b4 3c
       -0.027873473 0.0051546344 0.010564748 0.022039212
0002f0 b4 86 ea b9 af 0c 20 bc 66 9b f2 bc e4 5a 7f 3b
       -0.0004473232 -0.009768649 -0.029615115 0.0038964087
000300 57 3d a2 ba e7 65 80 3c 4f cd a5 3a 81 25 c2 bc
       -0.00123779 0.01567359 0.0012649688 -0.023699524
000310 a0 0d 8d bc 81 7d 01 bd 5d ad 06 3c bd 42 6f 3c
       -0.017218411 -0.03161383 0.008220044 0.014603314
000320 e2 7a ca 3c d3 38 97 3b c6 dd 20 bc c7 9b 9c 3b
       0.024716798 0.0046149283 -0.0098185 0.0047793123
000330 8e e9 69 3c a4 30 d7 3a fc ed 98 bc e7 e9 5f bc
       0.014276875 0.0016417694 -0.018668167 -0.0136666065
000340 e0 46 03 3c fb 7d 85 3c 50 44 21 bb c4 2e 60 3c
       0.008012503 0.016295424 -0.0024607368 0.013683025
000350 a4 a4 5a bb 74 1f a3 bc fc 5a 9d 3c 39 d5 83 bc
       -0.0033362294 -0.019912459 0.019208424 -0.016092883
000360 cb 90 46 bb 17 5a b5 3c df 18 96 bb e4 15 a8 3b
       -0.0030298706 0.022137685 -0.0045806016 0.0051295627
000370 17 cd a2 bb a4 8d 1f bc 42 51 81 3c 9c 6b ca 3c
       -0.0049682963 -0.00973836 0.015785817 0.024709515
000380 c0 e0 a1 3c f2 a9 01 3c a0 f6 9c 3b 4c 85 8f bc
       0.01976049 0.007914053 0.004790142 -0.017519616
000390 2f a1 1a 3c 5e 8b 76 b9 1a c5 8b bc 6f 9b 58 ba
       0.009437843 -0.00023512307 -0.017061759 -0.00082629075
0003a0 e0 1d 2b 3c ee 6e b3 3c 18 4f 28 3b 69 3e 9a bc
       0.0104441345 0.021903481 0.002568191 -0.018828588
0003b0 10 5d be ba 0b 4c 02 3b b8 28 c9 ba d5 12 b7 bc
       -0.0014523584 0.001988175 -0.0015347218 -0.022347847
0003c0 5d 61 39 3b 27 1a d7 3c d9 ae 34 3b 56 76 7f 3c
       0.0028286793 0.026257588 0.0027570038 0.015592178
0003d0 12 4f d8 3c 5a 6c 00 bc 6a 55 06 bb ad e4 52 bb
       0.026404891 -0.007838333 -0.0020497688 -0.0032179758
0003e0 fb ed 09 bd 6b ee b2 ba 39 8f 4e bc bb 27 d5 3b
       -0.03367422 -0.0013651376 -0.012607389 0.0065049804
0003f0 4b 58 db bb cd 01 29 3c 7b 41 60 bc ba 41 fa bb
       -0.006693875 0.010315371 -0.013687487 -0.0076372297

network_body._body_endoder.seq_layers.4.weight f4 [256, 256]
000000 c8 66 f4 3c c3 f4 f6 3c 04 bc e2 bc 34 01 7b 3d
       0.029834166 0.030146008 -0.027677543 0.061280444
000010 88 c1 cb bb 71 86 7f bc 03 09 99 3d a2 87 77 3c
       -0.006218139 -0.015596018 0.07472422 0.015108021
000020 d3 5a 06 bd 8b e1 14 bd 77 7c c1 3c 77 81 0c bd
       -0.03280146 -0.036347907 0.02361892 -0.034303155
000030 b4 c1 3f 3d e9 fa f6 3c 26 db d1 bd 96 e5 06 bd
       0.04681559 0.03014894 -0.10246877 -0.032933794
000040 18 cc 07 3e 22 a9 ae 3d 96 45 ab 3d 1d 55 a3 3c
       0.1326145 0.08528353 0.08362882 0.019938046
000050 55 31 e6 bb ee 15 8c bd db 13 74 bd e7 46 b8 bc
       -0.007024924 -0.0684012 -0.05958925 -0.022494746
000060 c7 96 a2 bb 94 4b b6 3c d9 8b 10 bd 4f e4 1e 3d
       -0.0049618217 0.022252835 -0.03528962 0.03879195
000070 5b c3 ae bd 3f ed 05 3d 49 7f 33 bd ef d2 6b 3c
       -0.08533355 0.03269696 -0.04382256 0.014393552
000080 38 98 f3 b8 b7 0a e1 bc da 5d ab 3d 3c ff 0a 3d
       -0.00011615496 -0.02747093 0.0836751 0.033934817
000090 be 5d 60 3d 2e 85 03 3d 09 59 89 bd 1e 3e 18 bc
       0.0547769 0.032109432 -0.06706435 -0.009292154
0000a0 d9 75 a0 bd 08 f7 00 be e3 38 36 bd 46 07 8d 3d
       -0.07834978 -0.12594235 -0.044487845 0.06886153
0000b0 e0 59 c2 3c c4 33 ae 3d 34 49 cd bd 7b 4b 85 3d
       0.023724496 0.08505967 -0.10023728 0.065085374
0000c0 16 a9 d9 bc 14 00 f7 3d d6 ac e5 3a 5a 53 52 3d
       -0.026569884 0.12060562 0.0017522823 0.05134902
0000d0 ce a1 38 bc 6f ac 88 3d 94 c7 f6 bd e4 6c eb ba
       -0.011269046 0.06673514 -0.12049785 -0.0017961529
0000e0 cb 14 90 3d 30 84 94 3d 03 51 ad 3c 71 e7 a4 bd
       0.07035216 0.07251775 0.021156793 -0.080519564
0000f0 5b 9f 44 bc e5 34 20 bc 6d 2a 2c bc 9a c8 12 3d
       -0.012000884 -0.009778236 -0.010508162 0.03583584
000100 3f 01 bd 3b 28 18 8b 3d 4c f5 cd bd 98 c3 5c 3c
       0.005767971 0.06791717 -0.10056552 0.013474368
000110 a6 bb f0 bc f7 61 58 3d b7 6d a3 bd 2a 8d d0 bd
       -0.029386353 0.0528278 -0.07979911 -0.10183175
000120 f5 b5 f9 3c d9 c4 e4 bc f3 b7 b8 3d 94 cf 63 3c
       0.030482272 -0.027925896 0.090194605 0.013904471
000130 8a 98 83 bc a2 6e e1 3c 28 9e 00 3d c5 b0 b6 3c
       -0.016063947 0.027518574 0.03140083 0.022301087
000140 a5 7a 1a be 5c db 62 bd 44 c1 d7 bd 64 24 cb 3d
       -0.15085848 -0.05538498 -0.10534909 0.0991905
000150 3b 99 5b bc 54 11 89 3c 00 74 c6 3d 90 6d 8c 3d
       -0.013403232 0.016731896 0.09690094 0.06856835
000160 4c 16 c6 bd 36 81 e4 3b 02 36 22 3d 55 b6 2f 3d
       -0.096722215 0.006973411 0.039602287 0.042898495
000170 ec 94 c1 3c a5 e4 45 3d 54 43 c7 bc a3 f6 34 3c
       0.023630582 0.048313756 -0.024324097 0.011045131
000180 f4 59 57 bd 0b 58 3e 3d 4b 1c b9 bd 70 1e 21 bd
       -0.05257602 0.046470683 -0.090385996 -0.039335668
000190 90 04 7c 3d b6 c6 01 3e f5 46 86 bd 4e 9d 1f 3d
       0.06152779 0.12673458 -0.06556503 0.038968377
0001a0 91 ea 99 3d 5d 3b 89 bd 0a b1 03 3e e6 22 39 bc
       0.07515443 -0.06700776 0.12860504 -0.011299824
0001b0 ad 87 ad 3c a0 09 2e bd f6 36 9c 3c 08 00 ac bc
       0.02118286 -0.042489648 0.019069176 -0.020996109
0001c0 42 7b c3 3d 37 f2 d3 bc 10 15 b2 3d 83 cc d7 3c
       0.09544994 -0.025872333 0.086954236 0.026342636
0001d0 0f 29 45 bd 97 b4 df bd c2 5c 36 3d f9 54 e5 bc
       -0.04813486 -0.10923117 0.044522054 -0.02799462
0001e0 4b a3 27 bd ce 17 9c bd 23 ae 9c bd b2 67 ae ba
       -0.040927213 -0.07621728 -0.076504014 -0.001330605
0001f0 3a 2d a8 3a 9a 88 92 3d 49 af ea 3c f5 65 ab 3d
       0.0012830861 0.07154961 0.028648036 0.08369056
000200 c9 31 ea bc 57 73 c8 3d 63 bb 17 bc b1 05 b7 bc
       -0.028588193 0.09787624 -0.009260985 -0.022341581
000210 75 22 fc 3c 31 bb 90 bb 93 03 5b 3b 5d 76 58 3c
       0.03077815 -0.004416846 0.0033418878 0.013211814
000220 14 a4 f2 b9 f7 95 86 3c 0d 13 1f be 07 2b 1d bc
       -0.00046280085 0.01642893 -0.15534611 -0.009592778
000230 a1 66 02 bd 1c 21 32 3d 3d 1c 6c 3d 13 25 f8 bc
       -0.031836156 0.043488607 0.057644118 -0.030291116
000240 96 71 b2 3c bf 7f bf bd 12 92 98 3d 80 85 b7 3d
       0.021782678 -0.093505375 0.07449736 0.0896101
000250 a1 22 b5 3c f0 04 85 3d 10 7d a4 bc 68 4f c2 3d
       0.022111239 0.064950824 -0.020079166 0.09487802
000260 8a 36 60 3b c7 be 0b 3d 10 62 09 ba 3d 13 4f bd
       0.0034212195 0.034117486 -0.00052407477 -0.050555456
000270 83 65 96 3b f8 82 c5 3d 87 2f 8c bb 30 d6 84 bd
       0.004589738 0.09644121 -0.0042781266 -0.064861655
000280 15 e3 1b 3c 66 94 ab 3d cb 9e 60 3d ab 7c df 3c
       0.00951459 0.08377914 0.054838937 0.027281126
000290 75 7c a9 3c ec f2 8e bd 5a 77 8c bc 87 90 87 3d
       0.020689229 -0.069799274 -0.017146755 0.06619363
0002a0 32 5d 88 3d b7 49 5d bd 98 b7 7d 3d 3e 4a 33 3d
       0.066584006 -0.054025378 0.061942667 0.043771975
0002b0 dd 86 a4 bd 2b 9f 7a bd e7 4a 8d bb 54 8e e6 3c
       -0.08033536 -0.06118695 -0.0043119076 0.02814404
0002c0 20 bf f2 bc 38 dc 23 bd 6f ab 8b 3d da de 7a 3c
       -0.029632151 -0.04000494 0.06819808 0.015311921
0002d0 d2 00 ab 3d 03 50 15 3b 69 2e 96 3d 10 e9 95 3d
       0.08349766 0.0022783286 0.07333071 0.07319844
0002e0 52 7c 1d 3d c9 75 85 3b 21 7d 47 3d 81 1e bb bd
       0.03844864 0.004072879 0.048703317 -0.091366775
0002f0 70 a9 2b bd 3a c2 91 bd 2c 7e c1 3d 82 08 9e 3d
       -0.041909635 -0.07117124 0.094478935 0.077164665
000300 e5 b6 83 bd ce 56 32 3d 37 32 86 bc 2f 7f b3 bc
       -0.06431369 0.043539815 -0.016381366 -0.021911232
000310 6f 37 f3 3c e8 86 a8 3c 14 3e 83 3d d9 21 c3 3c
       0.029689519 0.02057214 0.06408325 0.02381985
000320 67 09 53 3d da 7d a9 3c e0 87 00 3d 3a 13 a1 bc
       0.05152264 0.020689894 0.03137958 -0.019662488
000330 8a bc 01 3d 64 62 b4 3c 6f 89 83 3d ec 66 81 3c
       0.031673945 0.022019573 0.06422698 0.015796147
000340 08 d5 8c bc 80 72 59 3d f9 3f 88 3d 66 f3 7c bd
       -0.017191425 0.05308771 0.06652827 -0.06175556
000350 b0 24 b7 bc b7 3c 34 3c 8f d1 b9 bd 9b c4 aa 3d
       -0.022356361 0.011000804 -0.09073173 0.08338281
000360 c9 fd 1e be fb b7 42 3c e0 58 20 bd 60 3c 84 3c
       -0.15526499 0.011884685 -0.039147258 0.01614207
000370 9f f7 58 3d c4 37 b6 3d 29 c6 cf bd 00 04 29 3c
       0.052970525 0.08897355 -0.10145218 0.010315895
000380 59 43 57 bb 79 10 a2 3c 2d fd e1 bb 44 5d 54 bd
       -0.0032846539 0.019783245 -0.006896636 -0.051846758
000390 14 fc 6c 3c 54 72 d5 bc 8f 19 01 bd e1 80 a9 3d
       0.014464397 -0.026055492 -0.031518515 0.08276535
0003a0 4d 3d a9 3d ae 92 71 3d 63 f4 98 3c 17 73 0b 3e
       0.08263645 0.058977775 0.01867122 0.13618122
0003b0 cb d1 ce bd 9c 9b eb bc 69 7b 79 bc f9 57 a0 bd
       -0.100986086 -0.028760724 -0.015227177 -0.078292795
0003c0 1f ef 0d bb 63 4a 31 be 5d 83 3a 3d 0d fe dd bc
       -0.002165742 -0.17313533 0.045535434 -0.02709868
0003d0 c8 b3 df 3d a7 70 16 3e 80 cf f1 3b cf d2 b8 bd
       0.109229624 0.14691411 0.0073794723 -0.090245835
0003e0 ab ea 7e bb c5 cb 15 bc 93 2a 80 bb 00 b4 02 3b
       -0.0038897197 -0.009142821 -0.0039113252 0.0019943714
0003f0 8a bb a3 3d 00 8d a8 3d 70 77 80 3d 8a c6 63 bc
       0.079947546 0.082300186 0.06272781 -0.013902316

network_body._body_endoder.seq_layers.4.bias f4 [256]
000000 80 a3 98 bc 4d 3d 1d bd 32 6a 07 bc ed 07 f9 3b
       -0.01863265 -0.03838854 -0.008265065 0.007599822
000010 59 8c 0d bd ca ff 24 bc 61 c4 4e bc c3 48 92 bc
       -0.034557674 -0.0100707505 -0.012620063 -0.017856961
000020 60 4d 0d 3c 62 2a e6 3b 99 29 05 bc 77 58 89 3b
       0.008624405 0.0070240954 -0.008127593 0.004191454
000030 39 05 20 3c 8f 61 86 3c 98 75 85 bc d3 01 b8 bb
       0.00976687 0.016403941 -0.016291425 -0.005615452
000040 ff c9 1c 3c 55 9e 29 3c cc 40 a1 bb 15 8e 5a 3c
       0.009569644 0.010352691 -0.0049210545 0.013339539
000050 9d 1b 1b 3d 29 09 0f bc 37 c6 6a bc c0 65 d9 bb
       0.03786813 -0.008730211 -0.014329485 -0.006634444
000060 2b 8d 17 3b c1 8f c2 ba dc b1 89 bc 3f c2 09 3c
       0.0023124914 -0.0014843867 -0.016808443 0.008408128
000070 03 76 a7 bc c6 7c a8 bb 49 ac 33 3c a4 87 f8 bb
       -0.020442015 -0.0051418273 0.010966369 -0.007584529
000080 7e 3f 86 bc e0 3a df 3b 24 b6 18 3c 6e 56 3d 3c
       -0.016387697 0.0068124384 0.009320769 0.011556251
000090 df 24 6e 3c 64 8f 78 39 9b b0 26 bb 65 ad ff 3b
       0.014535158 0.0002370454 -0.0025434855 0.0078026527
0000a0 d1 b6 8a 3b 22 76 5e 3c 03 2f a0 bb 0d c4 e2 3b
       0.004233219 0.01357797 -0.0048884167 0.0069203437
0000b0 49 98 86 3b 19 66 fe 3c b8 de f4 3c 54 54 7b bc
       0.0041075093 0.031054543 0.029891357 -0.01533993
0000c0 31 c5 ce bb 62 61 17 3b 9f b5 ae 3c 51 e7 90 3c
       -0.006310128 0.0023098816 0.021326838 0.017688425
0000d0 48 23 b6 3c 9f 36 bd 3b 8c 18 f2 ba c5 70 82 3a
       0.02223362 0.0057743336 -0.001847045 0.0009951821
0000e0 92 eb d8 bb 89 ef a3 bc 43 77 41 bc a6 65 46 3b
       -0.006619879 -0.02001168 -0.011808219 0.003027299
0000f0 d5 01 c8 3b d8 e6 9c bb 4a 77 6d bb e1 0f 9a 3b
       0.006103734 -0.004788261 -0.0036234432 0.0047016
000100 da d4 c9 3a cc 1d e2 3c 8b fe d9 bb 5f 2e 65 bc
       0.0015398518 0.027602099 -0.0066526583 -0.0139881065
000110 e2 60 b8 3c e3 0f 56 3b 44 41 43 bb e0 12 aa 3c
       0.022507135 0.0032663278 -0.002979354 0.020760953
000120 79 f3 b2 bb b7 1e e8 bb 99 86 ab bc 03 3b 9a 3a
       -0.005461153 -0.0070837396 -0.020938205 0.0011766854
000130 09 9f 01 bc 90 fe f3 3b df b2 0a 3c cf 38 a1 bc
       -0.007911452 0.0074461177 0.008465498 -0.019680409
000140 55 52 81 bb 7e 41 46 bc ae f6 b3 3b 70 74 14 3c
       -0.0039465823 -0.0121005755 0.005492053 0.009060964
000150 97 06 03 3c 65 27 4e 3c 38 41 33 3b 29 97 1f 3b
       0.007997177 0.012582635 0.0027352106 0.0024351573
000160 9e db 59 bb af 2b e9 bb 61 cd 9e 3b 21 2b 7a bc
       -0.0033242474 -0.007115803 0.0048462604 -0.015269072
000170 fd e4 9c bb 19 21 6e 3c 69 92 d8 bb eb 6a 85 b8
       -0.0047880397 0.014534258 -0.0066092503 -6.361849e-05
000180 e4 be d4 3a e1 07 c5 bc fe 4e 74 3c 1b 3d b8 bc
       0.0016231206 -0.024051609 0.014911411 -0.022490075
000190 5e c4 ae bb 8b 1f af 3b f4 51 46 3b 25 a6 70 3c
       -0.0053334674 0.0053443364 0.003026125 0.014688049
0001a0 34 26 a0 bb 77 58 98 3c ea e9 c4 bb 80 a7 12 3c
       -0.0048873667 0.01859687 -0.00600933 0.008951068
0001b0 91 07 09 bc d2 94 91 3b a1 4d 3e bc f2 f7 40 bc
       -0.00836362 0.0044427896 -0.011615188 -0.011777865
0001c0 10 32 48 3c 81 b2 8f bc 83 f2 ed 3c a3 bd 3d bc
       0.012218967 -0.017541172 0.029046303 -0.011580857
0001d0 00 55 3d 3b 9b 2b 24 bc 09 f4 94 3c db ee 35 bc
       0.0028889775 -0.010020162 0.018182771 -0.011104311
0001e0 10 46 81 3b 28 fa 23 3c 97 e2 65 bb d4 6a 2d bc
       0.0039451197 0.010008372 -0.0035077685 -0.010584552
0001f0 8b 49 83 3c aa d9 f0 bb 17 5e 09 3d d9 34 e8 3b
       0.016026279 -0.0073501663 0.033536997 0.007086378
000200 bc 20 05 bc fa 97 30 3a f4 8a 7c 3c 80 75 ef 3b
       -0.00812548 0.00067365135 0.015413988 0.0073077083
000210 27 eb e4 ba ef 9e 10 bc 54 fb d4 bb 81 99 af bb
       -0.00174651 -0.008826955 -0.006499687 -0.0053588753
000220 bb 6b 8b bb f8 ee 19 3c 39 bb a1 bb 25 4a 28 3c
       -0.004254786 0.0093953535 -0.0049356488 0.010271584
000230 12 7d e3 ba 51 a6 f9 3c 6f ca 19 bc d7 72 19 bc
       -0.0017356 0.030474814 -0.009386643 -0.009365759
000240 ad 64 13 3b 05 2c 88 ba 59 af 6d bb 9f 0f 97 3b
       0.0022490427 -0.0010389095 -0.0036267845 0.0046100165
000250 9f ef 0b bd b4 3b 84 bc 9d 3f 70 bc 1f a7 53 ba
       -0.034164067 -0.01614175 -0.014663604 -0.0008073914
000260 74 85 98 ba 07 ba c6 3c c9 87 e6 ba a9 c2 2e 3c
       -0.0011636452 0.024258627 -0.0017588075 0.010666528
000270 1f d5 c2 bb 9a 43 cf b4 4b ff 5c bc d7 90 7e bc
       -0.005945816 -3.860594e-07 -0.013488601 -0.015537462
000280 a1 a8 d0 ba ba b1 c6 3b 03 ca 26 bc 3e fa 40 bc
       -0.0015919396 0.006063667 -0.010179999 -0.011778412
000290 7a bd a3 bc 17 2f 6c bc 32 79 f9 bb 2e 82 26 3d
       -0.01998781 -0.014415524 -0.0076133246 0.040651493
0002a0 9b 7a 45 3a 6c 25 b1 3b 68 a4 a9 3b 68 d6 d3 3c
       0.0007533223 0.0054060724 0.0051770695 0.025859073
0002b0 aa a1 3e bc e2 1f 45 bb ff 16 cf bc 72 79 46 3c
       -0.011635223 -0.0030078818 -0.02527952 0.012113916
0002c0 aa e0 00 bc 98 72 1b bc db 11 21 bc f5 0e aa 3c
       -0.007866064 -0.0094877705 -0.009830917 0.020759085
0002d0 64 01 c9 bc 25 5a fe 3c 0a 56 e3 3b 51 26 3d 3c
       -0.024536796 0.031048844 0.006937747 0.01154478
0002e0 3b da e9 bb 85 54 ab 3c 82 ab 82 bc 56 b9 09 bd
       -0.007136611 0.020914325 -0.015950922 -0.033624016
0002f0 40 92 ef 3a 36 60 d9 3c 59 f4 38 3c fa 04 d0 3b
       0.0018277839 0.026535135 0.011288726 0.0063482495
000300 02 00 95 bb 77 b3 a9 b8 f5 e1 50 bc c3 a0 de 39
       -0.00454712 -8.091976e-05 -0.012749185 0.00042462916
000310 24 00 2f bb e8 e7 d9 bb e4 47 0e 3c 2c a6 96 3c
       -0.0026702965 -0.00664996 0.008684132 0.018389784
000320 f0 fb b0 3b 5c 84 81 3c 0d 69 44 3c c7 20 d6 bc
       0.005401127 0.015810184 0.011987937 -0.026138676
000330 01 fd 84 3a dd 50 0c 3c aa a0 e1 bb 26 cf 7f bc
       0.0010146202 0.008564201 -0.0068856077 -0.015613353
000340 3e 5f 85 bc 05 55 9e bc 6f cc 73 3b 71 35 0e 3a
       -0.016280767 -0.01932765 0.003720071 0.00054248335
000350 b5 6c 52 bc 0c 98 70 bc 21 46 02 3c e2 89 39 bc
       -0.012843301 -0.014684688 0.00795129 -0.011324378
000360 7b 75 61 3c 17 5d 03 3b 0d 32 db bc 7b ad e2 bb
       0.01376092 0.00200445 -0.026757265 -0.006917653
000370 a7 48 b2 bc 77 a9 88 3c c6 29 86 3b 93 1d 95 bb
       -0.021763159 0.01668237 0.0040943353 -0.0045506447
000380 41 2b 8c ba 94 03 d0 bb 0c c2 33 bb 64 51 4f 3a
       -0.0010694043 -0.006348083 -0.0027428893 0.00079085515
000390 4e e7 5b bc 97 28 db 3b d7 88 3a bc 07 e7 fb 3b
       -0.013421847 0.0066881883 -0.011385164 0.0076874527
0003a0 2a 06 68 bb fa 91 4f bc aa 7e b4 bb a9 40 a3 38
       -0.0035404065 -0.012669081 -0.0055082636 7.7844896e-05
0003b0 7d 80 a7 3a 49 39 1b 3c d2 cd 04 bc c8 a0 3b bc
       0.0012779381 0.009474107 -0.008105712 -0.011451907
0003c0 a3 5c 71 bc a5 f6 92 3a 1b b8 ab 3a 1e c9 26 3c
       -0.014731559 0.0011212422 0.0013101132 0.010179786
0003d0 24 54 f2 b9 cc c3 80 3c 82 bf 2e bb bf dc 59 bc
       -0.00046220527 0.015718363 -0.002666444 -0.013297259
0003e0 d2 67 19 3c c8 39 06 bc cc 71 45 b8 91 d0 0e bc
       0.009363132 -0.008192487 -4.707444e-05 -0.008716718
0003f0 f9 21 a2 bc bc a3 f3 b7 5d 20 16 bc 67 0f 9f 3c
       -0.01979159 -2.9044102e-05 -0.009162989 0.019416524

action_model._continuous_distribution.log_sigma f4 [1, 2]
000000 7f c3 98 be 59 0e 16 be
       -0.29836652 -0.1465391

action_model._continuous_distribution.mu.weight f4 [2, 64]
000000 eb c6 af bd 0e d0 8e bd a0 dc 86 be c4 be c3 bd
       -0.085828625 -0.06973277 -0.263402 -0.0955787
000010 5e f4 4b 3c 77 59 c8 bd 6d df 1b 3d b1 8e 3f 3b
       0.012448398 -0.09782689 0.038054872 0.0029229338
000020 96 cf 9c bc 61 5c fd be 4f 7c 84 ba 64 7f dc bd
       -0.019141953 -0.49484542 -0.0010107848 -0.10766485
000030 e2 79 02 be d4 66 3f 3e fa 1f 31 3d a3 21 15 bc
       -0.12741807 0.1869157 0.043243386 -0.009102258
000040 2e af e4 3c 63 10 d7 bd 72 9d 9d 3d 90 03 82 bc
       0.027915563 -0.105011724 0.07696046 -0.01587084
000050 bf ee cc 3d d9 92 15 3f 3b 1c fb 3c e7 8c 20 bc
       0.10006475 0.58427197 0.03065311 -0.009799219
000060 6b 1f 02 3e 15 85 68 bd 1a 5f 5b bd ce 33 9c 3e
       0.12707298 -0.056767542 -0.053557493 0.30508274
000070 6e bf b8 3d 3d 58 12 3d 35 9c 64 bd be 1a 1f be
       0.09020887 0.03572868 -0.055813033 -0.15537545
000080 b6 9d 9d bd 2b c5 a8 bd e3 10 2f be 9a a9 58 bc
       -0.076960966 -0.08240732 -0.17096286 -0.01322403
000090 dd d3 bf bc ee b9 97 bc 6b 24 2c be 30 b8 7c 3d
       -0.023416454 -0.018521275 -0.16810767 0.061699092
0000a0 6f b1 0f bd f0 9f 45 be 96 2f 29 3e 2b 69 29 3d
       -0.035081323 -0.19299293 0.16522059 0.04136006
0000b0 05 10 a5 bd 46 4e da bc cf 94 de bc cd 4f 8e bc
       -0.08059696 -0.026648652 -0.027170567 -0.017372036
0000c0 59 f0 00 bd e8 b9 ac 3e b7 2e 98 3d da 8a 0c 3e
       -0.031479213 0.33735585 0.07430785 0.13724843
0000d0 da 14 29 3d 2f e5 98 bc 6e 67 de 3d ac eb 70 3e
       0.04127965 -0.01866397 0.108595714 0.23527402
0000e0 27 d3 08 3e e0 83 05 3e 3d ec a5 3d f1 3e ce bc
       0.13361798 0.13038588 0.081016995 -0.025176497
0000f0 1e ad cb 3d 30 90 e6 bd 3f c4 7c bd ba 67 f8 3c
       0.09945129 -0.1125797 -0.061710592 0.030322898
000100 a5 e7 1e be dc c8 34 3e 3a b6 3c be e8 d5 fd 3c
       -0.15518053 0.17654747 -0.18428889 0.030985788
000110 59 0a 37 3e e6 49 f7 bc 05 c9 51 3d f1 82 4c be
       0.17875041 -0.030186605 0.051217098 -0.19971825
000120 27 7e ba 3d a5 7a 46 be e9 0b 09 be 1c dd 98 bd
       0.09106093 -0.19382723 -0.1338345 -0.07464048
000130 50 26 f8 3d e0 4a 33 3e c9 34 3b be e8 32 a6 3d
       0.121166825 0.17509031 -0.18281855 0.08115178
000140 8d 7c 89 bc f9 53 99 bd 60 e4 1a bd 8c 37 44 3e
       -0.016783023 -0.0748672 -0.03781545 0.19161814
000150 5b f3 4f bd 9c b5 21 3e 2b 29 4a bd fa d0 b2 bd
       -0.05076919 0.15791935 -0.049355667 -0.08731265
000160 a2 31 95 3d 97 68 0a 3e 90 12 f9 3d 16 7d 78 3e
       0.07284857 0.1351646 0.12161744 0.24266466
000170 97 1a ea 3d e8 ce ae bd 73 b4 a4 3d 1d 38 54 be
       0.11430853 -0.08535558 0.080422305 -0.2072453
000180 4b d8 18 be 3e 71 4b be 06 d1 98 bd 94 00 c4 bd
       -0.14926259 -0.19867417 -0.07461743 -0.09570423
000190 09 e1 9a 3b 02 b3 be 3d df 6b 0d be a6 f5 34 be
       0.0047265333 0.09311487 -0.13810681 -0.17671832
0001a0 63 62 0d be 4c 15 bb 3c c1 7a 61 bd 2b 4e bd bc
       -0.13807063 0.022837304 -0.055048708 -0.023108562
0001b0 44 a0 a5 bd 24 15 0c 3e eb 32 22 be 2e 4d 33 3d
       -0.08087209 0.1367994 -0.15839736 0.043774776
0001c0 f2 17 dd 3d 9a 47 6a 3e 6b 62 bb 3d 3b 9c b2 bd
       0.10795583 0.22878876 0.09149631 -0.08721205
0001d0 ad bc 3d bd bd 14 d4 bd 81 02 0b bd 17 19 dd 3c
       -0.046322513 -0.10355518 -0.033937935 0.026989503
0001e0 f5 11 49 3e 1a 16 9c 3c 00 58 2a bd 6d bd 3e 3d
       0.19635756 0.019053508 -0.04158783 0.04656737
0001f0 fd ca 18 3c 89 10 94 3d 84 e1 cf bd c8 63 9d 3d
       0.00932574 0.07229716 -0.101504356 0.076850474

action_model._continuous_distribution.mu.bias f4 [2]
000000 62 7c ad bc 8a 95 db bd
       -0.021177474 -0.10721882
