results/Abstract1/bachelor/bachelor-31499973.onnx (onnx, 872319 bytes, 12 tensors)

network_body._body_endoder.seq_layers.0.weight f4 [256, 7]
00000000: a34c 8abe aaea 4fbf 214c 003e 86db b5be
00000010: 684f eebe f080 173e 31f5 80be 46cd 76be
00000020: 509d efbd a577 0abf 1ead f1be 18ed 20bf
00000030: 96b3 37bf 91e2 00bf 3f88 243d 58fc 723f
00000040: 1e7d 173f a58e 043e 1a70 403f 12f1 38bf
00000050: b829 5a3e 1e38 0c3e 5d17 b93e 398f 493e
00000060: a7f8 133e 6e84 6cbe 3964 0d3e 154e b83c
00000070: af7e be3e 0eb2 cb3e 1ecd 173f af04 b0be
00000080: 6c47 3c3e fbb0 043e 0b7c 8fbe 2d5e bebe
00000090: 58c8 bdbc f11f 9f3c 7a55 ac3d 3683 e5bb
000000a0: 7be4 e5be f0f2 a03b ffc0 74be 6ae9 3abd
000000b0: 3045 2f3f b11c f9be cb44 36bf 9731 9a3d
000000c0: b1ed f9be 5a1e 38bb 3fd3 d53e 9655 323d
000000d0: 53f6 18be bd6f 423e c12e 43bd 8c49 16be
000000e0: bc58 bbbe 7397 0f3f b863 693e cdf0 d6be
000000f0: fa5e cd3c 0280 283e 0bd7 ea3e da52 d4be
00000100: ba85 dfbe ec5d 653d 7b97 da3e 69dc fdbe
00000110: fbbf 66bf 69b1 08bf 93c8 42bf b316 be3e
00000120: 3434 17bf 91df a33e f97c 6dbd 64ae 703e
00000130: 00fb 303f d23b 2cbf b236 de3e 7b86 4c3d
00000140: f18b 11bf a390 1dbf 9ecd 67be 2aea 0bbf
00000150: f4fa 653f 22d7 893e 205e 03be 4843 43be
00000160: eb55 d3be 6e95 183f a582 e53e a3f4 c1bd
00000170: 144a c0be 277f 70be 4020 bfbe 2cd8 61bb
00000180: a4cd cebd 1e89 37be e6a3 34be a2da 35be
00000190: 7e11 a9be dba1 eabe 425b b93e d0e2 24be
000001a0: 0446 3cbf 5f4b 99bd d711 ffbe a936 f5bc
000001b0: 98c6 1abe 7c75 e43c 1c9d 8d3e e41a cbbe
000001c0: f335 963e 5987 3c3e 9752 a73e 0354 333e
000001d0: 53fe ecbe 4ef3 f2bc 8db2 15bf 1064 e0bd
000001e0: 93ab 4bbf 7380 ec3e 910e b13e 0bbe 0e3f
000001f0: 411c f23e aefc f3be e599 863e 452d 6dbf
00000200: 6ebd 54be ce67 533c 0487 0bbe 8722 d03e
00000210: 0fcd 933e 0197 863d a624 54bf cc7b d9bd
00000220: e884 243e 9f44 5fbc c3d5 26be 1f30 debd
00000230: 0c15 26be 00e0 c33e 5b4a e9be f609 3e3f
00000240: d553 833b 9e60 663d 9acb 1abf ab8a a8bd
00000250: 8842 1fbf d1aa e3be e226 4c3e 101c 51bf
00000260: 31c6 e1bd 77d5 4abf a40f 4c3c 1005 8bbd
00000270: c28b e8bd 9cf4 1a3e 3837 ba3e a87f 0ebd
00000280: 331c 7dbe cbd7 893e fa1d 073f aaec aa3e
00000290: 3762 c6bd dcc6 61be 5985 443f 25de 0d3f
000002a0: 088b 543f 364b d03e f6ec d0bd cb61 dd3e
000002b0: e2d5 dd3c 343b 17be 8d36 543f 355c 5d3e
000002c0: 1cc7 733d 06a3 ec3e f99f c0be 56cf 0ebe
000002d0: 1ccc f1be a789 b0be b9c8 48bd 3884 933e
000002e0: 3c4e 403e d28c 8ebe a8bc ae3e 8904 45bf
000002f0: b327 273f 1c36 2a3f 0eed 263f 1fa4 57be
00000300: 8470 01bf 1de4 543e efc7 573e 7d9e b93e
00000310: b837 ccbe 41f0 02bf 9cf8 54be 2640 5e3e
00000320: ced2 043e 938f 83be 0feb ca3d 45c5 833e
00000330: cbfe e7be 487a 70be d43c ddbe e18f cbbe
00000340: f6a6 dcbe 5f28 e7be ad97 023f a869 5abe
00000350: 397b b5be ae67 9dbe c7c1 053f 642f 09bf
00000360: 0263 533d 08b7 23bf 1c52 4e3f 1c42 99be
00000370: 8397 3a3e b5c3 0c3d f88d ce3d d706 113f
00000380: 98e6 2bbe 749f 2fbf 2c60 da3e 2195 033f
00000390: 1028 d3be 5f15 19bf a8fc 413e 387f 0b3f
000003a0: fbdf 613e d094 543e 589f ca3e 1ea9 133f
000003b0: 2c01 0a3e 5c23 a23e ff2b 16be a007 a73e
000003c0: b54c 8cbe 4101 8c3e c8e9 be3e a984 cfbb
000003d0: 00b2 d9be 4dc3 703e b41d bb3d 7ef2 573d
000003e0: 6031 663d eed7 59be da39 b23e 1163 59be
000003f0: a274 453f 81ee c33d 2de7 063f 1653 e43e
-0.27011594 -0.81217444 0.12529041 -0.35519046 -0.46544957 0.1479528 -0.25187066 -0.24101743
-0.11699927 -0.54088813 -0.4720239 -0.62861776 -0.717584 -0.5034571 0.040168997 0.94916296
0.5917529 0.1294504 0.75171053 -0.72242844 0.21304977 0.13693282 0.36150637 0.19683541
0.14450322 -0.23097393 0.13807763 0.02249817 0.37206027 0.39784282 0.5929736 -0.34378573
0.1838662 0.12958138 -0.28024325 -0.37181225 -0.02316682 0.01942441 0.08414741 -0.007004167
-0.4490088 0.004911773 -0.23901747 -0.045632757 0.68464947 -0.48654702 -0.7119872 0.0752899
-0.48814157 -0.0028094263 0.4176273 0.043538652 -0.14937715 0.18987937 -0.04765201 -0.14676493
-0.36591136 0.5609047 0.22791946 -0.4198059 0.025069702 0.16455081 0.4586719 -0.4146946
-0.43656713 0.055997774 0.42693695 -0.49582222 -0.9013669 -0.53395706 -0.760873 0.37126693
-0.5906403 0.32006505 -0.05798051 0.23504025 0.69132996 -0.6727878 0.43401104 0.049932938
-0.5685416 -0.61548823 -0.2263703 -0.5465418 0.8983605 0.26921946 -0.12828875 -0.19068635
-0.41276488 0.5960301 0.44826236 -0.09470489 -0.37556517 -0.23486005 -0.37329292 -0.0034461124
-0.100978166 -0.179234 -0.17640647 -0.17759183 -0.33021158 -0.4582661 0.36202437 -0.16102147
-0.73544335 -0.07485079 -0.49818298 -0.02993329 -0.1511482 0.027888052 0.27658927 -0.39668953
0.29338035 0.18411006 0.326802 0.17512517 -0.46287784 -0.029657032 -0.5847557 -0.109565854
-0.79558676 0.4619175 0.34581426 0.5575873 0.4728718 -0.47653717 0.26289287 -0.926472
-0.20775387 0.012903167 -0.13625723 0.40651342 0.28867385 0.065717705 -0.8286842 -0.106193155
0.16066325 -0.0136272 -0.16292481 -0.10849022 -0.16218966 0.38256836 -0.4556454 0.7423395
0.0040077963 0.056244485 -0.6046692 -0.08229574 -0.62210894 -0.4446626 0.19936708 -0.81683445
-0.1102413 -0.7923197 0.012454901 -0.06788075 -0.11354782 0.15132374 0.36370254 -0.03478971
-0.24717788 0.2692245 0.52780116 0.33383685 -0.09686702 -0.22048515 0.7676597 0.5541709
0.83024645 0.4068238 -0.10201447 0.43238673 0.027079526 -0.14768678 0.8289574 0.21617205
0.059516057 0.46218127 -0.3762205 -0.1394628 -0.47226036 -0.3448002 -0.04901955 0.28811812
0.18779844 -0.27841812 0.34128308 -0.76960045 0.6529495 0.66488814 0.65205467 -0.21058701
-0.5056231 0.20790143 0.21072362 0.3625373 -0.3988626 -0.5114785 -0.20797962 0.21704158
0.1297104 -0.25695476 0.09908115 0.25736442 -0.4531158 -0.23484147 -0.4321047 -0.39758208
-0.4309613 -0.45147988 0.5101269 -0.21329367 -0.35445574 -0.30743164 0.52248806 -0.5358794
0.051608093 -0.6395116 0.8059404 -0.2993325 0.1822186 0.03436633 0.10085672 0.5665106
-0.16787183 -0.6860268 0.42651498 0.5139943 -0.41241503 -0.59798235 0.18944037 0.54490995
0.22058098 0.20759892 0.39574695 0.5767993 0.1347701 0.31667602 -0.1466522 0.32623005
-0.27402273 0.27344707 0.37287736 -0.006332953 -0.42518616 0.23512001 0.09136525 0.052721493
0.05619943 -0.21273777 0.34809762 -0.21229197 0.7713109 0.095669754 0.52696496 0.4459464

network_body._body_endoder.seq_layers.0.bias f4 [256]
00000000: c855 c1bb ecba 1a3c 91e0 5ebb 4d76 0fbc
00000010: a4ca 28bc e669 d63b 0c1b 023d 6682 e3ba
00000020: 419e cc3c 6646 74bc 0241 9a3c 8eb0 d73c
00000030: f717 c2ba b8bf 00bc c3bd f4bb e991 18bc
00000040: 2dab cf3b d806 9f3c 1582 05bb 3c44 0038
00000050: 026a aebc 1d7c 6e3c 6795 eabb a9c9 423c
00000060: 420b 413c 3697 8e3a 4a41 893c 8784 d33c
00000070: ce86 4bbc ca55 e03b 32c9 3bbc 37ad 4d3c
00000080: 8fe7 71bb 4659 82bc fb87 883c 9533 313c
00000090: 7626 37bc c09e 6f3c 3528 673c 4f56 22bc
000000a0: 5abd 723b 13a4 eb3a f424 92ba e8ed 4bbc
000000b0: a834 b63a ac50 7abb e41d 30bc 0f42 a6bc
000000c0: de7e 623c 8f7b 293c b936 cd3b 5802 8ebc
000000d0: a78a 493c 6235 a93c 5cb1 883c a26a 693c
000000e0: 86c5 653c 63d5 483b 620e 90bc 2f90 0f3c
000000f0: ab73 ac3b 77c0 b4ba 8432 1c3c 085d 8136
00000100: d23f da3c 1964 9dbc d9df c73b 6dff eb3b
00000110: 7015 01bc eb4e f73a 6c19 c03a 87b3 52bc
00000120: 7cf5 503c 969b 103c 6b89 abbc 489b 9ebc
00000130: 48c1 47bc c919 b7bc 01a3 ba3c 549f a2bc
00000140: 7d2c 99bc 7976 51bc d9ca acba f671 81bc
00000150: 6dbd 0bbc b28b 23bc e9d5 9cbc 0651 743b
00000160: 5e10 813b de34 0dbc 401c 97bb 440d 49bb
00000170: ab68 ca3c 35d6 523c 534c 33bc c129 023d
00000180: 14b7 e13b 36dc c7bb 45e3 5938 40ac b23b
00000190: cc8d 043c f068 5abc 1846 8e3c 375a 8e3c
000001a0: 865f 3e3b 0e1c 683b 4de9 70bc 207f fbbb
000001b0: 3eab 3d3b f094 f9bb 4fe7 60bb 7b19 de3b
000001c0: 38ce 9f3a 2b01 85bc dd29 54bc 25d1 b33c
000001d0: 93cc 463c 13b3 74bc 7af0 aabc 32dd 673c
000001e0: 6af7 fd3a c0d6 e3bb 3450 893c f60d a8ba
000001f0: 902e 93bb 6b39 393c 1ba1 8a3c edc3 7ebc
00000200: 4a17 353c 1b96 a53c bd9f f73a 1823 983b
00000210: 10cb 18bc a068 02bc e9a6 5c3c d6cf 0b3c
00000220: fc26 0cbb 27ad cbbb e674 95bc b783 1dbb
00000230: 07ec fd3b 6d09 803c 8411 1bbc 3642 e53b
00000240: 5329 593c f3b8 2b3c c3ed d6bc 7bff 1abd
00000250: 12d3 283c f2ca 363c 3a8a 2a3c 900e 82bc
00000260: 13d9 0e3c 9f3c 89bc 537c ef3b 0d8c adbc
00000270: af68 d2bb 20ec bf3c 2b1d ae3b cc56 793a
00000280: 6ec1 d7bb 9828 0c3d 4f5d 623c 989d 8c3c
00000290: f4b4 16bc 59ba 59bc 6ff7 973c 4436 5f3b
000002a0: 73c5 28bc 820c 443c ed58 00bc 93eb 543c
000002b0: 8a18 95bb 6880 1a3c f737 393c 8c78 0fbc
000002c0: c85c c2bb cc55 adbb d232 8cbc acab 88bc
000002d0: 791e d13c b74c ce3c 5d6f c1bc ddf5 8b3b
000002e0: 6da7 1cbc f78d f6bb 3018 043b 14e1 4fba
000002f0: 81aa 163c 1855 7e3c 0da3 3e3c 5b2f fc3b
00000300: 4770 d4bb 1687 68bc 6300 b33b 9363 9dbc
00000310: 6bdc a8bb 19a0 bf3c 7bd2 d2bb b23a c63a
00000320: 423d 6bba 9986 89bb e0a6 68bb 308e e9bc
00000330: d8e0 c03b 39ff 17bc 777d e2bc 19de 743c
00000340: ee74 1e39 7d4a e8bb 72a4 4f3c 59aa 36bc
00000350: 0996 543b ba55 d7bc 7c74 40bc b104 2dbc
00000360: 150b 6ebb b1af 0e3b c229 33bb 7dfc 4f3c
00000370: 7a4e 92bc ccc4 07bc 01db 043c a0c6 2a3c
00000380: eec0 06bb 0442 00bc a593 2dbc 6505 593c
00000390: fce2 47bc 2207 adbb 30ba 39bc 6757 3abc
000003a0: fe13 453c fe4a e5bb 5e7e 903c f259 b8bb
000003b0: c78a 8dba d04a 113b 4279 8839 02e7 adbc
000003c0: 18dd a7bc 777e 283c 12e6 51bb 5c44 b43b
000003d0: 6364 32bb d640 a0bc c8a3 2dbc a931 a93b
000003e0: 3d68 5c3a bbfb 92bc af0f 003c 3b8d 603c
000003f0: 6fd0 c7bb e892 1dbc 2d53 eebb efef a13a
-0.0059001185 0.00944398 -0.0034008364 -0.008756232 -0.01030222 0.006543386 0.031764075 -0.0017357587
0.024977805 -0.014909362 0.018829826 0.026329305 -0.0014808167 -0.007858209 -0.0074689104 -0.009312131
0.0063375444 0.019412443 -0.0020371724 3.0581126e-05 -0.021290783 0.014555958 -0.0071589234 0.0118889
0.011782469 0.0010878805 0.016754765 0.02582003 -0.012422277 0.0068461644 -0.011461543 0.012553505
-0.0036911701 -0.01591171 0.016666403 0.010815521 -0.011178603 0.014625251 0.014108707 -0.009908273
0.0037039132 0.0017977975 -0.0011149929 -0.012446858 0.0013901191 -0.0038195057 -0.010749314 -0.020295171
0.013824193 0.0103444 0.006262627 -0.017335102 0.012301124 0.020655338 0.016686134 0.014246615
0.014024144 0.0030644767 -0.017584983 0.008762403 0.005262812 -0.0013790269 0.009533528 3.85533e-06
0.02664176 -0.01921277 0.0060996828 0.00720208 -0.007878646 0.0018868124 0.0014656014 -0.0128601855
0.012753841 0.008826157 -0.02093955 -0.019361153 -0.012192078 -0.022351163 0.022782804 -0.019851364
-0.018697971 -0.012784594 -0.0013183012 -0.015801411 -0.008529049 -0.009982036 -0.019144969 0.003727974
0.0039387187 -0.008618562 -0.004611522 -0.0030678073 0.024708113 0.012868454 -0.01094349 0.0317781
0.0068882797 -0.0060992492 5.1948493e-05 0.0054526627 0.008090448 -0.013330683 0.017367408 0.017377002
0.0029048636 0.0035417113 -0.014704061 -0.0076750666 0.002894118 -0.0076166317 -0.0034317558 0.00677794
0.0012192195 -0.016235908 -0.012949434 0.021950314 0.012133735 -0.014935273 -0.020866621 0.014151858
0.0019376103 -0.0069530904 0.016761877 -0.0012821543 -0.0044916347 0.011305193 0.016922524 -0.015549642
0.011052916 0.020213177 0.001889221 0.0046428554 -0.009325758 -0.007959515 0.013467529 0.008533439
-0.0021385541 -0.0062157097 -0.018244218 -0.0024034807 0.007749084 0.015629495 -0.009464625 0.0069964183
0.013254481 0.010481107 -0.02623642 -0.0378413 0.010304229 0.011156784 0.010408932 -0.015876085
0.008718747 -0.01675254 0.007308522 -0.021184945 -0.0064211707 0.023428023 0.0053135357 0.000951153
-0.006584338 0.0342184 0.013816192 0.01716499 -0.009198416 -0.013289058 0.018550603 0.0034059444
-0.010300982 0.011965873 -0.007833702 0.012995618 -0.0045500444 0.0094300285 0.011304847 -0.008756768
-0.0059314705 -0.005289769 -0.017114077 -0.016683422 0.025527226 0.025183065 -0.023612672 0.0042712525
-0.009561402 -0.0075242477 0.0020156018 -0.00079299626 0.009195925 0.015523218 0.011635554 0.007696075
-0.006483111 -0.014192363 0.0054626926 -0.01921252 -0.005153229 0.02339177 -0.0064337826 0.0015123694
-0.00089736667 -0.0041969535 -0.0035499856 -0.028510183 0.0058861785 -0.009277158 -0.027647717 0.01494553
0.00015111614 -0.007088958 0.012673484 -0.0111490125 0.003243806 -0.026285995 -0.011746522 -0.010560201
-0.0036322523 0.00217722 -0.0027338122 0.012694475 -0.017859686 -0.008286666 0.008108855 0.010423332
-0.0020561772 -0.007828239 -0.010594283 0.013245915 -0.012200113 -0.0052803913 -0.011335894 -0.011373377
0.012028692 -0.006997465 0.017638382 -0.0056259567 -0.0010798805 0.0022169836 0.00026030286 -0.021228317
-0.020491168 0.010284058 -0.0032028002 0.005501313 -0.002722048 -0.019562166 -0.0105981305 0.0051633907
0.00084078667 -0.0179423 0.007816239 0.013705547 -0.0060978453 -0.009617545 -0.007273099 0.0012354831

network_body._body_endoder.seq_layers.2.weight f4 [256, 256]
00000000: 19b0 833d 6b99 353d 1729 90bb ec8e 1a3e
00000010: a6b1 583a 341e 963d bed0 163c 32bc fabd
00000020: 78a4 8abc f663 58bc 8493 4fbd 2492 8e3c
00000030: f188 09bd 3f35 aebd e543 06bd 1a1c 543d
00000040: c2b1 bd3c 8469 afbd 74bf 853c 3618 21bd
00000050: 5183 353c 47a9 6d3d 3b9d cbbc ad28 003c
00000060: 85fe 66bd 62d0 0a3d a280 e33d 77a5 de3d
00000070: e4a7 9b38 6584 b6bd 0e73 a93d 08cd cdbb
00000080: 9b2e 4bbd 9bf1 0a3d 111f 403d 4ca2 16bd
00000090: 1733 39bd 3772 04bd 35e7 7d3c 0fc3 cebd
000000a0: 9b86 d3bb fbf0 763d cb55 cfbb ba29 f13c
000000b0: 44d4 d63d f14e af3d bdf5 a03c b4ef 3dbd
000000c0: fbef 86bd ce0c 3e3d 3f1a e9bd 0f0d 543d
000000d0: 6b91 79bd b4b1 df3b 70d7 bf3d 396d d53c
000000e0: e3fe f43b ea9a 193d 4431 08be d80e 39bd
000000f0: f274 233c 059b 29bb d7ae 17bd 65bb f5bc
00000100: c8e1 01bd d13e ccbd 00e3 803d 506a 4d3d
00000110: 9e30 99bd a0ce 6ebd 7a38 853d 7a2f 49bb
00000120: 96bc d73d e808 05bd 5c83 ec3c 7a13 23bd
00000130: 2b57 cf3d b09a 85bd 5665 dab9 296c 703c
00000140: 92d2 843d d2c2 01bd 55c6 863d 55c3 00bd
00000150: 04c4 acbd 4696 283d 9727 273e 449a bf3c
00000160: 650e 8cbd d183 1bbd ce74 5f3d 0c3f fa3d
00000170: dc48 993d 0dfc 323c 42fe 353d 42b7 b2bd
00000180: 9d9e c138 b930 82bd b6c7 873d 58a0 bf3d
00000190: 0f19 26be 881a 983d effe a93c da84 8ebb
000001a0: acab 7ebd e9c2 0ebd 5e41 4f3c efe7 76bd
000001b0: f1eb 8cbd 6260 083d 065f 0ebd 88dc bfbd
000001c0: 17a0 bd3d b6fe 02bd 5917 283e d320 f5bc
000001d0: a1d8 a2bc 4d39 b53d 0353 b8bc 095a efbd
000001e0: cd1e cc3b b444 96bd e30a 463c 3966 d9bd
000001f0: efe7 5f3d 4bb1 ca3c 5241 aa3c 46bc 90bc
00000200: 56bb e1bd 3a55 813c 263a 9b3b 0f77 1fbc
00000210: 9577 bbbd ac8a ca3d 7117 74bc 9e02 653d
00000220: 5579 fabb 0ff5 b6bb f28e 393b 1b6c 36bd
00000230: a903 353d 49a4 03be 66b1 b33d 0fba 3e3b
00000240: ced5 0f3c 72f0 a7bc c0d7 34bd fc50 713d
00000250: bc4f 9abd fd52 48bd 2a38 903c 922b 24be
00000260: 4a35 4dbc 64d1 4fbd 4e45 2d3c d0ea 57bc
00000270: c26a 2fbc 2c97 92bc 306b a3bc b06f bebb
00000280: 5691 453d 92de 163d f4b5 353c a3ae 9abd
00000290: 477d 85bc 5a1b 40bc 1853 8fbb 348d 493d
000002a0: 7a1f 8ebd f168 8fbd e2fc 4f3d 3a00 33bd
000002b0: dc39 c63d 52b8 acbd 4546 20bd 3278 9a3d
000002c0: bac8 233d c200 893c cd0f f8bd 0ea0 0f3d
000002d0: b598 213d e46d d63c 3060 083d e0b6 543c
000002e0: 0512 e53c 353d 0cbe 9fb6 0e3d 4267 863c
000002f0: d250 87bd c4cd 393d a601 9bbd 1780 bbbd
00000300: 9901 093c a95d 15bd d2e7 b83d 928f 21bd
00000310: 3c5c 96bd d2e5 4cbd 3bf8 5cbd 0863 073c
00000320: 00bb 89bc 1261 15bc b602 ee3d 82e8 80bd
00000330: 297b 563d d375 82bd 6d27 4bbb 1961 4a3d
00000340: 3c2e 44bc d159 86bd 10d5 2f3e 0193 fdbc
00000350: 0330 b7bb e5a1 fd3c c975 003d 0088 ac3d
00000360: b1f7 92bd 4f2f 18bd 22e0 8d3d 9ffd 81bd
00000370: c0a4 0f3d 5f35 adbc f8e7 403d 70bf 63bc
00000380: c198 7fbd 7676 5abd 4579 593d aeb5 97bd
00000390: 1499 71bd 38ac 1cbb a13c babd f971 08bc
000003a0: 7794 3f3c 89d9 69bd 7750 3cbc 90bb 62bd
000003b0: 92f2 98bd 0d5b 32bd 0e13 fcbc f3c4 ae3c
000003c0: e616 d3bc 1ebe 8ebd 4d8d 0e3d 8b46 5a3d
000003d0: c2dc 0a3d f659 f7bb 8b77 90bc 05bf a1bc
000003e0: fed5 71bd 26d1 c23d 1dce e9bd 8233 c7bc
000003f0: ff47 9e3d b7fb babd ef2e 963d 3f1c 973c
0.06430072 0.044335764 -0.0043994295 0.15093583 0.0008266218 0.073299795 0.009205041 -0.12242927
-0.016924128 -0.013207426 -0.05067779 0.01740367 -0.033577863 -0.0850625 -0.032779593 0.051784612
0.02315605 -0.085650474 0.016326644 -0.03932973 0.011078672 0.058022764 -0.024855247 0.007822198
-0.056395072 0.033890136 0.11108519 0.10871404 7.422248e-05 -0.08911971 0.08273898 -0.006280545
-0.049604993 0.03392182 0.046904627 -0.036775872 -0.04521474 -0.032335486 0.015497019 -0.10095798
-0.006455255 0.06028841 -0.006327366 0.029438842 0.10489705 0.08559979 0.019648427 -0.046371177
-0.065887414 0.04639893 -0.11381959 0.051770266 -0.060929697 0.006826604 0.09367263 0.026053058
0.007476674 0.037501253 -0.13300043 -0.04518017 0.009976612 -0.0025879752 -0.037031975 -0.029996583
-0.031709462 -0.09972919 0.06293297 0.050150216 -0.07479976 -0.05830252 0.06504913 -0.0030698464
0.10534017 -0.032479197 0.02887123 -0.039813496 0.10124048 -0.06523645 -0.000416557 0.014674225
0.064854756 -0.031679936 0.065807976 -0.031436283 -0.084358245 0.041158937 0.16323696 0.02338899
-0.06838683 -0.037967507 0.054554753 0.122190565 0.074846 0.010924351 0.044431932 -0.0872636
9.232501e-05 -0.06356949 0.06629889 0.09356755 -0.16220497 0.074269354 0.020751445 -0.0043493332
-0.062175438 -0.03485385 0.012649862 -0.060279783 -0.0688094 0.033295043 -0.03475859 -0.09368235
0.0925905 -0.031981193 0.16415156 -0.029922878 -0.019878687 0.0884882 -0.02250052 -0.11687095
0.0062292577 -0.07337323 0.0120875565 -0.106152005 0.05466455 0.024742743 0.0207831 -0.0176679
-0.110220596 0.01578771 0.0047371564 -0.009732976 -0.09153668 0.09889731 -0.014898167 0.0559107
-0.0076438584 -0.0055834125 0.0028313962 -0.04453669 0.044192944 -0.12855639 0.087740704 0.0029102599
0.008779002 -0.020500395 -0.044151068 0.058915123 -0.075347394 -0.04890727 0.017604906 -0.16032246
-0.012524912 -0.0507368 0.010575606 -0.013178542 -0.010706605 -0.01789435 -0.019948572 -0.005811654
0.048234306 0.036833353 0.011090744 -0.075528406 -0.016295088 -0.011725271 -0.004373919 0.049206927
-0.069395974 -0.07002438 0.050778277 -0.043701388 0.096790045 -0.08433594 -0.039129514 0.07542457
0.03998635 0.016723994 -0.12112389 0.03506475 0.039452273 0.026175447 0.033294857 0.012983054
0.027962694 -0.13695224 0.03484213 0.016406659 -0.06607212 0.04536225 -0.07568674 -0.091552906
0.008362197 -0.036466274 0.09028591 -0.03944356 -0.07341811 -0.05002386 -0.05394767 0.008263357
-0.016812801 -0.009117382 0.11621611 -0.06294347 0.05236355 -0.063701294 -0.0030998841 0.049409006
-0.011973914 -0.065601 0.1717112 -0.030953886 -0.0055904402 0.030960986 0.03136233 0.084243774
-0.0717615 -0.037154492 0.069275156 -0.063472025 0.035069227 -0.021143613 0.047096223 -0.013900623
-0.062401537 -0.05333563 0.053094167 -0.074076995 -0.058983877 -0.0023906361 -0.09093595 -0.008327954
0.011693112 -0.057092223 -0.011493794 -0.055354655 -0.074681416 -0.043543864 -0.030770805 0.021334147
-0.025767755 -0.06969856 0.034802724 0.05328993 0.033901937 -0.007548566 -0.017635128 -0.019744406
-0.05904197 0.09512548 -0.11416266 -0.024316553 0.07728576 -0.09130042 0.073331706 0.018446086

network_body._body_endoder.seq_layers.2.bias f4 [256]
00000000: ffa1 85bb 9bfd 04bc ed77 40bc e00f 103c
00000010: c4e3 ce3b 72c4 a2bc 33c8 6f3c 0216 d43c
00000020: a782 6d3c 3a67 8bbb 3ce9 87bc d74a c8bc
00000030: a1ac 093c 6b29 3c3b 9a99 793b b54c e53b
00000040: c40c 0e3c b133 ba3b b96c 8ebc 34fd 3fbc
00000050: ba30 913b 4081 343b 97bf 3e3c ebe8 a73c
00000060: 079f d8bb 6c92 d9bb 0598 39bc 1eec 113c
00000070: a433 eabc 2521 7d3c 9f51 763c 6a71 b2bc
00000080: a39d d138 5c74 3e3c d67a ffbb dffb bebc
00000090: 5b02 1b3a a19f 213c 4563 643c 1da9 18bc
000000a0: 4cc6 4fbb 8a9b ee3a 3d82 843b 2bd4 89bc
000000b0: b195 973c 732b 9dbc 17b3 c23c 4870 0bbb
000000c0: 6651 4e3c 20bf 03bc 5813 bf3b efd0 5cbc
000000d0: 0635 aebb 7c10 2dbc 5b7b 553c f6fe 83bc
000000e0: f597 89bc 0403 abbc d6bf 1bbc ecb0 053c
000000f0: 2337 34bc 826d beba 90a7 f33b cec3 b53b
00000100: d44a ca3a 1bf6 623c c8ae 093c 5ef1 0c3c
00000110: 9c74 64bb 01ef a3bc df42 13bc 298b 9a3c
00000120: b98b 94bb 73c0 a63c 71a4 28bc 66a0 56bb
00000130: b108 cc3b d6d3 03bb 1b39 11bb 7ff0 3dbc
00000140: 8d26 853b 8a08 d73c b9be 903a fde5 1bbd
00000150: 7373 90bc 76fd d0ba 998b 723c c3ae 0c3a
00000160: 9486 03bc e4e3 613b 4d6c 663c cb74 c4ba
00000170: 87af d6bc d66e 913c 059d 2cbc 8280 4ebc
00000180: 4909 2a3c 3a03 92bb 9c84 b73a c90e 0ebc
00000190: 95d9 9e3b e9c0 713b 3d33 613c 97da d43a
000001a0: 77ed b83b 2d34 3c3c a0f2 9ebc 1a6e 98bb
000001b0: b7ed 5abc b917 b73b b8f0 89bc 4925 f1bb
000001c0: 94b3 edbb 10e4 373b 3f1c a2bc 288a f0bb
000001d0: f5a5 8bbc 2539 80bc e92d 98bc 1ed2 e7bb
000001e0: 3c00 943a 3986 e43a 2ccb 41bc 9ad7 b2bb
000001f0: a5d8 30bc dc28 90bb ac2b b3bb 9fb6 a4bc
00000200: f3db a93b a906 1cbc dc8f 893c a2f0 5bba
00000210: 8fa2 d13b ac51 8fbc b07a d73a df5a 75bb
00000220: a953 8ebc 8587 c73c 576c a53b d731 f4bb
00000230: 873b 83bc 4448 093c a927 7c3c be0d 333c
00000240: 5ac6 6dba 1062 a63c edf0 8bbb 2a9f c5bb
00000250: 5cc9 173c cd77 af39 e423 5dba 278f 233b
00000260: 9520 ad3b e2ff 17bc c218 893c c439 843c
00000270: 2bdc 83bc 6fc8 743c 357d 1dbc 2cc8 943c
00000280: a63a c939 3c25 51bb 25ee cc3c dbb0 14bc
00000290: b50a c9bc 3647 86b9 a4fc 85bb 874e 81bb
000002a0: fbc6 8abc 66c1 043b 8e1d 0bbb 2e82 caba
000002b0: a1c9 cbbb 08d5 8abc 8b4a 9dbc 617a 1dbc
000002c0: 67b2 573c bcdf 1bbc dfdc 7abc 2085 11bb
000002d0: 19ac b93c cc7b 62bc f4e2 763c d11c 52bc
000002e0: 23d9 e2bc 655e 8a3b 83d2 1d3c ced0 ad3c
000002f0: 21ad 67ba c777 1bbc 0c9e edbc 1b57 5c3b
00000300: 48cf b9ba 601d 803c f39a 013b 416c c0bc
00000310: 8f2a 86bc 7e3c fdbc 03b4 ef3b c761 6d3c
00000320: 5ca0 c13c 088d 8b3b f9f8 11bc 8042 a53b
00000330: ead0 733c 60f7 fc3a 1e03 91bc 1b77 60bc
00000340: 4d53 e43b 490e 893c b3e2 15bb c665 473c
00000350: c87f 65bb aebc a6bc 82e2 9b3c e264 76bc
00000360: 8b4e 25bb a0d3 b33c f9c6 a6bb f456 973b
00000370: e648 a8bb d8a2 25bc 811c 713c c09a ca3c
00000380: a036 a53c 395d f13b 5d2f ac3b e3e4 87bc
00000390: 585a 133c 13b5 a1b9 f8a1 87bc 0fcc bdb8
000003a0: ebdb 1c3c a20f b13c aebf f03a f7de 99bc
000003b0: 5990 efba 3fab 043b 43e0 bfba 89a9 afbc
000003c0: 59a9 173b 2039 cd3c 8941 293b dfbc 713c
000003d0: 6c49 db3c 0900 d9bb 6f74 f1ba e729 2abb
000003e0: 404a 0abd 31da f6ba db79 53bc 8515 b03b
000003f0: a3bb 0ebc 5bb3 223c e162 54bc 29c4 08bc
-0.0040781493 -0.008117105 -0.011747343 0.008792847 0.006313773 -0.019869063 0.014635134 0.0258894
0.014496482 -0.004254249 -0.016590707 -0.024449749 0.008402974 0.002871121 0.0038085938 0.0069976696
0.008670036 0.0056824316 -0.017385827 -0.011718083 0.0044308575 0.002754286 0.011642358 0.020496806
-0.0066107544 -0.0066397693 -0.011327748 0.008906392 -0.028589077 0.015449797 0.015034108 -0.021782596
9.995259e-05 0.011624422 -0.0077966256 -0.02331346 0.0005913132 0.009864719 0.013939683 -0.0093176635
-0.0031703888 0.0018204313 0.004043846 -0.016824802 0.018503996 -0.019185757 0.023767037 -0.0021276642
0.012592649 -0.008041173 0.0058311634 -0.013477548 -0.0053163795 -0.010563012 0.0130298985 -0.016112786
-0.016796092 -0.020875461 -0.0095061865 0.008159857 -0.010999474 -0.0014528485 0.0074357465 0.0055470234
0.0015433677 0.013852621 0.0084034875 0.008602468 -0.0034859544 -0.020011427 -0.008988111 0.018865185
-0.004533258 0.020355439 -0.010293112 -0.0032749414 0.006226622 -0.0020115278 -0.0022159282 -0.011592983
0.0040634335 0.026249189 0.0011043168 -0.03806113 -0.017633175 -0.0015944678 0.0148037905 0.00053666177
-0.008027691 0.0034468109 0.014063907 -0.001498842 -0.026206745 0.017753046 -0.010535483 -0.012603881
0.01037819 -0.004455951 0.0014001313 -0.008670517 0.004847715 0.0036888665 0.013745126 0.0016239461
0.0056435424 0.011487049 -0.019402802 -0.004651797 -0.01336234 0.0055875448 -0.016838416 -0.007359181
-0.0072540734 0.002805952 -0.01978886 -0.0073406883 -0.017046908 -0.015652249 -0.01857658 -0.0070746085
0.0011291574 0.0017435021 -0.011828225 -0.0054578306 -0.01079384 -0.004399402 -0.0054678526 -0.020106612
0.0051836907 -0.009523072 0.01679223 -0.0008390044 0.0063975523 -0.017494999 0.0016439762 -0.0037438197
-0.017373877 0.024356613 0.0050483155 -0.0074522304 -0.016019596 0.008379046 0.015390315 0.010928569
-0.0009070389 0.020310432 -0.004270664 -0.0060309367 0.009264316 0.0003346786 -0.0008435829 0.0024957152
0.005283425 -0.009277316 0.016735438 0.016140826 -0.016096195 0.014940365 -0.009612371 0.018161856
0.00038381404 -0.0031913063 0.0250159 -0.009075369 -0.024541238 -0.00025611528 -0.004088955 -0.0039461288
-0.016940584 0.0020256876 -0.0021227333 -0.0015450174 -0.0062191044 -0.016947284 -0.019200584 -0.009611697
0.013165093 -0.009513792 -0.015311449 -0.0022204593 0.02266507 -0.013823461 0.015068758 -0.012824253
-0.02769143 0.0042226785 0.009632709 0.02121773 -0.0008837749 -0.009489006 -0.029006027 0.0033621255
-0.0014176155 0.015639007 0.0019776195 -0.02348912 -0.016377715 -0.030912634 0.0073151602 0.014488644
0.023636036 0.0042587556 -0.008909457 0.005043328 0.014881352 0.0019299798 -0.017701682 -0.013700272
0.006967938 0.016730445 -0.002287072 0.012170261 -0.003501879 -0.020353641 0.019028906 -0.015038701
-0.0025223817 0.021951497 -0.0050896374 0.00461852 -0.0051356433 -0.010109626 0.0147162685 0.024731994
0.020167649 0.0073658493 0.0052546696 -0.016588634 0.008993708 -0.00030843224 -0.016556725 -9.050231e-05
0.009573917 0.0216139 0.0018367672 -0.018783076 -0.0018277272 0.0020243672 -0.0014638979 -0.021443145
0.002314171 0.025051653 0.0025826416 0.014754503 0.026768409 -0.0066223186 -0.0018421541 -0.0025964917
-0.033762217 -0.0018833337 -0.012907471 0.005373659 -0.008711728 0.009930457 -0.012963028 -0.0083475495

network_body._body_endoder.seq_layers.4.weight f4 [256, 256]
00000000: e2ec f03c 2949 fa3c 1938 e5bc b800 783d
00000010: 90dc aabb 13b6 91bc aefa 983d aaf8 843c
00000020: 87fe 04bd b0c8 16bd 3df4 ce3c 4443 0bbd
00000030: fad4 3f3d 939e fc3c 289c d1bd a27d 06bd
00000040: 26f9 073e 610a b03d b71e aa3d b20c a73c
00000050: c95f cbbb 4409 8cbd 30d7 71bd d746 b1bc
00000060: ab79 babb 1161 b73c 865d 0cbd 56a5 1e3d
00000070: 4188 adbd e1ba 073d 504b 32bd 0620 6d3c
00000080: 817a 06b9 fe74 e3bc 2f2a ac3d b86b 0b3d
00000090: 65d0 603d c775 023d afba 89bd fcff 06bc
000000a0: f033 9ebd 0501 00be d8f5 36bd 9ef6 8d3d
000000b0: 32f2 ce3c 14c9 af3d f5fe cdbd 0a6e 873d
000000c0: 74d4 d2bc 3e07 f53d 3704 d43a 8588 4f3d
000000d0: 1c09 36bc a2d3 873d 5213 f6bd 90f8 19bb
000000e0: 295b 913d 0b42 933d 5d81 b33c 9a6c a5bd
000000f0: 3495 5cbc 1083 09bc 12ac 1ebc 3a06 173d
00000100: e418 ff3b c2e4 8b3d 4383 cebd 4f40 653c
00000110: 8a1a ebbc 033b 593d a58d a1bd 67d4 cfbd
00000120: 4519 f73c c9b7 e9bc 2a7a ba3d 20e3 553c
00000130: 76ae 81bc a819 de3c b37d 063d 6f59 bc3c
00000140: 24b9 1abe 266b 62bd 06f4 d8bd fa3a cb3d
00000150: 31a0 55bc 3b17 8b3c 2b08 c73d d7ca 8c3d
00000160: 6d1d c6bd 744e d43b b21a 233d 2bb9 2f3d
00000170: 6f87 c93c cab0 483d e936 bfbc b48b 2d3c
00000180: 709b 55bd cc9d 3f3d 032d b8bd e32b 21bd
00000190: 0fec 7e3d 5a41 023e 5ec8 84bd 76ed 203d
000001a0: bc0a 973d 3dd1 87bd b952 043e d00a 40bc
000001b0: af39 ad3c f3cc 30bd bfba 9e3c e328 adbc
000001c0: d2d8 c33d b93c d1bc f5ba b13d 98ed d83c
000001d0: b485 48bd bfc1 dfbd 0f0e 373d d942 d3bc
000001e0: 6c80 2bbd ba86 9abd 35d6 9bbd 6aff e9ba
000001f0: d53e dd3a 1b3c 953d f705 f33c 62b7 ad3d
00000200: 7171 e6bc e342 c93d 7734 0cbc ab43 b8bc
00000210: 7cfc fc3c f15d 87bb 595e 683b 02c8 463c
00000220: 8b85 a8ba 359a 8c3c 75bf 1ebe 7aed 13bc
00000230: 96fe 03bd 8722 353d 4faf 6d3d 4d1a f4bc
00000240: 2351 b03c 21d2 bcbd 9353 973d 5b22 b93d
00000250: 738c ba3c aee2 843d 1d63 a2bc 8b1c c33d
00000260: 1fa9 2b3b 514b 0a3d e624 603a bcf6 4ebd
00000270: 200d a83b 7cf4 c73d b34a 84bb 7dc8 86bd
00000280: 9ce7 2e3c f63b ac3d f5b9 5d3d b2d6 e53c
00000290: 6882 ac3c c8df 8cbd b114 88bc c43a 873d
000002a0: 4091 863d ed5d 5abd ef67 7f3d 6aab 363d
000002b0: 4974 a5bd af59 7cbd 71d3 a6bb 310e e13c
000002c0: cd3f f8bc 6cf1 24bd 6e26 8b3d f610 833c
000002d0: 9b4c ae3d e026 3c3b 9316 983d 4d4c 963d
000002e0: e506 203d ebbd 893b 0bf0 463d 362c bbbd
000002f0: 2aa6 2bbd 33ae 92bd b930 c23d 655d 9e3d
00000300: 6255 82bd 8f70 313d 8624 89bc f74a b9bc
00000310: bd18 f13c 7574 ae3c 43cf 823d d3dd cf3c
00000320: 5a75 553d ef58 ad3c bbe5 083d 32c5 9dbc
00000330: d560 003d e4ee b03c 8a31 823d 7a23 7f3c
00000340: 55f8 8cbc cc51 5c3d 3b81 8a3d ae1b 79bd
00000350: 580d b3bc 52cf 2c3c e7ff b7bd 174f aa3d
00000360: 4b8c 1ebe c49d 433c 2dbe 21bd 233b 883c
00000370: 1a0a 5d3d 8f0f b73d be24 d2bd 2444 333c
00000380: 325b 6bbb 7169 9d3c 77d5 d3bb c7d8 52bd
00000390: 2bed 753c 1db2 d2bc 8cfb fcbc 6067 a93d
000003a0: 35cc aa3d 9730 763d 04c4 973c a34b 0c3e
000003b0: 1ac4 cdbd 77d9 eebc 9404 73bc 3343 a1bd
000003c0: b7f6 33bb ceed 30be 32c7 393d a200 dbbc
000003d0: eefc df3d 7329 153e 998b 063c 08b2 b9bd
000003e0: da41 7dbb c8dd 0dbc 5733 53bb b004 1a3b
000003f0: 28ac a33d eaf2 a93d 6a59 823d 02c0 69bc
0.02940983 0.030552464 -0.027980851 0.06054756 -0.0052142814 -0.017787015 0.07469688 0.016231854
-0.0324693 -0.036812484 0.025262946 -0.033999696 0.04683397 0.030837333 -0.102348626 -0.032834657
0.13278636 0.085957296 0.0830664 0.020391796 -0.006206487 -0.06837705 -0.05904311 -0.021640224
-0.0056907735 0.022385152 -0.03426888 0.038731895 -0.08473254 0.033137206 -0.043528855 0.014472967
-0.00012824872 -0.027765747 0.084064834 0.034038275 0.05488624 0.031850602 -0.0672506 -0.008239742
-0.0772475 -0.12500389 -0.04466805 0.06931804 0.025261972 0.085832745 -0.10058395 0.06612785
-0.025736071 0.11964272 0.0016175573 0.050667305 -0.01111057 0.06632163 -0.12015404 -0.0023494102
0.070974655 0.07190331 0.021912271 -0.08077355 -0.013463307 -0.008393064 -0.009684579 0.036871172
0.0077849496 0.068307415 -0.1008363 0.013992383 -0.028699178 0.053034794 -0.07888345 -0.101479344
0.030163417 -0.028530018 0.09105332 0.013054639 -0.01583026 0.027111843 0.03283472 0.022991864
-0.15109688 -0.055277966 -0.10593419 0.09923358 -0.013038681 0.01697885 0.09718355 0.06874626
-0.09673581 0.006479079 0.03982038 0.0429012 0.024600713 0.048996724 -0.023341613 0.01059239
-0.05215019 0.046781346 -0.0899296 -0.039348494 0.06223684 0.12720242 -0.064835295 0.03928896
0.07375094 -0.06631706 0.12922181 -0.011721328 0.02114567 -0.043164205 0.019376157 -0.02113766
0.095628396 -0.02554165 0.08678237 0.026480481 -0.048955634 -0.10925626 0.04469114 -0.025788711
-0.04187052 -0.07545228 -0.07609216 -0.0017852609 0.0016879687 0.07286855 0.02966593 0.08482243
-0.028130265 0.09827211 -0.0085574305 -0.022493204 0.030882113 -0.0041310717 0.0035456626 0.0121326465
-0.0012857182 0.017163375 -0.15502723 -0.009028787 -0.032225214 0.04422238 0.058028515 -0.029797697
0.021523064 -0.092197664 0.073889874 0.09039756 0.02277205 0.06488548 -0.019822652 0.095269285
0.0026193333 0.033763234 0.000855042 -0.050528273 0.0051285177 0.097634286 -0.004037225 -0.06581209
0.010675337 0.08409874 0.05413242 0.028056476 0.021058276 -0.068786204 -0.016611429 0.066030055
0.06570673 -0.05331223 0.06235498 0.044597067 -0.0807882 -0.061608966 -0.0050911237 0.027472587
-0.03030386 -0.0402693 0.06794439 0.015999299 0.08510705 0.0028709695 0.07426181 0.07338772
0.039069075 0.004203548 0.048568767 -0.09139292 -0.041906513 -0.07162132 0.09481949 0.07732657
-0.06363942 0.043320235 -0.016741049 -0.022618754 0.029430741 0.021295765 0.06387188 0.025374329
0.05211387 0.02116057 0.033422213 -0.01925907 0.031342346 0.021598287 0.06357105 0.015572423
-0.017208258 0.053788945 0.0676293 -0.060817413 -0.021856949 0.010547476 -0.089843564 0.083158664
-0.15483205 0.01193947 -0.039488006 0.016629761 0.05396471 0.089385144 -0.10260914 0.010941539
-0.003591251 0.019215317 -0.006464656 -0.051476266 0.0150101585 -0.025719697 -0.030881666 0.0827167
0.08339731 0.060104933 0.018526085 0.13700728 -0.10047169 -0.02915643 -0.0148326345 -0.07874145
-0.0027460286 -0.17278215 0.045355983 -0.0267337 0.109369144 0.14566593 0.008211994 -0.0906716
-0.0038643987 -0.008658834 -0.0032226646 0.002350133 0.079918206 0.08298285 0.06364711 -0.01426697

network_body._body_endoder.seq_layers.4.bias f4 [256]
00000000: 5a70 97bc 96cd 1cbd 0636 dabb 508e f03b
00000010: 18b1 0bbd 2760 2bbc b09e 50bc 2836 8fbc
00000020: bc27 1a3c 0db5 ff3b c99d fdbb 34dc 8d3b
00000030: 1032 283c 1227 8d3c 5767 85bc c244 a6bb
00000040: e370 133c 8cf1 1f3c 9ae4 a9bb 1b75 673c
00000050: 7399 193d 9ed8 0dbc eb60 65bc 7b4c b9bb
00000060: 5c8c 323b cfcc d5ba 90e5 8dbc 31bf 063c
00000070: b5be a7bc cb20 afbb fd1f 2f3c d932 f2bb
00000080: e7d7 82bc 78dd d53b a51a 123c 5391 353c
00000090: b0dc 603c 046e 6839 be6c e5ba fe6b b83b
000000a0: 95d1 433b 0ba2 593c 5adf a5bb 050b d13b
000000b0: 2bbf 983b 847e 003d 120f f13c 1b8d 85bc
000000c0: 824c dbbb 3f98 1c3b 4319 aa3c 2bca 8f3c
000000d0: 32d7 ae3c 18db df3b f715 c8ba 2f8d ab3a
000000e0: a1ec ccbb c8b1 a4bc fd6a 3fbc ba78 3c3b
000000f0: e2cb be3b a90d c9bb c0fc 91bb 098c 943b
00000100: b1b6 b73a 0276 e23c f8a2 ecbb dbfb 66bc
00000110: fd93 b63c e8e7 633b 29bf 5bbb 380c a83c
00000120: bde6 babb bf57 ccbb aef0 afbc ab1e d83a
00000130: 7165 0bbc f070 e93b 49f6 033c c206 9dbc
00000140: e520 7abb 22a6 61bc 43dc a63b d173 103c
00000150: 205c 073c 823f 493c b8c7 353b 1edf a13a
00000160: 1c7a 4cbb 41c3 d7bb 2e8f b23b 8ab6 7dbc
00000170: db21 aabb 7173 803c f14d d0bb 63d3 003b
00000180: 6c78 5f3a 6f37 c1bc 6b81 7f3c 77ce b3bc
00000190: 53ed bfbb ee90 923b 6c83 763b 10c8 6e3c
000001a0: 23d1 90bb f5b3 8f3c b30a a7bb 3a2c 0b3c
000001b0: b460 06bc 21ed a03b 1c1e 46bc 1b13 30bc
000001c0: eea3 453c 3a33 8cbc 9816 ed3c b378 28bc
000001d0: 33de 853b e2c6 15bc 09a5 923c 383f 3cbc
000001e0: 2645 3c3b c406 193c cbc8 24bb fd67 24bc
000001f0: aacd 833c 3148 eabb 08cc 0b3d 272a 063c
00000200: ecc8 03bc cf51 2f3a 85bf 803c 61bd d63b
00000210: b964 02bb 175e 00bc 7dbf ebbb 955f a6bb
00000220: 5930 96bb 2f78 143c 1d23 9dbb 96de 173c
00000230: c1cf 12bb 784d f13c 86c6 1cbc b810 1abc
00000240: 10a4 103b 7b80 85ba 8599 54bb 1f47 9b3b
00000250: 0499 0fbd f775 82bc 6f62 6fbc 97e0 a5ba
00000260: ac3e 0aba 6571 c43c b141 daba 4825 2a3c
00000270: b91c d7bb 6c32 d739 f717 5abc 7291 6abc
00000280: 6eac 49ba 5d8c af3b 0046 1ebc f9b9 31bc
00000290: 2de1 b0bc 5026 6dbc 9eb2 f1bb f2a1 263d
000002a0: 0084 9e3a 1031 ac3b a074 a93b f4ce cc3c
000002b0: 11d5 2fbc ff49 59bb 89aa c7bc b09f 313c
000002c0: 9084 01bc 820b 34bc 4cb7 19bc 68e7 9c3c
000002d0: 3818 c0bc bcf0 fd3c d504 e33b 4b8c 4b3c
000002e0: 0aad fbbb 756d a53c 77b5 87bc e551 08bd
000002f0: acdd c33a a972 d83c 3967 343c 54a5 e83b
00000300: f0ba 9bbb 3cfa efb8 fcb4 59bc ce9f 8fba
00000310: 39bb b2ba 07f2 dabb 1d85 0b3c 2e01 913c
00000320: 7b8a ac3b 4962 7e3c bbf9 4a3c ea71 cfbc
00000330: da74 0b3b 86d8 0b3c 28a5 f0bb 0a00 77bc
00000340: 8b0e 84bc 4f15 a1bc 54c8 813b 8054 a1ba
00000350: 7816 59bc 7fba 63bc 6786 f03b 26d3 32bc
00000360: 1947 543c 7828 433b 329a d6bc 75fb d5bb
00000370: 6662 a8bc a780 893c 4211 6d3b 7951 81bb
00000380: df6f d5ba aa84 aebb 6ee9 4ebb 54f0 933a
00000390: 3f3e 60bc 6a09 ef3b a609 33bc 2238 003c
000003a0: 7d5a 55bb e0e0 40bc 8efd cbbb 2f8f b439
000003b0: c138 993a 96c2 1d3c 18ea eabb 306b 37bc
000003c0: 5d04 62bc bb19 7339 591d 0e3b f8de 1d3c
000003d0: 6775 093a e4f6 863c 0762 2dbb 2d47 69bc
000003e0: a253 1b3c 0d46 f7bb 5d52 d1b9 89d3 fcbb
000003f0: 75b8 a6bc ea93 4839 3d6f 20bc e630 973c
-0.01848619 -0.038282 -0.006659272 0.0073411837 -0.034104437 -0.010459936 -0.012733147 -0.017481878
0.0094088875 0.0078035654 -0.0077397567 0.004329229 0.010265842 0.017230544 -0.016284628 -0.0050741145
0.008999082 0.009762179 -0.005184722 0.014127041 0.037499856 -0.008657603 -0.014000158 -0.005654869
0.0027244305 -0.0016311648 -0.017321378 0.0082242945 -0.020476678 -0.0053444854 0.010688779 -0.0073913154
-0.01597209 0.0065266453 0.008917485 0.011082011 0.013724491 0.00022166228 -0.0017503721 0.005628108
0.002987956 0.013283263 -0.005062026 0.0063794875 0.004661461 0.031370655 0.029426131 -0.016302636
-0.00669247 0.0023894457 0.020763999 0.017552456 0.021342847 0.006831538 -0.0015265335 0.0013088341
-0.0062537943 -0.020104304 -0.011683223 0.0028758482 0.0058226446 -0.0061356616 -0.004455179 0.004533295
0.0014016238 0.027644161 -0.007221576 -0.014098133 0.022287363 0.0034775678 -0.0033530688 0.020513639
-0.0057037757 -0.006236046 -0.02147707 0.0016488632 -0.008508072 0.007124059 0.008054324 -0.019168261
-0.003816658 -0.013772519 0.005092175 0.008816675 0.00826171 0.012283208 0.002773745 0.0012349819
-0.0031200713 -0.0065845554 0.0054491973 -0.015485415 -0.005192024 0.015680047 -0.0063569476 0.0019657246
0.0008524719 -0.023586003 0.0155948205 -0.021949036 -0.0058571487 0.0044728434 0.0037614955 0.014574066
-0.0044194623 0.017541865 -0.005097711 0.008494431 -0.008201767 0.0049110805 -0.01209214 -0.010746743
0.01206301 -0.01711427 0.028941438 -0.010282683 0.004085326 -0.009141656 0.01790096 -0.011489682
0.002872774 0.009339992 -0.0025144096 -0.010034558 0.01608928 -0.007149719 0.034130126 0.008188761
-0.008043509 0.00066879106 0.015716324 0.0065533374 -0.001989646 -0.007834933 -0.007194458 -0.0050773122
-0.0045834 0.009061857 -0.0047954456 0.009269377 -0.0022401663 0.029455885 -0.009568816 -0.0094034
0.0022070445 -0.0010185385 -0.0032440138 0.004738703 -0.035058036 -0.01592539 -0.014610871 -0.0012655434
-0.0005273621 0.023979852 -0.0016651658 0.010384865 -0.0065647033 0.00041045563 -0.013311378 -0.014316903
-0.00076932355 0.005357309 -0.009660244 -0.010847562 -0.021591747 -0.014474466 -0.007376029 0.040681787
0.0012093782 0.005254872 0.0051713735 0.025001027 -0.010731951 -0.0033155677 -0.02437331 0.010841295
-0.0079051405 -0.010989072 -0.00938208 0.019153312 -0.023449048 0.03099858 0.0069280663 0.012423585
-0.00768054 0.020193795 -0.016566021 -0.033281226 0.0014943383 0.026421862 0.011010938 0.007099787
-0.0047525093 -0.00011443018 -0.013287779 -0.001095766 -0.0013636119 -0.006681684 0.008515623 0.017700758
0.0052655316 0.015526363 0.012388642 -0.025322873 0.0021279366 0.00853551 -0.007343907 -0.015075693
-0.016120216 -0.019663481 0.0039606486 -0.0012308508 -0.013249986 -0.013899445 0.0073402408 -0.0109145995
0.012956404 0.002977876 -0.026196573 -0.00653022 -0.020554733 0.016784979 0.0036173617 -0.00394648
-0.001628395 -0.0053258734 -0.003157224 0.0011286833 -0.013686716 0.0072948234 -0.010927593 0.007825883
-0.0032555156 -0.011772364 -0.0062252944 0.00034438955 0.0011689888 0.009628912 -0.0071690194 -0.011194989
-0.013794986 0.00023183871 0.0021684973 0.009635679 0.00052436296 0.016475148 -0.0026456134 -0.014238161
0.009480389 -0.0075461925 -0.00039924952 -0.0077156466 -0.020351628 0.00019128589 -0.009792146 0.018455934

action_model._continuous_distribution.log_sigma f4 [1, 2]
00000000: 44b9 92be 9dc5 0ebe
-0.2865697 -0.13942571

action_model._continuous_distribution.mu.weight f4 [2, 64]
00000000: ccec b4bd 0575 8cbd ade0 86be eaff c5bd
00000010: ee6a 623c 9d06 c6bd 02b7 1d3d fe74 1d3a
00000020: 23b4 9abc 3605 f8be 5bf5 3dbb 88e3 dbbd
00000030: 7f43 00be b910 403e 0882 283d 7804 09bc
00000040: 8877 d63c dcea d3bd 3a1e 983d 08f3 52bc
00000050: 152b c13d eab1 123f fc3d f63c 001b 1cbc
00000060: bb65 043e cec1 63bd 5992 52bd 5824 9b3e
00000070: 4d9e b93d 0433 053d ef37 66bd a5ed 1fbe
00000080: cae6 a0bd fd9e abbd 33de 2cbe be9a 7bbc
00000090: 7a5a bdbc 0dd4 88bc ced9 2abe 8776 753d
000000a0: 2f16 15bd 6372 40be db7b 273e 18db 273d
000000b0: 5bb7 a9bd 82ae c8bc 1d22 ecbc 11f0 89bc
000000c0: 63d1 f1bc 452e ab3e ef9f 9e3d d982 093e
000000d0: 9d4a 1f3d 02fc a7bc cb2c da3d e892 6d3e
000000e0: 002b 093e fe8d 023e 5099 a33d ebaf cabc
000000f0: 838d cd3d 322f e1bd bc12 81bd 59ff 033d
00000100: 3699 1cbe 72be 333e 0bf3 3abe 8314 fa3c
00000110: f0e8 343e 7282 03bd 207f 4e3d 5f0d 4abe
00000120: 8dac b93d c47e 46be 13e4 06be 7ca2 9bbd
00000130: 25a3 f33d d4b1 303e bcf7 37be 072f a13d
00000140: 5302 65bc a708 93bd 2628 12bd ec79 413e
00000150: e421 4abd e83f 213e 03c9 46bd 3c5c b4bd
00000160: 3e9a 903d b7d1 0b3e 3baa f43d b5b9 773e
00000170: d6c2 e73d 627d b2bd 5cfa a53d beb9 51be
00000180: f687 18be 35d0 48be 0709 96bd 95a1 c1bd
00000190: 7280 c13b 9edf ba3d 9f50 09be 9c1d 33be
000001a0: 2bd6 0abe 144c c83c 33ae 59bd ebee c7bc
000001b0: 3ed4 a1bd 6616 0a3e 4d9f 1fbe 3a24 323d
000001c0: ae43 d83d 8e07 693e dac1 ba3d f228 aebd
000001d0: 7bcc 37bd ede2 cfbd 2b10 0ebd 7a58 ef3c
000001e0: e419 473e 5ec3 af3c 693e 2bbd f4c7 3f3d
000001f0: 2de5 e53b 3d0a 903d a882 ccbd 3192 993d
-0.08834228 -0.06858257 -0.2634329 -0.09667952 0.013819439 -0.0966923 0.038504608 0.0006006508
-0.018884724 -0.48441476 -0.0028985355 -0.107367575 -0.12525748 0.18756379 0.041139632 -0.008362882
0.026180044 -0.1034753 0.0742764 -0.012875326 0.09432045 0.57302725 0.030058853 -0.009527922
0.12929432 -0.05560475 -0.0514091 0.30301166 0.090633966 0.032519355 -0.056205686 -0.15617998
-0.078565195 -0.08379934 -0.16881637 -0.015356718 -0.023114432 -0.016702676 -0.16684648 0.05992749
-0.03639811 -0.18793635 0.16355841 0.04098043 -0.082869254 -0.024497274 -0.02882486 -0.016838105
-0.029518789 0.33433738 0.07745349 0.1342882 0.038889516 -0.020505909 0.10653075 0.23200572
0.1339531 0.12749478 0.079882264 -0.024742087 0.10036757 -0.1099533 -0.063024014 0.03222594
-0.1529282 0.17553118 -0.18256776 0.030527359 0.17666984 -0.032106824 0.050414205 -0.19731663
0.090661146 -0.19384295 -0.13172941 -0.07599351 0.11896352 0.17255336 -0.17965597 0.07870298
-0.013977605 -0.07179385 -0.03568282 0.18894166 -0.049348727 0.15747035 -0.048531543 -0.08806655
0.07060669 0.13654219 0.119465314 0.24191935 0.11316459 -0.08715321 0.08104393 -0.20481011
-0.14895615 -0.19610675 -0.073259406 -0.094546475 0.0059052045 0.09124683 -0.13409661 -0.17491764
-0.13558261 0.02445034 -0.053144645 -0.024405917 -0.0790181 0.13485107 -0.15588112 0.04349158
0.10559784 0.22756788 0.091190055 -0.085039034 -0.044872742 -0.101507045 -0.034683388 0.029216994
0.1944347 0.021455463 -0.041807566 0.04682155 0.0070158453 0.07033203 -0.09985858 0.07498587

action_model._continuous_distribution.mu.bias f4 [2]
00000000: 5c6a bebc e778 d7bd
-0.023244075 -0.10521107

onnx::LSTM_102 f4 [1, 256, 256]
00000000: 68a5 ab3d aacc 0cbe f27c be3d 55c9 943d
00000010: e833 08be 5794 0dbe a626 48bd e3c9 d63d
00000020: aba2 973d 610f 133e e47c 2d3d ee3f dabd
00000030: dc51 76bd 036f ca3c 6f44 e8bd f29c f13b
00000040: 8e5b 17bd a7a1 ac3d ea1f e6bd d6a1 90bd
00000050: b19f bb3d 04cf f7bd 362f 9dbd 84b8 c6bb
00000060: ae47 0b3d a04b 3cbc 6673 25be ee10 85bd
00000070: 7301 033d d053 813c dd9f 1a3a 259e 203c
00000080: 9ae2 02be 87de 433d 7260 bc3d b27f 9ebd
00000090: 5073 013e 6fd1 fe3d e919 f6bc 341d 0fbe
000000a0: 8d02 d73d b7ec ef3d 371c 883d d602 143e
000000b0: d3d5 94bc 92d5 95bd f77e 8dbd 29e7 e4ba
000000c0: a42c 003e 4032 003e beb7 8fbd 1047 e7bb
000000d0: 580a f03d 0da5 d23d 7761 68bd 18ef cfbd
000000e0: 52b3 2abd 34cd 803d 0524 a83d 3933 27bd
000000f0: b002 f9bd a0dc 15be c9ad a5bd 3846 6f3d
00000100: 808c c9bd 4f9b 1d3d 1ef5 da3d 19f2 92bd
00000110: 5bed 2a3c 8109 b23c 7fb0 1bbd b276 903c
00000120: c718 83bd 40c8 9ebd e2aa 723d 59a2 e7bd
00000130: 5764 8c3d 14d5 b3bd 723d 63bd 810f 9e3d
00000140: bf67 cf3b f1d4 1ebe b9d5 003d abf3 41bd
00000150: 8b06 c83b bcd0 993d 3cc6 873c 5f44 53bd
00000160: 4219 e53d c3d1 293d a06d 013e 8ed4 633d
00000170: 4bed 443c 810a 2d3d f1a4 c5bd 3439 863c
00000180: 06b5 7bbd 8fdb 8d3d 4fd3 af3c 312e f9bd
00000190: b121 b03c a2ed 9fbd 45ef c73d 203b f83d
000001a0: 75d2 b23d 4bd6 c9bd ce3c 103e a233 933d
000001b0: 7bfd 4bbd ad03 e0bd 5826 eebd 63c7 16bd
000001c0: 12b4 78bd 3d00 0ebe 55a4 473d 2902 0dbd
000001d0: 8ce0 29bd 19f0 ce3d fb51 0fbd e709 c7bd
000001e0: 5b9f 913d 8b93 c8bd 4295 8c3d 25ad b2bd
000001f0: 8e4a de3d a169 8fbc 31b3 c4bd 243a f9bc
00000200: f31c 99bd ec3b 493d 45e9 bb3d a09b e43d
00000210: 5390 98bd b341 d6bd a6f8 8abc a651 0fbd
00000220: c5ec cebd 4454 81bd 34c8 983d 7df3 903d
00000230: 8b4f e7ba e3c6 073d 49c6 9f3d 864d c3bd
00000240: e690 c13d 4fbf 163d 6eaf 873c b339 833d
00000250: bd05 29be bd8e 78bd 406f 28be 86ea d0bd
00000260: 940f ab3d d21f 18bd 2bf7 c0bd ab6a 90bc
00000270: edc3 bb3d 076f b8ba 6e9c 74bd 3c5e 93bd
00000280: 1b14 78bd 03b6 c6bd 9407 3abd 6428 ae3d
00000290: bf69 22bd 0b04 00be bc3e f53c 87fc eabd
000002a0: 8fcf dd3d d6a4 f63d 4a36 cf3c 712f 46bd
000002b0: a2b0 cb3d be0f dcbc 7148 c5bd fa04 ea3d
000002c0: 331b a03d 207d 7bbc 8548 a3bd 1dd2 d73d
000002d0: 0d1e 2f3b dee6 f43d a33d 86bd bb26 463d
000002e0: 5fe7 96bd 8c33 7c3c 537a 553d 1be8 c73d
000002f0: 0b18 9ebc 944f 273d 60ef 03bd 8d41 b4bb
00000300: 7aa2 a5bd ad65 8dbd 68d4 5cbd b87c 1d3d
00000310: 400b dbbb 0471 efbd bed6 423d 4bb2 0f3e
00000320: dc87 52bd 2daf 8fbd 3a9b 703c b53f c7bd
00000330: 12fe e23d e3a3 673b 9b08 743d 419d 5d3c
00000340: 37d9 e33c 913a 3f3c d95c b3bd 5700 533d
00000350: 5206 93bd 5d6a 6b3c 02ca 91bd 2491 8d3d
00000360: 89d0 003e 1b71 97bd 0e91 f63d 8648 a13d
00000370: 6bef a6bd f983 c33c 83db 923d cdb6 ce3d
00000380: 6a9f 4bbd 397c ac3d c9c0 a73c fab9 68bd
00000390: b6b7 923b b5ca 9abd 7bcf d3ba 1dcb da3c
000003a0: 7188 2e3d e90d ef3d 15e2 f5bd 1542 053e
000003b0: 1a85 c5bc 6d7f 95bc 9f49 0cbe ac2c 193c
000003c0: 563e d5bd 1014 ae3d 15c5 9dbb 4a89 f2bd
000003d0: 515a 303e 4544 8bbd 5715 793d 3c16 6b3d
000003e0: ac2d 5b3d 8612 f0bc 7d64 cbbb f63e d8bd
000003f0: b91b 0cbe b37b ed3d fb56 cf3d 753d 1c3e
0.08381158 -0.13749948 0.09301175 0.072649635 -0.1330105 -0.13826118 -0.048864983 0.104877256
0.07404073 0.14361335 0.042355433 -0.10656725 -0.06013666 0.024711138 -0.11341178 0.0073734457
-0.036952548 0.0842927 -0.11236556 -0.07062118 0.09161318 -0.12100032 -0.076750204 -0.0060644764
0.034003906 -0.01149264 -0.16157302 -0.0649737 0.031983804 0.015787035 0.0005898455 0.00980333
-0.12781754 0.04781964 0.09198083 -0.077392 0.12641644 0.1244229 -0.030041652 -0.13975984
0.104985334 0.11715072 0.066460066 0.14454207 -0.018168366 -0.07316126 -0.06908982 -0.0017463911
0.12517029 0.12519169 -0.07017468 -0.007058032 0.11720723 0.10285387 -0.056733575 -0.101530254
-0.04167492 0.062891394 0.08209995 -0.040820334 -0.12158716 -0.14634943 -0.080897875 0.058416575
-0.098412514 0.038478192 0.10691284 -0.07175083 0.0104325665 0.021733047 -0.038010117 0.017634723
-0.0640121 -0.077530384 0.059244998 -0.11310262 0.06855076 -0.08780876 -0.05547852 0.07717801
0.006329506 -0.15510918 0.03145382 -0.04735152 0.0061042956 0.07510516 0.016574018 -0.051578876
0.11186458 0.04145981 0.12639475 0.05562263 0.012019466 0.042246345 -0.09650601 0.016384698
-0.061451934 0.06926643 0.021463064 -0.121670134 0.02150044 -0.07808997 0.09762434 0.12120652
0.08731548 -0.09855326 0.14085695 0.071875826 -0.049802285 -0.10938201 -0.11628407 -0.036811244
-0.060718603 -0.13867278 0.048740704 -0.03442589 -0.04147391 0.10104389 -0.034990292 -0.097186856
0.07110473 -0.097937666 0.06864406 -0.08724431 0.10854064 -0.017506422 -0.096044905 -0.030423231
-0.07476225 0.04912941 0.09175352 0.111624956 -0.07449403 -0.1046175 -0.016964268 -0.034989975
-0.10103754 -0.063149005 0.07460061 0.07077692 -0.0017647607 0.033148658 0.07801492 -0.09536271
0.09451465 0.03680354 0.016563144 0.0640749 -0.16506095 -0.060683 -0.16448689 -0.10200982
0.08352581 -0.03713972 -0.094221435 -0.017628988 0.09168229 -0.0014071175 -0.059719495 -0.07195708
-0.06056605 -0.09702685 -0.045417383 0.08503798 -0.03965163 -0.12501542 0.02993714 -0.11473947
0.10830604 0.12043159 0.025294442 -0.048385087 0.099457994 -0.026862975 -0.09632958 0.114267305
0.07817688 -0.015349656 -0.079728164 0.10538123 0.0026720793 0.11958097 -0.06554725 0.04837678
-0.07368349 0.015393149 0.05211861 0.097610675 -0.019298574 0.040847376 -0.032210708 -0.0055009783
-0.080876306 -0.06904159 -0.053913504 0.03844902 -0.0066846907 -0.11691478 0.047568075 0.14032857
-0.051399097 -0.07015834 0.014685446 -0.09728948 0.11083616 0.0035345487 0.05957852 0.013526262
0.027813537 0.011671678 -0.08757944 0.051513996 -0.0717894 0.014368621 -0.07118608 0.06912449
0.1257955 -0.0739462 0.12039386 0.07875161 -0.08151134 0.02386664 0.07170775 0.1009346
-0.049712576 0.08422131 0.02047767 -0.056817986 0.0044774665 -0.075581945 -0.0016159856 0.02670818
0.04261059 0.11672575 -0.12006012 0.1301349 -0.02411132 -0.018249238 -0.13699959 0.0093490295
-0.1041228 0.0849992 -0.004814754 -0.11842592 0.17221953 -0.06800131 0.060811367 0.05739425
0.053510353 -0.029305708 -0.0062070475 -0.10558884 -0.1368245 0.115958594 0.10124012 0.15257819
