results/FullyAbstract/bachelor.onnx (onnx, 76519 bytes, 9 tensors)

network_body._body_endoder.seq_layers.0.weight f4 [64, 7]
000000 3e f8 16 3f ea 29 58 be 40 4b 11 bf 88 c4 9c bc
       0.5897254 -0.21109739 -0.5675545 -0.019136682
000010 bb ba 41 3e 35 38 f4 bc 16 08 a1 3e 5e 58 3a bf
       0.18918888 -0.029811958 0.31451482 -0.7279109
000020 5a 70 20 3f 29 43 dd bd 31 19 c2 be 92 a8 b1 bd
       0.62671435 -0.108038254 -0.37909845 -0.0867473
000030 6b 6b 99 be 86 fa 89 bb 24 04 df 3e b2 f0 57 be
       -0.29964766 -0.004210773 0.43557847 -0.21087912
000040 d0 6e 0e be 2f a7 41 3d dd 33 64 bf 3d 6a cf 3e
       -0.13909459 0.04727858 -0.8914164 0.4051074
000050 02 52 4b bd e8 48 4e 3e d1 0c 1e 3f f8 bb ae be
       -0.049638756 0.20144999 0.61738306 -0.34127784
000060 17 06 26 bf ab 77 ee bd d0 5d 03 3e 4f 8b 16 be
       -0.6485304 -0.116439186 0.12828755 -0.1470158
000070 57 d2 a4 be 86 84 16 3f c3 fb f4 be a7 8a 3b bf
       -0.32191727 0.58795965 -0.4784833 -0.7325844
000080 22 c3 82 bd 31 31 0b be 47 47 1c be d4 b7 84 3e
       -0.06384875 -0.13592984 -0.15261565 0.259215
000090 61 07 ab 3e 85 67 ab 3e 08 6c fe bd 38 5a 5f 3d
       0.33404067 0.33477417 -0.12422949 0.0545294
0000a0 04 12 0e 3e 3d 25 3c 3e 3b e6 0b bf 18 b0 75 3d
       0.1387406 0.1837358 -0.5464818 0.05998239
0000b0 fc 08 aa 3d 87 c6 bf be b2 6d 2b bf 40 b3 2c 3f
       0.08302495 -0.37456152 -0.66964257 0.67461014
0000c0 9c c4 05 3f bf f5 11 be 75 5f 3e bf 9c 87 28 be
       0.5225313 -0.14253901 -0.74364406 -0.16457981
0000d0 f6 67 17 3e ec 74 35 3d bc 00 1e bd 4d c9 92 be
       0.14785752 0.04430096 -0.03857492 -0.28669205
0000e0 fb 92 1d be 9c b5 2e bf b0 18 5c be 30 4d 23 bf
       -0.153881 -0.68245864 -0.21493793 -0.63789654
0000f0 98 cc a5 3e ec 63 26 be 73 cf 12 bf 17 60 d6 3e
       0.32382655 -0.16249055 -0.5734779 0.41870186
000100 81 d3 2f 3e 03 2c dd bd 8e 29 88 be 51 31 e0 3e
       0.17170526 -0.1079941 -0.26594204 0.43787625
000110 1e 0f cc bd 93 15 07 3f 12 46 96 3e 6f 55 91 bd
       -0.09963821 0.52767295 0.29350334 -0.07096373
000120 ab 72 b6 3e 4c 74 1b bf 0f 6d bd 3d 86 c4 07 be
       0.3563436 -0.6072433 0.09249317 -0.13258561
000130 5a 80 b6 be 10 1c 21 3e b5 ac ae be b6 86 0b 3d
       -0.356448 0.15733361 -0.3411614 0.034064017
000140 56 da 7c 3d af c7 19 3e f8 41 ce 3c 09 6a 3f bf
       0.06173166 0.1501758 0.02517794 -0.7477117
000150 01 0e 9b be 0e dd a1 3e 7e 02 17 3f d9 67 65 3e
       -0.30284122 0.31613964 0.5898818 0.22402896
000160 b2 11 48 be 6d e0 29 be 61 6f 0e 3f fb 17 8f be
       -0.19538 -0.16589518 0.556387 -0.27947983
000170 68 ae 1a 3f 14 82 06 3f 5f 9e bc bb 04 96 36 3e
       0.6042237 0.52542233 -0.005756184 0.17830664
000180 30 56 85 be 77 67 bc 3e 8f 2b 81 bf 84 f9 81 3e
       -0.26042318 0.36797687 -1.0091418 0.25385678
000190 b4 1b 06 3d 66 f4 4f be 9d 2b b3 3e 6c 10 7f 3e
       0.032741264 -0.20308074 0.34994212 0.24908608
0001a0 8e 8d 61 3d 76 48 9f 3e 98 6e d4 3d 26 c1 28 3e
       0.055066638 0.3110997 0.103726566 0.1647993
0001b0 24 41 b5 be 52 79 25 bf 3f 51 91 3e b7 19 f9 3e
       -0.3540126 -0.64638245 0.28382298 0.4865243
0001c0 d7 5b 9c be e7 97 a1 be db 65 4d 3f 5a 5d 93 be
       -0.30538818 -0.31561205 0.80233544 -0.2878216
0001d0 29 05 f8 bd e8 92 12 3e 65 31 4e be 42 8c 31 3e
       -0.12110359 0.14313853 -0.2013603 0.1733866
0001e0 8d cc 8a 3e c6 cf 8b 3f 33 7b 1c 3e b0 ef 9a be
       0.27109185 1.0922782 0.15281372 -0.30260992
0001f0 81 15 27 3e 2b db 81 be bc 2b 5b 3c d4 47 75 3e
       0.16316797 -0.25362524 0.013377126 0.23953182
000200 44 18 2b be a4 19 cd be 7d 8f a3 bd 6e 08 de 3e
       -0.16708475 -0.40058625 -0.079863526 0.43365806
000210 50 e3 ec 3e f7 1c 6a bf 83 fd 4e bf 24 99 b3 be
       0.46267176 -0.91450447 -0.8085558 -0.35077775
000220 41 23 b4 3e bc 6d 91 3f 77 4d 43 be a7 9e 30 be
       0.35183147 1.1361613 -0.19072519 -0.17248021
000230 53 af a4 3f 6b 57 9f 3f 68 5d 6c bd 06 21 e0 3e
       1.2866005 1.2448553 -0.057706267 0.43775195
000240 b4 bd 88 be e4 c1 e6 bd ad ac 19 3e ce 70 82 3e
       -0.26707232 -0.112674505 0.15007277 0.25476688
000250 34 d5 b8 be 54 d0 34 3c 4b 9c 6f 3e e5 d6 db 3d
       -0.3610016 0.011035997 0.23399465 0.10734347
000260 8b 45 5f bd 4a 49 14 bf a3 d0 f9 be 33 03 50 3e
       -0.05450968 -0.5792433 -0.4879199 0.2031372
000270 86 d3 25 3e d2 53 a6 be 6d da 0c 3f 4c 71 09 bd
       0.16193971 -0.32485825 0.5502079 -0.033555314
000280 29 b9 09 3f 18 15 ac 3e b5 0e 33 3f fa 2f a6 be
       0.53798157 0.33609843 0.69944316 -0.32458478
000290 71 36 33 bf 38 c2 ac bc 4d e5 c5 3c 11 a2 19 bf
       -0.70004946 -0.021088704 0.02415719 -0.6001292
0002a0 e3 c2 52 3f 2b 74 a6 3c f9 79 fe be 91 0a 6c 3e
       0.82328624 0.020319065 -0.49702433 0.23050906
0002b0 c6 43 dd be aa 6c cc be 40 94 8a 3e c1 58 69 3f
       -0.4321577 -0.39926654 0.2706623 0.9115105
0002c0 e0 ef c0 bd 82 a9 8d 3d cb 82 b5 3e 01 0a 8b be
       -0.094207525 0.06917097 0.3545135 -0.2715607
0002d0 57 7b 07 3f 00 47 dc be 29 37 20 be a4 8c 2e 3e
       0.52922577 -0.4302292 -0.15646042 0.17045838
0002e0 dd d2 30 be f2 e3 52 bf ec 6b ef be c9 7f f8 3d
       -0.17267938 -0.82379067 -0.46762025 0.12133748
0002f0 de 22 05 bf 97 14 07 3e c4 2b 46 3e 01 3c d3 3d
       -0.5200633 0.13191448 0.19352633 0.10314179
000300 ea 9f 59 be 2b 8e eb be 12 dc a8 3e 3a 65 e8 bd
       -0.21252409 -0.46006903 0.329804 -0.113474324
000310 e3 aa 66 be 8c 0f b8 3e 63 ab 13 3f d8 51 c8 bc
       -0.22526126 0.3594936 0.5768339 -0.024453089
000320 25 de d9 be 39 b5 a3 bd 5e 99 51 bd db 62 03 3e
       -0.42552295 -0.0799355 -0.051171653 0.12830679
000330 3a 01 98 be ab d4 46 bf ee 15 bf 3e ea 62 39 bf
       -0.29688436 -0.77668256 0.3732142 -0.72416556
000340 6f cb e1 3d 15 9f 8e be 26 c5 7e bd a5 ec e8 be
       0.1102513 -0.27855745 -0.062199734 -0.45493045
000350 64 5f 90 bf d1 b7 84 3e 00 ce 70 3e c3 6d 59 be
       -1.1279111 0.2592149 0.23516083 -0.21233277
000360 c4 46 8d 3e 2f fd a6 3d 82 2c c1 bd 47 95 ef 3c
       0.27593052 0.0815376 -0.09432317 0.029245986
000370 14 8e ab 3c 40 87 1f 3e dd 44 c2 3e 61 14 9a be
       0.020941772 0.15578938 0.37943164 -0.30093673
000380 a6 36 59 3f b5 32 e4 3e 80 25 c2 be e4 8d bf bd
       0.8484901 0.44569936 -0.37919235 -0.09353235
000390 f4 48 b6 3e 69 b3 42 3e 6f ea 79 3c af 2b 72 3f
       0.35602534 0.19013752 0.015253647 0.94597906
0003a0 38 71 ba 3e 00 4b f3 be a4 65 57 bf af 72 f2 bd
       0.36414504 -0.47518158 -0.84139466 -0.118382804
0003b0 e1 2f 3c 3e 35 1d 7c 3e be 84 95 3f d4 5f 01 3f
       0.1837764 0.24620517 1.1681135 0.5053685
0003c0 17 81 3c bf b3 79 f9 b9 5b 0c e3 bd 45 5f 4f 3d
       -0.73634475 -0.00047583654 -0.11086341 0.050627965
0003d0 ae 06 8c 3e b8 91 75 bf 9e 9c 4f 3e cc 6c 53 3e
       0.27348846 -0.95925474 0.20274588 0.20646971
0003e0 8d fb b0 bc fe 2d 1d bf e7 ad 1e 3e 5b a7 bc be
       -0.021604324 -0.61398304 0.15496026 -0.36846432
0003f0 f8 6f fd 3d c3 59 42 3f 3d 42 12 3d 65 a2 47 be
       0.12374872 0.75918216 0.0357077 -0.19495542

network_body._body_endoder.seq_layers.0.bias f4 [64]
000000 4b 6d 72 3d 1f d0 20 be 67 ae ca bd 8f 60 9b 3e
       0.05918626 -0.15704392 -0.09896546 0.30347106
000010 11 91 a5 bd 46 cc f5 bd 12 4e ca 3d bd 4b 14 3d
       -0.0808431 -0.12001853 0.09878172 0.036205042
000020 77 b4 fb bd 49 15 1f 3e 11 ea 54 be d8 6a 8b be
       -0.1229028 0.15535463 -0.20792414 -0.27229953
000030 fd d4 63 be 0f d8 9f 3c df ea 96 be da d9 0e bd
       -0.22249217 0.019512204 -0.29476067 -0.03487573
000040 fa 2f 2a bd 9e 91 34 be 36 ef 46 be d1 da 47 3e
       -0.04154966 -0.17633674 -0.19427189 0.19517066
000050 ad 29 8d 3e 65 6d 33 3e aa d4 24 3c d9 5d 3c 3f
       0.2757086 0.175222 0.010060469 0.735807
000060 25 5b 5e 3e d8 19 6e bd f8 db 99 be a7 5b fe bd
       0.21714456 -0.058130115 -0.30050635 -0.12419825
000070 78 ec a8 3d c9 b5 84 3e c8 81 39 3e b1 81 7c be
       0.08248228 0.2591994 0.18115914 -0.24658848
000080 dd ed 0b 3d 12 8a ce bd 66 db 47 3e 40 a2 1d be
       0.03416239 -0.100849286 0.19517288 -0.15393925
000090 99 9f cb 3d ac c5 59 be 50 bc c8 bd 2c 94 ec bc
       0.0994255 -0.21266812 -0.09801543 -0.028879248
0000a0 c8 e2 30 be b9 a9 ee 3d e3 00 91 be f9 8e 9a 3e
       -0.1727401 0.11653466 -0.2832099 0.30187204
0000b0 8b 34 51 be 6f a1 68 3e c1 a9 6c be 5d 33 ed bd
       -0.204302 0.22717832 -0.23111631 -0.115820624
0000c0 85 1f 9f 3e a8 ea 56 3d 9f 71 22 be 18 da 0b 3f
       0.31078735 0.05246988 -0.15863656 0.5462966
0000d0 0f da 94 bd 99 a1 fe 3d 84 da 83 3e ee d6 6c be
       -0.07268154 0.12433166 0.25752652 -0.23128864
0000e0 94 f2 18 be d3 a0 d4 3c bd 25 c0 3e 67 c7 8e be
       -0.14936286 0.025955593 0.37528792 -0.27886507
0000f0 82 67 2b be 21 05 0d be d3 28 9b bd 3b b6 40 3e
       -0.16738704 -0.13771488 -0.07576146 0.18819515

network_body._body_endoder.seq_layers.2.weight f4 [64, 64]
000000 71 ce 36 3e c4 a3 27 3e 75 7f 8c bd d9 85 77 3e
       0.17852189 0.16371065 -0.06860248 0.24172153
000010 34 f8 10 3e 8a 1d dc 39 9e cf 04 be 36 36 00 be
       0.14157182 0.00041983678 -0.12969825 -0.1252068
000020 09 61 92 3d 3b 31 81 be 1f 6e ce bd 51 47 b1 3e
       0.07147414 -0.25232872 -0.10079598 0.34624723
000030 f6 08 bb 3d 15 b8 8d bc 34 23 f5 3c 0b 5f 9c bd
       0.091325685 -0.017299691 0.029924013 -0.076353155
000040 9f 3f b2 3d b6 30 95 be f5 da 25 3e 8c fd 1b 3e
       0.08703541 -0.29138726 0.16196807 0.15233439
000050 d1 04 70 be be 88 15 3e 74 89 c5 3d 73 a0 01 be
       -0.23439337 0.14602944 0.09645358 -0.12658863
000060 cc 52 a8 be 4e 50 16 bc 14 84 07 3e 91 59 ad 3d
       -0.3287567 -0.00917442 0.13233978 0.08464349
000070 39 85 82 3c b9 b4 b6 be bc f6 fc bd 57 29 9f 3d
       0.015932666 -0.35684755 -0.12351748 0.07771557
000080 aa fa c4 bd d5 ea c9 bd 47 75 5e 3d 3e e7 e5 3d
       -0.09618123 -0.09859244 0.054311063 0.112257466
000090 29 bf a6 bd f0 15 7a 3b 0a d6 c7 3d 3b 07 65 3d
       -0.0814193 0.0038160048 0.097576216 0.0559151
0000a0 06 56 d9 bc 68 84 96 3d 8e c5 99 3d b1 8f 3e be
       -0.026530277 0.07349473 0.07508384 -0.18609501
0000b0 ef fb 5c 3e b8 2d d3 be e3 0e d0 bd 04 2f 0a 3d
       0.2158048 -0.41245818 -0.101590894 0.033736244
0000c0 fb 3f 2b bd 13 7f 91 3e bd 33 af bd 66 74 78 be
       -0.041809063 0.28417262 -0.0855479 -0.24263152
0000d0 95 68 bc 3d 3d 30 d1 3a f7 04 f7 bd 03 78 89 3e
       0.09199635 0.0015959811 -0.12061494 0.26849374
0000e0 00 39 bf 3d 29 e6 cc bd be 7e 8e be 8a b0 47 3e
       0.09337044 -0.10004837 -0.27831072 0.19500938
0000f0 27 34 a3 3d 4e fd b9 bd f8 76 15 bb 0e 25 c5 3d
       0.07968932 -0.09081517 -0.0022806507 0.09626208
000100 3c ef f5 bc 93 32 a1 bc 66 4c 11 bd d2 4f 95 bd
       -0.030021302 -0.019677436 -0.03547325 -0.07290615
000110 57 e9 30 3d 81 f6 b8 bc 6c 1e 1f bd d7 3a fa be
       0.04319128 -0.02257848 -0.038847372 -0.48873016
000120 61 32 f4 3b b3 0a ed bd 3f b9 e1 bd ae b8 c0 bd
       0.0074522947 -0.11574306 -0.11021661 -0.09410225
000130 da 64 4a 3d 11 81 11 3e ef fc 0f be fc 30 3a 3d
       0.049412586 0.14209391 -0.1406133 0.04545687
000140 14 4b 39 be f3 80 36 bd 25 22 81 bb ce 90 e3 3d
       -0.18095046 -0.04455657 -0.003940838 0.11111604
000150 50 17 c6 bc 6f 71 84 be 4c 78 3d 3e f0 20 2e 3e
       -0.024181038 -0.25867793 0.18502921 0.17004752
000160 37 c3 f5 bd 25 53 2a be 37 0f 96 3e a9 e8 17 be
       -0.12000125 -0.1663328 0.29308483 -0.14834847
000170 53 1c 37 be 56 1e 90 be 93 92 58 be 97 9e c2 bc
       -0.17881899 -0.28148144 -0.21149664 -0.023757262
000180 ca 0e 89 3c c6 36 cf 3d 09 c7 29 be 9c 8e d8 be
       0.016730685 0.10117869 -0.16579832 -0.42296302
000190 f7 c4 02 be 7e a6 a5 bd b9 83 0e bd eb 26 b3 be
       -0.12770449 -0.080883965 -0.03479359 -0.3499063
0001a0 44 39 d7 3d 2c d3 a8 bc 44 0b da be 89 5d b0 bd
       0.105089694 -0.020608507 -0.4258672 -0.086115904
0001b0 01 3f 25 3e ab 59 e8 3a 96 ca 53 3d 9f 75 e3 be
       0.16137315 0.0017726918 0.051706873 -0.44425675
0001c0 db 66 8e bc 9a 7e 21 be 19 9e 21 be e8 e2 8b be
       -0.01738303 -0.15770951 -0.15782966 -0.27321553
0001d0 75 31 7f 3c 56 9c 05 be a4 90 ab 3d d3 32 43 3d
       0.015575756 -0.13047919 0.083771974 0.04765589
0001e0 24 e4 73 3e b8 09 22 bd 1a 9a 80 be 24 c2 79 be
       0.23817497 -0.03956005 -0.2511757 -0.24390465
0001f0 fa 3f 90 3e d2 7f 39 bd 1a 54 40 3d bf 2a 81 bd
       0.2817381 -0.045287915 0.046955206 -0.06306981
000200 cb bf 9d be 41 f6 30 3d 12 63 39 3e 4b 1b 9b be
       -0.3081039 0.043203596 0.18104199 -0.3029426
000210 ed 70 5f be ff ce 6f be 3f e1 c7 be 6c 00 da 3d
       -0.21820422 -0.23418806 -0.39039037 0.10644612
000220 3d 62 70 be 0c 14 73 be 16 18 76 3e c8 16 43 3e
       -0.23474975 -0.23738116 0.24032626 0.19051659
000230 93 d9 70 3e c9 06 2b be f2 cb 1a 3e 90 fa da 3c
       0.23520498 -0.16701807 0.15116861 0.026730806
000240 87 cf 10 3e 5a 31 50 3e bb d0 67 be a3 08 08 bc
       0.14141665 0.20331326 -0.22638218 -0.00830284
000250 f1 56 81 3d 61 7e 96 3d a2 19 0e be 96 9c 34 bf
       0.06315411 0.073483236 -0.13876966 -0.7055143
000260 8d 01 fa bd da 24 2b 3d 6c c2 9a bd cb 52 f7 bd
       -0.12207327 0.04178319 -0.07556614 -0.120763384
000270 cf b8 b0 bc 97 2f 28 bd c1 ba 2b 3e 70 7d 3e 3e
       -0.021572499 -0.04106101 0.1677046 0.18602538
000280 55 bb 74 be 2e f4 a1 be 97 79 32 be 64 63 81 be
       -0.23899586 -0.31631607 -0.17429195 -0.25271142
000290 03 a2 51 be eb 9e 50 3e 07 5e 17 bd 2e 10 b7 3d
       -0.20471959 0.20373122 -0.036954906 0.08938633
0002a0 48 35 d8 bd 42 a3 03 bd 56 9f 66 3e 04 1e 7d 3e
       -0.105570376 -0.032138117 0.2252172 0.24718481
0002b0 cb d3 d4 3d 62 df 92 3e 47 6c 4f bc cd 2b 03 bc
       0.10391959 0.28686053 -0.012660093 -0.008006048
0002c0 c1 57 16 be 15 87 34 bc f4 89 17 3d f7 e7 bb 3d
       -0.14681913 -0.011018534 0.036996797 0.09175103
0002d0 f0 eb c0 3e 9e 5c 38 3e d1 cf 1e be 82 a9 6f 3e
       0.37680006 0.1800408 -0.15508963 0.23404506
0002e0 4e c2 16 3e 97 19 c5 3c 32 f5 b6 bd 9c ed 9e 3d
       0.14722559 0.024060054 -0.08933486 0.07760164
0002f0 54 6e ca 3e 12 64 69 3e 34 fa 9c bd 26 59 c1 3e
       0.395373 0.2279208 -0.0766491 0.37763327
000300 cb b9 0d be 39 17 32 be fd 3c 06 3e 32 1c 53 bb
       -0.13840406 -0.17391671 0.13109203 -0.003221285
000310 d9 34 51 be ca 20 a7 39 d2 b9 86 be bb 70 d2 be
       -0.20430316 0.00031877152 -0.26313645 -0.41101632
000320 ed ad 46 be c2 bb ca 3d 38 c2 52 be 6c 13 68 ba
       -0.19402285 0.09899093 -0.20581901 -0.0008852992
000330 45 29 1c bc f1 7a f3 bd 87 f5 69 be d7 7f 30 be
       -0.009531324 -0.118886836 -0.22847567 -0.17236267
000340 1a d2 17 be 72 cf 57 3e 59 db e0 3c d6 0a 29 3d
       -0.14826241 0.21075228 0.027448343 0.0412701
000350 80 ca be bd 88 ee 3d be 19 06 eb bd 2e 75 a3 be
       -0.093159676 -0.18548024 -0.114757724 -0.31925339
000360 78 b8 b7 bd 44 31 1e bc 0f fd ad bb d9 cf b9 3c
       -0.089707315 -0.0096553005 -0.005309708 0.022682117
000370 d8 28 7e bc de 7c 9d bd 2a 39 08 3e 3f 4c cc 3d
       -0.015512668 -0.07689832 0.13303056 0.0997548
000380 2c a6 63 be cd f3 2b bd 69 81 55 be 3b c9 77 bd
       -0.22231358 -0.041980553 -0.20850147 -0.060494643
000390 34 92 5b bd 23 62 47 3d 29 df 91 bd ca 8a f0 3d
       -0.053606227 0.048677575 -0.071226425 0.11745222
0003a0 9a 5b 00 3c 2e 6c 04 3d 88 10 2d 3e 55 f1 05 bd
       0.0078343395 0.03232973 0.16900837 -0.032700855
0003b0 a9 f2 e3 3d 58 b5 16 be fd b6 05 be c3 d3 06 bd
       0.11130268 -0.14717615 -0.13058086 -0.032916795
0003c0 8b 76 42 be 8c 63 26 bd fa 71 07 3e 96 ef dc 3d
       -0.18990533 -0.04062228 0.13227072 0.10787885
0003d0 2b 3f be 3d 18 58 78 3d 5d 06 b0 bd d2 0c cf bb
       0.09289392 0.060630888 -0.08594964 -0.006318667
0003e0 e9 90 ae 3c 34 30 6c bd 88 5b 5a 3d 70 d3 63 3d
       0.021309333 -0.057663158 0.053309947 0.055621564
0003f0 32 2d 02 bb 1c 95 2a 3e 31 b3 5d be c4 87 76 3d
       -0.0019863364 0.16658443 -0.21650387 0.06018807

network_body._body_endoder.seq_layers.2.bias f4 [64]
000000 0e 8d a4 be ba 39 3b bd 64 8b 92 bd 8b f5 39 be
       -0.32138866 -0.04570935 -0.07155493 -0.18160073
000010 08 04 e6 3d 73 19 2f be 94 23 06 3d 40 ea e1 bc
       0.11231238 -0.17099552 0.032748774 -0.02757752
000020 19 50 91 bc d4 f4 1b 3e 8e eb 51 be 8f 87 a2 bd
       -0.017738389 0.15230113 -0.20500013 -0.07936012
000030 96 f8 5e 3e 8a 71 a6 3e 8e 7f d1 3d fd 20 d9 3d
       0.21774516 0.32508498 0.10229407 0.10601995
000040 a4 bd e5 bd f9 d5 ad bd d0 d1 88 3e 76 f0 98 be
       -0.11217812 -0.08488078 0.26722574 -0.29870957
000050 26 65 5d bd 6d f4 0d bd 74 4a 69 ba dd 71 b8 3d
       -0.05405154 -0.03465693 -0.0008899339 0.09006093
000060 e5 24 26 3e 81 23 ab bd a8 9d 3e be 65 75 fb bb
       0.16225012 -0.08356381 -0.18614829 -0.0076739066
000070 83 67 2f be 89 36 85 bc 34 e5 35 be ca 15 49 3e
       -0.1712933 -0.016261356 -0.17763215 0.19637218
000080 1e 03 60 3d 23 a4 c8 be fc 98 31 bd 05 b4 41 be
       0.054690473 -0.39187726 -0.043358788 -0.18916328
000090 75 1a 5e 3e ec 0e ce 3e 9e e8 a9 3d 56 1b a7 3d
       0.2168978 0.4024576 0.08296321 0.08159511
0000a0 6a 73 2f 3e 08 e3 b0 3e f1 f0 13 3e 00 0d dd 3d
       0.1713387 0.3454821 0.1444738 0.10793495
0000b0 69 56 a7 bd 72 be 03 3d 26 e1 08 bc 2c 97 a7 bc
       -0.08170778 0.032164045 -0.008354461 -0.020457827
0000c0 37 a9 93 bd 2a 0d 2e bd c1 de 5f 3e 88 92 98 be
       -0.072100095 -0.042493023 0.21862318 -0.29799294
0000d0 6f 20 0c 3d 2c e3 8e 3d b6 b7 88 3d 41 b6 65 bd
       0.03421062 0.06976923 0.06675665 -0.056082014
0000e0 6f ca 08 be dc e2 d2 3e c3 a0 c6 3c f1 62 24 3d
       -0.13358472 0.41188705 0.024246579 0.04013342
0000f0 8e f9 5c 3e 89 94 a0 3e 18 69 4c bd e4 80 01 3e
       0.21579573 0.31363323 -0.049904913 0.12646824

action_model._discrete_distribution.branches.0.weight f4 [4, 32]
000000 32 81 83 3e c5 86 c2 3e 71 74 42 bf 26 46 14 3f
       0.25684506 0.37993446 -0.75958925 0.5791954
000010 47 bc 17 3f fa 53 c9 3d bc 0d 1e bf da 90 56 bf
       0.59271663 0.098304704 -0.61739707 -0.83814776
000020 4e 84 16 3c 21 40 82 be ae 9f 81 40 0e a2 e2 be
       0.009186817 -0.2543955 4.050742 -0.44264263
000030 91 db b8 be 44 59 fd be 28 3e ca 3e eb 5b 9a bf
       -0.36105016 -0.49482167 0.39500546 -1.2059301
000040 36 66 0d c0 2b 5f 52 3e 1c 6e 8a bf 98 0e 24 3e
       -2.2093635 0.20544116 -1.0814853 0.16021192
000050 61 a8 40 3e 47 a6 15 be 23 44 5f be c3 ff d7 bf
       0.18814231 -0.14614211 -0.21803336 -1.6874927
000060 ed cf 60 3f c1 13 87 bf 7a f9 96 3e d9 90 e4 3e
       0.8781727 -1.0552903 0.2948721 0.4464176
000070 46 8f 18 3e 45 5f ba 3e 13 68 27 be 0c 9d 61 be
       0.14898404 0.3640081 -0.16348295 -0.22032565
000080 74 8d bf 3e 23 e4 2a be d6 90 a7 be 8f dc 14 be
       0.37412608 -0.1668859 -0.3272769 -0.14537261
000090 e1 b0 dd 3e 82 d9 89 bd ca 86 83 3f a6 2e 47 be
       0.4329901 -0.067309394 1.0275509 -0.19451389
0000a0 92 ac 47 bf 31 99 0e bf a0 1d de bf 9a 4a 17 bf
       -0.77997696 -0.557025 -1.7352791 -0.5909821
0000b0 49 a9 da bd e0 05 b5 3e 1e d4 1d 3e 7a 84 42 3f
       -0.1067682 0.35356045 0.15412948 0.75983393
0000c0 52 7c 90 3f 9a b1 c5 bc f1 da dc 3e 64 2c 1c be
       1.128794 -0.024132539 0.4313579 -0.15251309
0000d0 4c 73 0e 3f ca 13 60 be 64 41 e0 3e 3e 18 dd 3e
       0.5564468 -0.21882549 0.4379989 0.43182558
0000e0 59 6b cd 3e 76 e2 50 3f c6 d0 16 3d b9 a3 06 3c
       0.40120962 0.8159555 0.036820196 0.008217745
0000f0 e5 53 06 be e2 ef de be 18 ce cb bd 71 02 8d bf
       -0.1311794 -0.4354239 -0.09951419 -1.101637
000100 4d 16 08 c0 84 1d a1 3c d2 c7 e8 3e dd 65 c6 3e
       -2.1263611 0.019667394 0.4546495 0.3874959
000110 e6 cf f0 bf 0c dd 25 be b9 ff 01 bf c3 bd 03 40
       -1.8813446 -0.16197604 -0.50780827 2.0584571
000120 5c ec 4e 3f a3 31 b8 3d 95 d0 15 c0 fd 75 07 be
       0.80829406 0.089938425 -2.3408558 -0.13228603
000130 32 ba 2c 3f a1 41 87 3e 99 f6 95 bf 42 4e 50 bf
       0.6747161 0.26417258 -1.1715881 -0.8136941
000140 c3 51 a5 bf 55 1c 57 bf 0a ce e3 3f 17 cc 57 3f
       -1.2915577 -0.84027606 1.7797253 0.8429579
000150 f5 1b 3d 3f aa 71 24 bf 84 e2 20 bf c2 38 8c 3f
       0.73870784 -0.6423594 -0.62845635 1.0954821
000160 6e 07 31 bf 8f 77 f0 3d 52 63 65 3d d5 93 89 3c
       -0.6915196 0.11741554 0.056002922 0.016794125
000170 b9 81 84 3e 7f f8 04 3e 2e 4e 64 be 44 3f 15 40
       0.2588022 0.12985419 -0.22295448 2.3319864
000180 3e 14 9c bd 10 b6 5d be 5e aa cf 3e f1 53 6e be
       -0.076210484 -0.21651483 0.40559667 -0.23274209
000190 65 d1 e7 be f0 7e 52 3d 46 10 b9 be de 10 cd 3e
       -0.45276943 0.05139059 -0.36145228 0.4005193
0001a0 52 ee c7 3e a0 90 3e 3f 52 5a 84 bf 23 62 55 3e
       0.3904901 0.7443943 -1.0340064 0.20838217
0001b0 74 c7 7f 3e 7c 19 0d 3e 85 f1 68 3d 5b e9 6e 3f
       0.24978429 0.13779253 0.056870956 0.9332482
0001c0 a7 86 b8 3f e5 e1 4b 3e a4 80 0b 3e 92 d5 93 be
       1.4416093 0.1991039 0.13623291 -0.2887388
0001d0 0f 31 99 bf 58 39 fd 3e ba c7 27 3e 96 50 d7 3e
       -1.1968096 0.49457812 0.16384783 0.4205367
0001e0 5a 1b 8a bf e8 05 84 3e 6e 60 75 be d3 b1 10 bf
       -1.0789597 0.25785756 -0.23962566 -0.5652134
0001f0 b8 da bf be 41 5a 2a 3d d1 ce d5 3e 3e e0 19 3d
       -0.37471557 0.04158998 0.4175935 0.03756737

action_model._discrete_distribution.branches.0.bias f4 [4]
000000 9a 0c 83 40 42 9d fc bf 21 ac 3a c0 84 04 19 bf
       4.0952883 -1.9735491 -2.916756 -0.59772515

onnx::LSTM_98 f4 [1, 128, 64]
000000 7e 82 77 be b2 28 e2 bc cb f2 da 3d ec 52 00 be
       -0.24170873 -0.027607296 0.1069084 -0.12531632
000010 db a7 3c 3e 9c ae 5c 3e 6a bd a6 3d 6e 56 04 3e
       0.18423407 0.21550983 0.081415966 0.12923595
000020 b3 8d cb bd 60 35 f1 bd 10 44 37 bd 43 21 81 3d
       -0.09939136 -0.117777586 -0.044742644 0.06305172
000030 46 74 03 be bb 5e 00 3e b9 49 00 be 25 d6 f3 3d
       -0.12837324 0.12536137 -0.12528123 0.11906079
000040 c1 aa a8 3e 72 7c 8d bd 82 a3 3a be d7 b1 0b 3e
       0.32942775 -0.06908502 -0.18226436 0.1364206
000050 3a 21 05 3f 40 5f 33 3e d5 ba 82 bd 0f 3b aa 3e
       0.52003825 0.17516804 -0.06383292 0.33248183
000060 0d c3 56 3d 29 83 c6 3d 54 f2 9d 3d d9 c2 91 bd
       0.05243211 0.096929856 0.07712236 -0.07117242
000070 72 a5 bd 3d ea 5a 63 be e5 3c 2f 3f ad c8 0d 3f
       0.09260072 -0.2220265 0.6845229 0.5538433
000080 e2 de 40 3e 90 bc 8f be dd e0 4e bd 79 13 81 3c
       0.18835023 -0.2807355 -0.050507415 0.015756356
000090 bc 93 90 bc fd 22 2b 3e 3e 4d 96 3d fa f2 4d 3e
       -0.01764857 0.16712566 0.073389515 0.2011222
0000a0 44 bd ab 3d ca 16 98 bc 2e cc 8f 3e 9a 72 7b bc
       0.08385709 -0.018565554 0.28085464 -0.015347147
0000b0 ea 6b 06 3e 00 00 3e 3e f7 80 47 3e 3e 4d 55 3e
       0.13127103 0.18554688 0.1948279 0.20830247
0000c0 54 46 c7 bb 08 c4 8a 3e b3 fa 45 bd 6e 4b 0f be
       -0.006081382 0.27102685 -0.04833479 -0.13993618
0000d0 c4 66 68 3c 5d 26 f4 3d 46 96 c2 3d 1c ec 60 3e
       0.0141846575 0.1192138 0.09501319 0.21965069
0000e0 b2 69 1d 3e bc a0 bd bd e0 c6 d2 bd 85 f0 0e 3e
       0.15372351 -0.09259173 -0.10291839 0.13958938
0000f0 24 c6 73 3e d9 90 5e 3d 18 a7 9e 3e 50 e5 b0 3e
       0.23806053 0.054337356 0.30986857 0.34549952
000100 dc 9c c1 3e b2 e8 94 3e 75 1a 2b 3e 3b 1c 42 3e
       0.37814987 0.29083782 0.16709311 0.18956082
000110 6b 72 e7 3d f6 72 d3 3d b4 04 66 bd 59 58 a7 be
       0.1130112 0.103246614 -0.05615683 -0.3268459
000120 0a 65 41 3d 50 b1 e9 3e 57 7f ed bd 1e df 92 3d
       0.0472155 0.4564309 -0.11596554 0.071714625
000130 c7 fc 05 3e 3c f3 14 be 2e f1 64 3d cb cc 59 be
       0.13084708 -0.14545912 0.05589407 -0.21269529
000140 a7 ef 96 3e 39 47 3d bb 9a 5f 05 3e f9 fe 8e be
       0.29479715 -0.0028881563 0.1302475 -0.27928904
000150 34 8f 4b be 86 64 79 3e a2 4b 80 3d 3f ba e8 3e
       -0.19878846 0.24354753 0.06264426 0.45454594
000160 35 bb 08 bf b8 07 7c 3d b6 23 01 3e e2 e2 c7 bc
       -0.53410655 0.0615308 0.12611279 -0.024400178
000170 1f e7 ed 3c ae bb 8e be ad 8c 9d be 57 66 9e be
       0.029040871 -0.27877563 -0.3077139 -0.30937454
000180 8f 2f 63 bd 69 2c 2d 3d 63 ff 46 ba 90 26 71 3e
       -0.055465277 0.04227868 -0.0007591156 0.23549867
000190 d3 07 51 3d 98 0d 2c 3e 8b 25 12 be e9 6d 9b be
       0.051032852 0.1680206 -0.14272134 -0.30357292
0001a0 95 0c 2d be ab 48 94 bd 09 d8 db 3d da e7 80 3d
       -0.16899331 -0.07240423 0.10734565 0.06294222
0001b0 af 18 6b be 05 d1 9b 3c 22 37 67 be 86 b9 3d bd
       -0.22958635 0.019020567 -0.22579625 -0.046319507
0001c0 59 56 b2 be 82 f6 59 3e 5e 33 46 be 90 7d 5b 3e
       -0.34831503 0.21285442 -0.19355533 0.21434617
0001d0 1c 80 8b be 49 fe 9e 3d 47 4f 60 be 06 05 5b bc
       -0.27246177 0.07763345 -0.21905242 -0.013367897
0001e0 fe 01 dc bd e0 2e 58 3e 52 b0 19 be 44 0c 02 3e
       -0.107425675 0.21111631 -0.15008667 0.12699991
0001f0 70 12 f3 3c 0b a5 81 bd 36 ba 08 be 3b 89 fd bd
       0.029671878 -0.063303076 -0.13352284 -0.1237969
000200 8d cd af 3c 48 ee 82 be 83 22 cf 3e 62 58 b2 3e
       0.021460319 -0.2557242 0.40456018 0.34833056
000210 47 50 16 3e 71 a8 76 3e e1 9d af bd 00 58 5d 3e
       0.14679061 0.24087693 -0.08575035 0.216156
000220 3c 5e 56 3e 9d 34 a2 3d fa 80 d1 be 80 88 d5 3c
       0.20934385 0.079201914 -0.40918714 0.026066065
000230 50 34 f6 3d 75 07 36 3e 0d 53 a8 3e 5d e3 dc bd
       0.120216966 0.17776282 0.32875863 -0.107855536
000240 b9 c1 c0 3d 52 dc 9e 3d 62 4f a0 3e d8 66 5c 3d
       0.0941195 0.077568665 0.31310564 0.053809017
000250 34 3a c4 3e 38 24 ec 3d c4 2b 34 bd e2 06 e5 3e
       0.38325655 0.11530346 -0.04398705 0.44731814
000260 e6 62 86 bd 94 ad e4 3e 95 8e c9 3d 14 f4 ee be
       -0.06561832 0.4466368 0.098416485 -0.46670592
000270 b7 95 1a be 2c c3 81 3d 12 38 af 3c 98 cf 4e 3e
       -0.15096174 0.06336054 0.021389041 0.20196378
000280 f5 f4 85 3d a1 b4 f7 3e bd 50 eb 3e 58 ad f4 3d
       0.065408625 0.48379996 0.45960036 0.11947125
000290 6f 3d 22 3e ff d2 8f be 3b 3c 15 be 3d 8f 74 3e
       0.15843748 -0.28090665 -0.14573757 0.23882766
0002a0 0a 59 8a 3e fd b2 a6 be 07 3a 70 3e 3b a8 4d bd
       0.27021056 -0.32558432 0.23459636 -0.050209265
0002b0 4c 19 c2 bd 2a 99 e3 3d 90 50 a1 3e ef f7 63 bc
       -0.09477481 0.11113198 0.31506777 -0.013914092
0002c0 67 a6 d0 bd b5 6d 97 3e 22 9f df bd 64 a2 cf 3e
       -0.10187989 0.29575887 -0.10919024 0.40553582
0002d0 62 6d 19 be 94 21 32 bc 31 a7 8b 3e 81 ce 07 3e
       -0.14983132 -0.010872263 0.27275994 0.13262369
0002e0 27 ce 11 3e c2 a6 d1 bd f4 61 05 3e 7a f1 31 3d
       0.14238797 -0.10236885 0.13025647 0.04344318
0002f0 21 6f c8 3d 6e fe 5c bd bb 67 bf 3e d5 d3 d5 3e
       0.09786821 -0.05395358 0.37383828 0.41763178
000300 87 ef 6a bc d5 42 28 be f9 7d 3a be 70 6c 4e bd
       -0.014339334 -0.16431744 -0.18212117 -0.050396383
000310 e9 9f 1d be 3d 27 5d ba 05 7e 40 be 69 70 46 3e
       -0.15393032 -0.0008436328 -0.18798073 0.19378819
000320 35 b7 53 3e 03 16 15 3e f0 ac c9 3e 79 e0 77 bd
       0.20675357 0.14559178 0.39389753 -0.06051681
000330 cf c5 5d 3e da 47 25 be 4e e5 ac be bc c4 38 bd
       0.21657489 -0.1614069 -0.33768696 -0.045109496
000340 95 b5 a9 be e4 2f 67 be d8 86 2d 3e de 9d 3f 3e
       -0.3314635 -0.22576863 0.1694597 0.18712565
000350 fa 09 90 3d dd 15 b6 3d af ba e8 3d c5 bd a9 3e
       0.07033153 0.08890889 0.11363732 0.33152595
000360 ad 77 aa 3e 60 80 71 3d 67 dd ab be 29 7d 64 be
       0.3329443 0.05896032 -0.33567354 -0.2231337
000370 1f af b6 bc 0a 48 14 3f 1e 9a bd 3a 49 17 d0 3e
       -0.022300301 0.5792242 0.0014465486 0.40642765
000380 35 43 15 3e e3 3f 0f be 93 b5 dc 3e 7b d8 3e 3d
       0.14576419 -0.13989215 0.4310728 0.04659317
000390 76 6b 83 3a 98 d2 84 3d 31 53 7a 3d 7e 2b bf 3d
       0.0010026533 0.0648548 0.061114494 0.09334467
0003a0 c1 14 20 3e 1f 5a 64 3e 72 ea 12 bd c1 64 b6 3d
       0.15632917 0.22300003 -0.035868116 0.08905936
0003b0 b8 29 28 3d b5 29 39 bd cb b9 d1 3d 4c fe c3 bc
       0.04105541 -0.04520579 0.10240515 -0.02392497
0003c0 5c d4 a0 bc 55 4c cd bc 36 84 1e 3e 38 e8 99 be
       -0.01963251 -0.025060812 0.15480122 -0.3005998
0003d0 77 60 17 be 25 14 4b 3e 83 ec 29 3e 1f cd 43 bd
       -0.14782892 0.19831903 0.16594128 -0.04780304
0003e0 02 b0 df 3d 42 8f b3 3e 10 d8 db bc af 7e 17 3d
       0.10922243 0.35070235 -0.026836425 0.03698605
0003f0 aa 55 3e 3e 42 8f c8 3d c9 0f 76 3d 1f da 42 be
       0.18587366 0.09792949 0.060073648 -0.19028519

onnx::LSTM_99 f4 [1, 128, 32]
000000 32 e9 da 3d 02 1c 5c 3d 45 d5 ff bd 4d 1f 5e be
       0.1068901 0.053737648 -0.1249185 -0.21691628
000010 c4 d8 d3 3e 1d ab a9 3e 8a 12 19 be ba 0c d3 be
       0.41376317 0.33138362 -0.14948478 -0.41220647
000020 81 ea 45 be 85 8b ad 3e 96 af f9 bc 62 1f 22 3d
       -0.19327737 0.33895507 -0.030479234 0.03958071
000030 af 9c 10 ba 92 22 8a be 3d 68 7b bd 57 0a 78 be
       -0.0005516512 -0.269795 -0.061378706 -0.24222694
000040 6c cd 20 3d 33 d0 09 3e 05 a2 94 3e 3f fb 13 bf
       0.039258406 0.13458328 0.2902986 -0.57805246
000050 5e 22 4e bc 22 58 cb be bd 28 1b be 79 a7 7d bc
       -0.012581436 -0.39715677 -0.15152259 -0.015481823
000060 d7 8e 17 bd 04 0c 90 be f9 ce 9d 3d 5f 76 86 be
       -0.037001457 -0.28134167 0.077054925 -0.26262185
000070 26 dd f0 3d a1 f1 ac 3e 82 24 52 3e 95 ee a0 bd
       0.11760931 0.33778098 0.20521739 -0.07858006
000080 9b 78 ff 3b a5 58 33 3d eb 75 48 be fe 2d 1e be
       0.0077963597 0.04378571 -0.19576232 -0.15447232
000090 33 49 ae 3e 68 e0 af bd 13 aa a0 3d 1d 81 54 be
       0.34040222 -0.08587724 0.07844939 -0.20752378
0000a0 7c cb 16 bc bb 22 60 3e 41 83 97 3d c0 e5 23 3e
       -0.009203788 0.21888249 0.073980816 0.16005611
0000b0 02 59 dc bd b4 4f 82 bd 26 ba 88 3e 9f 2d a6 3e
       -0.107591644 -0.063628584 0.2670452 0.3245668
0000c0 96 5e a9 3d b6 7c a1 3e 5a 45 9b be ff cb 76 be
       0.08269994 0.3154046 -0.3032635 -0.24101256
0000d0 f6 8d a3 3e 63 68 70 bd 6f 3c b6 3e f7 09 c6 3d
       0.31944245 -0.0586933 0.35592982 0.096698694
0000e0 12 70 1d 3c c4 c8 b6 3c 9e 82 9b be 5b 1f c6 bc
       0.009609239 0.02231253 -0.3037309 -0.024184873
0000f0 5e ad 9f be 7c 00 8f be 9f d7 99 3e 46 97 e1 be
       -0.31186956 -0.27930057 0.30047318 -0.44060725
000100 a8 43 a4 3e 51 a8 0c bf 1a e3 b5 be 6a 52 2d 3d
       0.32082868 -0.5494433 -0.35524827 0.042314924
000110 7b 93 b6 be db 26 ce bd d7 b9 22 bd 1a 8c bf 3e
       -0.35659394 -0.10066005 -0.039728012 0.37411577
000120 70 cd c3 bd 81 ef 89 3d b7 e9 91 bc d5 fc 1c 3d
       -0.095606685 0.06735135 -0.01781164 0.038327057
000130 34 00 2e be 07 21 3e be c1 27 8d 3d 2a 79 da 3e
       -0.16992265 -0.18567286 0.06892348 0.42670566
000140 f7 95 4f 3e 7e 23 30 bf 87 02 d5 3e 89 cf be bd
       0.20272051 -0.68804157 0.4160349 -0.09316928
000150 ab c5 6a bd fa 1d 46 be f1 43 3f be 38 fb 66 bc
       -0.057317417 -0.19347373 -0.18678261 -0.014097981
000160 53 40 d3 3e a8 81 86 be 4b 02 85 be e7 41 e6 3e
       0.41260013 -0.26270795 -0.25978312 0.44972154
000170 5b f6 e1 3d a9 48 b3 3c 15 5d bd be 9c 18 86 3d
       0.11033317 0.021885233 -0.36985078 0.065476626
000180 31 fd 16 3d 60 b3 c6 3e 89 61 12 be 42 f3 0e 3d
       0.036862556 0.38808727 -0.14295019 0.034899957
000190 e4 43 14 3e 36 34 8d 3e 7f 22 8c bd f9 ea 2c be
       0.14479023 0.27578896 -0.06842517 -0.1688651
0001a0 a8 73 97 3b e4 f0 30 3e 40 f6 6f 3e fc 35 ce be
       0.0046219416 0.17279392 0.2343378 -0.40275562
0001b0 f8 b8 55 3c 54 5a 2f be 06 95 50 be 48 0e 56 be
       0.013044588 -0.17124301 -0.20369348 -0.20903885
0001c0 8b e8 02 3e 27 a4 85 bd d6 0d 75 3e 99 78 bc 3d
       0.1278402 -0.0652545 0.23931059 0.0920269
0001d0 9e bb 90 be bf 0a 52 3e 46 79 e9 bd 49 5a ed 3c
       -0.2826814 0.20511912 -0.11400084 0.028973715
0001e0 b4 1c d0 3e 6d f5 0a 3e a7 09 d0 3d 65 14 12 be
       0.406469 0.13570185 0.10158091 -0.14265592
0001f0 99 86 16 bd 7e 9b bc bd 4b 1c 4c 3e 59 ea 2c 3e
       -0.036749456 -0.09209345 0.19932668 0.16886272
000200 b5 5b de 3c 44 e0 93 3d 55 6a 46 3d 45 00 5d 3e
       0.027143339 0.0722051 0.04844125 0.21582134
000210 ee 8e 87 bc fe fe ba 3d 31 2a 12 bd 02 3c 03 be
       -0.016547646 0.09130667 -0.035684768 -0.1281586
000220 9d 1c 7e bd 41 49 cb 3b a0 3f 26 be 3f b8 4e 3e
       -0.062039007 0.006203801 -0.16235209 0.20187472
000230 b4 c0 f8 3e 2b da 09 be 2b a0 6c be 0c 03 6f be
       0.4858452 -0.1346213 -0.23107974 -0.23341006
000240 a5 87 3b 3e f8 73 07 be b0 c6 fb bd 3e f1 9d 3e
       0.18313463 -0.13227832 -0.12293756 0.30848116
000250 7a 4c 8d be a7 79 cb 3e e0 5f ac 3c e7 c2 5e 3d
       -0.2759741 0.3974125 0.02104181 0.054385092
000260 31 40 03 bf 8e d9 31 3e 9b 09 73 bd b5 a8 ad 3d
       -0.51269823 0.17368147 -0.059335332 0.08479444
000270 8c a5 8e 3e 33 39 eb 3e ff 83 82 be 78 74 07 3f
       0.27860677 0.45942077 -0.2549133 0.5291209
000280 82 71 8a be 2e af 53 be 25 4a 63 3d 26 3b e4 3c
       -0.27039725 -0.20672294 0.05549063 0.027860235
000290 95 4a fd bd e9 bc e6 bd 6d 8f 95 bd ee 7d af bd
       -0.12367741 -0.112665005 -0.07302747 -0.08568941
0002a0 49 49 b1 3d 94 77 c9 be 90 d2 00 3f 13 27 ec 3e
       0.08656556 -0.39349043 0.5032129 0.4612356
0002b0 c5 0b a7 bc f7 cc a2 be 87 ef c2 3e c3 76 5d 3e
       -0.020391354 -0.31797 0.3807337 0.21627335
0002c0 05 6e 91 3e b4 b3 8c be a5 29 cc be 3b a7 32 3e
       0.2840425 -0.27480853 -0.39875522 0.17446606
0002d0 57 8d 1b be 80 cb 2d bc 29 d9 1f 3c 1d 7f 8c bd
       -0.15190636 -0.0106076 0.009756365 -0.068601824
0002e0 d5 41 71 3e 84 e1 98 bd 09 3b ba 3d 69 75 31 bd
       0.23560269 -0.07464889 0.09093291 -0.04332486
0002f0 77 5c 6b be 5e fd e6 be 7e c8 8d be 7f d3 09 bd
       -0.22984491 -0.4511518 -0.27692026 -0.033648964
000300 12 5f 73 be ac 31 a9 3e e3 7e 00 3f ab 57 2e 3e
       -0.23766735 0.3304571 0.50193614 0.1702563
000310 f2 02 e1 39 dc 72 03 3e b7 1e af be 2c f8 b7 be
       0.0004291754 0.12836784 -0.3420312 -0.35931528
000320 64 dd e3 3e 0a 71 6e be d4 05 c8 be f6 83 37 3e
       0.44504845 -0.23285308 -0.39066947 0.17921433
000330 59 53 78 be 4d f0 e6 3d 47 1c bc 3e b1 60 8e be
       -0.24250545 0.112763025 0.36740324 -0.27808145
000340 57 1d a7 be 9a 3e b1 3d 8f 29 f0 bd 72 8a bd be
       -0.32639572 0.086545184 -0.11726677 -0.37019688
000350 d1 a8 7b bd 36 29 06 3e d0 fd dc be 55 45 b8 be
       -0.061440293 0.13101658 -0.43162394 -0.35990396
000360 14 63 49 be ad 55 56 3e ef 18 c5 be 7d 9b 15 3d
       -0.19666702 0.2093112 -0.38495585 0.03652524
000370 6e 44 81 be e8 63 c9 be 4c 3f 04 3e 9c be b8 3e
       -0.2524752 -0.39334035 0.12914771 0.36082923
000380 a4 c1 bc 3e 98 f7 da 3d db 13 ae 3d 6c 82 ae bd
       0.36866486 0.10691756 0.08499881 -0.0852097
000390 a6 66 cf 3e 25 6d 4d bd d9 6e a3 bd 10 54 95 3d
       0.40508002 -0.050152916 -0.07980127 0.07291424
0003a0 79 51 11 be bb 0e e7 3d a6 4d ab be e8 57 7f 3e
       -0.14191236 0.112821065 -0.3345768 0.24935877
0003b0 ed a7 20 3e 79 80 06 3f ff e8 b5 3d b6 a1 00 3d
       0.15689059 0.52539784 0.08882331 0.03140422
0003c0 c2 83 7e 3e c1 6d 9b 3c 21 9e c4 3d b9 73 ac bd
       0.24854949 0.018973233 0.09600473 -0.0842051
0003d0 79 4d 34 be ee d4 44 bd 10 71 85 3e 72 f3 88 3c
       -0.17607678 -0.048054628 0.26062822 0.016717646
0003e0 26 dc 6e be cf 94 66 bd 14 b3 26 3e 5d 0b 58 be
       -0.23326167 -0.05629426 0.1627925 -0.21098085
0003f0 5d 95 79 bd 2c c0 89 3e cf 78 80 be 3e 93 63 bd
       -0.06093346 0.26904428 -0.2509217 -0.055560343

onnx::LSTM_100 f4 [1, 256]
000000 fd d3 f5 3d 85 69 d3 3d 5c 6e 0d bd e0 25 04 3e
       0.12003324 0.10322861 -0.034529075 0.12905073
000010 a3 24 15 ba 5a b4 16 3d 45 9a 93 3e 5f 33 2c 3e
       -0.0005689358 0.03679309 0.28828636 0.16816472
000020 40 48 c0 3e b1 b6 b3 3d 24 ec 90 3e a2 ff 13 3e
       0.37555122 0.0877508 0.2830516 0.14452985
000030 01 d6 a6 bd 28 df 85 3d 40 c5 50 3e 4f f1 5b be
       -0.08146287 0.06536704 0.20387745 -0.2147877
000040 e6 5a 82 3e 7c e0 3d 3e 58 52 8f 3d c0 8e 84 bc
       0.25459975 0.18542665 0.06998128 -0.01618135
000050 4f d0 88 3d 42 46 f0 3b dd 12 19 be 1a 30 b4 3d
       0.06680357 0.007332594 -0.14948602 0.08798237
000060 c3 2a 63 be fe 76 9d 3d 5f 16 32 3d 04 3b c5 3d
       -0.22184281 0.076887116 0.043478366 0.09630397
000070 5b 7e 95 bd e9 2d ac 3c 72 f8 8f 3d 6a 2e 8b 3d
       -0.07299491 0.021017985 0.07029809 0.06795962
000080 6f a3 0d 3e 48 6f 9f 3e 17 9f 62 3d 2c 54 b6 bc
       0.13831876 0.31139588 0.0553275 -0.022256933
000090 c4 56 84 3e 47 d2 60 3e 15 f3 42 3e b6 50 23 3e
       0.25847447 0.21955214 0.19038041 0.15948758
0000a0 e9 d6 05 3e 2e a5 95 3e 62 e1 52 be f9 00 14 3d
       0.13070263 0.29227585 -0.20593789 0.03613374
0000b0 36 90 85 3e 6c da 10 bd 22 d8 a4 bd 38 7d 02 be
       0.26086587 -0.035364553 -0.080490366 -0.1274308
0000c0 48 39 ea 3e e8 50 d3 3e 87 18 a8 3d 24 9d 98 3d
       0.45746827 0.41272664 0.08207803 0.07451847
0000d0 19 80 cc bd 21 f7 fd 3c b6 d6 1f 3e 6f 6a 9a be
       -0.0998537 0.03100163 0.1560925 -0.30159327
0000e0 2e bd 7e be 02 77 46 bd 10 6e 87 3e a3 67 03 3e
       -0.24876854 -0.04845334 0.2645116 0.12832503
0000f0 2f 77 ac 3e f9 ba de 3d 84 0e c5 3d 5d 15 24 3e
       0.3368468 0.10875506 0.09621909 0.16023774
000100 67 ef 8e 3f a1 6a 93 3f cb 7e 78 3f 91 36 86 3f
       1.116681 1.1516916 0.9706847 1.0485402
000110 a1 ca 81 3f 39 43 39 3f ec e8 76 3f 48 4d 9a 3f
       1.0139962 0.723682 0.9644916 1.2054834
000120 28 5f 85 3f 45 c5 6c 3f ba 74 78 3f 79 ac 81 3f
       1.0419664 0.9248851 0.9705311 1.013076
000130 96 8d 64 3f 5a 30 22 3f 4c e9 8f 3f f0 06 5e 3f
       0.89278543 0.6335503 1.1243072 0.86729336
000140 8d aa 47 3f 99 c1 4a 3f 6c 49 87 3f 3d 02 39 3f
       0.77994615 0.79201657 1.0569282 0.7226904
000150 52 0d 7c 3f 51 b5 76 3f f9 48 74 3f 95 54 81 3f
       0.98457825 0.96370417 0.9542385 1.0103937
000160 6f 8b 5e 3f 34 52 33 3f 51 86 9b 3f e8 6d 7d 3f
       0.8693151 0.70047307 1.2150365 0.9899583
000170 61 5d 5d 3f fd 58 8e 3f 62 dc 89 3f a4 f9 88 3f
       0.8647061 1.1120907 1.077038 1.0701184
000180 9e 0b 0d 3e 61 2c 8f 3e b5 aa c6 3d 58 09 23 be
       0.13773963 0.27963546 0.097005285 -0.15921533
000190 21 64 a2 bc 49 5f 31 3e 67 8d 7e 3e 56 08 7a bd
       -0.019823136 0.17321505 0.24858628 -0.061043106
0001a0 5a 0d 08 be ec 1d 24 3e 6d 1d 90 be d0 62 7a bd
       -0.13286343 0.1602704 -0.2814745 -0.06112939
0001b0 72 2a 3d bb 77 1d 1b 3d 0c 8e 90 bd 65 b4 27 be
       -0.002886441 0.037869897 -0.07058343 -0.16377409
0001c0 8d f2 75 3e b2 cf f4 3d 6b 6d cf bd 7a c2 6b 3e
       0.24018307 0.11953677 -0.10128292 0.23023406
0001d0 01 9f e1 bc fb 37 9c 3d cd 40 22 bd ad 3a aa 3e
       -0.02754164 0.07627865 -0.03961258 0.3324789
0001e0 2f 38 63 3d ce d7 20 3e 2a 09 70 3d 9d 43 11 bd
       0.055473503 0.15707323 0.05860249 -0.03546487
0001f0 f1 e6 57 be c8 5b 52 3e 9c 49 08 3b 86 5b 16 3b
       -0.21084191 0.20542824 0.0020795828 0.0022942736
000200 fd d3 f5 3d 85 69 d3 3d 5c 6e 0d bd e0 25 04 3e
       0.12003324 0.10322861 -0.034529075 0.12905073
000210 a3 24 15 ba 5a b4 16 3d 45 9a 93 3e 5f 33 2c 3e
       -0.0005689358 0.03679309 0.28828636 0.16816472
000220 40 48 c0 3e b1 b6 b3 3d 24 ec 90 3e a2 ff 13 3e
       0.37555122 0.0877508 0.2830516 0.14452985
000230 01 d6 a6 bd 28 df 85 3d 40 c5 50 3e 4f f1 5b be
       -0.08146287 0.06536704 0.20387745 -0.2147877
000240 e6 5a 82 3e 7c e0 3d 3e 58 52 8f 3d c0 8e 84 bc
       0.25459975 0.18542665 0.06998128 -0.01618135
000250 4f d0 88 3d 42 46 f0 3b dd 12 19 be 1a 30 b4 3d
       0.06680357 0.007332594 -0.14948602 0.08798237
000260 c3 2a 63 be fe 76 9d 3d 5f 16 32 3d 04 3b c5 3d
       -0.22184281 0.076887116 0.043478366 0.09630397
000270 5b 7e 95 bd e9 2d ac 3c 72 f8 8f 3d 6a 2e 8b 3d
       -0.07299491 0.021017985 0.07029809 0.06795962
000280 6f a3 0d 3e 48 6f 9f 3e 17 9f 62 3d 2c 54 b6 bc
       0.13831876 0.31139588 0.0553275 -0.022256933
000290 c4 56 84 3e 47 d2 60 3e 15 f3 42 3e b6 50 23 3e
       0.25847447 0.21955214 0.19038041 0.15948758
0002a0 e9 d6 05 3e 2e a5 95 3e 62 e1 52 be f9 00 14 3d
       0.13070263 0.29227585 -0.20593789 0.03613374
0002b0 36 90 85 3e 6c da 10 bd 22 d8 a4 bd 38 7d 02 be
       0.26086587 -0.035364553 -0.080490366 -0.1274308
0002c0 48 39 ea 3e e8 50 d3 3e 87 18 a8 3d 24 9d 98 3d
       0.45746827 0.41272664 0.08207803 0.07451847
0002d0 19 80 cc bd 21 f7 fd 3c b6 d6 1f 3e 6f 6a 9a be
       -0.0998537 0.03100163 0.1560925 -0.30159327
0002e0 2e bd 7e be 02 77 46 bd 10 6e 87 3e a3 67 03 3e
       -0.24876854 -0.04845334 0.2645116 0.12832503
0002f0 2f 77 ac 3e f9 ba de 3d 84 0e c5 3d 5d 15 24 3e
       0.3368468 0.10875506 0.09621909 0.16023774
000300 67 ef 8e 3f a1 6a 93 3f cb 7e 78 3f 91 36 86 3f
       1.116681 1.1516916 0.9706847 1.0485402
000310 a1 ca 81 3f 39 43 39 3f ec e8 76 3f 48 4d 9a 3f
       1.0139962 0.723682 0.9644916 1.2054834
000320 28 5f 85 3f 45 c5 6c 3f ba 74 78 3f 79 ac 81 3f
       1.0419664 0.9248851 0.9705311 1.013076
000330 96 8d 64 3f 5a 30 22 3f 4c e9 8f 3f f0 06 5e 3f
       0.89278543 0.6335503 1.1243072 0.86729336
000340 8d aa 47 3f 99 c1 4a 3f 6c 49 87 3f 3d 02 39 3f
       0.77994615 0.79201657 1.0569282 0.7226904
000350 52 0d 7c 3f 51 b5 76 3f f9 48 74 3f 95 54 81 3f
       0.98457825 0.96370417 0.9542385 1.0103937
000360 6f 8b 5e 3f 34 52 33 3f 51 86 9b 3f e8 6d 7d 3f
       0.8693151 0.70047307 1.2150365 0.9899583
000370 61 5d 5d 3f fd 58 8e 3f 62 dc 89 3f a4 f9 88 3f
       0.8647061 1.1120907 1.077038 1.0701184
000380 9e 0b 0d 3e 61 2c 8f 3e b5 aa c6 3d 58 09 23 be
       0.13773963 0.27963546 0.097005285 -0.15921533
000390 21 64 a2 bc 49 5f 31 3e 67 8d 7e 3e 56 08 7a bd
       -0.019823136 0.17321505 0.24858628 -0.061043106
0003a0 5a 0d 08 be ec 1d 24 3e 6d 1d 90 be d0 62 7a bd
       -0.13286343 0.1602704 -0.2814745 -0.06112939
0003b0 72 2a 3d bb 77 1d 1b 3d 0c 8e 90 bd 65 b4 27 be
       -0.002886441 0.037869897 -0.07058343 -0.16377409
0003c0 8d f2 75 3e b2 cf f4 3d 6b 6d cf bd 7a c2 6b 3e
       0.24018307 0.11953677 -0.10128292 0.23023406
0003d0 01 9f e1 bc fb 37 9c 3d cd 40 22 bd ad 3a aa 3e
       -0.02754164 0.07627865 -0.03961258 0.3324789
0003e0 2f 38 63 3d ce d7 20 3e 2a 09 70 3d 9d 43 11 bd
       0.055473503 0.15707323 0.05860249 -0.03546487
0003f0 f1 e6 57 be c8 5b 52 3e 9c 49 08 3b 86 5b 16 3b
       -0.21084191 0.20542824 0.0020795828 0.0022942736
